results/ppo/AgentBehaviour.onnx (onnx, 72154 bytes, 9 tensors)

action_model._discrete_distribution.branches.0.bias f4 [2]
000000 00 00 00 00 00 00 00 00
       0.0 0.0

action_model._discrete_distribution.branches.0.weight f4 [2, 128]
000000 1a 14 60 3c 82 fd 75 bb f9 f0 26 bb 88 66 b5 bb
       0.013676668 -0.0037535136 -0.002547322 -0.0055359043
000010 67 c0 98 3c a3 fa 6d 3c ba d2 80 3a 0d a7 6f 3b
       0.018646432 0.0145250885 0.0009828426 0.0036568076
000020 43 e2 ea 3b b6 3b 31 3a 1b ce a8 bc 3f ab 61 bc
       0.007168086 0.0006760912 -0.020606091 -0.013773738
000030 46 c9 46 3b 76 d1 06 3b d9 f2 91 bb eb 7d 84 bc
       0.003033237 0.0020571626 -0.0044539985 -0.016173324
000040 af f5 4f bc 58 48 e3 bb 73 66 12 bb 6e 08 29 bb
       -0.012692853 -0.0069361143 -0.0022338897 -0.0025792378
000050 1f 01 14 3c 92 37 f7 bb e1 e4 85 3b bb 06 0d 3a
       0.00903347 -0.0075444663 0.0040861224 0.0005379726
000060 50 ac 99 3c 4b 0b d4 3b 17 96 c5 3b 50 c2 04 3c
       0.018758923 0.006471073 0.006029855 0.008102968
000070 81 9f 11 3c ed 1b 35 3c 37 71 2e bc 74 15 47 b9
       0.008888126 0.011054021 -0.01064711 -0.00018986111
000080 c9 e3 2b bc 4f 70 d6 bb 1f 71 dd bb 0f 4e 25 3b
       -0.01049132 -0.00654415 -0.00675787 0.0025223529
000090 bd d6 b3 3b 10 fd ae 3b d4 3e b8 3b cf 80 31 bc
       0.0054882453 0.005340226 0.005622724 -0.010833933
0000a0 ef c2 9e 3b e5 37 07 3c e6 a4 ba bb 80 bd 2f 3c
       0.0048450152 0.008253072 -0.005695927 0.010726333
0000b0 97 28 53 ba c0 21 10 bb dd c6 69 3b 45 f2 d0 bb
       -0.00080550596 -0.0021992773 0.003567151 -0.006376537
0000c0 04 35 0f 3b da 59 20 bc 98 19 19 3c c3 ad c8 3b
       0.0021851668 -0.009787047 0.009344481 0.0061242296
0000d0 73 0e 81 3b 8d 3a a4 bc 8d 5c bb 3c fd ae f3 3a
       0.00393849 -0.02004745 0.02287128 0.0018591579
0000e0 65 8b 9a 3c f2 9b 95 bb 2f 10 dd bb ff 76 3b 3a
       0.018865297 -0.0045657093 -0.006746314 0.00071512157
0000f0 d8 5d 0e bc 70 2d d6 3b 7f 4e 08 3c d5 74 d7 b7
       -0.008689366 0.0065361783 0.008319496 -2.5684401e-05
000100 23 57 3f ba 8c 73 2f 3c 2a 74 e7 bb 3c 7b 17 bb
       -0.0007299056 0.010708701 -0.0070634084 -0.0023114225
000110 97 50 b0 3b 8e 06 95 3b 37 52 cc bb f4 92 11 bc
       0.005380701 0.0045479005 -0.0062353867 -0.008885134
000120 b3 20 0a bb ff a3 09 3c 75 6b 60 3c 52 bc 56 b9
       -0.002107662 0.008400916 0.013697495 -0.00020478785
000130 cd 44 c7 3b e6 ab b6 3a 92 de f2 3b f7 c5 5a 3b
       0.0060811997 0.0013936728 0.0074117864 0.0033382156
000140 e7 a0 bd 3b 7b fa 8d bb df 47 90 bc 06 6f b3 3c
       0.0057870033 -0.004332838 -0.017612396 0.021903526
000150 b0 87 e5 ba 66 07 1c 3c 3f 38 18 bc eb 20 e2 3b
       -0.0017511752 0.009523248 -0.009290754 0.006900897
000160 22 bb 3a 3c 8c 17 48 bc 4e 97 09 bc 90 ed 3f 3b
       0.011397155 -0.012212645 -0.00839789 0.0029285885
000170 11 8f c0 ba 17 f0 f3 ba f5 82 54 bb b0 0c e7 bb
       -0.0014691075 -0.0018610981 -0.003242669 -0.007051073
000180 20 fc d0 3b 5e 1a 00 3b 3a 31 ef bb 6f 71 b8 3b
       0.006377712 0.0019546966 -0.0072995694 0.0056287567
000190 0d ff 6b 3c b3 af 81 bc 28 63 f9 3a cf a1 1d bc
       0.014404071 -0.01583085 0.0019026743 -0.009621098
0001a0 db 2f 12 3b 11 4b 24 bc 25 f3 70 bc 1b 4d 74 bc
       0.0022306356 -0.010027663 -0.014706408 -0.0149109615
0001b0 26 06 0f ba b8 05 63 3b 4f 4b 03 3c 23 53 e1 ba
       -0.0005455933 0.003464086 0.00801356 -0.0017190914
0001c0 32 87 36 3c f8 eb e1 3c 68 b4 6c bb 6d 3c 36 bc
       0.0111406315 0.027578339 -0.0036118273 -0.011122805
0001d0 3c 11 3f 3c e2 3e 65 bb e1 b7 45 bc f3 9e 63 3c
       0.011661824 -0.0034980108 -0.012067766 0.013892877
0001e0 f2 4d 92 bc 5f 06 69 bc d8 64 07 bc 0a d1 10 3c
       -0.017859433 -0.01422271 -0.008263789 0.008838901
0001f0 80 15 14 3c c3 f0 7a 3b 7b 06 63 3a f4 ac 9a 3a
       0.009038329 0.0038290478 0.00086603285 0.0011800812
000200 4d 3e 51 3c a8 b6 86 3b fc 01 0a 3b 97 fe ea ba
       0.012771201 0.00411113 0.0021058312 -0.0017928657
000210 4d 21 1b bc 2e b4 3b 3c 3b 01 a0 bb ee 54 08 bc
       -0.009468389 0.011456532 -0.004882959 -0.00832103
000220 8a e2 d4 3b 52 a9 f2 3b 03 23 81 3b 53 a2 ad bb
       0.006496732 0.0074054385 0.0039409413 -0.0052988916
000230 0b f8 f3 ba 1f 17 e2 3b 13 c9 39 3c ec 84 89 bb
       -0.0018613351 0.006899729 0.011339444 -0.0041967537
000240 d3 e8 10 bc e8 e3 d9 bb 16 c9 19 bb 07 30 25 3b
       -0.008844572 -0.006649483 -0.0023465804 0.0025205628
000250 c7 64 1b 3c 3c 61 92 3a b5 ea 3a ba 6b 26 46 3a
       0.009484476 0.0011167894 -0.0007130311 0.00075588253
000260 6b 7f bc ba 4b 7b c9 3b 40 2f 18 bc 4b d4 0c bb
       -0.0014381235 0.006148731 -0.009288609 -0.002148884
000270 a2 6c f4 bb 93 f1 49 bb e1 52 2e b9 48 4f 56 bc
       -0.007459239 -0.0030814155 -0.00016624808 -0.013080426
000280 bf 2b aa ba ab 84 75 bc a7 29 82 bc 63 3a 03 bc
       -0.0012983008 -0.014985244 -0.015889002 -0.008009526
000290 97 08 94 3b 75 0b 3a 3c 82 49 ad bc ab 92 2a 3c
       0.0045176256 0.011355271 -0.021153215 0.010410945
0002a0 8a c0 b7 bb 97 3b d2 3c 35 45 1b 39 bc 51 49 3c
       -0.0056076692 0.02566318 0.00014807734 0.012287553
0002b0 d9 62 8e 3b 13 07 34 3b 68 06 00 3c 35 20 94 ba
       0.0043452797 0.0027470037 0.007814027 -0.0011301102
0002c0 bd 20 5d bc da 61 da 3b 06 e1 87 b9 73 04 e8 bb
       -0.013496575 0.006664497 -0.00025916862 -0.0070806085
0002d0 d7 bd 19 bc 27 f2 39 bb 97 33 2e 3a 0e 3d 07 3b
       -0.00938364 -0.0028373094 0.0006645261 0.0020635757
0002e0 0f c9 20 bc 78 27 63 bb 38 fc 1b 3b 5a 57 82 3b
       -0.009813561 -0.0034660976 0.0023801457 0.0039776983
0002f0 c7 a4 b9 3b e7 6c ca 3a 17 bd 08 bc 91 a2 0e bc
       0.005665395 0.0015443832 -0.008345864 -0.008705751
000300 f3 b8 9e bc fe b6 4a 3a 9a 53 32 3c 2b dd 64 3c
       -0.0193753 0.00077329564 0.01088419 0.013968746
000310 4f 36 da ba a7 f6 e3 3b 00 ee e1 3b 3f 55 93 3b
       -0.0016648265 0.0069568935 0.006894827 0.004496246
000320 17 9d 20 bb d7 53 ca ba ad 43 ae ba d6 04 8e bb
       -0.0024507695 -0.0015436363 -0.0013295315 -0.0043340726
000330 1b d9 a5 bb da c9 39 bb 5b 9c ea b8 b2 38 85 3b
       -0.0050612814 -0.0028349073 -0.00011187113 0.0040655965
000340 07 c5 a0 3b 30 05 b5 3b 1b 6b 9c bc 49 b6 a2 3b
       0.0049063 0.0055243 -0.01909404 0.0049655777
000350 25 a2 26 3c 2b af 99 bb 13 a0 d5 3a b4 f8 b0 ba
       0.010170494 -0.004690071 0.0016298316 -0.0013501854
000360 3b 33 d6 ba c7 c9 d5 3b 28 83 c1 bb 9d 56 57 3c
       -0.0016342172 0.006524298 -0.0059055276 0.013143209
000370 26 e9 af bb 9c 13 90 3b a3 6f f9 bb 13 f2 45 bc
       -0.0053683696 0.004396869 -0.007612185 -0.012081641
000380 85 e3 63 bc b3 df 65 bc b3 76 d1 bb 5d 8f d5 3b
       -0.013909225 -0.014030385 -0.006392324 0.0065173344
000390 7d ad 61 bc ff ad ae 3b 4b d5 99 3b 48 1f ee 3b
       -0.013774273 0.0053308005 0.004694616 0.0072669126
0003a0 b7 2c ce bb 94 32 9d bb 37 7b 58 bb 9a 0a 72 bb
       -0.0062919515 -0.004797289 -0.0033032426 -0.0036932589
0003b0 a4 b7 02 3c cc 76 11 39 72 b4 63 3b b0 25 65 ba
       0.007978354 0.00013872533 0.0034745005 -0.00087412726
0003c0 4b 79 3f 3a b0 f6 69 3c 6f e3 68 3b a2 39 26 bb
       0.0007304146 0.014280006 0.0035535952 -0.0025363942
0003d0 c2 8c c2 ba d8 31 8f bb 42 7a 6e 3b 81 43 0a 3c
       -0.0014842974 -0.0043699555 0.003638879 0.008438946
0003e0 9f ee f8 ba 19 1c 8e bc a7 c7 00 3c 4e 7c cb 3b
       -0.0018992013 -0.017347382 0.007860101 0.0062098866
0003f0 13 0f c7 bb cf ec 02 bc bf da 1b 3a 07 19 7d 3c
       -0.006074795 -0.00799103 0.00059453765 0.0154478615

action_model._discrete_distribution.branches.1.bias f4 [2]
000000 00 00 00 00 00 00 00 00
       0.0 0.0

action_model._discrete_distribution.branches.1.weight f4 [2, 128]
000000 d3 2b 1b 3c 40 44 cf 3a 40 e1 c2 39 ca 5f c4 bc
       0.009470898 0.0015813187 0.00037170388 -0.023971457
000010 58 b2 09 bb 0d 76 9d ba af 73 1d bb d3 7f 1d 3c
       -0.0021010842 -0.0012013331 -0.0024025252 0.009612995
000020 c5 d0 e6 ba 70 64 c2 3b 93 ca 1b 3c a4 1e 09 3c
       -0.0017609826 0.0059323832 0.009508747 0.008369122
000030 57 20 f9 bb c7 cb 4d bb c0 45 66 3c 12 30 fd ba
       -0.007602732 -0.0031401978 0.014054716 -0.0019316694
000040 88 a1 7a bb 6e 41 9f bb 32 8d b0 bb bc 52 87 ba
       -0.0038243253 -0.0048600947 -0.0053879255 -0.0010324339
000050 f3 6f f8 ba 71 59 bf bb 95 4b 49 bc ac 35 b6 3b
       -0.0018954262 -0.0058395197 -0.012286087 0.0055605974
000060 dd 17 9b 3b c9 2d 91 bb a8 3a b9 3b 7d d8 11 3b
       0.0047330693 -0.004430507 0.0056527443 0.0022254281
000070 0d c8 44 3a d2 fb 2d 3b 63 be 17 bc 2f c5 9e bb
       0.00075066165 0.0026547802 -0.0092617 -0.0048452835
000080 9d 04 27 3b d5 64 55 ba 55 c0 00 bc 9e d1 00 3c
       0.0025484927 -0.00081403303 -0.0078583555 0.007862477
000090 23 fa 36 39 28 34 5b 3c f3 76 b0 ba 05 98 46 b9
       0.00017450056 0.013379134 -0.0013463184 -0.00018939383
0000a0 37 c3 fa 3b 33 28 3d 3b 87 e7 44 3a ab 6c d7 bb
       0.007652666 0.0028863072 0.0007511307 -0.0065742335
0000b0 5b 8c 16 3c ec 65 33 bb 73 fb db ba 57 54 93 3c
       0.009188737 -0.0027373983 -0.0016783312 0.017984552
0000c0 ea 30 69 bc dd d1 79 bb ad 18 64 3b a3 20 8d 3b
       -0.014232853 -0.0038119473 0.0034804747 0.004306869
0000d0 75 03 a3 3a 99 f3 83 b9 20 17 58 3b 8b d2 15 3b
       0.0012436943 -0.00025167761 0.0032972768 0.002286109
0000e0 5f 48 d8 bb 38 9e 67 3a 00 66 0b 3c 3d db c9 3b
       -0.006600424 0.0008835527 0.008508205 0.0061601684
0000f0 d9 2e c9 b9 a7 6d 4a bc f8 3e 4f bb 4f bb 4d bc
       -0.00038372612 -0.012355245 -0.0031623226 -0.012556865
000100 83 e4 89 39 2b a9 2f 3b 43 dd ec 3b 37 dc 87 bc
       0.0002630093 0.0026803713 0.007228525 -0.016584499
000110 6e e4 2c b9 5b 2d 2f 3c 46 d7 8e bb c3 50 69 3b
       -0.00016488295 0.010691966 -0.0043591587 0.0035601116
000120 0a 5f c0 3b 07 a5 1d bb ae 01 8a 3c f0 f4 80 3b
       0.0058707045 -0.0024054663 0.016846504 0.003935449
000130 c5 8b 39 3c 84 89 8c bb af 77 dd 3b 4b fa ad bb
       0.011324828 -0.004288854 0.006758652 -0.0053093783
000140 c2 02 af 3b 70 64 41 3a 26 3a a4 bc ea f6 b5 3c
       0.005340905 0.0007377332 -0.020047259 0.022212464
000150 00 54 5d 3b 88 62 82 3c 09 97 b9 3b 5f 2d 08 3c
       0.0033771992 0.015916124 0.0056637567 0.008311599
000160 1d 2a 6b 3c 8b f3 ad 3b c9 89 29 3a af c2 80 3c
       0.014353302 0.0053085736 0.000646737 0.015717832
000170 1e 8e b9 3c 86 e8 2c bb 2d cd c0 ba b9 be 9d bc
       0.022650775 -0.0026383712 -0.0014709585 -0.019255983
000180 08 a6 0c 3a 76 66 1e 3c 77 ee 68 bc 3b 50 25 3c
       0.0005365317 0.009667983 -0.014217011 0.010089929
000190 63 d6 c2 bb 74 9a 30 bc c7 e8 5c 3b 4b 57 bc 3a
       -0.005945967 -0.010779012 0.0033708082 0.0014369277
0001a0 4d e8 46 bb e8 42 58 3a 1d b5 4a 3b db 4b 2b 3b
       -0.0030350864 0.0008249716 0.0030930706 0.0026137743
0001b0 03 01 8d bc e0 97 54 ba 30 20 8a 3c 9e 40 10 bc
       -0.017212396 -0.00081097893 0.016861051 -0.008804468
0001c0 9e 07 14 bc 3b 66 b8 3b 1b 09 8a 3b 93 0f 18 3c
       -0.009035019 0.005627421 0.0042125112 0.009281057
0001d0 f9 63 a8 3c 44 c2 38 3c 5f 57 52 3c e1 6c 8f bb
       0.020555483 0.011276785 0.012838214 -0.004376993
0001e0 a3 cb 9f 3c 5f b5 15 bb 83 dd 90 bc 6f a1 52 3b
       0.019506281 -0.0022843701 -0.01768375 0.003213968
0001f0 c2 f2 87 3b 5a 15 69 3a 17 eb ed 3b b6 a8 87 3b
       0.004148812 0.0008891426 0.007260691 0.004139985
000200 29 5e 2b bc c7 65 0f bc eb cd 02 bb 8d 95 7f bc
       -0.010459461 -0.008752293 -0.0019959162 -0.0155996205
000210 be fa 1f bc 51 cd 84 3b d7 b0 05 3c 81 3a 07 3b
       -0.009764371 0.004052796 0.008159838 0.0020634236
000220 67 1c 80 3b 3f 34 43 3c 27 67 4b ba 99 48 bb bc
       0.003909636 0.011914312 -0.00077592063 -0.022861766
000230 0d a4 56 39 62 92 7a 3b 64 d1 0b bc ef a2 92 3b
       0.00020469744 0.0038234224 -0.008533809 0.0044749896
000240 38 34 fe 3b 35 d0 0e 3a 57 08 6c ba f7 d4 88 37
       0.00775769 0.00054478954 -0.0009003928 1.6311633e-05
000250 af 6c 11 3c af 37 5e bb 5a d0 29 bb 6f 77 25 ba
       0.00887601 -0.0033907702 -0.002591154 -0.00063120475
000260 52 0c 55 bc e7 86 64 bc 32 11 c8 3c 12 f6 ab bb
       -0.013003426 -0.013948179 0.024422262 -0.0052478397
000270 2b ca 5a 3a fe 91 9c bb f7 e6 0b bc d3 3f 6c bc
       0.00083461654 -0.004778146 -0.008538953 -0.014419514
000280 74 9d a0 3c 87 fe 7b 3b 8e 93 46 3b 6b 03 3c bb
       0.01960633 0.003845127 0.0030300352 -0.002868856
000290 8c 75 9f bb 6a fa 57 bc ca b5 92 ba 07 68 19 ba
       -0.0048663076 -0.013182262 -0.0011193093 -0.0005851988
0002a0 f4 0e 42 bb 6d 84 ff 3a 78 ca 86 bc 4f 1c 51 3c
       -0.0029610964 0.0019494422 -0.016453966 0.012763097
0002b0 07 96 3c 3b 3a f6 9c 3b ef 6c 2c 3c f2 79 66 3c
       0.0028775947 0.0047900947 0.010524019 0.01406716
0002c0 38 73 62 bb ba d8 67 bc d7 c6 e2 3a f5 0f 4e bc
       -0.003455354 -0.014150793 0.001730169 -0.012577047
0002d0 f6 27 14 3a df 8e a3 3a 3a 4d d6 bb 3d fe f5 3b
       0.00056517066 0.0012478492 -0.006539968 0.007507114
0002e0 c8 d0 7b 3b 3f 11 80 39 c6 19 03 3c b0 29 26 bc
       0.0038424004 0.00024426912 0.00800175 -0.010141775
0002f0 f2 78 a7 b9 f4 6f 81 bb 47 25 c2 3a ca a9 73 3c
       -0.00031942833 -0.0039501134 0.0014812135 0.014872024
000300 e6 65 92 bc 72 4e c6 3b 50 c6 d7 bb 3f 5d 5d bc
       -0.017870855 0.006051832 -0.00658492 -0.013511001
000310 5f 55 95 3b 0a 8f 8a 3c 05 68 5d 3c f3 ee f0 b9
       0.004557296 0.01691391 0.01351357 -0.00045954398
000320 d3 da fe 3a 3f 5c 76 3c 84 15 1c bc 13 98 5f bc
       0.0019443877 0.015036642 -0.009526614 -0.013647097
000330 84 e8 0f 3b ba 1a e4 3c 12 b1 15 bb b3 97 f2 3b
       0.0021958658 0.027844775 -0.0022841138 0.007403338
000340 f0 23 65 3a 95 f8 87 bb 46 4a c7 bc 28 df 40 3c
       0.0008741012 -0.0041495063 -0.024327409 0.011771955
000350 2a f1 72 3b c8 99 2c 3b e2 dd 3b 3c 6f a9 0e 3c
       0.0037070015 0.0026336778 0.011466475 0.008707388
000360 e1 3c 8e 3b e6 80 1a 3c b9 57 b3 bb 0d ee 01 3b
       0.0043407534 0.009430146 -0.005473104 0.0019825727
000370 cc 4e 26 bc a5 a5 57 bc 7f 84 88 39 ab 7e 55 3c
       -0.010150623 -0.013162051 0.0002603866 0.013030688
000380 3e f8 0c 3c c2 4a 97 3b cb e4 2e bc 31 f7 05 bc
       0.008604107 0.004617066 -0.010674666 -0.008176611
000390 ed 3d 36 3c 71 69 81 bb b5 59 eb bb 4b f8 b1 3b
       0.011123163 -0.003949337 -0.007182325 0.00543121
0003a0 7d c2 ce 3b 5b 58 d2 ba b7 e6 03 bb 9d 84 00 3c
       0.006309806 -0.001604806 -0.002012653 0.0078441175
0003b0 79 d0 46 bc d3 4c 0f 3a c9 9e a0 b9 b9 34 ac 3b
       -0.012134665 0.0005466465 -0.00030635882 0.0052553085
0003c0 ba 8c 24 bc 43 2b 13 bc 38 37 d4 bb 3b 4c 90 bb
       -0.010043317 -0.008982482 -0.006476309 -0.0044036186
0003d0 23 d8 11 3c ed 85 6e ba c5 c1 61 bb c3 f5 5e bc
       0.008901629 -0.0009098936 -0.003444777 -0.013608399
0003e0 35 8a 3c bb 4a a9 32 ba fc d2 27 39 2d c8 d0 ba
       -0.0028768901 -0.0006815387 0.00016004959 -0.0015928798
0003f0 1b 0f 1f bc 4d 06 4f 3b c5 66 d5 bb 7f 21 2d 3c
       -0.009708191 0.003158945 -0.006512495 0.010567068

discrete_action_output_shape f4 [1, 2]
000000 00 00 00 40 00 00 00 40
       2.0 2.0

network_body._body_endoder.seq_layers.0.bias f4 [128]
000000 00 00 00 00 00 00 00 00 00 00 00 00 00 00 00 00
       0.0 0.0 0.0 0.0
000010 00 00 00 00 00 00 00 00 00 00 00 00 00 00 00 00
       0.0 0.0 0.0 0.0
000020 00 00 00 00 00 00 00 00 00 00 00 00 00 00 00 00
       0.0 0.0 0.0 0.0
000030 00 00 00 00 00 00 00 00 00 00 00 00 00 00 00 00
       0.0 0.0 0.0 0.0
000040 00 00 00 00 00 00 00 00 00 00 00 00 00 00 00 00
       0.0 0.0 0.0 0.0
000050 00 00 00 00 00 00 00 00 00 00 00 00 00 00 00 00
       0.0 0.0 0.0 0.0
000060 00 00 00 00 00 00 00 00 00 00 00 00 00 00 00 00
       0.0 0.0 0.0 0.0
000070 00 00 00 00 00 00 00 00 00 00 00 00 00 00 00 00
       0.0 0.0 0.0 0.0
000080 00 00 00 00 00 00 00 00 00 00 00 00 00 00 00 00
       0.0 0.0 0.0 0.0
000090 00 00 00 00 00 00 00 00 00 00 00 00 00 00 00 00
       0.0 0.0 0.0 0.0
0000a0 00 00 00 00 00 00 00 00 00 00 00 00 00 00 00 00
       0.0 0.0 0.0 0.0
0000b0 00 00 00 00 00 00 00 00 00 00 00 00 00 00 00 00
       0.0 0.0 0.0 0.0
0000c0 00 00 00 00 00 00 00 00 00 00 00 00 00 00 00 00
       0.0 0.0 0.0 0.0
0000d0 00 00 00 00 00 00 00 00 00 00 00 00 00 00 00 00
       0.0 0.0 0.0 0.0
0000e0 00 00 00 00 00 00 00 00 00 00 00 00 00 00 00 00
       0.0 0.0 0.0 0.0
0000f0 00 00 00 00 00 00 00 00 00 00 00 00 00 00 00 00
       0.0 0.0 0.0 0.0
000100 00 00 00 00 00 00 00 00 00 00 00 00 00 00 00 00
       0.0 0.0 0.0 0.0
000110 00 00 00 00 00 00 00 00 00 00 00 00 00 00 00 00
       0.0 0.0 0.0 0.0
000120 00 00 00 00 00 00 00 00 00 00 00 00 00 00 00 00
       0.0 0.0 0.0 0.0
000130 00 00 00 00 00 00 00 00 00 00 00 00 00 00 00 00
       0.0 0.0 0.0 0.0
000140 00 00 00 00 00 00 00 00 00 00 00 00 00 00 00 00
       0.0 0.0 0.0 0.0
000150 00 00 00 00 00 00 00 00 00 00 00 00 00 00 00 00
       0.0 0.0 0.0 0.0
000160 00 00 00 00 00 00 00 00 00 00 00 00 00 00 00 00
       0.0 0.0 0.0 0.0
000170 00 00 00 00 00 00 00 00 00 00 00 00 00 00 00 00
       0.0 0.0 0.0 0.0
000180 00 00 00 00 00 00 00 00 00 00 00 00 00 00 00 00
       0.0 0.0 0.0 0.0
000190 00 00 00 00 00 00 00 00 00 00 00 00 00 00 00 00
       0.0 0.0 0.0 0.0
0001a0 00 00 00 00 00 00 00 00 00 00 00 00 00 00 00 00
       0.0 0.0 0.0 0.0
0001b0 00 00 00 00 00 00 00 00 00 00 00 00 00 00 00 00
       0.0 0.0 0.0 0.0
0001c0 00 00 00 00 00 00 00 00 00 00 00 00 00 00 00 00
       0.0 0.0 0.0 0.0
0001d0 00 00 00 00 00 00 00 00 00 00 00 00 00 00 00 00
       0.0 0.0 0.0 0.0
0001e0 00 00 00 00 00 00 00 00 00 00 00 00 00 00 00 00
       0.0 0.0 0.0 0.0
0001f0 00 00 00 00 00 00 00 00 00 00 00 00 00 00 00 00
       0.0 0.0 0.0 0.0

network_body._body_endoder.seq_layers.0.weight f4 [128, 1]
000000 eb 5c 90 be ad 0a e9 3e 97 8f e7 3f 54 be b9 3e
       -0.2819589 0.45515957 1.8090695 0.3627802
000010 1d ad 17 3f 96 e0 b6 3e 17 cb 61 3f bf 8c f6 be
       0.59248525 0.3571822 0.88200516 -0.48154256
000020 39 f3 c5 bf 51 59 9e be d1 c2 0e 3f 3e 46 fb bf
       -1.5464851 -0.30927518 0.55766016 -1.9630811
000030 9f f7 10 3e f5 84 13 3e 4c 0a 81 3f 19 91 07 bf
       0.1415696 0.14406188 1.0081267 -0.52955776
000040 4a 7f d2 3f 00 86 b1 3f 20 0d 88 be 06 23 fc bd
       1.6445096 1.3869019 -0.26572514 -0.12311368
000050 ed 29 89 be fb a7 89 bf d4 45 45 bf 4f 1f a9 3f
       -0.267898 -1.0754389 -0.77059674 1.321268
000060 f4 3b a8 3e e4 4d 2e 3f 15 1d 1d 3e 0b cb 1d 40
       0.3285824 0.680876 0.15343125 2.4655178
000070 f4 73 25 3f 74 e6 9e bf 1e f3 9c 3e b0 41 03 40
       0.64630055 -1.2414079 0.30654234 2.0508842
000080 00 12 a2 bf de d3 2f bf df 2a 04 3e d0 80 13 3f
       -1.2661743 -0.6868266 0.12906979 0.5761843
000090 84 d5 9a 3e d1 33 c5 3f 5a bd 36 3f e8 34 53 3f
       0.30241024 1.5406438 0.7138268 0.82502604
0000a0 dd 6b 97 3f ea e1 1e c0 29 12 7c 3d 24 8a 71 bf
       1.1829792 -2.4825387 0.061540756 -0.9435141
0000b0 8b 1b d2 be 26 c7 d1 3e 35 8f 57 3f 67 ec 67 be
       -0.4103664 0.4097225 0.8420289 -0.22648774
0000c0 a7 31 36 3e 05 82 7b bf ab 64 e4 3d c1 c2 2c be
       0.17792378 -0.9824527 0.111520134 -0.16871168
0000d0 d8 a8 43 3f d8 7f 4d bb 3b c4 4f 3f b6 8f c0 bf
       0.7642951 -0.0031356718 0.811588 -1.5043857
0000e0 7b a5 40 3f a4 de 63 3f 64 b7 ed 3e e9 10 a6 be
       0.75252503 0.890116 0.46428978 -0.32434776
0000f0 84 5e 45 3e 4e a2 5d bf 4e 42 5b bf 2a f5 de be
       0.19274336 -0.8657578 -0.8564805 -0.4354642
000100 ca 31 ca be 20 a0 99 3f a3 d1 4e 3f bc 5b 6a 3f
       -0.3949111 1.2001991 0.8078863 0.91546226
000110 b3 54 8a bf e8 ab 1d 3e 53 95 ef 3e 38 ce 93 bf
       -1.0807098 0.15397608 0.46793613 -1.1547308
000120 a8 ec 10 bf 68 c3 0b 40 dc 3f 0a bf 3d 3f 88 3e
       -0.5661111 2.1838017 -0.5400369 0.26610747
000130 44 5c ca 3e 96 78 a7 3f 76 b8 53 3e 92 39 83 bf
       0.39523518 1.3083675 0.20675835 -1.0251944
000140 42 7d 57 3e fb a2 5f 3f fc ed 8f bf 34 3d d4 3f
       0.21043876 0.87358063 -1.1244502 1.6581178
000150 93 ff 88 3f 46 6d 82 bf 50 32 ee 3f bb e9 a6 3d
       1.0702995 -1.0189598 1.8609104 0.08150049
000160 6f 48 3b bf 04 2c 6d 3f 5c 03 a3 3e 83 fc bb be
       -0.731574 0.9264529 0.318385 -0.3671609
000170 40 20 9a bf 58 67 85 3f 50 b9 2f 3f 5f de c9 3f
       -1.2041092 1.0422163 0.6864214 1.5770987
000180 f3 e2 2d bf 39 d6 77 3f 11 fd e3 bf 7a 9f 0c 3f
       -0.6792442 0.9681125 -1.7811605 0.5493084
000190 a3 7d 9f 3f 21 6c c9 bf 2c 6e b5 3f 0b 0f 21 c0
       1.2460216 -1.5736123 1.4174247 -2.5165431
0001a0 db 93 24 3e 67 e6 5c 3f dc 55 90 bf 56 80 e6 3e
       0.16072027 0.86289066 -1.1276202 0.45019788
0001b0 00 70 57 bf 08 6c 13 40 b3 a9 23 be 25 7a 07 bf
       -0.84155273 2.3034687 -0.15982704 -0.5292075
0001c0 49 1b e9 3e 5d e8 a3 bf cb 1d 11 c0 0c 1f 93 3e
       0.4552863 -1.2805287 -2.2674434 0.28734624
0001d0 83 73 81 bf 62 3e b0 be a2 49 48 3f 2e 04 aa bf
       -1.0113376 -0.34422594 0.78237355 -1.3282526
0001e0 ef 60 c9 be c5 d8 91 bf 47 46 4f 3f 66 91 a1 3f
       -0.39331767 -1.1394278 0.8096661 1.2622497
0001f0 ed 92 80 3f 11 da e6 3f b4 59 3b bf 4b 1d 13 bf
       1.0044838 1.8035299 -0.7318375 -0.5746657

network_body._body_endoder.seq_layers.2.bias f4 [128]
000000 00 00 00 00 00 00 00 00 00 00 00 00 00 00 00 00
       0.0 0.0 0.0 0.0
000010 00 00 00 00 00 00 00 00 00 00 00 00 00 00 00 00
       0.0 0.0 0.0 0.0
000020 00 00 00 00 00 00 00 00 00 00 00 00 00 00 00 00
       0.0 0.0 0.0 0.0
000030 00 00 00 00 00 00 00 00 00 00 00 00 00 00 00 00
       0.0 0.0 0.0 0.0
000040 00 00 00 00 00 00 00 00 00 00 00 00 00 00 00 00
       0.0 0.0 0.0 0.0
000050 00 00 00 00 00 00 00 00 00 00 00 00 00 00 00 00
       0.0 0.0 0.0 0.0
000060 00 00 00 00 00 00 00 00 00 00 00 00 00 00 00 00
       0.0 0.0 0.0 0.0
000070 00 00 00 00 00 00 00 00 00 00 00 00 00 00 00 00
       0.0 0.0 0.0 0.0
000080 00 00 00 00 00 00 00 00 00 00 00 00 00 00 00 00
       0.0 0.0 0.0 0.0
000090 00 00 00 00 00 00 00 00 00 00 00 00 00 00 00 00
       0.0 0.0 0.0 0.0
0000a0 00 00 00 00 00 00 00 00 00 00 00 00 00 00 00 00
       0.0 0.0 0.0 0.0
0000b0 00 00 00 00 00 00 00 00 00 00 00 00 00 00 00 00
       0.0 0.0 0.0 0.0
0000c0 00 00 00 00 00 00 00 00 00 00 00 00 00 00 00 00
       0.0 0.0 0.0 0.0
0000d0 00 00 00 00 00 00 00 00 00 00 00 00 00 00 00 00
       0.0 0.0 0.0 0.0
0000e0 00 00 00 00 00 00 00 00 00 00 00 00 00 00 00 00
       0.0 0.0 0.0 0.0
0000f0 00 00 00 00 00 00 00 00 00 00 00 00 00 00 00 00
       0.0 0.0 0.0 0.0
000100 00 00 00 00 00 00 00 00 00 00 00 00 00 00 00 00
       0.0 0.0 0.0 0.0
000110 00 00 00 00 00 00 00 00 00 00 00 00 00 00 00 00
       0.0 0.0 0.0 0.0
000120 00 00 00 00 00 00 00 00 00 00 00 00 00 00 00 00
       0.0 0.0 0.0 0.0
000130 00 00 00 00 00 00 00 00 00 00 00 00 00 00 00 00
       0.0 0.0 0.0 0.0
000140 00 00 00 00 00 00 00 00 00 00 00 00 00 00 00 00
       0.0 0.0 0.0 0.0
000150 00 00 00 00 00 00 00 00 00 00 00 00 00 00 00 00
       0.0 0.0 0.0 0.0
000160 00 00 00 00 00 00 00 00 00 00 00 00 00 00 00 00
       0.0 0.0 0.0 0.0
000170 00 00 00 00 00 00 00 00 00 00 00 00 00 00 00 00
       0.0 0.0 0.0 0.0
000180 00 00 00 00 00 00 00 00 00 00 00 00 00 00 00 00
       0.0 0.0 0.0 0.0
000190 00 00 00 00 00 00 00 00 00 00 00 00 00 00 00 00
       0.0 0.0 0.0 0.0
0001a0 00 00 00 00 00 00 00 00 00 00 00 00 00 00 00 00
       0.0 0.0 0.0 0.0
0001b0 00 00 00 00 00 00 00 00 00 00 00 00 00 00 00 00
       0.0 0.0 0.0 0.0
0001c0 00 00 00 00 00 00 00 00 00 00 00 00 00 00 00 00
       0.0 0.0 0.0 0.0
0001d0 00 00 00 00 00 00 00 00 00 00 00 00 00 00 00 00
       0.0 0.0 0.0 0.0
0001e0 00 00 00 00 00 00 00 00 00 00 00 00 00 00 00 00
       0.0 0.0 0.0 0.0
0001f0 00 00 00 00 00 00 00 00 00 00 00 00 00 00 00 00
       0.0 0.0 0.0 0.0

network_body._body_endoder.seq_layers.2.weight f4 [128, 128]
000000 66 98 cc bd 40 92 88 bd d8 e6 76 bd 5a 8a 76 3a
       -0.09990005 -0.0666852 -0.060278744 0.0009404771
000010 be 76 da 3d 7b e1 b7 3d cc ce 2e 3d 31 53 be 3c
       0.106671795 0.08978554 0.042677686 0.023233028
000020 32 b2 87 bd 1c 5b 92 3d 84 70 b2 bd 37 18 c0 3d
       -0.06625785 0.07146284 -0.08712867 0.093796186
000030 5d db 00 be 42 b7 e3 3d a8 59 52 bd eb 6e 3d 3e
       -0.1258368 0.11118938 -0.051355034 0.18499343
000040 bf 39 b7 bc 5e 4c 4a be e0 4c da 3c c7 ff fe 3c
       -0.022366403 -0.19755694 0.026647985 0.031127824
000050 75 48 4b bd de f6 a1 bc 56 24 80 bd 36 20 ed 3d
       -0.049629647 -0.019771036 -0.062569305 0.115784094
000060 34 ae 7b 39 bd bd b7 3d c0 21 c6 3c 1b e2 1d bd
       0.00024002121 0.089717366 0.024186015 -0.03854571
000070 69 e9 2d 3d 4f 11 d1 3d c6 6c a1 bd 6e e2 7d bd
       0.042458925 0.102083795 -0.07882075 -0.06198352
000080 05 6d 26 3c c1 93 8a bd 0c a9 03 3e de d1 f2 3d
       0.010157828 -0.06766463 0.12857455 0.11856435
000090 14 da f9 bd 7a 7c a0 3d 72 f2 e4 3d ef f8 72 bd
       -0.12199798 0.07836242 0.11179055 -0.059319433
0000a0 e4 20 a3 bc 31 27 1c bd 0f fe e5 bd 9f 95 b9 bc
       -0.019913144 -0.038123313 -0.112300985 -0.022654353
0000b0 27 f5 75 bc 4d 8c e7 3d 01 86 a5 3d 5e 10 42 b9
       -0.015012062 0.11306057 0.080822 -0.00018507379
0000c0 6a c6 0d bd 05 30 9c 3d e9 61 18 be 9a e0 b3 ba
       -0.03461305 0.076263465 -0.148811 -0.0013723553
0000d0 e6 1a 9c bc b2 f8 96 3d 7b 75 2c 3d a4 2f 83 bc
       -0.019055795 0.073716536 0.042104226 -0.016013928
0000e0 86 f4 a7 3d ec 67 c9 bd d8 a4 b4 3d ba fa 13 3e
       0.08200936 -0.09834275 0.08820504 0.14451113
0000f0 91 e9 45 bd 73 c2 2f 3e 3b 1f fd bd a8 2f 82 bd
       -0.04831845 0.1716402 -0.12359472 -0.06356746
000100 32 05 66 3d 97 f9 7a 3e 45 b4 a4 bd f7 d3 98 bd
       0.0561573 0.24509273 -0.08042196 -0.07462304
000110 43 bb 35 3d 1b 03 f1 3d e4 96 97 bb b0 9b 7b bd
       0.04436804 0.117681704 -0.004626142 -0.061427772
000120 3a 18 03 3e c9 ff c8 3d 45 c2 af 3d c7 97 98 3c
       0.1280221 0.09814412 0.08581976 0.01862706
000130 76 f5 8b 3d 20 d0 8e bc 2f 97 1a 3d 22 35 4c 3d
       0.06833927 -0.017433226 0.037741836 0.04985536
000140 5b 8d 00 3e 2f ff 06 bd 5a 4c ab bd dd 91 df bd
       0.12553923 -0.032958206 -0.08364172 -0.10916493
000150 33 47 a8 bd 1b a4 50 3d 07 e8 07 3e 58 cf a9 bd
       -0.08216705 0.050937753 0.13272105 -0.08291501
000160 d8 b4 65 3d b3 10 12 be e3 75 b8 bd b6 7c b7 bd
       0.05608067 -0.14264183 -0.0900686 -0.089593336
000170 bf 08 3d 3e cb 67 83 3d 86 ca 31 bc 2b 28 e1 3d
       0.18460368 0.06416281 -0.010851508 0.109939896
000180 ef 97 19 be 7a 6f 0a bc f4 5e 19 3d 00 88 b3 bb
       -0.14999364 -0.00844943 0.03744407 -0.005478859
000190 c3 5f 99 bc 8e 40 8c 3d 26 9c 2e be 95 c2 aa 3d
       -0.01872242 0.0684825 -0.17051753 0.08337895
0001a0 a7 a5 d3 3b fd 95 c0 bc 94 d9 4d 3e f0 42 5e 3c
       0.0064589563 -0.02350902 0.2010253 0.013565764
0001b0 cd 47 0d 3e 91 1c 9e 3d de c1 cc bc 75 74 ae 3d
       0.13796921 0.07720292 -0.024994787 0.08518306
0001c0 4c 18 bb 3b 93 49 3a bd 09 48 b8 bd 66 59 ff bd
       0.0057096835 -0.045480322 -0.089981146 -0.12468223
0001d0 31 ba 98 3d 5e 1c 4e 3c 72 bf 38 3c d9 ec 95 bd
       0.07457388 0.012580005 0.011276113 -0.07320566
0001e0 c7 e9 d2 3d 2f 0c c7 3b 49 19 c9 3d f2 41 42 be
       0.10298496 0.0060744504 0.09819276 -0.18970469
0001f0 e8 f5 9b bd a6 31 18 bd b4 c7 8c 3d d1 54 fa bd
       -0.07615262 -0.037156723 0.06874028 -0.12223209
000200 bf cc 5e bd 87 90 05 bd 75 9a 8b bc ca 43 01 3d
       -0.05439448 -0.032608535 -0.017041424 0.03155879
000210 ff a1 1e be d0 18 ed 3c 46 3a 0a bd 0a 9e cd bd
       -0.15491484 0.028942496 -0.03374698 -0.10039909
000220 18 b4 b1 bd 37 01 ef bd e6 d6 2e bc 86 08 13 3e
       -0.08676928 -0.116701536 -0.010671353 0.1435872
000230 ee fa bc 3d c9 03 71 bd c6 b3 c6 bc 85 28 2e be
       0.092275485 -0.0588415 -0.024255645 -0.17007644
000240 69 32 dd bd 3e 72 d3 bb c1 46 8e bd 5e d3 92 bc
       -0.108006306 -0.0064528277 -0.06947089 -0.017923053
000250 bd da 16 3e 45 b5 8b bd 63 15 90 be 5a d7 d6 bd
       0.1473188 -0.06821684 -0.28141317 -0.10490294
000260 2a d2 5e bc 50 56 eb 3d 59 b8 18 3e 27 bd 7a bd
       -0.013599912 0.11491072 0.14914073 -0.061215546
000270 f4 80 5d 3d 2b bf 3d 3d 71 41 ab bd e2 13 a7 bd
       0.054078057 0.04632489 -0.08362091 -0.08158089
000280 dc 11 5e 3c 19 92 65 3c d3 33 5e 3c b5 2b 41 3c
       0.013554063 0.014011883 0.013562161 0.011790206
000290 b2 13 20 3e 96 f9 88 bd ff 90 fa 3d d4 3c 5d bd
       0.15632513 -0.0668823 0.12234687 -0.05401309
0002a0 8f 10 fa 3d f4 c2 9b bc 1d 2b 6c bd 2d 9b 34 be
       0.122101896 -0.01901386 -0.057658304 -0.1763732
0002b0 42 0b 42 3d 8e 9d 44 3b 47 40 a7 bc 4c 42 cd bd
       0.047374018 0.0030001136 -0.020416392 -0.10022411
0002c0 4a 9f 85 bd da ab 11 3d f1 51 1c 3c 6e 2f 48 bd
       -0.065245226 0.03556428 0.009541021 -0.048873357
0002d0 72 c0 22 bd 9f 37 05 bd d7 63 f2 3d ef 0a 69 bd
       -0.03973431 -0.032523748 0.11835449 -0.056895193
0002e0 39 21 06 3e 7c 1c b9 bb e0 f4 16 bd bd fd 17 bb
       0.13098611 -0.0056491476 -0.036854625 -0.0023192011
0002f0 65 03 1b 3d d6 70 a7 3c b0 9f 6f 3d 64 b6 35 bd
       0.037845034 0.020439547 0.0585019 -0.044363394
000300 1c 5b 93 3c 01 39 44 bc 18 47 d4 3d bb 96 2f bd
       0.01798778 -0.011976481 0.103651226 -0.042868357
000310 82 7c ff bc 0b 83 19 3d a4 e7 c0 3c 13 0f 22 3e
       -0.0311873 0.037478488 0.023547955 0.15826063
000320 f4 f2 4b ba c7 67 f3 3c f6 1d 8b bc 11 84 14 3e
       -0.0007780038 0.02971257 -0.01698206 0.14503504
000330 07 ca 08 be 4a 6d 8e 3d 30 15 d0 3d 93 9b 90 bc
       -0.13358317 0.06954439 0.10160291 -0.017652309
000340 02 d6 51 3d 2a d7 1a bd 3c 2e 86 bd 08 fe 9e 3e
       0.051229484 -0.037802853 -0.06551787 0.31053185
000350 c5 d2 78 bd 9f 01 a2 3d 39 e7 df bd c1 dc 49 3d
       -0.06074788 0.079104654 -0.10932774 0.049282793
000360 b7 6c 63 bc a5 b1 51 be f6 a3 7b 3d 37 a0 f7 bc
       -0.0138809 -0.20477922 0.061435662 -0.030227764
000370 29 1d 6a bb ef 6a 1b 3d 39 55 8c bc e3 1c cc 3d
       -0.0035722947 0.037943777 -0.017130481 0.09966447
000380 82 8c 88 3d 60 cb 87 bb d5 54 01 bd 41 c9 60 3d
       0.06667425 -0.0041441172 -0.031575043 0.05487943
000390 85 f8 c8 3d 37 68 03 be 16 ad 5c 3d eb 8b af 3d
       0.09813026 -0.12832724 0.053876005 0.08571609
0003a0 29 72 25 bd 49 7e bf 3c c0 55 57 3d 6b cc da 3c
       -0.040392075 0.023375647 0.052572012 0.026708802
0003b0 ce f4 eb 3d 46 96 c5 bd fc d5 b9 bc 98 b5 c9 bc
       0.11521302 -0.09647803 -0.022685044 -0.024622723
0003c0 bc 1f 0a bc 52 74 11 be 86 84 1e bd bb 04 d2 bb
       -0.008430418 -0.14204529 -0.038700603 -0.0064092553
0003d0 6f e7 32 3b 28 4c 08 bc 58 6d 03 ba 64 43 ab bd
       0.002729859 -0.008318938 -0.0005013547 -0.08362463
0003e0 ea 92 5f bc 60 0f b6 bd 51 a3 68 bd a4 10 d8 bd
       -0.013645867 -0.08889651 -0.056796376 -0.10550049
0003f0 a8 03 86 bc dd b7 5c bc a0 75 bc bd 82 7e 59 3d
       -0.016359165 -0.013471571 -0.09202123 0.053099163
