results/ppo/PlayerController.onnx (onnx, 72154 bytes, 9 tensors)

action_model._discrete_distribution.branches.0.bias f4 [2]
00000000: 0000 0000 0000 0000
0.0 0.0

action_model._discrete_distribution.branches.0.weight f4 [2, 128]
00000000: f16d 8a3b 7cd5 0cbc edca 63bc 72c4 67bb
00000010: d32c 07bc 5712 83bc 9d7e 25bb 94aa 8c3a
00000020: 2541 b9ba 80d3 b83b 43bc 7dbc 84d1 103c
00000030: 5f78 be3c a365 9fb9 7558 4e3c 08f1 5a3c
00000040: 357b 773b 37e8 053c ba83 af3b b47f 143c
00000050: a722 403b 30cf 5fbb f0c6 c7bb c104 18bb
00000060: fcd5 83bb 6d18 e5bb 4bf6 39bc 4733 34bb
00000070: efe0 f6bb 4f4f b1ba 6bf3 a43b ced0 8439
00000080: eba7 c0bb 9483 1c3c 2fdb c43b eadb 64bc
00000090: d6b9 93bc d2aa 80ba e7fa c0bb 1d85 563b
000000a0: 5335 283c 9dfd d8bb f5ec 18bc c228 d5ba
000000b0: 7a4d 88bc 3fcf 163c f71d ac3c 62a8 b4bc
000000c0: 4bbf f9bb 571a a13b 0370 763b fac8 b9bb
000000d0: c6f8 20bc d239 5fbc 4382 863c 1093 23bc
000000e0: fc88 873b 7c18 06bc 27bc aa3b f7a0 0abb
000000f0: ba76 e0bb a677 38bc ff18 30bc e6b0 8a38
00000100: bdcd 3bbc 0477 083c d82f 7bbc 8cf5 2c3c
00000110: d39c 603b c824 b63b bc6a c33b b7c6 a6ba
00000120: c7a4 1dbb 95a9 3f3a 4d35 3839 658d 52bb
00000130: 8327 d0bb a238 49bc 2f50 333b cf20 513c
00000140: 4301 00bc e8c5 c4bb 951c 1ebc f5cb 8a3c
00000150: 2e65 35bc 46e9 093c 716e 043c 2804 7bbb
00000160: 3b90 16bc 80a7 e5bb 6342 d33b b68d 383c
00000170: a0ed e5bb b039 e0bb 73b9 8fba c887 7e3b
00000180: 70c9 eb3a 5055 b43b 4710 a3bb 673b 533c
00000190: 177a 193a be5d 1d3c 835b dcbb 557b 6ebb
000001a0: 3f9f 36bc efc4 823b c555 93bc 1b80 073c
000001b0: 77fc ea3b 2d07 f13b 39cc 2d3c 2a57 d4ba
000001c0: 28e0 1bba 7202 803b d365 9cbb 9f37 283c
000001d0: acdf 343c 99e0 983b 884b b53c f681 be3b
000001e0: 2f97 77bb d03b 1ebb 1be7 e639 1b93 f8bb
000001f0: 0749 7fbb 7109 c73b 039d e5b9 3a87 9abb
00000200: e083 80bb cfcb 143b fa79 0d3c bfb6 95bb
00000210: 6b1b b93c 8d4e 63bb d51d 513c f0f7 663b
00000220: 9b08 daba 58e9 fe3b 9af0 0dbc b2b8 f5b9
00000230: e3cf 3539 d146 9f3c ad24 4ebc 43b3 543b
00000240: c39d 873c 67a1 bfbb 83c5 413b 5521 513b
00000250: 4b52 3b3c 97f7 8a3a 4ca7 933c 99c4 083b
00000260: 90a5 c83a 902d c83a 7a28 fd3a 03a9 6bbb
00000270: 5784 90bb c5d9 f6bb 1e4f 8a3c dbaf c9bb
00000280: 6f41 b8bb 8e56 a53b 95c9 6b3c d073 793b
00000290: 0e20 a6bb 09d3 c6b9 d7c9 c93b c8df e73b
000002a0: 1816 48ba 4f45 82ba 318f 083c 4c62 1abc
000002b0: de51 233c 2afa acbb a2c9 afbb c550 f03b
000002c0: 28fc e0bb 7924 113c cc9c 14bc 7d70 c53b
000002d0: 2df8 c7bb a958 0c3b df8a e43b c3a6 acbb
000002e0: d314 013b ca57 2f3c 38c5 4e3a b2e1 463c
000002f0: 14ee b0bc 57cf f63a fbd6 fcba 50a6 323b
00000300: cb5e 963c ef68 7bbb 7bb2 773a ea16 72bc
00000310: b338 853c 82c0 1dbc 23da 713a f857 893b
00000320: 738d 83bc 5f87 db3b 8d4b 013b 01b6 05bc
00000330: af4b 42bb 7224 ad3c 7bcf a33b 28e7 2fb9
00000340: 3e01 4138 dec2 bf3a 9526 d2bb 1538 603c
00000350: d47f c3bb 3309 343a 9c20 093c 1312 2d3c
00000360: a224 b73c 7795 45bc 9283 833c 7798 6a3b
00000370: 376a b23c 1827 45bc 9164 34bc f4e1 0abc
00000380: 779e 093c acd0 10bc 6046 7b3c 6032 123c
00000390: f774 b3bb fb48 943b 0c12 97bc 54c9 a23b
000003a0: bf4d 15bb 8155 143c 7b86 58bc bbd3 183c
000003b0: 203e deba 77f4 60bb 3ae0 27bb 77f0 33bb
000003c0: d6e1 183c dd06 4d3c 0fb4 a73b 383f 8fbc
000003d0: db61 563c 7004 1f3c cc3e a43c 60e9 5f3c
000003e0: 1702 a53c b3cd 5fbc f955 283c 208f 093c
000003f0: 5546 533c 1212 89bb 032f 843c 3ffe b23c
0.004224532 -0.0085958205 -0.013903362 -0.0035364893 -0.008250433 -0.015999956 -0.002525247 0.0010731989
-0.0014133794 0.005640447 -0.01548678 0.008839015 0.023250757 -0.00030402569 0.012594332 0.01336313
0.0037762646 0.00817304 0.005356279 0.00906365 0.002931753 -0.0034150593 -0.0060967132 -0.0023196193
-0.0040233117 -0.006991437 -0.011350225 -0.0027496384 -0.0075341384 -0.0013527664 0.0050339005 0.00025332574
-0.0058793924 0.009552855 0.006007574 -0.013968447 -0.01803295 -0.0009816533 -0.005889285 0.003273315
0.01026662 -0.00662203 -0.009333839 -0.0016262757 -0.016638506 0.009204685 0.021010382 -0.022052947
-0.007621681 0.00491647 0.0037603385 -0.00566971 -0.009824937 -0.013624625 0.016419536 -0.009983793
0.004136203 -0.0081845485 0.005210418 -0.0021153071 -0.006850091 -0.011258995 -0.010748147 6.613303e-05
-0.011462626 0.008329157 -0.015331231 0.01055659 0.0034273162 0.005558584 0.0059636515 -0.0012724017
-0.0024054514 0.00073113415 0.00017567464 -0.0032127735 -0.0063523664 -0.012281569 0.0027361026 0.01276417
-0.007812801 -0.0060050376 -0.009650369 0.016942957 -0.011071486 0.008417433 0.008082972 -0.0038302038
-0.009189661 -0.007008493 0.006447123 0.011264255 -0.0070168525 -0.0068428144 -0.0010965302 0.0038838256
0.001798911 0.005503334 -0.0049763056 0.012892581 0.00058546796 0.009604869 -0.0067247762 -0.003638943
-0.011146366 0.0039907615 -0.017985234 0.008270289 0.0071712094 0.0073555917 0.0106077725 -0.0016200293
-0.00059461826 0.0039065415 -0.0047728806 0.010267167 0.011039656 0.004665446 0.022130743 0.0058138324
-0.0037779321 -0.0024144538 0.00044041206 -0.0075858957 -0.003895344 0.0060741236 -0.00043795267 -0.0047158273
-0.0039219707 0.0022704487 0.0086350385 -0.004568904 0.022596082 -0.003468427 0.01276346 0.0035242997
-0.0016634645 0.0077792816 -0.008663321 -0.0004686765 0.00017338949 0.019442948 -0.012581986 0.003245548
0.016554719 -0.005848098 0.002956719 0.0031910737 0.011433194 0.0010602352 0.01802411 0.0020869134
0.001530813 0.0015272368 0.0019314431 -0.0035958893 -0.0044103074 -0.0075332844 0.01688343 -0.006154997
-0.0056230347 0.0050457185 0.014391323 0.0038063414 -0.005069739 -0.00037922736 0.0061580944 0.0070762374
-0.0007632687 -0.0009938868 0.008334921 -0.00942285 0.009968249 -0.0052788453 -0.0053646127 0.007333847
-0.006865997 0.008858793 -0.009070586 0.0060253725 -0.006102583 0.002141515 0.0069745625 -0.005268903
0.001969625 0.010702083 0.0007887664 0.012138771 -0.0215979 0.0018830103 -0.0019290143 0.0027259775
0.018355748 -0.0038362106 0.0009448898 -0.014775971 0.016262388 -0.009628417 0.00092259253 0.004191395
-0.01605866 0.006699487 0.001972887 -0.008161069 -0.0029647162 0.021135543 0.004999099 -0.00016775413
4.6015943e-05 0.0014630219 -0.0064132907 0.013685246 -0.005966166 0.0006867826 0.008369591 0.010563391
0.022356335 -0.012059561 0.016053949 0.0035796443 0.021779163 -0.012033246 -0.011010305 -0.008476723
0.008399597 -0.008838814 0.015336603 0.008923143 -0.00547659 0.0045253015 -0.018441223 0.004967848
-0.0022781936 0.009053589 -0.013215656 0.009327824 -0.001695577 -0.00343254 -0.0025615827 -0.002745656
0.009331187 0.012513843 0.0051179 -0.0174862 0.013084854 0.009705648 0.020049475 0.013666481
0.020142598 -0.013659882 0.010274404 0.00839594 0.012895186 -0.0041830624 0.016135698 0.02184975

action_model._discrete_distribution.branches.1.bias f4 [2]
00000000: 0000 0000 0000 0000
0.0 0.0

action_model._discrete_distribution.branches.1.weight f4 [2, 128]
00000000: 7472 bf3a 187c 56bb 23d1 b3bb e715 13bc
00000010: 3917 363b 5523 7cb8 92b8 d03a 82b6 60bc
00000020: 9a55 38bb 43fe ddba 9c50 9b3c 2071 3fbb
00000030: b7cd 483c fb83 f33b a20d f4bb 6706 d1bb
00000040: f5a8 7e3b 9d8a 41bc 78db 9d3b a335 873b
00000050: 8972 a4bb 6c90 1f3c fd02 8b3b 9c3a 093c
00000060: 434e 6b3c 7b3f a1b9 7f89 48bc 74a7 1cbc
00000070: c8e9 e238 2b6b 7b3c 2570 923c dd8e 583b
00000080: 550b b4bb ab5e 203c 6715 763c 1309 02ba
00000090: c4ff c03a 5703 2c3a 8fa2 293b 7642 1ab9
000000a0: 9bef 8ebb 5502 213b ff91 31bb de00 cbbc
000000b0: 7811 ed39 d3a6 d6bb e51c ffbb ff83 0cbc
000000c0: e5a3 9e3b 9a72 883c 9314 febb 6f42 2f3c
000000d0: cd50 453b 71a7 c83b 47ee 2e3b ea67 363b
000000e0: e01f 113c 42bf 563a bf9e c73a 9b52 18bc
000000f0: 9a74 6a3c 2a72 02bc 3b66 b43b 3343 4fbc
00000100: 57eb 1a3c a746 fe3b 6677 a1bb 07a8 053c
00000110: 8fb2 583b 2132 acba 8c90 133c 66de 46bc
00000120: 1f53 a33b 77bb e23c 3f41 103b 7832 9abb
00000130: 174b 03ba a0ee f13b 186a 5d3a d7fd 95bb
00000140: f4ca aabb a5fe 2cbc 768b ab3a e7a7 013b
00000150: faad 3ab9 bfe7 2cbc 33c6 9bbc e627 adbb
00000160: 3628 0a3c a7fa c0bb afbc 753c f23f 0fb9
00000170: 5888 403c dda1 493c 2b99 21bc da2f 9f3c
00000180: c39c 09bc 8a83 bc3b 2d13 02bb be42 9bbc
00000190: bd9e 3e3b 00f6 d93b 25fd 843a adca 8cbc
000001a0: 002f 703c 1498 be3b 2339 103c c5c0 5ebb
000001b0: 0345 253c 8313 ed3b ef83 51bc 2b33 5c3b
000001c0: 8325 323b 2075 f9bc f810 c8bb d239 66bc
000001d0: a482 bb3b d347 b33b f2a8 ed3a 4b1b 583c
000001e0: d1f7 c13a 7ba8 a53b bc88 9e3b d220 6d3b
000001f0: 2742 40bc a26d e6bb b375 5b3c 5185 1fbb
00000200: 2b91 1f3b 85da 3a3c d7e5 5fbb f649 323b
00000210: 94b8 083c 8290 8f3c ce8a 8cb9 2b44 d139
00000220: 3544 c43b 32da c73b 33b6 48bc e79a 43bc
00000230: f855 ddbb 3086 51bc 8f47 51bc d579 66bc
00000240: 43fa 19bc 50c0 703c 874c 02bb 7b22 653b
00000250: f8e0 833b 3317 3a3c 67de 5b3c 973a 20bb
00000260: 3487 0f3c 7f52 ee3b b543 55bc 09fd c53b
00000270: 2bd1 86bc e301 8ebb a0b9 923c 6c69 00bb
00000280: 8c76 bd3b 62a0 5b3c e136 103c 4f49 a33b
00000290: a705 493b 2342 283c db97 d4bb 7b4b 213b
000002a0: 1b97 3b3a afad 46bc 261f cbbb 4087 eebb
000002b0: 8c87 32bb d7b7 a2bb 6349 2bbb ff72 d73b
000002c0: 4345 a63c d04f 65ba 129b a63c 7526 ceba
000002d0: f39b 5fbc 6b1f d9bb e336 3539 f518 643c
000002e0: b376 833b ed77 ca3b cc0a ca3a 9a7a ef3b
000002f0: 5aa0 14bc f8ef 2dbc 2ac1 ed3b 37db c2bb
00000300: 7761 3fbb b7f0 fcbb b385 013c 5bfc 223a
00000310: dd16 e33b c798 3bb8 9c5a 10bc b2bc 063c
00000320: 5613 8abb 835c 12bc 139d 4dbc f896 343b
00000330: 2966 0fbc 3c64 8c3b b553 cfbb b895 5fbb
00000340: e684 22bb b84e d13b 03e9 933a bb49 1cbc
00000350: e5ac 14bc 2ebc 2a3c afd6 d63a 285e daba
00000360: 6efd b43b 5891 8dbc c2bd fdbb 74aa 90ba
00000370: 2a83 f5bb 439f 373c 7ff3 743a 0b12 0a3c
00000380: 0353 9c3b 0c1f a4bb 6b03 e5b9 02df 0f3a
00000390: b3ee 533c 4541 57bc 1315 fb39 3a45 66ba
000003a0: 5ace 03bb 5fa5 413b afbf b83b ea6e 3b3c
000003b0: 730c 13bc 2f97 533b b593 d73b bdcf e039
000003c0: 2725 babc e0df d23b a3de 6cbb c74d e33b
000003d0: 48da 593c 19f8 cb3c f2ee 8a3b ae96 863c
000003e0: 6541 00bb d310 24bc 00e5 f93b 7751 30bb
000003f0: 37de cabc d765 62bc bf59 0ebb 8d0c 883c
0.0014606253 -0.0032727774 -0.0054875775 -0.00897739 0.0027784838 -6.0114387e-05 0.0015924147 -0.013715388
-0.0028127194 -0.0016936738 0.018959336 -0.0029211715 0.0122560775 0.007431505 -0.007447914 -0.006378937
0.003885803 -0.011812833 0.0048174225 0.004126267 -0.0050185365 0.009739023 0.0042422996 0.00837579
0.014361921 -0.0003075561 -0.012239813 -0.009561408 0.00010820065 0.015345375 0.01787574 0.0033044138
-0.005494515 0.009788196 0.015019751 -0.00049604586 0.0014724662 0.0006561777 0.0025884246 -0.00014711343
-0.0043620593 0.002456804 -0.0027095077 -0.024780687 0.00045217178 -0.0065506487 -0.007785427 -0.008576392
0.004841315 0.016656209 -0.0077539175 0.010696991 0.0030107975 0.006123476 0.0026692317 0.0027832934
0.008857697 0.0008191952 0.0015229805 -0.009297038 0.014310027 -0.007961789 0.005505351 -0.012650299
0.009455523 0.0077598873 -0.0049275635 0.008157737 0.0033065414 -0.0013137498 0.009006631 -0.012137985
0.004984274 0.02767728 0.0022011546 -0.0047057234 -0.00050084427 0.0073831826 0.000844629 -0.004577379
-0.005212182 -0.010558759 0.0013087827 0.0019783915 -0.00017803154 -0.010553299 -0.019015407 -0.0052842973
0.008432439 -0.005889255 0.014998599 -0.00013661364 0.011751257 0.012306658 -0.009863178 0.019431997
-0.008399191 0.0057529854 -0.0019847855 -0.018952724 0.0029086315 0.00665164 0.0010146244 -0.017186487
0.014659643 0.005816469 0.008802685 -0.0033989411 0.010087254 0.007234992 -0.012787803 0.0033599834
0.0027183003 -0.030451357 -0.0061055385 -0.014051871 0.0057223607 0.0054712086 0.0018132015 0.013190101
0.0014798586 0.005055485 0.0048380774 0.0036182893 -0.011734522 -0.007032112 0.013394761 -0.0024340937
0.0024348001 0.011404638 -0.0034164095 0.0027204729 0.008344788 0.017524961 -0.00026806298 0.00039914376
0.005989576 0.006099009 -0.012250471 -0.011938787 -0.006754633 -0.01278834 -0.012773409 -0.014067133
-0.009398046 0.014694288 -0.001988204 0.003496318 0.004024621 0.01135807 0.013419724 -0.0024448985
0.008760262 0.007273018 -0.013016631 0.006042127 -0.016457161 -0.004333721 0.017910779 -0.0019594086
0.005781954 0.013404937 0.008802147 0.0049831043 0.0030673535 0.0102696745 -0.006487829 0.002461164
0.00071560004 -0.01212637 -0.0061987815 -0.0072793067 -0.0027241437 -0.004965763 -0.0026136271 0.006574988
0.020296698 -0.000874755 0.020337615 -0.0015728014 -0.013648021 -0.0066260598 0.00017281952 0.013921966
0.004011953 0.006178847 0.0015414595 0.0073083164 -0.009071434 -0.010616295 0.007255693 -0.0059465426
-0.002920238 -0.007719125 0.0079054115 0.00062174135 0.0069302157 -4.472656e-05 -0.008810665 0.008223699
-0.004213731 -0.008933189 -0.012549656 0.0027555805 -0.008752384 0.00428441 -0.0063271173 -0.003411634
-0.0024798452 0.006387558 0.0011284653 -0.009539063 -0.009074424 0.010420842 0.0016390885 -0.0016660141
0.0055233752 -0.01728122 -0.007743568 -0.0011037127 -0.0074924426 0.011207405 0.0009344145 0.008427153
0.004770638 -0.005008584 -0.0004368083 0.0005488248 0.012935328 -0.01313812 0.00047890152 -0.0008784119
-0.0020112009 0.0029548032 0.005638085 0.011440018 -0.008975136 0.0032286157 0.0065788873 0.00042879386
-0.022722794 0.0064353794 -0.0036143444 0.006936762 0.013296671 0.024898576 0.0042399103 0.016429272
-0.0019570228 -0.010013777 0.007626176 -0.0026904026 -0.024764163 -0.013818226 -0.0021720973 0.016607547

discrete_action_output_shape f4 [1, 2]
00000000: 0000 0040 0000 0040
2.0 2.0

network_body._body_endoder.seq_layers.0.bias f4 [128]
00000000: 0000 0000 0000 0000 0000 0000 0000 0000
00000010: 0000 0000 0000 0000 0000 0000 0000 0000
00000020: 0000 0000 0000 0000 0000 0000 0000 0000
00000030: 0000 0000 0000 0000 0000 0000 0000 0000
00000040: 0000 0000 0000 0000 0000 0000 0000 0000
00000050: 0000 0000 0000 0000 0000 0000 0000 0000
00000060: 0000 0000 0000 0000 0000 0000 0000 0000
00000070: 0000 0000 0000 0000 0000 0000 0000 0000
00000080: 0000 0000 0000 0000 0000 0000 0000 0000
00000090: 0000 0000 0000 0000 0000 0000 0000 0000
000000a0: 0000 0000 0000 0000 0000 0000 0000 0000
000000b0: 0000 0000 0000 0000 0000 0000 0000 0000
000000c0: 0000 0000 0000 0000 0000 0000 0000 0000
000000d0: 0000 0000 0000 0000 0000 0000 0000 0000
000000e0: 0000 0000 0000 0000 0000 0000 0000 0000
000000f0: 0000 0000 0000 0000 0000 0000 0000 0000
00000100: 0000 0000 0000 0000 0000 0000 0000 0000
00000110: 0000 0000 0000 0000 0000 0000 0000 0000
00000120: 0000 0000 0000 0000 0000 0000 0000 0000
00000130: 0000 0000 0000 0000 0000 0000 0000 0000
00000140: 0000 0000 0000 0000 0000 0000 0000 0000
00000150: 0000 0000 0000 0000 0000 0000 0000 0000
00000160: 0000 0000 0000 0000 0000 0000 0000 0000
00000170: 0000 0000 0000 0000 0000 0000 0000 0000
00000180: 0000 0000 0000 0000 0000 0000 0000 0000
00000190: 0000 0000 0000 0000 0000 0000 0000 0000
000001a0: 0000 0000 0000 0000 0000 0000 0000 0000
000001b0: 0000 0000 0000 0000 0000 0000 0000 0000
000001c0: 0000 0000 0000 0000 0000 0000 0000 0000
000001d0: 0000 0000 0000 0000 0000 0000 0000 0000
000001e0: 0000 0000 0000 0000 0000 0000 0000 0000
000001f0: 0000 0000 0000 0000 0000 0000 0000 0000
0.0 0.0 0.0 0.0 0.0 0.0 0.0 0.0
0.0 0.0 0.0 0.0 0.0 0.0 0.0 0.0
0.0 0.0 0.0 0.0 0.0 0.0 0.0 0.0
0.0 0.0 0.0 0.0 0.0 0.0 0.0 0.0
0.0 0.0 0.0 0.0 0.0 0.0 0.0 0.0
0.0 0.0 0.0 0.0 0.0 0.0 0.0 0.0
0.0 0.0 0.0 0.0 0.0 0.0 0.0 0.0
0.0 0.0 0.0 0.0 0.0 0.0 0.0 0.0
0.0 0.0 0.0 0.0 0.0 0.0 0.0 0.0
0.0 0.0 0.0 0.0 0.0 0.0 0.0 0.0
0.0 0.0 0.0 0.0 0.0 0.0 0.0 0.0
0.0 0.0 0.0 0.0 0.0 0.0 0.0 0.0
0.0 0.0 0.0 0.0 0.0 0.0 0.0 0.0
0.0 0.0 0.0 0.0 0.0 0.0 0.0 0.0
0.0 0.0 0.0 0.0 0.0 0.0 0.0 0.0
0.0 0.0 0.0 0.0 0.0 0.0 0.0 0.0

network_body._body_endoder.seq_layers.0.weight f4 [128, 1]
00000000: aeb5 f6be db45 e9be 5fca f73d 312b fbbd
00000010: 35c5 263e e229 f1bf 61e7 d53e a92d 8c3f
00000020: 65ff 143e e7f7 9bbf ba82 9cbe 750e 4d3f
00000030: efd7 abbf 26b8 e63d fc23 df3e 12ea 3ac0
00000040: 761e 323e b166 353f ad74 acbe 44f3 b7bf
00000050: 8e17 28c0 e250 42bf 5c4f 813f 930b ddbf
00000060: c804 8dbf 15b2 56bf 8622 373e 2246 f23f
00000070: 9126 c73d da27 b83f 87a7 06c0 18ac 933e
00000080: 3630 bfbe 7d02 6fbf 28cd ecbe 8fae 4bbe
00000090: 477f 94be a2cd 7bbd d422 a63e bac2 dc3d
000000a0: e329 bb3f e435 3ebf 1c46 b6bf 6292 b3bf
000000b0: b6ec e53e 28c2 f1be 878f 0c3f bab3 6dbf
000000c0: 35a7 f7bd 1b37 d2be df9e f93f 9514 9a3d
000000d0: 29a3 923c 09a3 68bd 09f4 313f 5624 2d3e
000000e0: a694 75bf 5450 4740 4e2a 713f 87e1 9abf
000000f0: 38f0 c93d a979 3fbe a2f6 21c0 c372 b83e
00000100: a6fe 0040 b905 f03b 2e7c b43f ce6d e9bf
00000110: a90d 9abf b636 e9be 2ad6 d2bd 462c b0be
00000120: 28dc 2f3e 04fa 9bbf dafb 75be 8d1c d33e
00000130: 536c ad3f c3fa c1bf 3010 1c3f 945f 2c40
00000140: bc65 2540 b8b9 81bf 008e bf3e be2f 9c3e
00000150: de0a a93f 7a11 2ebf 7deb 08c0 be59 15c0
00000160: a0b7 95bf c956 8b3f 8566 103f 75a1 4ebf
00000170: d08a 4bbe 2989 d4bb ae68 be3e e5be 15bf
00000180: d419 3a3d 0f47 c93e c640 773e a75e f7bc
00000190: bfbc ad3e a30a a13e 1f4c 74bf 7325 493f
000001a0: 997c 533f 784d c13f db90 c03f c18e 1140
000001b0: 677c d23c 2b54 e53e 4b66 f1bf 3324 0c3d
000001c0: f016 be3e aa55 b4be 76a7 b63e 0e6e 9d3e
000001d0: 9f53 c2bf 7b61 5bbf 9f2e 62bf c160 313f
000001e0: 593b 50bf 1315 b63f 41bf 08bf 7331 c5bf
000001f0: 325e ec3e 1125 da3e 5720 7e3d 8275 c93d
-0.48185486 -0.45561108 0.12099146 -0.122640975 0.16286166 -1.8840907 0.4177809 1.0951434
0.1455055 -1.2185029 -0.30568486 0.80100185 -1.3425273 0.11265592 0.4358214 -2.9205365
0.17394432 0.7085982 -0.33682767 -1.4371114 -2.6264377 -0.7590467 1.0102344 -1.7269157
-1.1017084 -0.8386548 0.17884263 1.8927653 0.09724153 1.4387162 -2.103975 0.28842235
-0.3734147 -0.9336317 -0.46250272 -0.19890808 -0.29003355 -0.061475404 0.32448447 0.10779329
1.4622158 -0.7430098 -1.4240146 -1.4029047 0.4490716 -0.47218442 0.54906505 -0.92852366
-0.12092439 -0.41057667 1.9501609 0.07523457 0.017900066 -0.056796107 0.69512993 0.16908392
-0.95929945 3.1142778 0.94205177 -1.2100075 0.09860271 -0.18698753 -2.5306783 0.36025056
2.0155425 0.007324901 1.4100397 -1.8236635 -1.2035419 -0.45549554 -0.10294755 -0.34408778
0.17173827 -1.2185674 -0.24021855 0.4123272 1.3548683 -1.5154651 0.609622 2.6933336
2.5843344 -1.0134802 0.37413025 0.30505174 1.3206441 -0.6799542 -2.139373 -2.3336024
-1.1696663 1.088586 0.5640643 -0.80715114 -0.19877172 -0.0064860773 0.3718924 -0.58494407
0.045434788 0.39312026 0.24145803 -0.030196501 0.33933064 0.31453428 -0.9542865 0.7857277
0.82611996 1.5101767 1.5044206 2.274338 0.025694085 0.44790778 -1.8859342 0.03421421
0.37126875 -0.35221606 0.35674638 0.30748028 -1.5181769 -0.8569562 -0.8835239 0.6928826
-0.8134056 1.4225181 -0.5341683 -1.5405716 0.46165615 0.42606404 0.06204256 0.09836866

network_body._body_endoder.seq_layers.2.bias f4 [128]
00000000: 0000 0000 0000 0000 0000 0000 0000 0000
00000010: 0000 0000 0000 0000 0000 0000 0000 0000
00000020: 0000 0000 0000 0000 0000 0000 0000 0000
00000030: 0000 0000 0000 0000 0000 0000 0000 0000
00000040: 0000 0000 0000 0000 0000 0000 0000 0000
00000050: 0000 0000 0000 0000 0000 0000 0000 0000
00000060: 0000 0000 0000 0000 0000 0000 0000 0000
00000070: 0000 0000 0000 0000 0000 0000 0000 0000
00000080: 0000 0000 0000 0000 0000 0000 0000 0000
00000090: 0000 0000 0000 0000 0000 0000 0000 0000
000000a0: 0000 0000 0000 0000 0000 0000 0000 0000
000000b0: 0000 0000 0000 0000 0000 0000 0000 0000
000000c0: 0000 0000 0000 0000 0000 0000 0000 0000
000000d0: 0000 0000 0000 0000 0000 0000 0000 0000
000000e0: 0000 0000 0000 0000 0000 0000 0000 0000
000000f0: 0000 0000 0000 0000 0000 0000 0000 0000
00000100: 0000 0000 0000 0000 0000 0000 0000 0000
00000110: 0000 0000 0000 0000 0000 0000 0000 0000
00000120: 0000 0000 0000 0000 0000 0000 0000 0000
00000130: 0000 0000 0000 0000 0000 0000 0000 0000
00000140: 0000 0000 0000 0000 0000 0000 0000 0000
00000150: 0000 0000 0000 0000 0000 0000 0000 0000
00000160: 0000 0000 0000 0000 0000 0000 0000 0000
00000170: 0000 0000 0000 0000 0000 0000 0000 0000
00000180: 0000 0000 0000 0000 0000 0000 0000 0000
00000190: 0000 0000 0000 0000 0000 0000 0000 0000
000001a0: 0000 0000 0000 0000 0000 0000 0000 0000
000001b0: 0000 0000 0000 0000 0000 0000 0000 0000
000001c0: 0000 0000 0000 0000 0000 0000 0000 0000
000001d0: 0000 0000 0000 0000 0000 0000 0000 0000
000001e0: 0000 0000 0000 0000 0000 0000 0000 0000
000001f0: 0000 0000 0000 0000 0000 0000 0000 0000
0.0 0.0 0.0 0.0 0.0 0.0 0.0 0.0
0.0 0.0 0.0 0.0 0.0 0.0 0.0 0.0
0.0 0.0 0.0 0.0 0.0 0.0 0.0 0.0
0.0 0.0 0.0 0.0 0.0 0.0 0.0 0.0
0.0 0.0 0.0 0.0 0.0 0.0 0.0 0.0
0.0 0.0 0.0 0.0 0.0 0.0 0.0 0.0
0.0 0.0 0.0 0.0 0.0 0.0 0.0 0.0
0.0 0.0 0.0 0.0 0.0 0.0 0.0 0.0
0.0 0.0 0.0 0.0 0.0 0.0 0.0 0.0
0.0 0.0 0.0 0.0 0.0 0.0 0.0 0.0
0.0 0.0 0.0 0.0 0.0 0.0 0.0 0.0
0.0 0.0 0.0 0.0 0.0 0.0 0.0 0.0
0.0 0.0 0.0 0.0 0.0 0.0 0.0 0.0
0.0 0.0 0.0 0.0 0.0 0.0 0.0 0.0
0.0 0.0 0.0 0.0 0.0 0.0 0.0 0.0
0.0 0.0 0.0 0.0 0.0 0.0 0.0 0.0

network_body._body_endoder.seq_layers.2.weight f4 [128, 128]
00000000: 9865 ba3b a63d 343e 9b89 073b f45a d03d
00000010: 6fe9 483e 3453 be3d 03e5 823d c674 ebbc
00000020: 7701 e63d 388e 05be 1522 283d db22 31bd
00000030: 9540 ae3d 788c 81bd bbf9 323b 9503 b13c
00000040: 9052 b9bd 2801 693d 0e0e fabd 85c9 883d
00000050: eaa8 8bbd 95ab 9f3c 86dc c5bd d143 0a3b
00000060: 0534 52bd 1e7d 0bbd 1579 023e 26c7 683d
00000070: c7c2 563d 6fc1 f83c 0fd7 c13d 39bb e0bd
00000080: 6f44 c1bd 3c1c 103d a33a ac3d 1e9e a53d
00000090: 1f90 96bd 8f40 163e be32 adbd 7b3d 3fbd
000000a0: 69e3 16bd 5f25 efbd ea86 64bd d5f5 e33c
000000b0: 3126 2cbc d187 40bd 8c92 a1bd cf33 9e3d
000000c0: 7a80 2c3d dd29 e13c b772 8fbd 374b 3dbe
000000d0: 9a50 91bd c9ea c93d 9964 2abd acf3 9fbd
000000e0: a686 f83d 155e fd3c e8ed 293e 6252 253d
000000f0: 6bfd 023e 95e6 b0bd 3a5d 5f3d 08a4 563c
00000100: 1772 edbd 6b74 1fbe a09e 07be 1e5d 0abd
00000110: ed97 6fbd 3881 e3bd f3c9 94bd 7e26 6fbd
00000120: 22e4 69bd 3333 3bbe b923 48bd 2669 2f3c
00000130: 36a4 2dbd 4276 083d d138 05bc 1cc0 c13d
00000140: fa26 2a3b 690f 693c 8342 a9bd a670 0c3e
00000150: fb04 a5bc 9405 d43c 8499 df3b 33b3 68bd
00000160: df10 b1bc 15f4 96bd dbe8 43be 1ef7 883d
00000170: fb27 bb3d cbdf 463d 5664 37bc 0417 ea3d
00000180: ce09 ddbd 3de8 83bd 2d83 3cbb bc91 573d
00000190: 1a2b 413e 7b87 ddbd 0d4a 34be d8e8 b7bd
000001a0: f101 053d da54 42bd 4be7 873d 14e0 9cbc
000001b0: 4ff2 acbd 7b20 333e e0c1 a63c bb95 5bbd
000001c0: 743b 3bbc d5b5 20bd 66e7 8cbd d793 8c3c
000001d0: a5d3 233e e1ea 833d 9637 043e 0419 d339
000001e0: c52c 993c 44ef 6ebe 0196 01be 695e a8bc
000001f0: fd55 903d e80f 383d f1cd a43d 8856 b03d
00000200: 342c 6ebd b37e 9fbc be4f 0fbd 2fb6 983d
00000210: e2e1 b4bd 1c6b a3bc 4b4d bbbd 1d11 f53d
00000220: eb2b 2ebd 56bc 933d ac81 aabd 107c 6c3d
00000230: 6826 533d c9ef 9fbd 738c 4cbd 5679 a0bb
00000240: 8b1f 0dbe abca 49be 28f9 0abd d47a 343d
00000250: f40b a3bd 6e28 1f3d 6e02 813d 390f a73d
00000260: e02f 87be 0e58 dbbd e67c de3d 38f3 c0bd
00000270: f6e3 593c 1d47 9c3d a4f3 81bb e31c 9d3c
00000280: adb9 c83d dcf8 903d 29d2 27bd 2c71 bc3d
00000290: a016 503e dbf6 d13d 27d9 8f3d 18c6 23bd
000002a0: f0a5 2bbd 123a b6bb 761a e03d 7f80 cabc
000002b0: cb74 f13d fde3 733d 83c8 7a39 e046 233b
000002c0: f689 67bd 2abb e93d 3cc8 84bc fb27 1a3d
000002d0: 136e 163e b67e 1f3d 6b01 213c a203 9f3d
000002e0: 27d9 8a3c d5d6 d43d a86c cd3d 8660 fcbd
000002f0: c88e cc3d 0442 343d 5e3e a93c 656a a5bd
00000300: ad58 f93d e9b9 bbbd 803a 9f3c 1c8e 5b3d
00000310: 8842 323d d18d 823d 9b1e b5bd 89a6 9fbd
00000320: bfcd e03d 76dc 0fbd 2d30 2dbd 26cd 77bd
00000330: 7d50 943c f59b 103c f197 603c 90e9 d03c
00000340: a1ca c03d 6cc0 78bd 5969 9b3d 5a27 bf3c
00000350: 3015 04be 61fd ac3c 902f 4a3d eaba f63c
00000360: 23e2 03bd ff8d 983d fbc7 afbd b233 453d
00000370: 840f 033d fe08 06be 1fc5 5a3d 842b d0bc
00000380: 197e b4bc 0f90 623c ec33 e13d caab d4bc
00000390: 8e34 903d 8b98 95bd 5186 9abd 0a14 143d
000003a0: 337c 953d 8c46 773b a443 8bbd 7703 df3d
000003b0: bb42 e3bd 3b1d 033d d9a2 893b 752f 453d
000003c0: 221f df3b a8a9 9f3c e064 c23d 362c 943d
000003d0: ef90 28bd 8ea5 8b3d 4758 23bc 77b2 1f3e
000003e0: 472f 5c3d e9a1 d93d 2e76 e23d e371 263e
000003f0: c00d 483c 90ba 59bd 1410 c4bd 0561 01bd
0.0056883805 0.17601642 0.0020681384 0.10173598 0.19620298 0.092932135 0.06391337 -0.028742205
0.11230748 -0.13042533 0.04104813 -0.04324613 0.08508412 -0.063256204 0.0027309495 0.021608153
-0.09048951 0.05688587 -0.12209712 0.06679062 -0.06819327 0.019490996 -0.09661202 0.002109755
-0.05131914 -0.034054868 0.12741502 0.056830548 0.052431848 0.030365674 0.09464847 -0.1097321
-0.09436881 0.035183176 0.084096216 0.08086799 -0.07351708 0.14673065 -0.08456944 -0.04668949
-0.03683797 -0.1167705 -0.055792727 0.027827183 -0.010507152 -0.047004525 -0.0788928 0.077247255
0.042114712 0.027485782 -0.07004302 -0.18485723 -0.07095452 0.09859235 -0.041599844 -0.078101486
0.12135057 0.03092865 0.1659466 0.04036177 0.12791984 -0.0863773 0.054532267 0.013100632
-0.115940265 -0.15571754 -0.13244104 -0.03378021 -0.058494497 -0.11108631 -0.07265081 -0.05838632
-0.05710233 -0.1828125 -0.048862193 0.010706222 -0.042392932 0.033315904 -0.008131222 0.0946047
0.0025963173 0.0142248655 -0.08264639 0.13714847 -0.020143976 0.025881566 0.0068237204 -0.056811523
-0.02161449 -0.07370774 -0.19131796 0.06687759 0.09138485 0.04855327 -0.011193356 0.11430171
-0.10792886 -0.0644078 -0.002876471 0.052629218 0.18864098 -0.108168565 -0.17606373 -0.08979958
0.032472555 -0.047444202 0.066359125 -0.019149818 -0.08444654 0.17492859 0.020356119 -0.05360959
-0.011427749 -0.03923591 -0.06880073 0.01716034 0.15998705 0.06441284 0.1291183 0.00040263694
0.018698106 -0.2333346 -0.12654878 -0.02055283 0.07047651 0.044937044 0.08047093 0.086102545
-0.058147624 -0.019469595 -0.034988157 0.07456624 -0.08832146 -0.019948535 -0.09145602 0.11966155
-0.042522352 0.072136566 -0.08325514 0.057735503 0.0515503 -0.07809407 -0.04993863 -0.004897277
-0.13781564 -0.19706218 -0.03392902 0.04406245 -0.07961264 0.038856916 0.062992916 0.081572
-0.26403713 -0.107101545 0.10863666 -0.0942139 0.013298979 0.07630751 -0.003965812 0.019178813
0.0980104 0.07078716 -0.04097191 0.09201273 0.20321131 0.10252162 0.070238404 -0.03998384
-0.041906297 -0.0055611217 0.10942547 -0.024719475 0.117898546 0.0595436 0.00023916554 0.002491407
-0.056528054 0.11412652 -0.01620876 0.037635785 0.14690427 0.0389392 0.009826998 0.07764365
0.01694925 0.103925385 0.1003049 -0.12323098 0.09988171 0.04400827 0.020659622 -0.08076934
0.12175117 -0.09166319 0.019437075 0.053602323 0.04352048 0.063747056 -0.08843728 -0.07795436
0.10976743 -0.035122357 -0.042282272 -0.06049838 0.018104786 0.008826246 0.013708101 0.025501996
0.094136484 -0.060730383 0.07588453 0.023334194 -0.12898707 0.021116914 0.049361765 0.030118424
-0.032198083 0.074489586 -0.08583065 0.048145004 0.03199722 -0.13089368 0.053410646 -0.025411375
-0.022032784 0.013828292 0.109962314 -0.025960822 0.07041274 -0.07304486 -0.0754515 0.036151923
0.0729908 0.0037731258 -0.06800011 0.10889333 -0.11096712 0.0320103 0.004200321 0.04814096
0.0068091312 0.019490078 0.09491897 0.07234995 -0.041153844 0.068186864 -0.009969777 0.15595423
0.053756025 0.10626585 0.11057697 0.16254382 0.0122103095 -0.053156435 -0.09573379 -0.031586666
