results/ppo/AgentBehaviour/AgentBehaviour-768.pt (torch, 146007 bytes, 14 tensors)

discrete_act_size_vector f4 [1, 2]
00000000: 0000 0040 0000 0040
2.0 2.0

network_body._body_endoder.seq_layers.0.weight f4 [128, 1]
00000000: ad6e 863f be16 0540 2ed3 14bf 1303 73bf
00000010: c3e9 9abe 25bc f53e 9aa6 76bf aea5 7d3e
00000020: 3452 ff3e b98d 143f 80c9 293f bb21 49bd
00000030: e937 99bf 22fd 3f3e b911 4f3f 8568 953f
00000040: 9272 0f3e 6d24 39bb d48c bfbf 5134 17bf
00000050: f48d 9abf ab8c 93be 6aae d73e 4fe9 1dbf
00000060: 5e8d 5bbf d0d2 013f 02b2 583f c3f0 85bf
00000070: 5d45 ae3f 4eac f93e 8d4c 693f 838d 71bf
00000080: e431 b0be 3bb5 3e3f f394 b0be 7fe9 163f
00000090: 9ce3 eb3c 44b7 15be bb48 953e 7fac 69bd
000000a0: ccf2 62be 15f2 02be 902e f1bf 44b6 2d3f
000000b0: 2489 373f 689f d1bd ee38 103d 18d2 363f
000000c0: ee71 c03f f423 023f 38fb 92bf 8ca7 12bf
000000d0: d408 ef3f c4cd 823f c2c5 3d3f 763b 8ebe
000000e0: c102 fc3e 239a 393f 531e 22bf 470f da3f
000000f0: ee04 b03e 55c9 b8be 30d8 d53e 7068 313e
00000100: 0bf9 22c0 3db3 bcbd 81a1 d33f 361c 0240
00000110: b0f4 c3be 7c1a b5be e133 2f3f 6da5 2d3f
00000120: e2cb 9fbf cb3d 973f ab1e ca3e 335f eabe
00000130: 1e7c 1dbf 9813 0abf 4ef7 c33e dd36 de3e
00000140: e807 153f 5839 b1bf 3a02 fb3e 3f32 29be
00000150: 02a8 7cbe ba69 b13f f594 9d3a 8a82 173e
00000160: 72ff cb3e 5b7d 533d 60f5 02c0 9fc8 53bf
00000170: 1eae d7bd d2a1 73be 251e 1b3f d9ae c33f
00000180: 9c2a c33f d44f b53d 7e40 c93f e7d3 283f
00000190: 9503 b4bf ee03 5fbf 4fa1 31bf de5d dc3e
000001a0: d55a 043e 801e ffbe bcfb b73f d63c ebbe
000001b0: de0e 16bf 5eb6 9c3f 4706 91bf 3b61 24bd
000001c0: 5c15 133e 2d85 853e 250b c63e 23f4 003f
000001d0: f88f b03f 382c aa3e cc4d 0e40 4807 0740
000001e0: 7c54 dd3f 8f7d 023e 7e98 373f d784 463f
000001f0: a507 9f3e 054e 0c40 6d61 dc3e 405c 01bf
1.0502526 2.079513 -0.58134735 -0.94926566 -0.3025647 0.47995105 -0.96347964 0.24770233
0.49867404 0.5802875 0.6632309 -0.049104434 -1.1970187 0.18748906 0.8088642 1.1672522
0.14008549 -0.0028250471 -1.4964852 -0.59064204 -1.2074571 -0.2881826 0.42125255 -0.61684126
-0.85762584 0.507123 0.8464662 -1.04641 1.3614918 0.4876427 0.9113243 -0.94356555
-0.34413064 0.74495286 -0.3448864 0.58950037 0.028795056 -0.14620692 0.2915705 -0.05704927
-0.22162932 -0.1278766 -1.8842335 0.6785624 0.71693635 -0.102354825 0.035210542 0.7141433
1.5034769 0.5083611 -1.1482916 -0.57286906 1.8674569 1.0219045 0.7412988 -0.2777974
0.4922085 0.7250082 -0.6332752 1.7035912 0.3437876 -0.36091104 0.417665 0.17324996
-2.5464504 -0.092138745 1.6533662 2.0329719 -0.3827262 -0.35371768 0.68438536 0.67830545
-1.2484095 1.1815733 0.39476523 -0.45775756 -0.6151751 -0.5393615 0.38274616 0.43401232
0.5821519 -1.3845625 0.49025136 -0.16523074 -0.24673465 1.386039 0.0012022542 0.1479589
0.39843327 0.05163322 -2.0462265 -0.82728 -0.10531257 -0.23792198 0.6059287 1.5287734
1.5247378 0.08853117 1.5722806 0.6594834 -1.4063593 -0.8711537 -0.6938676 0.43040365
0.12925275 -0.49827957 1.4373698 -0.45944852 -0.58616436 1.2243154 -1.1330041 -0.04013179
0.14363617 0.26078168 0.38680378 0.50372523 1.3793936 0.3323686 2.2234983 2.1098194
1.7291408 0.1274321 0.7171706 0.7754645 0.3106052 2.192262 0.4304308 -0.5053139

network_body._body_endoder.seq_layers.0.bias f4 [128]
00000000: 0000 0000 0000 0000 0000 0000 0000 0000
00000010: 0000 0000 0000 0000 0000 0000 0000 0000
00000020: 0000 0000 0000 0000 0000 0000 0000 0000
00000030: 0000 0000 0000 0000 0000 0000 0000 0000
00000040: 0000 0000 0000 0000 0000 0000 0000 0000
00000050: 0000 0000 0000 0000 0000 0000 0000 0000
00000060: 0000 0000 0000 0000 0000 0000 0000 0000
00000070: 0000 0000 0000 0000 0000 0000 0000 0000
00000080: 0000 0000 0000 0000 0000 0000 0000 0000
00000090: 0000 0000 0000 0000 0000 0000 0000 0000
000000a0: 0000 0000 0000 0000 0000 0000 0000 0000
000000b0: 0000 0000 0000 0000 0000 0000 0000 0000
000000c0: 0000 0000 0000 0000 0000 0000 0000 0000
000000d0: 0000 0000 0000 0000 0000 0000 0000 0000
000000e0: 0000 0000 0000 0000 0000 0000 0000 0000
000000f0: 0000 0000 0000 0000 0000 0000 0000 0000
00000100: 0000 0000 0000 0000 0000 0000 0000 0000
00000110: 0000 0000 0000 0000 0000 0000 0000 0000
00000120: 0000 0000 0000 0000 0000 0000 0000 0000
00000130: 0000 0000 0000 0000 0000 0000 0000 0000
00000140: 0000 0000 0000 0000 0000 0000 0000 0000
00000150: 0000 0000 0000 0000 0000 0000 0000 0000
00000160: 0000 0000 0000 0000 0000 0000 0000 0000
00000170: 0000 0000 0000 0000 0000 0000 0000 0000
00000180: 0000 0000 0000 0000 0000 0000 0000 0000
00000190: 0000 0000 0000 0000 0000 0000 0000 0000
000001a0: 0000 0000 0000 0000 0000 0000 0000 0000
000001b0: 0000 0000 0000 0000 0000 0000 0000 0000
000001c0: 0000 0000 0000 0000 0000 0000 0000 0000
000001d0: 0000 0000 0000 0000 0000 0000 0000 0000
000001e0: 0000 0000 0000 0000 0000 0000 0000 0000
000001f0: 0000 0000 0000 0000 0000 0000 0000 0000
0.0 0.0 0.0 0.0 0.0 0.0 0.0 0.0
0.0 0.0 0.0 0.0 0.0 0.0 0.0 0.0
0.0 0.0 0.0 0.0 0.0 0.0 0.0 0.0
0.0 0.0 0.0 0.0 0.0 0.0 0.0 0.0
0.0 0.0 0.0 0.0 0.0 0.0 0.0 0.0
0.0 0.0 0.0 0.0 0.0 0.0 0.0 0.0
0.0 0.0 0.0 0.0 0.0 0.0 0.0 0.0
0.0 0.0 0.0 0.0 0.0 0.0 0.0 0.0
0.0 0.0 0.0 0.0 0.0 0.0 0.0 0.0
0.0 0.0 0.0 0.0 0.0 0.0 0.0 0.0
0.0 0.0 0.0 0.0 0.0 0.0 0.0 0.0
0.0 0.0 0.0 0.0 0.0 0.0 0.0 0.0
0.0 0.0 0.0 0.0 0.0 0.0 0.0 0.0
0.0 0.0 0.0 0.0 0.0 0.0 0.0 0.0
0.0 0.0 0.0 0.0 0.0 0.0 0.0 0.0
0.0 0.0 0.0 0.0 0.0 0.0 0.0 0.0

network_body._body_endoder.seq_layers.2.weight f4 [128, 128]
00000000: 7452 68bd 4d9f 8bbc 1ffa 543d 25fe 64be
00000010: 1b70 053e 83a7 033b 3a64 dd3d 7bcd 73be
00000020: b1c9 3cbc e424 493d f8cc 8bbc f760 c03d
00000030: 0d36 053e 8d3b 563c a0de af3d b2cc 45bd
00000040: 1a50 5ebd 67e3 ffbc 2638 293e 0035 fa3d
00000050: c81e 7b3c 1cbd d13b e8ba 09be dd60 4c3c
00000060: a84f 42be d57b 9abd e00f 703d d3cb 0fbb
00000070: e328 563e 22f5 2e3d 5cf6 993c 3232 8ebd
00000080: cae9 3fbe ac34 67bd 5d56 d9bd 4264 bebc
00000090: 0c61 3fbc e034 babd 298a b6bd 5c81 093d
000000a0: ffff 1abe 9fb1 853b 9b01 19bd 7004 e93c
000000b0: c81c b13d 4e5c d13d 0681 dabd 098e 3fbd
000000c0: ad84 233d 1c13 69be ca1e 57be a3c7 013e
000000d0: e914 e13d dcc6 85bc b136 8f3d 482b 27be
000000e0: 56fd 5ebd a3b1 d439 dd13 82bd ea94 c03c
000000f0: 4fb2 813d 32cd 013d 9591 3c3e 0a34 513d
00000100: 134f d13d 7e5a 113d 63bf e03c 4c52 883b
00000110: b592 dbbc fc44 8fbd 6e82 4b3d a94b 593d
00000120: bd7d 883d 1a71 5c3d c194 85bd 4905 9dbd
00000130: 503d cd3c b43b 873c 1d58 0c3c 5911 7d3d
00000140: 0cbb b4bd a8b3 e8bd 73bf dfbd f3d9 0dbd
00000150: c1cc b23d 0285 d13d bc46 c03d 2cce 113d
00000160: cf25 4e3d 33f6 853b 4278 9dbd 1b21 2abd
00000170: 49b0 053e b4b5 c33c 0496 80bd 72ec 8bbd
00000180: 1ea8 e7bd 3e12 843d c9e4 c7ba e326 1d3e
00000190: 255e 213c f654 1dbb 2e60 273d 9f20 dfbb
000001a0: ff57 593b 7f07 633d db55 ebbd 8444 c33d
000001b0: 7615 2d3e 4fa3 fa3d 05b4 d93c 425b ce3c
000001c0: 5781 b4bc 6e32 18bd 4ae5 b5bc 8859 61bd
000001d0: 8437 7fbd bca1 49be d5a2 dbbd 524f 1c3c
000001e0: 4294 6d3d 06e8 ae3c 89b5 a9bc ae01 dc3c
000001f0: 6940 bc3d 84e1 b33d b499 f4bd dfce ee3a
00000200: 617a 58bd f7b3 4b3d 3ea8 a73c 5bfc 233d
00000210: 6046 3b3d aeb1 9cbd 2589 b9bd d732 d1bc
00000220: a16f f03c 4740 033e 4a54 af3d f289 db3d
00000230: 6ff1 e5bd a2ee 0bba 537e c03c bd9d 99bd
00000240: f35b 7f3d 7b51 143d b5dd 3e3d 17ff 863d
00000250: 63fb 6abd 8883 5a3d 5d66 cabd f871 a53c
00000260: f2a0 7c3d 0b44 2fbe 7d48 103d 6b4c e5bd
00000270: d8aa cdbd 384a a9bd c6a3 153d 5c9b 31bd
00000280: c659 aebd 4558 84b9 889c 4e3c de74 acbd
00000290: 85f3 22be 90db 9ebd 6744 a53c b2a7 3b3d
000002a0: 0a1b d2bc 3941 e5bc c65b 08be a008 783d
000002b0: aa8f 463d f7db 973d a37f 71bd 5db2 033e
000002c0: 68dd 8f3c 3006 9abd 1fb2 04be 5cc9 133e
000002d0: 468f 01be 28a4 aa3d d58b 54be 9388 95bb
000002e0: 738c 143d f5a1 063e e95e 3ebc 7687 953e
000002f0: 0c19 143c bb0b 69bd fa6f f33d bdd0 01bd
00000300: 5660 d4bd 3819 46bd a3f0 d9bc 4a9c 1d3e
00000310: 391a 873d 9c26 60bc 2c81 8d3c ab22 803d
00000320: dff1 0e3d b172 cebd 438e 29be ac28 f7bb
00000330: 773f f8bd ac0d 4cbd d2a5 c3bd 71e1 08be
00000340: a413 97bd 0233 ea38 dc01 263e 2d0a 9dbd
00000350: dd93 9f3d 19ae 5cbd 26f8 6d3d 5c83 4abc
00000360: 0573 95bd d7de 0f3c 02bd e83d 7b8a 023d
00000370: 164d 8ebd 2d58 713d eb93 f93d 96e3 a13c
00000380: 51a2 cebd 04f5 40bd 5baa 29bd 1693 303c
00000390: d705 673d 3773 483e 34c0 a83d 5776 283d
000003a0: a20b 0cbe 3f46 e23c 58b5 3fbd 39e2 7d3d
000003b0: 3005 b4bd 950f 80bc 77ae e4bc 90a2 e23c
000003c0: 0ae1 7cbd e4a7 6ebe f8b9 3cbd bb9a 903d
000003d0: 1390 b3bd 027a 473d 9f0d bfbd e23f 09bc
000003e0: 0b30 ae3d 5d59 babd eb05 4f3c 3d6e 63bd
000003f0: e205 873d e0e5 99bc ac79 073e ec0b 9f3d
-0.05671926 -0.017043734 0.051996347 -0.22362573 0.13031046 0.0020088858 0.10810132 -0.23808853
-0.011522696 0.049107447 -0.01706551 0.093934946 0.130089 0.013075721 0.08587384 -0.048290916
-0.05427561 -0.031236364 0.16525325 0.1221714 0.015327163 0.0064007174 -0.13450205 0.012474266
-0.18975699 -0.0754315 0.05860889 -0.0021941557 0.20914035 0.042714246 0.018794231 -0.06943168
-0.18741527 -0.056446716 -0.106121756 -0.023241166 -0.011680853 -0.09092116 -0.08913071 0.033570632
-0.15136717 0.004080012 -0.037355047 0.028444499 0.08648068 0.10222684 -0.106691405 -0.046766315
0.03992145 -0.22761196 -0.21007839 0.12673812 0.109903164 -0.016330175 0.069928534 -0.16325104
-0.05444082 0.0004056814 -0.06351445 0.023508508 0.06332838 0.03168983 0.1841491 0.05107502
0.1022016 0.03548669 0.02743501 0.004160201 -0.026803354 -0.069955796 0.049684934 0.05305067
0.06664608 0.0538188 -0.06522513 -0.07667024 0.02505365 0.01650796 0.00856593 0.061784122
-0.08824739 -0.11362392 -0.10925188 -0.03463168 0.0873046 0.10230447 0.093884915 0.03559701
0.050329026 0.004088187 -0.07688953 -0.041535478 0.13055529 0.023890354 -0.06278613 -0.06832208
-0.11311363 0.06448792 -0.0015250678 0.15346865 0.009849106 -0.002400694 0.04086321 -0.0068093087
0.0033164022 0.05542707 -0.11490985 0.09534553 0.16902718 0.1223818 0.026575098 0.02519
-0.02203433 -0.03715747 -0.02220406 -0.055017024 -0.062308803 -0.19690603 -0.10724417 0.009540396
0.058002718 0.021350872 -0.020716446 0.02685627 0.09191973 0.08783248 -0.11943379 0.0018219611
-0.052851085 0.049732175 0.020465966 0.040035587 0.04572141 -0.07651077 -0.09059361 -0.025536938
0.029350104 0.12817489 0.08560999 0.1071967 -0.112276904 -0.0005337988 0.023497736 -0.07500789
0.06234355 0.03621052 0.046598155 0.06591623 -0.057368647 0.053348094 -0.098828055 0.020195946
0.061676927 -0.171158 0.03522538 -0.11196216 -0.100423515 -0.08266109 0.03653314 -0.043361053
-0.08513217 -0.00025242768 0.012610562 -0.08420728 -0.15913208 -0.07756722 0.020174218 0.045814224
-0.025647659 -0.027985202 -0.13316259 0.0605551 0.048476852 0.07415002 -0.058959614 0.12861009
0.01756163 -0.075207114 -0.12958573 0.14432281 -0.1265231 0.083320916 -0.20756467 -0.0045634
0.036266755 0.13147719 -0.011619308 0.2920491 0.009039175 -0.056895953 0.11886592 -0.03169321
-0.10369937 -0.048363894 -0.026604002 0.15391651 0.065967984 -0.01368108 0.017273508 0.062566124
0.034898635 -0.100804694 -0.16558175 -0.0075426903 -0.1212148 -0.049817726 -0.09553112 -0.13367249
-0.07376793 0.000111674904 0.16211647 -0.076679565 0.077918746 -0.05387697 0.05809798 -0.01236042
-0.07297329 0.0087811565 0.113641754 0.031870347 -0.06948297 0.05892198 0.12186416 0.019761842
-0.10089553 -0.047108665 -0.04142223 0.0107772555 0.056402054 0.19575201 0.08239785 0.041128483
-0.13676313 0.027621387 -0.046803802 0.06198332 -0.08790052 -0.01563243 -0.027915223 0.027665406
-0.06173805 -0.23306233 -0.04607579 0.070607625 -0.08767714 0.04870034 -0.0932877 -0.008377047
0.08505257 -0.09099076 0.012635688 -0.055525053 0.06592919 -0.01878637 0.13230008 0.07765946

network_body._body_endoder.seq_layers.2.bias f4 [128]
00000000: 0000 0000 0000 0000 0000 0000 0000 0000
00000010: 0000 0000 0000 0000 0000 0000 0000 0000
00000020: 0000 0000 0000 0000 0000 0000 0000 0000
00000030: 0000 0000 0000 0000 0000 0000 0000 0000
00000040: 0000 0000 0000 0000 0000 0000 0000 0000
00000050: 0000 0000 0000 0000 0000 0000 0000 0000
00000060: 0000 0000 0000 0000 0000 0000 0000 0000
00000070: 0000 0000 0000 0000 0000 0000 0000 0000
00000080: 0000 0000 0000 0000 0000 0000 0000 0000
00000090: 0000 0000 0000 0000 0000 0000 0000 0000
000000a0: 0000 0000 0000 0000 0000 0000 0000 0000
000000b0: 0000 0000 0000 0000 0000 0000 0000 0000
000000c0: 0000 0000 0000 0000 0000 0000 0000 0000
000000d0: 0000 0000 0000 0000 0000 0000 0000 0000
000000e0: 0000 0000 0000 0000 0000 0000 0000 0000
000000f0: 0000 0000 0000 0000 0000 0000 0000 0000
00000100: 0000 0000 0000 0000 0000 0000 0000 0000
00000110: 0000 0000 0000 0000 0000 0000 0000 0000
00000120: 0000 0000 0000 0000 0000 0000 0000 0000
00000130: 0000 0000 0000 0000 0000 0000 0000 0000
00000140: 0000 0000 0000 0000 0000 0000 0000 0000
00000150: 0000 0000 0000 0000 0000 0000 0000 0000
00000160: 0000 0000 0000 0000 0000 0000 0000 0000
00000170: 0000 0000 0000 0000 0000 0000 0000 0000
00000180: 0000 0000 0000 0000 0000 0000 0000 0000
00000190: 0000 0000 0000 0000 0000 0000 0000 0000
000001a0: 0000 0000 0000 0000 0000 0000 0000 0000
000001b0: 0000 0000 0000 0000 0000 0000 0000 0000
000001c0: 0000 0000 0000 0000 0000 0000 0000 0000
000001d0: 0000 0000 0000 0000 0000 0000 0000 0000
000001e0: 0000 0000 0000 0000 0000 0000 0000 0000
000001f0: 0000 0000 0000 0000 0000 0000 0000 0000
0.0 0.0 0.0 0.0 0.0 0.0 0.0 0.0
0.0 0.0 0.0 0.0 0.0 0.0 0.0 0.0
0.0 0.0 0.0 0.0 0.0 0.0 0.0 0.0
0.0 0.0 0.0 0.0 0.0 0.0 0.0 0.0
0.0 0.0 0.0 0.0 0.0 0.0 0.0 0.0
0.0 0.0 0.0 0.0 0.0 0.0 0.0 0.0
0.0 0.0 0.0 0.0 0.0 0.0 0.0 0.0
0.0 0.0 0.0 0.0 0.0 0.0 0.0 0.0
0.0 0.0 0.0 0.0 0.0 0.0 0.0 0.0
0.0 0.0 0.0 0.0 0.0 0.0 0.0 0.0
0.0 0.0 0.0 0.0 0.0 0.0 0.0 0.0
0.0 0.0 0.0 0.0 0.0 0.0 0.0 0.0
0.0 0.0 0.0 0.0 0.0 0.0 0.0 0.0
0.0 0.0 0.0 0.0 0.0 0.0 0.0 0.0
0.0 0.0 0.0 0.0 0.0 0.0 0.0 0.0
0.0 0.0 0.0 0.0 0.0 0.0 0.0 0.0

action_model._discrete_distribution.branches.0.weight f4 [2, 128]
00000000: e1a4 3f3b 74b0 b0b9 652d 11bb 45e9 ee3a
00000010: 03bc 05bb e837 883b de81 05bb 00bd db3b
00000020: 7b54 93bb 2a90 e13b 1550 27bc 887d f43b
00000030: ebbe 24bc 3759 99bc 30c2 eb3b 1518 3bbc
00000040: da49 34bc 9e8b 06bb e362 4a3b b237 233b
00000050: b722 88bb 1b1d 13bb a8ff b439 6fb1 d1bb
00000060: 134f 85bb df2b fe3b 4189 143c dfea 003d
00000070: 4d23 7fbb b3c6 afbb c2b3 083c 2534 f3bb
00000080: c43f 32bc 2164 a2bc bf72 1ebc 9662 9039
00000090: e0a5 73bb 9742 1f3c dfa9 12bc 174e 273c
000000a0: aaa7 313b 8706 633b 6bae 323b 935f 4fbc
000000b0: a5b5 9dbb 177c a7bc 55b8 463c 1792 46bc
000000c0: 097b 41bc baca ebbb 5fb7 9dba 3ca4 9b3c
000000d0: 97f8 913c dbba 97bc 830b 3abb 4c0f a4bb
000000e0: 3d05 43bc 3deb 9a3b d73c 72bc edb9 aabb
000000f0: efad 1bba 8b06 81bc 0068 62bc 5ad0 dbbb
00000100: 6f41 6cbb 58e9 76bb c7e5 50bc 0764 9ebb
00000110: 1239 4a3b 1721 293a b2f9 b9ba 216f 37bc
00000120: e813 e6bb 1d7c 1ebc ff64 0a3c 8b6d 1abc
00000130: dbcf 303a 7a81 dd3b e2c7 b3b9 0505 363c
00000140: 4bd3 28bb fef2 48bc b2d0 b3bb 7b98 553b
00000150: 2060 d93b 05a0 603b 4c5f 083b 889c 063b
00000160: c0e4 a2bc 871c 933c 782d 693c a39a 703b
00000170: d081 a43b c8e2 21bc 6d28 9bbb 7f78 98ba
00000180: 7583 03bb 8a8a 11bb e7bc f63b 5c38 18ba
00000190: 4cbd a63a 1fa8 37bc 4f95 f1bb 52c2 6f3c
000001a0: 6c69 943c 6b55 cdbb 3b79 e7bb 97de 1c3c
000001b0: c207 cd3b 1bd6 cdbb ddb1 4a3c 670c a93b
000001c0: 93db e1ba 933b 0f3c 1350 85bc 02be 12bc
000001d0: 0371 573b 18c4 36bc 62cc 2d3c 0f48 0dbc
000001e0: 6e0c 2aba e33e aaba fb74 373c d7fc dc3a
000001f0: 89b1 08bc 4d69 cf3a 47bc 8dbc 32cc faba
00000200: 6a5d dbbb 89a6 383c 9fd4 6bbb f527 e13b
00000210: 3a61 a23c 8a8b 42bc 7804 df3c bdfb 263c
00000220: d61a a1bb 2786 26bb 5745 4d3a 6222 063c
00000230: e994 a13a a67b 983a ad54 623c 3c7a b23b
00000240: b078 403c 99f2 b13b 459a 073b d97d 29bb
00000250: f3ea 5fbc f5f4 efbb 9bd0 c43b 2045 e63a
00000260: 5533 053c 98da e13b e337 0b39 2f2d 093c
00000270: 43ae 10bb 0374 aabb b00b 4e3a 2b39 b3b9
00000280: eed1 28bc 3738 043c 03ca b239 aa1b 04bc
00000290: 8a1d 3cbc 0062 61bb cfa3 7d3c a38f b7ba
000002a0: e8e5 943c 4202 4e3c 1d0b 7a3c 0b92 eeba
000002b0: a329 4e3c c308 203b 990f 0fbb 4eda 383c
000002c0: 9da0 bdbb c37d 0e3c 3c21 103b 5c74 98bb
000002d0: 9b45 d4bb 35e9 74ba 1556 193a 13d5 00bc
000002e0: f783 a7bc eaca 53bc c84b 82bb 1aa4 4abb
000002f0: 5fb4 03bb bb58 b33b f724 0ebc d078 04ba
00000300: a010 1a3c a7bb f33a abd9 713c d74c 5fb9
00000310: b02b 9e3a 4710 d03c 74b1 34bc 1df1 b83a
00000320: e35f bc3b ecdc ae3b 42b7 233c e7da 673b
00000330: 8b96 d9bb 4d2f 9bbb 8c07 cc3b e846 603c
00000340: 5cac 1c3b 23be 893b 9040 303b 8764 56b6
00000350: 1fe9 f7b9 47e0 31bb 74c1 113b f437 85bb
00000360: 75c9 dabb 3a0a 63bc 27f2 393b d799 aebb
00000370: 88bd 34bc 34db 81bc eade fbbb 21d7 b6bb
00000380: 75c2 71ba b3c2 503c 2326 33ba 627a 06bc
00000390: 7a20 2dbc 8790 4fbb 035e ef3b 370d a23b
000003a0: 20ac e6bb 68d1 1f3a bfd9 95ba 2e45 803c
000003b0: 2f53 46bb adb3 14bc b8d6 c13b fde3 853b
000003c0: 4ab7 823a 8f32 1abc 60cc 74ba f135 07bc
000003d0: f32a a3bb dca5 bd3b a156 163c b745 043c
000003e0: fb0d 5f3c 6f9c bc3b 96cb a1b8 9f34 713c
000003f0: a2b1 713b 0f6a 423c 5564 703c df3f 4cbb
0.0029242563 -0.00033700804 -0.0022152301 0.0018227479 -0.0020406253 0.004157055 -0.0020371596 0.00670588
-0.004496155 0.006883641 -0.010211964 0.0074612536 -0.010055284 -0.018719299 0.00719478 -0.011419316
-0.011003936 -0.0020529996 0.0030881695 0.0024905023 -0.004154529 -0.0022447768 0.00034522754 -0.0063993256
-0.0040682643 0.0077566947 0.009065927 0.03147399 -0.0038930953 -0.005364263 0.008343639 -0.0074219876
-0.010879461 -0.019823136 -0.009670912 0.00027539273 -0.0037177727 0.009720466 -0.008951633 0.010211489
0.0027107992 0.0034641342 0.0027264606 -0.012657064 -0.0048129135 -0.020444913 0.012128909 -0.0121197915
-0.011809119 -0.0071957977 -0.0012032798 0.018999211 0.017818732 -0.018521717 -0.002838821 -0.0050067063
-0.011903104 0.0047277496 -0.014785013 -0.0052101524 -0.0005938699 -0.01575019 -0.013818741 -0.006708187
-0.0036049744 -0.0037675705 -0.012750096 -0.0048337015 0.003085677 0.0006451769 -0.0014188795 -0.011195929
-0.007021416 -0.009673146 0.008446931 -0.009425531 0.000674484 0.0067598196 -0.00034290465 0.011109595
-0.0025760706 -0.012264965 -0.005487525 0.0032592106 0.0066337734 0.0034275067 0.0020808754 0.0020540077
-0.019884467 0.017957939 0.014232032 0.0036713264 0.0050203577 -0.009880729 -0.0047350437 -0.001163259
-0.0020067368 -0.002220782 0.007529843 -0.0005806738 0.001272121 -0.011209517 -0.0073725353 0.014633732
0.018116675 -0.006266286 -0.0070640123 0.009574554 0.0062570283 -0.006281627 0.0123715075 0.005158949
-0.0017231576 0.008742231 -0.016273534 -0.008956434 0.0032873757 -0.011155151 0.010607811 -0.008623137
-0.00064868375 -0.0012988712 0.011197324 0.001686002 -0.008343109 0.0015824229 -0.017301692 -0.0019134341
-0.0066944854 0.011270174 -0.0035984886 0.0068712183 0.019821752 -0.011874089 0.02722381 0.010191855
-0.004916529 -0.002540955 0.0007830462 0.008186908 0.0012327704 0.001163353 0.013814134 0.0054467004
0.011747524 0.005430531 0.0020691317 -0.0025862365 -0.013666856 -0.0073229023 0.006006313 0.0017568208
0.008129914 0.0068925135 0.00013276892 0.008372589 -0.0022076524 -0.005201818 0.0007860018 -0.00034184134
-0.010303957 0.008070043 0.00034101316 -0.008063236 -0.011481652 -0.0034390688 0.01548095 -0.0014004599
0.018176034 0.0125737805 0.015261439 -0.0018201483 0.012583169 0.0024419285 -0.0021829365 0.011282517
-0.005786969 0.008696976 0.0021992465 -0.004652543 -0.006478024 -0.0009342612 0.0005849314 -0.007863301
-0.020448668 -0.012926796 -0.003976319 -0.0030920566 -0.0020096523 0.005473224 -0.008675805 -0.0005053403
0.009403378 0.0018595353 0.014761369 -0.00021295562 0.0012067463 0.025398387 -0.011028636 0.0014109943
0.0057487353 0.0053363945 0.009992423 0.0035378279 -0.0066402606 -0.0047358633 0.0062264856 0.01368878
0.0023906445 0.0042035743 0.002689395 -3.1947e-06 -0.000472852 -0.0027141736 0.0022240551 -0.004065508
-0.0066768476 -0.013857419 0.0028373094 -0.0053283977 -0.011031516 -0.015851595 -0.0076864855 -0.0055798446
-0.0009222397 0.012741732 -0.0006833991 -0.008207889 -0.010566825 -0.0031671838 0.0073049082 0.004945423
-0.007039562 0.00060965726 -0.0011432691 0.015657987 -0.0030261984 -0.009076041 0.005915489 0.004086016
0.0009972837 -0.009411468 -0.00093383156 -0.008252607 -0.004979485 0.0057875942 0.009175927 0.008073262
0.013614173 0.005755953 -7.714999e-05 0.0147220185 0.003687956 0.011866107 0.0146723585 -0.0031166

action_model._discrete_distribution.branches.0.bias f4 [2]
00000000: 0000 0000 0000 0000
0.0 0.0

action_model._discrete_distribution.branches.1.weight f4 [2, 128]
00000000: 1583 64bc cf7d feba a6a6 963a 00b9 783c
00000010: 4471 3fbb 43db 03bc 9742 f7bb 315d 01bc
00000020: 0014 8d3c fbfb 82bb 5371 16bc bf91 1e3c
00000030: f24c 003c d341 823b 73ce 3e3b bc49 283c
00000040: 2ab3 013b d616 a0b8 c7dc d63b 1c3b 353c
00000050: fbd3 d2bb 92fb bdbc aca5 333b 9b97 15bb
00000060: 3216 fbba 8b15 5dbc 83b7 afbc fbae 7f38
00000070: 8d61 40bc 5b49 5e3b 2ed8 453b 7823 383b
00000080: 82ba b83a 3dba 5f3c aaf6 563a 7b09 0abc
00000090: db4b d4b9 b74b 5e3c 4bc9 9fbc 5f07 b3bb
000000a0: 2a88 fc3a 0db5 84bb 1b38 7fbc 2710 10bc
000000b0: 1055 f8bb 1a74 e7ba c7b8 a23b 0663 a53a
000000c0: d509 d63b db8e 46bc 9404 8e3c 1acc 4eba
000000d0: 0f77 3c3c cf89 23ba ba1a 6b3b 3fb1 89bb
000000e0: 2916 aa3b f4b5 18bb dd5b 8cba 93c9 1f3b
000000f0: 7347 833c 693f 833c 4396 a73b 3e73 af3b
00000100: 5096 e0ba 4b46 a2bb 98ca edba 9f20 ee3b
00000110: 5faf 8e3b 6301 b23b 17fd fabb f70e 06bc
00000120: 27a3 44bc aaad 3cbc 50cf 80bc 54ce 1fbc
00000130: f202 50bc 358f 143c bf22 743b 8cbe 07bc
00000140: 6479 313b 3641 243b 9d72 76bb 655d ee3b
00000150: 4a7e f3ba 0a43 f03b 19ef 8b3c 9420 803b
00000160: 1cf3 36bc c801 3dbc 352d f03b a5e9 3b3c
00000170: bbe8 bdbb 5d34 cebb 62e9 5f3b 07c5 46bc
00000180: e5e1 c5bb fa25 113b acea 0b3c 555a 91bc
00000190: f304 2d3c b791 a53b 1c07 cc3b fe35 abbc
000001a0: d3c0 983c e0cd 74bc 0d94 15bc 7119 a039
000001b0: 10a5 dfbb 5ae6 f3bb 2a75 16bc 3314 88bc
000001c0: 1d5d 1e3c 80b8 6a3b db55 193b eebb c7bb
000001d0: bb54 b73c 0f5d 373c 70b1 bb3a 197d 493c
000001e0: 52a9 90bc b531 09bb 8c1e 153b d144 ad3b
000001f0: 08b6 78ba 7321 513c 8f63 96bb fb48 38bc
00000200: 97bd ddbb f00b c83b 90a5 113a 431b f7ba
00000210: 9028 00bc b50a 703b f8a2 723c 170a 8f39
00000220: cf0b 023c 01f2 26bc c5e2 e1ba 7c41 843c
00000230: 3c62 c63b 5d2f 34bc 8120 ad3b 1bf9 ea3a
00000240: 77ec 04bb 8f26 6cb9 a836 8b3b 5b06 58bb
00000250: 49a2 95b9 9746 9ebb d8ff b5bc 2020 70bc
00000260: e3cb 493b 9765 07bb 27fe bdbb 6e11 4c3c
00000270: 0b85 2dbc bad0 e23b c9c5 2dbb 324d 553c
00000280: d7fa 8739 e742 27bc 7118 893b d8f3 e339
00000290: 9767 833c 83a1 9cbb 2af4 17bc f3b8 453c
000002a0: 6351 fdbb 804a 65bc ff94 8a3b 4718 183c
000002b0: 1dac 673c 1a43 3bbb 83bd 08bc 4d36 5c3c
000002c0: 2f44 e5bb a819 323c 15b4 44ba 4b56 183a
000002d0: cfef 9e3c 2d0a 41bb ea48 563c 426c 50bb
000002e0: 4692 acbb 75a9 ff3b 46a0 243c 8fb8 c0bb
000002f0: ef25 bcbb cfdf 283a 6b5d ad3c 8633 abba
00000300: 5797 0c3c eb6a 193a 1834 553b 9810 573c
00000310: 0546 dabb 9602 80bb 1427 9d3b 82d0 04bc
00000320: c315 55bb d939 493a 9fdf 22bc e907 3f3b
00000330: f778 64bc a995 4abb 4a7a b73b 0a06 0dbc
00000340: 31b0 073a aa88 e73b bd26 9c3a 544c 02bc
00000350: e321 00bc 6336 4dbc 60ff 023a 00b7 81bc
00000360: 3a81 04bb e0ae b2bc 8da3 e13b ad01 d73b
00000370: 6221 373b 4b6f 4cbc 3b64 4ebb b553 4ebc
00000380: 61f5 913a 95fa e23b db88 48bc 1fcc 113c
00000390: 4bc1 173c 685f 67bb 9a3c 9abc e243 de3a
000003a0: 5f73 b13b 0219 37bc 1875 063b bb6a 96bc
000003b0: d1b4 1abc 508b afbb 88da 4cbb 8ce3 213b
000003c0: e50f 383a 8d60 e7bb 152f 94ba 6d47 983b
000003d0: 8780 15bc bd36 a23c 5b55 dc3b 0520 83bc
000003e0: 1beb 0b3b bb0a 583b 07b4 583c 5c11 3fbb
000003f0: 637d 8b3b 9190 cc39 c160 ccbb 3d9e 59bc
-0.013947268 -0.0019416156 0.0011493757 0.015180826 -0.0029211799 -0.008047882 -0.00754578 -0.007895754
0.01722145 -0.0039973236 -0.009182292 0.009678303 0.007830845 0.003975132 0.0029114753 0.010271486
0.0019790628 -7.633648e-05 0.0065570804 0.011061456 -0.0064339614 -0.023191247 0.002741198 -0.002282596
-0.0019156395 -0.013493906 -0.02144981 6.09597e-05 -0.011742008 0.0033918235 0.0030188668 0.0028097313
0.001409367 0.0136552425 0.0008200208 -0.008425112 -0.00040492308 0.0135678565 -0.019505164 -0.005463525
0.0019266654 -0.0040499032 -0.015577341 -0.0087929135 -0.0075784996 -0.0017658502 0.004965875 0.0012618012
0.006531934 -0.01211902 0.017336167 -0.000788869 0.011502995 -0.00062384916 0.0035874085 -0.0042020376
0.00519063 -0.0023301812 -0.001070853 0.0024381622 0.01602528 0.016021447 0.005114348 0.005354314
-0.001713464 -0.004952227 -0.0018142043 0.0072670723 0.004354402 0.005432294 -0.007659565 -0.008182279
-0.012001789 -0.011516014 -0.015723854 -0.009753782 -0.012696015 0.009067346 0.0037252156 -0.008285176
0.002708041 0.0025063283 -0.0037604936 0.007274317 -0.0018577066 0.0073322104 0.017081784 0.0039101336
-0.01116636 -0.011536069 0.007329608 0.011469279 -0.005795566 -0.0062928633 0.0034166207 -0.012131936
-0.0060388916 0.002214788 0.008539837 -0.017743269 0.010560262 0.005052771 0.0062264334 -0.020899769
0.018646633 -0.014941663 -0.009129536 0.00030536533 -0.006825097 -0.0074432315 -0.0091832075 -0.016611194
0.009665755 0.0035815537 0.002339712 -0.006095401 0.02237927 0.0111916205 0.0014319848 0.012297892
-0.017658863 -0.0020934169 0.0022753803 0.0052877446 -0.0009487574 0.012764323 -0.004589505 -0.011247869
-0.0067669856 0.0061049387 0.0005555982 -0.0018852729 -0.007822171 0.0036627476 0.014809363 0.00027282603
0.007937386 -0.010189534 -0.001723372 0.016144507 0.006054191 -0.01099762 0.005283416 0.0017927022
-0.0020282546 -0.00022521078 0.004248459 -0.0032962773 -0.00028540406 -0.0048301923 -0.022216722 -0.014656097
0.0030791692 -0.0020659917 -0.0057981196 0.012455327 -0.010590802 0.006921855 -0.0026515594 0.013018893
0.00025936097 -0.010208822 0.004183822 0.00043478492 0.016040606 -0.004779996 -0.009274522 0.012068021
-0.0077306493 -0.013994813 0.0042291875 0.009283132 0.014140156 -0.0028573931 -0.008345964 0.013440681
-0.0069966535 0.010870375 -0.0007503641 0.00058111985 0.019401459 -0.0029455528 0.0130789075 -0.0031802808
-0.0052664606 0.0078021833 0.010047978 -0.005881376 -0.0057418267 0.00064420415 0.02116271 -0.001306162
0.008581004 0.0005852419 0.003253227 0.013126515 -0.006661179 -0.0039065583 0.0047959182 -0.008106353
-0.0032514192 0.00076761615 -0.009941011 0.0029149002 -0.013944856 -0.0030911958 0.005599295 -0.008607397
0.0005176096 0.007065852 0.00119134 -0.007952768 -0.007820579 -0.012525174 0.000499716 -0.015834332
-0.0020218627 -0.021811903 0.006885952 0.006561479 0.0027943482 -0.012477706 -0.0031492847 -0.0125931995
0.0011135751 0.0069268444 -0.01223966 0.008898764 0.009262393 -0.003530467 -0.018827725 0.0016957487
0.0054153646 -0.011175396 0.002051657 -0.01836144 -0.009442524 -0.0053571835 -0.0031258184 0.002470228
0.00070214114 -0.0070610703 -0.0011305535 0.0046471865 -0.009124882 0.019801492 0.0067240424 -0.016006479
0.002134985 0.003296538 0.013226516 -0.0029154634 0.0042568906 0.00039017622 -0.00623712 -0.013282356

action_model._discrete_distribution.branches.1.bias f4 [2]
00000000: 0000 0000 0000 0000
0.0 0.0

network_body._body_endoder.seq_layers.0.weight f4 [128, 1]
00000000: 6f45 4cbf 3885 0bc0 fb52 62bf b9f2 a3be
00000010: 43cd da3c 216e 953f 622d 1dbf 21d2 d93f
00000020: 52c6 8f3d d017 d73f c0b6 833f 598f 83bf
00000030: 0045 5fbf 7c34 1fbe 4b8d c2bf 975c af3f
00000040: 339f ed3e 9c02 8b3f 6fc5 773e 6b3d 773d
00000050: 325e a83f 992f ac3f 41da b1bf 4887 563f
00000060: 90fd aebf 8b90 c53d dfd4 20bf 68d2 bcbf
00000070: 7f50 2abf 8ea2 34bf fdbc 1cbf 7966 84bf
00000080: 7867 893f 308a 8b3f b50f abbf b97f 733e
00000090: b617 533f eacb c1be 6b79 0140 52b5 bbbe
000000a0: 3947 513e e3a8 8bbf 6fad 9dbf 372b 843f
000000b0: 196e 293e f20c f43e 11eb 893e 0205 d4bd
000000c0: bc4e ab3f 2b24 6cbf db5f 90be 4734 483f
000000d0: cf22 7d3c e8cb 013f 8a8a e2bf 3478 3540
000000e0: ba34 0cbf c211 51bd d6e6 153f 8393 00bf
000000f0: 22e3 ddbd 10f7 0dbe 8c78 1ebf 2615 c8be
00000100: 99a9 3c3e ac32 c33d 6dcb 2bbf 9837 2a3f
00000110: 017c a5bd d4b7 89be 8833 af3f 0def 67be
00000120: 3322 d6bd 146e afbe 5926 e3be dade bd3f
00000130: 47c9 b4bf 2ee4 efbf edc6 a63f 8f86 a13c
00000140: 4620 0c3f eb6c d73f ba6e 42be 8a30 db3f
00000150: 0150 1640 560b 5e3f 2df0 463f 3be9 97bf
00000160: 7145 febe 844f 7ebe 8b48 203f 5f22 48be
00000170: d492 b4be b39e 6bbf 90e0 c13f f61f 22bf
00000180: c71c 39bf eea5 18bf fa3e 41bf b039 453f
00000190: 0783 d0bd ab56 e43e 33ff ccbc 738f 8fbe
000001a0: 10ea a9bf 2679 fabf a8ad efbe ec15 7abd
000001b0: da28 fcbe 5482 a0bf 08be 10be 8276 c63e
000001c0: 79cf 34be 7a7d 6a3d f721 85bf 7779 363e
000001d0: 9a01 c13f 1725 5d3f 40c2 3140 8e5e b23e
000001e0: 5dfd 8fbf d5c2 0bbf ad66 863c 10c4 b8be
000001f0: d265 6d3e 6041 09be 210d 4ac0 dd63 0a40
-0.7979345 -2.180006 -0.8840787 -0.3202112 0.026709205 1.1674234 -0.61397374 1.7017251
0.070202485 1.6804142 1.0290146 -1.0278121 -0.8721466 -0.15547365 -1.5199369 1.3700131
0.46410522 1.0860171 0.24196409 0.060361307 1.3153746 1.3452026 -1.3894731 0.8380017
-1.3671131 0.0964671 -0.62824816 -1.4751711 -0.6652908 -0.7056054 -0.61225873 -1.0343772
1.0734701 1.0901546 -1.3364168 0.23779191 0.82458055 -0.37850887 2.0230358 -0.36661774
0.20437326 -1.0910915 -1.2318553 1.0325688 0.16545905 0.47666126 0.26937154 -0.10352518
1.3383403 -0.9224269 -0.28198132 0.7820477 0.015450194 0.5070176 -1.7698529 2.8354616
-0.54767954 -0.051042326 0.5855535 -0.50225085 -0.10834338 -0.13863778 -0.6190269 -0.39078635
0.18424071 0.09531149 -0.6710728 0.6649108 -0.080802925 -0.26898062 1.3687601 -0.22649784
-0.10455742 -0.3426367 -0.44365194 1.4833634 -1.4123925 -1.874151 1.3029457 0.019717483
0.54736745 1.6830114 -0.18987551 1.7124188 2.348633 0.8673605 0.7771023 -1.1868051
-0.49662355 -0.2483502 0.6261069 -0.19544362 -0.3526827 -0.9203903 1.5146656 -0.6333002
-0.72309536 -0.5962819 -0.7548672 0.7704115 -0.101812415 0.44597372 -0.025024032 -0.2803913
-1.3274555 -1.9568222 -0.46812177 -0.061056063 -0.49249917 -1.2539773 -0.14134991 0.3876229
-0.1765727 0.05724857 -1.040099 0.17819773 1.5078614 0.8638472 2.777481 0.34837765
-1.1249195 -0.54594165 0.016406382 -0.36087084 0.23183373 -0.13403845 -3.1570513 2.1623452

network_body._body_endoder.seq_layers.0.bias f4 [128]
00000000: 0000 0000 0000 0000 0000 0000 0000 0000
00000010: 0000 0000 0000 0000 0000 0000 0000 0000
00000020: 0000 0000 0000 0000 0000 0000 0000 0000
00000030: 0000 0000 0000 0000 0000 0000 0000 0000
00000040: 0000 0000 0000 0000 0000 0000 0000 0000
00000050: 0000 0000 0000 0000 0000 0000 0000 0000
00000060: 0000 0000 0000 0000 0000 0000 0000 0000
00000070: 0000 0000 0000 0000 0000 0000 0000 0000
00000080: 0000 0000 0000 0000 0000 0000 0000 0000
00000090: 0000 0000 0000 0000 0000 0000 0000 0000
000000a0: 0000 0000 0000 0000 0000 0000 0000 0000
000000b0: 0000 0000 0000 0000 0000 0000 0000 0000
000000c0: 0000 0000 0000 0000 0000 0000 0000 0000
000000d0: 0000 0000 0000 0000 0000 0000 0000 0000
000000e0: 0000 0000 0000 0000 0000 0000 0000 0000
000000f0: 0000 0000 0000 0000 0000 0000 0000 0000
00000100: 0000 0000 0000 0000 0000 0000 0000 0000
00000110: 0000 0000 0000 0000 0000 0000 0000 0000
00000120: 0000 0000 0000 0000 0000 0000 0000 0000
00000130: 0000 0000 0000 0000 0000 0000 0000 0000
00000140: 0000 0000 0000 0000 0000 0000 0000 0000
00000150: 0000 0000 0000 0000 0000 0000 0000 0000
00000160: 0000 0000 0000 0000 0000 0000 0000 0000
00000170: 0000 0000 0000 0000 0000 0000 0000 0000
00000180: 0000 0000 0000 0000 0000 0000 0000 0000
00000190: 0000 0000 0000 0000 0000 0000 0000 0000
000001a0: 0000 0000 0000 0000 0000 0000 0000 0000
000001b0: 0000 0000 0000 0000 0000 0000 0000 0000
000001c0: 0000 0000 0000 0000 0000 0000 0000 0000
000001d0: 0000 0000 0000 0000 0000 0000 0000 0000
000001e0: 0000 0000 0000 0000 0000 0000 0000 0000
000001f0: 0000 0000 0000 0000 0000 0000 0000 0000
0.0 0.0 0.0 0.0 0.0 0.0 0.0 0.0
0.0 0.0 0.0 0.0 0.0 0.0 0.0 0.0
0.0 0.0 0.0 0.0 0.0 0.0 0.0 0.0
0.0 0.0 0.0 0.0 0.0 0.0 0.0 0.0
0.0 0.0 0.0 0.0 0.0 0.0 0.0 0.0
0.0 0.0 0.0 0.0 0.0 0.0 0.0 0.0
0.0 0.0 0.0 0.0 0.0 0.0 0.0 0.0
0.0 0.0 0.0 0.0 0.0 0.0 0.0 0.0
0.0 0.0 0.0 0.0 0.0 0.0 0.0 0.0
0.0 0.0 0.0 0.0 0.0 0.0 0.0 0.0
0.0 0.0 0.0 0.0 0.0 0.0 0.0 0.0
0.0 0.0 0.0 0.0 0.0 0.0 0.0 0.0
0.0 0.0 0.0 0.0 0.0 0.0 0.0 0.0
0.0 0.0 0.0 0.0 0.0 0.0 0.0 0.0
0.0 0.0 0.0 0.0 0.0 0.0 0.0 0.0
0.0 0.0 0.0 0.0 0.0 0.0 0.0 0.0

network_body._body_endoder.seq_layers.2.weight f4 [128, 128]
00000000: de18 d23d 4432 0ebe f3ca c23d 3a8e 4b3b
00000010: cb61 a63d dccc 3b3d a3a5 453d 397b c63c
00000020: b92f e0bd 1fb6 94bd 7f1c 93bd 4afd b13d
00000030: 9e40 f73d 7921 e7bd 2659 28be aefc c53d
00000040: d818 8e3e e4d6 d83c a697 f53c 6ed9 d93c
00000050: 43b9 093d c292 0a3e db21 e53c 8d82 ac3c
00000060: 9a99 e33c 4451 8cbd f812 b8bb 1368 793c
00000070: 1215 e9bb 800a 22bd b610 353e cebe 92bd
00000080: bfa6 05bd 7a05 2f3d 046a 333d 6a12 50bd
00000090: dda9 293e de23 c0bc a80f b0bd a5c7 b3bc
000000a0: d677 c1bc 7676 043d 2116 a9bd 4af1 773d
000000b0: 5427 4f3d 895d 47be 6799 c43d 022d 1abd
000000c0: 47ec 5f3d e31b a73c 148c 08be 236a c5bd
000000d0: 9f02 7c3c e5d8 babd 1806 2c3d af2a a9bd
000000e0: 39c1 b9bd 2ba6 07bd ac40 1cbd 2e83 863d
000000f0: 4794 32bd f0fb 50bd 65b5 ed3b 4c88 09bb
00000100: 1915 abbc c7e3 50be 4a2b 233e bec4 30bc
00000110: 3b6c a5bc ba9f 213d d643 0dbb 7559 7ebd
00000120: f0e4 bc3d 72bb 8abd 6dd1 cdbd ef50 bebc
00000130: e8b2 0e3e c72b 463d 3071 503c a734 e5bc
00000140: d69b 75bd 2134 a4bc 4c09 62be 9ca6 d7bd
00000150: 2ed7 56be d536 8abd 7a61 5d3d 4641 da3d
00000160: bb1e 9cba a32e 49bb 9064 f2bc 36e3 053d
00000170: 5b5d e03d 766b ac3d f4f7 ed3c a8ec 303d
00000180: 1662 62bd 7ba6 123c c251 ef3d 2457 80bd
00000190: e4b0 f3bd e9a3 1cbd 7922 8e3d 09b3 2ebd
000001a0: d02e e6bd ea37 dc3d adec 9bbd 5c7b 7f3c
000001b0: 0f22 083e 16ba fe3a 064e cb3d 81f3 6f3c
000001c0: 7252 36be 76df b4bd 9871 193d 03ac 81bc
000001d0: 592f 1c3d 8bc6 153e d895 c33c 5c9f 4bbe
000001e0: 2e7f 2b3c 6f77 063e 274d 52bc dc1a 073d
000001f0: 2817 e03b 5eda 73bd 3eb9 f63c 1237 1f3d
00000200: b06d 6abc a55b 663d 7ced ae3d 42f6 28be
00000210: 468a b13c 39af 89bd 0396 e2bd dd84 2cbe
00000220: ffbf 95bd 39aa 9cbc ecdc 553d ee90 183b
00000230: e61a 48bd 2336 8b3c 4069 cb3c 494b 39bd
00000240: c4a4 88be f694 af3d 1df9 bebc 1df6 523c
00000250: d787 2e3d b6e3 a1bd 2983 273d bdd9 45bd
00000260: b188 c6bd 2598 acbd 3d0b f43d b32a ce3d
00000270: 2f9c 0e3e f4a6 95bd b84b abbd 42e9 bfbd
00000280: e59b 61be cf83 87bd a9e1 d8bd ec7b 073d
00000290: d946 c7bd 1950 10be 534e 873b cbc6 23be
000002a0: f178 87be 49cd ee3c 0724 82bd 2675 a8bd
000002b0: 5866 823d 6267 233d a9d3 1e3e c1dc 963d
000002c0: 71cb 1bbd 53e8 e1bc 786d a6bd b16c 98bd
000002d0: 3782 bc3d ffb0 403d 4c6c 33bd dffa d3bd
000002e0: f783 35bd 7668 b03d 9777 cbbc 59ce f93d
000002f0: d320 c1bd 12f2 3b3e d849 21bb d6e6 eabb
00000300: ea0d 46bd dd92 a1bc 6f5b deba 6b55 cb3d
00000310: 752d d53c 93ae 983b 740f 4cbd 7a9b 5f3b
00000320: 365d ba3c 6138 0b3e ae9b 5abd 5d55 883d
00000330: 923c 2c3d 14f5 a33a 5d58 3abc 03ab e3bd
00000340: 13b7 883c 91ae b83d eed0 6dbd 0f9c 9f3a
00000350: 55cd f9bd 66a6 cfbb 4f1e 433d f5d7 5a3e
00000360: 5dc4 6abd 4f2e 543e e0af 083d 10a7 8f3c
00000370: 80cc d2bd 6115 9fbc 0187 a13d ce9f a53d
00000380: ddca 2d3e 01a3 453d ee99 d43d 055a 55bd
00000390: bf43 793e 4c02 ebbc 2723 403e 7132 863d
000003a0: b3ed 10bd 8991 c6bc a4f1 53bd 7cba 29be
000003b0: 444b 913d 36f1 a63d 32d7 aa3d 81c2 b2bd
000003c0: 86ee ee3d b804 66bd bb25 93bd f837 783c
000003d0: a434 0c3e 2cf6 e0bb 5636 e13b da04 0e3d
000003e0: 6602 613d 3f41 39bd e7b2 db3d 4d36 2b3d
000003f0: f91e 70bd 8922 083e 59de 29be 7c19 e7bd
0.10258649 -0.13886362 0.09511366 0.0031060115 0.08124121 0.045849666 0.048253667 0.024228679
-0.109466024 -0.07261299 -0.071831696 0.08690889 0.120728716 -0.11285681 -0.16440257 0.096673355
0.2775333 0.026469655 0.029979538 0.026592936 0.033623945 0.13532546 0.027970245 0.021058345
0.027783204 -0.06851438 -0.0056174956 0.015222567 -0.0071131075 -0.039560795 0.17682156 -0.07165299
-0.032629725 0.042729832 0.043802276 -0.05079881 0.16568704 -0.023454603 -0.08596736 -0.021945784
-0.023616713 0.032339536 -0.08256174 0.060532846 0.050574616 -0.19469275 0.09599572 -0.03764058
0.05466869 0.02039904 -0.13334686 -0.096393846 0.015381484 -0.091234006 0.041998 -0.082600944
-0.090700574 -0.033117454 -0.038147613 0.06567989 -0.04359844 -0.051021516 0.00725429 -0.002098578
-0.020884084 -0.2039939 0.15934482 -0.0107890945 -0.02019321 0.039458968 -0.0021555326 -0.06209703
0.09223354 -0.067740336 -0.100497104 -0.023231952 0.13935435 0.048381593 0.0127222985 -0.027979208
-0.05996307 -0.020044388 -0.22073859 -0.10529825 -0.20980522 -0.0674874 0.05404804 0.10656981
-0.0011911014 -0.0030697964 -0.029588968 0.03268739 0.10955306 0.08418934 0.029048897 0.043194443
-0.055269323 0.008950825 0.11685516 -0.06266621 -0.118989736 -0.038242254 0.06940169 -0.04265121
-0.112393975 0.10752852 -0.07613502 0.015593376 0.13294242 0.001943412 0.09926991 0.014645458
-0.17804888 -0.08831684 0.037461847 -0.015829092 0.03813109 0.1462652 0.023875162 -0.1988501
0.010467334 0.13131498 -0.012835777 0.0329846 0.006838698 -0.059534423 0.030117627 0.03887088
-0.014308378 0.056239743 0.0854139 -0.1650019 0.02167238 -0.06722874 -0.11063769 -0.16847558
-0.07312011 -0.019124137 0.05221264 0.0023279744 -0.048853777 0.016993588 0.02483046 -0.045237813
-0.26688206 0.08573334 -0.023312146 0.012876061 0.042610016 -0.079047605 0.04089657 -0.048303355
-0.096940406 -0.08427457 0.11916206 0.10066738 0.13926767 -0.073072344 -0.083640516 -0.09370662
-0.22032125 -0.06616937 -0.10589916 0.033077165 -0.0973031 -0.14093055 0.00412921 -0.15993802
-0.26459458 0.029150622 -0.06354528 -0.08225469 0.06367177 0.039893515 0.1551043 0.07366324
-0.038035814 -0.027576601 -0.08126348 -0.07442606 0.09204524 0.047043797 -0.04380445 -0.10350584
-0.044315305 0.08613674 -0.024837298 0.12197561 -0.09430089 0.18354061 -0.0024610665 -0.007168631
-0.048353113 -0.01972335 -0.0016964505 0.099284016 0.026022652 0.0046594827 -0.049819425 0.003411977
0.022749525 0.13595726 -0.053371124 0.06656907 0.04204995 0.0012508952 -0.0113736065 -0.11116602
0.01668886 0.09017671 -0.05806058 0.0012177246 -0.12197367 -0.006336975 0.047636326 0.21371444
-0.057316173 0.2072079 0.033370852 0.017535716 -0.102929115 -0.019419374 0.07887078 0.08087121
0.16971917 0.048251156 0.10380922 -0.052087802 0.2434225 -0.028687619 0.1876341 0.0655259
-0.035382938 -0.024239318 -0.05174412 -0.16575044 0.07094434 0.08151476 0.083418265 -0.08728505
0.116665885 -0.056156844 -0.07184931 0.015150063 0.13691956 -0.0068652835 0.0068729324 0.034672596
0.054933928 -0.04522824 0.10727482 0.041799832 -0.058623288 0.13294424 -0.16588725 -0.11284158

network_body._body_endoder.seq_layers.2.bias f4 [128]
00000000: 0000 0000 0000 0000 0000 0000 0000 0000
00000010: 0000 0000 0000 0000 0000 0000 0000 0000
00000020: 0000 0000 0000 0000 0000 0000 0000 0000
00000030: 0000 0000 0000 0000 0000 0000 0000 0000
00000040: 0000 0000 0000 0000 0000 0000 0000 0000
00000050: 0000 0000 0000 0000 0000 0000 0000 0000
00000060: 0000 0000 0000 0000 0000 0000 0000 0000
00000070: 0000 0000 0000 0000 0000 0000 0000 0000
00000080: 0000 0000 0000 0000 0000 0000 0000 0000
00000090: 0000 0000 0000 0000 0000 0000 0000 0000
000000a0: 0000 0000 0000 0000 0000 0000 0000 0000
000000b0: 0000 0000 0000 0000 0000 0000 0000 0000
000000c0: 0000 0000 0000 0000 0000 0000 0000 0000
000000d0: 0000 0000 0000 0000 0000 0000 0000 0000
000000e0: 0000 0000 0000 0000 0000 0000 0000 0000
000000f0: 0000 0000 0000 0000 0000 0000 0000 0000
00000100: 0000 0000 0000 0000 0000 0000 0000 0000
00000110: 0000 0000 0000 0000 0000 0000 0000 0000
00000120: 0000 0000 0000 0000 0000 0000 0000 0000
00000130: 0000 0000 0000 0000 0000 0000 0000 0000
00000140: 0000 0000 0000 0000 0000 0000 0000 0000
00000150: 0000 0000 0000 0000 0000 0000 0000 0000
00000160: 0000 0000 0000 0000 0000 0000 0000 0000
00000170: 0000 0000 0000 0000 0000 0000 0000 0000
00000180: 0000 0000 0000 0000 0000 0000 0000 0000
00000190: 0000 0000 0000 0000 0000 0000 0000 0000
000001a0: 0000 0000 0000 0000 0000 0000 0000 0000
000001b0: 0000 0000 0000 0000 0000 0000 0000 0000
000001c0: 0000 0000 0000 0000 0000 0000 0000 0000
000001d0: 0000 0000 0000 0000 0000 0000 0000 0000
000001e0: 0000 0000 0000 0000 0000 0000 0000 0000
000001f0: 0000 0000 0000 0000 0000 0000 0000 0000
0.0 0.0 0.0 0.0 0.0 0.0 0.0 0.0
0.0 0.0 0.0 0.0 0.0 0.0 0.0 0.0
0.0 0.0 0.0 0.0 0.0 0.0 0.0 0.0
0.0 0.0 0.0 0.0 0.0 0.0 0.0 0.0
0.0 0.0 0.0 0.0 0.0 0.0 0.0 0.0
0.0 0.0 0.0 0.0 0.0 0.0 0.0 0.0
0.0 0.0 0.0 0.0 0.0 0.0 0.0 0.0
0.0 0.0 0.0 0.0 0.0 0.0 0.0 0.0
0.0 0.0 0.0 0.0 0.0 0.0 0.0 0.0
0.0 0.0 0.0 0.0 0.0 0.0 0.0 0.0
0.0 0.0 0.0 0.0 0.0 0.0 0.0 0.0
0.0 0.0 0.0 0.0 0.0 0.0 0.0 0.0
0.0 0.0 0.0 0.0 0.0 0.0 0.0 0.0
0.0 0.0 0.0 0.0 0.0 0.0 0.0 0.0
0.0 0.0 0.0 0.0 0.0 0.0 0.0 0.0
0.0 0.0 0.0 0.0 0.0 0.0 0.0 0.0

value_heads.value_heads.extrinsic.weight f4 [1, 128]
00000000: 952f f9bd 2078 b2bd 5a0a 2fbe 593c 89bb
00000010: dd8a 373d 0a30 8f3d 6a9f c63d cbd8 46be
00000020: ea73 163e 2872 c23d b296 16be 0468 3fbe
00000030: 3555 4dbe 4ec0 20be 2248 cc3d d4c1 53be
00000040: 37e5 f83d e98f 94bd dcf7 c4bd 42e9 e2bd
00000050: 21f9 8bbc 518b 2cbe 6f73 5c3e 296f f13b
00000060: e970 0fbe d404 cebd a8c5 953d 5308 593d
00000070: 58d4 3e3d 0af0 403e 07f1 7fbd ad96 453e
00000080: 658b afbd e38b 423e dfde c6b8 3f74 babd
00000090: ff36 583c 6661 413e 82f9 b6bd 264c 5a3e
000000a0: 55d5 5b3e ef01 4ebe ec25 09be a1b8 cf3d
000000b0: 9a46 f33d 3458 f1bd 306d f1bd 7d23 113e
000000c0: 9a5f 5c3d 0f5c 22be 8cc5 a0bd 6712 913d
000000d0: 264d 083e 7ed2 1ebe e72d 14be 1fb7 e6bd
000000e0: 0c74 2cbd 0bd6 cebd 979d 36be 6459 6e3c
000000f0: 5b76 54be 339b 23be 48f5 bbbd 8eb1 363d
00000100: a21b 943d 2fb3 1e3d 7bc4 13bd f54b f0bd
00000110: 3583 5dbc db92 d0bc 8039 433e 4798 c3bd
00000120: 3a6c 19bd bc38 af3d 95e5 8ebd 2eab 98bc
00000130: c35f 213d 0481 483e 9b76 c23d 5944 20be
00000140: 4843 88bd cf07 963d 34cf cf3d 0f11 fdbd
00000150: 3a91 913c d60e 5bbe 4323 f7bd ddb3 82bc
00000160: 4f85 febb 2b88 f5bd 9533 b33d 2777 28bd
00000170: 35ac 023d a9e9 3dbe 91e5 adbd 66b9 13bd
00000180: 2555 22be 2afd 9dbc f121 423e 15c8 023e
00000190: e356 e83d 8e96 0cbe e23d c5bb 23a5 c73d
000001a0: 0adf 413e 07de 2d3d c9a9 cebd 6ac5 1ebe
000001b0: bf46 983d 0091 993d f24e 31be cba6 36be
000001c0: da12 7c3d cf44 efbd b871 d5bd 7395 44bd
000001d0: c3e4 b2bd b898 92bd c165 e33d a160 153c
000001e0: e5b5 3cbe 8201 023d 30e4 413e 9007 313e
000001f0: 98b5 593e bac8 083d 72aa 5a3e 3219 153e
-0.12167279 -0.08714318 -0.17093793 -0.004188102 0.044810165 0.069915846 0.096983746 -0.19418637
0.14692655 0.0949443 -0.14705923 -0.18692023 -0.20052035 -0.15698358 0.09974696 -0.20679408
0.12153094 -0.07254011 -0.09617588 -0.11079647 -0.017086567 -0.1685002 0.2152841 0.0073679877
-0.14007916 -0.10059515 0.073130906 0.052986454 0.046589226 0.18841568 -0.06248572 0.1929576
-0.08571509 0.18998675 -9.482889e-05 -0.091042034 0.013196706 0.18884811 -0.089343086 0.21318111
0.21468098 -0.20117925 -0.13393372 0.10142637 0.118787006 -0.117844015 -0.11788404 0.14173694
0.05380211 -0.1585543 -0.07850179 0.07083588 0.1331068 -0.15509984 -0.14470635 -0.11265396
-0.04210286 -0.10099419 -0.17833553 0.01454768 -0.20748274 -0.15977173 -0.09177643 0.044602923
0.07231833 0.0387451 -0.03607605 -0.11733238 -0.013520052 -0.025460651 0.19064903 -0.09550529
-0.03745673 0.08555743 -0.06977383 -0.018636312 0.039397966 0.19580466 0.094952784 -0.15651073
-0.06653458 0.07325708 0.10146943 -0.12356769 0.017769445 -0.21392378 -0.120672725 -0.015954906
-0.0077673565 -0.119888626 0.08750073 -0.041129258 0.03190251 -0.18546166 -0.08491052 -0.03606548
-0.15852793 -0.019285757 0.1895826 0.12771638 0.11344697 -0.13729307 -0.00601934 0.09748294
0.18932739 0.04244807 -0.10090978 -0.15504995 0.07435369 0.0749836 -0.17315271 -0.17837064
0.061541416 -0.11683046 -0.10422081 -0.04799409 -0.08735039 -0.07158035 0.111033924 0.009117276
-0.18428762 0.03173972 0.18934703 0.17288041 0.21260679 0.033394553 0.21354082 0.14560392
