results/ppo/AgentBehaviour/AgentBehaviour-192.onnx (onnx, 72154 bytes, 9 tensors)

action_model._discrete_distribution.branches.0.bias f4 [2]
0	0x00000000	0.0
1	0x00000000	0.0

action_model._discrete_distribution.branches.0.weight f4 [2, 128]
0	0x3c75842b	0.014985125
1	0xbcc1927d	-0.023629421
2	0x3c055eb6	0.008140257
3	0xbcb5108a	-0.022102613
4	0xbc1be511	-0.009515063
5	0x3c5417f0	0.01294516
6	0xbb702bc3	-0.0036647178
7	0xbc1d5875	-0.009603609
8	0x3c820b18	0.01587443
9	0x3c36db35	0.0111606615
10	0xbc540ca0	-0.012942463
11	0xbc00f294	-0.007870335
12	0x390960a1	0.00013101335
13	0x3b0e397f	0.002170175
14	0x3c01bb45	0.007918184
15	0xbc2a972c	-0.010412019
16	0xbb2bd5f0	-0.0026220046
17	0xbbf132a2	-0.007360772
18	0x3c000eae	0.007816
19	0xbbbe012a	-0.0057984786
20	0xbbcd837b	-0.006271777
21	0xbbc2b059	-0.0059414324
22	0xbba8c0b8	-0.005149927
23	0x3b7f78fd	0.0038982027
24	0xbbfffc8a	-0.0078120874
25	0x3bd6e56d	0.0065581114
26	0x3c1d09ec	0.009584885
27	0x3bd48b8d	0.0064863623
28	0xbc447387	-0.0119904345
29	0x3b46d9a9	0.0030342138
30	0x3bfd3cbb	0.007728187
31	0x3a8c8850	0.0010721777
32	0xbb4045a2	-0.002933838
33	0x3c266493	0.010155815
34	0xbc5a8bc3	-0.013338986
35	0x3b1dd9ba	0.0024086074
36	0x3a74f927	0.0009344988
37	0x3b03541f	0.0020039154
38	0xbc3c91f4	-0.011509407
39	0x39c82b63	0.00038179298
40	0x3c098134	0.008392621
41	0xbc0315ab	-0.0080007715
42	0x37aee5b4	2.084938e-05
43	0xbbdad4eb	-0.006678214
44	0x3b3a0009	0.0028381369
45	0xbb55afcf	-0.003260601
46	0x3c0e32fc	0.008679148
47	0xbb97bb0c	-0.004630452
48	0x3c3802a0	0.011231095
49	0xbaf62e1f	-0.0018782056
50	0xbcbf94f3	-0.023386454
51	0xbc04e7b4	-0.008111883
52	0x3bfcb977	0.007712539
53	0xbc0b375d	-0.008497086
54	0xbc11a497	-0.008889339
55	0x3bc78909	0.006089334
56	0x3c695fa5	0.014243995
57	0x3b0435bf	0.0020173637
58	0xbae547ca	-0.0017492708
59	0x3c06ab04	0.008219484
60	0x3c942f83	0.018089062
61	0xbb9671e4	-0.0045912135
62	0x39a58e92	0.00031577476
63	0xbc8530a6	-0.016258549
64	0x3ba7c44e	0.005119837
65	0xbbffb4dd	-0.007803543
66	0x3c109a9b	0.008825923
67	0x3b9937bf	0.004675835
68	0xbba79250	-0.0051138774
69	0xbc8f11a9	-0.017464476
70	0x3cb7b371	0.022424432
71	0xb9945258	-0.0002829011
72	0x39a59daa	0.0003158872
73	0xbb978a0e	-0.0046246117
74	0xbb052d6d	-0.0020321265
75	0x3c413ca4	0.011794243
76	0x3bb76a75	0.0055974075
77	0x3c1b481f	0.009477644
78	0x3b884705	0.004158857
79	0xb94852ee	-0.0001910438
80	0x3b1ae3cb	0.002363431
81	0xbc46de70	-0.012137994
82	0x3b99bda5	0.004691797
83	0xbb144941	-0.002262667
84	0xbc6d0ff7	-0.014469138
85	0x3c74a3d7	0.014931641
86	0x3b623852	0.0034518433
87	0x3c739860	0.014867872
88	0xbbc13e53	-0.005897322
89	0x3b0e0f55	0.002167662
90	0x3c3e4d03	0.011615041
91	0xbad77a18	-0.0016439585
92	0xbb459e79	-0.0030154272
93	0xbc2c02de	-0.0104987305
94	0x3c503d52	0.012709932
95	0xbb8e9d39	-0.0043522385
96	0xbae45b9f	-0.0017422325
97	0x39f1a68a	0.00046091183
98	0xbb0df807	-0.0021662728
99	0x3bfb9d40	0.007678658
100	0x3bb742a5	0.0055926614
101	0x3be834c3	0.007086368
102	0x3c23a5eb	0.009988288
103	0x3ad7df83	0.001646981
104	0x3bf7d5d3	0.0075633316
105	0xbaec8b9f	-0.0018046981
106	0x3bbbcd7a	0.005731282
107	0xbc0c2b10	-0.008555189
108	0x3b2f56f7	0.0026754716
109	0xbc04f753	-0.008115607
110	0x3b9cc558	0.0047842674
111	0x3b34f186	0.002760978
112	0x3b45b4eb	0.003016765
113	0xbb7e6d8b	-0.0038822617
114	0x3bb7c643	0.0056083514
115	0xbbb5ed22	-0.00555195
116	0x3c4db1a8	0.012554564
117	0x3c0e1f1b	0.008674408
118	0xbbfc8bef	-0.007707111
119	0xbb41c0f0	-0.0029564463
120	0xbbe0d1ba	-0.006860939
121	0xbc73a69d	-0.014871267
122	0x3bb15f77	0.0054129916
123	0x3b561e13	0.0032671734
124	0x3bc19582	0.0059077153
125	0x3bf55c55	0.0074878135
126	0x3c0710b7	0.008243731
127	0xbbd8e038	-0.006618526
128	0x3b902d0f	0.0043999027
129	0x3c1789a2	0.009249123
130	0x3c5ca50a	0.013467083
131	0x3bd755a8	0.0065714903
132	0xba44e703	-0.000751123
133	0xba0dd1e8	-0.00054100016
134	0x3b7e6caf	0.0038822105
135	0x3964dfdb	0.00021827167
136	0x3b2e616f	0.0026608368
137	0xbc4403d7	-0.011963806
138	0x3b12a23f	0.0022374538
139	0xbbe27f7a	-0.006912169
140	0x3b4b7277	0.0031043568
141	0xbc58f943	-0.013243022
142	0x3b953641	0.0045535867
143	0x3b5ea40d	0.0033972294
144	0xbc8c8b1c	-0.017156176
145	0x3b1e1f9b	0.0024127725
146	0x3bf3301d	0.007421507
147	0x3a47f035	0.0007627041
148	0xbc470d1f	-0.012149124
149	0xbb8bace0	-0.0042625517
150	0x3c0b004e	0.008483959
151	0x3c90fa4b	0.017697474
152	0xbbed2cdb	-0.007238013
153	0x3c91c2ad	0.017793024
154	0xbb55ddcf	-0.003263343
155	0xbbeac04d	-0.0071640373
156	0xba1db323	-0.0006015768
157	0xbca52f09	-0.02016403
158	0x3c8006fc	0.01562833
159	0x3c624e65	0.013812636
160	0xbb73342b	-0.0037109952
161	0xbbd12cc5	-0.006383511
162	0x3bb324bf	0.005467027
163	0x3c19eb3a	0.009394461
164	0x3b6a1b3d	0.0035721802
165	0xba92f11d	-0.0011210773
166	0x3bc0d29c	0.0058844816
167	0x3ad2f54b	0.0016094832
168	0xb91141ef	-0.0001385284
169	0xb96dbd92	-0.00022672702
170	0xb9c6bc30	-0.00037905714
171	0x3b18884c	0.0023274599
172	0xbc1ec186	-0.009689694
173	0xbb8d9537	-0.0043207663
174	0x3a3735ba	0.0006988902
175	0xbbc09358	-0.0058769397
176	0xbc47cc53	-0.012194711
177	0x3c30be03	0.01078749
178	0x3c9f8aa4	0.019475289
179	0xbbb0cdff	-0.0053956504
180	0xbbc3e2a8	-0.0059779473
181	0xbaef1ca8	-0.0018242793
182	0x3bea5b58	0.0071520023
183	0x3c22d732	0.009939002
184	0xbab477cb	-0.0013768611
185	0x3c7d5578	0.015462272
186	0x3b5dffa3	0.0033874295
187	0xbb532083	-0.0032215423
188	0x3c339c64	0.010962579
189	0x39ac783f	0.00032895987
190	0x3be0dac0	0.0068620145
191	0x3bafa59a	0.0053603174
192	0xbc5252fd	-0.012837169
193	0x3be48d03	0.0069748177
194	0xbc1c0c69	-0.009524443
195	0x3bf05bc5	0.0073351585
196	0xbc33449c	-0.010941651
197	0xbb4e36ad	-0.0031465695
198	0x3c341877	0.010992161
199	0x3a8181ab	0.0009880563
200	0xbbeeec8f	-0.0072913836
201	0x3ac996e6	0.0015380054
202	0xbc8318d7	-0.016003055
203	0xbc43570f	-0.011922612
204	0x3b242d8f	0.002505157
205	0xbc0a2689	-0.008432039
206	0x3ca33617	0.019923253
207	0x3c784ae8	0.015154578
208	0x3b631788	0.0034651477
209	0xbb3f877d	-0.0029225044
210	0x3c244506	0.010026222
211	0xbbbdf903	-0.005797507
212	0xbc04af47	-0.00809843
213	0x3ce12e12	0.027487788
214	0xba84bc5e	-0.0010126939
215	0x3c169dab	0.009192864
216	0xba990d2a	-0.0011676897
217	0xbc36ba30	-0.011152789
218	0xbbb7d2e5	-0.0056098574
219	0x3c150482	0.009095313
220	0x3b0384ab	0.002006809
221	0xbca17182	-0.019707445
222	0xbc4d1a12	-0.012518423
223	0x3cc16b13	0.023610627
224	0x3c1ca8e9	0.009561756
225	0xbc7c9dfb	-0.015418525
226	0x3c29ff3f	0.010375797
227	0xbad0e9d8	-0.0015938831
228	0x3bf1ec4f	0.0073829065
229	0x3c199d8e	0.009375943
230	0xbc295d66	-0.010337209
231	0x3a2d984f	0.0006622122
232	0x3b895c09	0.0041918796
233	0xbafed4fd	-0.0019442138
234	0x3b94649b	0.0045285947
235	0xbaad2ba2	-0.0013211856
236	0xbbbb385c	-0.0057135057
237	0xbb137118	-0.002249783
238	0xbbc528c5	-0.006016823
239	0xbb72edbf	-0.0037067977
240	0xba6e4d1d	-0.000909047
241	0xbcd86fe2	-0.026420537
242	0x3c5f5f8d	0.013633621
243	0x3c10cb3f	0.00883752
244	0x3b310654	0.0027011828
245	0x3c43acd6	0.011943063
246	0x3c78a4b3	0.015175986
247	0xbae97557	-0.0017811459
248	0xbbe63fad	-0.0070266337
249	0xba93fd2c	-0.0011290661
250	0x3c12a040	0.008949339
251	0x3bb02be9	0.0053763282
252	0x3c353022	0.011058839
253	0xbc01e413	-0.007927912
254	0x3c110ba6	0.008852875
255	0xbbc75f5a	-0.006084365

action_model._discrete_distribution.branches.1.bias f4 [2]
0	0x00000000	0.0
1	0x00000000	0.0

action_model._discrete_distribution.branches.1.weight f4 [2, 128]
0	0xbcaefe49	-0.021361487
1	0x3bdf97bf	0.0068235095
2	0x3c2a59b0	0.01039736
3	0xbab76cc7	-0.001399421
4	0xbb308357	-0.0026933753
5	0x3bb6b64d	0.005575931
6	0x3b033957	0.002002319
7	0xbb14cc19	-0.002270466
8	0xbc72eafa	-0.014826531
9	0xbac344f7	-0.0014897872
10	0xbc84b9a4	-0.016201802
11	0x3bbf76d8	0.0058430247
12	0xbb931cd2	-0.0044895196
13	0xba3052d7	-0.0006726211
14	0x3af00f6d	0.0018315144
15	0x3c6bf893	0.014402526
16	0xbb86de66	-0.0041158674
17	0x3a39146f	0.0007060235
18	0x3bb5c2c0	0.0055468976
19	0x3b139657	0.002252003
20	0xb930bd23	-0.00016855127
21	0xbb454dec	-0.003010626
22	0x3c533837	0.012891821
23	0x3c8abc26	0.01693542
24	0xbb68b857	-0.0035510266
25	0x3c6257eb	0.013814907
26	0x3bb57667	0.0055377963
27	0x3b319e2f	0.0027102341
28	0x3c409327	0.011753834
29	0x3bbbbdf6	0.005729432
30	0xbc05edf9	-0.008174413
31	0xbc3d7d29	-0.011565485
32	0x3c04dd80	0.00810945
33	0xbc8f2f9c	-0.017478757
34	0xbb9fd3ba	-0.0048775347
35	0x3b2b9160	0.002617918
36	0x390f54b7	0.00013669101
37	0xbc0cd7aa	-0.00859634
38	0x3b4692ef	0.0030299982
39	0xbac8a11d	-0.0015306805
40	0xbb17f3ef	-0.0023186167
41	0x3c3652d3	0.011128145
42	0xbc1bb8fb	-0.009504552
43	0x3bce1d32	0.0062901014
44	0x3c04bf11	0.008102194
45	0x3c99e71f	0.018786965
46	0xbaf5fdaa	-0.0018767614
47	0x3c463614	0.012097854
48	0xbb945501	-0.004526735
49	0xbb7a9b07	-0.0038239376
50	0xbab79cef	-0.0014008562
51	0xbb9e607f	-0.0048332806
52	0xbba9c3d6	-0.005180816
53	0xbbfd3a55	-0.007727901
54	0x3ad5cec8	0.0016312236
55	0xbbc46e8c	-0.0059946235
56	0x3bb006b3	0.0053718924
57	0xbcc6fd2b	-0.024290642
58	0x3c015f92	0.007896321
59	0xbc2e972c	-0.010656159
60	0xb9cf5423	-0.00039544803
61	0x3c096a04	0.0083870925
62	0xbbb81f92	-0.005618998
63	0xb9987f94	-0.00029086752
64	0xbc8756f7	-0.01652096
65	0xbc8be4cb	-0.01707687
66	0x3b8cfb03	0.004302384
67	0xbac72a47	-0.0015195095
68	0x3b15015e	0.002273641
69	0xbcb9dbc2	-0.022687797
70	0xbc430201	-0.011902333
71	0x3b58d4f2	0.003308591
72	0x3b3dc593	0.0028956875
73	0x3b8447a3	0.00403686
74	0x3c286bf1	0.0102796415
75	0x3c8e19cb	0.017346283
76	0xbc225bed	-0.009909612
77	0xbbea8d75	-0.0071579763
78	0xbc2c8c9e	-0.010531573
79	0xbb9c0262	-0.0047610262
80	0xbb911542	-0.004427583
81	0xbc5f07f8	-0.01361274
82	0xb809b5a5	-3.2832515e-05
83	0x3c43a7c4	0.011941854
84	0x3a8086eb	0.0009805834
85	0x3c0d3333	0.008618164
86	0xbca8e674	-0.020617701
87	0x3bfbe003	0.0076866164
88	0xbc16ecb2	-0.009211706
89	0xbb3a2327	-0.00284023
90	0xbb3c87e3	-0.0028767518
91	0xbb76ab93	-0.0037638887
92	0xbaf7c86d	-0.0018904336
93	0x3c1bd0ac	0.0095102005
94	0x3b811208	0.003938917
95	0x3bb9e55d	0.005673094
96	0x3c5bc642	0.013413968
97	0x3b9c2d98	0.0047661774
98	0xbb6b54c3	-0.0035908676
99	0x3c84888d	0.016178394
100	0xbc67f3f0	-0.01415728
101	0xbc51e4bd	-0.012810883
102	0xbc1b5ecb	-0.00948305
103	0x3c262f3f	0.0101431
104	0x3c6a4153	0.014297801
105	0x3c47b1f1	0.012188421
106	0xbbcb14bf	-0.0061975415
107	0xbbb6b439	-0.0055756834
108	0x3ca051d4	0.019570269
109	0xbb28e3dd	-0.0025770583
110	0x3a297f46	0.00064658036
111	0x3b8141b0	0.003944598
112	0x3c0fd9bb	0.008779938
113	0x3c75c4cb	0.015000532
114	0xbb253d77	-0.0025213638
115	0xbc8a8073	-0.016906952
116	0x3b16b75b	0.0022997472
117	0xbcc0cdef	-0.023535697
118	0x3bf7ce23	0.007562415
119	0x3c612780	0.013742328
120	0xba80c92a	-0.0009825577
121	0x3c9fb567	0.019495679
122	0xbc8fb6d6	-0.017543238
123	0xbc1f4a00	-0.009722233
124	0xb7d2fd4b	-2.51519e-05
125	0xbc26d5d2	-0.010182815
126	0xbb389164	-0.0028162831
127	0x3c55a000	0.013038635
128	0x3be63603	0.0070254817
129	0x39f1e33a	0.000461364
130	0xbc0d7073	-0.008632767
131	0xbc0bf34d	-0.008541894
132	0x3b54459d	0.0032390126
133	0xba8e64a8	-0.0010863738
134	0xbc81b732	-0.015834425
135	0xbb9c442c	-0.004768869
136	0xbbae7fa6	-0.0053252755
137	0xbb17ea72	-0.0023180512
138	0xbbb85692	-0.0056255544
139	0xbbf4926d	-0.0074637444
140	0x3bba442e	0.005684397
141	0x3af805af	0.0018922592
142	0x3bd3cb73	0.006463462
143	0xbb61f173	-0.003447619
144	0x3c20c05b	0.009811486
145	0x3abc4df7	0.0014366497
146	0xbc030038	-0.007995658
147	0xbb61ebb5	-0.0034472768
148	0x3aa5e642	0.0012657123
149	0x3a962189	0.0011454086
150	0xbaa3b1fa	-0.0012488954
151	0xbb883739	-0.0041569737
152	0x3a9c2365	0.0011912404
153	0xbc19c543	-0.00938541
154	0x38ea2c9f	0.00011166301
155	0x3bef82a5	0.007309275
156	0x3ab6032b	0.0013886442
157	0xbc987d44	-0.018614419
158	0xbc11a28e	-0.008888854
159	0xbba07be7	-0.004897583
160	0x3b18890b	0.0023275043
161	0xbb66fb3b	-0.003524496
162	0xb92ce235	-0.00016487467
163	0xbb916b6f	-0.004437856
164	0xb68d6e49	-4.2149663e-06
165	0xbc5f26b0	-0.013620064
166	0x3bc5d53f	0.006037384
167	0xbc43e120	-0.011955529
168	0xbc162df5	-0.00916623
169	0x3b228012	0.0024795574
170	0x3c98f265	0.01867027
171	0x3c14ed4a	0.009089777
172	0xbc04027b	-0.008057232
173	0xbc92e9e2	-0.01793379
174	0x3c1d702a	0.0096092615
175	0x3c71d96f	0.014761313
176	0x3caf1e92	0.021376882
177	0xbbcc856b	-0.0062414906
178	0xbbcb501b	-0.0062046177
179	0xba729f6d	-0.00092553237
180	0x3c229b3d	0.009924707
181	0x3c98e447	0.018663539
182	0x3b9e69f6	0.004834409
183	0xbb0c22be	-0.0021383013
184	0x3c702888	0.014658101
185	0xbc520770	-0.012819156
186	0x3b0a3400	0.0021088123
187	0xbb3ee504	-0.0029128203
188	0xbc1c0d4a	-0.009524653
189	0x3cbc2e6d	0.022971356
190	0xb94e1d53	-0.00019656615
191	0x3c48828f	0.012238159
192	0x3c4f3f63	0.01264939
193	0x3bd785fa	0.0065772505
194	0xbb7686e2	-0.0037617018
195	0xbba3c873	-0.0049982606
196	0x3aac662a	0.0013153006
197	0x3a3f33c8	0.0007293788
198	0xbaa9062b	-0.0012895515
199	0xbc22b517	-0.0099308705
200	0x3c338a51	0.01095827
201	0xbb8a1eb5	-0.0042150863
202	0x3b20d4b7	0.002454085
203	0x3c22e9e9	0.009943464
204	0xbbb45155	-0.0055028596
205	0xbaaa7d3b	-0.0013007292
206	0x3ab5a55b	0.0013858484
207	0x3bfeb9ca	0.0077736126
208	0xbba6e689	-0.0050934
209	0xbabe5caf	-0.0014523471
210	0xbb007f42	-0.0019607102
211	0xbc3efb62	-0.011656614
212	0x3c255e80	0.010093331
213	0x3c6b2afa	0.014353508
214	0x3c2adf8e	0.010429276
215	0xbb9e1f63	-0.004825519
216	0xbb6da650	-0.003626246
217	0xbb4bc426	-0.0031092255
218	0x3c1574cf	0.009122088
219	0x3b7b3e0d	0.0038336546
220	0x3b3bba73	0.0028645068
221	0xbbe22818	-0.006901752
222	0x3c0fbe2f	0.008773371
223	0x3c0b3f08	0.008498915
224	0x3abc0030	0.0014343318
225	0x3ad6c7c8	0.0016386444
226	0xbc453cd5	-0.012038429
227	0x3c55ade3	0.013041946
228	0x3c78985b	0.015173043
229	0x3c10069e	0.00879064
230	0xbc1e07b7	-0.009645394
231	0x3ba5f1b0	0.005064212
232	0xbc71bef0	-0.014754996
233	0x3c12feca	0.008971879
234	0xba0e0f69	-0.00054191664
235	0xbc007d98	-0.007842444
236	0xbc5f626d	-0.013634306
237	0xbba0041b	-0.004883302
238	0xbaa267ff	-0.0012390612
239	0xbc95f228	-0.018303946
240	0x3b4ff350	0.003173072
241	0xbbe072fb	-0.0068496442
242	0x3b8dd4d6	0.0043283505
243	0xbb621198	-0.003449535
244	0xbb7882ad	-0.0037919686
245	0x3b1592f7	0.0022823194
246	0xbcabadaf	-0.020956842
247	0xbcb29d50	-0.021803528
248	0xbc3005bf	-0.0107435575
249	0x3acf5ad8	0.001581992
250	0xbb648072	-0.0034866598
251	0xbb8a5450	-0.0042214766
252	0xbc874772	-0.01651356
253	0xbb931a5b	-0.004489226
254	0x3a121d32	0.00055738084
255	0x3b3d1773	0.0028853088

discrete_action_output_shape f4 [1, 2]
0	0x40000000	2.0
1	0x40000000	2.0

network_body._body_endoder.seq_layers.0.bias f4 [128]
0	0x00000000	0.0
1	0x00000000	0.0
2	0x00000000	0.0
3	0x00000000	0.0
4	0x00000000	0.0
5	0x00000000	0.0
6	0x00000000	0.0
7	0x00000000	0.0
8	0x00000000	0.0
9	0x00000000	0.0
10	0x00000000	0.0
11	0x00000000	0.0
12	0x00000000	0.0
13	0x00000000	0.0
14	0x00000000	0.0
15	0x00000000	0.0
16	0x00000000	0.0
17	0x00000000	0.0
18	0x00000000	0.0
19	0x00000000	0.0
20	0x00000000	0.0
21	0x00000000	0.0
22	0x00000000	0.0
23	0x00000000	0.0
24	0x00000000	0.0
25	0x00000000	0.0
26	0x00000000	0.0
27	0x00000000	0.0
28	0x00000000	0.0
29	0x00000000	0.0
30	0x00000000	0.0
31	0x00000000	0.0
32	0x00000000	0.0
33	0x00000000	0.0
34	0x00000000	0.0
35	0x00000000	0.0
36	0x00000000	0.0
37	0x00000000	0.0
38	0x00000000	0.0
39	0x00000000	0.0
40	0x00000000	0.0
41	0x00000000	0.0
42	0x00000000	0.0
43	0x00000000	0.0
44	0x00000000	0.0
45	0x00000000	0.0
46	0x00000000	0.0
47	0x00000000	0.0
48	0x00000000	0.0
49	0x00000000	0.0
50	0x00000000	0.0
51	0x00000000	0.0
52	0x00000000	0.0
53	0x00000000	0.0
54	0x00000000	0.0
55	0x00000000	0.0
56	0x00000000	0.0
57	0x00000000	0.0
58	0x00000000	0.0
59	0x00000000	0.0
60	0x00000000	0.0
61	0x00000000	0.0
62	0x00000000	0.0
63	0x00000000	0.0
64	0x00000000	0.0
65	0x00000000	0.0
66	0x00000000	0.0
67	0x00000000	0.0
68	0x00000000	0.0
69	0x00000000	0.0
70	0x00000000	0.0
71	0x00000000	0.0
72	0x00000000	0.0
73	0x00000000	0.0
74	0x00000000	0.0
75	0x00000000	0.0
76	0x00000000	0.0
77	0x00000000	0.0
78	0x00000000	0.0
79	0x00000000	0.0
80	0x00000000	0.0
81	0x00000000	0.0
82	0x00000000	0.0
83	0x00000000	0.0
84	0x00000000	0.0
85	0x00000000	0.0
86	0x00000000	0.0
87	0x00000000	0.0
88	0x00000000	0.0
89	0x00000000	0.0
90	0x00000000	0.0
91	0x00000000	0.0
92	0x00000000	0.0
93	0x00000000	0.0
94	0x00000000	0.0
95	0x00000000	0.0
96	0x00000000	0.0
97	0x00000000	0.0
98	0x00000000	0.0
99	0x00000000	0.0
100	0x00000000	0.0
101	0x00000000	0.0
102	0x00000000	0.0
103	0x00000000	0.0
104	0x00000000	0.0
105	0x00000000	0.0
106	0x00000000	0.0
107	0x00000000	0.0
108	0x00000000	0.0
109	0x00000000	0.0
110	0x00000000	0.0
111	0x00000000	0.0
112	0x00000000	0.0
113	0x00000000	0.0
114	0x00000000	0.0
115	0x00000000	0.0
116	0x00000000	0.0
117	0x00000000	0.0
118	0x00000000	0.0
119	0x00000000	0.0
120	0x00000000	0.0
121	0x00000000	0.0
122	0x00000000	0.0
123	0x00000000	0.0
124	0x00000000	0.0
125	0x00000000	0.0
126	0x00000000	0.0
127	0x00000000	0.0

network_body._body_endoder.seq_layers.0.weight f4 [128, 1]
0	0x3f9432ec	1.157804
1	0x3e9690e1	0.2940741
2	0x3d07535b	0.03303848
3	0xc0051294	-2.079259
4	0xc0080e6b	-2.12588
5	0xbeab9cb1	-0.33517984
6	0xbf6ab26b	-0.91678494
7	0x3fc6368a	1.5485394
8	0xbbffea7d	-0.0078099356
9	0x3e6d8b34	0.23197633
10	0xbf6d33e1	-0.92657286
11	0x3f5cb1df	0.8620891
12	0x3e9b089d	0.3028001
13	0x3f4c0321	0.79692274
14	0xbf90f7c0	-1.1325607
15	0xbfca9791	-1.5827504
16	0xbdb68fe9	-0.089141674
17	0x3e43fb5f	0.19138859
18	0x3fc17550	1.5113926
19	0x3f770a88	0.96500444
20	0xbfdde0b7	-1.7334203
21	0xbf589354	-0.84599805
22	0x3f2e4ef2	0.6808921
23	0xbf676bf7	-0.90399116
24	0x3c69b564	0.014264438
25	0x3e05402e	0.13012764
26	0x3fc61bcf	1.5477237
27	0xbe7f69fd	-0.24942775
28	0xbf0aa160	-0.5415249
29	0x3fe4173a	1.7819588
30	0xbf682559	-0.9068199
31	0x3f477829	0.77917725
32	0x3f59ecad	0.85126764
33	0xbed9699c	-0.42463386
34	0xbdeeeb8e	-0.11666022
35	0x401e55f0	2.4739952
36	0xbf350ca0	-0.7072239
37	0xbf838c29	-1.0277148
38	0x3fb7f566	1.4371765
39	0xbe2646ab	-0.16237895
40	0x3f248696	0.6426786
41	0x3fc8df90	1.5693226
42	0xbcf4c438	-0.02987872
43	0x3e3d49da	0.18485203
44	0x3e7dece1	0.24797393
45	0xbe261010	-0.16217065
46	0x3f6a26c8	0.91465425
47	0xbe8b2588	-0.27177072
48	0xbff5fa73	-1.9217056
49	0xbfbb94a8	-1.4654741
50	0xbf8393aa	-1.0279438
51	0xbf008ac9	-0.5021177
52	0x3f8cf18d	1.1011215
53	0xbf00af3d	-0.5026739
54	0x3f131214	0.5744946
55	0x3f6bf17e	0.9216536
56	0xbf9396d8	-1.1530409
57	0xbea15027	-0.31506464
58	0x3f9db45c	1.2320666
59	0x3e431fd9	0.19055118
60	0x3fe3308d	1.7749192
61	0x3dcf3149	0.10116822
62	0x3fe3e791	1.7805043
63	0xbf6cead7	-0.9254584
64	0x3db5ce0e	0.088771924
65	0xbf545bae	-0.8295239
66	0xbfc94b6c	-1.5726142
67	0x3f9bec05	1.2181402
68	0x3ea330d2	0.31873184
69	0xbfad053e	-1.3517225
70	0xbeb636dc	-0.3558873
71	0xbe6b50a2	-0.22979978
72	0xbfc80971	-1.5627881
73	0x3f216bc4	0.6305506
74	0xbee8cb40	-0.45467567
75	0x3f1ed01c	0.620363
76	0xbe83477f	-0.25640485
77	0xbe0f0817	-0.1396793
78	0x3fa9e02a	1.3271534
79	0x3ead46e0	0.33843136
80	0xbf49b8fe	-0.787979
81	0xbf45e240	-0.77298355
82	0xbf37f243	-0.7185404
83	0xbe98ce97	-0.29845116
84	0xbecfdba5	-0.40597263
85	0x40311dac	2.767436
86	0x3e5bb82f	0.21456979
87	0xbe20b924	-0.15695626
88	0xbf94e6b0	-1.16329
89	0x3f845cd8	1.0340834
90	0x3eed89e1	0.46394256
91	0x3ebd4639	0.36967638
92	0x3ca934ca	0.020655055
93	0xbedf5e86	-0.43626803
94	0x3fbcc415	1.474734
95	0xbf618394	-0.880914
96	0x3f1877aa	0.5955759
97	0xbfb17833	-1.3864807
98	0x3e89f04f	0.26941153
99	0xbf95974d	-1.1686798
100	0x3f14bc3f	0.5809974
101	0xbfa4f1c4	-1.2886281
102	0xbf0e0bc8	-0.55486727
103	0x3f9aa8dd	1.2082783
104	0xbecaf88e	-0.39642757
105	0xbfc35855	-1.5261332
106	0xbf662ccf	-0.8991212
107	0xbe0e1f54	-0.13879138
108	0x3fb77057	1.4331158
109	0xbf5c7d39	-0.86128575
110	0xbe8eb0e0	-0.2786932
111	0xbf23e8dc	-0.6402719
112	0x3f5b73fb	0.8572385
113	0x3f90b57c	1.1305385
114	0x3dfaacec	0.122400135
115	0x3e37faa5	0.17966707
116	0xbe639ad7	-0.22227035
117	0x3f3e130a	0.742478
118	0x3f2e2e75	0.6803964
119	0x3fabc780	1.3420258
120	0xbf0246de	-0.50889385
121	0x3f2212ab	0.63309735
122	0x3fb9238a	1.4463971
123	0x3e7d8247	0.24756728
124	0xbddbce43	-0.10732701
125	0xbf50e5b4	-0.816005
126	0x3f2c7b8e	0.6737603
127	0xbf3a7a88	-0.7284322

network_body._body_endoder.seq_layers.2.bias f4 [128]
0	0x00000000	0.0
1	0x00000000	0.0
2	0x00000000	0.0
3	0x00000000	0.0
4	0x00000000	0.0
5	0x00000000	0.0
6	0x00000000	0.0
7	0x00000000	0.0
8	0x00000000	0.0
9	0x00000000	0.0
10	0x00000000	0.0
11	0x00000000	0.0
12	0x00000000	0.0
13	0x00000000	0.0
14	0x00000000	0.0
15	0x00000000	0.0
16	0x00000000	0.0
17	0x00000000	0.0
18	0x00000000	0.0
19	0x00000000	0.0
20	0x00000000	0.0
21	0x00000000	0.0
22	0x00000000	0.0
23	0x00000000	0.0
24	0x00000000	0.0
25	0x00000000	0.0
26	0x00000000	0.0
27	0x00000000	0.0
28	0x00000000	0.0
29	0x00000000	0.0
30	0x00000000	0.0
31	0x00000000	0.0
32	0x00000000	0.0
33	0x00000000	0.0
34	0x00000000	0.0
35	0x00000000	0.0
36	0x00000000	0.0
37	0x00000000	0.0
38	0x00000000	0.0
39	0x00000000	0.0
40	0x00000000	0.0
41	0x00000000	0.0
42	0x00000000	0.0
43	0x00000000	0.0
44	0x00000000	0.0
45	0x00000000	0.0
46	0x00000000	0.0
47	0x00000000	0.0
48	0x00000000	0.0
49	0x00000000	0.0
50	0x00000000	0.0
51	0x00000000	0.0
52	0x00000000	0.0
53	0x00000000	0.0
54	0x00000000	0.0
55	0x00000000	0.0
56	0x00000000	0.0
57	0x00000000	0.0
58	0x00000000	0.0
59	0x00000000	0.0
60	0x00000000	0.0
61	0x00000000	0.0
62	0x00000000	0.0
63	0x00000000	0.0
64	0x00000000	0.0
65	0x00000000	0.0
66	0x00000000	0.0
67	0x00000000	0.0
68	0x00000000	0.0
69	0x00000000	0.0
70	0x00000000	0.0
71	0x00000000	0.0
72	0x00000000	0.0
73	0x00000000	0.0
74	0x00000000	0.0
75	0x00000000	0.0
76	0x00000000	0.0
77	0x00000000	0.0
78	0x00000000	0.0
79	0x00000000	0.0
80	0x00000000	0.0
81	0x00000000	0.0
82	0x00000000	0.0
83	0x00000000	0.0
84	0x00000000	0.0
85	0x00000000	0.0
86	0x00000000	0.0
87	0x00000000	0.0
88	0x00000000	0.0
89	0x00000000	0.0
90	0x00000000	0.0
91	0x00000000	0.0
92	0x00000000	0.0
93	0x00000000	0.0
94	0x00000000	0.0
95	0x00000000	0.0
96	0x00000000	0.0
97	0x00000000	0.0
98	0x00000000	0.0
99	0x00000000	0.0
100	0x00000000	0.0
101	0x00000000	0.0
102	0x00000000	0.0
103	0x00000000	0.0
104	0x00000000	0.0
105	0x00000000	0.0
106	0x00000000	0.0
107	0x00000000	0.0
108	0x00000000	0.0
109	0x00000000	0.0
110	0x00000000	0.0
111	0x00000000	0.0
112	0x00000000	0.0
113	0x00000000	0.0
114	0x00000000	0.0
115	0x00000000	0.0
116	0x00000000	0.0
117	0x00000000	0.0
118	0x00000000	0.0
119	0x00000000	0.0
120	0x00000000	0.0
121	0x00000000	0.0
122	0x00000000	0.0
123	0x00000000	0.0
124	0x00000000	0.0
125	0x00000000	0.0
126	0x00000000	0.0
127	0x00000000	0.0

network_body._body_endoder.seq_layers.2.weight f4 [128, 128]
0	0xbd0c45bc	-0.03424619
1	0xbaafa9ac	-0.0013402007
2	0xbe432a04	-0.19058996
3	0x3d9acc58	0.07558507
4	0x3e1eb92c	0.15500325
5	0x3dab3c27	0.083610825
6	0xbc79c31d	-0.015244273
7	0x3d7e67aa	0.06211058
8	0x3e10e10e	0.14148352
9	0xbda7cfb1	-0.08193911
10	0xbd58559c	-0.05281602
11	0xbdaa38e5	-0.08311633
12	0xbddd4a72	-0.10805215
13	0x3e752cf8	0.23942935
14	0x3d1f81ac	0.038942024
15	0x3dd7ac1d	0.10530875
16	0x3dac70ef	0.08419978
17	0xbcafcbc8	-0.021459475
18	0x3d819a4b	0.06328257
19	0xbc967273	-0.01836512
20	0x3d84d242	0.06485416
21	0x3e911d33	0.2834259
22	0x3d2c8f43	0.042128813
23	0x3d2d072c	0.042243168
24	0x3d29412c	0.04132192
25	0x3d3652f2	0.044512697
26	0xbdc9f06f	-0.09860312
27	0x3d881aaa	0.06645711
28	0xbe09d83d	-0.13461395
29	0x3d39381f	0.045219537
30	0xbd4ef5b0	-0.050527275
31	0xbdb31914	-0.08745018
32	0x3da63559	0.08115644
33	0x3da9da91	0.08293641
34	0xbd355def	-0.044279035
35	0xbd619ac8	-0.05507925
36	0x3bc1b288	0.005911175
37	0xbd2d7d08	-0.042355567
38	0xbe1cac07	-0.15299998
39	0xbe10cafd	-0.14139934
40	0x3dc8c740	0.09803629
41	0x3dbed671	0.09318245
42	0x3dd6f0e9	0.10495169
43	0x3c3c2b12	0.011484878
44	0xbd318e7c	-0.043348774
45	0xbd09c6c1	-0.033636812
46	0x3d58e8cd	0.05295639
47	0x3d138449	0.03601483
48	0xbd8f93f5	-0.070106424
49	0xbe1f2103	-0.15539937
50	0x3d8324cc	0.06403503
51	0x3e22f830	0.15914989
52	0xbddfbb73	-0.10924425
53	0x3bfcc551	0.0077139516
54	0x3df59e9d	0.11993144
55	0xbd841b63	-0.06450536
56	0x3d2bad2f	0.041913208
57	0xbcb806d0	-0.022464186
58	0xbce70a32	-0.028203104
59	0xbb60f9e7	-0.003432864
60	0xbe46999d	-0.19394536
61	0x3e16096b	0.1465203
62	0x3c547b22	0.01296881
63	0xbd076e5a	-0.033064224
64	0xbdc3cc9c	-0.095605105
65	0x3e0267f2	0.12734964
66	0x3e5d16f1	0.21590783
67	0x3b56fd32	0.0032804725
68	0x3da62979	0.08113379
69	0x3d2fb31a	0.042895414
70	0x3d9b0715	0.0756971
71	0x3d4c8476	0.049931012
72	0xbdb97f48	-0.0905748
73	0x3e2775b1	0.1635349
74	0xbc77d436	-0.015126279
75	0xbe2acdb6	-0.16680035
76	0xbdc97d72	-0.0983838
77	0x3d5ef632	0.05443401
78	0x3d9a96b3	0.07548275
79	0x3de039a3	0.10948493
80	0xbc2e7186	-0.010647183
81	0xbd0d61c3	-0.03451706
82	0xbe168da1	-0.14702465
83	0x3c4784e4	0.01217768
84	0x3daa3de0	0.08312583
85	0x3d45cdb9	0.048291896
86	0x3e063da4	0.13109452
87	0xbdc099a6	-0.09404306
88	0xbd2105da	-0.03931222
89	0x3d118a1b	0.0355321
90	0x3d83e2fb	0.064397775
91	0xbe11ec70	-0.1425035
92	0x3d1a00f5	0.03759857
93	0xbcaf9dfd	-0.02143764
94	0x3a0dfb5b	0.0005416178
95	0x3d0c25fb	0.03421591
96	0xbd1af94b	-0.0378354
97	0xbd8a4739	-0.06751866
98	0x3d89880d	0.06715403
99	0x3d2f2f27	0.042769577
100	0x3e150396	0.14552149
101	0x3d2bdee1	0.0419606
102	0x3b0132d1	0.0019714127
103	0x3ddc7112	0.10763754
104	0xbd58887b	-0.052864533
105	0x3d84f7f1	0.064926036
106	0xbe198e0c	-0.14995593
107	0xbcf5c2ff	-0.030000208
108	0xbdc4d2ab	-0.09610494
109	0x3d8d50cb	0.06900176
110	0xbb634223	-0.0034676872
111	0xbd2f6702	-0.042822845
112	0xbe686b6d	-0.2269723
113	0xbdb258b5	-0.08708326
114	0xbe08d930	-0.133641
115	0x3d6724b0	0.056431472
116	0xbd99a13b	-0.075014554
117	0xbd249f7c	-0.04019116
118	0xbd95afc9	-0.07308919
119	0xbc8f2a60	-0.01747626
120	0x3ca9d0c6	0.020729434
121	0xbba83ec7	-0.005134437
122	0x3d892c02	0.06697847
123	0x3cab4ac0	0.020909667
124	0xbdfdaaf6	-0.12386124
125	0xbe070ba0	-0.13188028
126	0xbe918cfa	-0.2842787
127	0xba89d00c	-0.0010514273
128	0xbd8cbb16	-0.06871621
129	0xbc5403c2	-0.012940349
130	0xbe36b992	-0.17844227
131	0x3d6acdea	0.05732528
132	0xbd51f8d5	-0.051262695
133	0x3c908176	0.017639857
134	0xbdecc160	-0.11560321
135	0x3c46952c	0.012120526
136	0x3dcb2511	0.09919179
137	0x3d5b8e6d	0.053602625
138	0xbd334c19	-0.043773744
139	0x3e088143	0.1333056
140	0x3d44d4d1	0.04805452
141	0x3d68ba1d	0.056818116
142	0x3da6ba2d	0.08140979
143	0xbd40590e	-0.04695993
144	0xbc13107e	-0.0089761
145	0xbde5a982	-0.11213972
146	0x3c946ce8	0.018118337
147	0x3de10bb6	0.10988562
148	0x3e3d7ae2	0.18503907
149	0x3dfa52b7	0.12222808
150	0xbe138156	-0.14404806
151	0xbe44c8a8	-0.1921717
152	0xbceb718d	-0.028740669
153	0x3db9dee8	0.09075719
154	0x3e24cb46	0.16093168
155	0x3d521cf2	0.051297136
156	0x3d363077	0.044479813
157	0x3d12587c	0.035728917
158	0xbd691d49	-0.056912694
159	0x3da13c6f	0.07872855
160	0xbdde59c9	-0.10856969
161	0xbdcf36a7	-0.10117846
162	0x3c79830f	0.015229001
163	0xbd6465fc	-0.055761322
164	0xbc9149e5	-0.017735431
165	0xbe189ed8	-0.14904344
166	0xbd11e000	-0.035614014
167	0x3d1b3042	0.03788782
168	0x3d1a9309	0.03773788
169	0x3dc5ab8b	0.0965186
170	0x3c0a492a	0.008440295
171	0x3b4b6c38	0.0031039845
172	0x3d4dd916	0.050255857
173	0x3dd30ca6	0.10305147
174	0x3dab29d5	0.08357588
175	0x3ddab43f	0.106789105
176	0x3c87a651	0.016558798
177	0xbd885234	-0.06656304
178	0xbcc36d2f	-0.023855774
179	0xbd614f21	-0.055007104
180	0xbcc6cfd1	-0.024269016
181	0x3e0a43c2	0.1350241
182	0xbddb6f50	-0.107145905
183	0x3ced7480	0.028986216
184	0xbcf6d8fe	-0.030132767
185	0xbc632c50	-0.013865545
186	0xbce09fd0	-0.027419955
187	0x3cfc4ad8	0.030797407
188	0x3e712629	0.23549713
189	0x3afa98ff	0.0019119083
190	0x3d6e7c3d	0.05822395
191	0xbd11c201	-0.035585407
192	0xbde45cfb	-0.11150547
193	0xbd8e8651	-0.069592126
194	0x3d6ca139	0.05777094
195	0xbdcc2e37	-0.09969752
196	0x3b200e6a	0.0024422654
197	0xbd1e2b23	-0.038615357
198	0xbe884886	-0.2661783
199	0x3b296737	0.0025848874
200	0xbd9d6bdd	-0.07686589
201	0xbd5eca99	-0.05439243
202	0x3da1139c	0.07865068
203	0xbe36b7e6	-0.17843589
204	0x3d6a0e3d	0.057142485
205	0xbd457775	-0.048209626
206	0xbbf171cb	-0.0073683015
207	0x3d19a2af	0.037508663
208	0x3b8bf79e	0.0042714616
209	0xbe62d67e	-0.22152135
210	0x3a0b206a	0.0005307259
211	0x3e014ac0	0.12626171
212	0xbc47eade	-0.012201993
213	0x3cfd525c	0.030923061
214	0xbc34053d	-0.010987577
215	0xbdc767c9	-0.09736592
216	0x3c5e6367	0.013573504
217	0xbd41fd87	-0.047360923
218	0xbd0d2f32	-0.034468837
219	0x3b8d8e43	0.0043199374
220	0x3d467bcc	0.048457906
221	0xbbafb57a	-0.00536221
222	0xbe055a69	-0.1302277
223	0xbc4b2de2	-0.012401076
224	0xbd873f29	-0.06603844
225	0xbd6da00f	-0.058013972
226	0x3d15832c	0.03650205
227	0xbc38215d	-0.011238423
228	0xbdb324dc	-0.08747265
229	0x3d92d101	0.071687706
230	0xbc5bbd03	-0.013411763
231	0x3d68fc6e	0.05688136
232	0x3d965218	0.07339877
233	0x39080c28	0.00012974499
234	0xbd9e3192	-0.077242985
235	0xbe45772f	-0.19283746
236	0x3cec014f	0.028809218
237	0x3c3d4882	0.011552932
238	0x3d43af5f	0.04777467
239	0x3c56f51b	0.013119961
240	0xbe019d66	-0.12657699
241	0xbd4defc1	-0.050277475
242	0x3d97ef7f	0.07418727
243	0xbd4538ac	-0.04814975
244	0x3d479bcd	0.048732568
245	0xbdf6c9b1	-0.12050188
246	0xbd04b947	-0.032403257
247	0xbe41e0b8	-0.1893338
248	0xbd2b49f9	-0.041818593
249	0x3d9b044a	0.075691774
250	0xbb2ea07d	-0.0026645951
251	0x3d84693d	0.06465385
252	0xbc719972	-0.014746057
253	0x3defbba8	0.117057145
254	0xbdd340e1	-0.10315109
255	0xbc9d6141	-0.019211413
