results/ppo/PlayerController/PlayerController-128.onnx (onnx, 72154 bytes, 9 tensors)

action_model._discrete_distribution.branches.0.bias f4 [2]
0	0x00000000	0.0
1	0x00000000	0.0

action_model._discrete_distribution.branches.0.weight f4 [2, 128]
0	0x3c37a1cb	0.011208008
1	0x3ba77912	0.0051108683
2	0x3bfdcab7	0.0077451128
3	0xbbf91ce3	-0.0076023205
4	0x3ba61aef	0.0050691287
5	0xbbbfabcf	-0.0058493386
6	0xbb6d01c5	-0.0036164385
7	0x3bf60d88	0.0075089373
8	0xbc0187e0	-0.00790593
9	0x3b84af16	0.004049192
10	0x3c118958	0.008882843
11	0xbbcb340f	-0.006201274
12	0x3c3dc00e	0.011581434
13	0xbb851e99	-0.0040624854
14	0xbb6294c7	-0.0034573541
15	0x3a50dccb	0.0007967471
16	0x3bc9574a	0.006144439
17	0xbc87a474	-0.01655791
18	0x3c26c7c7	0.010179467
19	0xbcb87709	-0.022517698
20	0x3c818cf2	0.015814278
21	0xbad42d17	-0.0016187754
22	0x3c38f42b	0.011288683
23	0xbc53a328	-0.012917317
24	0xbc57ff0a	-0.013183365
25	0x3c9a3fe7	0.0188293
26	0x3b4f5e87	0.0031642036
27	0xbbe0426d	-0.006843856
28	0x3c2afd3b	0.010436351
29	0xb9e711b0	-0.00044072932
30	0xbbf14900	-0.0073634386
31	0x3b350071	0.0027618671
32	0x3c0cf658	0.008603655
33	0x3b36e208	0.0027905721
34	0x3a8728c1	0.0010311828
35	0xbb2e11d9	-0.002656093
36	0x3c7a12cb	0.01526327
37	0xbbf54b5d	-0.0074857906
38	0xba8228f2	-0.0009930416
39	0x3c767c05	0.015044217
40	0x3af21e27	0.0018472121
41	0x3c3728c9	0.0111791575
42	0xbc2799e2	-0.01022956
43	0x3b3a69fe	0.0028444524
44	0xb9a3f8cf	-0.0003127516
45	0x3be38e77	0.0069444734
46	0x3ab44d31	0.0013755915
47	0xbc97846c	-0.01849576
48	0xbc17426f	-0.009232148
49	0xbb972fcf	-0.0046138535
50	0x3bf2be3d	0.007407932
51	0x3c192166	0.009346342
52	0x3cb06440	0.021532178
53	0x3be91d8a	0.007114117
54	0x3b73960d	0.0037168295
55	0xbb8ef71d	-0.0043629543
56	0x3bab550a	0.0052286433
57	0x3c04dbee	0.008109076
58	0x3c8768aa	0.0165294
59	0x3b4f640f	0.0031645333
60	0x3b506217	0.0031796747
61	0xbb33f643	-0.0027460016
62	0x3bbd267b	0.0057724095
63	0x3c0c27a5	0.008554374
64	0xbc34d82b	-0.011037867
65	0x3c2e6b5a	0.010645712
66	0xbb24cae4	-0.0025145346
67	0x3c03d633	0.008046675
68	0x3cbde608	0.023180977
69	0x3c3f989f	0.011694103
70	0xbc81d21d	-0.01584726
71	0x3c6252f0	0.013813719
72	0x3c3b2cc8	0.011424251
73	0x3c259adb	0.010107721
74	0xbbae8d75	-0.0053269216
75	0x3ca7e024	0.02049262
76	0xbb23e65d	-0.0025009133
77	0x3b0e9f42	0.0021762406
78	0x3c42086c	0.011842828
79	0x3c99ab75	0.018758515
80	0x3c4069db	0.011743988
81	0x3b591aa5	0.0033127454
82	0x3b7c4b9b	0.0038497213
83	0xbc224acc	-0.009905528
84	0xbbd839c5	-0.0065986835
85	0xbb23ec3b	-0.002501263
86	0xbc3c7f25	-0.011504923
87	0x3b888ddb	0.004167301
88	0xbb461afb	-0.0030228484
89	0xbc05b7db	-0.00816151
90	0xbc334307	-0.0109412735
91	0x3c38d969	0.011282303
92	0x3bc3714f	0.005964435
93	0xbc3734f3	-0.011182058
94	0x3c20ce36	0.0098147895
95	0x3b2524a3	0.002519884
96	0x3b5e9e25	0.0033968773
97	0xbbcd4f57	-0.0062655616
98	0xbc9d919d	-0.019234473
99	0xbbe87e5f	-0.0070951427
100	0xbc84f6f0	-0.01623103
101	0xb8c059ab	-9.1719754e-05
102	0xbc9254e4	-0.017862745
103	0xbc13a2a1	-0.009010942
104	0x3c46fa39	0.012144619
105	0x3b578953	0.0032888248
106	0xbc4134ae	-0.011792345
107	0x3c387217	0.01125767
108	0xbb0b48ad	-0.0021253035
109	0x3c3728da	0.011179173
110	0xbac7c2b2	-0.0015240519
111	0xbb3b7ea3	-0.0028609417
112	0x3a84f6ec	0.0010144389
113	0x3b70d51a	0.0036748112
114	0x3c00d53b	0.007863338
115	0x3c040609	0.0080580795
116	0xbc30c36a	-0.010788778
117	0xbc57c843	-0.013170305
118	0x3c803782	0.015651468
119	0x3c714462	0.014725776
120	0x3b18fe2b	0.0023344855
121	0xbc56c2aa	-0.013107935
122	0x3c9a1312	0.018807922
123	0x3b75cd5d	0.003750644
124	0x3be27837	0.0069113034
125	0x3b5ff5cb	0.0034173604
126	0x3c91f860	0.01781863
127	0x3b20472b	0.0024456482
128	0x3c5345fa	0.012895102
129	0xbc859732	-0.016307447
130	0x3aa16d9b	0.001231599
131	0x3b49ba98	0.0030781385
132	0xbb9e4e5d	-0.004831119
133	0xbc3c9eb3	-0.011512446
134	0x3c1ba2ff	0.0094993105
135	0x3c38f3ae	0.0112885665
136	0x3bc6e14f	0.0060693393
137	0x3c72c345	0.014817064
138	0xbc4a57f3	-0.01235007
139	0x3ad52bb0	0.001626363
140	0xba81903a	-0.0009884902
141	0xbc2589f0	-0.010103688
142	0x3b5a2cdd	0.00332909
143	0x3b8ffcc4	0.0043941457
144	0x3c04148f	0.008061542
145	0x3c9565cd	0.018237019
146	0xbb2e17ca	-0.0026564472
147	0xbc158e6d	-0.009128195
148	0xbb36bd3c	-0.0027883789
149	0xbb7919b3	-0.0038009703
150	0xbb3009f0	-0.0026861392
151	0x3acfbfe5	0.0015850036
152	0x3c59f2ca	0.013302514
153	0x3c14db27	0.009085453
154	0x3a87285e	0.0010311713
155	0xba8db18f	-0.0010810363
156	0x3c6f1e18	0.014594577
157	0x3c3326a4	0.010934506
158	0xbc1dff41	-0.009643377
159	0x3b987d6b	0.004653623
160	0x3b8a6e72	0.004224592
161	0xbc00c39c	-0.007859137
162	0x3c77920a	0.015110502
163	0xbc168472	-0.009186851
164	0xbbdc5107	-0.0067235264
165	0xbb17143c	-0.0023052832
166	0xbc487c7b	-0.01223671
167	0x3c5765cd	0.01314683
168	0xbb8fc5a3	-0.004387574
169	0x3c78be18	0.015182041
170	0x3c8b763d	0.017024154
171	0xbc482e55	-0.012218078
172	0xbc26bc4d	-0.01017673
173	0x3ab5ee82	0.0013880285
174	0xbbf09acd	-0.0073426724
175	0x3b43fc5a	0.0029905052
176	0xbc47ad9b	-0.012187387
177	0xbc18c2bf	-0.009323775
178	0x3b4dd250	0.0031405874
179	0x3b990f8e	0.0046710437
180	0xbb1f8087	-0.0024338083
181	0x3ae9f8cf	0.001785064
182	0x3b85e59e	0.0040862104
183	0xbb154924	-0.002277919
184	0x3b97fe9f	0.0046385075
185	0xbb6da24f	-0.0036260074
186	0x3c37cf71	0.0112188915
187	0x3a38789f	0.0007037017
188	0xbc1fc433	-0.009751367
189	0xbc00a66e	-0.00785218
190	0x3a48d63b	0.00076613174
191	0xbbbf604f	-0.0058403383
192	0xbc0fbcaa	-0.008773008
193	0x3b131655	0.002244373
194	0xbc4ab791	-0.012372867
195	0x3c091c5a	0.008368576
196	0x3b032450	0.0020010658
197	0xbbcff695	-0.0063465335
198	0xbc1bed78	-0.009517066
199	0x3c412990	0.011789694
200	0x3c60b533	0.013715076
201	0xbb09603f	-0.0020961908
202	0xbc4ac961	-0.012377114
203	0x3bac4fd3	0.005258539
204	0xbb97fd6f	-0.004638366
205	0x3c02c80b	0.007982264
206	0xbb9a56b9	-0.004710045
207	0x3c5b3f95	0.013381858
208	0x3b9d2b40	0.0047964156
209	0xbb6f2090	-0.0036487915
210	0x3c609a80	0.013708711
211	0x3bab9e97	0.0052374112
212	0xbc019eab	-0.007911365
213	0xbc9e68b3	-0.019337034
214	0xbc187353	-0.009304839
215	0xbafe574d	-0.001940468
216	0x3c54f6a7	0.01299826
217	0xba17c765	-0.0005789905
218	0x3b6dbddb	0.0036276493
219	0x3b975b87	0.004619065
220	0xbaaf9168	-0.0013394775
221	0xbbef07cb	-0.00729463
222	0xb7b9e2d3	-2.2159342e-05
223	0x3c269e23	0.010169539
224	0x3bae401f	0.0053177024
225	0x3bee0c00	0.007264614
226	0xbb2efd37	-0.002670122
227	0x3b8807b4	0.004151309
228	0x3c3d4d85	0.011554127
229	0xba97966b	-0.0011565214
230	0x3ba39aaf	0.004992805
231	0x3bfe4a5a	0.0077603282
232	0x3c0ba05e	0.008522121
233	0x3c51039d	0.012757209
234	0xba3fc78f	-0.00073158083
235	0x3bc60ef4	0.006044263
236	0x3cafca4b	0.021458765
237	0x3bc60b53	0.0060438304
238	0x3c7b9082	0.015354278
239	0x3a82a737	0.0009968047
240	0x3a33d890	0.00068605784
241	0x3b473d1d	0.0030401417
242	0x3bae22a5	0.0053141885
243	0xbb4ecd30	-0.0031555407
244	0x3b305362	0.0026905169
245	0x3c78ccef	0.015185579
246	0x3c16b040	0.009197295
247	0x3c593fe5	0.013259863
248	0xbc7a27e2	-0.015268298
249	0xbb13157d	-0.0022443228
250	0xbc312a3f	-0.010813295
251	0xbc817764	-0.015804
252	0xba98a783	-0.0011646602
253	0xbba99469	-0.0051751626
254	0xbb40280b	-0.0029320742
255	0x3b88a65d	0.0041702227

action_model._discrete_distribution.branches.1.bias f4 [2]
0	0x00000000	0.0
1	0x00000000	0.0

action_model._discrete_distribution.branches.1.weight f4 [2, 128]
0	0x3bb20cc7	0.005433652
1	0x3cae8a3b	0.021306148
2	0xba97016f	-0.0011520813
3	0xba969d61	-0.0011490994
4	0xbc3a9465	-0.011387919
5	0xbb923d60	-0.004462883
6	0xbc76474f	-0.01503165
7	0x3b43c9f7	0.002987502
8	0xba0579a4	-0.0005091673
9	0x3aa8c7e3	0.0012876954
10	0x3bd9133d	0.006624608
11	0x3ba4f7cc	0.0050344225
12	0x3a499335	0.0007689477
13	0x39ed6ce2	0.00045285287
14	0xbc071dff	-0.008246898
15	0x3b9c8480	0.0047765374
16	0xbc05ab60	-0.008158535
17	0x3b92ded8	0.0044821315
18	0x3c602dbd	0.01368278
19	0x3c32ea1a	0.010920072
20	0x3b056c72	0.0020358828
21	0xbb904cb4	-0.004403675
22	0x3c5c002a	0.0134277735
23	0xbb446acc	-0.0029970882
24	0xbbe5fe3d	-0.007018833
25	0xbc2643ca	-0.010147998
26	0xba3e1ca8	-0.0007252195
27	0x3ac717ca	0.0015189585
28	0x3bf7856f	0.0075537483
29	0x3c807c5b	0.015684297
30	0x3c1bec6f	0.009516819
31	0xbc9390ee	-0.018013444
32	0x3bcba815	0.0062151053
33	0x3bb8db05	0.0056413435
34	0x3a2a2408	0.00064903544
35	0x3bdae03a	0.006679562
36	0xbb1677ff	-0.0022959707
37	0x3aa35442	0.0012461024
38	0xbc5b8387	-0.013398058
39	0xbc6219df	-0.013800113
40	0x3bee3598	0.0072695725
41	0xbc2e2ffe	-0.010631559
42	0xbb5e2522	-0.0033896645
43	0x3b06c801	0.002056599
44	0x3c47511b	0.012165333
45	0x3c073c32	0.008254098
46	0x3bae520f	0.0053198407
47	0xbc027bc4	-0.007964078
48	0x3bb70d65	0.0055863135
49	0xbc0d70f7	-0.00863289
50	0x3c3039a9	0.010755935
51	0x3b915bb6	0.0044359816
52	0x3c3bbee7	0.011459089
53	0xb9290efd	-0.0001612268
54	0x3c504717	0.012712262
55	0x3bb55ec2	0.0055349777
56	0xbc44f963	-0.012022349
57	0xbc0b7ea3	-0.008514079
58	0x3c93b12f	0.018028824
59	0xbb642c6b	-0.0034816514
60	0xbc122c6f	-0.008921727
61	0x3bf8ac4d	0.007588899
62	0x3a0e8f9e	0.0005438271
63	0xbbaddf26	-0.0053061424
64	0x3aec72c0	0.0018039569
65	0xbba5303e	-0.0050411513
66	0x3bbc6677	0.0057495194
67	0xbc37230f	-0.011177792
68	0xbbc83b73	-0.0061106025
69	0x3c1364b5	0.008996178
70	0xbbaf0f8a	-0.0053424286
71	0x3c3aef4b	0.011409591
72	0x3cbe2889	0.023212688
73	0xbc02b4ec	-0.007977705
74	0x3c398347	0.011322803
75	0xbc14552f	-0.0090535125
76	0x3c86d89b	0.016460707
77	0xbabd770a	-0.0014455032
78	0xbb423c94	-0.0029638158
79	0xbc782cf2	-0.015147435
80	0x3c2931fd	0.01032686
81	0x3afd501b	0.0019326241
82	0xbc83c98f	-0.016087322
83	0xbadbb5bd	-0.0016762536
84	0x3c2f33b2	0.0106934775
85	0xbb99222a	-0.004673262
86	0xbba55b81	-0.0050463085
87	0x3ad65fea	0.0016355489
88	0xbc996bba	-0.018728126
89	0xba8bcd71	-0.0010666085
90	0x3b2f6103	0.0026760704
91	0xbc947ff2	-0.018127415
92	0xbb5e3a63	-0.0033909313
93	0xbc942633	-0.018084621
94	0x3be2cb38	0.006921198
95	0xbb8db68b	-0.0043247393
96	0x3c481432	0.012211846
97	0x3a4fb077	0.00079227187
98	0x3c25563e	0.0100913625
99	0x3b45d95f	0.0030189378
100	0x3c1c6767	0.009546137
101	0x3c319abc	0.010840114
102	0x3c95a5d3	0.018267548
103	0xbbc2c0d1	-0.0059433957
104	0xbc18e6ac	-0.00933234
105	0x39ba8195	0.0003557323
106	0x3a815093	0.0009865932
107	0x3bf44e05	0.0074555897
108	0xbcad2a16	-0.021138232
109	0xbbd2353b	-0.006415037
110	0x3c70c505	0.014695411
111	0x3b3a719a	0.002844906
112	0x3baa3f59	0.00519554
113	0xbc145a6a	-0.0090547595
114	0x3bbe8db6	0.005815233
115	0x3b9a6657	0.004711907
116	0xbb08790b	-0.00208241
117	0x3be9f2f0	0.007139556
118	0xbb97878b	-0.0046243123
119	0xbbf3735a	-0.0074295225
120	0xbbffd980	-0.0078079104
121	0xbaead213	-0.001791539
122	0xbc1d223b	-0.009590681
123	0x3b942105	0.004520538
124	0x3bfa461f	0.0076377536
125	0xba94f8df	-0.0011365673
126	0x3b80e587	0.003933612
127	0xbbb6b24d	-0.0055754543
128	0x3b1ae4e7	0.0023634972
129	0x3cc1922c	0.02362927
130	0xbb15808a	-0.002281221
131	0xbb712240	-0.0036794096
132	0x3bc51474	0.006014401
133	0xbae87668	-0.0017735483
134	0x3c89b4ae	0.016809788
135	0x3c860f89	0.01636483
136	0x3c49750d	0.0122959735
137	0x3bd0d620	0.006373182
138	0x3c0af580	0.008481383
139	0x3be41465	0.006960439
140	0xba5ecf7d	-0.0008499546
141	0xbb27d345	-0.0025608104
142	0xbbc52328	-0.006016154
143	0x399fcb46	0.00030478294
144	0xbcc15430	-0.023599714
145	0xbc2f496d	-0.010698658
146	0x3b5ea6ed	0.0033974007
147	0x3c6eab5b	0.0145672215
148	0xbc4f9045	-0.012668674
149	0xbbacb61c	-0.0052707326
150	0x3b2db118	0.0026503261
151	0x3acbdf82	0.0015554281
152	0x3c4f752d	0.012662214
153	0xbc75d05f	-0.015003293
154	0x3b22b8f3	0.0024829477
155	0x3c2c1c77	0.010504833
156	0x3b6bf5ab	0.0036004584
157	0xbc060f19	-0.0081823105
158	0xbc3fec75	-0.011714091
159	0xbbae8a4e	-0.005326546
160	0xbc0e9d9b	-0.008704568
161	0x3bb60094	0.005554268
162	0x3b169d43	0.002298192
163	0xbbb1140a	-0.005404
164	0xb9093252	-0.00013084084
165	0xbc632e4f	-0.013866021
166	0x3bcf18f0	0.0063201115
167	0xbc15e612	-0.009149091
168	0x3c1dfbbd	0.009642539
169	0xbaed7f68	-0.0018119635
170	0xbb77c3e2	-0.0037805964
171	0xbb789fc0	-0.0037937015
172	0x3c0b3275	0.008495917
173	0xbc96f742	-0.018428449
174	0xb98d51a4	-0.00026954443
175	0x3a880d87	0.0010380008
176	0xbb268445	-0.0025408429
177	0x3ad8ed03	0.0016550127
178	0xbb946b2c	-0.0045293774
179	0xbc05364a	-0.008130619
180	0x3c3c5ffc	0.011497494
181	0x3b4f3c20	0.003162153
182	0x3bd5163f	0.006502896
183	0x3c2f963a	0.010716969
184	0x3bbe3fd6	0.0058059497
185	0xbbe362b8	-0.0069392584
186	0xba95672a	-0.0011398543
187	0x3b3d604d	0.002889651
188	0x3a58ea38	0.00082746474
189	0xbc55525d	-0.013020125
190	0xbc688b17	-0.014193318
191	0xbc93baf3	-0.01803348
192	0x3b483fe9	0.0030555672
193	0xbc35971c	-0.011083391
194	0x3b7cc6a5	0.003857055
195	0xbb9998d9	-0.0046874103
196	0x3b52a65a	0.003214261
197	0xbad17c1b	-0.0015982421
198	0x39e24fe3	0.000431656
199	0xbc3c74a4	-0.011502419
200	0xb900030a	-0.00012208163
201	0xbbbf67b4	-0.00584122
202	0x3c145589	0.009053596
203	0x3c5647fa	0.013078684
204	0xba9b5b77	-0.001185282
205	0xba270979	-0.0006371956
206	0x3af32c53	0.0018552638
207	0xbc74d3c3	-0.014943066
208	0xbc92080f	-0.017826108
209	0xbb46ad64	-0.0030315751
210	0xbc0f96bb	-0.008763964
211	0xbb20387d	-0.0024447732
212	0xbb5ef468	-0.003402019
213	0x3aafb6d0	0.0013405923
214	0x3a571edb	0.0008206197
215	0x3bb0168f	0.005373783
216	0x3b8d0e90	0.0043047145
217	0x3ba6e1d6	0.0050928397
218	0xbbce5765	-0.0062970393
219	0xbc18bbe6	-0.009322142
220	0x3c481d84	0.012214068
221	0x3c402344	0.011727158
222	0xbc96adb2	-0.018393371
223	0xbc63d38b	-0.013905416
224	0xbc70b927	-0.014692581
225	0x3caa9a2f	0.020825474
226	0xbc061064	-0.008182619
227	0xbbca8bfe	-0.006181239
228	0x3bbc52af	0.0057471613
229	0x3c8fb0d8	0.01754038
230	0xbbee6ebb	-0.0072763837
231	0xbb7ec778	-0.0038876217
232	0xbbe1a207	-0.0068857702
233	0xbb3267bf	-0.0027222482
234	0xbbc62e7e	-0.006048023
235	0xbbd943bf	-0.0066303904
236	0xbc12fe71	-0.008971796
237	0x3b1b73e0	0.002372019
238	0xbb56313b	-0.0032683152
239	0x3c37d005	0.011219029
240	0x3b05ebe4	0.0020434791
241	0x3baec6e1	0.005333767
242	0xb9ad482f	-0.00033050912
243	0x3b1024eb	0.002199466
244	0x3c66929f	0.014073043
245	0x3c127aee	0.0089404415
246	0xbb328b73	-0.0027243763
247	0x3c6c4165	0.014419888
248	0x384b35d7	4.8449114e-05
249	0x3c4d77b2	0.012540745
250	0xbb48de2e	-0.0030650008
251	0x3b4f2fd8	0.003161421
252	0x3b990baf	0.0046705822
253	0xbc8da142	-0.017288808
254	0x3b9bfef3	0.004760617
255	0x3bd3c813	0.0064630597

discrete_action_output_shape f4 [1, 2]
0	0x40000000	2.0
1	0x40000000	2.0

network_body._body_endoder.seq_layers.0.bias f4 [128]
0	0x00000000	0.0
1	0x00000000	0.0
2	0x00000000	0.0
3	0x00000000	0.0
4	0x00000000	0.0
5	0x00000000	0.0
6	0x00000000	0.0
7	0x00000000	0.0
8	0x00000000	0.0
9	0x00000000	0.0
10	0x00000000	0.0
11	0x00000000	0.0
12	0x00000000	0.0
13	0x00000000	0.0
14	0x00000000	0.0
15	0x00000000	0.0
16	0x00000000	0.0
17	0x00000000	0.0
18	0x00000000	0.0
19	0x00000000	0.0
20	0x00000000	0.0
21	0x00000000	0.0
22	0x00000000	0.0
23	0x00000000	0.0
24	0x00000000	0.0
25	0x00000000	0.0
26	0x00000000	0.0
27	0x00000000	0.0
28	0x00000000	0.0
29	0x00000000	0.0
30	0x00000000	0.0
31	0x00000000	0.0
32	0x00000000	0.0
33	0x00000000	0.0
34	0x00000000	0.0
35	0x00000000	0.0
36	0x00000000	0.0
37	0x00000000	0.0
38	0x00000000	0.0
39	0x00000000	0.0
40	0x00000000	0.0
41	0x00000000	0.0
42	0x00000000	0.0
43	0x00000000	0.0
44	0x00000000	0.0
45	0x00000000	0.0
46	0x00000000	0.0
47	0x00000000	0.0
48	0x00000000	0.0
49	0x00000000	0.0
50	0x00000000	0.0
51	0x00000000	0.0
52	0x00000000	0.0
53	0x00000000	0.0
54	0x00000000	0.0
55	0x00000000	0.0
56	0x00000000	0.0
57	0x00000000	0.0
58	0x00000000	0.0
59	0x00000000	0.0
60	0x00000000	0.0
61	0x00000000	0.0
62	0x00000000	0.0
63	0x00000000	0.0
64	0x00000000	0.0
65	0x00000000	0.0
66	0x00000000	0.0
67	0x00000000	0.0
68	0x00000000	0.0
69	0x00000000	0.0
70	0x00000000	0.0
71	0x00000000	0.0
72	0x00000000	0.0
73	0x00000000	0.0
74	0x00000000	0.0
75	0x00000000	0.0
76	0x00000000	0.0
77	0x00000000	0.0
78	0x00000000	0.0
79	0x00000000	0.0
80	0x00000000	0.0
81	0x00000000	0.0
82	0x00000000	0.0
83	0x00000000	0.0
84	0x00000000	0.0
85	0x00000000	0.0
86	0x00000000	0.0
87	0x00000000	0.0
88	0x00000000	0.0
89	0x00000000	0.0
90	0x00000000	0.0
91	0x00000000	0.0
92	0x00000000	0.0
93	0x00000000	0.0
94	0x00000000	0.0
95	0x00000000	0.0
96	0x00000000	0.0
97	0x00000000	0.0
98	0x00000000	0.0
99	0x00000000	0.0
100	0x00000000	0.0
101	0x00000000	0.0
102	0x00000000	0.0
103	0x00000000	0.0
104	0x00000000	0.0
105	0x00000000	0.0
106	0x00000000	0.0
107	0x00000000	0.0
108	0x00000000	0.0
109	0x00000000	0.0
110	0x00000000	0.0
111	0x00000000	0.0
112	0x00000000	0.0
113	0x00000000	0.0
114	0x00000000	0.0
115	0x00000000	0.0
116	0x00000000	0.0
117	0x00000000	0.0
118	0x00000000	0.0
119	0x00000000	0.0
120	0x00000000	0.0
121	0x00000000	0.0
122	0x00000000	0.0
123	0x00000000	0.0
124	0x00000000	0.0
125	0x00000000	0.0
126	0x00000000	0.0
127	0x00000000	0.0

network_body._body_endoder.seq_layers.0.weight f4 [128, 1]
0	0x3fc1d906	1.5144355
1	0xbf910acc	-1.133142
2	0xbf9b99b4	-1.2156281
3	0x3e7056df	0.23470639
4	0xbf6a2a89	-0.91471153
5	0x3deae59b	0.11469575
6	0x3f0d15af	0.5511121
7	0x3ee95361	0.45571426
8	0xbfab5dff	-1.338806
9	0xbf05c9fc	-0.5226133
10	0xc0098b44	-2.149125
11	0x3fc44fe9	1.5336887
12	0x4012669e	2.2875133
13	0x3fb286e4	1.3947415
14	0xbf5e01e7	-0.8672165
15	0xbfba847d	-1.4571682
16	0xbef7762d	-0.48332348
17	0xbf3cde49	-0.7377668
18	0xbeffe2f8	-0.4997785
19	0xbf97eae4	-1.1868558
20	0xbf23d3b6	-0.6399492
21	0xc0260721	-2.594185
22	0xbf967816	-1.1755397
23	0x401d3d25	2.456857
24	0xbe35bdb6	-0.1774815
25	0x3de4e723	0.11176898
26	0x3fb6a970	1.4270458
27	0x3f138dbe	0.57638156
28	0xbf5a605e	-0.85303295
29	0xbfaa24d5	-1.329249
30	0xbef5b700	-0.4799118
31	0xbf57f995	-0.84365207
32	0xbf94841d	-1.1602818
33	0x3f067768	0.5252595
34	0xbf005d92	-0.50142777
35	0x3f511e7f	0.8168716
36	0x3f2a4a97	0.66520065
37	0x3e3dee43	0.18547921
38	0xbf52e786	-0.82384527
39	0x3f75835b	0.9590356
40	0xbf134d59	-0.575399
41	0x3ed1f4e7	0.41007158
42	0x3b0e58bf	0.0021720377
43	0x3f249506	0.6428989
44	0x3d8b4aee	0.06801401
45	0xbfb3206d	-1.399427
46	0x3f63a245	0.8891948
47	0xc0010106	-2.0156875
48	0x3fa1f797	1.2653683
49	0x3fd6bdc8	1.6776667
50	0xbf29f9ef	-0.66396993
51	0x3edf6684	0.436329
52	0xbe054d1b	-0.13017695
53	0xbee4e2ec	-0.44704378
54	0xbf3cad19	-0.73701626
55	0x3fa53aea	1.2908604
56	0x3f070edc	0.5275705
57	0xbe5c9466	-0.21540985
58	0xbe0d1742	-0.13778403
59	0xbfd863e7	-1.6905488
60	0x3f10bf21	0.5654164
61	0x3eaa3a89	0.33247784
62	0x3f410d37	0.7541079
63	0x3ec9e914	0.39435637
64	0xbf3c0ebf	-0.7346
65	0x3f21f355	0.6326192
66	0x3ec97c41	0.3935261
67	0x3f9d7a5c	1.2302966
68	0x3f650fd1	0.8947726
69	0x3f04f551	0.51936823
70	0x4023a942	2.5572057
71	0x3f05c1d2	0.5224887
72	0x3fef7561	1.8707696
73	0x3de25c09	0.110527106
74	0xbec3f632	-0.3827377
75	0xbf81d4af	-1.0143031
76	0xbe221af1	-0.1583059
77	0x4005d423	2.0910728
78	0x3f9c2948	1.2200098
79	0xbf476ded	-0.7790211
80	0xbfc05226	-1.502507
81	0x3f8817b2	1.0632231
82	0xbe926e62	-0.2859984
83	0xbe365b18	-0.17808187
84	0x3e950c90	0.29111147
85	0x3f4147b5	0.7550004
86	0xbe83316e	-0.2562365
87	0x3fc15752	1.5104773
88	0xbf8c3c13	-1.0955833
89	0x3e175ca5	0.14781435
90	0x3fb1d3b0	1.3892727
91	0x4011ef7b	2.2802417
92	0xbfcd69f7	-1.6047963
93	0xbe0251d9	-0.12726535
94	0x3f6e2ec4	0.9304011
95	0xbec33af1	-0.38130906
96	0xbe86b4ed	-0.2630991
97	0xbee88fe9	-0.45422295
98	0x3d2d5417	0.042316522
99	0x3e811d38	0.25217605
100	0xbedbbd5a	-0.429179
101	0x3f777d37	0.9667544
102	0xbe982863	-0.29718313
103	0xbe934bc6	-0.28768748
104	0x3b94ddb6	0.0045430316
105	0x3dca91b0	0.09891069
106	0x3ea7cfa5	0.32775608
107	0xbf9456bc	-1.1588969
108	0x3ed9d1f8	0.42543006
109	0xc0216079	-2.5215132
110	0xbf2e10ed	-0.67994577
111	0xbea1d639	-0.3160875
112	0xbee29be4	-0.4425956
113	0xbebd1985	-0.36933532
114	0xbf07ca3e	-0.5304297
115	0x3e70f90a	0.23532501
116	0x3f1abb29	0.60441834
117	0x3f518a0e	0.8185128
118	0x3e91b9bf	0.28462026
119	0x3f1ecbf1	0.6202994
120	0x3ffefe7d	1.9921414
121	0xbf8e1dfe	-1.1102903
122	0xbf5d9e75	-0.8656991
123	0x3eab85a6	0.33500403
124	0xbe77a349	-0.24183382
125	0xbfbdde9b	-1.4833559
126	0xbeaa4301	-0.33254245
127	0xbf345734	-0.7044556

network_body._body_endoder.seq_layers.2.bias f4 [128]
0	0x00000000	0.0
1	0x00000000	0.0
2	0x00000000	0.0
3	0x00000000	0.0
4	0x00000000	0.0
5	0x00000000	0.0
6	0x00000000	0.0
7	0x00000000	0.0
8	0x00000000	0.0
9	0x00000000	0.0
10	0x00000000	0.0
11	0x00000000	0.0
12	0x00000000	0.0
13	0x00000000	0.0
14	0x00000000	0.0
15	0x00000000	0.0
16	0x00000000	0.0
17	0x00000000	0.0
18	0x00000000	0.0
19	0x00000000	0.0
20	0x00000000	0.0
21	0x00000000	0.0
22	0x00000000	0.0
23	0x00000000	0.0
24	0x00000000	0.0
25	0x00000000	0.0
26	0x00000000	0.0
27	0x00000000	0.0
28	0x00000000	0.0
29	0x00000000	0.0
30	0x00000000	0.0
31	0x00000000	0.0
32	0x00000000	0.0
33	0x00000000	0.0
34	0x00000000	0.0
35	0x00000000	0.0
36	0x00000000	0.0
37	0x00000000	0.0
38	0x00000000	0.0
39	0x00000000	0.0
40	0x00000000	0.0
41	0x00000000	0.0
42	0x00000000	0.0
43	0x00000000	0.0
44	0x00000000	0.0
45	0x00000000	0.0
46	0x00000000	0.0
47	0x00000000	0.0
48	0x00000000	0.0
49	0x00000000	0.0
50	0x00000000	0.0
51	0x00000000	0.0
52	0x00000000	0.0
53	0x00000000	0.0
54	0x00000000	0.0
55	0x00000000	0.0
56	0x00000000	0.0
57	0x00000000	0.0
58	0x00000000	0.0
59	0x00000000	0.0
60	0x00000000	0.0
61	0x00000000	0.0
62	0x00000000	0.0
63	0x00000000	0.0
64	0x00000000	0.0
65	0x00000000	0.0
66	0x00000000	0.0
67	0x00000000	0.0
68	0x00000000	0.0
69	0x00000000	0.0
70	0x00000000	0.0
71	0x00000000	0.0
72	0x00000000	0.0
73	0x00000000	0.0
74	0x00000000	0.0
75	0x00000000	0.0
76	0x00000000	0.0
77	0x00000000	0.0
78	0x00000000	0.0
79	0x00000000	0.0
80	0x00000000	0.0
81	0x00000000	0.0
82	0x00000000	0.0
83	0x00000000	0.0
84	0x00000000	0.0
85	0x00000000	0.0
86	0x00000000	0.0
87	0x00000000	0.0
88	0x00000000	0.0
89	0x00000000	0.0
90	0x00000000	0.0
91	0x00000000	0.0
92	0x00000000	0.0
93	0x00000000	0.0
94	0x00000000	0.0
95	0x00000000	0.0
96	0x00000000	0.0
97	0x00000000	0.0
98	0x00000000	0.0
99	0x00000000	0.0
100	0x00000000	0.0
101	0x00000000	0.0
102	0x00000000	0.0
103	0x00000000	0.0
104	0x00000000	0.0
105	0x00000000	0.0
106	0x00000000	0.0
107	0x00000000	0.0
108	0x00000000	0.0
109	0x00000000	0.0
110	0x00000000	0.0
111	0x00000000	0.0
112	0x00000000	0.0
113	0x00000000	0.0
114	0x00000000	0.0
115	0x00000000	0.0
116	0x00000000	0.0
117	0x00000000	0.0
118	0x00000000	0.0
119	0x00000000	0.0
120	0x00000000	0.0
121	0x00000000	0.0
122	0x00000000	0.0
123	0x00000000	0.0
124	0x00000000	0.0
125	0x00000000	0.0
126	0x00000000	0.0
127	0x00000000	0.0

network_body._body_endoder.seq_layers.2.weight f4 [128, 128]
0	0x3e0d746c	0.13813943
1	0xbd5ab9c9	-0.053399835
2	0x3c062929	0.008188524
3	0x3cb23735	0.02175484
4	0x3c08737f	0.008328318
5	0x3d31567f	0.04329538
6	0xbc882e52	-0.01662365
7	0x3d14436e	0.03619712
8	0xbd03c660	-0.032171607
9	0x3d978149	0.07397706
10	0x3d9e8227	0.07739668
11	0xbd0f3217	-0.03495988
12	0xbce9b581	-0.02852893
13	0x3d4ad74b	0.049521726
14	0x3df825f8	0.12116617
15	0x3e3ff30e	0.18745062
16	0x3dfb1d8a	0.122614935
17	0xbd51e35a	-0.05124221
18	0xbd80993d	-0.06279228
19	0x3e0f1a31	0.13974835
20	0xbcdb490f	-0.026768235
21	0x3d03b806	0.03215792
22	0x3de80f25	0.113310136
23	0xbe0df671	-0.13863541
24	0x3e0d4202	0.13794711
25	0x3da363f6	0.079780504
26	0xbd8c2bda	-0.068443015
27	0xbd851e39	-0.06499905
28	0x3baaf681	0.005217374
29	0xbd826609	-0.06367118
30	0x3bb0fc1c	0.0054011475
31	0x3e374de6	0.1790081
32	0xbe62a17e	-0.22131917
33	0x3d56cc48	0.05244091
34	0x3dc98d30	0.098413825
35	0xbe15809d	-0.14599843
36	0x3d445ff9	0.04794309
37	0x3d55392a	0.05205647
38	0x3d9a4345	0.07532362
39	0xbd1bec29	-0.038067017
40	0xbc45bb88	-0.012068637
41	0xbdc881c6	-0.09790377
42	0x3d4606ab	0.048346203
43	0x3d9f64ef	0.077829234
44	0x3c5b9c90	0.013404027
45	0xbd410120	-0.047120214
46	0xbd3f8077	-0.046753373
47	0xbc7961ac	-0.015221041
48	0x3da1f756	0.07908504
49	0xbd1ffd64	-0.03906001
50	0xbe3b2124	-0.18274361
51	0xbe6b345b	-0.22969191
52	0x3de5b0fe	0.11215399
53	0xbd2c344b	-0.042042058
54	0x3db204ce	0.08692323
55	0x3de07d6f	0.109614246
56	0xbd8a8f0d	-0.06765566
57	0xbe076ec2	-0.13225845
58	0xbc4c2d06	-0.012461906
59	0xbd80d460	-0.06290507
60	0xbd0f7012	-0.035018988
61	0xbd769560	-0.06020105
62	0xbd58da84	-0.052942768
63	0x3d6561a3	0.056001317
64	0xbd181975	-0.037133653
65	0x3d9e4158	0.07727307
66	0x3d46b124	0.04850878
67	0x3ab69c40	0.0013932064
68	0x3ddc5930	0.10759199
69	0xbdcf196a	-0.10112269
70	0x3dea678d	0.11445532
71	0x3e6dd977	0.23227488
72	0x3d91bf71	0.07116593
73	0x3c008ed8	0.007846557
74	0xbde74f50	-0.112944245
75	0xbbc95200	-0.0061438084
76	0x3e27ba7f	0.16379736
77	0xbc9d15ce	-0.019175436
78	0x3d5178ee	0.05114072
79	0x3b20fa9b	0.0024563435
80	0x3d0b8a8e	0.034067683
81	0xbbee6a68	-0.007275868
82	0xbdad1946	-0.08452086
83	0x3d894eea	0.06704505
84	0xbe17098e	-0.14749739
85	0x3db88cdc	0.09011242
86	0x3cec54e6	0.028849076
87	0x3ce7bb12	0.028287444
88	0x3d83c076	0.064331934
89	0x3df4e123	0.11957004
90	0x3d179b7f	0.037013527
91	0xbe1aa95a	-0.15103665
92	0xbd4ffda6	-0.050779007
93	0x3e2be432	0.16786268
94	0x3cc14e71	0.023596974
95	0x3d67e2af	0.056612667
96	0xbda171d9	-0.07883043
97	0x3d8f4573	0.06995668
98	0x3c366f63	0.011134955
99	0xbd548d38	-0.05189249
100	0x3cc80d7d	0.024420494
101	0xbd95fefa	-0.073240235
102	0x3c02f34c	0.007992577
103	0x3d938e88	0.0720492
104	0x3c14e634	0.009088088
105	0x3c2bbabd	0.010481534
106	0xbd3bafea	-0.04582206
107	0xbdee2ed4	-0.116300255
108	0x3df00cee	0.11721216
109	0x3d6a5583	0.057210457
110	0xbcf014ba	-0.029306758
111	0x3c7ed368	0.015553333
112	0xbd925d6b	-0.07146724
113	0xbe25b5da	-0.16182652
114	0x3e4f50d1	0.20245673
115	0xbd7081f9	-0.0587177
116	0x3d956c5c	0.072960585
117	0x3e269fad	0.16271849
118	0x3ddf7337	0.10910647
119	0xbb666f9c	-0.003516174
120	0xbd879a5b	-0.06621238
121	0x3da7c1a9	0.081912346
122	0xbda15a00	-0.07878494
123	0xbc8948de	-0.016758379
124	0xbde9d7ea	-0.114181355
125	0xbd14db1a	-0.036341764
126	0x3d487858	0.048942894
127	0x3c72d07c	0.014820214
128	0x3d613881	0.054985527
129	0x3db7f8db	0.08983012
130	0xbd2ba1b1	-0.041902248
131	0xbd5e0efb	-0.054213505
132	0xbdb62588	-0.08893877
133	0x3d0a5a86	0.033777736
134	0x3db014af	0.08597695
135	0x3c91c9dd	0.017796451
136	0x3d3bb271	0.04582447
137	0x3d7f0d87	0.06226876
138	0x3dbfb94c	0.093615144
139	0xbd65371b	-0.055960756
140	0xbd0dbbef	-0.034603056
141	0xbd06b34c	-0.032885835
142	0xbd9add24	-0.075617105
143	0xbdfab660	-0.122418165
144	0x3cee5af2	0.0290961
145	0x3dc66f6c	0.09689221
146	0xbdd35255	-0.10318438
147	0x3dfbe9d7	0.12300461
148	0x3cb42c58	0.021993801
149	0xbcbdc0d5	-0.023163239
150	0xbd4db75d	-0.050223697
151	0xbe2a3496	-0.16621622
152	0x3d123385	0.035693664
153	0xbd9146fd	-0.07093618
154	0xbdc2887a	-0.09498687
155	0xbe08fbd5	-0.13377316
156	0x3d2657d1	0.040611092
157	0xbdd8759d	-0.10569308
158	0x3c872263	0.016495889
159	0x3d82c1d7	0.06384628
160	0xbd7a0384	-0.06103851
161	0xbdbf8a96	-0.09352605
162	0x3e2e5e32	0.1702812
163	0x3e0ebbc4	0.13938814
164	0xbaf6a6b3	-0.0018817991
165	0x3bd99fc5	0.0066413605
166	0x3dca2b4e	0.09871541
167	0xbe22cd14	-0.15898544
168	0xbdbd8fa3	-0.09255912
169	0x3e017d06	0.12645349
170	0x3cb0b55a	0.02157085
171	0xbd614fc8	-0.055007726
172	0x3d45ba23	0.048273217
173	0xbe1bcbd6	-0.15214476
174	0x3d46d07b	0.048538666
175	0xbd2b50ee	-0.041825227
176	0x3c40e125	0.011772429
177	0x3d71e9e7	0.059060957
178	0x3caa2f23	0.02077443
179	0x3d8141ba	0.063113645
180	0xbd90192f	-0.070360534
181	0x3d521a96	0.051294886
182	0xbd9570f8	-0.07296938
183	0x3ce6713d	0.028130168
184	0xbc6d0a87	-0.014467842
185	0xbbc8dfee	-0.00613021
186	0x3c3ebfb9	0.01164239
187	0x3d3c8946	0.04602935
188	0xbc0a5fb3	-0.008445668
189	0xbcffacc5	-0.031210313
190	0xbdb2f824	-0.08738735
191	0xbd335458	-0.04378161
192	0xbc11e8b4	-0.008905578
193	0x3d48ee16	0.04905518
194	0x3d90a11d	0.0706198
195	0x3cc796d5	0.024363915
196	0xbbf992b3	-0.007616365
197	0xbd866510	-0.06562245
198	0x3c22e1d6	0.009941539
199	0x3e1e2ec8	0.15447533
200	0xbc678937	-0.014131836
201	0x3d282c0b	0.041057628
202	0x3d3f54d7	0.04671177
203	0x3de3fe79	0.11132521
204	0xbc4e24a2	-0.012581976
205	0x3af9f0f6	0.0019069004
206	0x3da68205	0.08130268
207	0xbe4b758d	-0.19869061
208	0x3e040db6	0.12895855
209	0x3dd2abe8	0.10286695
210	0xbdd5850d	-0.10425768
211	0xbd299f0a	-0.041411437
212	0x3e82b7e5	0.25530925
213	0x3ddbd287	0.10733514
214	0xbccc8672	-0.024966452
215	0xbca9172b	-0.02064093
216	0x3e8504e9	0.2598031
217	0xbd3e60eb	-0.046479147
218	0x3d1f6c11	0.03892142
219	0x3d7006c7	0.058600213
220	0x3d81dd58	0.06341046
221	0xbe2b19ce	-0.16709062
222	0xbdaefde4	-0.085445195
223	0xbaf93c52	-0.0019015169
224	0xbe17b245	-0.14814098
225	0xbc79f392	-0.015255826
226	0x3d688ac7	0.056772973
227	0x3dd83126	0.10556249
228	0xbdca27da	-0.09870882
229	0x3df2e795	0.11860577
230	0x3b871daa	0.0041234093
231	0xbd3e524b	-0.0464652
232	0x3d812e3e	0.06307648
233	0x3d45fda1	0.048337582
234	0xbd25cc40	-0.04047799
235	0xbd01de73	-0.031706285
236	0x3df0dcf4	0.117608935
237	0x3ddd1dbb	0.10796686
238	0x3d27f3e5	0.04100408
239	0xbd05d24c	-0.032671258
240	0x3d92cd59	0.07168073
241	0xbd8f625e	-0.07001184
242	0x3d45bc62	0.04827536
243	0x3c9beebc	0.019034736
244	0xbd481eda	-0.048857547
245	0xbd65998f	-0.056054648
246	0xbe32610b	-0.17419831
247	0xbe469b50	-0.19395185
248	0xbd01b56b	-0.031667154
249	0xbe08f202	-0.13373569
250	0xbdc3c80b	-0.095596395
251	0xbe182832	-0.14859083
252	0xbd501f6c	-0.050811216
253	0xbddffe59	-0.10937185
254	0x3dc2bdf3	0.09508886
255	0xbe04487a	-0.12918273
