results/ppo/PlayerController/PlayerController-64.pt (torch, 146007 bytes, 14 tensors)

discrete_act_size_vector f4 [1, 2]
0	0x40000000	2.0
1	0x40000000	2.0

network_body._body_endoder.seq_layers.0.weight f4 [128, 1]
0	0x3f893b6c	1.0721259
1	0x4058df7a	3.38864
2	0xbd853905	-0.06505016
3	0x3e865b6e	0.2624163
4	0xbfc09b3a	-1.5047371
5	0x3f4c2086	0.79737127
6	0xbd5096aa	-0.050924934
7	0xbf51b831	-0.8192168
8	0xbf0a0674	-0.53916097
9	0xbf1018d1	-0.56287867
10	0x3f736bcd	0.95086366
11	0x3f6d11c8	0.9260526
12	0xbedab4fa	-0.427162
13	0x3f4136b4	0.75474095
14	0x400bc0b3	2.1836364
15	0xbe83c37c	-0.2573508
16	0x3ff92979	1.9465781
17	0x3ed95ed7	0.4245517
18	0xbf0dab93	-0.55339926
19	0xbf6a4df9	-0.91525227
20	0xbf7a833e	-0.9785651
21	0xbe1e4bdd	-0.15458627
22	0x3fa0c17a	1.2559044
23	0xbeeef10d	-0.46668282
24	0x3fecbead	1.849569
25	0xbfcd3ddf	-1.6034507
26	0x3e22f193	0.15912466
27	0xbedeba5e	-0.43501562
28	0xbddc9519	-0.107706256
29	0xbf88ff07	-1.0702828
30	0xbf70a4c5	-0.9400142
31	0x3ecea4c7	0.4036009
32	0x3f277a3b	0.65420884
33	0x3f3dddf5	0.74166805
34	0x3e1a8d11	0.15092875
35	0xbfd79096	-1.6840999
36	0x3eb9b555	0.36271158
37	0x3db8c64b	0.090221964
38	0x3e7de35e	0.24793765
39	0xbfbb6502	-1.46402
40	0x40447a71	3.0699732
41	0x3f36ec49	0.7145429
42	0xbe432de7	-0.19060479
43	0x3fee4f5a	1.8617966
44	0xbf1d3f2c	-0.6142452
45	0x3f571756	0.8401998
46	0xbeb10eec	-0.34581697
47	0x3f464e4a	0.7746321
48	0x3e4eefb1	0.20208623
49	0x3d72acb9	0.059246752
50	0xbde6aa5b	-0.112629615
51	0x3f2d7524	0.6775687
52	0xbf0ae5a4	-0.54256654
53	0x3f9988d7	1.1994885
54	0x3f91a652	1.1378882
55	0x3e86f87a	0.26361448
56	0x3f638989	0.88881737
57	0x3ed98ac6	0.42488688
58	0xbf2ec0aa	-0.6826273
59	0xbc9bad68	-0.019003585
60	0xbf87072e	-1.0549066
61	0xbf06ebdc	-0.5270364
62	0xbec101fc	-0.37696826
63	0x3f66563c	0.89975333
64	0x3fce8df9	1.6137077
65	0xbf0488f5	-0.5177148
66	0x3f6d66f9	0.9273525
67	0x3e08a099	0.13342513
68	0xbecc1dc8	-0.3986647
69	0xbf72d5bb	-0.94857377
70	0xbec1b4b4	-0.37833178
71	0xbf9b7987	-1.2146462
72	0xbf2ba249	-0.670445
73	0x3f50c6f6	0.8155359
74	0xbfd21172	-1.6411574
75	0x3ddcc334	0.107794195
76	0xbfb4b0a5	-1.4116408
77	0xbe19b5ee	-0.15010807
78	0xbf0620c2	-0.52393734
79	0xbf09af77	-0.53783363
80	0x3fcde63c	1.6085887
81	0x3f4db552	0.803548
82	0xbe3ca4a9	-0.18422188
83	0x3e3836b0	0.17989612
84	0xc0075805	-2.1147473
85	0x3f002f22	0.5007192
86	0x3f1daaaa	0.6158854
87	0xbee5a289	-0.44850567
88	0xbe857ca1	-0.26071647
89	0x3f81c2fd	1.0137631
90	0xbf28d919	-0.65956265
91	0xbe91a1be	-0.28443712
92	0x3d1599e5	0.03652372
93	0x3f985bc9	1.1903011
94	0x3f28fb5c	0.66008544
95	0x3faee505	1.3663641
96	0xbe4789ab	-0.1948611
97	0xbf6ede2d	-0.93307763
98	0xc00cdb4f	-2.2008855
99	0xbf9b0390	-1.2110462
100	0x3f8f3204	1.1187139
101	0xbfc244a3	-1.5177196
102	0xbe932900	-0.28742218
103	0xbe2c017c	-0.16797441
104	0x3fbd3069	1.4780399
105	0xbf0bcc67	-0.5460877
106	0x3efd3ff2	0.4946285
107	0x3f97ba1f	1.1853675
108	0xbef22b37	-0.47298595
109	0x3ffcb960	1.9744072
110	0xbe288c2c	-0.16459721
111	0xbfd15933	-1.6355346
112	0xbececb25	-0.40389362
113	0x3fa0f324	1.2574201
114	0x3f3b1c90	0.7309046
115	0x3f59d04f	0.8508348
116	0x3f64d783	0.89391345
117	0xbefb8da2	-0.49131495
118	0x3ec37059	0.38171652
119	0xbef2e171	-0.47437623
120	0xbe59a42b	-0.21254031
121	0xbf163cca	-0.58686507
122	0xbf27e357	-0.6558127
123	0x3f5313db	0.8245217
124	0x3f87d8f6	1.0613086
125	0xbf2e8eed	-0.6818684
126	0x3f39d260	0.7258663
127	0x3e86f310	0.26357317

network_body._body_endoder.seq_layers.0.bias f4 [128]
0	0x00000000	0.0
1	0x00000000	0.0
2	0x00000000	0.0
3	0x00000000	0.0
4	0x00000000	0.0
5	0x00000000	0.0
6	0x00000000	0.0
7	0x00000000	0.0
8	0x00000000	0.0
9	0x00000000	0.0
10	0x00000000	0.0
11	0x00000000	0.0
12	0x00000000	0.0
13	0x00000000	0.0
14	0x00000000	0.0
15	0x00000000	0.0
16	0x00000000	0.0
17	0x00000000	0.0
18	0x00000000	0.0
19	0x00000000	0.0
20	0x00000000	0.0
21	0x00000000	0.0
22	0x00000000	0.0
23	0x00000000	0.0
24	0x00000000	0.0
25	0x00000000	0.0
26	0x00000000	0.0
27	0x00000000	0.0
28	0x00000000	0.0
29	0x00000000	0.0
30	0x00000000	0.0
31	0x00000000	0.0
32	0x00000000	0.0
33	0x00000000	0.0
34	0x00000000	0.0
35	0x00000000	0.0
36	0x00000000	0.0
37	0x00000000	0.0
38	0x00000000	0.0
39	0x00000000	0.0
40	0x00000000	0.0
41	0x00000000	0.0
42	0x00000000	0.0
43	0x00000000	0.0
44	0x00000000	0.0
45	0x00000000	0.0
46	0x00000000	0.0
47	0x00000000	0.0
48	0x00000000	0.0
49	0x00000000	0.0
50	0x00000000	0.0
51	0x00000000	0.0
52	0x00000000	0.0
53	0x00000000	0.0
54	0x00000000	0.0
55	0x00000000	0.0
56	0x00000000	0.0
57	0x00000000	0.0
58	0x00000000	0.0
59	0x00000000	0.0
60	0x00000000	0.0
61	0x00000000	0.0
62	0x00000000	0.0
63	0x00000000	0.0
64	0x00000000	0.0
65	0x00000000	0.0
66	0x00000000	0.0
67	0x00000000	0.0
68	0x00000000	0.0
69	0x00000000	0.0
70	0x00000000	0.0
71	0x00000000	0.0
72	0x00000000	0.0
73	0x00000000	0.0
74	0x00000000	0.0
75	0x00000000	0.0
76	0x00000000	0.0
77	0x00000000	0.0
78	0x00000000	0.0
79	0x00000000	0.0
80	0x00000000	0.0
81	0x00000000	0.0
82	0x00000000	0.0
83	0x00000000	0.0
84	0x00000000	0.0
85	0x00000000	0.0
86	0x00000000	0.0
87	0x00000000	0.0
88	0x00000000	0.0
89	0x00000000	0.0
90	0x00000000	0.0
91	0x00000000	0.0
92	0x00000000	0.0
93	0x00000000	0.0
94	0x00000000	0.0
95	0x00000000	0.0
96	0x00000000	0.0
97	0x00000000	0.0
98	0x00000000	0.0
99	0x00000000	0.0
100	0x00000000	0.0
101	0x00000000	0.0
102	0x00000000	0.0
103	0x00000000	0.0
104	0x00000000	0.0
105	0x00000000	0.0
106	0x00000000	0.0
107	0x00000000	0.0
108	0x00000000	0.0
109	0x00000000	0.0
110	0x00000000	0.0
111	0x00000000	0.0
112	0x00000000	0.0
113	0x00000000	0.0
114	0x00000000	0.0
115	0x00000000	0.0
116	0x00000000	0.0
117	0x00000000	0.0
118	0x00000000	0.0
119	0x00000000	0.0
120	0x00000000	0.0
121	0x00000000	0.0
122	0x00000000	0.0
123	0x00000000	0.0
124	0x00000000	0.0
125	0x00000000	0.0
126	0x00000000	0.0
127	0x00000000	0.0

network_body._body_endoder.seq_layers.2.weight f4 [128, 128]
0	0xbdc1ad8c	-0.094569296
1	0xbdaa1653	-0.08305039
2	0xbaa5d14f	-0.001265088
3	0xbd843edd	-0.06457303
4	0x3ddb638f	0.10712349
5	0x3cca1d83	0.024672275
6	0xbb5b51a7	-0.0033465417
7	0x3daeb34f	0.08530294
8	0x3c40a99c	0.011759188
9	0x3b791a5e	0.00380101
10	0x3e002fa5	0.12518175
11	0xbddb7e08	-0.10717398
12	0x3cdb1b65	0.026746461
13	0x3cb2640e	0.021776225
14	0x3c4a3a6e	0.012343032
15	0xbd66cbf1	-0.056346837
16	0x3b61ddc1	0.003446445
17	0xbd90c240	-0.070683
18	0xbd725349	-0.05916146
19	0xbd5d119e	-0.05397188
20	0x3d18fd37	0.03735086
21	0xbd0ada05	-0.033899326
22	0x3d90d2c8	0.07071453
23	0x3e286096	0.16443095
24	0x3c0c5804	0.008565906
25	0x3dba846f	0.09107291
26	0xbd83e92f	-0.064409606
27	0xbd119a03	-0.035547268
28	0x3da93f02	0.08263971
29	0x3bd4d183	0.0064947023
30	0xbcece713	-0.028918779
31	0xbd2771fe	-0.040880196
32	0xbc17385a	-0.009229744
33	0xbe0b0554	-0.13576251
34	0x3db53174	0.08847323
35	0x3d84e348	0.06488663
36	0xbc3028d5	-0.010751923
37	0x3d8a8109	0.06762893
38	0xbce93f99	-0.028472709
39	0xbe22f4c8	-0.15913689
40	0xbcaa5c34	-0.020795919
41	0xbe70827a	-0.23487273
42	0x3de45c64	0.111504346
43	0x3cfb98ea	0.030712564
44	0xbd7f4657	-0.06232294
45	0x3d3c9603	0.0460415
46	0xbd295b06	-0.041346572
47	0xbc488929	-0.012239733
48	0xbbdcc97a	-0.006737885
49	0x3db79993	0.08964839
50	0xbdc51001	-0.09622193
51	0x3d48c3e5	0.049014945
52	0xbd49e068	-0.049286276
53	0xbd279b2c	-0.040919468
54	0x3e5f1198	0.21784055
55	0xbd40a7ae	-0.04703491
56	0xbcc97085	-0.024589786
57	0xbc34f7b2	-0.011045383
58	0x3dd085fe	0.10181807
59	0xbc8f0b88	-0.017461553
60	0x3c06c16f	0.008224829
61	0xbd0e859a	-0.03479538
62	0x3ab7ba5f	0.0014017335
63	0x3c7e6ae7	0.015528417
64	0xbc4f5e2f	-0.012656732
65	0xbc46746c	-0.012112718
66	0x3cb2db8b	0.021833202
67	0x3d1eacc9	0.038739
68	0x3d847a68	0.0646866
69	0xbbbe2994	-0.0058032963
70	0x3c971ca0	0.018446267
71	0x3ca67013	0.020317113
72	0x3dec3c5f	0.11534952
73	0x3d0545ea	0.03253738
74	0xbe20c6fc	-0.15700907
75	0xbbb7a6ae	-0.0056045866
76	0x3c87cfcd	0.01657858
77	0x3d25730f	0.04039293
78	0x3e135045	0.14386089
79	0x3baecdd1	0.005334594
80	0x3dbd302a	0.09237702
81	0xbd3a332f	-0.04545897
82	0x3beba84e	0.0071916943
83	0x3d1fdcd8	0.039028972
84	0xbe5534f4	-0.20820981
85	0x3e242471	0.16029526
86	0xbd5db3a7	-0.054126408
87	0xbd064262	-0.03277815
88	0xbccbb857	-0.024868174
89	0x3dbd4384	0.09241393
90	0x3d23aeff	0.03996181
91	0x3d978a99	0.07399482
92	0x3d983256	0.07431476
93	0xbcbf14b9	-0.023325311
94	0x3d0b4e7d	0.0340104
95	0x3ded81c6	0.11597018
96	0x3dcfd25e	0.10147546
97	0x3d1d6ec4	0.038435712
98	0x3e247c83	0.16063122
99	0x3a5becbb	0.00083894626
100	0xbe19e86d	-0.1503007
101	0xbe0941a2	-0.13403943
102	0x3c883247	0.016625537
103	0xbd554784	-0.052070156
104	0xbca2d720	-0.01987797
105	0xbd32bf79	-0.043639634
106	0x3cccd0a5	0.025001833
107	0xbcf90da3	-0.03040201
108	0x3db41c03	0.08794405
109	0xbd98f379	-0.07468314
110	0x3daf7ccf	0.08568727
111	0xbd28f2f4	-0.041247323
112	0xbdafcf92	-0.08584513
113	0x3c5f0f01	0.013614417
114	0xbe03559c	-0.12825626
115	0xbdc8e2d1	-0.09808887
116	0xbc78422d	-0.015152496
117	0xbd95bca0	-0.07311368
118	0xbdd04e59	-0.10171194
119	0xbd43fb20	-0.047846913
120	0xbdc62deb	-0.09676727
121	0xbdb2f73e	-0.08738564
122	0xbe4da6cd	-0.2008316
123	0x3d6e2677	0.05814215
124	0xbdfd20f4	-0.12359801
125	0xbdbe2276	-0.09283917
126	0xbaf05af3	-0.0018337652
127	0x3bb5af4f	0.00554458
128	0x3d7e2cb5	0.062054355
129	0x3e030eac	0.12798566
130	0xbddbcf93	-0.10732951
131	0x3c05494a	0.008135149
132	0x3d08fc8b	0.03344397
133	0x3dccd4ec	0.10001549
134	0xbddab259	-0.10678548
135	0x3d948ab1	0.07253016
136	0xbd2b1973	-0.041772317
137	0x3dca7d46	0.09887175
138	0x3dcd79e3	0.10033014
139	0x39eb94d2	0.00044933573
140	0x3d04e9b3	0.032449435
141	0x3e473d34	0.19456941
142	0x3cd217fa	0.025646199
143	0x3d61bdd5	0.05511268
144	0x3dc7b509	0.097513266
145	0xbca79579	-0.020457016
146	0x3d9bfff5	0.07617179
147	0xbc4a9051	-0.012363509
148	0x3db4fcf9	0.08837313
149	0xbd28a60d	-0.041173983
150	0xbe6a60c8	-0.22888482
151	0x3d3117de	0.043235652
152	0xbdaf8f1a	-0.08572216
153	0xbd6f17d5	-0.058372337
154	0x3d640339	0.055667136
155	0xbdec670f	-0.11543094
156	0xbc0e59d4	-0.008688409
157	0x3cd84ee1	0.0264048
158	0x3c103989	0.00880278
159	0x3e645c1a	0.22300759
160	0xbb372599	-0.0027945994
161	0xbca9d463	-0.020731157
162	0x3db872e9	0.090062924
163	0xbde824f3	-0.113351725
164	0xbdf4b6bb	-0.119489156
165	0x3d54ab8f	0.051921424
166	0xbc407279	-0.011746042
167	0xbdbe87ab	-0.0930322
168	0xbdb56218	-0.088566005
169	0xbc705370	-0.014668331
170	0x3daa9215	0.08328644
171	0x3d9012ef	0.07034861
172	0x3cc37f0d	0.023864293
173	0x3db461c9	0.088077135
174	0xbdc35e80	-0.09539509
175	0x3e0d6f46	0.13811979
176	0x3d2a3bc8	0.041560918
177	0xbd3935b2	-0.045217223
178	0x3ca7289e	0.02040511
179	0xbd9542ba	-0.07288118
180	0x3d21bc8f	0.039486464
181	0xbd885996	-0.06657712
182	0xbc4211c5	-0.011845057
183	0xbdd24d9e	-0.102687106
184	0x3e0e9c24	0.1392675
185	0x3de489d8	0.11159104
186	0x3da25169	0.07925684
187	0x3dd83756	0.105574295
188	0x3e98fbb9	0.2987955
189	0xbd778ac1	-0.06043506
190	0xbd8f3520	-0.06992555
191	0x3c86c0c2	0.016449336
192	0x3d9de491	0.07709611
193	0xbd1e3ff4	-0.03863521
194	0xbd6ca66d	-0.057775903
195	0xbe046fbf	-0.12933253
196	0xbd0e0c76	-0.034679852
197	0xbbe59b43	-0.007007034
198	0x3dace117	0.0844137
199	0xbce967a5	-0.028491804
200	0xbd227907	-0.039666202
201	0x3e2b8fec	0.1675412
202	0x3d48cae5	0.04902162
203	0xbcc52f30	-0.024070352
204	0xbdab4f19	-0.08364696
205	0x3ce51007	0.027961744
206	0xbe6bdff4	-0.2303465
207	0x3d52e489	0.05148748
208	0xbe07b352	-0.13251999
209	0x3d4f6318	0.050631613
210	0x3df99fae	0.121886596
211	0x3d2c59ef	0.042077955
212	0xbd08098b	-0.033212226
213	0x3da952d0	0.08267748
214	0xbc19ce78	-0.009387605
215	0xbdfe84a5	-0.12427644
216	0x3c53ee22	0.012935193
217	0xbb3163f8	-0.0027067643
218	0xbdc433b5	-0.09580175
219	0x3dbe598b	0.09294423
220	0xbd091226	-0.033464573
221	0xbc823b30	-0.015897363
222	0xbcd8eabc	-0.026479118
223	0x3e06aa96	0.13151011
224	0xbd8486b8	-0.06471008
225	0x3e1fcbcb	0.15605085
226	0xbb9d8e17	-0.004808198
227	0x3e335637	0.17513357
228	0x3e1c39a1	0.15256359
229	0xbda0d90c	-0.078538984
230	0x3c804e32	0.015662286
231	0x3b1e14ce	0.0024121287
232	0x3ae35988	0.0017345408
233	0xbd480f26	-0.04884257
234	0xbdb15ac0	-0.08659887
235	0x3d59f2ae	0.053209953
236	0x3dcf0715	0.10108773
237	0x3d5ba653	0.053625416
238	0xbdfebb1e	-0.124380335
239	0x3d9ad765	0.075606145
240	0xbd0901bd	-0.033448923
241	0x3d4118f5	0.04714294
242	0xbc812d66	-0.015768718
243	0xbaf192cd	-0.0018430591
244	0x3d6c6ac0	0.057718992
245	0x3ba7815c	0.0051118564
246	0x3df1129b	0.11771127
247	0x3b96efc3	0.0046062185
248	0x3deed7ed	0.11662278
249	0x3a862439	0.0010234184
250	0x3ba13932	0.0049201483
251	0x3d04a723	0.032385956
252	0x3cb65f09	0.022262113
253	0xbdbdb130	-0.092623115
254	0xbe047a54	-0.1293729
255	0x3ca1583e	0.019695397

network_body._body_endoder.seq_layers.2.bias f4 [128]
0	0x00000000	0.0
1	0x00000000	0.0
2	0x00000000	0.0
3	0x00000000	0.0
4	0x00000000	0.0
5	0x00000000	0.0
6	0x00000000	0.0
7	0x00000000	0.0
8	0x00000000	0.0
9	0x00000000	0.0
10	0x00000000	0.0
11	0x00000000	0.0
12	0x00000000	0.0
13	0x00000000	0.0
14	0x00000000	0.0
15	0x00000000	0.0
16	0x00000000	0.0
17	0x00000000	0.0
18	0x00000000	0.0
19	0x00000000	0.0
20	0x00000000	0.0
21	0x00000000	0.0
22	0x00000000	0.0
23	0x00000000	0.0
24	0x00000000	0.0
25	0x00000000	0.0
26	0x00000000	0.0
27	0x00000000	0.0
28	0x00000000	0.0
29	0x00000000	0.0
30	0x00000000	0.0
31	0x00000000	0.0
32	0x00000000	0.0
33	0x00000000	0.0
34	0x00000000	0.0
35	0x00000000	0.0
36	0x00000000	0.0
37	0x00000000	0.0
38	0x00000000	0.0
39	0x00000000	0.0
40	0x00000000	0.0
41	0x00000000	0.0
42	0x00000000	0.0
43	0x00000000	0.0
44	0x00000000	0.0
45	0x00000000	0.0
46	0x00000000	0.0
47	0x00000000	0.0
48	0x00000000	0.0
49	0x00000000	0.0
50	0x00000000	0.0
51	0x00000000	0.0
52	0x00000000	0.0
53	0x00000000	0.0
54	0x00000000	0.0
55	0x00000000	0.0
56	0x00000000	0.0
57	0x00000000	0.0
58	0x00000000	0.0
59	0x00000000	0.0
60	0x00000000	0.0
61	0x00000000	0.0
62	0x00000000	0.0
63	0x00000000	0.0
64	0x00000000	0.0
65	0x00000000	0.0
66	0x00000000	0.0
67	0x00000000	0.0
68	0x00000000	0.0
69	0x00000000	0.0
70	0x00000000	0.0
71	0x00000000	0.0
72	0x00000000	0.0
73	0x00000000	0.0
74	0x00000000	0.0
75	0x00000000	0.0
76	0x00000000	0.0
77	0x00000000	0.0
78	0x00000000	0.0
79	0x00000000	0.0
80	0x00000000	0.0
81	0x00000000	0.0
82	0x00000000	0.0
83	0x00000000	0.0
84	0x00000000	0.0
85	0x00000000	0.0
86	0x00000000	0.0
87	0x00000000	0.0
88	0x00000000	0.0
89	0x00000000	0.0
90	0x00000000	0.0
91	0x00000000	0.0
92	0x00000000	0.0
93	0x00000000	0.0
94	0x00000000	0.0
95	0x00000000	0.0
96	0x00000000	0.0
97	0x00000000	0.0
98	0x00000000	0.0
99	0x00000000	0.0
100	0x00000000	0.0
101	0x00000000	0.0
102	0x00000000	0.0
103	0x00000000	0.0
104	0x00000000	0.0
105	0x00000000	0.0
106	0x00000000	0.0
107	0x00000000	0.0
108	0x00000000	0.0
109	0x00000000	0.0
110	0x00000000	0.0
111	0x00000000	0.0
112	0x00000000	0.0
113	0x00000000	0.0
114	0x00000000	0.0
115	0x00000000	0.0
116	0x00000000	0.0
117	0x00000000	0.0
118	0x00000000	0.0
119	0x00000000	0.0
120	0x00000000	0.0
121	0x00000000	0.0
122	0x00000000	0.0
123	0x00000000	0.0
124	0x00000000	0.0
125	0x00000000	0.0
126	0x00000000	0.0
127	0x00000000	0.0

action_model._discrete_distribution.branches.0.weight f4 [2, 128]
0	0x3b42ff39	0.0029754175
1	0x3b709f1a	0.0036715926
2	0xbbcb2e4f	-0.006200589
3	0x3bd62c38	0.006536033
4	0x3b95ad88	0.0045678057
5	0xbc2586f3	-0.010102975
6	0xbc22cde4	-0.009936783
7	0x3c2b5bfb	0.010458942
8	0xbaad0f64	-0.0013203439
9	0xbc87be05	-0.0165701
10	0xbc3cc248	-0.01152093
11	0x3c26cdf4	0.010180939
12	0x3baaaf8a	0.005208914
13	0x3bfcb14b	0.0077115647
14	0xbbacf7e7	-0.0052785757
15	0x3c8552aa	0.016274769
16	0xbc831e26	-0.016005587
17	0x3c8465f4	0.016161896
18	0x3b882dd2	0.004155853
19	0xbc118810	-0.0088825375
20	0xbbb34c6a	-0.0054717558
21	0x3baf9d83	0.005359353
22	0xbb1c680b	-0.0023865725
23	0xbb8ea9be	-0.004353731
24	0xbb2f1d6b	-0.0026720415
25	0x3ba844de	0.0051351627
26	0x3caba3f3	0.0209522
27	0x3c0c464a	0.00856168
28	0xbbaaacba	-0.005208579
29	0xbc00a092	-0.007850783
30	0xbc00f6fa	-0.007871384
31	0x3bad577d	0.0052899704
32	0xbbf92ed0	-0.0076044574
33	0xbc1923d2	-0.009346919
34	0x3ba92af4	0.005162591
35	0xbc79639d	-0.015221504
36	0xbc38fc7f	-0.0112906685
37	0xbc2bec77	-0.010493389
38	0x3ad7e483	0.00164713
39	0x3b6ac64f	0.0035823768
40	0x3c83513f	0.016029952
41	0xbbe7d0a0	-0.0070744306
42	0xb9cfd3bd	-0.00039639874
43	0x3b90186b	0.004397442
44	0xbc2abcb4	-0.010420967
45	0x3c6843a0	0.014176279
46	0xbb270b6f	-0.0025488993
47	0x397f6f6d	0.00024360204
48	0x3c03be07	0.0080409115
49	0x3baf6d37	0.0053535956
50	0xbbc3ef79	-0.005979475
51	0x3911d9b2	0.00013909375
52	0x3a3050cf	0.00067259086
53	0x3b83e9f3	0.0040256917
54	0x3c1654eb	0.009175519
55	0xbb7ab683	-0.0038255758
56	0xbba89254	-0.005144397
57	0xbc48723a	-0.012234265
58	0xba1e688d	-0.0006042801
59	0x3b97dbe2	0.0046343664
60	0x3c846958	0.016163513
61	0xba104b1f	-0.0005504358
62	0x3c9037d9	0.017604755
63	0x3a78e31a	0.000949429
64	0xbc8d7323	-0.017266816
65	0xbb19474b	-0.0023388441
66	0xbc249dd7	-0.010047398
67	0xbbab5a0b	-0.00522924
68	0xbc67012b	-0.0140994
69	0x3b3d6479	0.0028898998
70	0x3b8bd552	0.004267373
71	0x3bf232a5	0.007391291
72	0xbc489e52	-0.012244778
73	0xbab73ff5	-0.0013980853
74	0x3b9b3b87	0.004737321
75	0x3b3a4e01	0.0028427842
76	0xbb7d73f0	-0.003867384
77	0xbba68c63	-0.0050826534
78	0x3c1565e2	0.009118529
79	0x3bbf66ca	0.005841111
80	0x3b848707	0.004044417
81	0xbbc16a4b	-0.0059025637
82	0xbc554e1f	-0.013019114
83	0x3b0ce451	0.0021498392
84	0xbc52e015	-0.012870808
85	0x3c134dae	0.008990688
86	0x3c715fba	0.014732296
87	0xbb92fe94	-0.0044859145
88	0xbbd25a9f	-0.0064194943
89	0x3b4ad5d0	0.0030950196
90	0xbba72698	-0.0051010363
91	0x3c1eea29	0.009699383
92	0x3b0736eb	0.00206321
93	0x3c567beb	0.013091068
94	0xbac8a2a7	-0.0015307263
95	0xbb593e03	-0.0033148534
96	0x3c09fce2	0.008422108
97	0xbc2cf065	-0.010555361
98	0xbaf18f52	-0.0018429554
99	0xbc1def27	-0.009639538
100	0x3a8209ae	0.0009921098
101	0xbc0d7e80	-0.008636117
102	0x3bee0607	0.007263902
103	0xbb9215e9	-0.0044581783
104	0x3b946a11	0.0045292457
105	0x3b18b4d6	0.0023301146
106	0x3c06d8b5	0.008230378
107	0x3b6e5e85	0.0036372256
108	0xbb2d70c1	-0.0026464912
109	0xbbc1e55e	-0.0059172353
110	0xba036fcf	-0.0005013914
111	0x3aaf495c	0.0013373303
112	0x3c1fcb65	0.009753083
113	0x3bc478eb	0.00599586
114	0x3b3a684b	0.002844351
115	0xbc9f2abb	-0.019429555
116	0xbb9fec5c	-0.004880471
117	0xbc582e9f	-0.013194709
118	0xbc33188a	-0.010931144
119	0xbb95cd77	-0.0045716125
120	0xbc1c6c22	-0.009547265
121	0x3a88de65	0.0010442255
122	0xbbab6cd7	-0.0052314806
123	0x3c67f3cf	0.01415725
124	0xbbea24ab	-0.0071454844
125	0xbb9e3574	-0.0048281495
126	0xba3b71bf	-0.00071504334
127	0xbb8f8bb1	-0.004380666
128	0xbc2a1b39	-0.010382467
129	0xbb7b23f0	-0.003832098
130	0xbb0a9e17	-0.0021151358
131	0x3c51ff9d	0.012817291
132	0xbb8ff179	-0.0043927995
133	0x3b647e3f	0.0034865288
134	0xbc02b756	-0.007978281
135	0x3c0dc026	0.008651769
136	0xbba1348f	-0.0049195956
137	0x3bf67047	0.0075207087
138	0xbc371f1e	-0.0111768525
139	0x3b263dba	0.0025366382
140	0xbc4429e0	-0.011972874
141	0xbb04994b	-0.0020232971
142	0x3ae4e123	0.0017462116
143	0xbb6805f8	-0.0035403948
144	0xba021066	-0.000496155
145	0xbbdc562f	-0.006724141
146	0x3b2fb97f	0.0026813445
147	0x3bb34ec7	0.0054720375
148	0x3c0986c2	0.008393945
149	0x3c36405b	0.011123742
150	0xbc36995f	-0.011144965
151	0x3a0f4743	0.0005465636
152	0xbc3a479d	-0.011369613
153	0x3be38ca0	0.006944254
154	0xbb46fade	-0.003036193
155	0xbc437071	-0.011928664
156	0xbbe7de37	-0.0070760506
157	0x3bced3e7	0.006311882
158	0xbb07fc73	-0.0020749837
159	0xbc308bd3	-0.010775524
160	0x3a9be597	0.0011893985
161	0xbc343c0f	-0.011000647
162	0x3ba3eb17	0.00500239
163	0xbbc3efd9	-0.00597952
164	0x3af0b8d3	0.0018365629
165	0x3c12fb51	0.008971051
166	0x3be59612	0.007006415
167	0xba3588ce	-0.00069249875
168	0x3b2dafa5	0.0026502397
169	0xbbe36993	-0.0069400757
170	0xbc1d5503	-0.009602788
171	0x3b16b4c9	0.002299594
172	0xbb944f02	-0.00452602
173	0x3c27da0f	0.01024486
174	0xbbbffbb7	-0.005858864
175	0x3c151f78	0.009101741
176	0xbc057f07	-0.008147961
177	0x3c120caf	0.008914157
178	0x3ba2eb2a	0.0049718814
179	0xbb6f14aa	-0.0036480823
180	0xbc6be567	-0.0143979555
181	0x3b6be7b2	0.0035996255
182	0x3c15ee7a	0.0091510955
183	0xbb2a68df	-0.002600245
184	0xbb1dadaa	-0.002405981
185	0xbc8b1bca	-0.016981024
186	0x3c96aa16	0.01839165
187	0xbb2ed44f	-0.0026676839
188	0x3c6c55f2	0.014424788
189	0x3cef0d9a	0.02918129
190	0x3af820ca	0.001893067
191	0xbbfda0ef	-0.007740132
192	0x3bf535f8	0.00748324
193	0xbc519c35	-0.01279359
194	0xbc48cbdb	-0.012255634
195	0x3bcfe898	0.006344866
196	0x3bb769d8	0.0055973344
197	0x3bb9ee3c	0.0056741517
198	0xbc858687	-0.0162995
199	0x3c5b6105	0.0133898305
200	0xbc8314db	-0.016001156
201	0x3bbb081a	0.005707753
202	0x3c76c540	0.0150616765
203	0xbbccddc7	-0.006252024
204	0x393a480b	0.0001776518
205	0xbbee4e47	-0.007272515
206	0xbb8259b7	-0.00397798
207	0x3b96d281	0.0046027307
208	0xbb1e2477	-0.0024130621
209	0xbb05b126	-0.0020399778
210	0xbb4d1255	-0.0031291444
211	0xbb8a418e	-0.0042192405
212	0x3c6126b2	0.013742136
213	0x3c30a170	0.010780677
214	0xbbcfd68a	-0.0063427137
215	0xbb70f94f	-0.0036769693
216	0x3cb4ad77	0.02205537
217	0xbbc150a2	-0.0058995048
218	0x3c19a457	0.009377561
219	0x3cb89fb3	0.022537088
220	0x3c433679	0.011914843
221	0xb90975d6	-0.00013109235
222	0x3c82a6c2	0.015948657
223	0x3c0a2144	0.008430783
224	0xbbce1170	-0.0062887
225	0xbb99cddf	-0.004693731
226	0xbc01a8bb	-0.007913764
227	0xba4fca9f	-0.0007926616
228	0xbc026010	-0.007957473
229	0x3b33872e	0.0027393806
230	0xbaa82505	-0.0012828415
231	0x3bc0c0af	0.0058823447
232	0xbbe2a51d	-0.0069166557
233	0xbc9db0f3	-0.019249415
234	0xbc2e1430	-0.01062493
235	0xbc092fd0	-0.008373216
236	0xbc5012f2	-0.012699829
237	0xbc74fefb	-0.01495337
238	0x3c1a00a5	0.009399568
239	0xbbd88115	-0.0066071847
240	0xbc7ce458	-0.015435301
241	0xbbcc6942	-0.0062381336
242	0x3b5ea4f7	0.0033972838
243	0x3c351a46	0.011053627
244	0xbbc431a7	-0.0059873643
245	0xbac1aaca	-0.001477563
246	0xba7a2738	-0.0009542587
247	0x3ba59593	0.005053231
248	0xbc068527	-0.008210457
249	0x3baab06e	0.0052090203
250	0x3ad8f46b	0.0016552334
251	0xbc40ca67	-0.0117670065
252	0x3c8f286f	0.017475335
253	0x3be4a3d3	0.006977537
254	0x3c9b87f1	0.01898572
255	0x3bb552b6	0.0055335416

action_model._discrete_distribution.branches.0.bias f4 [2]
0	0x00000000	0.0
1	0x00000000	0.0

action_model._discrete_distribution.branches.1.weight f4 [2, 128]
0	0x3c1233cf	0.008923485
1	0xbc49b48b	-0.012311111
2	0xbaa1b0da	-0.0012336031
3	0xbb0ccb97	-0.0021483654
4	0xbbfd5ef5	-0.007732267
5	0xbc976c87	-0.018484367
6	0xbc23f4ef	-0.010007127
7	0x3c38d9e3	0.011282417
8	0xbadf083b	-0.0017016003
9	0xbb57b71a	-0.0032915534
10	0x3b8f1599	0.0043665883
11	0x3c31428d	0.01081909
12	0xbb84fea9	-0.004058678
13	0x3a06bfd0	0.00051402766
14	0x3c3245d7	0.010880909
15	0xbc034b55	-0.008013566
16	0xbb48293d	-0.0030542158
17	0xbbb2e09f	-0.005458906
18	0x3b1a4a7a	0.0023542927
19	0x3bdbe2b7	0.006710376
20	0x3bd04b98	0.0063566677
21	0x3b24cb39	0.0025145544
22	0xbbac0abf	-0.0052503045
23	0xbb799973	-0.0038085848
24	0xbb652482	-0.0034964387
25	0xbb1312cf	-0.002244163
26	0xb9036c2c	-0.0001253343
27	0x3b77154b	0.00377019
28	0x3aba91a4	0.0014234078
29	0xbc1fd7b9	-0.009756022
30	0x3b9f3bf7	0.0048594433
31	0xbc071b27	-0.00824622
32	0xbb96f28b	-0.00460655
33	0x3c1cb32d	0.009564203
34	0xbb78492f	-0.0037885418
35	0x3c1f22bb	0.00971287
36	0x3c5b62a2	0.013390215
37	0x3c4038cf	0.011732294
38	0x3af751ad	0.0018868946
39	0x3c3615a7	0.011113561
40	0xbc8baef7	-0.017051203
41	0xbc1cd7b3	-0.009572911
42	0xbb1b74f1	-0.0023720826
43	0xbc600eeb	-0.013675432
44	0xbc158b03	-0.009127381
45	0xbbaa9311	-0.00520552
46	0xbbaabece	-0.005210734
47	0x3c187ffc	0.009307858
48	0xbc1a3993	-0.009413141
49	0x3b47e97b	0.0030504155
50	0x3bb3cd75	0.005487139
51	0xbb9c16f7	-0.00476348
52	0x3bc82723	0.006108181
53	0xbc2fd3c7	-0.010731644
54	0xbb9c43a3	-0.004768805
55	0x3b01638b	0.001974317
56	0x3c39d84f	0.011343076
57	0x3b50d2ef	0.0031864007
58	0x3c1eea00	0.009699345
59	0x3bb64aff	0.0055631394
60	0x3b217001	0.002463341
61	0x3a4f9a47	0.00079194125
62	0x3ae0a3cd	0.001713866
63	0xbba7d8ec	-0.0051222946
64	0x3b82343f	0.0039735134
65	0x3bbc60f3	0.005748862
66	0x3c20980b	0.009801875
67	0x3c0fa13f	0.008766471
68	0xbc4c6e8b	-0.012477527
69	0xb9250bd6	-0.00015740035
70	0xbc068b52	-0.0082119275
71	0xbac9b6e5	-0.001538959
72	0x39c0bb0c	0.00036760455
73	0x3bfd1f92	0.0077247107
74	0x3bf8edaa	0.007596691
75	0xbc3fa90d	-0.01169802
76	0xbb09a5ad	-0.0021003291
77	0xbbac3320	-0.005255118
78	0x3c56d4d8	0.013112269
79	0x3bd84462	0.0065999487
80	0x3c2c8205	0.010529046
81	0xbb5cbd2a	-0.0033682087
82	0xbc5acf77	-0.013355128
83	0x3cb445eb	0.022005996
84	0xbbfc8b08	-0.0077070035
85	0x3b9f1bdf	0.0048556174
86	0xbc351899	-0.011053228
87	0x3bd3be70	0.006461911
88	0xbc30458a	-0.010758767
89	0xb9d44b1b	-0.0004049175
90	0xbb4b55eb	-0.0031026553
91	0xbb7f0f33	-0.0038918972
92	0x3bb95d34	0.0056568626
93	0x3b869a94	0.0041077826
94	0xb9924d6b	-0.0002790497
95	0xbc98d287	-0.018655075
96	0x3c4bce8e	0.012439383
97	0x3b7ed7cb	0.0038885947
98	0xbc40998e	-0.01175536
99	0xbc22d593	-0.009938615
100	0xbc4865be	-0.0122312885
101	0xb9e13e68	-0.0004296184
102	0x3becd86b	0.0072279475
103	0x3b779fd7	0.003778448
104	0x3b30059b	0.002685881
105	0xbb16485f	-0.002293132
106	0x3c5a9350	0.013340786
107	0x3b9e654c	0.004833853
108	0xb95a7e55	-0.00020837162
109	0x3b828b75	0.0039839097
110	0x3bbfd083	0.005853714
111	0x3c608fa7	0.013706124
112	0xbbe636f8	-0.0070255958
113	0xbb18e718	-0.0023331102
114	0xba20a183	-0.0006127583
115	0xbb056f54	-0.0020360546
116	0xbc746f15	-0.014919062
117	0x3b319cf7	0.0027101615
118	0xbb09bb7c	-0.002101629
119	0xbc1927e2	-0.009347888
120	0x3b7ace25	0.0038269844
121	0x3bd5dfb3	0.006526911
122	0xbb33f459	-0.0027458875
123	0x3a658f80	0.000875704
124	0x3acd7532	0.0015675186
125	0x3ba604e9	0.0050665033
126	0xbbfa39cb	-0.007636284
127	0x3b9ca639	0.0047805575
128	0xbc04f2d3	-0.008114534
129	0x3b503135	0.003176761
130	0x3ace9a95	0.0015762622
131	0xbbb691e6	-0.0055715917
132	0x3be019c2	0.006839008
133	0x3a69dd13	0.0008921187
134	0xbb9b99cd	-0.004748559
135	0x3bcab79f	0.00618644
136	0xbc0abe99	-0.008468294
137	0xbb8b3089	-0.004247729
138	0xbb1680c5	-0.0022964936
139	0x3c19deed	0.009391529
140	0xba8a67a0	-0.0010559447
141	0xba934087	-0.0011234441
142	0x3b1a6e4f	0.0023564284
143	0xbb0fff45	-0.002197222
144	0xbc35eec5	-0.01110429
145	0xb9267945	-0.0001587617
146	0xbbe6c45f	-0.007042452
147	0x3c4f9408	0.012669571
148	0x3b666840	0.0035157353
149	0xbb5d1aa5	-0.0033737805
150	0xba630022	-0.00086593826
151	0x3a93d12f	0.0011277552
152	0x3c76db97	0.015067003
153	0xbaf7535a	-0.0018869445
154	0x3bd327d5	0.0064439573
155	0xbc420e01	-0.011844159
156	0xbc2d08b2	-0.010561155
157	0x3bab50ab	0.005228122
158	0x3c47cb71	0.0121945
159	0x3b9c38ef	0.004767529
160	0xbb3e4a16	-0.0029035858
161	0xbc99718b	-0.0187309
162	0xbce75dc5	-0.028242955
163	0x3cb0ef02	0.021598343
164	0x3bcab4be	0.006186097
165	0xba944bb8	-0.001131407
166	0x3b90df67	0.004421163
167	0x3b8f3be1	0.004371152
168	0x3be43efb	0.0069655157
169	0xbc3600ef	-0.011108621
170	0xbb62a0c2	-0.0034580682
171	0xbbd944e7	-0.0066305283
172	0xbb73cbad	-0.0037200258
173	0x3b4908b0	0.0030675344
174	0xbb84caa7	-0.0040524784
175	0x3c0608bc	0.008180793
176	0xbbf63f70	-0.0075148866
177	0x3ba3dac8	0.005000446
178	0xbb95116d	-0.0045491965
179	0x3b6f6848	0.0036530662
180	0xbad7045d	-0.0016404499
181	0x3a08c946	0.00052179804
182	0x3c32c485	0.010911112
183	0x3abf4865	0.0014593719
184	0xbb49ae6f	-0.0030774137
185	0x3bfe5d8f	0.007762618
186	0xbc24e118	-0.010063432
187	0xbb673fa5	-0.0035285738
188	0xbc2d5714	-0.010579843
189	0xbb3331ea	-0.0027342984
190	0x3cc67b54	0.02422873
191	0x3b8235f6	0.003973718
192	0xbbae5f44	-0.005321415
193	0xbb021ec1	-0.0019854757
194	0xbab74e7b	-0.0013985181
195	0xba9e964c	-0.0012099235
196	0xbcba01d8	-0.022705957
197	0x3bf4c6e5	0.007469999
198	0xbbe2ff12	-0.0069273794
199	0xbbe425b3	-0.006962502
200	0x3b8d6686	0.0043152003
201	0x3bb98028	0.0056610294
202	0xbc039965	-0.008032178
203	0x39876fc5	0.0002583248
204	0xbba8ff62	-0.005157397
205	0xbad510d3	-0.0016255624
206	0x3bcc252b	0.0062300167
207	0xbc1e4ddd	-0.009662119
208	0x3b77f112	0.0037832898
209	0xbbcc485f	-0.0062342132
210	0x3adbca55	0.0016768674
211	0xbc5753d3	-0.013142544
212	0xbc2a9645	-0.010411804
213	0xbb39b9c2	-0.002833948
214	0xbb9df475	-0.0048204013
215	0xba6c409d	-0.00090123137
216	0xbb2b067b	-0.0026096392
217	0x3bfc8288	0.00770599
218	0xbb94a738	-0.0045365356
219	0xbc31830c	-0.010834467
220	0xbc37ea27	-0.01122526
221	0x3b7fd73b	0.00390382
222	0x3c67318b	0.014110933
223	0x3be4c57a	0.006981549
224	0xbaebb73a	-0.0017983683
225	0x3b114063	0.0022163622
226	0x3ab04963	0.0013449605
227	0x3a68bd42	0.0008878299
228	0x3a14cf8e	0.000567668
229	0xbb694fe5	-0.00356006
230	0xbb7dc6aa	-0.003872315
231	0xbaedd0e3	-0.0018143918
232	0x3a2bf5f5	0.0006559783
233	0xbc367fbf	-0.0111388555
234	0x3ba762cb	0.0051082126
235	0xbc8d4f0e	-0.01724961
236	0xbc25592b	-0.01009206
237	0x3be32af3	0.00693261
238	0xbbb0023b	-0.0053713596
239	0xbbc59eb3	-0.0060308813
240	0xbb94746c	-0.00453048
241	0x3baf3768	0.005347181
242	0xbb7cc387	-0.0038568692
243	0x3c06cd10	0.008227602
244	0x3c5451a3	0.012958917
245	0xbb80ec4f	-0.00393442
246	0xbbfbd220	-0.007684961
247	0x3a7e131f	0.00096921803
248	0x3bd3d37b	0.0064644194
249	0xbc8c1ada	-0.017102648
250	0xbc146ca5	-0.009059106
251	0x3be856ca	0.007090424
252	0x3be5ba67	0.0070107463
253	0xbbc22192	-0.005924412
254	0xbbebbaa3	-0.0071938797
255	0x3b368668	0.0027851108

action_model._discrete_distribution.branches.1.bias f4 [2]
0	0x00000000	0.0
1	0x00000000	0.0

network_body._body_endoder.seq_layers.0.weight f4 [128, 1]
0	0xbf69df80	-0.9135666
1	0x3f94e66b	1.1632818
2	0x3c971428	0.018442228
3	0xbfea7a4d	-1.8318573
4	0xbf6fdb92	-0.9369441
5	0x3be6bbf0	0.007041447
6	0x3f9b0432	1.2110655
7	0x3f90f5a6	1.1324966
8	0xbfe6e013	-1.8037132
9	0xbee16e33	-0.44029388
10	0x3da3f25a	0.08005209
11	0x3f0ecbc8	0.55779696
12	0x3f9a625c	1.2061267
13	0x3d8d9480	0.0691309
14	0x3fe6a366	1.8018615
15	0xbf0e9f0f	-0.55711454
16	0xbf602e08	-0.8757024
17	0xc024a495	-2.5725453
18	0xbf658f5e	-0.89671886
19	0xbe15cb54	-0.14628345
20	0xbf3a4a53	-0.7276966
21	0x3e73623a	0.23767939
22	0x3fa0c812	1.2561057
23	0x3f01999e	0.50625026
24	0xbf8de3bf	-1.1085128
25	0x3edcf684	0.43156826
26	0xbfc63a81	-1.5486604
27	0xbfddc070	-1.7324352
28	0xbf05daab	-0.52286786
29	0x3f5c551c	0.86067367
30	0xbf907d74	-1.1288285
31	0x3f724a85	0.9464496
32	0xbf03e5e4	-0.5152266
33	0x3e9b2cca	0.3030761
34	0x3fd37df3	1.6522812
35	0x3d5b3611	0.05351836
36	0x3f52b158	0.82301855
37	0x3e88a70d	0.2668995
38	0x3d906054	0.07049623
39	0x3f4f0467	0.8086609
40	0xc01a19c6	-2.407823
41	0xbe316a72	-0.17325762
42	0xbf9c0d6e	-1.2191598
43	0x3f0999a4	0.5375006
44	0xbdd288a3	-0.10279968
45	0x3f3a3c66	0.7274841
46	0xbe1b4dbf	-0.15166377
47	0xbe03ee08	-0.1288377
48	0xbee2df9c	-0.44311225
49	0xbf70dec5	-0.9408992
50	0xbf9633d5	-1.1734568
51	0x3ea9b989	0.33149365
52	0x3ed51930	0.4162078
53	0xbedd1a3b	-0.43184075
54	0x3f0673ab	0.52520245
55	0xbf1dd51d	-0.6165331
56	0xbead4181	-0.33839038
57	0x3e67f8d4	0.22653514
58	0x3fa28d50	1.2699375
59	0x3fa15ae6	1.2605865
60	0xbfd24498	-1.6427183
61	0x3f7ffc1c	0.99994063
62	0x3f659766	0.8968414
63	0x3fa0176f	1.2507151
64	0xbf1100d7	-0.56641906
65	0x3ef50fdd	0.47863665
66	0xc002bc7e	-2.0427547
67	0x3f3ad266	0.7297729
68	0x3f220962	0.6329557
69	0xbe990075	-0.2988316
70	0x3eb861d7	0.36012146
71	0x3f2550f6	0.6457666
72	0xbfa741cb	-1.3066953
73	0x3fc3a1c5	1.5283743
74	0x3fc02d94	1.5013909
75	0xbf4cf08b	-0.8005454
76	0xc01e2c65	-2.4714596
77	0xbf1183fc	-0.5684202
78	0x3e1c9703	0.15291981
79	0xbeddd6f8	-0.4332807
80	0xbf7207d6	-0.94543207
81	0xbf6bf921	-0.92177016
82	0x3f001c79	0.50043446
83	0x3f67f62e	0.90610015
84	0x3ee8a561	0.45438674
85	0xbf011df1	-0.5043631
86	0xc008fde4	-2.1404963
87	0x3f5d67d5	0.8648656
88	0x3f8224f3	1.0167526
89	0x3f546c88	0.82978106
90	0x3eb0a3c1	0.34499934
91	0xbf4db8a2	-0.8035985
92	0x3ee03bb1	0.4379554
93	0xc02ac028	-2.6679783
94	0xbfe649b1	-1.7991239
95	0xbf7a9482	-0.97882855
96	0x3efd0c20	0.49423313
97	0x3f9fc027	1.2480515
98	0x3eaf48d9	0.34235266
99	0x3f040b2b	0.5157954
100	0xc0058a32	-2.0865598
101	0xbf13069e	-0.5743197
102	0xbf1bc6e3	-0.6085035
103	0xbeb52afe	-0.35384363
104	0x3dd9e70c	0.10639772
105	0xbf5446bd	-0.8292044
106	0xbf5c1fa1	-0.8598576
107	0xbebcc97e	-0.36872476
108	0xbfbb1980	-1.4617157
109	0x3f6c26a1	0.92246443
110	0x3f9b2070	1.2119274
111	0xbdf55213	-0.11978545
112	0x3d988e40	0.07449007
113	0x3ee4b115	0.44666353
114	0xbe9d75c3	-0.30753908
115	0xbfa62414	-1.297976
116	0xbf14438d	-0.57915574
117	0x3fecba0a	1.8494275
118	0xbf057f51	-0.52147394
119	0xbd4f54d4	-0.050618008
120	0x3e5a74ed	0.21333666
121	0x3ea499e5	0.32148662
122	0x3ed0e68d	0.40800896
123	0xbfe9e8c4	-1.827416
124	0x401cf9da	2.4527497
125	0xbf230047	-0.636723
126	0xbf2407fd	-0.6407469
127	0x3e220fa1	0.15826274

network_body._body_endoder.seq_layers.0.bias f4 [128]
0	0x00000000	0.0
1	0x00000000	0.0
2	0x00000000	0.0
3	0x00000000	0.0
4	0x00000000	0.0
5	0x00000000	0.0
6	0x00000000	0.0
7	0x00000000	0.0
8	0x00000000	0.0
9	0x00000000	0.0
10	0x00000000	0.0
11	0x00000000	0.0
12	0x00000000	0.0
13	0x00000000	0.0
14	0x00000000	0.0
15	0x00000000	0.0
16	0x00000000	0.0
17	0x00000000	0.0
18	0x00000000	0.0
19	0x00000000	0.0
20	0x00000000	0.0
21	0x00000000	0.0
22	0x00000000	0.0
23	0x00000000	0.0
24	0x00000000	0.0
25	0x00000000	0.0
26	0x00000000	0.0
27	0x00000000	0.0
28	0x00000000	0.0
29	0x00000000	0.0
30	0x00000000	0.0
31	0x00000000	0.0
32	0x00000000	0.0
33	0x00000000	0.0
34	0x00000000	0.0
35	0x00000000	0.0
36	0x00000000	0.0
37	0x00000000	0.0
38	0x00000000	0.0
39	0x00000000	0.0
40	0x00000000	0.0
41	0x00000000	0.0
42	0x00000000	0.0
43	0x00000000	0.0
44	0x00000000	0.0
45	0x00000000	0.0
46	0x00000000	0.0
47	0x00000000	0.0
48	0x00000000	0.0
49	0x00000000	0.0
50	0x00000000	0.0
51	0x00000000	0.0
52	0x00000000	0.0
53	0x00000000	0.0
54	0x00000000	0.0
55	0x00000000	0.0
56	0x00000000	0.0
57	0x00000000	0.0
58	0x00000000	0.0
59	0x00000000	0.0
60	0x00000000	0.0
61	0x00000000	0.0
62	0x00000000	0.0
63	0x00000000	0.0
64	0x00000000	0.0
65	0x00000000	0.0
66	0x00000000	0.0
67	0x00000000	0.0
68	0x00000000	0.0
69	0x00000000	0.0
70	0x00000000	0.0
71	0x00000000	0.0
72	0x00000000	0.0
73	0x00000000	0.0
74	0x00000000	0.0
75	0x00000000	0.0
76	0x00000000	0.0
77	0x00000000	0.0
78	0x00000000	0.0
79	0x00000000	0.0
80	0x00000000	0.0
81	0x00000000	0.0
82	0x00000000	0.0
83	0x00000000	0.0
84	0x00000000	0.0
85	0x00000000	0.0
86	0x00000000	0.0
87	0x00000000	0.0
88	0x00000000	0.0
89	0x00000000	0.0
90	0x00000000	0.0
91	0x00000000	0.0
92	0x00000000	0.0
93	0x00000000	0.0
94	0x00000000	0.0
95	0x00000000	0.0
96	0x00000000	0.0
97	0x00000000	0.0
98	0x00000000	0.0
99	0x00000000	0.0
100	0x00000000	0.0
101	0x00000000	0.0
102	0x00000000	0.0
103	0x00000000	0.0
104	0x00000000	0.0
105	0x00000000	0.0
106	0x00000000	0.0
107	0x00000000	0.0
108	0x00000000	0.0
109	0x00000000	0.0
110	0x00000000	0.0
111	0x00000000	0.0
112	0x00000000	0.0
113	0x00000000	0.0
114	0x00000000	0.0
115	0x00000000	0.0
116	0x00000000	0.0
117	0x00000000	0.0
118	0x00000000	0.0
119	0x00000000	0.0
120	0x00000000	0.0
121	0x00000000	0.0
122	0x00000000	0.0
123	0x00000000	0.0
124	0x00000000	0.0
125	0x00000000	0.0
126	0x00000000	0.0
127	0x00000000	0.0

network_body._body_endoder.seq_layers.2.weight f4 [128, 128]
0	0x3e14a84c	0.14517325
1	0xbd1605ed	-0.036626745
2	0x3e2cb534	0.16865999
3	0x3c4ee4d1	0.012627796
4	0x3de171b3	0.110080145
5	0x3d8e4c34	0.06948128
6	0x3d8e2266	0.06940155
7	0xbcea379f	-0.028590975
8	0xbcfdf237	-0.030999286
9	0x3cc4ae95	0.024009028
10	0x3dcaed99	0.099085994
11	0x3d6cabcc	0.057781026
12	0xbe46def2	-0.19420984
13	0x3cf906b9	0.030398713
14	0xbcecc5f6	-0.028902989
15	0xba9a0b46	-0.0011752627
16	0x3da4fd11	0.08056081
17	0x3e41136d	0.18855067
18	0xbdf3b4fe	-0.11899756
19	0x3e504dc1	0.20342161
20	0x3de28f31	0.11062468
21	0x3d9b27f4	0.0757598
22	0xbd617bcf	-0.055049714
23	0x3d14c0dd	0.03631674
24	0x3dc0f66f	0.094220035
25	0xbd3c1e5a	-0.045927383
26	0xbe2a1c5f	-0.16612385
27	0xbd9e122f	-0.07718312
28	0xbd4f8695	-0.050665457
29	0x3d60d7c7	0.05489328
30	0x3c831560	0.016001403
31	0xbb73569b	-0.0037130478
32	0xbd63b60f	-0.055593546
33	0xbe565d0b	-0.2093393
34	0xbdead53b	-0.11466452
35	0x3dd9cdfa	0.1063499
36	0xbe2e523b	-0.17023556
37	0xbb87c94d	-0.00414387
38	0x3cceba2a	0.025235254
39	0xbe059b1c	-0.13047451
40	0x3da2f41e	0.07956718
41	0xbd31f153	-0.043443035
42	0xbdd08f5b	-0.10183593
43	0xbdfa582b	-0.12223848
44	0xbe0ec73d	-0.13943191
45	0x3dea2fbe	0.11434887
46	0xbd589f49	-0.05288628
47	0xbd91279e	-0.070876345
48	0xbd866364	-0.06561926
49	0xbdb9dcb1	-0.09075297
50	0x3cfed35f	0.031106649
51	0xbd8d529c	-0.06900522
52	0xbd28f4eb	-0.041249197
53	0x3dc0c5ab	0.09412702
54	0xbd56607f	-0.05233812
55	0x3dff16ec	0.12455544
56	0x3db130b5	0.08651868
57	0x3dc3d057	0.09561222
58	0x3c962b57	0.018331213
59	0xbc65e314	-0.01403119
60	0xbcbdc2d8	-0.023164198
61	0x3c49eace	0.012324048
62	0x3c17467d	0.009233114
63	0x3d8be464	0.068306714
64	0xbd3de8ae	-0.04636448
65	0xbd9db328	-0.07700187
66	0xbe06d6e2	-0.13167909
67	0xbe195dce	-0.1497719
68	0xbbfcc732	-0.0077141756
69	0xbe2e256d	-0.17006464
70	0xbdd04f68	-0.101713955
71	0x3d0662b0	0.03280896
72	0x3d1d7c80	0.03844881
73	0xbd8032ae	-0.062596664
74	0x3db3ee00	0.08785629
75	0xbc338a2b	-0.010958235
76	0x3ce55821	0.027996125
77	0xbd1106ce	-0.03540688
78	0xbd833581	-0.064066894
79	0xbdcfe84c	-0.10151729
80	0x3d159c88	0.036526233
81	0xbce09c97	-0.027418418
82	0xbb220dc6	-0.0024727448
83	0xbd6250dd	-0.0552529
84	0x3d4ab57c	0.049489483
85	0x3d632546	0.05545547
86	0x3e29d7b9	0.16586198
87	0xbae7870f	-0.0017664152
88	0xbd7a5a8b	-0.061121505
89	0xbda733cd	-0.08164177
90	0x3ce14405	0.027498255
91	0xbd774e94	-0.060377672
92	0x3d24db2b	0.040248077
93	0x3bae5506	0.005320194
94	0x3de3189e	0.1108868
95	0xbd883771	-0.066511996
96	0xbd047565	-0.03233852
97	0xbdf9e4e2	-0.12201859
98	0xbddfff6a	-0.10937388
99	0x3e0f8753	0.14016466
100	0x3de9dbae	0.11418854
101	0x3c816152	0.015793476
102	0xbdc25f1d	-0.09490798
103	0x3d0314fe	0.03200244
104	0xbd850976	-0.06495945
105	0x3d994dae	0.07485519
106	0xbb829367	-0.003984857
107	0xbc157c0f	-0.009123816
108	0x3d023425	0.03178801
109	0xbd70e510	-0.0588122
110	0xbdb51109	-0.0884114
111	0xbd4a07cb	-0.04932384
112	0xbd87dd50	-0.06634009
113	0xbde4e34b	-0.11176165
114	0x3c380140	0.011230767
115	0xbd3e725c	-0.04649578
116	0x3def0f83	0.116728805
117	0x3d202970	0.039102018
118	0x3cbf44e9	0.023348289
119	0xbc187aee	-0.0093066525
120	0xbe3039e6	-0.17209587
121	0xbdff06c7	-0.124524646
122	0xbda1e52a	-0.07905038
123	0x3dcabe22	0.09899546
124	0xbe3728a2	-0.17886594
125	0xbe231651	-0.15926482
126	0xbda347c1	-0.0797267
127	0xbd4e8d1d	-0.050427545
128	0xbc93b9a2	-0.018032853
129	0x3c9b72de	0.018975671
130	0x3df39c41	0.118950374
131	0xbdf88a10	-0.12135708
132	0xbd1d61df	-0.038423415
133	0xbd8199b1	-0.063281424
134	0x3e0776c8	0.13228905
135	0xbda4b86b	-0.080429874
136	0xbd104833	-0.035225105
137	0xbcd36bc9	-0.025808232
138	0xbe1c008d	-0.15234585
139	0xbc9aec81	-0.018911602
140	0xbcdad77d	-0.026714081
141	0xbd7a8460	-0.0611614
142	0xbd9af2c3	-0.075658344
143	0x3d922328	0.07135612
144	0xbdf0d474	-0.11759272
145	0xbcb5a3fe	-0.022172924
146	0xbbf38bf5	-0.0074324557
147	0xbd74d86f	-0.05977672
148	0xbc4a85be	-0.012360988
149	0x3dd69caf	0.10479104
150	0x3e13091c	0.14358944
151	0xbe0569bf	-0.1302862
152	0xbe23a175	-0.1597956
153	0xbcd95284	-0.026528604
154	0xbde7b10a	-0.113130644
155	0xbcaebde1	-0.021330776
156	0x3c9218de	0.017834123
157	0x3d55f722	0.052237637
158	0xbd8c3231	-0.06845511
159	0xbd456256	-0.048189484
160	0x3eb49c50	0.35275507
161	0x3d8a34b0	0.067483306
162	0xbdf3a1a9	-0.118960686
163	0xbe0abcad	-0.13548537
164	0x3d7344ee	0.05939191
165	0x3da9b136	0.082857534
166	0x3c093cf6	0.008376351
167	0x3d136b9d	0.0359913
168	0xbe803597	-0.25040886
169	0xbb61ecb0	-0.0034473352
170	0xbe162c17	-0.14665256
171	0x3d69dc63	0.057094943
172	0xbe518067	-0.20459138
173	0x3c37439e	0.011185555
174	0x3b0a6400	0.0021116734
175	0xbd6db17b	-0.058030587
176	0x3d55f490	0.052235186
177	0x3c2eec0c	0.010676395
178	0x3e0fd616	0.14046511
179	0xbcc1bcae	-0.02364954
180	0x3d2d6f27	0.04234233
181	0x3d3958a2	0.045250542
182	0x3da3a702	0.079908386
183	0xbd8ae6a3	-0.06782272
184	0x3dcd6146	0.10028319
185	0xbdcde02d	-0.10052524
186	0xbb7b7655	-0.0038370092
187	0x3d368820	0.044563413
188	0xbd826d32	-0.063684836
189	0xbdc142c2	-0.09436561
190	0x3d91d8b2	0.071214095
191	0x3bd017e5	0.0063505047
192	0x3df9ac03	0.12191012
193	0xbc6a8b5f	-0.014315455
194	0x3e659f55	0.22424062
195	0xbca607f4	-0.020267464
196	0xbd5fce34	-0.05464001
197	0x3e005ded	0.1253583
198	0xbdfb0065	-0.122559346
199	0xbdc42c33	-0.09578743
200	0x3e1dc653	0.15407686
201	0x3d120f11	0.0356589
202	0x3e0f1d67	0.1397606
203	0xbd467cf1	-0.048458997
204	0x3bf00fac	0.007326087
205	0x3db23a6b	0.087025486
206	0xbb35ea8a	-0.0027758204
207	0xbdd70653	-0.10499253
208	0xbd59bff9	-0.053161595
209	0x3cbe3603	0.023219114
210	0x3db37d12	0.0876409
211	0xbdc98857	-0.09840458
212	0x3e1829e7	0.14859734
213	0xbc8a6d53	-0.016897833
214	0x3a97871f	0.0011560655
215	0x3e2b85d9	0.16750278
216	0x3e185f3c	0.14880079
217	0xbd943f5d	-0.07238648
218	0xbd8b01b3	-0.067874335
219	0xbc847905	-0.016170988
220	0xbcc1d762	-0.023662273
221	0x3e4e6154	0.20154315
222	0x3bf6d9d7	0.0075332928
223	0x3dde1680	0.10844135
224	0x3d5763fb	0.052585583
225	0x3d7364aa	0.059422173
226	0x3d275cf4	0.04086013
227	0xbc819a75	-0.015820721
228	0xbcc9ad4c	-0.024618767
229	0xbd8e9c91	-0.069634564
230	0xbbe986b5	-0.007126654
231	0x3d04b7ce	0.032401852
232	0x3d630e60	0.05543363
233	0xbd835ae9	-0.06413824
234	0xbd9b1d2b	-0.07573923
235	0xbd9b3aa5	-0.07579545
236	0x3c266580	0.010156035
237	0xbd70d7e9	-0.058799658
238	0xbd5a336f	-0.053271707
239	0xbd1987fe	-0.037483208
240	0x3e81aa05	0.25325027
241	0x3e1e1114	0.15436202
242	0x3d93d833	0.07218971
243	0x3e0120c0	0.1261015
244	0x3dc3b5f2	0.09556188
245	0xbde31678	-0.1108827
246	0x3cb43a29	0.02200039
247	0xbddcc8b1	-0.10780466
248	0x3cbd83f7	0.023134215
249	0xba83ef2a	-0.0010065783
250	0xbdf2d3f6	-0.118568346
251	0x3c833575	0.016016701
252	0xbb83bbf4	-0.0040202085
253	0xbcdf2ab5	-0.027242044
254	0x3e370c6e	0.17875835
255	0xbcb3ddec	-0.021956407

network_body._body_endoder.seq_layers.2.bias f4 [128]
0	0x00000000	0.0
1	0x00000000	0.0
2	0x00000000	0.0
3	0x00000000	0.0
4	0x00000000	0.0
5	0x00000000	0.0
6	0x00000000	0.0
7	0x00000000	0.0
8	0x00000000	0.0
9	0x00000000	0.0
10	0x00000000	0.0
11	0x00000000	0.0
12	0x00000000	0.0
13	0x00000000	0.0
14	0x00000000	0.0
15	0x00000000	0.0
16	0x00000000	0.0
17	0x00000000	0.0
18	0x00000000	0.0
19	0x00000000	0.0
20	0x00000000	0.0
21	0x00000000	0.0
22	0x00000000	0.0
23	0x00000000	0.0
24	0x00000000	0.0
25	0x00000000	0.0
26	0x00000000	0.0
27	0x00000000	0.0
28	0x00000000	0.0
29	0x00000000	0.0
30	0x00000000	0.0
31	0x00000000	0.0
32	0x00000000	0.0
33	0x00000000	0.0
34	0x00000000	0.0
35	0x00000000	0.0
36	0x00000000	0.0
37	0x00000000	0.0
38	0x00000000	0.0
39	0x00000000	0.0
40	0x00000000	0.0
41	0x00000000	0.0
42	0x00000000	0.0
43	0x00000000	0.0
44	0x00000000	0.0
45	0x00000000	0.0
46	0x00000000	0.0
47	0x00000000	0.0
48	0x00000000	0.0
49	0x00000000	0.0
50	0x00000000	0.0
51	0x00000000	0.0
52	0x00000000	0.0
53	0x00000000	0.0
54	0x00000000	0.0
55	0x00000000	0.0
56	0x00000000	0.0
57	0x00000000	0.0
58	0x00000000	0.0
59	0x00000000	0.0
60	0x00000000	0.0
61	0x00000000	0.0
62	0x00000000	0.0
63	0x00000000	0.0
64	0x00000000	0.0
65	0x00000000	0.0
66	0x00000000	0.0
67	0x00000000	0.0
68	0x00000000	0.0
69	0x00000000	0.0
70	0x00000000	0.0
71	0x00000000	0.0
72	0x00000000	0.0
73	0x00000000	0.0
74	0x00000000	0.0
75	0x00000000	0.0
76	0x00000000	0.0
77	0x00000000	0.0
78	0x00000000	0.0
79	0x00000000	0.0
80	0x00000000	0.0
81	0x00000000	0.0
82	0x00000000	0.0
83	0x00000000	0.0
84	0x00000000	0.0
85	0x00000000	0.0
86	0x00000000	0.0
87	0x00000000	0.0
88	0x00000000	0.0
89	0x00000000	0.0
90	0x00000000	0.0
91	0x00000000	0.0
92	0x00000000	0.0
93	0x00000000	0.0
94	0x00000000	0.0
95	0x00000000	0.0
96	0x00000000	0.0
97	0x00000000	0.0
98	0x00000000	0.0
99	0x00000000	0.0
100	0x00000000	0.0
101	0x00000000	0.0
102	0x00000000	0.0
103	0x00000000	0.0
104	0x00000000	0.0
105	0x00000000	0.0
106	0x00000000	0.0
107	0x00000000	0.0
108	0x00000000	0.0
109	0x00000000	0.0
110	0x00000000	0.0
111	0x00000000	0.0
112	0x00000000	0.0
113	0x00000000	0.0
114	0x00000000	0.0
115	0x00000000	0.0
116	0x00000000	0.0
117	0x00000000	0.0
118	0x00000000	0.0
119	0x00000000	0.0
120	0x00000000	0.0
121	0x00000000	0.0
122	0x00000000	0.0
123	0x00000000	0.0
124	0x00000000	0.0
125	0x00000000	0.0
126	0x00000000	0.0
127	0x00000000	0.0

value_heads.value_heads.extrinsic.weight f4 [1, 128]
0	0x3dcb686b	0.099320255
1	0xbba7dd84	-0.0051228423
2	0xbe06101b	-0.13092081
3	0xbce6c7ef	-0.028171508
4	0x3e3ca002	0.18420413
5	0xbe2051a0	-0.15656137
6	0x3e3b0c6d	0.18266459
7	0xbe1d8743	-0.1538363
8	0x3d998bc8	0.07497364
9	0xbd5bd09a	-0.053665735
10	0xbe591b69	-0.21201862
11	0xbe15efe8	-0.14642298
12	0xbd473a84	-0.04863979
13	0x3dc3b9af	0.09556901
14	0x3e35902e	0.17730781
15	0x3d42c52d	0.047551323
16	0x3cd6c97f	0.026219128
17	0xbdfde383	-0.1239691
18	0x3dbd562c	0.092449516
19	0xbdb523b8	-0.088447034
20	0x3e4a68d9	0.19766559
21	0x3e09f6bd	0.1347303
22	0x3e0afe0a	0.1357347
23	0x3e436945	0.19083126
24	0x3d3b22e5	0.045687575
25	0x3dcc7a43	0.09984257
26	0xbe3c7b70	-0.18406463
27	0xbd701b0a	-0.058619536
28	0xbd4985b1	-0.049199764
29	0x3dfe7db1	0.124263175
30	0xbe1e4ee3	-0.1545978
31	0xbd86616d	-0.06561551
32	0x3dff1081	0.1245432
33	0x3e11541a	0.14192238
34	0x3d81a01f	0.06329369
35	0xbd9f5c1c	-0.0778124
36	0x3e2e665e	0.17031237
37	0x3cef329f	0.029198943
38	0x3dbf9c14	0.093559414
39	0x3e021417	0.12702976
40	0x3e58b915	0.21164353
41	0x3da8e02e	0.08245884
42	0x3c41cd36	0.011828711
43	0xbda95e02	-0.08269884
44	0xbd7ac496	-0.061222635
45	0x3ca89ab6	0.020581584
46	0x3e011400	0.12605286
47	0x3ceca458	0.028886959
48	0xbe0d8f0a	-0.13824096
49	0xbdb1b8ab	-0.08677801
50	0x3e2945e2	0.16530564
51	0xbe3aed63	-0.18254618
52	0x3de2248f	0.11042129
53	0x3d984509	0.074350424
54	0x3d2303d3	0.03979857
55	0x3dcddd01	0.10051919
56	0x3e3600eb	0.17773788
57	0xbdfd5e36	-0.12371485
58	0x3e435831	0.19076611
59	0x3e247cbd	0.16063209
60	0x3e5c4f21	0.2151456
61	0xbdb631b8	-0.08896202
62	0x3e483c44	0.1955424
63	0x3e55e8f2	0.20889643
64	0xbcb024eb	-0.021501979
65	0xbd32506e	-0.043533735
66	0xbe3553b5	-0.17707713
67	0xbe4b85f4	-0.19875318
68	0xbbef940c	-0.0073113497
69	0x3da474fd	0.08030126
70	0x3db51da7	0.08843546
71	0x3e4b4b7e	0.19853017
72	0xbd0588ad	-0.032601047
73	0xbdce2773	-0.10066118
74	0xbd63f215	-0.05565079
75	0xbb155e95	-0.002279197
76	0xbe58f530	-0.21187282
77	0x3d2ea6f9	0.042639706
78	0xbd8322c0	-0.064031124
79	0xbe48019c	-0.19531864
80	0xbe49cbf5	-0.1970671
81	0xbdbb56e0	-0.091474295
82	0x3e037f7e	0.12841603
83	0x3e28a898	0.16470563
84	0xbddd90b6	-0.10818617
85	0x3ca80785	0.020511398
86	0x3e49f5c9	0.19722666
87	0x3d8f2e73	0.06991281
88	0xbd89a261	-0.067204244
89	0x3ce446d7	0.02786581
90	0x3e32c8c7	0.17459403
91	0xbe3b5255	-0.18293126
92	0x3e3cb519	0.18428458
93	0xbdb8da42	-0.090260044
94	0xbdc7d74e	-0.09757863
95	0x3d1ed77f	0.03877973
96	0x3c99c8b9	0.01877247
97	0xbe2403ff	-0.1601715
98	0x3e5ac46f	0.21363996
99	0xbe202299	-0.15638198
100	0x3d863577	0.06553166
101	0xbe13e329	-0.14442123
102	0xbe2d93a7	-0.16950856
103	0xbe0d53dd	-0.13801523
104	0xbe43917e	-0.1909847
105	0x3cf4bdcf	0.029875664
106	0xbe284765	-0.16433485
107	0x3d5ca229	0.053865585
108	0xbe45da89	-0.19321646
109	0xbda6bcbc	-0.08141467
110	0x3d1b3fa1	0.037902478
111	0x3e1bdcec	0.15220994
112	0xbdcc8e39	-0.09988064
113	0x3e1b2572	0.15151003
114	0x3d60f13c	0.05491756
115	0xbda5f167	-0.081026845
116	0x3e1e555d	0.15462251
117	0x3dcd909e	0.10037349
118	0xbe23f6a2	-0.16012052
119	0x3d0e2730	0.03470534
120	0xbe544f03	-0.20733266
121	0xbe29f84a	-0.16598621
122	0xbdd949a0	-0.10609746
123	0xbd846c90	-0.06466019
124	0x3e0f2024	0.13977104
125	0x3da31b47	0.07964187
126	0xbe42c444	-0.19020182
127	0xbe1d9a7d	-0.15390964
