results/ppo/Player Behaviour/checkpoint.pt (torch, 153007 bytes, 15 tensors)

discrete_act_size_vector f4 [1, 2]
3.0 2.0
00000000: 0000 4040 0000 0040

network_body._body_endoder.seq_layers.0.weight f4 [128, 6]
0.22012258 0.36511272 0.19568135 -0.08891643 0.07971719 0.7104972 0.14657362 0.33278862
-0.9205475 0.6216888 0.17485291 0.09833504 0.48297676 0.35136554 -0.48500973 -0.05690423
0.036601417 0.7809725 0.07515919 -0.7986846 -0.46676165 -0.072965 1.1556784 -0.16899635
0.3389838 0.11631835 0.14935496 -0.2695857 0.10200184 -0.049546268 0.08520052 0.37124223
0.016399395 0.6352605 0.37368146 -0.0019041629 -0.026070049 -0.109679796 0.030833397 -0.18802927
-0.6857752 -0.60613465 -0.73328704 0.09922515 0.0414438 -0.051994815 -0.40826 -0.5818468
-0.26424038 0.5420057 -0.02644028 -0.36205763 0.20928042 0.28631642 -0.25951883 0.010067252
-0.3372072 0.4375653 0.19606797 0.09401488 0.10521514 -0.29505825 0.1705254 0.043667693
0.78436154 -0.6271829 -0.5100192 0.19020726 0.44844404 -0.007845429 0.16250338 0.23516533
0.5478013 -0.09043738 1.0875323 0.8563898 -0.46531922 -0.45214832 -0.20532207 -0.23825088
0.27888376 -0.23200238 -0.088283956 0.2953458 -0.692685 0.61443406 0.06927392 -0.39555046
-0.20592347 -1.2477156 -0.36139527 -0.032742012 0.3225678 -0.889534 -0.6901575 -0.1308322
1.0001819 0.5228084 -0.5532177 0.52781504 0.04041728 -0.6956442 -0.37403932 0.487712
0.628904 0.5604431 0.23968597 -0.022054015 0.246455 0.021957904 0.089078724 -0.3517174
0.11700748 0.20883526 0.24584281 0.4661867 -0.6326844 -0.23766924 -0.015335799 -0.10293104
-0.3139824 0.23413916 0.42156637 -0.74765587 0.0838414 0.38696322 0.08972232 -0.32986578
0.057605274 0.37772506 0.7470692 -0.15444347 0.40937036 -0.47340804 0.15947768 -0.020096598
0.2714762 0.2069978 -0.22429606 0.42339253 0.021869427 0.39413548 0.032810446 -0.42852697
0.5553128 -0.051866807 0.70926404 0.29474545 -0.22240476 0.44817013 -0.7542421 -0.23744853
0.23363785 -0.17298532 -0.44262618 0.6069045 0.13877591 -0.4329711 -0.016680866 -0.6502296
0.38368198 0.11508458 -0.113464326 0.66204685 -0.25264534 -0.053164672 -0.5309285 0.5772497
0.29083306 0.019214867 0.16267246 -0.29418394 0.058350377 0.3389643 -0.73999995 -0.0124961855
0.27457356 -0.28774288 0.35698932 -0.12792172 0.09586855 -0.10619023 -0.51163274 0.57748765
-0.27455792 -0.25954044 0.012780951 -0.22016484 -0.27524346 0.23959592 1.5608891 -0.42457682
0.538725 -0.45090336 0.04348951 -0.2671488 0.46160436 0.4276285 0.25069052 0.6752983
0.3756117 -0.8243031 -0.048245642 0.17143108 -0.25313577 0.2807505 0.7344889 -0.022915307
0.22220914 -0.20071362 0.58839875 0.18044588 -0.07290822 0.32886842 0.6448078 -0.30270183
-0.25910547 0.25628728 0.5993457 -0.098873146 0.6073898 -0.44626155 -1.2167349 -0.5320287
-0.47885492 -0.42894068 -0.066989705 -0.1259188 -0.51668286 -0.31078544 -0.6438214 0.011184222
-0.2924265 0.23686647 0.19814447 1.0216151 0.0681441 -0.070365794 -0.0008148293 -0.070946254
0.04964507 0.3361314 -0.32096785 0.753121 0.07562582 -0.4868416 -0.2935762 0.57997245
-1.0962652 0.14983682 0.44282746 0.4673054 0.4861283 0.43669373 -0.16544211 -0.48033565
00000000: d067 613e 0ef0 ba3e b160 483e d119 b6bd
00000010: c442 a33d 25e3 353f 6517 163e 4563 aa3e
00000020: 00a9 6bbf ff26 1f3f a40c 333e e263 c93d
00000030: bb48 f73e 2fe6 b33e 3253 f8be 6914 69bd
00000040: 5eeb 153d d0ed 473f 10ed 993d 9876 4cbf
00000050: 62fb eebe ad6e 95bd 45ed 933f 610d 2dbe
00000060: 498f ad3e 5138 ee3d 82f0 183e 2307 8abe
00000070: 57e6 d03d 07f1 4abd 9c7d ae3d 7613 be3e
00000080: 0658 863c 6fa0 223f 2d53 bf3e 1b95 f9ba
00000090: db90 d5bc cd9f e0bd 5296 fc3c bf8a 40be
000000a0: f78e 2fbf a42b 1bbf b3b8 3bbf 8e36 cb3d
000000b0: f9c0 293d 84f8 54bd 7407 d1be e9f3 14bf
000000c0: 844a 87be e3c0 0a3f 4999 d8bc 9e5f b9be
000000d0: 9b4d 563e 1198 923e a7df 84be 1ef1 243c
000000e0: 6ca6 acbe 8f08 e03e 0bc6 483e e08a c03d
000000f0: 097b d73d e011 97be 369e 2e3e e5dc 323d
00000100: ebcb 483f 0f8f 20bf 9e90 02bf b1c5 423e
00000110: 759a e53e 1d8a 00bc 4967 263e 2ecf 703e
00000120: b53c 0c3f 3c37 b9bd 4234 8b3f 5d3c 5b3f
00000130: 523e eebe fc7f e7be f33f 52be 0af8 73be
00000140: dac9 8e3e 0892 6dbe 38ce b4bd 9137 973e
00000150: ce53 31bf 8d4b 1d3f 7cdf 8d3d 9785 cabe
00000160: 9add 52be 25b5 9fbf cd08 b9be 7d1c 06bd
00000170: 9b27 a53e 80b8 63bf 29ae 30bf e0f8 05be
00000180: f605 803f c5d6 053f ad9f 0dbf e31e 073f
00000190: 978c 253d bd15 32bf 1582 bfbe 63b5 f93e
000001a0: daff 203f 3379 0f3f 3d70 753e 9faa b4bc
000001b0: b35e 7c3e 10e1 b33c e86e b63d 4e14 b4be
000001c0: 9ea1 ef3d e9d8 553e 38be 7b3e 06b0 ee3e
000001d0: 9bf7 21bf 915f 73be 0143 7bbc 82cd d2bd
000001e0: 4dc2 a0be 2dc2 6f3e 8cd7 d73e 6066 3fbf
000001f0: 0ab5 ab3d 0b20 c63e 56c0 b73d 2be4 a8be
00000200: 82f3 6b3d 2e65 c13e ed3f 3f3f 6e26 1ebe
00000210: fe98 d13e 8a62 f2be 1e4e 233e 9fa1 a4bc
00000220: eefe 8a3e 3bf7 533e dead 65be e8c6 d83e
00000230: 8327 b33c 20cc c93e 3f64 063d e367 dbbe
00000240: fb28 0e3f 4a72 54bd 5492 353f e0e8 963e
00000250: 13be 63be 8e76 e53e 0316 41bf b525 73be
00000260: c33e 6f3e 1023 31be e69f e2be 185e 1b3f
00000270: 461b 0e3e 63ae ddbe 50a6 88bc 7275 26bf
00000280: f771 c43e 77b1 eb3d fc5f e8bd e77b 293f
00000290: bb5a 81be 33c3 59bd eeea 07bf a3c6 133f
000002a0: 12e8 943e 7f68 9d3c 9c93 263e 479f 96be
000002b0: ce00 6f3d bb8c ad3e a370 3dbf cdbc 4cbc
000002c0: e894 8c3e 0953 93be 4ec7 b63e e9fd 02be
000002d0: bb56 c43d 437a d9bd 5dfa 02bf 3bd6 133f
000002e0: db92 8cbe 7ce2 84be 3267 513c e472 61be
000002f0: b6ec 8cbe a258 753e 37cb c73f 2262 d9be
00000300: e2e9 093f cedc e6be 0e22 323d bac7 88be
00000310: 6857 ec3e 1ff2 da3e 825a 803e 59e0 2c3f
00000320: 2d50 c03e 8705 53bf 399d 45bd a18b 2f3e
00000330: 039b 81be 88be 8f3e 7707 3c3f e2b8 bbbc
00000340: cb8a 633e df87 4dbe 4da1 163f cec6 383e
00000350: e850 95bd 7161 a83e 2012 253f bcfb 9abe
00000360: 79a9 84be 1638 833e b86e 193f 017e cabd
00000370: e67d 1b3f 657c e4be f8bd 9bbf 0833 08bf
00000380: 792c f5be 1d9e dbbe e631 89bd dcf0 00be
00000390: 5445 04bf 451f 9fbe 7bd1 24bf 073e 373c
000003a0: edb8 95be 208d 723e 62e6 4a3e 49c4 823f
000003b0: 228f 8b3d f11b 90bd 459a 55ba 454c 91bd
000003c0: a158 4b3d 6a19 ac3e e655 a4be 8acc 403f
000003d0: b6e1 9a3d 4d43 f9be 9f4f 96be 1379 143f
000003e0: 6b52 8cbf d36e 193e 48ba e23e a742 ef3e
000003f0: cfe5 f83e 5296 df3e a869 29be 8eee f5be

network_body._body_endoder.seq_layers.0.bias f4 [128]
0.0 0.0 0.0 0.0 0.0 0.0 0.0 0.0
0.0 0.0 0.0 0.0 0.0 0.0 0.0 0.0
0.0 0.0 0.0 0.0 0.0 0.0 0.0 0.0
0.0 0.0 0.0 0.0 0.0 0.0 0.0 0.0
0.0 0.0 0.0 0.0 0.0 0.0 0.0 0.0
0.0 0.0 0.0 0.0 0.0 0.0 0.0 0.0
0.0 0.0 0.0 0.0 0.0 0.0 0.0 0.0
0.0 0.0 0.0 0.0 0.0 0.0 0.0 0.0
0.0 0.0 0.0 0.0 0.0 0.0 0.0 0.0
0.0 0.0 0.0 0.0 0.0 0.0 0.0 0.0
0.0 0.0 0.0 0.0 0.0 0.0 0.0 0.0
0.0 0.0 0.0 0.0 0.0 0.0 0.0 0.0
0.0 0.0 0.0 0.0 0.0 0.0 0.0 0.0
0.0 0.0 0.0 0.0 0.0 0.0 0.0 0.0
0.0 0.0 0.0 0.0 0.0 0.0 0.0 0.0
0.0 0.0 0.0 0.0 0.0 0.0 0.0 0.0
00000000: 0000 0000 0000 0000 0000 0000 0000 0000
00000010: 0000 0000 0000 0000 0000 0000 0000 0000
00000020: 0000 0000 0000 0000 0000 0000 0000 0000
00000030: 0000 0000 0000 0000 0000 0000 0000 0000
00000040: 0000 0000 0000 0000 0000 0000 0000 0000
00000050: 0000 0000 0000 0000 0000 0000 0000 0000
00000060: 0000 0000 0000 0000 0000 0000 0000 0000
00000070: 0000 0000 0000 0000 0000 0000 0000 0000
00000080: 0000 0000 0000 0000 0000 0000 0000 0000
00000090: 0000 0000 0000 0000 0000 0000 0000 0000
000000a0: 0000 0000 0000 0000 0000 0000 0000 0000
000000b0: 0000 0000 0000 0000 0000 0000 0000 0000
000000c0: 0000 0000 0000 0000 0000 0000 0000 0000
000000d0: 0000 0000 0000 0000 0000 0000 0000 0000
000000e0: 0000 0000 0000 0000 0000 0000 0000 0000
000000f0: 0000 0000 0000 0000 0000 0000 0000 0000
00000100: 0000 0000 0000 0000 0000 0000 0000 0000
00000110: 0000 0000 0000 0000 0000 0000 0000 0000
00000120: 0000 0000 0000 0000 0000 0000 0000 0000
00000130: 0000 0000 0000 0000 0000 0000 0000 0000
00000140: 0000 0000 0000 0000 0000 0000 0000 0000
00000150: 0000 0000 0000 0000 0000 0000 0000 0000
00000160: 0000 0000 0000 0000 0000 0000 0000 0000
00000170: 0000 0000 0000 0000 0000 0000 0000 0000
00000180: 0000 0000 0000 0000 0000 0000 0000 0000
00000190: 0000 0000 0000 0000 0000 0000 0000 0000
000001a0: 0000 0000 0000 0000 0000 0000 0000 0000
000001b0: 0000 0000 0000 0000 0000 0000 0000 0000
000001c0: 0000 0000 0000 0000 0000 0000 0000 0000
000001d0: 0000 0000 0000 0000 0000 0000 0000 0000
000001e0: 0000 0000 0000 0000 0000 0000 0000 0000
000001f0: 0000 0000 0000 0000 0000 0000 0000 0000

network_body._body_endoder.seq_layers.2.weight f4 [128, 128]
0.028367296 0.052787542 0.014133385 0.031738687 -0.054616187 0.009201778 -0.111350074 0.04422778
0.054615203 -0.058279973 -0.06499652 -0.01699802 0.07030068 -0.0283575 0.18090501 0.07009649
-0.0062084864 -0.09694007 -0.062055252 0.060527742 0.064525574 -0.059253544 0.06959471 0.16133551
0.0617046 0.0063378206 -0.008838739 -0.045950674 0.22473706 -0.036499575 0.013866118 0.0063637854
0.0345057 -0.0157789 0.08036211 -0.001101887 -0.08386336 -0.026030006 0.13832428 0.12908109
-0.16863117 0.059121642 0.15315583 0.071825825 0.030737294 0.026538763 -0.055458434 0.00642024
-0.046377152 -0.022648027 -0.0062205065 0.18335748 -0.04125285 0.041511 -0.16283825 -0.04826567
0.11495095 0.11935703 0.049617995 0.017595122 -0.09004599 0.019299837 -0.017522888 -0.086400665
0.066734195 -0.010921541 -0.060091026 -0.05268011 0.045238115 0.019154647 0.048278272 -0.11609418
0.12839247 0.07393814 -0.09515476 -0.07055059 0.15446693 0.16139603 0.08400377 0.06328405
0.15767656 0.1215572 -0.062115744 -0.0009192371 0.05295143 -0.04829477 0.082812 0.037737776
-0.11356531 -0.03487813 -0.14187573 -0.028399961 0.14959446 -0.018844273 -0.062066 -0.07067512
0.0904216 0.029600287 0.18172166 -0.022339683 0.085336 0.09235696 -0.10295914 -0.14348726
0.029855378 0.0905807 -0.019666592 0.05494431 -8.5681146e-05 0.06624027 0.0060813944 0.07042185
0.023329534 0.081366114 0.007173407 -0.046052232 -0.1299042 0.006074673 0.07528025 0.051526196
0.025653195 0.00023795795 0.08639243 0.0016044506 -0.041435238 -0.0051766103 -0.012590348 0.13576025
-0.06451818 0.005295693 0.003036706 -0.06504531 -0.050885145 -0.011101139 0.006691396 0.0062812534
-0.023396509 0.042747766 0.0441612 0.09742592 0.12846243 -0.010798986 0.12985417 0.18979126
-0.06767644 -0.16561703 -0.06629139 0.008000735 0.15996546 0.13293914 0.042413723 -0.023612626
-0.046208188 -0.14146502 0.019026285 -0.1256364 0.10877332 -0.020914622 -0.07324569 -0.08165535
-0.04972867 -0.024368623 0.010431607 0.020918485 0.15269135 -0.09353781 0.18324885 0.08229096
-0.076075785 -0.0135671515 -0.1868532 -0.024386745 0.040085107 0.15360095 0.019228643 -0.14766838
0.15210362 -0.09400519 0.12337964 -0.062271472 -0.043594886 -0.026257887 -0.056833934 -0.08818396
-0.052518472 0.022898193 0.050399084 0.15556061 0.030548183 0.029778529 -0.058850065 0.042247847
-0.049628355 -0.09155732 -0.072136566 -0.020040365 -0.08698205 0.036194377 -0.084535874 0.01129627
0.15025225 0.18981288 -0.042988952 0.21066177 0.092907816 -0.020511195 0.033108957 -0.0029400676
-0.058307007 -0.15461004 0.12021388 0.048600975 -0.03325736 0.1015023 0.032917578 0.014370314
-0.0031430535 -0.07048172 0.112155214 0.05098114 0.020161612 -0.015251465 -0.03468137 -0.037352838
-0.114732824 -0.13885394 0.0140488995 -0.10551793 0.060400374 -0.09759571 0.0018506746 -0.16557163
-0.0053438656 0.13954099 -0.00043187308 0.022150608 -0.103017814 -0.06195163 0.023806531 0.1320537
0.14432974 -0.0028046726 0.095664315 -0.020108396 -0.011872788 -0.09126031 0.015113401 -0.03085143
0.017257594 -0.041665245 -0.01295874 -0.021915711 0.04599755 0.12825729 -0.07695992 -0.07935627
00000000: 8862 e83c c037 583d b78f 673c 6d00 023d
00000010: 39b5 5fbd 0ec3 163c 820b e4bd 3028 353d
00000020: 31b4 5f3d fbb6 6ebd e51c 85bd 6e3f 8bbc
00000030: cef9 8f3d fd4d e8bc 2a3f 393e c08e 8f3d
00000040: 8f70 cbbb 8488 c6bd a62d 7ebd f0eb 773d
00000050: fc25 843d d8b3 72bd ac87 8e3d 2335 253e
00000060: f6bd 7c3d 7ead cf3b 5cd0 10bc c636 3cbd
00000070: 7921 663e 9480 15bd b72e 633c 4d87 d03b
00000080: d955 0d3d c042 81bc e494 a43d 316d 90ba
00000090: 8ec0 abbd e13c d5bc e1a4 0d3e d52d 043e
000000a0: a6ad 2cbe 8929 723d e2d4 1c3e 6b19 933d
000000b0: c7cc fb3c d267 d93c 6228 63bd e060 d23b
000000c0: f8f5 3dbd 5b88 b9bc 64d5 cbbb 10c2 3b3e
000000d0: c0f8 28bd 7007 2a3d 12bf 26be 39b2 45bd
000000e0: 676b eb3d 7571 f43d 3d3c 4b3d a523 903c
000000f0: 086a b8bd b11a 9e3c 298c 8fbc d5f2 b0bd
00000100: f0ab 883d 43f0 32bc 0222 76bd 19c7 57bd
00000110: 9a4b 393d 35ea 9c3c 70bf 453d c9c2 edbd
00000120: 5179 033e e16c 973d 80e0 c2bd d47c 90bd
00000130: 942c 1e3e 0045 253e 2b0a ac3d 119b 813d
00000140: f775 213e fbf2 f83d 146d 7ebd f5f8 70ba
00000150: 99e3 583d bdd0 45bd 5699 a93d ed92 1a3d
00000160: ee94 e8bd 5fdc 0ebd df47 11be 09a7 e8bc
00000170: 4a2f 193e 4e5f 9abc eb38 7ebd 1ebe 90bd
00000180: f62e b93d 4d7c f23c 3e15 3a3e b601 b7bc
00000190: a4c4 ae3d a525 bd3d 3edc d2bd 53ee 12be
000001a0: 4493 f43c 6082 b93d d51b a1bc 490d 613d
000001b0: b7af b3b8 fba8 873d 6f46 c73b 5539 903d
000001c0: 941d bf3c 47a3 a63d e60e eb3b 44a1 3cbd
000001d0: 9b05 05be 0d0e c73b 882c 9a3d 220d 533d
000001e0: a626 d23c 5a84 7939 84ee b03d 6e4c d23a
000001f0: ffb7 29bd 8ea0 a9bb bf47 4ebc bc04 0b3e
00000200: 1c22 84bd 7e87 ad3b 7903 473b 7a36 85bd
00000210: f16c 50bd 8de1 35bc 7f43 db3b f9d2 cd3b
00000220: 09aa bfbc 4818 2f3d 60e2 343d 3e87 c73d
00000230: a88b 033e 3bee 30bc 7ef8 043e a458 423e
00000240: f299 8abd 8397 29be c8c3 87bd 8415 033c
00000250: fccd 233e 3321 083e 03ba 2d3d 446f c1bc
00000260: cc44 3dbd 35dc 10be 03dd 9b3c d4a6 00be
00000270: 8cc4 de3d 2455 abbc d601 96bd ec3a a7bd
00000280: 4ab0 4bbd b5a0 c7bc 55e9 2a3c 3e5d ab3c
00000290: 1f5b 1c3e c090 bfbd 96a5 3b3e 2a88 a83d
000002a0: 9fcd 9bbd c248 5ebc 7256 3fbe b6c6 c7bc
000002b0: 4830 243d 9149 1d3e 6385 9d3c 6136 17be
000002c0: 0dc1 1b3e cb85 c0bd 77ae fc3d 5f10 7fbd
000002d0: 8d90 32bd c81a d7bc b3ca 68bd cb99 b4bd
000002e0: 9c1d 57bd fe94 bb3c 456f 4e3d 484b 1f3e
000002f0: 2f40 fa3c 1af2 f33c c40c 71bd 140c 2d3d
00000300: 1a47 4bbd 6782 bbbd 56bc 93bd b12b a4bc
00000310: a523 b2bd 8e40 143d 2521 adbd fe13 393c
00000320: badb 193e 4f5e 423e 2f15 30bd b8b7 573e
00000330: 7446 be3d 1807 a8bc 429d 073d 26ae 40bb
00000340: 54d3 6ebd 1852 1ebe b232 f63d d111 473d
00000350: df38 08bd 70e0 cf3d 95d4 063d 7771 6b3c
00000360: b0fb 4dbb b858 90bd a2b1 e53d 9ad1 503d
00000370: f729 a53c 48e1 79bc 0d0e 0ebd 4aff 18bd
00000380: 0bf9 eabd ba2f 0ebe 5b2d 663c c919 d8bd
00000390: 6266 773d 42e0 c7bd 5692 f23a 9c8b 29be
000003a0: 981b afbb d5e3 0e3e 066d e2b9 3175 b53c
000003b0: 01fb d2bd fec0 7dbd ea05 c33c 1639 073e
000003c0: 2dcb 133e 99ce 37bb a7eb c33d 5dba a4bc
000003d0: 1586 42bc afe6 babd 339e 773c 23bc fcbc
000003e0: cc5f 8d3c 2da9 2abd e550 54bc 9488 b3bc
000003f0: ed67 3c3d e155 033e 2a9d 9dbd 8a85 a2bd

network_body._body_endoder.seq_layers.2.bias f4 [128]
0.0 0.0 0.0 0.0 0.0 0.0 0.0 0.0
0.0 0.0 0.0 0.0 0.0 0.0 0.0 0.0
0.0 0.0 0.0 0.0 0.0 0.0 0.0 0.0
0.0 0.0 0.0 0.0 0.0 0.0 0.0 0.0
0.0 0.0 0.0 0.0 0.0 0.0 0.0 0.0
0.0 0.0 0.0 0.0 0.0 0.0 0.0 0.0
0.0 0.0 0.0 0.0 0.0 0.0 0.0 0.0
0.0 0.0 0.0 0.0 0.0 0.0 0.0 0.0
0.0 0.0 0.0 0.0 0.0 0.0 0.0 0.0
0.0 0.0 0.0 0.0 0.0 0.0 0.0 0.0
0.0 0.0 0.0 0.0 0.0 0.0 0.0 0.0
0.0 0.0 0.0 0.0 0.0 0.0 0.0 0.0
0.0 0.0 0.0 0.0 0.0 0.0 0.0 0.0
0.0 0.0 0.0 0.0 0.0 0.0 0.0 0.0
0.0 0.0 0.0 0.0 0.0 0.0 0.0 0.0
0.0 0.0 0.0 0.0 0.0 0.0 0.0 0.0
00000000: 0000 0000 0000 0000 0000 0000 0000 0000
00000010: 0000 0000 0000 0000 0000 0000 0000 0000
00000020: 0000 0000 0000 0000 0000 0000 0000 0000
00000030: 0000 0000 0000 0000 0000 0000 0000 0000
00000040: 0000 0000 0000 0000 0000 0000 0000 0000
00000050: 0000 0000 0000 0000 0000 0000 0000 0000
00000060: 0000 0000 0000 0000 0000 0000 0000 0000
00000070: 0000 0000 0000 0000 0000 0000 0000 0000
00000080: 0000 0000 0000 0000 0000 0000 0000 0000
00000090: 0000 0000 0000 0000 0000 0000 0000 0000
000000a0: 0000 0000 0000 0000 0000 0000 0000 0000
000000b0: 0000 0000 0000 0000 0000 0000 0000 0000
000000c0: 0000 0000 0000 0000 0000 0000 0000 0000
000000d0: 0000 0000 0000 0000 0000 0000 0000 0000
000000e0: 0000 0000 0000 0000 0000 0000 0000 0000
000000f0: 0000 0000 0000 0000 0000 0000 0000 0000
00000100: 0000 0000 0000 0000 0000 0000 0000 0000
00000110: 0000 0000 0000 0000 0000 0000 0000 0000
00000120: 0000 0000 0000 0000 0000 0000 0000 0000
00000130: 0000 0000 0000 0000 0000 0000 0000 0000
00000140: 0000 0000 0000 0000 0000 0000 0000 0000
00000150: 0000 0000 0000 0000 0000 0000 0000 0000
00000160: 0000 0000 0000 0000 0000 0000 0000 0000
00000170: 0000 0000 0000 0000 0000 0000 0000 0000
00000180: 0000 0000 0000 0000 0000 0000 0000 0000
00000190: 0000 0000 0000 0000 0000 0000 0000 0000
000001a0: 0000 0000 0000 0000 0000 0000 0000 0000
000001b0: 0000 0000 0000 0000 0000 0000 0000 0000
000001c0: 0000 0000 0000 0000 0000 0000 0000 0000
000001d0: 0000 0000 0000 0000 0000 0000 0000 0000
000001e0: 0000 0000 0000 0000 0000 0000 0000 0000
000001f0: 0000 0000 0000 0000 0000 0000 0000 0000

action_model._continuous_distribution.mu.weight f4 [1, 128]
-0.003746894 -0.007033867 -0.014709637 0.012063566 -0.0095882425 0.03331585 0.0035834995 -0.015077109
0.019222323 -0.027089423 0.0080479905 0.0019270495 0.0033589394 0.018864231 -0.020052973 0.028416643
0.02471453 -0.012329429 0.0076845945 -0.016500993 0.018072003 0.011698454 0.0012461954 -0.0030869134
0.017478941 0.0034166903 -0.020092858 -0.026538864 0.010558372 -0.017848868 0.026160283 0.01518689
0.015451794 -0.021925468 0.0068878154 -0.020902606 0.041857924 -0.014069228 0.015521623 0.01070742
0.023121176 -0.0049799527 0.009932483 0.034288302 0.004893043 0.015409906 0.007182413 0.005569737
-0.01659208 -0.044376105 -0.031621933 -0.0018511339 -0.009237891 0.0021341753 0.0213538 -0.011468024
0.0102224415 0.00647655 -0.018350435 0.030458922 -0.015032992 -0.010322194 0.0005650984 -0.041314732
-0.019572185 -0.019015415 0.0030957258 0.008247063 0.024239894 0.0035437525 0.003041201 -0.010143595
-0.015731385 0.028999124 0.015944531 0.008764019 -0.007203112 -0.008738956 0.010470792 0.0008440114
-0.017971473 0.005208721 0.020190708 -0.0152873015 -0.009890272 0.0052121147 0.0015441151 0.020011371
-0.02030937 -0.008549585 0.01855264 -0.040114176 -0.009152219 -0.024612783 0.032266792 0.0034233388
0.025343342 0.013563371 -0.017128475 -0.0073335352 0.008250279 -0.015611963 0.007891271 0.023717484
0.0017788125 -0.009599943 0.030057788 -0.026973162 0.013693302 0.0033871073 -0.016828684 -0.003878581
0.0019167854 0.022041587 -0.022229532 -0.026464507 0.0045377533 -0.029657796 -0.00077692163 0.011109392
0.0017304365 0.011448267 -0.02600178 0.0076323035 0.038265377 0.0012720026 -0.016455568 0.016300824
00000000: 738e 75bb 5a7c e6bb b000 71bc 43a6 453c
00000010: 0118 1dbc 3376 083d 25d9 6a3b fb05 77bc
00000020: 2278 9d3c a3ea ddbc b8db 033c 0d95 fc3a
00000030: a721 5c3b 2989 9a3c 2246 a4bc 05ca e83c
00000040: 2076 ca3c 6001 4abc 0dcf fb3b 172d 87bc
00000050: bd0b 943c dfaa 3f3c 6157 a33a d04d 4abb
00000060: ff2f 8f3c 8dea 5f3b c799 a4bc 0868 d9bc
00000070: 06fd 2c3c ca37 92bc 174e d63c 6fd2 783c
00000080: 8529 7d3c 0a9d b3bc 2fb3 e13b f13b abbc
00000090: 3773 2b3d 9f82 66bc 684e 7e3c 2d6e 2f3c
000000a0: 9f68 bd3c df2e a3bb dabb 223c e471 0c3d
000000b0: d255 a03b d579 7c3c 725a eb3b 5782 b63b
000000c0: 1dec 87bc b8c3 35bd 0086 01bd bfa1 f2ba
000000d0: 865a 17bc 85dd 0b3b 2aee ae3c 61e4 3bbc
000000e0: 077c 273c 3d39 d43b a753 96bc fd84 f93c
000000f0: f04c 76bc 6b1e 29bc 1d23 143a a339 29bd
00000100: d955 a0bc 37c6 9bbc a9e1 4a3b b01e 073c
00000110: be92 c63c 4d3e 683b e34e 473b 5231 26bc
00000120: 1bdf 80bc 928f ed3c 1b9e 823c f696 0f3c
00000130: 1508 ecbb d72d 0fbc af8d 2b3c a540 5d3a
00000140: e938 93bc ebad aa3b fc66 a53c 9777 7abc
00000150: cf0a 22bc 63ca aa3b e863 ca3a e3ee a33c
00000160: d65f a6bc 8f13 0cbc b5fb 973c c34e 24bd
00000170: 30f3 15bc bfa0 c9bc 2f2a 043d 185a 603b
00000180: d79c cf3c e738 5e3c 0451 8cbc 274e f0bb
00000190: 2e2c 073c 52c9 7fbc 644a 013c 2b4b c23c
000001a0: 0b27 e93a 1449 1dbc c03b f63c d2f6 dcbc
000001b0: df59 603c 3bfa 5d3b 4fdc 89bc cb2f 7ebb
000001c0: a53c fb3a 8f90 b43c b51a b6bc 18cc d8bc
000001d0: 6fb1 943b e8f4 f2bc 54aa 4bba 2b04 363c
000001e0: d0cf e23a 8391 3b3c af01 d5bc 6718 fa3b
000001f0: 28bc 1c3d 53b9 a63a d4cd 86bc 4e89 853c

action_model._discrete_distribution.branches.0.weight f4 [3, 128]
-0.005377851 -0.0140916435 -0.009043813 0.0031265733 -0.0063750297 0.024843102 0.0056553776 0.010495613
-0.0033521291 0.00018969607 -0.0012104482 -0.0009986949 0.003052875 -0.00587005 -0.0057160766 0.0026868284
-0.023943776 -0.005575835 0.0052175424 0.002403093 -0.0010376063 0.0022759188 -0.0027638625 -0.007628195
0.005814166 -0.00082974386 0.015801637 0.0016201582 -0.011733265 -0.004845534 -0.0071481164 -0.00013934523
-0.005527775 0.010618406 0.0017037587 -0.0001227856 -0.011859721 0.00499664 -0.0081082685 0.0023474952
-0.00298886 0.009558782 0.011944568 0.0032404375 0.0019745128 0.013465327 0.0030461021 0.011499303
-0.0037889895 0.0020626232 0.009332835 -0.0018156574 0.006790772 0.0099983765 0.0020582797 0.008502941
-0.00019906813 -0.009041569 0.013131394 0.011000239 -0.015763266 -0.0017819087 -0.010141453 -0.0026302503
-0.0019170074 0.0027530051 0.0039629606 -0.004178915 0.0032230706 -0.004034814 0.0079723615 0.012467517
-0.012160505 0.00073631475 -0.0032031753 -0.010633939 0.005289302 -0.0102823125 -0.015907567 -0.0012421183
0.007644474 -0.0037517098 -0.0031763073 0.012997448 0.009740773 0.008013683 0.00386835 0.012543817
-0.0030530372 -0.0072487216 0.0034903635 0.013879575 0.0047544707 0.0108412905 0.0068076695 0.0030822693
0.0054622823 0.010892369 0.010976091 -0.0028705501 -0.00028045647 1.5344107e-05 -0.0026886684 0.012080788
0.017637156 -0.00071845856 -0.0030417999 0.0017072012 -0.0057643303 0.00025731287 -0.00094164116 -0.0017599624
-0.00046682692 -0.0083211055 0.0009786324 -0.014576698 0.00987438 0.005592647 -0.003835373 -0.00040064767
-0.0034125212 0.0025689087 0.004075791 0.009998473 0.013834623 -0.005934266 -0.00018315771 0.0021291298
0.010717782 0.0078091496 -0.008164709 0.0015300185 0.0035334465 -0.010377549 -0.0053049163 -0.009338432
0.01573 0.012470084 0.014606999 0.0020679354 -0.008385408 0.0013614442 -0.008838945 -0.013644057
-0.002342299 -0.008624366 0.005499732 -0.0033901532 -1.3743755e-06 0.009321372 -0.008986272 -0.0063847783
-0.013729597 0.008484705 -0.0033863613 -0.013283021 -0.005137972 -0.0035367056 0.0008284242 -0.0027660185
0.008207233 -0.0091382535 -0.009156554 0.011325363 0.00048595978 0.0028849742 0.0088018 -0.00062366546
0.008759272 0.0034915803 -0.0021614237 -0.0027038015 0.0041028485 -0.0012872462 -0.0050986777 -0.006483791
0.020969523 -0.0033638794 0.0022166641 -0.0011336281 0.0024134235 0.0011617158 -0.013491817 0.0078054667
-0.012916281 0.004513618 -0.0048913877 -0.008255931 -0.001761685 -0.009955651 -0.0043981825 -0.013658966
0.0057532676 -0.011320188 -0.00027875483 -0.015750073 0.010172739 -0.00064284325 -0.012637096 -0.017557245
0.0065985965 0.008015479 0.021675149 -0.001983458 -0.0139446575 0.0018918539 0.0038911656 0.0071538943
-0.009082608 -0.0039329766 0.00892114 0.0027526466 0.0034555064 0.006861323 -0.0026565932 0.017109884
0.01275308 -0.0083524445 0.0004225884 -0.0088744145 0.00019012565 -0.0038879276 0.0016136066 0.013263767
0.006068233 0.0047535985 0.004343588 -0.0047322656 0.008715013 0.006964851 0.011217127 -0.008134149
0.010801631 0.006293215 0.0050400235 -0.0023033747 0.0057112495 0.011695707 0.00043464426 0.010905413
0.0032273761 -0.00021936337 0.008120624 -0.016353859 -0.01006516 -0.0132228015 0.008222575 0.009196642
0.008144339 -0.0028085397 0.0033167794 0.017387556 -0.0003015104 -0.010820901 -0.017186448 -0.0017215414
00000000: af38 b0bb a3e0 66bc 802c 14bc 32e7 4c3b
00000010: a0e5 d0bb c383 cb3c bf50 b93b cbf5 2b3c
00000020: 65af 5bbb 27e9 4639 e7a7 9eba a4e6 82ba
00000030: be12 483b 8c59 c0bb ed4d bbbb 8015 303b
00000040: bd25 c4bc 7eb5 b6bb ebf7 aa3b 367d 1d3b
00000050: 4a00 88ba 9527 153b eb21 35bb f0f5 f9bb
00000060: c284 be3b 2b83 59ba 6f72 813c 7d5b d43a
00000070: e13c 40bc 49c7 9ebb bf3a eabb 331d 12b9
00000080: 5622 b5bb d3f8 2d3c a850 df3a 02c0 00b9
00000090: 464f 42bc dbba a33b 8bd8 04bc 6fd8 193b
000000a0: c0e0 43bb 709c 1c3c 26b3 433c 855d 543b
000000b0: d466 013b ad9d 5c3c 1da1 473b 9367 3c3c
000000c0: b250 78bb 132d 073b bfe8 183c 5afb edba
000000d0: 2085 de3b 3bd0 233c 34e4 063b eb4f 0b3c
000000e0: f2bc 50b9 1723 14bc 0f25 573c 593a 343c
000000f0: f721 81bc ef8e e9ba 5628 26bc 4760 2cbb
00000100: 1844 fbba c36b 343b b9db 813b 48ef 88bb
00000110: 273a 533b 7936 84bb 829e 023c 8e44 4c3c
00000120: db3c 47bc 3f05 413a 5dec 51bb f939 2ebc
00000130: e251 ad3b 2577 28bc 9650 82bc 93ce a2ba
00000140: 7f7e fa3b 3fdf 75bb 9829 50bb 40f3 543c
00000150: c397 1f3c d34b 033c 2584 7d3b 9584 4d3c
00000160: 7715 48bb af86 edbb 95be 643b 2867 633c
00000170: 64cb 9b3b ab9f 313c df12 df3b e6ff 493b
00000180: f2fc b23b e875 323c 10d5 333c d71f 3cbb
00000190: 3b0a 93b9 38b7 8037 5f34 30bb 7fee 453c
000001a0: cc7b 903c f056 3cba ef58 47bb 2bc4 df3a
000001b0: b5e2 bcbb f3e7 8639 78d8 76ba 8aae e6ba
000001c0: 73c0 f4b9 3f55 08bc 7445 803a 1ad3 6ebc
000001d0: 27c8 213c 8642 b73b e25a 7bbb 050e d2b9
000001e0: 9ba4 5fbb 235b 283b 378e 853b a3d0 233c
000001f0: 9daa 623c 3b74 c2bb 060e 40b9 df88 0b3b
00000200: a399 2f3c e5e3 ff3b 46c5 05bc e78a c83a
00000210: 6591 673b 9806 2abc ddd4 adbb 3900 19bc
00000220: 33dc 803c 534f 4c3c 3252 6f3c 3386 073b
00000230: f362 09bc 7d72 b23a 39d1 10bc 538b 5fbc
00000240: 4281 19bb 364d 0dbc 1937 b43b 552d 5ebb
00000250: 2f77 b8b5 abb8 183c 283b 13bc 6737 d1bb
00000260: 1bf2 60bc 6f03 0b3c b7ed 5dbb 07a1 59bc
00000270: 6f5c a8bb 13c8 67bb 9b2a 593a 1746 35bb
00000280: a177 063c 9db8 15bc 5f05 16bc 048e 393c
00000290: 6bc8 fe39 d611 3d3b 6d35 103c 7b7d 23ba
000002a0: 0d83 0f3c ffd2 643b aca6 0dbb 4332 31bb
000002b0: 3071 863b d1b8 a8ba cf12 a7bb fb75 d4bb
000002c0: 47c8 ab3c 8874 5cbb 7445 113b 3f96 94ba
000002d0: 872a 1e3b b744 983a c80c 5dbc 00c5 ff3b
000002e0: cf9e 53bc f9e6 933b ef47 a0bb e243 07bc
000002f0: 57e8 e6ba 071d 23bc a11e 90bb dbc9 5fbc
00000300: e885 bc3b 4f78 39bc d725 92b9 4c06 81bc
00000310: 8fab 263c 7b84 28ba d30b 4fbc 36d4 8fbc
00000320: 0a39 d83b 5b53 033c 1590 b13c e7fc 01bb
00000330: 2278 64bc 15f8 f73a ed02 7f3b 376b ea3b
00000340: 38cf 14bc 33e0 80bb f929 123c bf65 343b
00000350: c775 623b f3d4 e03b 3d1a 2ebb 072a 8c3c
00000360: 4bf2 503c b1d8 08bc db8e dd39 fe65 11bc
00000370: 775c 4739 9acc 7ebb a77f d33a 4550 593c
00000380: 07d8 c63b 13c4 9b3b a854 8e3b 1f11 9bbb
00000390: 6ac9 0e3c 6839 e43b 0ac8 373c 1845 05bc
000003a0: 53f9 303c 5037 ce3b c826 a53b 37f4 16bb
000003b0: 6f25 bb3b 5a9f 3f3c f7e0 e339 9eac 323c
000003c0: 6382 533b e804 66b9 5e0c 053c 87f8 85bc
000003d0: 57e8 24bc 73a4 58bc fbb7 063c 83ad 163c
000003e0: d56f 053c 7a0f 38bb 535e 593b 5970 8e3c
000003f0: 0a14 9eb9 264a 31bc 98ca 8cbc 58a5 e1ba

action_model._discrete_distribution.branches.0.bias f4 [3]
0.0 0.0 0.0
00000000: 0000 0000 0000 0000 0000 0000

action_model._discrete_distribution.branches.1.weight f4 [2, 128]
0.014520585 0.0017606618 -0.006518304 0.0060992134 -0.012060251 -0.008500771 -8.160972e-05 0.0095972605
-0.0023919025 0.0004074068 0.00633626 -0.0026245273 -0.016785638 0.0065693557 0.0036665828 -0.005303765
-0.015963627 -0.01055161 -0.0046072635 -0.018238021 0.009303537 -0.0033758194 0.018538453 0.0018058581
0.00063383667 -0.008296805 -0.011896129 0.0017411944 -0.00061385555 -0.0057804566 0.0060844533 0.008294882
0.0072637945 -0.006231168 -0.005134152 -0.00076167856 -0.0011747064 -0.0074305176 0.015427576 -0.004474971
-0.004471624 0.0041478253 0.013550182 -0.0016345893 0.005568038 -0.003385915 -0.0042176987 -0.0051713786
-0.017042015 0.005925477 0.0016602062 0.003642472 -0.0043240525 0.017304303 -0.0015356578 -0.0031421792
-0.0076449947 0.007491605 0.00034261763 0.0067053954 0.008246635 -0.019359834 -0.0025896009 0.0057406984
0.0073490455 -0.0076544173 -0.007466326 0.013220805 -0.0003059315 -0.007351803 -0.005311245 0.019297926
-0.0009553983 0.002061274 -0.019795239 -0.005631788 0.0025583233 -0.020369774 -0.009605176 -0.0113316085
-0.0026678187 -0.01174907 -0.007951821 0.006619859 -0.014117922 0.0023755692 0.0005380459 0.009447592
0.018983802 -0.00548705 -0.008751118 -0.011868971 0.0014267078 -0.013366945 0.012281129 0.004428762
0.002472279 0.0064008045 -0.0075663137 -0.0001596696 0.0038309258 0.003428689 -0.0075425594 -0.0043845396
-0.013925529 0.0012612519 0.011651594 0.011320463 0.007852224 -0.004100527 0.0056127096 -0.0081232395
-0.01631588 -0.011593336 -0.014992448 -0.011941544 0.0008511417 0.009113315 -0.0020116467 0.011301002
0.00086744624 0.0007035002 -0.0024104358 0.0018147543 0.00339716 0.0048640133 -0.004850811 -0.013364031
-0.0032706675 -0.002462086 -0.004316707 -0.0061804126 0.0034162477 -0.017838128 0.008504117 -0.0022518847
-0.017473817 -0.0035427508 -0.0076848753 0.004482585 -0.002257713 -0.0085906 0.010344732 -0.01247866
-0.0014859559 -0.012838118 -0.008388325 -0.0056858575 -0.020538926 -0.003027974 -0.014796244 0.009646264
-0.0064674797 -0.00082722865 -0.006723404 -0.00037401568 0.009150398 0.021858511 -0.008558168 0.0006668276
-0.006044076 0.0009003665 0.015728151 -0.0016619865 0.0051060426 -0.0018885311 0.0018510137 0.0019885302
0.0048161554 -0.00029249978 -0.0009275918 0.0012294733 0.00524633 -0.006291628 -0.0050961194 -0.012174003
-0.009542032 -0.007514544 -0.0073638284 -0.0058609094 -0.014515609 0.0037656296 -0.0038485595 -0.0039042223
0.0010463187 0.00054981816 0.002032452 0.0012980488 -0.0058591045 -0.0137754 0.0003813467 0.00023773688
0.0023003716 0.0035486806 -0.010458176 -0.005354387 0.0015823668 0.01546323 -0.0025643387 0.009871035
-0.0008749462 -0.01855835 -0.007139017 -0.018434212 0.00065526424 -0.0015978919 0.016192647 -0.0021376212
0.01764704 0.014344222 0.003598847 0.006313275 0.00045983173 -0.019107893 -0.00940534 0.016188338
0.010317495 -8.28633e-05 0.010802823 3.3728e-05 0.0016350219 0.019581826 0.0012108635 0.0033722797
0.0033029958 -0.007161709 0.0096705025 -0.010971411 -0.0028746766 -0.0025028172 0.0025678363 -0.011189448
0.0012588816 -0.0043594497 -0.003484554 -0.0010361708 -0.004733477 0.00977222 -0.0067014205 -0.0018581545
-0.013178149 -0.013678076 0.0032528674 -0.0013069033 0.0023503173 0.009541045 0.0011539476 -0.0056494097
-0.0041020447 0.00880951 0.0015000348 0.011096469 -0.0071098916 -0.010187495 0.004699361 -0.012123213
00000000: bfe7 6d3c 02c6 e63a 7f97 d5bb e9db c73b
00000010: 5c98 45bc d146 0bbc e325 abb8 d43d 1d3c
00000020: 77c1 1cbb 3799 d539 67a0 cf3b 4300 2cbb
00000030: 0982 89bc c043 d73b 0d4b 703b 35cb adbb
00000040: 27c6 82bc a9e0 2cbc 87f8 96bb e767 95bc
00000050: dd6d 183c da3c 5dbb f4dd 973c 8bb2 ec3a
00000060: 0f28 263a 53ef 07bc fbe7 42bc ca38 e43a
00000070: 26eb 20ba fc69 bdbb 1860 c73b 42e7 073c
00000080: 2005 ee3b d32e ccbb 633c a8bb 62ab 47ba
00000090: 9bf8 99ba b37b f3bb f2c3 7c3c c7a2 92bb
000000a0: b386 92bb 7bea 873b 9501 5e3c b73f d6ba
000000b0: 1774 b63b 3ae6 5dbb 9f34 8abb ab74 a9bb
000000c0: b29b 8bbc 812a c23b 479b d93a 8ab6 6e3b
000000d0: c8b0 8dbb c1c1 8d3c 2048 c9ba 05ed 4dbb
000000e0: dd82 fabb 237c f53b 5ca1 b339 efb8 db3b
000000f0: e51c 073c 8498 9ebc 4bb6 29bb 781c bc3b
00000100: 43d0 f03b e8d1 fabb 15a8 f4bb 139c 583c
00000110: 6e65 a0b9 65e7 f0bb f409 aebb af16 9e3c
00000120: b273 7aba 7016 073b a029 a2bc dd8a b8bb
00000130: 8ba9 273b 83de a6bc 075f 1dbc 36a8 39bc
00000140: 92d6 2ebb 2c7f 40bc 5b48 02bc 67eb d83b
00000150: db4e 67bc 70af 1b3b a60b 0d3a 13ca 1a3c
00000160: eb83 9b3c b6cc b3bb d960 0fbc 1376 42bc
00000170: 5f00 bb3a 0801 5bbc ca36 493c 261f 913b
00000180: f505 223b d7bd d13b d7ee f7bb fb6c 27b9
00000190: 4510 7b3b dbb3 603b 9327 f7bb 2fac 8fbb
000001a0: e727 64bc 9750 a53a 54e6 3e3c 7779 393c
000001b0: 9da6 003c b75d 86bb d2ea b73b 5617 05bc
000001c0: e1a8 85bc faf1 3dbc e2a2 75bc 77a6 43bc
000001d0: 271f 5f3a 0350 153c d5d5 03bb d727 393c
000001e0: 5565 633a 196b 383a 67f8 1dbb 0ddd ed3a
000001f0: e3a2 5e3b 4d62 9f3b 8df3 9ebb cff4 5abc
00000200: b258 56bb f35a 21bb 2a73 8dbb 0f85 cabb
00000210: 20e3 5f3b 4421 92bc da54 0b3c 5b94 13bb
00000220: 4025 8fbc 7f2d 68bb 68d1 fbbb a6e2 923b
00000230: 23f6 13bb 97bf 0cbc f37c 293c 4b73 4cbc
00000240: 68c4 c2ba f856 52bc 2f6f 09bc 6e50 babb
00000250: 4041 a8bc f970 46bb f26b 72bc 5d0b 1e3c
00000260: 27ed d3bb 60da 58ba 0050 dcbb 8917 c4b9
00000270: 8deb 153c 9f10 b33c 8f37 0cbc 0bce 2e3a
00000280: 620d c6bb 9306 6c3a 53d8 803c 03d7 d9ba
00000290: 9750 a73b 9788 f7ba b79d f23a 0052 023b
000002a0: d7d0 9d3b a85a 99b9 a229 73ba 4726 a13a
000002b0: 68e9 ab3b 002a cebb 59fd a6bb 7875 47bc
000002c0: 2f56 1cbc 903c f6bb 454c f1bb df0c c0bb
000002d0: e0d2 6dbc c8c8 763b 1d38 7cbb fbdd 7fbb
000002e0: a124 893a ac21 103a e332 053b 4a23 aa3a
000002f0: bbfd bfbb 37b2 61bc 7def c739 0249 7939
00000300: d5c1 163b fb90 683b c558 2bbc db73 afbb
00000310: 6b67 cf3a 7d59 7d3c 770e 28bb 1fba 213c
00000320: a55c 65ba ae07 98bc 6aee e9bb 5803 97bc
00000330: 0ac6 2b3a 5b70 d1ba 71a6 843c 5517 0cbb
00000340: 8690 903c 0704 6b3c a2da 6b3b 97df ce3b
00000350: 9215 f139 2888 9cbc db18 1abc 689d 843c
00000360: b60a 293c e5c6 adb8 53fe 303c 2a77 0d38
00000370: 3b4e d63a 116a a03c d6b5 9e3a 7701 5d3b
00000380: 1377 583b c5ac eabb 0771 1e3c 6fc1 33bc
00000390: 1265 3cbb 4e06 24bb 2549 283b f253 37bc
000003a0: 0f01 a53a b7d9 8ebb 1d5d 64bb 1fd0 87ba
000003b0: 481b 9bbb a91b 203c 9797 dbbb 528d f3ba
000003c0: 2ae9 57bc 021a 60bc 0f2e 553b 664c abba
000003d0: c807 1a3b 0b52 1c3c 0e40 973a af1e b9bb
000003e0: 726a 86bb c355 103c d19c c43a f7cd 353c
000003f0: 18fa e8bb 73e9 26bc 19fd 993b 71a0 46bc

action_model._discrete_distribution.branches.1.bias f4 [2]
0.0 0.0
00000000: 0000 0000 0000 0000

network_body._body_endoder.seq_layers.0.weight f4 [128, 6]
-0.18427041 0.034659278 -0.90542287 0.5360986 0.050519474 -0.3509775 0.25855312 -0.6450032
-0.19739775 -0.41838154 0.056606524 0.3503659 0.6661069 0.30876547 0.2562586 0.14040267
-0.45864263 -0.32983685 0.09253252 -0.09382317 0.62663215 -1.1991677 0.24853748 0.31554943
0.17879507 0.36133134 -0.40731147 -0.33299562 0.36844158 0.005910434 -0.26290357 -0.25300127
-0.21958931 0.16130756 -0.52681553 0.37627673 0.06725309 0.04025465 -0.1131206 -0.05769603
0.59710103 -0.28710356 -1.0483001 0.107757315 -0.08354417 0.9390063 0.14533116 -0.5170516
0.08336924 -0.015345426 0.67998445 0.39690498 -0.123613074 -0.6478328 0.18473382 0.50033915
-0.15833923 0.040694766 -0.5419725 0.22457322 0.59695935 -0.1811843 -0.101313405 -0.5977476
0.13450742 0.12548216 -0.37408888 0.02428935 -0.50724864 0.02445937 -0.0072618844 0.04905738
-0.46710894 0.8639068 0.9814893 0.1898641 -0.18887626 0.41312414 -0.41031733 -0.42824396
0.3479204 0.22882703 -0.16954765 0.27608258 0.24367604 0.24153367 0.2177218 0.39971292
-0.13541912 -0.22643176 0.41779712 -0.102251455 -0.7891931 -0.57176566 0.16631685 0.5727688
0.4742917 -0.7768912 0.68195635 -0.10817777 -0.39812014 0.23065375 0.13378814 0.63081026
-0.27794087 0.22000186 0.018167399 -0.53695154 -0.8649933 0.58563256 -0.2746933 0.31335953
-0.12128797 0.04197563 -0.13986242 0.21544327 -0.2725724 -0.25614026 0.28217158 -0.09353259
0.21142909 0.010082652 -0.23541674 0.57998097 0.21673904 0.11765606 0.6418157 0.20061097
-0.064531095 -0.15624961 0.010181486 -0.76475984 -0.5057636 0.33998027 -0.11966791 -0.33389315
-0.55487216 0.28752437 0.5481947 -0.1804685 -0.78931636 0.043861732 -0.5107689 -0.081096634
0.5621753 0.42201212 0.0020990232 0.37769058 -0.29429153 -0.8340028 0.14711517 0.09073834
-0.028642574 0.48265594 -0.021866523 -0.62736464 -0.56862926 0.034646735 -0.08158457 -0.11945948
-0.11312615 0.048211247 0.08600042 -0.35920325 0.23661338 -0.28582594 0.42533335 -0.65120095
-0.75319225 -0.21291122 -0.5536018 -0.828546 0.33239362 -0.6225046 -0.68681204 -0.9065108
0.17478816 0.3543778 -0.17905258 -0.23666804 -0.5275355 0.24748676 0.04622655 -0.092951804
-0.2501506 0.8134203 0.16578864 -0.668566 0.23335338 0.6900266 -0.33397478 0.41522622
-0.12722811 -0.7631306 -0.21648398 0.16030858 0.14533359 -0.09597019 -0.60390687 -0.29291818
0.050243642 0.7796481 -0.3152937 -0.49532056 -0.88670266 -0.67823917 0.10076153 -0.4662326
0.2402857 0.23149966 0.26676238 0.3406338 -0.47707862 -0.19261713 1.0466156 -1.0867378
0.8130128 -0.52621377 -0.5899914 0.23115608 0.50371116 -0.105793506 -0.21452367 0.41004607
0.15597849 -0.18575533 -0.45754042 0.68012196 0.43775043 -0.7161948 -0.016127657 0.34155276
-0.4605418 0.47566167 -0.38371453 0.5515504 0.2845889 0.6285141 -0.5652644 -0.50828767
0.38548335 -0.6878448 0.38589227 -0.104394056 -0.12725875 -0.2523405 -0.4802002 -0.2939525
-0.10754928 0.30241504 -0.4255657 -0.51138103 0.0031862918 0.07892762 0.24474365 -0.4108436
00000000: 62b1 3cbe e3f6 0d3d cbc9 67bf c23d 093f
00000010: 82ed 4e3d 53b3 b3be 1361 843e ee1e 25bf
00000020: a322 4abe 1b36 d6be 3edc 673d 2963 b33e
00000030: fb85 2a3f 8216 9e3e 5434 833e b8c5 0f3e
00000040: 35d3 eabe 60e0 a8be b181 bd3d 5d26 c0bd
00000050: f76a 203f 547e 99bf 9c80 7e3e b28f a13e
00000060: 0e16 373e 6c00 b93e 218b d0be 677e aabe
00000070: 60a4 bc3e 50ac c13b 4c9b 86be 6289 81be
00000080: 05dc 60be cf2d 253e 62dd 06bf 58a7 c03e
00000090: fdbb 893d 0fe2 243d c6ab e7bd ac52 6cbd
000000a0: 9ddb 183f 3dff 92be b32e 86bf deaf dc3d
000000b0: 3519 abbd b862 703f b1d1 143e 7e5d 04bf
000000c0: 7ebd aa3d 626b 7bbc 7613 2e3f 2137 cb3e
000000d0: da28 fdbd 5fd8 25bf dd2a 3d3e 3a16 003f
000000e0: ae23 22be 8eaf 263d b6be 0abf 86f6 653e
000000f0: 54d2 183f 6188 39be 677d cfbd fd05 19bf
00000100: 50bc 093e 657e 003e 9488 bfbe 75fa c63c
00000110: 0cdb 01bf 045f c83c 1af5 edbb 64f0 483d
00000120: e728 efbe ff28 5d3f e242 7b3f bc6b 423e
00000130: c768 41be 0285 d33e 1d15 d2be cb42 dbbe
00000140: 9f22 b23e a251 6a3e e69d 2dbe b25a 8d3e
00000150: 3686 793e 9a54 773e 77f2 5e3e 2ca7 cc3e
00000160: 4fab 0abe badd 67be 81e9 d53e 3669 d1bd
00000170: 8f08 4abf 3c5f 12bf f74e 2a3e faa0 123f
00000180: 5dd6 f23e 57e2 46bf b194 2e3f 4f8c ddbd
00000190: 67d6 cbbe 7f30 6c3e c2ff 083e c87c 213f
000001a0: 444e 8ebe 2b48 613e ccd3 943c a875 09bf
000001b0: 3370 5dbf 04ec 153f 9aa4 8cbe a970 a03e
000001c0: d465 f8bd a3ee 2b3d 1838 0fbe 299d 5c3e
000001d0: 9c8e 8bbe d124 83be cb78 903e 048e bfbd
000001e0: de80 583e b531 253c 1611 71be a279 143f
000001f0: d7f0 5d3e a9f5 f03d 094e 243f f66c 4d3e
00000200: e128 84bd e6ff 1fbe 3fd0 263c 4dc7 43bf
00000210: b979 01bf e511 ae3e 7314 f5bd 0bf4 aabe
00000220: 1a0c 0ebf 6536 933e 7d56 0c3f bccc 38be
00000230: a310 4abf 5ca8 333d c0c1 02bf fe15 a6bd
00000240: b8ea 0f3f f911 d83e c48f 093b a960 c13e
00000250: 61ad 96be 3581 55bf 5ca5 163e 06d5 b93d
00000260: d5a3 eabc ae1e f73e 6c21 b3bc f89a 20bf
00000270: b091 11bf bce9 0d3d d015 a7bd 2ca7 f4bd
00000280: afae e7bd 2879 453d fd20 b03d 7de9 b7be
00000290: c74a 723e c757 92be 4bc5 d93e 1bb5 26bf
000002a0: 35d1 40bf 6605 5abe d9b8 0dbf 971b 54bf
000002b0: 7f2f aa3e 765c 1fbf ead2 2fbf 1711 68bf
000002c0: abfb 323e 0271 b53e 8f59 37be 1b59 72be
000002d0: 910c 07bf 2b6d 7d3e 0d58 3d3d 845d bebd
000002e0: bd13 80be 503c 503f 7fc4 293e 2427 2bbf
000002f0: 30f4 6e3e 95a5 303f befe aabe 8898 d43e
00000300: 1648 02be 875c 43bf faad 5dbe ef27 243e
00000310: 54d2 143e 058c c4bd a499 1abf 5ff9 95be
00000320: 47cc 4d3d 0597 473f 2d6e a1be a89a fdbe
00000330: f2fe 62bf 15a1 2dbf 105c ce3d 0ab6 eebe
00000340: 740d 763e 3f0e 6d3e 1495 883e 8e67 ae3e
00000350: a643 f4be 6d3d 45be 80f7 853f 391a 8bbf
00000360: 9b21 503f f2b5 06bf ad09 17bf 2eb4 6c3e
00000370: 37f3 003f 44aa d8bd 18ac 5bbe 8ff1 d13e
00000380: d3b8 1f3e a536 3ebe bd42 eabe 791c 2e3f
00000390: d320 e03e 8b58 37bf 261e 84bc 01e0 ae3e
000003a0: 23cc ebbe ed89 f33e 3b76 c4be 6832 0d3f
000003b0: a3b5 913e 4de6 203f 2bb5 10bf 241f 02bf
000003c0: 135e c53e 9916 30bf ac93 c53e 8dcc d5bd
000003d0: 1e50 02be c632 81be cddc f5be f180 96be
000003e0: cc42 dcbd 25d6 9a3e bfe3 d9be dee9 02bf
000003f0: 1bd1 503b cea4 a13d 149e 7a3e 185a d2be

network_body._body_endoder.seq_layers.0.bias f4 [128]
0.0 0.0 0.0 0.0 0.0 0.0 0.0 0.0
0.0 0.0 0.0 0.0 0.0 0.0 0.0 0.0
0.0 0.0 0.0 0.0 0.0 0.0 0.0 0.0
0.0 0.0 0.0 0.0 0.0 0.0 0.0 0.0
0.0 0.0 0.0 0.0 0.0 0.0 0.0 0.0
0.0 0.0 0.0 0.0 0.0 0.0 0.0 0.0
0.0 0.0 0.0 0.0 0.0 0.0 0.0 0.0
0.0 0.0 0.0 0.0 0.0 0.0 0.0 0.0
0.0 0.0 0.0 0.0 0.0 0.0 0.0 0.0
0.0 0.0 0.0 0.0 0.0 0.0 0.0 0.0
0.0 0.0 0.0 0.0 0.0 0.0 0.0 0.0
0.0 0.0 0.0 0.0 0.0 0.0 0.0 0.0
0.0 0.0 0.0 0.0 0.0 0.0 0.0 0.0
0.0 0.0 0.0 0.0 0.0 0.0 0.0 0.0
0.0 0.0 0.0 0.0 0.0 0.0 0.0 0.0
0.0 0.0 0.0 0.0 0.0 0.0 0.0 0.0
00000000: 0000 0000 0000 0000 0000 0000 0000 0000
00000010: 0000 0000 0000 0000 0000 0000 0000 0000
00000020: 0000 0000 0000 0000 0000 0000 0000 0000
00000030: 0000 0000 0000 0000 0000 0000 0000 0000
00000040: 0000 0000 0000 0000 0000 0000 0000 0000
00000050: 0000 0000 0000 0000 0000 0000 0000 0000
00000060: 0000 0000 0000 0000 0000 0000 0000 0000
00000070: 0000 0000 0000 0000 0000 0000 0000 0000
00000080: 0000 0000 0000 0000 0000 0000 0000 0000
00000090: 0000 0000 0000 0000 0000 0000 0000 0000
000000a0: 0000 0000 0000 0000 0000 0000 0000 0000
000000b0: 0000 0000 0000 0000 0000 0000 0000 0000
000000c0: 0000 0000 0000 0000 0000 0000 0000 0000
000000d0: 0000 0000 0000 0000 0000 0000 0000 0000
000000e0: 0000 0000 0000 0000 0000 0000 0000 0000
000000f0: 0000 0000 0000 0000 0000 0000 0000 0000
00000100: 0000 0000 0000 0000 0000 0000 0000 0000
00000110: 0000 0000 0000 0000 0000 0000 0000 0000
00000120: 0000 0000 0000 0000 0000 0000 0000 0000
00000130: 0000 0000 0000 0000 0000 0000 0000 0000
00000140: 0000 0000 0000 0000 0000 0000 0000 0000
00000150: 0000 0000 0000 0000 0000 0000 0000 0000
00000160: 0000 0000 0000 0000 0000 0000 0000 0000
00000170: 0000 0000 0000 0000 0000 0000 0000 0000
00000180: 0000 0000 0000 0000 0000 0000 0000 0000
00000190: 0000 0000 0000 0000 0000 0000 0000 0000
000001a0: 0000 0000 0000 0000 0000 0000 0000 0000
000001b0: 0000 0000 0000 0000 0000 0000 0000 0000
000001c0: 0000 0000 0000 0000 0000 0000 0000 0000
000001d0: 0000 0000 0000 0000 0000 0000 0000 0000
000001e0: 0000 0000 0000 0000 0000 0000 0000 0000
000001f0: 0000 0000 0000 0000 0000 0000 0000 0000

network_body._body_endoder.seq_layers.2.weight f4 [128, 128]
-0.014546015 0.018490234 -0.045624252 0.11120437 0.0050301063 -0.027660552 -0.13114516 0.04864547
0.00023989442 0.20664188 -0.022440618 -0.042133622 0.012945873 -0.053255636 -0.038280893 -0.044884343
-0.06453535 -0.08445699 -0.10160594 0.007951297 -0.101303935 -0.11563814 -0.064594954 0.07158783
-0.0468993 -0.011412664 0.07148174 0.20810457 -0.014343634 0.18150957 0.021933524 -0.052603543
0.1027407 0.014740344 -0.09115232 -0.04212989 -0.08337256 -0.10544233 -0.033166826 0.017459143
-0.04357337 -0.021989651 -0.010026125 0.06897616 -0.10548776 0.09169717 0.045221277 -0.0006428653
-0.040992726 -0.01940972 0.063363336 -0.10163328 -0.12426312 0.0470643 -0.058886986 0.078564316
0.13074233 -0.045094103 -0.074607305 -0.16872482 0.06927547 -0.09259042 -0.10635953 0.020649375
0.010851676 -0.042620227 0.022296308 0.17290261 -0.03186065 -0.08507581 0.068602316 0.10897226
0.12964502 0.12813587 0.04410641 0.06689824 -0.07500188 0.0048360885 -0.090233 -0.031143524
0.08325758 -0.112177335 -0.02720381 0.013214161 -0.0105180945 -0.010407344 0.124478534 0.16686681
0.11912175 -0.097466394 -0.2141306 -0.06323665 -0.07680828 -0.03189239 0.16548191 0.060969442
-0.044349372 -0.039981034 0.075832896 -0.11192359 -0.0039810683 0.113019764 -0.082602404 0.11200568
0.059350196 -0.0052256933 0.08876098 -0.020055857 -0.09388364 0.00987712 -0.110941686 0.0001900197
-0.056583665 0.034273174 -0.033080146 0.0170035 -0.14116795 0.06579897 -0.09514569 0.18010253
0.03612978 0.06399028 0.14150564 -0.0189763 -0.020683717 0.018563634 -0.010163401 -0.010842194
-0.07924716 0.078727126 0.14002928 -0.00837309 0.055675168 0.034924872 -0.042404745 -0.1997271
-0.08447471 -0.03983828 -0.055247042 -0.10246693 0.07297622 0.038145423 0.06522878 -0.022610832
0.05527772 0.016184572 -0.13721272 0.010986727 -0.15273337 -0.13315448 -0.05341332 0.08537636
0.0059837825 0.021240503 0.21627605 0.029850502 -0.007836025 0.038901422 -0.12252717 0.049885232
0.022985417 -0.008125325 0.01621949 -0.16287203 0.07435066 0.03430322 0.057997525 -0.0400655
0.067006 -0.09519642 0.055643823 -0.027989263 0.022872098 0.00043910186 0.16867405 -0.0483761
0.08902066 -0.15034065 0.014891984 0.121317476 -0.103893206 0.086522065 -0.012275444 0.04462287
0.018138723 -0.065662414 -0.021650033 0.00026047498 -0.061508182 0.14178413 0.18642446 0.046624035
-0.0014156045 -0.12219889 -0.0028381452 0.013815535 -0.05820931 -0.00954194 -0.015546966 -0.13796626
-0.16527498 0.12367088 0.049393266 -0.120474 0.044096507 0.06247911 0.093033195 -0.00556351
0.05480809 0.15000334 -0.14514086 -0.029526738 -0.09688343 0.064755715 -0.18416548 -0.045456372
0.06648843 -0.06181873 -0.09056728 0.0016581417 0.09808079 -0.06246513 0.035447806 0.093721546
0.088154785 -0.010466058 0.09914033 0.13097155 0.06422998 0.08996656 -0.10420081 0.014677495
0.11567298 0.10526968 0.07348088 -0.009837321 0.014806974 -0.05844899 -0.05214741 0.025932863
0.047586087 -0.10006484 -0.05840805 -0.2716659 0.007969828 -0.03766699 0.24744861 -0.016361052
0.027796442 0.123896405 -0.18940216 -0.045029555 -0.118399486 -0.03377286 0.051249124 -0.10038834
00000000: 6952 6ebc d578 973c 7fe0 3abd 1ebf e33d
00000010: 97d3 a43b 6298 e2bc eb4a 06be 7940 473d
00000020: 2b8c 7b39 ee99 533e 63d5 b7bc 4e94 2cbd
00000030: ed1a 543c 9522 5abd 6dcc 1cbd a5d8 37bd
00000040: 1c2b 84bd c9f7 acbd c616 d0bd 2846 023c
00000050: 7078 cfbd b0d3 ecbd 5c4a 84bd a49c 923d
00000060: 7b19 40bd 2ffc 3abc 0565 923d 5d19 553e
00000070: 9001 6bbc a5dd 393e efad b33c d076 57bd
00000080: b769 d23d 7c81 713c 11ae babd 6490 2cbd
00000090: 3cbf aabd 26f2 d7bd f0d9 07bd 7a06 8f3c
000000a0: fd79 32bd a423 b4bc 9e44 24bc 5f43 8d3d
000000b0: f709 d8bd bacb bb3d f239 393d f685 28ba
000000c0: fde7 27bd 2201 9fbc a3c4 813d 1c25 d0bd
000000d0: aa7d febd 7fc6 403d 7b33 71bd 54e6 a03d
000000e0: 51e1 053e 98b4 38bd b7cb 98bd 33c6 2cbe
000000f0: 4ce0 8d3d 0ca0 bdbd 06d3 d9bd e128 a93c
00000100: 3acb 313c 8c92 2ebd bfa6 b63c 620d 313e
00000110: 5080 02bd 3a3c aebd 5f7f 8c3d d92c df3d
00000120: aac1 043e 0d36 033e eca8 343d f201 893d
00000130: 969a 99bd 0d78 9e3b 14cc b8bd b420 ffbc
00000140: f382 aa3d 3bbd e5bd 86da debc 3580 583c
00000150: 1654 2cbc 9183 2abc 9aee fe3d 22df 2a3e
00000160: 1bf6 f33d 769c c7bd 0d45 5bbe 3782 81bd
00000170: a94d 9dbd 98a1 02bd 1774 293e 18bb 793d
00000180: b0a7 35bd 27c3 23bd 474e 9b3d 3238 e5bd
00000190: 9f73 82bb e876 e73d 732b a9bd 3c63 e53d
000001a0: 3119 733d 4b3c abbb 51c8 b53d 2e4c a4bc
000001b0: 1146 c0bd a5d3 213c 6535 e3bd 0640 4739
000001c0: 46c4 67bd 0762 0c3d 0c7f 07bd ed4a 8b3c
000001d0: 558e 10be 9cc1 863d bedb c2bd cc6c 383e
000001e0: d2fc 133d 560d 833d dbe6 103e 2f74 9bbc
000001f0: e670 a9bc c312 983c 6584 26bc 75a3 31bc
00000200: 564c a2bd b03b a13d d663 0f3e 492f 09bc
00000210: a50b 643d 620d 0f3d 99b0 2dbd 4385 4cbe
00000220: 1401 adbd 772d 23bd b94a 62bd 2fda d1bd
00000230: 8e74 953d 603e 1c3d ab96 853d 5a3a b9bc
00000240: e46a 623d 8295 843c 7e81 0cbe ac01 343c
00000250: 2366 1cbe a659 08be edc7 5abd cdd9 ae3d
00000260: 9b13 c43b 9000 ae3c 7877 5d3e 0a89 f43c
00000270: ac62 00bc 1957 1f3d 86ef fabd 7554 4c3d
00000280: ea4b bc3c 1520 05bc bcde 843c edc7 26be
00000290: 2945 983d 8981 0c3d d08e 6d3d b91b 24bd
000002a0: 713a 893d 57f6 c2bd c7ea 633d bd49 e5bc
000002b0: 445e bb3c 4137 e639 e4b8 2c3e 0426 46bd
000002c0: 7750 b63d e6f2 19be 82fd 733c 4c75 f83d
000002d0: f6c5 d4bd 7b32 b13d f21e 49bc 78c6 363d
000002e0: a997 943c 047a 86bd 695b b1bc 5c90 8839
000002f0: 01f0 7bbd dc2f 113e 0ee6 3e3e d8f8 3e3d
00000300: ce8b b9ba 6943 fabd 2d00 3abb 8e5a 623c
00000310: e36c 6ebd cc55 1cbc b4b8 7ebc 0747 0dbe
00000320: d83d 29be 2947 fd3d 9850 4a3d 13bb f6bd
00000330: 8a9e 343d 18ea 7f3d 3088 be3d 1b4e b6bb
00000340: 737e 603d 7a9a 193e ce9f 14be 0fe2 f1bc
00000350: d26a c6bd a59e 843d e095 3cbe 7630 3abd
00000360: 162b 883d a335 7dbd 577b b9bd 0156 d93a
00000370: 95de c83d 70db 7fbd b831 113d 15f1 bf3d
00000380: 7f8a b43d d479 2bbc 160a cb3d 681d 063e
00000390: 028b 833d 6340 b83d 3c67 d5bd e079 703c
000003a0: f5e5 ec3d a197 d73d 257d 963d b72c 21bc
000003b0: f398 723c 3568 6fbd 8698 55bd 2871 d43c
000003c0: a1e9 423d cbee ccbd 483d 6fbd cb17 8bbe
000003d0: e293 023c b448 1abd 2b63 7d3e 9d07 86bc
000003e0: 5db5 e33c 66bd fd3d a4f2 41be e970 38bd
000003f0: 6e7b f2bd 6955 0abd 9aea 513d 6798 cdbd

network_body._body_endoder.seq_layers.2.bias f4 [128]
0.0 0.0 0.0 0.0 0.0 0.0 0.0 0.0
0.0 0.0 0.0 0.0 0.0 0.0 0.0 0.0
0.0 0.0 0.0 0.0 0.0 0.0 0.0 0.0
0.0 0.0 0.0 0.0 0.0 0.0 0.0 0.0
0.0 0.0 0.0 0.0 0.0 0.0 0.0 0.0
0.0 0.0 0.0 0.0 0.0 0.0 0.0 0.0
0.0 0.0 0.0 0.0 0.0 0.0 0.0 0.0
0.0 0.0 0.0 0.0 0.0 0.0 0.0 0.0
0.0 0.0 0.0 0.0 0.0 0.0 0.0 0.0
0.0 0.0 0.0 0.0 0.0 0.0 0.0 0.0
0.0 0.0 0.0 0.0 0.0 0.0 0.0 0.0
0.0 0.0 0.0 0.0 0.0 0.0 0.0 0.0
0.0 0.0 0.0 0.0 0.0 0.0 0.0 0.0
0.0 0.0 0.0 0.0 0.0 0.0 0.0 0.0
0.0 0.0 0.0 0.0 0.0 0.0 0.0 0.0
0.0 0.0 0.0 0.0 0.0 0.0 0.0 0.0
00000000: 0000 0000 0000 0000 0000 0000 0000 0000
00000010: 0000 0000 0000 0000 0000 0000 0000 0000
00000020: 0000 0000 0000 0000 0000 0000 0000 0000
00000030: 0000 0000 0000 0000 0000 0000 0000 0000
00000040: 0000 0000 0000 0000 0000 0000 0000 0000
00000050: 0000 0000 0000 0000 0000 0000 0000 0000
00000060: 0000 0000 0000 0000 0000 0000 0000 0000
00000070: 0000 0000 0000 0000 0000 0000 0000 0000
00000080: 0000 0000 0000 0000 0000 0000 0000 0000
00000090: 0000 0000 0000 0000 0000 0000 0000 0000
000000a0: 0000 0000 0000 0000 0000 0000 0000 0000
000000b0: 0000 0000 0000 0000 0000 0000 0000 0000
000000c0: 0000 0000 0000 0000 0000 0000 0000 0000
000000d0: 0000 0000 0000 0000 0000 0000 0000 0000
000000e0: 0000 0000 0000 0000 0000 0000 0000 0000
000000f0: 0000 0000 0000 0000 0000 0000 0000 0000
00000100: 0000 0000 0000 0000 0000 0000 0000 0000
00000110: 0000 0000 0000 0000 0000 0000 0000 0000
00000120: 0000 0000 0000 0000 0000 0000 0000 0000
00000130: 0000 0000 0000 0000 0000 0000 0000 0000
00000140: 0000 0000 0000 0000 0000 0000 0000 0000
00000150: 0000 0000 0000 0000 0000 0000 0000 0000
00000160: 0000 0000 0000 0000 0000 0000 0000 0000
00000170: 0000 0000 0000 0000 0000 0000 0000 0000
00000180: 0000 0000 0000 0000 0000 0000 0000 0000
00000190: 0000 0000 0000 0000 0000 0000 0000 0000
000001a0: 0000 0000 0000 0000 0000 0000 0000 0000
000001b0: 0000 0000 0000 0000 0000 0000 0000 0000
000001c0: 0000 0000 0000 0000 0000 0000 0000 0000
000001d0: 0000 0000 0000 0000 0000 0000 0000 0000
000001e0: 0000 0000 0000 0000 0000 0000 0000 0000
000001f0: 0000 0000 0000 0000 0000 0000 0000 0000
