results/ppo/Player Behaviour/checkpoint.pt (torch, 153007 bytes, 15 tensors)

discrete_act_size_vector f4 [1, 2]
000000 00 00 40 40 00 00 00 40
       3.0 2.0

network_body._body_endoder.seq_layers.0.weight f4 [128, 6]
000000 b8 f9 9a 3e 3e 48 07 3e 4d 0f 8e 3e b6 60 66 bf
       0.30268645 0.13211152 0.2774605 -0.8999132
000010 1b 7b 01 3e c2 36 f6 3e 25 3d f5 3c 90 02 05 3f
       0.12644617 0.48088652 0.029936383 0.51957035
000020 e2 f9 1d 3f 25 7b 06 3f 78 22 07 bf d7 a8 7a be
       0.61709416 0.52531654 -0.5278697 -0.2447847
000030 c9 3a 5a 3f a8 aa 9d 3e d7 79 cb 3e 05 84 8b 3c
       0.8524595 0.30794263 0.39741394 0.017030725
000040 76 c4 ee 3e 15 cc 5d 3e fb 2e 88 be 87 fd fc 3e
       0.46634263 0.21659882 -0.26598343 0.49412176
000050 72 58 2c bc ff 05 97 be bb c9 16 bd 7f 84 60 3c
       -0.010519134 -0.29496762 -0.03681348 0.0137034645
000060 0e 0d b9 be dd ad 7a be 3b 1e 8e 3e 99 5c ce b8
       -0.36142772 -0.24480386 0.2775744 -9.840093e-05
000070 54 90 b6 3d 0b 1e b0 bd 35 78 c8 3d c1 2e 9e be
       0.08914247 -0.0859948 0.09788553 -0.30895045
000080 6a e3 36 3e 4d c5 d5 bd 20 b0 e2 be 43 e9 ab 3e
       0.17860189 -0.10438023 -0.44274998 0.33576402
000090 68 68 19 3f 1f 3c 0d 3f 0f 9a 7d 3f df 23 cd bd
       0.59924936 0.5516986 0.990632 -0.100166075
0000a0 be 53 39 bf b2 f2 ba be 98 f4 2b be 5c eb 00 3f
       -0.72393405 -0.36513287 -0.16792524 0.5035913
0000b0 cd ed dc be 1b 9b 94 3f 0f c6 39 3e 06 da 1d 3e
       -0.43150178 1.1609834 0.1814196 0.154152
0000c0 be e5 ef be 38 dc 3b 3f e8 3b 7d bd 0f 95 e5 3d
       -0.46854967 0.733829 -0.06182471 0.11210071
0000d0 6b d7 9f be 96 6e 92 3d 2d 08 d2 bd 44 38 77 bd
       -0.31219038 0.07149999 -0.10255466 -0.060356393
0000e0 96 80 c1 3d 02 9a 8c be 85 fc 15 3f e3 09 7d 3e
       0.09448354 -0.2746125 0.5858844 0.24710803
0000f0 c5 09 7c be 86 9a ae be 47 ae 00 bf 30 3e cf be
       -0.24613102 -0.34102267 -0.50265926 -0.40477133
000100 bb 3a 72 be 00 53 ad bd f8 36 98 3e f2 95 46 be
       -0.23655216 -0.084630966 0.29729438 -0.19393137
000110 3b 6d c6 3e b1 5f ac be 0c 45 1c bf 1e 09 8c 3e
       0.3875521 -0.33666757 -0.6104286 0.27350706
000120 bf b9 26 3e 72 2b 6b 3e 43 b8 71 3e a4 2c 58 bd
       0.16281794 0.22965792 0.23605447 -0.052776948
000130 4c e6 c7 3d c4 3a 06 3e 3f f0 98 3d 8e fb 3c 3e
       0.097607225 0.13108355 0.07467698 0.18455335
000140 6f 6b 6b be 88 ba 3c be d7 f8 0d 3f e9 51 17 3e
       -0.22990201 -0.18430531 0.55457824 0.1477734
000150 fd 6c 29 bf 01 bb 8e 3d 3b 17 60 bf 51 2d 1d 3c
       -0.6618193 0.06969262 -0.87535447 0.009593324
000160 43 2c 80 3e 2d 91 cd be 59 a5 c7 3e fe b7 ab 3e
       0.2503377 -0.40149823 0.38993338 0.33538812
000170 ca d0 74 be 75 ca cd 3e c1 50 46 3e 02 1e 1c be
       -0.23907772 0.40193525 0.19366743 -0.15245822
000180 8c fe d1 be b8 5f 3e 3f 28 f6 13 be 88 4d ec bc
       -0.41014516 0.74364805 -0.1444937 -0.028845564
000190 08 18 45 bf f3 63 d4 3e 92 bf a3 3d 7b ed ed 3c
       -0.76989794 0.41482505 0.079955235 0.029043904
0001a0 f3 15 60 3e 3a 32 a8 be 66 7f 36 3f d1 b6 ec bc
       0.21883373 -0.3285082 0.71288145 -0.028895767
0001b0 c9 79 0a 3f 52 77 97 bf ed 77 05 bf b4 68 29 be
       0.5409208 -1.1833289 -0.5213612 -0.16543847
0001c0 58 ee e3 3e 17 68 9d be d9 c1 14 bd 58 97 5c 3e
       0.4451778 -0.30743477 -0.03631768 0.21542108
0001d0 a5 81 78 3e d6 c9 bc be 09 d9 f2 3e 07 f3 ce 3e
       0.24268205 -0.3687274 0.4743121 0.4041979
0001e0 dd 4d ec 3e 51 f3 54 3e ba d2 71 3f 6d ed 6a 3f
       0.46153155 0.20795943 0.9446217 0.91768533
0001f0 07 11 b5 be 2f 89 6e 3e b2 7a d5 3d 1a 12 02 3e
       -0.35364553 0.23294519 0.10423793 0.12702218
000200 09 7b 96 3e d2 6b f0 be d3 49 95 bd c7 96 e9 3e
       0.29390743 -0.4695726 -0.072894715 0.45622846
000210 5d 88 53 be e4 2c ff 3e 18 af 1a 3f 9f 6f b7 3e
       -0.20657487 0.49838936 0.6042342 0.35827348
000220 13 06 0a 3e 88 68 a8 bd cb 66 f5 bd 03 e3 6d 3e
       0.1347888 -0.08223063 -0.11982497 0.2323113
000230 c4 85 21 3f 5f 0c b7 bd 34 8b 19 be de f8 23 3d
       0.63094735 -0.089379065 -0.14994508 0.04003226
000240 0f ec 9e bd 40 c7 95 3d 92 01 d6 3e c0 c6 a2 3e
       -0.07759868 0.073133945 0.41798073 0.3179226
000250 35 f6 fc 3e be fd de be fd a6 ba be 66 ae 7d 3e
       0.4940659 -0.43552965 -0.36455527 0.24773559
000260 27 82 6c be c8 06 8a bd a2 bd 18 bf 51 1f 2d be
       -0.23096524 -0.06739575 -0.59664357 -0.16906478
000270 96 a8 2b bf b7 84 ec 3e f4 42 e9 3d eb 9b 0b 3e
       -0.67054117 0.46195003 0.113897234 0.13633697
000280 fb 61 b1 bd 7e d2 31 3f c4 bc ef be b0 ae 8b bd
       -0.086612664 0.6946181 -0.46823704 -0.06820428
000290 4f f8 b9 bd c6 14 2f bc 97 b8 0f 3e 0f b6 38 bf
       -0.09080564 -0.010686105 0.14035259 -0.721528
0002a0 0e b1 e3 3e 98 f4 cc 3d a2 00 82 3f 10 61 8c 3e
       0.4447102 0.1000759 1.0156443 0.27417803
0002b0 8e ba eb bc 6c 2b c9 be 1b 1b 88 bd 15 74 56 be
       -0.02877548 -0.3929094 -0.06645795 -0.2094272
0002c0 0c d2 7c 3c 41 b0 e5 be c6 60 30 bf 99 da c9 3d
       0.015430938 -0.44861034 -0.68897665 0.09856147
0002d0 a1 d2 9a 3e 0e 01 35 3e d7 4e af be 0b ee 41 3f
       0.30238822 0.17676184 -0.34239838 0.7575385
0002e0 54 2f 36 3e b7 f4 0b bd 96 aa ce be 9e e6 b2 be
       0.17791492 -0.034168925 -0.40364522 -0.34941572
0002f0 c0 e7 3f be 03 6f a2 3e 28 a0 a5 be 23 59 a9 3e
       -0.1874075 0.3172532 -0.32348752 0.33075818
000300 98 5c 67 3d b9 e1 07 3c 93 4c 1b 3f 0d d4 ce 3d
       0.05648479 0.008293563 0.6066372 0.10099039
000310 c1 41 9d be 37 41 40 3e 7e 0d 10 3f 90 59 29 3e
       -0.3071423 0.18774877 0.5627059 0.16538072
000320 2e 3a ce 3c b7 29 97 3e a3 df 7b 3f 71 e1 ed 3b
       0.025174227 0.29524013 0.9838812 0.0072595407
000330 6d df 62 be a5 7d 66 3e a6 2a 38 3e b1 53 0e 3f
       -0.22155543 0.22508867 0.17985019 0.5559645
000340 b0 cb 00 3f 5b b0 03 be 60 09 25 bf 5c 2a 8e bc
       0.503108 -0.12860243 -0.6446743 -0.017354183
000350 7b c9 b8 3e b3 c2 40 be 64 c3 d5 be ad b4 56 3d
       0.36091217 -0.18824272 -0.41750634 0.0524184
000360 f7 98 8c be fd bc 6f bd 06 76 18 be 0a f0 0b bf
       -0.27460453 -0.058529843 -0.14888772 -0.54663146
000370 71 f5 34 be 23 1d a7 3d 7d 3f c6 3e 3c 8e 3f 3e
       -0.17671753 0.08159854 0.38720313 0.18706602
000380 75 bb c0 be d7 f5 90 be 60 ac 7b be 91 f1 cc bb
       -0.37643018 -0.2831256 -0.24577475 -0.006254383
000390 b7 cd e1 bd 11 d3 b7 3e df 0c c3 be 8c b8 b6 3e
       -0.11025565 0.35903218 -0.38095757 0.35687673
0003a0 d2 72 5f 3f 58 ac be 3e 14 80 53 bc 93 0b 70 bf
       0.87284577 0.37240863 -0.012908954 -0.9376766
0003b0 bc 1c 62 bf c4 87 00 bf 70 1a 98 3d 60 20 b6 be
       -0.88325095 -0.5020716 0.074269176 -0.35571575
0003c0 ff 37 ea 3e 33 b9 23 3f 55 2f 56 bf 21 99 2b be
       0.45745847 0.63954467 -0.8366597 -0.16757633
0003d0 f1 66 1d bf a8 54 30 be 28 a1 03 bf b1 5d 6b 3e
       -0.614852 -0.17219794 -0.5141778 0.22984959
0003e0 19 71 1d bf 0d 69 4f bf ff 42 13 3f 73 3c 87 be
       -0.615007 -0.8101967 0.575241 -0.26413307
0003f0 6a fc 8e 3e df 0c 55 3e 51 2f 1d bf 6c 44 5d be
       0.27926952 0.20805691 -0.61400324 -0.21608132

network_body._body_endoder.seq_layers.0.bias f4 [128]
000000 00 00 00 00 00 00 00 00 00 00 00 00 00 00 00 00
       0.0 0.0 0.0 0.0
000010 00 00 00 00 00 00 00 00 00 00 00 00 00 00 00 00
       0.0 0.0 0.0 0.0
000020 00 00 00 00 00 00 00 00 00 00 00 00 00 00 00 00
       0.0 0.0 0.0 0.0
000030 00 00 00 00 00 00 00 00 00 00 00 00 00 00 00 00
       0.0 0.0 0.0 0.0
000040 00 00 00 00 00 00 00 00 00 00 00 00 00 00 00 00
       0.0 0.0 0.0 0.0
000050 00 00 00 00 00 00 00 00 00 00 00 00 00 00 00 00
       0.0 0.0 0.0 0.0
000060 00 00 00 00 00 00 00 00 00 00 00 00 00 00 00 00
       0.0 0.0 0.0 0.0
000070 00 00 00 00 00 00 00 00 00 00 00 00 00 00 00 00
       0.0 0.0 0.0 0.0
000080 00 00 00 00 00 00 00 00 00 00 00 00 00 00 00 00
       0.0 0.0 0.0 0.0
000090 00 00 00 00 00 00 00 00 00 00 00 00 00 00 00 00
       0.0 0.0 0.0 0.0
0000a0 00 00 00 00 00 00 00 00 00 00 00 00 00 00 00 00
       0.0 0.0 0.0 0.0
0000b0 00 00 00 00 00 00 00 00 00 00 00 00 00 00 00 00
       0.0 0.0 0.0 0.0
0000c0 00 00 00 00 00 00 00 00 00 00 00 00 00 00 00 00
       0.0 0.0 0.0 0.0
0000d0 00 00 00 00 00 00 00 00 00 00 00 00 00 00 00 00
       0.0 0.0 0.0 0.0
0000e0 00 00 00 00 00 00 00 00 00 00 00 00 00 00 00 00
       0.0 0.0 0.0 0.0
0000f0 00 00 00 00 00 00 00 00 00 00 00 00 00 00 00 00
       0.0 0.0 0.0 0.0
000100 00 00 00 00 00 00 00 00 00 00 00 00 00 00 00 00
       0.0 0.0 0.0 0.0
000110 00 00 00 00 00 00 00 00 00 00 00 00 00 00 00 00
       0.0 0.0 0.0 0.0
000120 00 00 00 00 00 00 00 00 00 00 00 00 00 00 00 00
       0.0 0.0 0.0 0.0
000130 00 00 00 00 00 00 00 00 00 00 00 00 00 00 00 00
       0.0 0.0 0.0 0.0
000140 00 00 00 00 00 00 00 00 00 00 00 00 00 00 00 00
       0.0 0.0 0.0 0.0
000150 00 00 00 00 00 00 00 00 00 00 00 00 00 00 00 00
       0.0 0.0 0.0 0.0
000160 00 00 00 00 00 00 00 00 00 00 00 00 00 00 00 00
       0.0 0.0 0.0 0.0
000170 00 00 00 00 00 00 00 00 00 00 00 00 00 00 00 00
       0.0 0.0 0.0 0.0
000180 00 00 00 00 00 00 00 00 00 00 00 00 00 00 00 00
       0.0 0.0 0.0 0.0
000190 00 00 00 00 00 00 00 00 00 00 00 00 00 00 00 00
       0.0 0.0 0.0 0.0
0001a0 00 00 00 00 00 00 00 00 00 00 00 00 00 00 00 00
       0.0 0.0 0.0 0.0
0001b0 00 00 00 00 00 00 00 00 00 00 00 00 00 00 00 00
       0.0 0.0 0.0 0.0
0001c0 00 00 00 00 00 00 00 00 00 00 00 00 00 00 00 00
       0.0 0.0 0.0 0.0
0001d0 00 00 00 00 00 00 00 00 00 00 00 00 00 00 00 00
       0.0 0.0 0.0 0.0
0001e0 00 00 00 00 00 00 00 00 00 00 00 00 00 00 00 00
       0.0 0.0 0.0 0.0
0001f0 00 00 00 00 00 00 00 00 00 00 00 00 00 00 00 00
       0.0 0.0 0.0 0.0

network_body._body_endoder.seq_layers.2.weight f4 [128, 128]
000000 6f 7e 95 bd 05 55 15 bb f1 ea 35 be 07 be 27 3d
       -0.07299506 -0.0022786271 -0.17765404 0.04095271
000010 68 37 88 3e 3c 89 f6 3c 43 05 7b bd bc c7 c7 bd
       0.26604772 0.030094735 -0.061284315 -0.09754893
000020 3f 80 3d 3c eb 92 66 bd 27 f6 1f 3b e6 bd 00 3e
       0.011566221 -0.056292456 0.0024408193 0.1257244
000030 17 4b 88 3d 64 91 8d bd ba 35 91 bd ae 30 4b bd
       0.06654947 -0.06912497 -0.07090326 -0.04960697
000040 18 a3 be bd 60 1b 81 bb c8 a2 b3 3d 71 5e ed bc
       -0.093084514 -0.003940031 0.087712824 -0.028975697
000050 dc 12 10 3d 6d 6a 98 bc b0 e5 dc bc 28 e4 db 3d
       0.035174236 -0.018605435 -0.026964992 0.10736877
000060 5a 4f e5 bd a2 9c 29 be 49 5d 63 3d bf a5 c2 3d
       -0.11196776 -0.16563657 0.055508886 0.0950427
000070 78 2b fb bc 8a ca 64 3c 51 03 1a 3e 34 3a 45 bd
       -0.030660376 0.013964305 0.15040328 -0.04815121
000080 71 52 ec 3c fb b6 ed 3d 7c 4e 38 be 8f 81 b2 bd
       0.028847905 0.116071664 -0.1799869 -0.087161176
000090 e8 53 c5 3c 4f 3b 74 3c 75 06 da 3d 96 f6 62 be
       0.024087861 0.014906718 0.10645763 -0.22164378
0000a0 28 11 a0 bc 2c 40 55 3d e8 91 a3 3d 1f 1a 10 3b
       -0.01953943 0.052063152 0.07986814 0.0021988226
0000b0 75 e7 19 be 17 64 8d bd c1 b8 3d be ca aa 03 3d
       -0.150297 -0.06903856 -0.1852751 0.0321453
0000c0 1b 75 1a 3e 17 73 ae bd 1b 2f 01 3e c1 45 12 be
       0.15083735 -0.085180454 0.12615626 -0.14284422
0000d0 ff 5b 0d be 93 74 0e be 05 1d 27 bd 7a b8 5c bc
       -0.13804625 -0.13911657 -0.04079916 -0.013471717
0000e0 14 b4 8d bd f8 1a ff 3d 77 61 27 be 19 cf 9c 3d
       -0.06919113 0.12456316 -0.16345774 0.07656688
0000f0 40 8f 22 bd 09 6c ed bd 58 ca e7 3c c1 b7 4f bd
       -0.039687395 -0.11592872 0.028294727 -0.05071235
000100 0a 7d 58 bd 81 db 15 3e 07 a2 bf 3d fc 04 cb 3c
       -0.05285362 0.14634515 0.09357076 0.02478265
000110 a2 1d 83 3d dd 6d 10 3d e5 60 a0 3a b3 de a9 bd
       0.064021364 0.035261024 0.0012235908 -0.0829443
000120 f4 4e 4b 3d 8b 78 33 3e f7 e0 ce 3c ce 04 36 3c
       0.049635842 0.17526452 0.025253756 0.011109544
000130 cc f5 34 3d 4a b2 fe bd 21 fb 3c bd 09 de aa ba
       0.044179723 -0.1243635 -0.046137933 -0.0013036142
000140 1e 16 a0 bd e0 f3 c7 bd 9e ec 77 bc f2 9f 82 3d
       -0.078167185 -0.09763312 -0.0151320975 0.063781634
000150 db 61 19 3e 35 7c de 3d ce 9d 45 3e c6 95 cf 3c
       0.14978735 0.10863534 0.19298479 0.025339972
000160 21 9d 0c bc f0 bb 83 3c 4b bf 94 bd 89 a1 36 bd
       -0.008582384 0.016080827 -0.07263049 -0.044587646
000170 5c e7 19 bc a8 dc f1 3c b6 c4 fe bd 64 61 45 3d
       -0.009393539 0.029524162 -0.124398634 0.048188582
000180 51 96 3e bd 52 c1 a7 3c 1f b8 22 3e 64 81 05 3e
       -0.04653007 0.020477924 0.15890549 0.1303764
000190 f0 f4 3c 3e 7c fa d5 3d 2d b7 bd bc a7 47 50 bd
       0.18452811 0.10448167 -0.023158634 -0.050849583
0001a0 54 08 bf 3c ee 38 b3 bc 5d 15 cc 3c 9a 0b 23 3e
       0.0233194 -0.021877732 0.02491253 0.15922394
0001b0 f8 33 54 bd a1 e5 8f bd 01 0e 11 3e 2c bc 71 3d
       -0.051807374 -0.0702622 0.14165498 0.059017345
0001c0 4b 16 32 3b 9c e9 e9 bc 8b 87 06 3d e4 6c a8 3c
       0.0027173932 -0.028553776 0.032844108 0.020559736
0001d0 3f b3 a6 bc 75 6c 2d 3d 7e 2a 99 bd e9 61 30 3c
       -0.020349143 0.04233976 -0.07478808 0.010765531
0001e0 65 c1 16 bc 96 3f c2 3c d3 45 d2 3d 81 cc 52 3e
       -0.009201382 0.02371196 0.10267224 0.20585825
0001f0 a2 82 f9 3d fa b2 72 3d 1f ec bb bd b6 5a 11 bd
       0.12183119 0.059252717 -0.09175896 -0.0354869
000200 6d c7 a2 3d dd 92 1a 3e 83 67 71 3c 76 ab 02 3e
       0.07948194 0.15095086 0.014734152 0.1276072
000210 8a 5b cd bd 8f a0 0d 3d bf af e2 3d 44 e6 58 bd
       -0.10027225 0.03457695 0.11068677 -0.052953973
000220 77 c1 d9 bc 47 4c dc bd 00 fb e2 3c 7f f5 27 3d
       -0.026581509 -0.10756736 0.027707577 0.041005608
000230 2a b1 f2 bc c7 76 1a bd 63 b8 c1 bc e5 5d 1a 3e
       -0.029625494 -0.03771093 -0.023647493 0.1507488
000240 f6 53 7e bc e7 77 be bd a1 c0 16 be 05 a8 c0 3d
       -0.015522948 -0.09300213 -0.1472192 0.09407047
000250 15 1e 9e bd 24 fc bd bb 9e 1d d4 3c 18 5c 19 bd
       -0.077205814 -0.00579788 0.025893029 -0.037441343
000260 a5 08 cb bd 1e 56 8d 3d 9b c4 cd 3d cf 44 31 3c
       -0.09913758 0.06901191 0.10047265 0.010819628
000270 b7 54 14 3e e8 23 70 3d 4b b7 a1 3d fd b0 c2 bd
       0.14485441 0.058627993 0.078962885 -0.09506414
000280 63 c2 c8 bd b6 df 15 3c 1f 62 ce 3d d0 ff 46 bc
       -0.09802701 0.009147575 0.10077309 -0.012145951
000290 94 5b 03 bd ce 4f 41 3d 51 8a 33 3e 95 31 b6 bd
       -0.032069758 0.04719525 0.17533232 -0.08896176
0002a0 65 c2 d5 bd 72 84 bb 3c 90 3e 64 3e 75 e3 bc 3d
       -0.104374684 0.022890303 0.2228949 0.092230715
0002b0 44 1a 00 3e 74 d3 14 bd de 9f 89 bd 2b a4 de bc
       0.1251002 -0.03633447 -0.06719945 -0.02717789
0002c0 f2 94 0a 3e 95 a1 d2 bd c6 a6 03 3e 81 a0 cc bd
       0.1353338 -0.102847256 0.12856588 -0.09991551
0002d0 b5 ab e5 bc ba 11 06 be 4d 93 fe bd a0 1e e9 bc
       -0.028035978 -0.130927 -0.12430439 -0.028456986
0002e0 4c fd b4 3d 75 34 54 bd 14 11 14 be d8 5a 1c 3e
       0.08837375 -0.05180784 -0.1445964 0.15269029
0002f0 51 1c 2f 3e 0c 55 ae 3d aa b2 66 3d d0 30 75 ba
       0.17100646 0.08512315 0.05632273 -0.0009353282
000300 c9 fb 0a 3d dd 82 62 bd 51 92 03 bb b5 36 32 bd
       0.033931527 -0.055300582 -0.0020076225 -0.043509204
000310 32 74 e8 bc af 45 b7 3c 15 1f 27 3d fb 84 92 3b
       -0.028375719 0.022372095 0.040801127 0.004471419
000320 43 57 64 3d c8 33 12 3e 72 f4 1f be cf bd d1 bd
       0.05574728 0.14277565 -0.15620592 -0.10241281
000330 76 54 81 3d 93 0a 03 3e 13 fd 18 be 20 5d 1e bd
       0.06314938 0.12797002 -0.1494029 -0.03866303
000340 54 6b 03 3d 7c e0 13 3e cc 1c 08 3c 60 ed bb bd
       0.032084778 0.14441103 0.008307647 -0.09176135
000350 34 ff 84 ba eb 5c 35 3d 93 2d 07 bd cf 0a 6e 3d
       -0.0010146857 0.044278067 -0.033002447 0.058115777
000360 e6 78 70 3c a8 b8 1b bd 8d 58 67 bd d3 55 ba bb
       0.014677262 -0.0380179 -0.056480933 -0.0056865006
000370 32 4b 9f bd fc bf 7f 3d 52 39 e0 3c 7a d5 1a 3d
       -0.07778014 0.06243895 0.027371082 0.037801243
000380 df 62 a2 3d 78 c3 ee bd 5c 69 ce 3d 2c e8 13 be
       0.079290144 -0.116583765 0.100786895 -0.14444035
000390 ad cf cf bd 93 00 f1 3d c0 0c 4d bd 6a 6e f3 bc
       -0.10147033 0.11767688 -0.050060987 -0.029715735
0003a0 06 7a 98 bc ca d1 87 bd 24 aa b8 bb 72 f6 62 3d
       -0.018612873 -0.06631811 -0.0056355167 0.05541081
0003b0 48 6f 6e bd 61 bd 31 3d 8c dd 6b bc 53 6d 8f 3b
       -0.058211595 0.043393496 -0.014396083 0.004377046
0003c0 ef 44 3a bd 5a b8 17 3d 07 32 ce 3c 79 8c 2c 3e
       -0.045475896 0.037041046 0.02517034 0.16850461
0003d0 0f a4 8b 3d e3 de ec bd ed e2 1a bd 1d 95 c3 3c
       0.06818401 -0.1156595 -0.03781407 0.023874814
0003e0 c0 43 03 3e 02 d2 42 bc 7b 96 60 3d c8 30 69 bd
       0.12818813 -0.01189089 0.05483101 -0.056931287
0003f0 87 04 d7 3a a3 35 fd 3d a1 7c 21 3d 13 d7 44 be
       0.0016404547 0.12363746 0.039425496 -0.1922267

network_body._body_endoder.seq_layers.2.bias f4 [128]
000000 00 00 00 00 00 00 00 00 00 00 00 00 00 00 00 00
       0.0 0.0 0.0 0.0
000010 00 00 00 00 00 00 00 00 00 00 00 00 00 00 00 00
       0.0 0.0 0.0 0.0
000020 00 00 00 00 00 00 00 00 00 00 00 00 00 00 00 00
       0.0 0.0 0.0 0.0
000030 00 00 00 00 00 00 00 00 00 00 00 00 00 00 00 00
       0.0 0.0 0.0 0.0
000040 00 00 00 00 00 00 00 00 00 00 00 00 00 00 00 00
       0.0 0.0 0.0 0.0
000050 00 00 00 00 00 00 00 00 00 00 00 00 00 00 00 00
       0.0 0.0 0.0 0.0
000060 00 00 00 00 00 00 00 00 00 00 00 00 00 00 00 00
       0.0 0.0 0.0 0.0
000070 00 00 00 00 00 00 00 00 00 00 00 00 00 00 00 00
       0.0 0.0 0.0 0.0
000080 00 00 00 00 00 00 00 00 00 00 00 00 00 00 00 00
       0.0 0.0 0.0 0.0
000090 00 00 00 00 00 00 00 00 00 00 00 00 00 00 00 00
       0.0 0.0 0.0 0.0
0000a0 00 00 00 00 00 00 00 00 00 00 00 00 00 00 00 00
       0.0 0.0 0.0 0.0
0000b0 00 00 00 00 00 00 00 00 00 00 00 00 00 00 00 00
       0.0 0.0 0.0 0.0
0000c0 00 00 00 00 00 00 00 00 00 00 00 00 00 00 00 00
       0.0 0.0 0.0 0.0
0000d0 00 00 00 00 00 00 00 00 00 00 00 00 00 00 00 00
       0.0 0.0 0.0 0.0
0000e0 00 00 00 00 00 00 00 00 00 00 00 00 00 00 00 00
       0.0 0.0 0.0 0.0
0000f0 00 00 00 00 00 00 00 00 00 00 00 00 00 00 00 00
       0.0 0.0 0.0 0.0
000100 00 00 00 00 00 00 00 00 00 00 00 00 00 00 00 00
       0.0 0.0 0.0 0.0
000110 00 00 00 00 00 00 00 00 00 00 00 00 00 00 00 00
       0.0 0.0 0.0 0.0
000120 00 00 00 00 00 00 00 00 00 00 00 00 00 00 00 00
       0.0 0.0 0.0 0.0
000130 00 00 00 00 00 00 00 00 00 00 00 00 00 00 00 00
       0.0 0.0 0.0 0.0
000140 00 00 00 00 00 00 00 00 00 00 00 00 00 00 00 00
       0.0 0.0 0.0 0.0
000150 00 00 00 00 00 00 00 00 00 00 00 00 00 00 00 00
       0.0 0.0 0.0 0.0
000160 00 00 00 00 00 00 00 00 00 00 00 00 00 00 00 00
       0.0 0.0 0.0 0.0
000170 00 00 00 00 00 00 00 00 00 00 00 00 00 00 00 00
       0.0 0.0 0.0 0.0
000180 00 00 00 00 00 00 00 00 00 00 00 00 00 00 00 00
       0.0 0.0 0.0 0.0
000190 00 00 00 00 00 00 00 00 00 00 00 00 00 00 00 00
       0.0 0.0 0.0 0.0
0001a0 00 00 00 00 00 00 00 00 00 00 00 00 00 00 00 00
       0.0 0.0 0.0 0.0
0001b0 00 00 00 00 00 00 00 00 00 00 00 00 00 00 00 00
       0.0 0.0 0.0 0.0
0001c0 00 00 00 00 00 00 00 00 00 00 00 00 00 00 00 00
       0.0 0.0 0.0 0.0
0001d0 00 00 00 00 00 00 00 00 00 00 00 00 00 00 00 00
       0.0 0.0 0.0 0.0
0001e0 00 00 00 00 00 00 00 00 00 00 00 00 00 00 00 00
       0.0 0.0 0.0 0.0
0001f0 00 00 00 00 00 00 00 00 00 00 00 00 00 00 00 00
       0.0 0.0 0.0 0.0

action_model._continuous_distribution.mu.weight f4 [1, 128]
000000 c2 32 37 3d 53 fb 18 3c c8 aa da bc 23 43 8c bc
       0.04472614 0.009337264 -0.026692763 -0.017121857
000010 05 96 84 3c 43 05 8c bc 8d 79 56 bc ec 6d c0 ba
       0.016184816 -0.017092353 -0.013090503 -0.0014681197
000020 1b 31 d1 bb 2d bf a4 bc e8 92 d0 3b 73 31 8b 3c
       -0.0063840277 -0.020110691 0.006365169 0.016991353
000030 bf 5b 36 bc c5 f9 27 bc 70 7c b8 3c d3 a4 7a 3b
       -0.011130272 -0.010252421 0.022520274 0.0038245216
000040 57 45 83 bb 9b da a2 bc 63 4b 2c bb a9 e9 01 3c
       -0.0040060687 -0.01987963 -0.0026290051 0.007929244
000050 f5 4a 66 bb 3b 2e 16 bc 2b 3c dc bb 3b 4e 11 3c
       -0.0035139893 -0.009166296 -0.00672104 0.008868749
000060 1d 25 ef 3b af 49 b3 bc 9d bf 25 3c e9 5a 32 3c
       0.0072981254 -0.021885721 0.010116485 0.0108859325
000070 cd 2a c3 3c e3 a2 3c bc 43 6b 96 3c 41 0f 81 3c
       0.02382412 -0.011513445 0.018361693 0.015754344
000080 1f 89 1e 3d e4 e4 28 3c 98 7e d2 3b fe 5f a2 bc
       0.038704988 0.010308478 0.0064237826 -0.019821163
000090 60 5f fa bc fc 49 45 3c df eb 48 3b aa fd 92 3c
       -0.030563056 0.012041565 0.0030658168 0.017943222
0000a0 03 dc a8 3a b0 8f e1 bb ff 7c 83 bc 38 1b 3b 3c
       0.0012882951 -0.006883584 -0.016050814 0.011420064
0000b0 65 4d 60 bb 0b a9 d1 3b 91 da 9f bc 40 fa e0 bb
       -0.0034225818 0.0063983253 -0.0195134 -0.0068657696
0000c0 36 91 39 bb 8a cb ac bb 78 79 0d 3a 50 86 3e bc
       -0.0028315312 -0.005273287 0.00053968234 -0.011628702
0000d0 f3 0e 29 bd 6a 4d 9b 3b 5d 4a 06 3b a0 b6 ff 3b
       -0.041274022 0.004739453 0.0020491101 0.007803753
0000e0 f5 b9 43 bc bd 2d 38 3c 4b b5 e7 bb f2 2e ed bb
       -0.011946191 0.011241374 -0.0070711724 -0.0072382623
0000f0 ea 38 e3 ba a5 a0 b7 bc 94 af 34 bc f5 78 29 3c
       -0.0017335687 -0.022415468 -0.011028189 0.01034378
000100 18 bc bc 3b c8 32 65 bb 54 55 83 3b 73 01 61 3c
       0.005759727 -0.0034972895 0.0040079746 0.013733256
000110 07 41 fd bc 81 bd 0d bd 82 d4 d9 bc 4b 9d e0 bb
       -0.030914797 -0.034604553 -0.02659059 -0.0068546883
000120 43 4c 98 3c 8b 78 27 39 bf 25 ad 3b 36 e3 01 bc
       0.018591052 0.00015971267 0.0052840407 -0.007927706
000130 4f 9d c1 3a 6f 39 09 3c 03 6a a5 bc ea 57 e8 bb
       0.0014771613 0.00837551 -0.020192152 -0.0070905583
000140 95 b5 6d 3c 9f a3 39 bb 05 cd 3e 3b 8a c0 5f 3b
       0.014508625 -0.0028326286 0.00291139 0.0034141862
000150 23 ce 80 bb cf 06 a5 3b 71 c8 90 3c 5b 01 3c 3b
       -0.0039308234 0.005036212 0.017673703 0.0028687331
000160 60 0a 91 bb fb 1c ad 3b 62 a0 7f 3c 56 54 90 bc
       -0.0044262856 0.0052829958 0.015602203 -0.01761834
000170 c0 68 0f bc 30 34 e1 bb 83 79 1a bc cb 45 b8 bc
       -0.008753002 -0.0068726763 -0.009428385 -0.022494217
000180 1e c2 12 b8 03 f9 48 3c 18 02 89 3c 2a e8 b2 3a
       -3.49899e-05 0.0122664 0.016724631 0.0013649513
000190 c0 39 32 3d 77 6b 1a 3c ad ef bf bb e3 97 ba bb
       0.043512106 0.009425036 -0.005857429 -0.005694376
0001a0 c5 98 ad 3a 5a 9c 6d 3a 97 26 19 3d ba 3e e2 bc
       0.0013244381 0.0009064131 0.037390318 -0.027617801
0001b0 c2 47 ca bb 43 0c a7 bc c8 61 32 bc 32 45 7e bc
       -0.006173105 -0.020391589 -0.010887571 -0.015519427
0001c0 65 e8 e1 bc a7 a3 57 3b 40 72 f7 3b 22 46 c6 bc
       -0.027576635 0.003290394 0.0075514615 -0.024203364
0001d0 25 6a 32 3d 0b 11 79 3c 5a dd 2a 3b d3 85 d1 ba
       0.04355826 0.015201817 0.0026071877 -0.0015985317
0001e0 41 ed 98 bc f0 f3 12 bc 5f b9 c6 3c 65 02 87 bb
       -0.018667819 -0.008969292 0.024258314 -0.0041201585
0001f0 53 56 b1 bc 32 8d 82 3c 8f 17 67 bc ab ed 24 3d
       -0.021647608 0.015936468 -0.014104738 0.04026572

action_model._discrete_distribution.branches.0.weight f4 [3, 128]
000000 c7 f1 ea 3b bd ee 6b bb 20 f4 4e 3a 18 77 af bb
       0.0071699354 -0.0036000453 0.0007894654 -0.0053547733
000010 1f f8 3b 3b 19 fc ca bb 1d c7 81 3b 57 2e 61 3c
       0.0028681827 -0.006194603 0.0039605037 0.013743958
000020 98 9d c8 3b 1c 45 ba 3a 97 bf 8b 3c c3 ec 4a bc
       0.0061223023 0.001421127 0.01705913 -0.01238555
000030 cb 74 71 3a 83 46 38 ba de 34 89 bc 1a 97 c4 bb
       0.0009210824 -0.000702955 -0.016748842 -0.005999458
000040 e9 08 99 ba 8e 00 0d bb 35 fe 21 bc a8 8c 86 3b
       -0.0011675629 -0.0021515223 -0.009887268 0.004106123
000050 65 93 2d 3c 7a ca 4e bb 5d 3e 36 3c b3 b5 37 3b
       0.010594224 -0.003155379 0.011123267 0.0028031885
000060 27 58 36 3b 8f 3c c1 ba 77 53 01 bc 93 54 bb 3a
       0.002782354 -0.0014742779 -0.007893435 0.0014292173
000070 ea ae fb b8 ff a9 6e bc 2b cc 05 3c 89 74 85 bb
       -0.00012001193 -0.014566897 0.008166353 -0.00407273
000080 88 9f ba bb 09 76 c5 3b da ff f0 ba 7c a9 ab b9
       -0.005695287 0.006026034 -0.0018386797 -0.00032741937
000090 ed 29 92 bb a3 92 74 3c f3 b5 7f 3c 28 4d e9 3b
       -0.0044605643 0.014927539 0.015607345 0.0071197934
0000a0 7f 22 7a 3b da 58 2c bc a7 b8 90 bb d3 3e 6c bc
       0.0038167534 -0.010519231 -0.0044165435 -0.014419275
0000b0 69 30 4c bc 27 d8 69 bb 18 95 56 bb 28 7e 1b bc
       -0.012462714 -0.0035681815 -0.0032742675 -0.009490527
0000c0 74 b0 aa 3b 8f 14 1c 3c 7d 95 dd 3b f5 e9 51 3c
       0.005209023 0.009526386 0.006762205 0.012812127
0000d0 f5 02 83 ba 2f 0a e6 3b 5a 7d d5 bc e7 a5 4c bc
       -0.0009995388 0.007020257 -0.026060749 -0.012490726
0000e0 a3 da cd bc 8f 08 3f bc 86 fe 87 3c 65 3e cd bb
       -0.025128668 -0.011659755 0.016600858 -0.0062635415
0000f0 13 28 cd bb ee 7f 9a bb 73 e4 fc bb 7c 57 13 3c
       -0.0062608807 -0.0047149574 -0.007717663 0.008993026
000100 75 3e dd bb 78 ab dc bb a3 ca 90 bb 41 41 49 bc
       -0.00675183 -0.006734308 -0.0044186874 -0.012283624
000110 50 4f 79 3b ab 64 a7 bb 6b 83 92 bb 4a 39 92 3c
       0.0038041659 -0.005108436 -0.0044712326 0.017849583
000120 ab 85 98 3a ab 30 64 bc da 82 e7 bb 4b 1e dc bb
       0.0011636516 -0.013927619 -0.0070651593 -0.0067174784
000130 e1 f3 a9 3b 8b 69 eb bb 6f 37 a2 bb df a3 9b bb
       0.0051865433 -0.0071842126 -0.004950456 -0.0047497596
000140 76 59 87 bb f7 a6 e6 3b ed 19 e6 ba bb de 89 bb
       -0.0041305376 0.0070389467 -0.0017555334 -0.0042074597
000150 b3 70 05 bc 55 ce 74 3b cb 65 22 3b 60 c5 c9 3a
       -0.008144545 0.0037354429 0.0024779912 0.0015393905
000160 6f ce bb 3a 69 27 32 3c 80 b4 a0 3a 52 5e f9 ba
       0.001432849 0.010873654 0.0012260824 -0.0019025302
000170 ca a2 37 3b 8e 68 18 3c e0 6a 9f 3b 82 df ba bb
       0.0028020614 0.0093022715 0.0048650354 -0.0057029137
000180 93 bc 4d 3c 56 9b c5 3a 20 b7 fe bb 9a 33 4e 3c
       0.012557167 0.0015076201 -0.007773295 0.012585545
000190 c3 a2 81 3b b0 29 e3 39 38 47 69 bc 72 8d 66 bc
       0.0039561703 0.00043327874 -0.014238171 -0.014071809
0001a0 7f cd 9a 3a 9a 20 50 3c 9f 69 89 3b f7 ed db 3b
       0.001181051 0.012703085 0.004193499 0.006711717
0001b0 df 1a 81 3b 2b e7 2e bc 7f 46 35 3c 05 cc 25 3c
       0.003939971 -0.010675232 0.011064171 0.010119443
0001c0 2a e4 82 bb 08 fe 4e bc 18 20 d0 3c 20 a5 b0 3b
       -0.0039944844 -0.012633808 0.025405928 0.005390778
0001d0 72 8e 9e 3b 20 16 62 bc 32 77 c7 3b ea 2f 5e 3c
       0.004838758 -0.01379922 0.0060872072 0.013561228
0001e0 89 7f 32 3a 8e dd 34 bc 96 a2 03 bb d2 37 6a bb
       0.00068091654 -0.011039151 -0.0020085922 -0.0035738838
0001f0 77 8f f7 3b 7f ff 81 bb 70 11 6c bc 17 49 3e bc
       0.007554944 -0.003967225 -0.014408454 -0.011614106
000200 e8 c6 f4 3b 1c af 2f 3c 9d a7 46 3b b2 21 51 3b
       0.0074700005 0.010722902 0.0030312308 0.0031910953
000210 83 7d 80 3b 7d f9 5e 3b d9 30 27 bc 4f e4 99 bc
       0.003921212 0.0034023218 -0.010204517 -0.018785624
000220 8b 48 6d bb 4f 41 d1 ba 30 65 e6 bb 5b 20 38 bb
       -0.003620657 -0.0015964898 -0.0070311055 -0.0028095457
000230 70 d8 75 bc f5 28 d9 bb 7b 43 27 3b 3d 12 6c 3b
       -0.015005216 -0.006627197 0.00255224 0.0036021613
000240 ec 0e 04 3c 1c f0 84 bc 27 46 81 ba bf 3c 4d 3b
       0.008060198 -0.016227774 -0.0009862826 0.0031316725
000250 d8 41 e3 ba 64 b7 18 3c 0f 49 1d 3b d0 f9 c5 3b
       -0.0017338349 0.0093210675 0.0023999845 0.006041743
000260 24 71 0c 3b 22 ad 8d 3c 25 c6 2f bc 58 dd 13 bc
       0.0021429742 0.01729447 -0.010728394 -0.00902494
000270 1d cc 4e bc 7f a1 47 3a 0f 10 9b 3b 6f 2e 99 bb
       -0.012621907 0.00076153124 0.004732139 -0.004674725
000280 6a 83 87 3c 03 6d 04 bb c8 6b 54 bc b1 d5 42 3c
       0.016542155 -0.0020206578 -0.01296515 0.011891768
000290 a3 3f 09 bc 02 32 8c 3a 73 f8 e8 bb 6f 38 cd 3c
       -0.008376989 0.0010696056 -0.0071096956 0.025051324
0002a0 83 61 00 3b 27 10 58 bc 38 cc 50 3b e1 d2 ba 3c
       0.0019589372 -0.013187445 0.0031860005 0.022805633
0002b0 aa 2c 04 3b 17 96 34 3c 7b 90 16 3c 08 d7 de bb
       0.0020168223 0.011022112 0.00918972 -0.006800536
0002c0 e7 23 dc bb fb dd ae bb 51 da 00 3b 4d 5b d4 3b
       -0.006718147 -0.0053365207 0.0019661377 0.0064806105
0002d0 fa 38 9a 3a e3 0b 50 bb eb ad 19 bc 0f dd 7d bc
       0.0011766248 -0.0031745366 -0.009379844 -0.015494599
0002e0 c0 a9 5c bc 22 2a 0a bc 10 cb 9f bc 10 39 9c ba
       -0.013468206 -0.008432897 -0.019506007 -0.0011918861
0002f0 ca 33 c2 3a 16 c4 ac 39 2b 8f 02 3b 0f 69 46 3c
       0.001481646 0.00032952492 0.001992176 0.012110009
000300 23 25 e2 3a 21 87 a4 bb d4 d2 45 bb af 9f 8a 3a
       0.0017253499 -0.0050209914 -0.0030185478 0.0010576154
000310 17 9b 9e 3a 2f 9a 4a bc 85 4e 83 bb 03 05 c0 bb
       0.0012100664 -0.012365862 -0.004007163 -0.0058599724
000320 c8 62 32 ba 7b 26 33 bc 93 0f de bb c7 8f 0a b9
       -0.00068048807 -0.010934467 -0.006776759 -0.00013214267
000330 a0 8f 88 3c 75 af 8f 3b 18 61 44 bc e1 23 13 3c
       0.016670048 0.00438493 -0.01198604 0.008980722
000340 d3 0c 5a 39 24 db 25 bc 71 92 c2 3b 17 b3 b4 3b
       0.00020794877 -0.010123048 0.0059378673 0.0055145132
000350 c3 6c 95 bb dd 75 5f bb e0 94 f8 3b aa cf f1 3b
       -0.0045600845 -0.0034097352 0.0075861067 0.007379492
000360 b8 d6 94 3c 68 b3 57 ba 79 2a 1f bb b5 05 cd 39
       0.018168792 -0.0008228333 -0.002428679 0.000391049
000370 1a d1 26 3a 73 fb 51 bc 4b 18 24 3c 7e 71 34 bb
       0.0006363556 -0.012816298 0.0100155575 -0.0027533467
000380 56 8d 3c bc 2b 03 fd 3b 12 74 3d bc ec c9 ab b9
       -0.0115083065 0.007721325 -0.011563318 -0.00032766105
000390 35 5b 72 3c 0b 87 f5 3b 82 f6 72 ba cd 48 ed bb
       0.014792253 0.007492905 -0.00092683 -0.0072413445
0003a0 05 9b 15 ba 18 14 98 3b a3 73 c4 3a a1 6c ab bc
       -0.00057069986 0.0046410672 0.0014988076 -0.020925822
0003b0 1f 36 22 3c 11 6e a6 3b d3 2d 27 bc e8 c9 27 bc
       0.009900599 0.005079039 -0.010203796 -0.010241009
0003c0 7d 6c e1 bb 80 45 f8 3b 04 11 23 bc 38 a8 62 3b
       -0.006879388 0.0075766444 -0.009952787 0.003458513
0003d0 cd f5 c2 ba bb 14 8c bc 42 ad 96 3b 34 96 34 3b
       -0.001487428 -0.017099729 0.0045982907 0.0027555348
0003e0 58 ff bd 3b 71 4e 1b bb bd 86 85 3b 2b d0 4b 3a
       0.0057982616 -0.0023697878 0.0040749 0.0007774855
0003f0 2e 93 04 3b 38 a2 57 bc 78 9e e8 bb b3 4e ad 3b
       0.0020229327 -0.013161235 -0.007098969 0.0052889227

action_model._discrete_distribution.branches.0.bias f4 [3]
000000 00 00 00 00 00 00 00 00 00 00 00 00
       0.0 0.0 0.0

action_model._discrete_distribution.branches.1.weight f4 [2, 128]
000000 a5 fc dc 3b bb 76 95 ba 8c 67 a0 3b f8 0b f8 ba
       0.0067439848 -0.0011403182 0.0048951562 -0.0018924465
000010 4e 44 3c 3c e7 8d 46 bc 42 af f7 3a ea 5d 7c 3c
       0.0114908945 -0.012118793 0.0018896835 0.01540325
000020 33 3e c1 bb a2 77 91 3b c7 e9 bf 3a 25 d6 a4 3b
       -0.0058973073 0.00443931 0.0014641815 0.005030411
000030 6c ab 31 bb 70 68 2c 3c af 5d da bb 7c 4c 46 3b
       -0.0027110232 0.010522947 -0.006664 0.003025799
000040 6b de 59 ba f3 86 30 3a 1a 56 07 3c fa 74 5b bb
       -0.0008311036 0.0006733976 0.008260274 -0.0033486472
000050 01 98 4c bc 48 b4 4f 3c 98 b5 c6 bc 94 20 08 3b
       -0.012487412 0.01267726 -0.024256513 0.0020771371
000060 27 cb 85 bb 16 13 94 3b c0 66 88 bb f5 55 b5 bb
       -0.0040830555 0.004518877 -0.0041626394 -0.0055339285
000070 5b 12 64 bc 8a 84 c6 bb 59 3e 28 3b 40 3f 08 bb
       -0.013920392 -0.0060582804 0.0025671928 -0.0020789653
000080 b4 2a ab 3b 23 15 62 bc 97 89 2d 3c 57 f5 06 bc
       0.0052235965 -0.013798985 0.010591886 -0.0082372045
000090 b3 b6 3c ba d0 16 61 3a 5e 7b b2 3b 37 c7 41 3a
       -0.0007198855 0.0008586468 0.0054468354 0.0007392051
0000a0 b2 60 c1 ba 76 6f 44 3c 19 a8 c8 3b d1 05 bf 3a
       -0.0014753549 0.011989465 0.0061235544 0.0014573877
0000b0 db b3 65 3c 40 b5 9e bb 6d 47 b2 bc 2a a8 bc b9
       0.014019932 -0.004843384 -0.021762574 -0.00035983446
0000c0 1b 2a e4 bb 44 95 c3 3b a2 72 7a 3b 81 71 11 bb
       -0.006963027 0.0059687216 0.00382153 -0.0022192898
0000d0 70 46 43 bc 6f bc 95 3b e3 67 5f bb 8c b7 1c 3c
       -0.011918649 0.004569582 -0.003408902 0.009565245
0000e0 38 70 60 bc 74 57 1c ba 98 3d 7b bc af f7 66 bb
       -0.01369863 -0.0005963959 -0.015334509 -0.0035242846
0000f0 ab e4 88 3b 87 09 8d bc a8 a2 f1 3b af 81 42 3b
       0.00417765 -0.017216457 0.0073741265 0.0029679348
000100 51 82 3f 3c 15 e5 18 bb ed 01 11 3b b8 69 0c 3c
       0.011688785 -0.0023329903 0.0022126392 0.008570127
000110 05 e4 e6 3b fa 30 5a 3c 47 61 bc bb 43 04 22 3c
       0.007046225 0.013317341 -0.005748901 0.009888711
000120 93 a5 98 3c e2 f6 80 bb dd 5a 3c bc 21 f4 34 3c
       0.01863364 -0.0039356807 -0.011496273 0.011044533
000130 dd b4 a3 3b fe a7 99 3a 73 54 35 3c a1 69 33 3c
       0.004995926 0.0011723039 0.011067498 0.010950477
000140 93 52 3f bc 8d d0 6a 3b d8 af 51 3c ba f9 31 3c
       -0.011677402 0.0035829872 0.012798272 0.010862762
000150 85 05 97 bc 09 59 18 b9 ab 14 43 ba f2 6c 0d bc
       -0.01843525 -0.00014529018 -0.00074417394 -0.008631932
000160 98 60 54 bc 0a 80 f1 3a 57 54 ad bc fa 33 3b 3c
       -0.012962483 0.0018425 -0.02115838 0.011425966
000170 78 60 18 3b d0 77 9e bb 5c d5 9d bb cb 50 64 bb
       0.002325086 -0.00483606 -0.004816694 -0.0034838195
000180 67 a1 df 3b da fc 62 bc 19 ee 13 bc e3 36 e5 3b
       0.0068246606 -0.01385423 -0.009028935 0.0069950684
000190 6f e9 db ba b7 1f ac 3b 6d ef aa 3c 32 57 61 3c
       -0.0016777943 0.005252804 0.02086612 0.013753699
0001a0 7b 6f 03 3c 40 38 f5 3b 1b f5 85 3b 9f ee 62 3b
       0.0080221845 0.007483512 0.0040880567 0.0034627093
0001b0 ec 90 1b 3c 3a 45 9c bc 57 3c 27 bc e2 40 68 bb
       0.009495001 -0.019075979 -0.010207257 -0.0035439064
0001c0 bb 87 11 3c 57 85 6b 3c 4e de 19 39 62 ef a2 bc
       0.008882458 0.014375052 0.00014674032 -0.019889537
0001d0 68 6d e4 bb 65 a9 81 bc a3 c9 66 bc 4f b4 71 bc
       -0.00697105 -0.015827844 -0.01408616 -0.014752462
0001e0 95 1c da 3b ef 9f a3 bb 67 cd 82 ba 4a ad 54 3c
       0.0066562393 -0.004993431 -0.0009979428 0.012980768
0001f0 20 69 4b 3c 0e 05 87 3c a1 15 80 bb b3 d4 91 3c
       0.0124152005 0.016481902 -0.0039088284 0.017801618
000200 25 10 0a bc 9f 90 5b bb c1 c0 29 3c 4a fa e7 3a
       -0.008426701 -0.003350295 0.0103608975 0.0017698493
000210 54 39 11 3a b5 fb 06 3c 38 fc 08 bb c5 58 cb bc
       0.00055398536 0.008238723 -0.0020902287 -0.024822602
000220 97 bc 39 3b 86 d8 c8 39 6b 7b 02 bc 16 1d 13 3b
       0.0028341168 0.00038308295 -0.007963995 0.0022447756
000230 b5 fa 71 bc 6b 52 7d 39 df 10 2d 3c 2f 2e bc ba
       -0.014769246 0.00024158663 0.010563104 -0.0014357026
000240 b9 44 99 3b 05 1b 28 3c 58 cd f4 3b 5b b1 b0 bb
       0.004677382 0.010260348 0.007470768 -0.005392236
000250 9c 3d 80 3c 3b de d2 3b 7d 68 b6 3b 87 3f 0b 3c
       0.015654378 0.0064351833 0.005566655 0.008499033
000260 66 72 af 3b a7 5a 0e 3c c4 ea 94 bc 50 98 34 3b
       0.0053542135 0.008688605 -0.018178351 0.0027556606
000270 81 2e 81 3a 99 4c 21 bc 3f af 18 bc 23 4e 19 bb
       0.0009855778 -0.009844922 -0.009319126 -0.002339252
000280 fb ae cf 39 07 8e 8a bb 26 01 0e 3c c3 a6 94 ba
       0.00039612487 -0.0042283568 0.008667266 -0.0011341203
000290 95 ee 9a bb 85 84 e2 bb 4a ec 12 bc 9a e2 53 ba
       -0.004728148 -0.00691277 -0.0089674685 -0.00080827775
0002a0 27 05 14 3c 35 bd c8 3b 79 08 06 3c 0a 71 e9 bb
       0.009034432 0.006126071 0.008180731 -0.007124071
0002b0 d8 45 d8 3b 7d f3 2a 3c 6d 05 64 3c 45 1a c1 3b
       0.006600123 0.010434029 0.013917309 0.005893024
0002c0 1b 30 f3 bb bf 4b ee b9 a6 78 1e 3c d3 49 cd bb
       -0.007421506 -0.00045451333 0.0096723195 -0.006264904
0002d0 b2 3d 71 3c fd b7 37 3b e2 ec 68 3a a7 bf 34 ba
       0.014724182 0.002803325 0.0008885396 -0.00068950135
0002e0 8f da 8f bb 32 fc 34 bc a2 c9 d6 3b c0 a0 88 3c
       -0.004390068 -0.011046456 0.006554798 0.016678214
0002f0 37 08 0d bb a3 e5 80 bb 8b 5c d1 3b 4d a2 e7 ba
       -0.002151979 -0.003933625 0.006389206 -0.0017672271
000300 b5 77 fa b8 4a 53 de 3a 73 cc 9b ba f6 aa 16 bb
       -0.00011943226 0.0016962078 -0.0011886492 -0.0022990084
000310 f8 db 1f 3c 1a 76 21 3b f3 73 17 3c f5 01 56 3c
       0.0097570345 0.0024637044 0.009243953 0.01306199
000320 a8 47 57 3b 19 0e 4a 3b 0f d2 26 3c f2 d2 a2 b8
       0.0032849107 0.0030831157 0.010181918 -7.7640536e-05
000330 8f 99 bc bb 97 19 78 3b 2e 91 a4 3b 63 0e 6e ba
       -0.0057556103 0.003785705 0.0050221896 -0.0009081123
000340 2c 98 37 3c 07 17 e9 bb 8b 2e 4f 3c 37 f0 27 3c
       0.011205714 -0.007113341 0.012645374 0.010250143
000350 30 ef d3 bc 3f 56 17 3c e2 3a bc bb 97 79 2b 39
       -0.02587089 0.009236871 -0.005744324 0.00016353127
000360 c3 66 b7 3b ef ed 06 3c f9 42 b8 3b b3 e5 35 3c
       0.005596967 0.008235439 0.005623218 0.011102128
000370 62 44 ff bc 55 ca 14 bc 8b 23 41 3b eb a5 0c 3c
       -0.031160537 -0.009081443 0.0029470648 0.00858448
000380 b8 69 df 3a b3 94 2f 3b 33 83 0f bc c3 eb e0 38
       0.0017045056 0.0026791513 -0.008759308 0.000107250664
000390 bf c6 0a bb 36 dc 8d bc b2 35 02 ba 90 fb 0c bc
       -0.002117559 -0.017316919 -0.00049671077 -0.008604899
0003a0 0f fa b4 3b 1a 89 e6 3b ed 12 9e 3b 8e 23 32 bc
       0.0055229734 0.0070353867 0.0048240335 -0.010872735
0003b0 0b 52 1a 3c 95 11 7b 3c 93 1d 1e bc e7 be 17 3c
       0.009418975 0.015324016 -0.009650606 0.009261823
0003c0 3a a2 9c bc c3 03 06 3b 98 9b b9 bc ee 79 3f 3c
       -0.019120324 0.002044902 -0.0226572 0.011686785
0003d0 fa 60 86 3b f7 79 69 bc 22 6d 13 3b c2 bd ab ba
       0.004100916 -0.01425027 0.0022495468 -0.0013102817
0003e0 a4 0c a5 bb 49 68 25 bc c4 8b 41 bc 1d 32 62 bc
       -0.0050369073 -0.010095664 -0.011813108 -0.013805893
0003f0 ed b1 d3 bb 95 b1 94 3b 52 31 16 bc a7 6c 8c bc
       -0.0064604194 0.004537771 -0.009167032 -0.017141653

action_model._discrete_distribution.branches.1.bias f4 [2]
000000 00 00 00 00 00 00 00 00
       0.0 0.0

network_body._body_endoder.seq_layers.0.weight f4 [128, 6]
000000 72 a7 db bd 68 09 a6 3e be c3 9d 3d 31 56 e6 3e
       -0.10725297 0.3242905 0.077033505 0.44987634
000010 6e fc 17 3f e6 02 20 be f6 10 c3 bd d8 72 e5 be
       0.5936955 -0.15626106 -0.095247194 -0.4481418
000020 53 79 f2 3e c2 6f 89 be 6d 3a 4f 3e c5 7e 0b bf
       0.47358188 -0.26843077 0.20237131 -0.5449031
000030 6c ab bf be 54 1b 25 3e e3 73 47 bf a4 cc c1 3e
       -0.37435472 0.16123706 -0.77911204 0.3785144
000040 f9 81 82 be 5e fa b2 3e be 0f bb be 89 73 95 3e
       -0.25489786 0.3495664 -0.36535448 0.2918971
000050 4e 5d 58 3e 85 4c 93 be 3b ea d3 be 8c 89 e0 3d
       0.21129343 -0.28769317 -0.4138964 0.10963735
000060 db 4a 77 3f 7e 4b d3 3e 4f f9 36 3e 56 2f 9a be
       0.96598595 0.41268533 0.17868541 -0.3011424
000070 e4 e5 cb 3d 32 27 a6 3e 8b 13 12 bf b6 bb 14 bd
       0.099559575 0.3245178 -0.5706107 -0.036311828
000080 3a 9a db bd 57 69 16 3e c5 fa 55 3f 40 7c ae bc
       -0.10722776 0.14688621 0.8358577 -0.021299481
000090 4e 98 83 bd 4c ae 06 bf 0e e5 cb 3e a4 53 71 be
       -0.06425534 -0.52609706 0.39823192 -0.23567063
0000a0 6a d5 a7 be 90 51 58 3e 62 e2 71 be 9d 02 1f bc
       -0.3278001 0.21124864 -0.23621514 -0.009705213
0000b0 76 93 1f 3e 44 8c 18 be 79 c2 a4 3d f4 47 77 bd
       0.15583596 -0.14897257 0.08044905 -0.060371354
0000c0 92 3f 4b be 71 1a 8f 3e 0d 8e ed be c2 75 d3 be
       -0.19848469 0.2794986 -0.4639744 -0.4130078
0000d0 cf d5 0a be e2 4c 6b 3e 65 56 23 3f 7a 0a 25 be
       -0.13558124 0.22978547 0.638037 -0.16117278
0000e0 73 33 91 be fe b6 a9 3e 4f 20 4b be cf 33 e6 3e
       -0.28359565 0.33147424 -0.19836544 0.44961402
0000f0 5b 1a 49 bf 9d 86 33 bf 3a 54 c7 3d 40 35 45 be
       -0.7855584 -0.7012728 0.09732862 -0.19258595
000100 77 f5 67 be ab 92 f0 be 10 0d e7 bd 63 0a 6c 3e
       -0.22652231 -0.469869 -0.11281788 0.23050837
000110 f9 6b 03 be c0 4a 42 be c7 a4 c2 3e a1 25 78 be
       -0.12834157 -0.18973827 0.3801634 -0.24233104
000120 7b 76 2c 3d c7 ee 93 be fc ed 07 3f b6 79 05 be
       0.04210518 -0.2889311 0.5309751 -0.1303471
000130 1e 95 1d 3f 31 86 00 3d 15 84 3c bd d6 55 bc 3e
       0.6155566 0.031377975 -0.0460244 0.36784238
000140 20 95 86 bf 69 58 97 be cc 6c 27 3e 03 2c f3 3d
       -1.0514259 -0.2955964 0.16350096 0.11873629
000150 8d da 1f bf 57 cb f1 be b8 ec c0 3e a4 7a 98 be
       -0.6244286 -0.47225448 0.37680602 -0.29781067
000160 96 8c 64 3c bc db 2b 3e 29 c3 d5 3e b3 ee bd 3e
       0.013949534 0.16783041 0.41750458 0.37096176
000170 da 15 00 3f 3e 11 4e 3d b2 88 c5 be fa 69 82 be
       0.5003334 0.050309412 -0.38580853 -0.2547148
000180 f3 0d d7 be 6a e6 0e be 77 fc 3a be d4 69 09 3f
       -0.4200283 -0.13955083 -0.1826037 0.53677106
000190 9e 2c 3e ba ae 6f 93 be 3a 82 e8 3e a0 b9 d2 3e
       -0.0007254573 -0.28796142 0.45411855 0.41157246
0001a0 79 ae 2b 3d 5f 21 97 3b e8 90 f1 bc 15 45 bb be
       0.041914437 0.0046121324 -0.029488042 -0.36576143
0001b0 fa 0f f5 3e 38 1d a0 be e5 ad 8b 3e a3 08 74 be
       0.47863752 -0.31272292 0.27281108 -0.2383142
0001c0 67 29 82 be 36 0d 88 3f 6f f7 31 3f 31 09 74 bd
       -0.25422212 1.0629032 0.6951818 -0.059579078
0001d0 59 47 44 3e b2 c1 4b 3e e6 c7 1b be c6 7f fe be
       0.19167842 0.19898108 -0.15212974 -0.49706858
0001e0 a1 4d 1f bd cd 36 9e 3e 0e b1 2d bf 22 2f d0 3e
       -0.038892392 0.30901185 -0.6784829 0.4066096
0001f0 9f 47 75 3e 93 c7 30 3f bb 93 f4 be 3f 51 8a 3e
       0.23953103 0.69054526 -0.4776896 0.2701511
000200 62 99 53 be a6 28 f1 3e af f4 53 3f 0d 1a 9d be
       -0.2066398 0.47101325 0.8279523 -0.30683938
000210 85 24 08 bf bb 22 29 bf 7c 3a 85 bf a2 e5 16 3d
       -0.53180724 -0.6606862 -1.0408473 0.03684009
000220 7c 2c 31 be fc 78 aa be f9 b6 5a bd df 4c f0 3e
       -0.17302126 -0.3329543 -0.053397153 0.46933648
000230 38 2b 93 b7 a8 f2 08 bf 55 b7 78 bd 8e 64 f0 be
       -1.754389e-05 -0.53495264 -0.060721714 -0.46951717
000240 9b 66 03 bf b5 0f 22 3f c8 b5 23 3d 7a 0b ad 3f
       -0.5132844 0.6330522 0.039968282 1.3519127
000250 c1 52 db 3e 45 05 15 bf bb a7 52 bd 63 89 12 be
       0.42836574 -0.58211166 -0.05142949 -0.14310221
000260 87 1a 1b 3f 5c 2a 21 bf 79 03 e8 3d 8b f9 8f be
       0.6058735 -0.6295526 0.11328787 -0.28120074
000270 23 75 7c bd fe 87 fd 3e 8a 6f 94 be e7 e5 2a 3f
       -0.061635148 0.49517816 -0.28991348 0.66757053
000280 46 3a 02 3f 9f 46 ed 3e b1 48 e7 3e d8 3d 87 be
       0.5087017 0.46342942 0.45172647 -0.2641437
000290 97 ca 86 bf 61 13 83 3e 27 b2 9e be 52 0b f3 3d
       -1.0530576 0.25600722 -0.30995294 0.118673936
0002a0 5f 72 39 bd 40 ba 0e be 80 ec d0 bc 4d 3e c2 bd
       -0.04527509 -0.13938236 -0.025503397 -0.09484539
0002b0 35 b9 46 3e 27 e5 0e be cb b3 0a bf 95 15 c7 3e
       0.19406588 -0.13954602 -0.5418059 0.38883653
0002c0 23 5c 78 3e 36 0e d4 be e2 ad 86 be 6c cb 26 3f
       0.24253897 -0.41417092 -0.26304537 0.6515415
0002d0 8c 26 07 bf 47 ad 2d be 68 83 9b 3d 11 14 b9 3e
       -0.5279319 -0.16960631 0.07593423 0.36148122
0002e0 97 27 c9 3e 46 18 0b bf 98 eb fe 3e 2e b8 13 bf
       0.39288017 -0.54333913 0.4978912 -0.5770291
0002f0 09 47 76 be cb 8e f1 bc 14 23 fd bc 57 11 c1 be
       -0.24050535 -0.029487034 -0.030900516 -0.37708542
000300 3f 95 3c 3f b9 0a 2d 3f 67 d1 ce 3d 63 23 05 be
       0.7366523 0.67594486 0.10098534 -0.1300178
000310 2f ef 19 bd f0 7f 0e 3e 98 78 24 3f e5 ef ab be
       -0.03758162 0.13915992 0.6424651 -0.33581463
000320 8e 20 0b 3e 75 e0 98 3e 6a 2b 95 3e 1f 0e 01 bf
       0.13586637 0.29858747 0.29134685 -0.5041217
000330 df eb 2d 3e ac 46 76 be f6 8d a4 3e 4d 84 16 be
       0.16984509 -0.24050397 0.32139558 -0.14698906
000340 5e 4b 2a bf 3d c3 79 be ea 79 01 3f 2e 7b c9 bc
       -0.6652125 -0.24390884 0.5057665 -0.02459487
000350 9b f8 db 3d d3 9e be 3e bd cd 6f bb 44 25 50 bd
       0.10740777 0.37230548 -0.0036591135 -0.05081679
000360 ec a0 33 bf 0b 72 08 bd 5c 86 df 3d e5 84 23 3e
       -0.7016742 -0.033311885 0.10914299 0.15968664
000370 c9 65 b7 3c 51 d8 06 3f 44 38 a0 3e e9 e5 94 be
       0.022387402 0.5267382 0.31292927 -0.29081658
000380 56 26 b9 3e 9f 55 90 3e 50 77 92 3e f1 81 00 3f
       0.3616206 0.28190324 0.28606653 0.50198275
000390 12 24 55 be 1c c6 26 3f e7 86 13 3f 75 7a ca 3d
       -0.20814541 0.6514604 0.5762772 0.09886638
0003a0 e3 c5 ef bd 04 06 a7 be 7e a3 51 3f a2 56 d2 bd
       -0.11707666 -0.32621777 0.81890094 -0.1027043
0003b0 3f cf 95 be f0 46 31 3f 5b 32 7a be f3 3b d6 be
       -0.2925968 0.6924887 -0.24433272 -0.41842613
0003c0 17 e9 11 bd 18 76 8d 3e f2 24 18 be 14 3a 9d 3e
       -0.035622682 0.2762916 -0.14857844 0.30708373
0003d0 8b 9c 11 3e 71 c7 3f 3f 4f 98 b8 be be 05 0a be
       0.14219873 0.749137 -0.36053702 -0.13478753
0003e0 d8 67 42 3f 3f c1 a9 bd 3d ae 24 bf c5 1f 95 3e
       0.75939703 -0.08288812 -0.64328367 0.291258
0003f0 4f 01 e1 3e 30 86 0d bd 31 59 98 be 05 64 d4 bc
       0.4394631 -0.0345518 -0.29755548 -0.0259266

network_body._body_endoder.seq_layers.0.bias f4 [128]
000000 00 00 00 00 00 00 00 00 00 00 00 00 00 00 00 00
       0.0 0.0 0.0 0.0
000010 00 00 00 00 00 00 00 00 00 00 00 00 00 00 00 00
       0.0 0.0 0.0 0.0
000020 00 00 00 00 00 00 00 00 00 00 00 00 00 00 00 00
       0.0 0.0 0.0 0.0
000030 00 00 00 00 00 00 00 00 00 00 00 00 00 00 00 00
       0.0 0.0 0.0 0.0
000040 00 00 00 00 00 00 00 00 00 00 00 00 00 00 00 00
       0.0 0.0 0.0 0.0
000050 00 00 00 00 00 00 00 00 00 00 00 00 00 00 00 00
       0.0 0.0 0.0 0.0
000060 00 00 00 00 00 00 00 00 00 00 00 00 00 00 00 00
       0.0 0.0 0.0 0.0
000070 00 00 00 00 00 00 00 00 00 00 00 00 00 00 00 00
       0.0 0.0 0.0 0.0
000080 00 00 00 00 00 00 00 00 00 00 00 00 00 00 00 00
       0.0 0.0 0.0 0.0
000090 00 00 00 00 00 00 00 00 00 00 00 00 00 00 00 00
       0.0 0.0 0.0 0.0
0000a0 00 00 00 00 00 00 00 00 00 00 00 00 00 00 00 00
       0.0 0.0 0.0 0.0
0000b0 00 00 00 00 00 00 00 00 00 00 00 00 00 00 00 00
       0.0 0.0 0.0 0.0
0000c0 00 00 00 00 00 00 00 00 00 00 00 00 00 00 00 00
       0.0 0.0 0.0 0.0
0000d0 00 00 00 00 00 00 00 00 00 00 00 00 00 00 00 00
       0.0 0.0 0.0 0.0
0000e0 00 00 00 00 00 00 00 00 00 00 00 00 00 00 00 00
       0.0 0.0 0.0 0.0
0000f0 00 00 00 00 00 00 00 00 00 00 00 00 00 00 00 00
       0.0 0.0 0.0 0.0
000100 00 00 00 00 00 00 00 00 00 00 00 00 00 00 00 00
       0.0 0.0 0.0 0.0
000110 00 00 00 00 00 00 00 00 00 00 00 00 00 00 00 00
       0.0 0.0 0.0 0.0
000120 00 00 00 00 00 00 00 00 00 00 00 00 00 00 00 00
       0.0 0.0 0.0 0.0
000130 00 00 00 00 00 00 00 00 00 00 00 00 00 00 00 00
       0.0 0.0 0.0 0.0
000140 00 00 00 00 00 00 00 00 00 00 00 00 00 00 00 00
       0.0 0.0 0.0 0.0
000150 00 00 00 00 00 00 00 00 00 00 00 00 00 00 00 00
       0.0 0.0 0.0 0.0
000160 00 00 00 00 00 00 00 00 00 00 00 00 00 00 00 00
       0.0 0.0 0.0 0.0
000170 00 00 00 00 00 00 00 00 00 00 00 00 00 00 00 00
       0.0 0.0 0.0 0.0
000180 00 00 00 00 00 00 00 00 00 00 00 00 00 00 00 00
       0.0 0.0 0.0 0.0
000190 00 00 00 00 00 00 00 00 00 00 00 00 00 00 00 00
       0.0 0.0 0.0 0.0
0001a0 00 00 00 00 00 00 00 00 00 00 00 00 00 00 00 00
       0.0 0.0 0.0 0.0
0001b0 00 00 00 00 00 00 00 00 00 00 00 00 00 00 00 00
       0.0 0.0 0.0 0.0
0001c0 00 00 00 00 00 00 00 00 00 00 00 00 00 00 00 00
       0.0 0.0 0.0 0.0
0001d0 00 00 00 00 00 00 00 00 00 00 00 00 00 00 00 00
       0.0 0.0 0.0 0.0
0001e0 00 00 00 00 00 00 00 00 00 00 00 00 00 00 00 00
       0.0 0.0 0.0 0.0
0001f0 00 00 00 00 00 00 00 00 00 00 00 00 00 00 00 00
       0.0 0.0 0.0 0.0
