results/ppo/Player Behaviour/Player Behaviour-576.onnx (onnx, 76819 bytes, 10 tensors)

discrete_action_output_shape f4 [1, 2]
0	0x40400000	3.0
1	0x40000000	2.0

network_body._body_endoder.seq_layers.0.weight f4 [128, 6]
0	0xbf061c1b	-0.52386636
1	0xbe9dbd91	-0.3080869
2	0xbe54d7b9	-0.20785417
3	0xbbdb25dd	-0.0066878633
4	0xbd43c39d	-0.047793973
5	0xbeaf6966	-0.342601
6	0xbed591fe	-0.41712946
7	0xbe9b5476	-0.30337876
8	0x3d1f3ec9	0.038878236
9	0xbe40624c	-0.18787497
10	0xbee6e0da	-0.45093423
11	0xbc0efe9a	-0.008727694
12	0x3e7b9bb4	0.24571115
13	0x3e1523ee	0.14564487
14	0x3ad2c03d	0.001607902
15	0xbe47883f	-0.19485568
16	0xbe39a4b3	-0.18129234
17	0xbe2f17b5	-0.17098887
18	0x3d627fc6	0.055297635
19	0xbd9159fa	-0.0709724
20	0x3d3de01b	0.0463563
21	0xbcb6cef0	-0.022315472
22	0x3dfc9df5	0.123348154
23	0x3e0f1714	0.13973647
24	0x3f6ca2f2	0.92436135
25	0xbd22c679	-0.03974006
26	0xbe9a81a7	-0.30177042
27	0xbdf83923	-0.12120273
28	0x3e28888f	0.16458343
29	0xbc5125e0	-0.012765378
30	0x3f5ccd0c	0.86250377
31	0xbf2016e4	-0.6253493
32	0xbf301b7b	-0.6879193
33	0xbeb84eb7	-0.35997555
34	0x3cc1b5c8	0.02364625
35	0x3cbe01db	0.023194244
36	0xbf07c007	-0.53027385
37	0xbea530a5	-0.32263675
38	0xbeb64efe	-0.3560714
39	0x3eae22ca	0.34010917
40	0xbd9cbefe	-0.07653616
41	0xbf5c5132	-0.86061394
42	0x3e9fb028	0.31189084
43	0x3e516baf	0.20451234
44	0xbdf6daf5	-0.120534815
45	0xbcbc6009	-0.022995012
46	0x3f2bcea2	0.6711217
47	0x3e64d73e	0.22347733
48	0xbe0ec62b	-0.13942783
49	0xbe256df4	-0.16155225
50	0xbea1f544	-0.31632435
51	0x3e2c2a3c	0.16812986
52	0xbdd3a349	-0.103338785
53	0x3daea352	0.08527245
54	0xbe621ad7	-0.22080551
55	0xbee620ec	-0.44946992
56	0x3da40e3e	0.08010529
57	0xbe15af29	-0.146176
58	0x3d932e3f	0.07186555
59	0x3ebf014e	0.37305683
60	0xbebca4bb	-0.3684443
61	0xbe197129	-0.14984573
62	0x3f2ed938	0.683002
63	0x3f18deaf	0.5971479
64	0xbf214428	-0.62994623
65	0xbef4f846	-0.47845668
66	0xbf139a14	-0.5765698
67	0x3ef826dd	0.4846715
68	0x3e0e8276	0.13916954
69	0xbeaf74d5	-0.34268823
70	0xbdbcb9b5	-0.09215108
71	0x3e9f2b9e	0.31087965
72	0xbe4ee6cc	-0.2020523
73	0x3cdd4789	0.02701165
74	0xbf2f1445	-0.68390304
75	0x3dc3ea41	0.09566165
76	0x3f0c206e	0.54736984
77	0xbc10d9bc	-0.008840974
78	0xbe8643de	-0.26223654
79	0x3ef73ff2	0.48290974
80	0xbe1f288a	-0.15542808
81	0xbd1507d4	-0.03638442
82	0x3cb8b8a9	0.02254899
83	0x3f763d3a	0.96187174
84	0xbd8ae64c	-0.06782207
85	0x3deeb79d	0.11656115
86	0x3ef2b2f5	0.47402158
87	0x3e33c440	0.17555332
88	0xbd834c13	-0.064109944
89	0xbee178df	-0.4403753
90	0xbe7eff48	-0.2490207
91	0xbe908986	-0.28229922
92	0xbf958be1	-1.1683313
93	0xbde6aded	-0.112636425
94	0xbc2a72a7	-0.010403312
95	0xbe45f242	-0.19330695
96	0x3d6b93cb	0.057513993
97	0xbd9579ec	-0.072986454
98	0x3de01b1d	0.109426714
99	0x3e95a2f7	0.29225895
100	0xbe5b8eb5	-0.21441157
101	0xbee3a2ed	-0.4446024
102	0x3eaff03b	0.3436297
103	0xbdde1ee7	-0.10845738
104	0x3e11b200	0.14228058
105	0x3ebc290d	0.3675007
106	0xbe512572	-0.2042444
107	0x3e3ea294	0.18616706
108	0x3e7ac9f0	0.24491096
109	0x3f3b8c01	0.73260504
110	0xbd83b133	-0.064302824
111	0xbec597bf	-0.38592336
112	0x3e8fdf80	0.28100204
113	0x3ea5a7e0	0.3235464
114	0x3f4d8636	0.80282915
115	0x3f233600	0.6375427
116	0x3caa8931	0.020817371
117	0x3f260a33	0.6485931
118	0xbcbcbfa8	-0.023040608
119	0xbe6ebc90	-0.23314118
120	0xbf1b1bbc	-0.60589194
121	0x3dc5efbc	0.09664866
122	0xbe58968e	-0.21151182
123	0x3de71740	0.112837315
124	0x3f654a67	0.89566654
125	0xbf0b6dd4	-0.5446446
126	0x3b95b269	0.0045683873
127	0x3d99c881	0.07508946
128	0x3d151d69	0.036405
129	0xbe105f70	-0.14098907
130	0x3e84f470	0.2596774
131	0xbec7c96b	-0.39020857
132	0xbc39f5c8	-0.011350103
133	0x3d15b57d	0.036550034
134	0x3dce4460	0.10071635
135	0x3dabd161	0.08389545
136	0x3e521314	0.2051509
137	0x3cacc30f	0.021089105
138	0xbe8c1dcd	-0.27366486
139	0x3e97e8b7	0.29669735
140	0x3e3dc8ce	0.18533632
141	0xbe976f2e	-0.2957701
142	0xbeaf2c52	-0.342135
143	0x3e45c5ac	0.19313687
144	0x3e2ad934	0.16684419
145	0x3e8f34e4	0.2797004
146	0xbd440ee0	-0.04786575
147	0x3f551c5d	0.83246404
148	0xbeae0d98	-0.33994746
149	0x3f2362e5	0.63822776
150	0x3ea81f1e	0.3283624
151	0x3ee98205	0.4560701
152	0xbef7483f	-0.48297307
153	0xbe42486d	-0.1897294
154	0xbec855cf	-0.39127967
155	0x3ef67703	0.48137674
156	0x3f2a752f	0.6658506
157	0x3f0d7a7c	0.5526502
158	0xbdef630c	-0.116888136
159	0x3f179aec	0.5922077
160	0xbe222f49	-0.1583835
161	0x3d19f90f	0.037591036
162	0xbe08744d	-0.13325615
163	0xbe379a1e	-0.17929885
164	0xbe137883	-0.1440144
165	0x3e8fa85f	0.28058144
166	0xbe0d9898	-0.13827741
167	0xbf032cb1	-0.5124007
168	0x3f209d4d	0.6274002
169	0x3db10d91	0.08645166
170	0xbef2dd45	-0.4743444
171	0xbe3687b0	-0.17825198
172	0x3ef3b902	0.47602087
173	0x3e84515f	0.2584333
174	0xbf3ec4a5	-0.74518806
175	0x3e3e8543	0.18605523
176	0xbeb4850b	-0.35257754
177	0x3ec76703	0.3894578
178	0x3e7f8cb7	0.24956022
179	0x3efa2d9b	0.4886292
180	0xbe0c464a	-0.13698688
181	0xbf521d4f	-0.8207597
182	0xbd36a062	-0.044586547
183	0x3c5bac49	0.013407775
184	0xbdab9150	-0.083773255
185	0xbdeabd51	-0.114618905
186	0xbe8d9981	-0.27656177
187	0xbe8f2940	-0.2796116
188	0x3dd86a25	0.105671205
189	0xbeaa5e86	-0.3327524
190	0xbf0da7bd	-0.55334073
191	0x3f07c8e1	0.5304089
192	0x3ebf8e52	0.3741327
193	0xbdc47fd7	-0.09594696
194	0x3f1d61f1	0.6147757
195	0xbe05b8d3	-0.13058786
196	0x3eb48462	0.3525725
197	0x3eaa0135	0.33204046
198	0x3e44f489	0.19233908
199	0x3f219c8f	0.63129514
200	0xbe176ac2	-0.14786819
201	0xbe94af2b	-0.29039893
202	0x3df5f0a7	0.120087914
203	0xbe698208	-0.22803509
204	0xbf80d9a7	-1.0066422
205	0xbe369089	-0.17828573
206	0x3eab89af	0.33503482
207	0xbdb710c1	-0.089387424
208	0xbf896e6b	-1.0736822
209	0x3ed1ae87	0.40953466
210	0xbebbac02	-0.3665467
211	0x3e407680	0.18795204
212	0xbdd47190	-0.10373223
213	0x3e6aff1d	0.2294888
214	0x3e22f49c	0.15913624
215	0x3eeb3227	0.459367
216	0xbd4b95d8	-0.04970345
217	0xbed04656	-0.40678662
218	0xbe5aab52	-0.21354416
219	0x3f2b68c7	0.6695675
220	0x3c8ad565	0.016947458
221	0xbe90f83a	-0.28314382
222	0xbca9f3fe	-0.020746227
223	0xbd7839e1	-0.060602073
224	0xbeadacb1	-0.33920816
225	0xbda83cdf	-0.08214735
226	0x3f17af28	0.5925164
227	0x396f73b5	0.0002283592
228	0xbec047ec	-0.37554872
229	0xbf4cea2a	-0.80044806
230	0xbd281cf1	-0.041043226
231	0x3f253425	0.6453269
232	0xbeb63536	-0.35587472
233	0xbf1a1c91	-0.6019984
234	0x3f119c57	0.5687918
235	0x3ea72748	0.32647157
236	0xbf3e6a48	-0.7438092
237	0x3cf655fd	0.0300703
238	0x3e98505f	0.29748818
239	0x3e897d53	0.26853427
240	0x3cc9d4e7	0.024637653
241	0xbdd9387e	-0.10606478
242	0xbe6d664c	-0.23183554
243	0xbee52270	-0.44752836
244	0xbf0c15b0	-0.5472059
245	0xbc84a467	-0.016191674
246	0xbeca52f0	-0.395164
247	0xbe9d0edf	-0.30675408
248	0xbef6502f	-0.4810805
249	0x3e0e1a70	0.13877273
250	0xbea5e1a5	-0.32398716
251	0xbe4dccfa	-0.20097724
252	0x3e570a0a	0.20999923
253	0x3ef3236b	0.4748796
254	0xbf0ceaef	-0.5504598
255	0xbd162e4c	-0.036665246

network_body._body_endoder.seq_layers.0.bias f4 [128]
0	0x00000000	0.0
1	0x00000000	0.0
2	0x00000000	0.0
3	0x00000000	0.0
4	0x00000000	0.0
5	0x00000000	0.0
6	0x00000000	0.0
7	0x00000000	0.0
8	0x00000000	0.0
9	0x00000000	0.0
10	0x00000000	0.0
11	0x00000000	0.0
12	0x00000000	0.0
13	0x00000000	0.0
14	0x00000000	0.0
15	0x00000000	0.0
16	0x00000000	0.0
17	0x00000000	0.0
18	0x00000000	0.0
19	0x00000000	0.0
20	0x00000000	0.0
21	0x00000000	0.0
22	0x00000000	0.0
23	0x00000000	0.0
24	0x00000000	0.0
25	0x00000000	0.0
26	0x00000000	0.0
27	0x00000000	0.0
28	0x00000000	0.0
29	0x00000000	0.0
30	0x00000000	0.0
31	0x00000000	0.0
32	0x00000000	0.0
33	0x00000000	0.0
34	0x00000000	0.0
35	0x00000000	0.0
36	0x00000000	0.0
37	0x00000000	0.0
38	0x00000000	0.0
39	0x00000000	0.0
40	0x00000000	0.0
41	0x00000000	0.0
42	0x00000000	0.0
43	0x00000000	0.0
44	0x00000000	0.0
45	0x00000000	0.0
46	0x00000000	0.0
47	0x00000000	0.0
48	0x00000000	0.0
49	0x00000000	0.0
50	0x00000000	0.0
51	0x00000000	0.0
52	0x00000000	0.0
53	0x00000000	0.0
54	0x00000000	0.0
55	0x00000000	0.0
56	0x00000000	0.0
57	0x00000000	0.0
58	0x00000000	0.0
59	0x00000000	0.0
60	0x00000000	0.0
61	0x00000000	0.0
62	0x00000000	0.0
63	0x00000000	0.0
64	0x00000000	0.0
65	0x00000000	0.0
66	0x00000000	0.0
67	0x00000000	0.0
68	0x00000000	0.0
69	0x00000000	0.0
70	0x00000000	0.0
71	0x00000000	0.0
72	0x00000000	0.0
73	0x00000000	0.0
74	0x00000000	0.0
75	0x00000000	0.0
76	0x00000000	0.0
77	0x00000000	0.0
78	0x00000000	0.0
79	0x00000000	0.0
80	0x00000000	0.0
81	0x00000000	0.0
82	0x00000000	0.0
83	0x00000000	0.0
84	0x00000000	0.0
85	0x00000000	0.0
86	0x00000000	0.0
87	0x00000000	0.0
88	0x00000000	0.0
89	0x00000000	0.0
90	0x00000000	0.0
91	0x00000000	0.0
92	0x00000000	0.0
93	0x00000000	0.0
94	0x00000000	0.0
95	0x00000000	0.0
96	0x00000000	0.0
97	0x00000000	0.0
98	0x00000000	0.0
99	0x00000000	0.0
100	0x00000000	0.0
101	0x00000000	0.0
102	0x00000000	0.0
103	0x00000000	0.0
104	0x00000000	0.0
105	0x00000000	0.0
106	0x00000000	0.0
107	0x00000000	0.0
108	0x00000000	0.0
109	0x00000000	0.0
110	0x00000000	0.0
111	0x00000000	0.0
112	0x00000000	0.0
113	0x00000000	0.0
114	0x00000000	0.0
115	0x00000000	0.0
116	0x00000000	0.0
117	0x00000000	0.0
118	0x00000000	0.0
119	0x00000000	0.0
120	0x00000000	0.0
121	0x00000000	0.0
122	0x00000000	0.0
123	0x00000000	0.0
124	0x00000000	0.0
125	0x00000000	0.0
126	0x00000000	0.0
127	0x00000000	0.0

network_body._body_endoder.seq_layers.2.weight f4 [128, 128]
0	0xbe6d9e93	-0.23205023
1	0x3df9f6b3	0.12205257
2	0x3db1954f	0.086710565
3	0x3d430947	0.04761627
4	0x3baeb58b	0.0053317
5	0xbc3fe1ca	-0.011711547
6	0x3d867def	0.06566989
7	0xbda82763	-0.082106374
8	0xbacc6f4b	-0.0015597133
9	0x3de1c1f5	0.110233225
10	0x3e0c4b97	0.1370071
11	0x3ca186f0	0.019717664
12	0x3da2eaa3	0.0795491
13	0x3da4a823	0.08039882
14	0x3e389bfc	0.18028253
15	0x3b94efcd	0.004545188
16	0x3c802f81	0.015647652
17	0x3ca4484d	0.020054007
18	0x3d49deec	0.04928486
19	0xbe074322	-0.13209203
20	0xbdcbcc3b	-0.09951063
21	0x3df34b57	0.11879604
22	0x3cbbe0f7	0.02293442
23	0xbe8feb42	-0.28109175
24	0xbbd8a7ff	-0.0066118236
25	0x3da157c4	0.07878068
26	0x3d3b7394	0.04576452
27	0x3dd087ed	0.10182176
28	0x3e2cfd31	0.1689346
29	0xbdbb7a3b	-0.09154173
30	0x3dd15b92	0.10222544
31	0xbd1d9099	-0.038467977
32	0x3d4008d7	0.04688343
33	0x3de51f50	0.11187613
34	0xbcd6ebb1	-0.026235433
35	0x3d909cdd	0.07061169
36	0xbb8cf3e7	-0.0043015364
37	0x3e279aaf	0.16367601
38	0x3dbaff25	0.09130696
39	0xbd892fc9	-0.066985674
40	0xbd52fdba	-0.051511504
41	0xbe022aaf	-0.12711595
42	0xbd68036f	-0.0566439
43	0x3b800d88	0.003907863
44	0x3e49b844	0.19699198
45	0xbd401f5a	-0.0469049
46	0xbda31958	-0.07963818
47	0xbe1b2147	-0.15149413
48	0xbe20251a	-0.15639153
49	0x3d8697f8	0.065719545
50	0x3cf8fd9d	0.03039437
51	0x3b998f99	0.0046863076
52	0x3d98ce64	0.07461241
53	0xbcac3178	-0.021019682
54	0x3da39266	0.07986908
55	0xbc9b0c92	-0.018926892
56	0x3d2917a2	0.041282304
57	0x3e15988d	0.14608975
58	0xbda00856	-0.0781409
59	0xbd815685	-0.063153304
60	0xbca03a31	-0.019558998
61	0xbdebfd52	-0.115229264
62	0xbe6bb400	-0.23017883
63	0x3db28a5f	0.087177984
64	0xbc1bce93	-0.0095097
65	0x3e1f0e39	0.1553277
66	0x3a963541	0.0011459963
67	0xbd3efd5a	-0.046628334
68	0x3b69250f	0.0035575067
69	0xbdc6df7d	-0.09710596
70	0xbd9297f9	-0.07157893
71	0x3dcb51f5	0.099277414
72	0x3d259219	0.040422533
73	0x3c5681de	0.013092486
74	0xbd56d49f	-0.052448865
75	0x3e1dae28	0.15398467
76	0x3e8566c9	0.2605498
77	0xbda327c1	-0.07966567
78	0x3cf03ab3	0.029324865
79	0xbe3c0287	-0.18360339
80	0xbe31d401	-0.1736603
81	0xbd0e43b1	-0.034732524
82	0xbce22227	-0.027604176
83	0x3df00e4d	0.11721478
84	0x3c060b9a	0.008181477
85	0x3dd406d9	0.103528686
86	0xbd8c086f	-0.06837546
87	0x3d4e96a2	0.050436623
88	0x3d97852a	0.07398446
89	0xbe47b5cd	-0.19502945
90	0x3d9ffb0c	0.07811555
91	0xbc3ff672	-0.011716472
92	0xbdc05c2e	-0.09392582
93	0x3e0c09bb	0.13675587
94	0xbe18318d	-0.14862652
95	0x3e232ec8	0.15935814
96	0xbe4f11e3	-0.20221667
97	0xbe57f3bc	-0.21089071
98	0xbe36a108	-0.17834866
99	0xbd8c1923	-0.06840732
100	0xbdbbd1da	-0.091708854
101	0x3e4ea5cd	0.20180435
102	0x3d18da25	0.037317414
103	0x3e135b28	0.14390242
104	0x3d5626d7	0.052283134
105	0xbd642973	-0.05570359
106	0x3d2b469e	0.041815393
107	0x3e112b9e	0.14176795
108	0xbd8cd570	-0.068766475
109	0x3d546327	0.05185237
110	0xbd749c4e	-0.059719376
111	0xbcdcaab7	-0.026936872
112	0xbda79c9a	-0.08184166
113	0x3b3e229b	0.0029012326
114	0xbd821156	-0.06350963
115	0x3d51751f	0.051137086
116	0x3c181537	0.009282402
117	0x3ca717c3	0.020397073
118	0x3d527678	0.05138251
119	0xbe1935be	-0.14961907
120	0xbcd6c54d	-0.026217127
121	0xbd4753a9	-0.04866377
122	0xbcd18e38	-0.02558051
123	0xbd95689b	-0.072953425
124	0x3cb37fc1	0.021911504
125	0xbd1faf78	-0.0389857
126	0x3da395c1	0.07987548
127	0xbd41e109	-0.04733375
128	0x3d819934	0.06328049
129	0xbd7a10d3	-0.0610512
130	0x3c6252b7	0.013813666
131	0x3e2c1e67	0.16808473
132	0x3de0563f	0.1095395
133	0xbd3f2e3f	-0.046674963
134	0x3d07474a	0.03302697
135	0xbd7240c1	-0.059143785
136	0xbc4cb96f	-0.012495383
137	0xbe12fe2c	-0.14354771
138	0xbc4503fa	-0.012024874
139	0xbd62c657	-0.055364933
140	0x3e70d2df	0.23517941
141	0x3cade9e2	0.021229688
142	0xbdb3abf4	-0.08773032
143	0xbd35f933	-0.044427108
144	0x3845ffdf	4.720676e-05
145	0x3d8481c3	0.064700626
146	0x3dba7cc4	0.091058284
147	0xbd902c0f	-0.070396535
148	0x3d10e60b	0.035375636
149	0xbddafab8	-0.10692352
150	0xba198ab1	-0.00058571534
151	0x3dbe42ee	0.092901096
152	0xbd82ce26	-0.06386976
153	0xbca24350	-0.019807488
154	0xbdbd9c25	-0.09258298
155	0xbd6136f6	-0.054984055
156	0xbdc571ba	-0.09640832
157	0x3be36c81	0.006940425
158	0xbb961221	-0.004579798
159	0xbd000f5d	-0.03126465
160	0x3c8259d6	0.015911978
161	0x3d9fc3b0	0.07800996
162	0xbbf83f48	-0.007575903
163	0xbdc7e90f	-0.09761249
164	0xbdbb463b	-0.09144255
165	0xbdd50f8c	-0.10403356
166	0xbcacf76a	-0.02111407
167	0x3dc3a675	0.095532335
168	0x3d37e80f	0.044899043
169	0x3cf3db0a	0.029767532
170	0xbc149f63	-0.009071204
171	0xbe20035c	-0.15626281
172	0x3e3985ba	0.18117419
173	0xbd8b2e20	-0.06795907
174	0xbd8de9fb	-0.06929394
175	0xbd2ef3c0	-0.042712927
176	0xbdbe1dbc	-0.09283015
177	0xbd9a9286	-0.075474784
178	0xbd5ab087	-0.053391006
179	0x3d869b62	0.06572606
180	0xbcb025f3	-0.02150247
181	0xba95cb81	-0.0011428447
182	0x3db61f20	0.088926554
183	0x3c444cda	0.011981213
184	0x3d76ad97	0.060224142
185	0xbd77183f	-0.060325857
186	0x3d5ebde8	0.054380327
187	0xbda6ae09	-0.08138663
188	0x3d15e7ba	0.036597945
189	0xbc84133d	-0.016122455
190	0xbdb597fd	-0.0886688
191	0xbd3a5505	-0.045491237
192	0x3cf640e1	0.030060234
193	0x3d1ea320	0.038729787
194	0xbe2ff758	-0.17184198
195	0x3cb0556f	0.021525113
196	0x3d481a6c	0.048853323
197	0xbdc4aa9f	-0.09602856
198	0x3d7a5817	0.061119165
199	0xbdb8f18a	-0.09030445
200	0xbd433c47	-0.047664907
201	0x3abdab1b	0.0014470549
202	0xbd4137af	-0.047172245
203	0x3e161773	0.14657383
204	0xbcdcca33	-0.026951885
205	0x3ab49c6a	0.0013779525
206	0x3c16b327	0.009197987
207	0x3dcbe5ee	0.09955965
208	0x3ddb5a5f	0.10710596
209	0xbd7f4577	-0.062322106
210	0xbd2714a7	-0.04079118
211	0x3c00708b	0.007839332
212	0xbce52fb6	-0.027976852
213	0x3cb246cc	0.021762274
214	0xb851143e	-4.9848335e-05
215	0x3bd87d85	0.00660676
216	0xbcf5a5f3	-0.029986357
217	0x3d4c7a18	0.049921125
218	0x3c85d438	0.016336545
219	0x3d3860f8	0.04501435
220	0xbe442637	-0.19155203
221	0xbe312492	-0.17299107
222	0xbd642138	-0.055695742
223	0xbcd33625	-0.025782654
224	0xbd06f48a	-0.032948054
225	0xbcae0d4a	-0.021246571
226	0x3c8daf8b	0.01729562
227	0xbcd7eb5b	-0.026357343
228	0xbd2f6b51	-0.042826954
229	0x3da1857d	0.07886789
230	0x3cb83377	0.022485478
231	0x3d5ca6b6	0.053869925
232	0xbc27d096	-0.010242602
233	0x3d9ae042	0.07562305
234	0x3dce541c	0.10074636
235	0xbe035fdd	-0.12829538
236	0xbc4a0d1c	-0.012332227
237	0xbda3ef4a	-0.08004625
238	0xbd0f99cc	-0.03505878
239	0xbe047319	-0.12934531
240	0xbd264093	-0.040588927
241	0xbd3ea3ae	-0.046542816
242	0x3d9c36d9	0.07627649
243	0xbd07fad2	-0.033198185
244	0x3e31b49d	0.17354055
245	0xbd5c83f1	-0.053836767
246	0xbb226c98	-0.0024783965
247	0xbe0c3470	-0.13691878
248	0x3e2b5843	0.16732888
249	0xbd6edbe3	-0.05831517
250	0xbcca60aa	-0.024704296
251	0x3d9ca0e1	0.07647873
252	0x3cb1a77d	0.02168631
253	0xbd89e52c	-0.06733164
254	0x3de6dfcc	0.112731546
255	0x3d19220c	0.037385985

network_body._body_endoder.seq_layers.2.bias f4 [128]
0	0x00000000	0.0
1	0x00000000	0.0
2	0x00000000	0.0
3	0x00000000	0.0
4	0x00000000	0.0
5	0x00000000	0.0
6	0x00000000	0.0
7	0x00000000	0.0
8	0x00000000	0.0
9	0x00000000	0.0
10	0x00000000	0.0
11	0x00000000	0.0
12	0x00000000	0.0
13	0x00000000	0.0
14	0x00000000	0.0
15	0x00000000	0.0
16	0x00000000	0.0
17	0x00000000	0.0
18	0x00000000	0.0
19	0x00000000	0.0
20	0x00000000	0.0
21	0x00000000	0.0
22	0x00000000	0.0
23	0x00000000	0.0
24	0x00000000	0.0
25	0x00000000	0.0
26	0x00000000	0.0
27	0x00000000	0.0
28	0x00000000	0.0
29	0x00000000	0.0
30	0x00000000	0.0
31	0x00000000	0.0
32	0x00000000	0.0
33	0x00000000	0.0
34	0x00000000	0.0
35	0x00000000	0.0
36	0x00000000	0.0
37	0x00000000	0.0
38	0x00000000	0.0
39	0x00000000	0.0
40	0x00000000	0.0
41	0x00000000	0.0
42	0x00000000	0.0
43	0x00000000	0.0
44	0x00000000	0.0
45	0x00000000	0.0
46	0x00000000	0.0
47	0x00000000	0.0
48	0x00000000	0.0
49	0x00000000	0.0
50	0x00000000	0.0
51	0x00000000	0.0
52	0x00000000	0.0
53	0x00000000	0.0
54	0x00000000	0.0
55	0x00000000	0.0
56	0x00000000	0.0
57	0x00000000	0.0
58	0x00000000	0.0
59	0x00000000	0.0
60	0x00000000	0.0
61	0x00000000	0.0
62	0x00000000	0.0
63	0x00000000	0.0
64	0x00000000	0.0
65	0x00000000	0.0
66	0x00000000	0.0
67	0x00000000	0.0
68	0x00000000	0.0
69	0x00000000	0.0
70	0x00000000	0.0
71	0x00000000	0.0
72	0x00000000	0.0
73	0x00000000	0.0
74	0x00000000	0.0
75	0x00000000	0.0
76	0x00000000	0.0
77	0x00000000	0.0
78	0x00000000	0.0
79	0x00000000	0.0
80	0x00000000	0.0
81	0x00000000	0.0
82	0x00000000	0.0
83	0x00000000	0.0
84	0x00000000	0.0
85	0x00000000	0.0
86	0x00000000	0.0
87	0x00000000	0.0
88	0x00000000	0.0
89	0x00000000	0.0
90	0x00000000	0.0
91	0x00000000	0.0
92	0x00000000	0.0
93	0x00000000	0.0
94	0x00000000	0.0
95	0x00000000	0.0
96	0x00000000	0.0
97	0x00000000	0.0
98	0x00000000	0.0
99	0x00000000	0.0
100	0x00000000	0.0
101	0x00000000	0.0
102	0x00000000	0.0
103	0x00000000	0.0
104	0x00000000	0.0
105	0x00000000	0.0
106	0x00000000	0.0
107	0x00000000	0.0
108	0x00000000	0.0
109	0x00000000	0.0
110	0x00000000	0.0
111	0x00000000	0.0
112	0x00000000	0.0
113	0x00000000	0.0
114	0x00000000	0.0
115	0x00000000	0.0
116	0x00000000	0.0
117	0x00000000	0.0
118	0x00000000	0.0
119	0x00000000	0.0
120	0x00000000	0.0
121	0x00000000	0.0
122	0x00000000	0.0
123	0x00000000	0.0
124	0x00000000	0.0
125	0x00000000	0.0
126	0x00000000	0.0
127	0x00000000	0.0

action_model._continuous_distribution.mu.weight f4 [1, 128]
0	0x3ac43a5f	0.0014971009
1	0x3b88d589	0.004175846
2	0x3b464667	0.0030254365
3	0xbbc08693	-0.0058754175
4	0x3cc5dea7	0.02415402
5	0xb9efc5da	-0.00045733043
6	0xbad447ca	-0.0016195711
7	0x3bc1e726	0.0059174476
8	0x3c3dd66f	0.0115867695
9	0x3bd7bef8	0.0065840445
10	0xbbe49f10	-0.0069769695
11	0x3b779cbb	0.0037782628
12	0x3c2873db	0.010281528
13	0xbc825353	-0.015908873
14	0x3cb9bcaa	0.02267297
15	0x3c4cf568	0.012509681
16	0xbc84db6f	-0.016217915
17	0xbc55feb0	-0.0130612105
18	0x3c3b0ba7	0.011416352
19	0x3d11b31d	0.035571206
20	0xbce00b95	-0.027349273
21	0x3c9fa3da	0.01948731
22	0xbcd23d82	-0.025664095
23	0x3a853b8a	0.0010164839
24	0xbaf37a5b	-0.0018575893
25	0x3cc66d97	0.024222178
26	0xbc42b8bc	-0.011884864
27	0xbb9df2f3	-0.0048202216
28	0x3d2e4104	0.042542472
29	0xbc8d3e13	-0.017241513
30	0x3c3712df	0.011173933
31	0x3a7ef95a	0.00097264873
32	0x3c2dd76c	0.010610443
33	0x3bd3e4e5	0.0064664953
34	0xbc8c1a03	-0.017102247
35	0xbc046c66	-0.008082485
36	0x3ce2d365	0.027688691
37	0xbaa18681	-0.001232341
38	0x3b0df9b4	0.0021663727
39	0x3c7527b7	0.014963082
40	0xbaf50152	-0.001869241
41	0x3ce02937	0.027363403
42	0x3c6aba65	0.0143266665
43	0xbc0b43ad	-0.008500022
44	0xbb0bf08b	-0.0021353092
45	0xbac4fe18	-0.0015029339
46	0x3b81f132	0.0039655203
47	0x3c8e241f	0.017351208
48	0x39f9e9ea	0.0004766726
49	0xbc988ab0	-0.018620819
50	0xbb65bff3	-0.0035057038
51	0x3cc0ef5a	0.023551632
52	0x3c315eff	0.0108258715
53	0x3c53f343	0.012936416
54	0xbcc395df	-0.023875175
55	0x3b1771d2	0.0023108614
56	0xbc6e999a	-0.014562989
57	0xbc2d9522	-0.010594638
58	0xbbb3420b	-0.0054705194
59	0x3cd9aab5	0.026570657
60	0x3c014cb3	0.007891822
61	0x3c0c65b1	0.008569167
62	0x3ca2ed10	0.01988843
63	0x3d3962a7	0.045260098
64	0x3c308d45	0.010775869
65	0xbcfaf565	-0.030634591
66	0xbcbea0c7	-0.023270024
67	0xbb684a72	-0.0035444763
68	0x3c38bd2a	0.011275569
69	0xbbbdadd8	-0.005788546
70	0x3d2f920d	0.042863894
71	0x3cbd88e0	0.023136556
72	0x3cfbd598	0.030741498
73	0xbcedf720	-0.029048502
74	0x3cd97d57	0.026549025
75	0xbcca782c	-0.024715506
76	0x3b83479a	0.0040063383
77	0x3c45b8d2	0.01206799
78	0xbc807097	-0.015678687
79	0x3aeaff32	0.0017928837
80	0x3c2551f5	0.010090341
81	0x3c80996b	0.015698155
82	0xb9671a9f	-0.00022039794
83	0x3b8e0c16	0.004334937
84	0x3ce8eeb5	0.028434137
85	0x3caa2a46	0.02077211
86	0xbcd62783	-0.026141888
87	0x3bef218f	0.0072977017
88	0xbc647b67	-0.013945437
89	0x3c2ca167	0.010536528
90	0xbd5ba772	-0.053626485
91	0x3ba01c4b	0.0048861853
92	0xbcda2935	-0.026630977
93	0x3c901e7f	0.017592667
94	0x3c7176d2	0.014737802
95	0x3c0e00de	0.008667199
96	0x3c37f700	0.011228323
97	0xbba7a210	-0.005115755
98	0x3cb280d2	0.021789942
99	0xb9a338e0	-0.00031132158
100	0x3bc373db	0.005964739
101	0x3c304c4f	0.010760381
102	0xbca1a4ef	-0.019731967
103	0x3c586200	0.013206959
104	0xbbe065f5	-0.0068480917
105	0x3b58e1ab	0.0033093493
106	0xbc6f978d	-0.014623535
107	0xb9a9b212	-0.00032366865
108	0x3b3635aa	0.0027802982
109	0xb903d196	-0.0001257121
110	0x3cfe7bc8	0.031064883
111	0x3d121570	0.035664976
112	0xbc64004f	-0.013916089
113	0x3bca55e2	0.006174789
114	0x3b8ced3a	0.0043007405
115	0xbc8aa7d0	-0.016925722
116	0xbb823669	-0.0039737714
117	0x3d1d2aa4	0.038370743
118	0xbcc86243	-0.024460917
119	0xbc8d8f29	-0.017280178
120	0xbbd99935	-0.006640578
121	0x3c9de58f	0.019274501
122	0x3bb6856b	0.005570104
123	0xbcd1502b	-0.025550922
124	0x3bc1436c	0.00589793
125	0x3c98fe8a	0.018676061
126	0xba6eb372	-0.0009105719
127	0xbc90c91f	-0.017674027

action_model._discrete_distribution.branches.0.weight f4 [3, 128]
0	0x3c09916f	0.0083964905
1	0xbbe26c1d	-0.0069098608
2	0x3b663347	0.0035125779
3	0x3be44e80	0.0069673657
4	0xbc32eb03	-0.010920289
5	0x3b877d23	0.0041347905
6	0xbc402d2b	-0.011729519
7	0x3c8be903	0.017078882
8	0xba48e081	-0.0007662848
9	0xbbd77b8a	-0.0065760063
10	0x3c03963f	0.008031427
11	0xbb3a937a	-0.002846925
12	0x3b80d596	0.0039317114
13	0x3c667b97	0.014067552
14	0x3bdbed15	0.006711612
15	0x3b6388f5	0.0034719084
16	0x3c26b0b3	0.010173964
17	0x3b0846f1	0.0020794237
18	0xbbbbcfd5	-0.0057315626
19	0xbbbfb137	-0.005849983
20	0x3c40c91f	0.011766701
21	0x3c14ecb4	0.009089638
22	0xbaf8ae5a	-0.0018972859
23	0x3be3cf95	0.006952236
24	0xbbe27017	-0.006910335
25	0xbbb6b83e	-0.0055761626
26	0xbb48211b	-0.003053731
27	0xbaad1ddd	-0.0013207752
28	0xbb1027d8	-0.0021996405
29	0xbc6c05e7	-0.014405704
30	0x3ba2b19f	0.0049650217
31	0xbc5a6aab	-0.013331096
32	0xbbda3b50	-0.0066599026
33	0x3a7de1fa	0.0009684857
34	0xbbf10493	-0.0073552816
35	0x3c1b83ee	0.009491904
36	0x3b1f6edb	0.002432755
37	0x3b524965	0.0032087204
38	0x3b7b1670	0.0038312934
39	0x3c71ab07	0.014750249
40	0x3b7b43cb	0.0038339968
41	0x3c37d72f	0.011220737
42	0xba354b87	-0.00069158565
43	0xbb35feeb	-0.002777035
44	0x3bc3d9c9	0.0059768897
45	0xbc0ec6c8	-0.008714385
46	0x3b1a8067	0.002357507
47	0xb9d1152b	-0.00039879358
48	0x3b053b5f	0.0020329577
49	0x3c122b5f	0.008921473
50	0x3a9834e2	0.001161244
51	0xbb9bfcb7	-0.0047603506
52	0x3a82bf7f	0.0009975283
53	0x3b8b5c5b	0.004252953
54	0xbb88abc6	-0.0041708676
55	0x3b78b26a	0.003794814
56	0x3aa61743	0.0012671727
57	0x3bb4bd54	0.0055157337
58	0xbb78081f	-0.0037846637
59	0x3b9e17f0	0.004824631
60	0x3c21b051	0.009868697
61	0x3b081f9a	0.002077079
62	0xbb338156	-0.0027390323
63	0x3b4a3abf	0.003085777
64	0xbb95efab	-0.00457569
65	0x3b81bd76	0.003959353
66	0x3c0110b0	0.007877514
67	0xbc2b5223	-0.010456595
68	0x3b89ab2d	0.004201314
69	0xbb3e0bc1	-0.0028998705
70	0x3c036a5d	0.008020964
71	0x3c17ecb5	0.009272744
72	0xbb3dd1f1	-0.0028964246
73	0x3c7b737a	0.015347356
74	0xbb0824e7	-0.0020773949
75	0xbbc3ca78	-0.005975064
76	0xbc77f8e0	-0.01513502
77	0xbaefed9b	-0.0018305065
78	0x3a8d6133	0.0010786414
79	0x3c02605d	0.007957545
80	0xbb8dcf0b	-0.00432766
81	0x3b380ca7	0.0028083713
82	0x3c06c2e3	0.008225176
83	0x3b30cdda	0.0026978166
84	0x3bc71858	0.0060759
85	0x3be2a5ef	0.0069167535
86	0xbb7a3e03	-0.0038183935
87	0xbaa643f6	-0.0012685049
88	0xbc2fcf2e	-0.010730548
89	0x3c028a87	0.007967598
90	0x3c34abfe	0.011027334
91	0xbb570bd0	-0.0032813437
92	0x3b563540	0.0032685548
93	0x3a54ddf7	0.00081202335
94	0xbc4b548f	-0.012410297
95	0x3c1f8b3f	0.009737789
96	0x3a690e67	0.0008890391
97	0xbc8e4077	-0.017364724
98	0x3c560d53	0.0130647
99	0xbb53bdba	-0.003230913
100	0x3c905d19	0.017622517
101	0xbbe6d942	-0.007044942
102	0xbbe977c5	-0.0071248733
103	0xbbb821a9	-0.005619247
104	0xbb9cba87	-0.004782978
105	0xbb64b0e7	-0.003489548
106	0xbb0c240a	-0.0021383786
107	0xbb992bd7	-0.0046744156
108	0xbc696a33	-0.014246511
109	0x3c13ab2b	0.009012978
110	0x3b604537	0.0034220943
111	0xbb7715b7	-0.0037702152
112	0xbc16c8a7	-0.009203113
113	0x3bf64d3a	0.0075165303
114	0x3bd0dfd7	0.00637434
115	0x3b926e3e	0.0044687083
116	0xbc932f2d	-0.017966831
117	0x3b624fe8	0.003453249
118	0x3b26dc8d	0.0025461048
119	0x3bee18ef	0.007266156
120	0x3b5f584a	0.0034079724
121	0xbc525b1f	-0.012839108
122	0x3b08591d	0.0020805069
123	0x3b554fa3	0.0032548688
124	0x3b9a9d2d	0.004718444
125	0x3bb980a2	0.005661086
126	0xbc5af1ed	-0.013363344
127	0xbb4f4957	-0.0031629407
128	0xbc0df190	-0.00866355
129	0xbc516b27	-0.012781895
130	0x3a2e7901	0.0006655604
131	0xbafa8e57	-0.0019115907
132	0xbc644b88	-0.013934024
133	0x3c00e897	0.007867954
134	0xbb378e8d	-0.002800855
135	0x3b95ab68	0.0045675524
136	0xbbe4309b	-0.006963802
137	0x3bb471a2	0.00550671
138	0x3c424347	0.0118568605
139	0xbc65d6b0	-0.014028236
140	0x3c0b2e7f	0.008494972
141	0x3be9bf7b	0.007133422
142	0xba862b40	-0.0010236278
143	0xbb0bd12f	-0.00213344
144	0xbbb5c713	-0.005547413
145	0x3be75940	0.0070602
146	0xbbae75c7	-0.0053240987
147	0x3b9b0fa0	0.0047320873
148	0xbb969f81	-0.004596651
149	0xbba2b431	-0.004965328
150	0xba4b7ff4	-0.0007762902
151	0x3c33f441	0.010983528
152	0x3c50c5e0	0.01274249
153	0xbc23fa8f	-0.010008468
154	0x3beb8ebd	0.0071886466
155	0x3a73539f	0.0009282175
156	0x3c3d8edb	0.011569704
157	0xba61e882	-0.0008617715
158	0xbc624322	-0.013809951
159	0x3b81d08f	0.0039616297
160	0xbc62c6f3	-0.0138413785
161	0x3bed9aef	0.0072511355
162	0x3c666998	0.014063261
163	0xb95ea3f2	-0.00021232644
164	0xbae53a6b	-0.0017488723
165	0xbc4403fb	-0.01196384
166	0xbc468081	-0.012115599
167	0x3b2b4ebc	0.0026139459
168	0xbc96bcaa	-0.018400509
169	0xbbec78ab	-0.007216533
170	0x3bbde13e	0.005794673
171	0xbc0df2d2	-0.00866385
172	0x3a7bf608	0.00096115516
173	0x3c45f6ce	0.012082769
174	0x3c3c25e9	0.011483648
175	0xbc277faf	-0.010223313
176	0xbcac02fb	-0.020997515
177	0xbc0cf390	-0.008602992
178	0xbbca086b	-0.0061655543
179	0xbba26463	-0.0049558147
180	0xbb11f860	-0.0022273287
181	0xbc08a4b0	-0.008340046
182	0x3c355c2e	0.011069341
183	0xbc916643	-0.017748957
184	0xb920c1aa	-0.00015330935
185	0x3c85b84e	0.016323235
186	0x3bd5ead3	0.0065282374
187	0x3cb0b6fe	0.021571632
188	0x3c2ba067	0.010475255
189	0xbcce854a	-0.025210042
190	0x3bbb2b27	0.0057119313
191	0xbc4e54d0	-0.012593463
192	0x3b71f592	0.0036920053
193	0xbb798635	-0.0038074378
194	0x3c4e87a8	0.012605585
195	0xbc0864e7	-0.008324838
196	0x3c433c67	0.0119162565
197	0xbc4033a8	-0.011731066
198	0x3c79152a	0.0152028
199	0xbc1b764b	-0.009488652
200	0x3b207d7d	0.002448886
201	0xbbebabd5	-0.007192115
202	0xbb13ee81	-0.002257258
203	0x3af94d8a	0.0019020301
204	0x3aef0462	0.0018235559
205	0xbb134f2b	-0.0022477608
206	0x3c1013ab	0.008793752
207	0xbb07c342	-0.0020715748
208	0xbbbf7fae	-0.005844078
209	0xbc3f43ad	-0.01167385
210	0xbc2dcc15	-0.010607739
211	0x3c403a68	0.011732675
212	0x39e379e2	0.00043387624
213	0x3c175c0c	0.009238254
214	0xbb0c6559	-0.0021422713
215	0x3c5fdfaf	0.01366417
216	0xbc19b197	-0.00938072
217	0xbbf05b4a	-0.0073351013
218	0xbbd1a4ef	-0.0063978354
219	0xbc9946ad	-0.018710459
220	0xbc80650e	-0.015673187
221	0x3c2c92b8	0.010533027
222	0xbac9af3a	-0.0015387305
223	0x3c986f93	0.01860789
224	0x3bc2568f	0.0059307287
225	0x3be78595	0.0070654848
226	0x3c197327	0.009365833
227	0xbbecdcca	-0.0072284685
228	0x3baddb7d	0.005305706
229	0x3c640ffd	0.0139198275
230	0xbb735162	-0.0037127365
231	0xbc54ae23	-0.012980971
232	0x39fab3a0	0.00047817547
233	0x3bc6039c	0.0060429107
234	0x3c16b7be	0.009199081
235	0xbbcfd925	-0.0063430243
236	0x3bdbafb3	0.0067042946
237	0x3c3838bd	0.011243996
238	0xbc3226ce	-0.01087351
239	0xbc04484e	-0.008073879
240	0x3b9dbc58	0.004813712
241	0x3c3d8d64	0.011569355
242	0x3bb130c3	0.005407424
243	0x3c3a9c64	0.0113898255
244	0x39e4942f	0.00043597954
245	0x3c85bcc8	0.01632537
246	0xbbe5484b	-0.0069971434
247	0xbb8e228e	-0.0043376153
248	0xbb41b656	-0.0029558144
249	0x3c109166	0.008823728
250	0x3c015f22	0.007896217
251	0x3ba6cc81	0.0050902967
252	0xbc22b423	-0.009930643
253	0x3b738aa5	0.0037161496
254	0xbb8d201a	-0.0043068053
255	0x3c711557	0.0147145605

action_model._discrete_distribution.branches.0.bias f4 [3]
0	0x00000000	0.0
1	0x00000000	0.0
2	0x00000000	0.0

action_model._discrete_distribution.branches.1.weight f4 [2, 128]
0	0xbae56b57	-0.0017503303
1	0x3c6e623b	0.014549787
2	0xbc15374e	-0.009107424
3	0x38a7050f	7.964123e-05
4	0x3b03334b	0.0020019587
5	0x3b01ebaf	0.0019824316
6	0x3c51bf6b	0.012801985
7	0x3c0644d4	0.008195121
8	0x3bdec4f0	0.006798379
9	0x3ba5214a	0.0050393688
10	0xbbd77385	-0.0065750503
11	0x3bd52592	0.006504723
12	0x3a41508f	0.000737437
13	0xbc52bf9a	-0.012863064
14	0xbbefe3f0	-0.0073208734
15	0x3c0d1a4f	0.0086122295
16	0xbc67f8e5	-0.014158462
17	0xb95ddf10	-0.000211593
18	0xbbdf00ff	-0.0068055387
19	0xbbde4c35	-0.006783987
20	0x3c5eaeff	0.013591527
21	0xbb192df2	-0.0023373333
22	0xbc333cf0	-0.010939822
23	0xbbae8ed7	-0.0053270864
24	0x3bbe52dc	0.0058082175
25	0x3ba0e037	0.004909541
26	0x3c70190d	0.01465441
27	0xbc8582d8	-0.016297743
28	0xbbe84fed	-0.007089606
29	0x3bbecb0d	0.0058225454
30	0xbb7610c3	-0.0037546612
31	0xbbe45a90	-0.0069688037
32	0x3c1f5d40	0.009726822
33	0xb83a9a0b	-4.448932e-05
34	0xbbb2155d	-0.0054346756
35	0x3b516a97	0.0031954402
36	0x3b9cac3f	0.0047812755
37	0xbc5026bd	-0.012704548
38	0xbae2d1a8	-0.0017304914
39	0x3b07bc94	0.0020711767
40	0xbc63b7f0	-0.013898835
41	0x3b93c928	0.0045100637
42	0xba882ab9	-0.0010388709
43	0x3c0bfc04	0.008543972
44	0xbc4c4ef3	-0.012469995
45	0xb978b30a	-0.0002371782
46	0xbadd54b3	-0.0016886204
47	0xbc066ea1	-0.008205087
48	0x3cfd471b	0.030917695
49	0x3c3f8267	0.011688805
50	0x3b621e13	0.003450279
51	0xba7e8b7d	-0.00097101164
52	0xba9f8aa0	-0.0012172051
53	0x3a5b20d0	0.00083590765
54	0x3c0037f7	0.007825843
55	0xb996c38e	-0.0002875593
56	0xbc5905b7	-0.013245991
57	0x3c01ce1f	0.007922678
58	0x3c82e084	0.015976198
59	0x3c0d0a09	0.00860835
60	0x3ba82403	0.005131246
61	0xbbd49907	-0.006487969
62	0x3b29aa9f	0.0025889052
63	0x3c144990	0.009050742
64	0xbbbae67f	-0.005703747
65	0x3b55783b	0.0032572884
66	0x3b3433ed	0.002749677
67	0xbc090a7f	-0.008364319
68	0x3c5ae628	0.013360538
69	0x3aa788d8	0.0012781871
70	0x3c268bc8	0.010165162
71	0x3b6258e7	0.0034537853
72	0xbc67327b	-0.014111157
73	0xbc7e030d	-0.015503657
74	0x3bcde5ba	0.006283489
75	0xbc3ef77f	-0.011655687
76	0x3c671127	0.0141032105
77	0xbc0111fd	-0.007877824
78	0xbba4be52	-0.0050275708
79	0x3a44442e	0.0007486966
80	0x3c1efd73	0.009703982
81	0xbb212fe8	-0.0024595205
82	0x3bda39c8	0.00665972
83	0xb95657c2	-0.00020441323
84	0xbb60fa82	-0.0034329002
85	0xbba2ef73	-0.004972392
86	0xbbcca69a	-0.0062454464
87	0x3a876739	0.0010330445
88	0x3b2825bd	0.002565726
89	0x3b9d091f	0.004792347
90	0x3c737445	0.014859264
91	0xbbc6f0f7	-0.0060712057
92	0xbcadfbd6	-0.021238249
93	0xbb936e49	-0.004499231
94	0x3a279768	0.0006393106
95	0xbc481d04	-0.012213949
96	0xbb7735b7	-0.0037721226
97	0x3c16bc6a	0.009200195
98	0x3b5e2b22	0.003390022
99	0x3bb82cf3	0.0056205927
100	0x3c61ca7b	0.013781185
101	0x3bdea150	0.0067941323
102	0xbc039663	-0.00803146
103	0xbc4ebbf2	-0.012618052
104	0xbbee6e85	-0.0072763585
105	0xbc046f46	-0.00808317
106	0x3b5a1140	0.0033274442
107	0xbb7a539d	-0.003819681
108	0xbbb0dd75	-0.0053974935
109	0xbc23db68	-0.010001041
110	0x3bb50a98	0.0055249445
111	0xba2124b5	-0.00061471324
112	0x3c79458a	0.015214333
113	0xb7676d45	-1.3794114e-05
114	0x3c44f55a	0.012021387
115	0xbac7eb70	-0.0015252661
116	0x3c015308	0.007893331
117	0xb96bfa2a	-0.0002250454
118	0xbb3c62fb	-0.002874552
119	0xbcc0cfbf	-0.023536561
120	0x3bc568c7	0.0060244533
121	0xbb6a2bab	-0.0035731595
122	0x3bb81e77	0.005618866
123	0xbc0f1447	-0.008732862
124	0x3af67952	0.0018804467
125	0x3c8c517e	0.017128702
126	0xbc9472fe	-0.018121239
127	0x3af80905	0.0018923586
128	0x3ab08965	0.0013468681
129	0x3aee3068	0.0018172385
130	0xbb483aa3	-0.0030552528
131	0xb9f40bed	-0.00046548192
132	0x3af5ee1a	0.0018762976
133	0x3be923a7	0.007114846
134	0xbb2fba52	-0.0026813936
135	0xbc364246	-0.011124199
136	0xbc05f8e4	-0.008177016
137	0x3a3efed7	0.0007285899
138	0x3c4a4830	0.012346312
139	0x3c1c2004	0.0095291175
140	0xbc4cc390	-0.012497798
141	0x3bf64d3f	0.0075165327
142	0xbc6bda8a	-0.0143953655
143	0x3bf61933	0.007510328
144	0x3c6218f5	0.0137998955
145	0xbac83677	-0.0015275021
146	0x3c34d1ef	0.01103638
147	0x3ba8123f	0.005129128
148	0xbae5917f	-0.0017514675
149	0x3b4cefdb	0.0031270895
150	0xbce629e8	-0.028096154
151	0xbbc9265e	-0.006138607
152	0x3a515d53	0.00079866237
153	0xbac156b3	-0.001475057
154	0xbc2d410d	-0.010574591
155	0xbb2904d3	-0.002579023
156	0x3c326081	0.010887266
157	0xbb672588	-0.0035270173
158	0x3c4fff1a	0.012695098
159	0x3c4cbaff	0.012495755
160	0x3c5031c2	0.012707176
161	0x3bbbd503	0.00573218
162	0xbbc80147	-0.006103668
163	0xbb624702	-0.0034527187
164	0x3b1e5893	0.002416168
165	0x3c1ec680	0.009690881
166	0xbb537b47	-0.0032269524
167	0x3b913883	0.0044317855
168	0xbbce9d17	-0.0063053477
169	0x3c11e6f3	0.00890516
170	0x3ba6ce61	0.0050905203
171	0x3c8d3aa8	0.017239884
172	0xbaa31b7e	-0.0012444106
173	0xbbc9adfb	-0.0061547733
174	0xbb9cfefc	-0.0047911387
175	0x3c1f8351	0.009735898
176	0xbb597ce5	-0.0033186015
177	0x3c940f07	0.018073572
178	0xbb33c33f	-0.0027429608
179	0x3b97f4dc	0.004637344
180	0xbc07dd89	-0.008292564
181	0x3c291efc	0.010322329
182	0x3b92480a	0.004464154
183	0xbb49da1e	-0.0030800174
184	0x3cb097ef	0.021556823
185	0x3b2b6bed	0.0026156858
186	0xbb8563d3	-0.004070738
187	0xbcaa560b	-0.020792982
188	0xbc0eee12	-0.008723753
189	0x3b3e8ac6	0.0029074415
190	0xbc1769d3	-0.009241539
191	0x3c303e65	0.0107570635
192	0x3b134022	0.0022468646
193	0xbb911e4e	-0.0044286614
194	0x3a9d80fb	0.0012016589
195	0xbba27ef0	-0.00495898
196	0xbc296681	-0.01033938
197	0xbbed80ff	-0.0072480435
198	0xb99f5bb1	-0.0003039516
199	0x3b3edfbf	0.0029125062
200	0x3b8331b7	0.004003729
201	0xbbee47a5	-0.0072717243
202	0x3c0fa439	0.008767181
203	0xbc2ac792	-0.010423558
204	0x3c34a97c	0.011026736
205	0x3ae125f0	0.0017177444
206	0xbc39709b	-0.011318351
207	0x3c8ec367	0.01742716
208	0xbc6901c2	-0.0142216105
209	0xbbd33f2a	-0.0064467387
210	0x3ab582b1	0.0013848153
211	0xbb291795	-0.002580141
212	0x3b40071b	0.002930111
213	0x3b15028a	0.002273711
214	0xbb7c0a15	-0.0038458158
215	0x3ba3b9c4	0.00499651
216	0xbc81a832	-0.015827272
217	0xb89c920a	-7.4658616e-05
218	0xbca0bae0	-0.019620359
219	0xbbe2f560	-0.0069262236
220	0xbcb84320	-0.022492945
221	0xbb2185bd	-0.0024646365
222	0xbb0ac7f3	-0.0021176308
223	0x3b96ed42	0.00460592
224	0x3c01dff8	0.0079269335
225	0xbc1e0ec3	-0.009647074
226	0xbc5079f0	-0.012724385
227	0xbc4c7b1f	-0.012480526
228	0xbb80ab09	-0.003926639
229	0x3c2543d0	0.010086969
230	0xbc5c52a5	-0.013447438
231	0xbc28902a	-0.010288278
232	0xbb9baaa7	-0.004750568
233	0xbc4a2ce7	-0.012339807
234	0xbc193960	-0.009352058
235	0xbae43105	-0.0017409628
236	0x3b92d547	0.004480991
237	0xbb8565e9	-0.0040709865
238	0xbc496868	-0.012292959
239	0x3c472515	0.012154837
240	0xbc28ef5e	-0.010310976
241	0xbc3b44a6	-0.011429941
242	0x3c326a08	0.010889538
243	0xbc5de90d	-0.013544333
244	0x3b895bcc	0.0041918512
245	0x3bbf3a7f	0.0058358307
246	0xbca4520a	-0.02005865
247	0x3c842ff9	0.016136156
248	0xbb37bbf3	-0.002803561
249	0xbab9bb31	-0.0014170167
250	0xba18b9fa	-0.00058260525
251	0xbccc0c9b	-0.024908355
252	0x3b51112f	0.0031901111
253	0x3bf5b8c0	0.0074988306
254	0xbc063bdc	-0.0081929825
255	0x3aaa7c83	0.0013007078

action_model._discrete_distribution.branches.1.bias f4 [2]
0	0x00000000	0.0
1	0x00000000	0.0
