results/ppo/Player Behaviour/Player Behaviour-640.pt (torch, 153007 bytes, 15 tensors)

discrete_act_size_vector f4 [1, 2]
0	0x40400000	3.0
1	0x40000000	2.0

network_body._body_endoder.seq_layers.0.weight f4 [128, 6]
0	0xbd8b6b00	-0.06807518
1	0x3f425ef8	0.7592616
2	0x3f06095b	0.52358025
3	0xbe4bc7da	-0.19900456
4	0xbccb3513	-0.024805581
5	0xbe0fa754	-0.14028674
6	0xbe82c26a	-0.2553895
7	0x3f21684c	0.6304977
8	0xbe8a502f	-0.270143
9	0xbd5ebfdb	-0.054382186
10	0x3dc57c77	0.096428804
11	0xbece13fa	-0.40249616
12	0xbbf064d4	-0.0073362384
13	0xbf0cab20	-0.54948616
14	0x3f8cf2d2	1.1011603
15	0xbd915f10	-0.0709821
16	0xbf19d497	-0.6009001
17	0xbe8db78c	-0.27679098
18	0xbf09ad3d	-0.53779966
19	0x3e9c7bfc	0.30563343
20	0xbf097013	-0.53686637
21	0x3e28977a	0.16464034
22	0xbecbf256	-0.39833325
23	0xbec1f610	-0.37883043
24	0xbec9f646	-0.39445704
25	0xbc1cbfca	-0.00956721
26	0xbd55078d	-0.052009154
27	0xbec87a16	-0.39155644
28	0xbf48ea1d	-0.7848223
29	0x3fa4ed07	1.2884835
30	0xbe4b707d	-0.1986713
31	0xbe2803f8	-0.16407764
32	0xbe92a5db	-0.28642163
33	0x3f21fc6d	0.63275796
34	0x3f096502	0.5366975
35	0xbeed9528	-0.4640286
36	0x3cb6655f	0.022265134
37	0xbf293b9e	-0.66106594
38	0xbf1f9c24	-0.62347627
39	0xbe9883cd	-0.29788056
40	0xbb11b424	-0.0022232616
41	0xbe33d425	-0.17561395
42	0x3e8164b7	0.25272152
43	0x3f38e608	0.72226
44	0xbf0ff243	-0.5622904
45	0xbb5cdd1c	-0.0033701127
46	0xbd7c4e8d	-0.06159835
47	0x3f0d2237	0.5513033
48	0x3f1994b8	0.5999255
49	0x3e4a7fd5	0.19775327
50	0x3f30129e	0.6877841
51	0xbf63e1a0	-0.8901615
52	0xbf5b8dc7	-0.8576321
53	0x3e0a31f8	0.13495624
54	0x3e8d875a	0.27642328
55	0xbf37ed76	-0.7184671
56	0x3d886e74	0.06661692
57	0xbf22f0e2	-0.6364881
58	0x3ea8e265	0.32985225
59	0x3e1d14fa	0.15340033
60	0xbc8d8dde	-0.017279562
61	0xbe9e49ef	-0.30915782
62	0x3e8b4297	0.27199242
63	0x3d97bbee	0.074088916
64	0x3ea6c189	0.3256953
65	0xbee5ff74	-0.44921458
66	0xbf136966	-0.575827
67	0xbde70e18	-0.11281985
68	0x3e121d63	0.14269023
69	0xbe490f6d	-0.1963479
70	0x3e652002	0.22375491
71	0x3d928458	0.07154149
72	0xbcf90e88	-0.030402437
73	0xbe0755da	-0.13216344
74	0x3ede5f35	0.43432012
75	0xbf70f534	-0.9412415
76	0xbeb01415	-0.3439032
77	0x3ee8f50c	0.45499456
78	0xbda98fad	-0.08279357
79	0x3f141326	0.5784172
80	0x3f1fbf57	0.62401336
81	0x3d576637	0.052587714
82	0xbf458f74	-0.7717202
83	0x3bdc4e94	0.0067232344
84	0x3d6e3fae	0.0581662
85	0xbdd95437	-0.10611766
86	0x3f275213	0.6535961
87	0xbea2a6c5	-0.3176786
88	0xbf082d34	-0.53193974
89	0x3f3e183f	0.74255747
90	0xbdad9c8a	-0.08477123
91	0xbc047b10	-0.008085981
92	0xbe9fc9d1	-0.3120866
93	0xbf4bb10b	-0.7956702
94	0xbca6849d	-0.020326907
95	0x3f30ab54	0.69011426
96	0x3f19d94e	0.60097206
97	0xbf1dfb80	-0.61711884
98	0x3ebe7e76	0.37205857
99	0xbd9af0e7	-0.0756548
100	0x3ec8b352	0.3919931
101	0xbde58964	-0.11207846
102	0xbe0c21e7	-0.13684808
103	0x3dee442a	0.11634095
104	0x3db393d3	0.087684296
105	0x3f4a766b	0.7908694
106	0xbcbc27b7	-0.022968156
107	0x3e31fc7b	0.1738147
108	0x3e523aa7	0.20530187
109	0x3f1f3beb	0.622008
110	0xbf19bd74	-0.6005471
111	0x3ef4a56e	0.47782463
112	0x3ca69383	0.020334011
113	0xbec44ab9	-0.3833826
114	0xbe89909a	-0.26868135
115	0xbeb38967	-0.35065767
116	0x3e839b5b	0.25704464
117	0x3e8ddad6	0.2770602
118	0x3ee4fc35	0.4472367
119	0xbef5ce11	-0.4800878
120	0xbdcc994f	-0.09990179
121	0xbf1d56e5	-0.61460716
122	0x3f14a3df	0.5806255
123	0x3e449282	0.19196513
124	0xbf277e22	-0.6542684
125	0x3e69e670	0.22841811
126	0xbefdfd48	-0.496073
127	0xbf33c7ac	-0.7022655
128	0xbdf1869e	-0.11793254
129	0x3f1b8d36	0.60762346
130	0x3e7193c8	0.2359153
131	0xbdc310ec	-0.09524712
132	0xbdc2b8f1	-0.09507931
133	0xbe331eb0	-0.17492175
134	0xbea4bc5a	-0.3217495
135	0x3e016a48	0.126382
136	0xbeaac3fc	-0.3335265
137	0x3f202563	0.6255705
138	0x3e223a90	0.15842652
139	0xbd253a80	-0.040338993
140	0x3f32b854	0.6981251
141	0xbd08bc7b	-0.033382874
142	0xbfac939c	-1.3482547
143	0xbd9dd4f7	-0.077066354
144	0xbea3fcc8	-0.32028794
145	0xbec4e64a	-0.38456947
146	0xbf0a6235	-0.540561
147	0x3f0036ed	0.5008381
148	0x3efe0c5f	0.49618813
149	0x3d9c2119	0.076235004
150	0x3e26dee3	0.16295962
151	0x3f59f108	0.8513341
152	0xbf7047df	-0.93859667
153	0x3d8358e4	0.06413439
154	0x3e141bb9	0.144637
155	0xbdf78c19	-0.120872684
156	0xbef88eda	-0.48546487
157	0xbf078cb0	-0.5294905
158	0x3f7547c7	0.9581265
159	0x3e0a9100	0.13531876
160	0xbf48e84e	-0.7847947
161	0xbf05bd6a	-0.5224215
162	0x3e45cc02	0.19316104
163	0xbda211b9	-0.079135366
164	0xbe90f7b0	-0.2831397
165	0x3e56510f	0.20929359
166	0x3f0e7209	0.55642754
167	0xbde930b5	-0.11386243
168	0x3ce0e96d	0.027455056
169	0xbe28ca9e	-0.16483542
170	0x3db7aec8	0.08968884
171	0x3f0cd8f3	0.5501854
172	0x3e3ef7d4	0.18649226
173	0x3e17859d	0.14797063
174	0x3e88a806	0.26690692
175	0x3e945579	0.2897146
176	0xbee9b799	-0.45647886
177	0xbeaeb355	-0.34121194
178	0x3ddbb60f	0.10728084
179	0x3e8c0657	0.27348587
180	0x3d95b34c	0.07309589
181	0x3e0ffbbf	0.14060877
182	0xbeb25b64	-0.3483535
183	0x3f441155	0.76588947
184	0x3f1b7b9d	0.60735494
185	0xbde037cb	-0.10948142
186	0xbe0a8cf2	-0.13530329
187	0xbef588ff	-0.47956082
188	0xbeff7144	-0.49891102
189	0xbebe1dab	-0.3713201
190	0xbeea4ec0	-0.45763206
191	0x3eb43333	0.35195312
192	0xbd978e29	-0.07400162
193	0x3d703604	0.058645263
194	0xbf1bd311	-0.60868937
195	0x3e1e673d	0.1546907
196	0xbf26719c	-0.65017104
197	0xbece5c4d	-0.40304795
198	0x3d506b58	0.05088362
199	0xbeaeceba	-0.34142095
200	0xbd9fd342	-0.07803966
201	0xbbbc4ec9	-0.0057466966
202	0xbe47b265	-0.19501646
203	0x3deee0de	0.11663984
204	0xbea590bd	-0.3233699
205	0x3e11fbb9	0.14256181
206	0x3eec18d1	0.46112683
207	0xbe739984	-0.2378903
208	0x3f745a71	0.954505
209	0x3f3b480d	0.73156816
210	0x3e367636	0.17818531
211	0xbf17e00a	-0.5932623
212	0xbd96e3d2	-0.07367672
213	0x3ea67b39	0.32515886
214	0x3f1906af	0.59775823
215	0x3ec645ab	0.38725027
216	0xbd7acabb	-0.061228495
217	0x3f2cb4fb	0.67463654
218	0xbf0900c9	-0.53516823
219	0xbe6d6cf9	-0.23186101
220	0xbe019b71	-0.12656952
221	0xbe30bf3d	-0.17260452
222	0xbead5ad4	-0.3385836
223	0x3e16bc1c	0.14720196
224	0xbe07c969	-0.13260426
225	0xbf11014b	-0.566426
226	0xbe6781d2	-0.22608116
227	0xbd880752	-0.06642021
228	0xbeac1d8f	-0.336163
229	0x3db9a6b4	0.09064999
230	0xbb407240	-0.0029364973
231	0xbef537e8	-0.47894216
232	0x3f1bdcf4	0.6088402
233	0x3d8261d7	0.06366318
234	0xbde53fe0	-0.11193824
235	0xbefc2e43	-0.49254045
236	0xbe22ef69	-0.1591164
237	0xbe8a59d5	-0.2702166
238	0x3f038717	0.51378006
239	0xbe3a5e76	-0.18200096
240	0xbd8440eb	-0.064576946
241	0xbe801a4f	-0.25020072
242	0x3eaa2362	0.3323012
243	0x3ec42f63	0.38317403
244	0x3e4e754f	0.20161937
245	0xbe8de744	-0.27715504
246	0xbef29bb4	-0.47384417
247	0x3e511893	0.2041953
248	0xbd3823b0	-0.04495591
249	0xbd789325	-0.060687203
250	0xbee3b05e	-0.44470495
251	0xbea1e6bd	-0.31621352
252	0x3f768c1b	0.96307534
253	0xbed891dc	-0.42298782
254	0xbd29244c	-0.04129438
255	0x3e5e8c1e	0.21733138

network_body._body_endoder.seq_layers.0.bias f4 [128]
0	0x00000000	0.0
1	0x00000000	0.0
2	0x00000000	0.0
3	0x00000000	0.0
4	0x00000000	0.0
5	0x00000000	0.0
6	0x00000000	0.0
7	0x00000000	0.0
8	0x00000000	0.0
9	0x00000000	0.0
10	0x00000000	0.0
11	0x00000000	0.0
12	0x00000000	0.0
13	0x00000000	0.0
14	0x00000000	0.0
15	0x00000000	0.0
16	0x00000000	0.0
17	0x00000000	0.0
18	0x00000000	0.0
19	0x00000000	0.0
20	0x00000000	0.0
21	0x00000000	0.0
22	0x00000000	0.0
23	0x00000000	0.0
24	0x00000000	0.0
25	0x00000000	0.0
26	0x00000000	0.0
27	0x00000000	0.0
28	0x00000000	0.0
29	0x00000000	0.0
30	0x00000000	0.0
31	0x00000000	0.0
32	0x00000000	0.0
33	0x00000000	0.0
34	0x00000000	0.0
35	0x00000000	0.0
36	0x00000000	0.0
37	0x00000000	0.0
38	0x00000000	0.0
39	0x00000000	0.0
40	0x00000000	0.0
41	0x00000000	0.0
42	0x00000000	0.0
43	0x00000000	0.0
44	0x00000000	0.0
45	0x00000000	0.0
46	0x00000000	0.0
47	0x00000000	0.0
48	0x00000000	0.0
49	0x00000000	0.0
50	0x00000000	0.0
51	0x00000000	0.0
52	0x00000000	0.0
53	0x00000000	0.0
54	0x00000000	0.0
55	0x00000000	0.0
56	0x00000000	0.0
57	0x00000000	0.0
58	0x00000000	0.0
59	0x00000000	0.0
60	0x00000000	0.0
61	0x00000000	0.0
62	0x00000000	0.0
63	0x00000000	0.0
64	0x00000000	0.0
65	0x00000000	0.0
66	0x00000000	0.0
67	0x00000000	0.0
68	0x00000000	0.0
69	0x00000000	0.0
70	0x00000000	0.0
71	0x00000000	0.0
72	0x00000000	0.0
73	0x00000000	0.0
74	0x00000000	0.0
75	0x00000000	0.0
76	0x00000000	0.0
77	0x00000000	0.0
78	0x00000000	0.0
79	0x00000000	0.0
80	0x00000000	0.0
81	0x00000000	0.0
82	0x00000000	0.0
83	0x00000000	0.0
84	0x00000000	0.0
85	0x00000000	0.0
86	0x00000000	0.0
87	0x00000000	0.0
88	0x00000000	0.0
89	0x00000000	0.0
90	0x00000000	0.0
91	0x00000000	0.0
92	0x00000000	0.0
93	0x00000000	0.0
94	0x00000000	0.0
95	0x00000000	0.0
96	0x00000000	0.0
97	0x00000000	0.0
98	0x00000000	0.0
99	0x00000000	0.0
100	0x00000000	0.0
101	0x00000000	0.0
102	0x00000000	0.0
103	0x00000000	0.0
104	0x00000000	0.0
105	0x00000000	0.0
106	0x00000000	0.0
107	0x00000000	0.0
108	0x00000000	0.0
109	0x00000000	0.0
110	0x00000000	0.0
111	0x00000000	0.0
112	0x00000000	0.0
113	0x00000000	0.0
114	0x00000000	0.0
115	0x00000000	0.0
116	0x00000000	0.0
117	0x00000000	0.0
118	0x00000000	0.0
119	0x00000000	0.0
120	0x00000000	0.0
121	0x00000000	0.0
122	0x00000000	0.0
123	0x00000000	0.0
124	0x00000000	0.0
125	0x00000000	0.0
126	0x00000000	0.0
127	0x00000000	0.0

network_body._body_endoder.seq_layers.2.weight f4 [128, 128]
0	0xbd4e5024	-0.050369397
1	0xbdf38e4e	-0.11892377
2	0xbd9f2b8f	-0.0777198
3	0x3d6e804e	0.05822783
4	0x3c64abaf	0.013956948
5	0x3df1bf8c	0.11804113
6	0x3c729186	0.014805203
7	0xbcfabc9d	-0.030607516
8	0x3d45cb42	0.048289545
9	0x3dcca0b5	0.0999159
10	0xbce3c333	-0.02780304
11	0xbb765a73	-0.0037590533
12	0x3d8a13da	0.06742068
13	0x3a8c6802	0.0010712149
14	0x3d383df9	0.044980977
15	0x3d853b9b	0.065055095
16	0xbdb945ac	-0.09046492
17	0xbc952962	-0.01820821
18	0xbc45ae16	-0.012065431
19	0xbca54ce5	-0.020178268
20	0xbcdf2a89	-0.027241962
21	0x3d68c4b6	0.056828223
22	0x3d8ec4ce	0.06971131
23	0xbe182345	-0.14857204
24	0x3dbeabb8	0.093100965
25	0x3becd3cc	0.0072273966
26	0xbd9ecc11	-0.07753766
27	0x3d02ec5a	0.031963684
28	0x3d4ab68d	0.0494905
29	0xbdd72059	-0.10504217
30	0xbe154f6a	-0.14581075
31	0xbdf7b4ed	-0.12095056
32	0x3c0ccad4	0.00859328
33	0x3b7805cf	0.003784526
34	0x3cfb0cf6	0.030645829
35	0xbdcab49c	-0.0989773
36	0x3d5ecf0f	0.054396685
37	0x3d3dc3b6	0.046329223
38	0xbd7e232a	-0.062045254
39	0x3d245d6e	0.040128164
40	0xbde02113	-0.109438084
41	0xbd6542bd	-0.05597185
42	0x3d6d689b	0.057961088
43	0xbe54a31d	-0.20765348
44	0x3d1b423e	0.03790497
45	0xbbea1147	-0.007143173
46	0xbc104585	-0.008805637
47	0xbdf9b430	-0.12192571
48	0x3cdfa7fd	0.027301783
49	0xbcfa8e5d	-0.030585462
50	0x3c41b1ee	0.011822207
51	0xbca18b44	-0.019719727
52	0xbcd70c76	-0.026251059
53	0x3dbed732	0.09318389
54	0x3dff0eb0	0.12453973
55	0xbba33a81	-0.0049813394
56	0xbca1e39c	-0.019761853
57	0xbd043772	-0.03227944
58	0xbcf1e9b6	-0.029530387
59	0x3da6fef2	0.08154096
60	0xbdad4ff5	-0.08462516
61	0xbc545450	-0.012959555
62	0xbdbd3d04	-0.092401534
63	0xbd917dcb	-0.07104071
64	0xbcf446ab	-0.029818853
65	0xbe4de79e	-0.20107886
66	0xbc10e8de	-0.008844582
67	0x3d475ba4	0.04867138
68	0xbe378c0a	-0.17924514
69	0xbe01e26a	-0.12684026
70	0x3dbd685b	0.0924842
71	0xbd8a7141	-0.06759883
72	0xbdf079f4	-0.11742011
73	0x3e105047	0.14093123
74	0xbdded280	-0.108799934
75	0x3db92b8b	0.09041508
76	0x3e81a04c	0.2531761
77	0x3d1086fc	0.03528498
78	0xbdf27eea	-0.11840613
79	0x3d5b0ccc	0.053479
80	0x3d44b86c	0.04802744
81	0xbc1b9646	-0.009496277
82	0x3b425e74	0.002965835
83	0xbd6b80f6	-0.057496034
84	0xbe040164	-0.12891155
85	0xbdb004d4	-0.08594671
86	0x3dda09c4	0.10646394
87	0x3d582e15	0.052778322
88	0xbe12d9a7	-0.1434084
89	0x3ceaad28	0.02864702
90	0xbdd94e98	-0.10610694
91	0x3c89d3e8	0.016824678
92	0x3d292d11	0.041302744
93	0x3c011dd1	0.007880644
94	0x3d483a96	0.048883997
95	0x3d516e37	0.0511305
96	0xbdf7d40d	-0.12100992
97	0x3c980fcb	0.018562218
98	0x3d2cd811	0.042198244
99	0x3c9739e7	0.018460227
100	0x3d4bf651	0.049795453
101	0xbdecefce	-0.115691766
102	0xbc77b8c3	-0.015119734
103	0xbe217e93	-0.1577094
104	0x3e2fc8f0	0.17166495
105	0x3dd64588	0.10462481
106	0xbe3da102	-0.18518451
107	0xbcad3037	-0.021141155
108	0x3cd8912a	0.026436407
109	0x3bda6da8	0.006665904
110	0x3d6e84b4	0.058232024
111	0x3ddc86d3	0.10767903
112	0x3c137a2f	0.009001299
113	0x3e0a55b7	0.1350926
114	0xbdba873c	-0.09107825
115	0x3dc0154f	0.09379064
116	0xbd474fc4	-0.048660055
117	0xb5038ef4	-4.9009327e-07
118	0xbdc2c7c3	-0.09510758
119	0x3d92a196	0.07159726
120	0x3d33eea7	0.04392877
121	0x3d10f764	0.03539218
122	0xbddf95a0	-0.109172106
123	0xbdbe0a47	-0.09279304
124	0x3ddf6b63	0.10909154
125	0x3dee11e0	0.11624503
126	0xbda2f823	-0.079574846
127	0xbcbb41ac	-0.022858463
128	0x3cfbe996	0.03075103
129	0x3c94801d	0.018127495
130	0xbd4ddad7	-0.05025753
131	0x3de2f738	0.110823095
132	0x3d6c2eac	0.057661697
133	0x3e3f7e0b	0.18700425
134	0xbd3092e4	-0.043108836
135	0xbbaea900	-0.005330205
136	0xbe2e05b9	-0.1699437
137	0x3d42fd73	0.04760499
138	0xbd53d172	-0.051713414
139	0x3d723129	0.059128914
140	0xbcc766b1	-0.02434096
141	0x3e376333	0.17908935
142	0x3d78e6f3	0.060767125
143	0xbe0c8e9c	-0.13726276
144	0xbcb162f6	-0.021653634
145	0x387740e9	5.894984e-05
146	0xbdcd3769	-0.10020334
147	0x3dc9213d	0.09820793
148	0xbdbb48b8	-0.091447294
149	0xbc88eb9e	-0.016713914
150	0xbd154390	-0.036441386
151	0xbdb695af	-0.08915269
152	0xbde9c895	-0.11415211
153	0xbccc43b7	-0.024934633
154	0x3d7535e5	0.05986585
155	0xbd5530af	-0.05204838
156	0x3da6b31a	0.0813963
157	0x3e0c0079	0.13672055
158	0x3e06b99c	0.13156742
159	0xbd29c986	-0.041451953
160	0x3bb2cc51	0.0054564853
161	0x3b5504fb	0.003250419
162	0x3df64216	0.12024324
163	0x3e0e0d79	0.13872327
164	0xbd02971a	-0.031882383
165	0xbe394eca	-0.18096462
166	0x3da6183d	0.08110092
167	0xbd911144	-0.07083371
168	0xbb4e325e	-0.0031463127
169	0xbe4e7144	-0.20160395
170	0xbe3e2416	-0.18568453
171	0x3daee4be	0.08539723
172	0xbccebfa6	-0.02523787
173	0xbdb37088	-0.08761698
174	0xbd270768	-0.040778548
175	0x3cea8886	0.028629553
176	0xbe31f01f	-0.17376755
177	0xbdf9a224	-0.12189129
178	0xbd09e324	-0.033663884
179	0xbde81141	-0.11331416
180	0x3cf97556	0.030451458
181	0x3e28b945	0.16476925
182	0xbda8b9ef	-0.08238589
183	0x3d9efbe4	0.07762888
184	0xbd47c7c2	-0.04877449
185	0x3d700b4c	0.058604524
186	0xbbb6d368	-0.005579401
187	0xbe39ef79	-0.18157758
188	0x3d7000f6	0.058594666
189	0xbdff0e2e	-0.124538764
190	0xbd5deb7e	-0.05417966
191	0x3d8dd614	0.06925598
192	0x3d8bbb5e	0.06822847
193	0xbd30757c	-0.04308079
194	0xbb018d24	-0.0019767964
195	0x3cbaf01a	0.022819567
196	0x3d9702c2	0.07373573
197	0x3e039233	0.1284874
198	0xbd9b4527	-0.07581549
199	0x3d4453e5	0.04793157
200	0xbd503e95	-0.050840933
201	0xbd062300	-0.032748222
202	0xbe0af602	-0.13570407
203	0x3d4f5368	0.05061665
204	0xbd1fa434	-0.038974956
205	0x3bf7452a	0.007546087
206	0x3cdb7862	0.026790801
207	0x3e083887	0.13302813
208	0x3d653469	0.055958185
209	0x3de6f8eb	0.11277946
210	0xbdb54edd	-0.088529326
211	0xbc71ef93	-0.014766592
212	0xbda18625	-0.07886914
213	0xbd961970	-0.073290706
214	0x3da3956c	0.07987484
215	0xbdeae8ae	-0.114701614
216	0xbd4390d2	-0.047745533
217	0x3d467c61	0.04845846
218	0xbe90fbe3	-0.28317174
219	0x3cf25149	0.029579775
220	0x3d3be59d	0.045873273
221	0xbd98457f	-0.0743513
222	0xbd2594bb	-0.040425044
223	0x3d1b1e11	0.03787047
224	0x3e112359	0.1417364
225	0xbda4c847	-0.08046012
226	0xbbc4295f	-0.005986377
227	0x3caadee4	0.020858236
228	0x3e1ca9fe	0.15299222
229	0x3e6d5575	0.2317713
230	0x3de5fd68	0.11229974
231	0xbcd59ca0	-0.026075661
232	0xbd4bd3c4	-0.049762502
233	0xbddbb840	-0.10728502
234	0xbc7acc57	-0.0153075075
235	0xbd67b3c7	-0.056567933
236	0x3dcfc1e7	0.10144406
237	0x3ce581df	0.028016029
238	0xbda4ff9f	-0.08056568
239	0x3d303315	0.043017466
240	0x3c70511b	0.014667775
241	0x3ca24959	0.019810366
242	0xba92b21d	-0.0011191998
243	0xbdbb7e57	-0.09154957
244	0xbcdf61b8	-0.027268276
245	0xbc82aacc	-0.015950583
246	0x3e0be275	0.13660605
247	0x3d9e1c0d	0.07720194
248	0x3c9b0cef	0.018927066
249	0x3cc258ec	0.023724042
250	0xbdc67a22	-0.09691264
251	0x3db21c4e	0.08696805
252	0x3ced2b91	0.028951438
253	0x3e2a90a8	0.16656744
254	0x3c0d98cc	0.008642387
255	0xbe001e56	-0.12511572

network_body._body_endoder.seq_layers.2.bias f4 [128]
0	0x00000000	0.0
1	0x00000000	0.0
2	0x00000000	0.0
3	0x00000000	0.0
4	0x00000000	0.0
5	0x00000000	0.0
6	0x00000000	0.0
7	0x00000000	0.0
8	0x00000000	0.0
9	0x00000000	0.0
10	0x00000000	0.0
11	0x00000000	0.0
12	0x00000000	0.0
13	0x00000000	0.0
14	0x00000000	0.0
15	0x00000000	0.0
16	0x00000000	0.0
17	0x00000000	0.0
18	0x00000000	0.0
19	0x00000000	0.0
20	0x00000000	0.0
21	0x00000000	0.0
22	0x00000000	0.0
23	0x00000000	0.0
24	0x00000000	0.0
25	0x00000000	0.0
26	0x00000000	0.0
27	0x00000000	0.0
28	0x00000000	0.0
29	0x00000000	0.0
30	0x00000000	0.0
31	0x00000000	0.0
32	0x00000000	0.0
33	0x00000000	0.0
34	0x00000000	0.0
35	0x00000000	0.0
36	0x00000000	0.0
37	0x00000000	0.0
38	0x00000000	0.0
39	0x00000000	0.0
40	0x00000000	0.0
41	0x00000000	0.0
42	0x00000000	0.0
43	0x00000000	0.0
44	0x00000000	0.0
45	0x00000000	0.0
46	0x00000000	0.0
47	0x00000000	0.0
48	0x00000000	0.0
49	0x00000000	0.0
50	0x00000000	0.0
51	0x00000000	0.0
52	0x00000000	0.0
53	0x00000000	0.0
54	0x00000000	0.0
55	0x00000000	0.0
56	0x00000000	0.0
57	0x00000000	0.0
58	0x00000000	0.0
59	0x00000000	0.0
60	0x00000000	0.0
61	0x00000000	0.0
62	0x00000000	0.0
63	0x00000000	0.0
64	0x00000000	0.0
65	0x00000000	0.0
66	0x00000000	0.0
67	0x00000000	0.0
68	0x00000000	0.0
69	0x00000000	0.0
70	0x00000000	0.0
71	0x00000000	0.0
72	0x00000000	0.0
73	0x00000000	0.0
74	0x00000000	0.0
75	0x00000000	0.0
76	0x00000000	0.0
77	0x00000000	0.0
78	0x00000000	0.0
79	0x00000000	0.0
80	0x00000000	0.0
81	0x00000000	0.0
82	0x00000000	0.0
83	0x00000000	0.0
84	0x00000000	0.0
85	0x00000000	0.0
86	0x00000000	0.0
87	0x00000000	0.0
88	0x00000000	0.0
89	0x00000000	0.0
90	0x00000000	0.0
91	0x00000000	0.0
92	0x00000000	0.0
93	0x00000000	0.0
94	0x00000000	0.0
95	0x00000000	0.0
96	0x00000000	0.0
97	0x00000000	0.0
98	0x00000000	0.0
99	0x00000000	0.0
100	0x00000000	0.0
101	0x00000000	0.0
102	0x00000000	0.0
103	0x00000000	0.0
104	0x00000000	0.0
105	0x00000000	0.0
106	0x00000000	0.0
107	0x00000000	0.0
108	0x00000000	0.0
109	0x00000000	0.0
110	0x00000000	0.0
111	0x00000000	0.0
112	0x00000000	0.0
113	0x00000000	0.0
114	0x00000000	0.0
115	0x00000000	0.0
116	0x00000000	0.0
117	0x00000000	0.0
118	0x00000000	0.0
119	0x00000000	0.0
120	0x00000000	0.0
121	0x00000000	0.0
122	0x00000000	0.0
123	0x00000000	0.0
124	0x00000000	0.0
125	0x00000000	0.0
126	0x00000000	0.0
127	0x00000000	0.0

action_model._continuous_distribution.mu.weight f4 [1, 128]
0	0xbc6ad7cb	-0.014333676
1	0xbb83c35e	-0.0040210923
2	0xbc09b568	-0.008405067
3	0xbc5dad53	-0.013530093
4	0x3bac3d6d	0.005256346
5	0xbcc84507	-0.024446977
6	0xbcd1cfda	-0.025611807
7	0x3baae5f7	0.005215402
8	0xbd0cf1f5	-0.034410436
9	0xbbf36a4b	-0.0074284426
10	0xbafaf7c8	-0.0019147331
11	0xbb354004	-0.0027656564
12	0xbc3bc919	-0.01146152
13	0xbcf17a75	-0.029477337
14	0xbb5849ca	-0.0033002966
15	0x3c874d3c	0.01651632
16	0x3b84ce55	0.004052917
17	0x3b588e6a	0.003304387
18	0xbab7fbfd	-0.001403689
19	0x3be89393	0.0070976703
20	0xbc9d12f5	-0.019174078
21	0xbc2db936	-0.01060324
22	0x3c57c1f2	0.013168799
23	0xbbb20254	-0.0054324064
24	0xbc146cdf	-0.00905916
25	0x3bc59077	0.0060291844
26	0x3ba117b1	0.0049161543
27	0x3b69bb25	0.0035664525
28	0xbd628a70	-0.055307806
29	0xbcdd27b7	-0.026996477
30	0xbbc2e930	-0.0059482083
31	0x3c97fc15	0.01855282
32	0x3c3acb74	0.011401046
33	0xbb87836e	-0.0041355407
34	0xbb9329ed	-0.004491082
35	0x3c128224	0.008942161
36	0xbc85287b	-0.016254654
37	0xb9fc6e97	-0.0004814758
38	0x3d05803f	0.032593008
39	0xbc9ce4ab	-0.019152006
40	0x3d0a6289	0.033785377
41	0xbcc7e103	-0.024399286
42	0xbca3d331	-0.019998165
43	0xbcafbbdb	-0.021451881
44	0x3c887723	0.016658371
45	0x3c8e81c3	0.01739586
46	0xbb8093ab	-0.0039238534
47	0x3d0bdb17	0.034144487
48	0x3b24907b	0.002511053
49	0x3c7ebf37	0.015548519
50	0x3c07bf71	0.008285389
51	0xbb47c7f9	-0.0030484183
52	0xbc071c6e	-0.008246524
53	0x3c29b236	0.01035743
54	0xbc7b1e58	-0.015327059
55	0x3b56d59a	0.0032781125
56	0x3ad4b34f	0.0016227755
57	0x3b8acdf2	0.0042359764
58	0xbae49172	-0.0017438366
59	0x3d137083	0.03599597
60	0xbc1ed726	-0.00969485
61	0xbcae4073	-0.021270966
62	0x3beeadf3	0.00728392
63	0xbb8d6b74	-0.004315788
64	0xbbe6cfef	-0.0070438306
65	0x3d234355	0.039859135
66	0x3c96ef6d	0.018424714
67	0xbc85f32b	-0.016351303
68	0xbbdfee58	-0.0068338327
69	0x3cb2a966	0.021809291
70	0xbb197ae7	-0.0023419203
71	0xbc9b0cec	-0.01892706
72	0xbc11a53e	-0.008889494
73	0xbc5d570f	-0.013509526
74	0x3cafdb78	0.021466956
75	0x3c41be81	0.011825205
76	0xbc3d01af	-0.011536046
77	0xbc9c271c	-0.019061618
78	0xbd302a49	-0.043009076
79	0xbca4613f	-0.020065902
80	0x3bf66ecd	0.0075205327
81	0x3cb9a0ab	0.02265962
82	0x3a72dbcb	0.0009264319
83	0x3c0d4dd7	0.0086245155
84	0xbc97d8c7	-0.018535985
85	0x3c840f64	0.01612062
86	0xbc9b0de6	-0.018927526
87	0x3c4990d8	0.0123026
88	0xbd1d8402	-0.03845597
89	0x3cb70048	0.022339001
90	0x3ba31cdc	0.0049778055
91	0xbcf1788d	-0.029476428
92	0x3b0809be	0.002075776
93	0x3c95e77c	0.018298857
94	0xbc9e6397	-0.019334598
95	0x3b6e0fcb	0.0036325331
96	0x3b90256b	0.004398992
97	0x3c81fa3f	0.015866397
98	0xbc8dbb2b	-0.017301163
99	0x3b6124b5	0.0034354154
100	0x3ae69ba7	0.0017593995
101	0xbc9b6b59	-0.018972086
102	0xbc35037d	-0.011048195
103	0xbbd8a91d	-0.0066119567
104	0xbc50cd78	-0.0127443
105	0xbceeb44d	-0.029138708
106	0xbd038c84	-0.032116428
107	0x3c53d97a	0.012930268
108	0x3be01c25	0.0068392926
109	0x3bc01990	0.0058624223
110	0xbbc96ed3	-0.0061472445
111	0x3b1bdf3b	0.0023784179
112	0x3c61781a	0.013761545
113	0x3cd28ec8	0.025702849
114	0x3c51d04d	0.01280601
115	0x3bd9b9e0	0.0066444725
116	0xb9fbdd58	-0.00048039365
117	0x3cbd1cc9	0.023085015
118	0x3c3d94b6	0.0115711
119	0x3d049432	0.032367893
120	0xbb9a4e7c	-0.004709063
121	0xbc4e2ff7	-0.012584678
122	0x3c227c40	0.009917319
123	0x3c7ca20f	0.015419497
124	0x3bbbacd2	0.005727389
125	0x3cdee48b	0.027208587
126	0xbd10f5d1	-0.03539068
127	0x3b935904	0.0044966955

action_model._discrete_distribution.branches.0.weight f4 [3, 128]
0	0x3b843263	0.004034327
1	0xbc42a2bd	-0.01187962
2	0x3b64c708	0.003490867
3	0xb9f11180	-0.0004598014
4	0x3af105c0	0.0018388554
5	0xbb9482b3	-0.004532182
6	0xbb785b5f	-0.0037896258
7	0x3bb0549d	0.0053811804
8	0xbcc328ca	-0.02382316
9	0xbbb0e658	-0.005398553
10	0x3c1525d8	0.009103261
11	0x3b9f76b7	0.004866447
12	0x3aa75032	0.0012764989
13	0xbb925f80	-0.004466951
14	0xbbb8d5ee	-0.005640737
15	0x3b3450a7	0.0027513893
16	0x3b957667	0.004561234
17	0x3bc24753	0.0059289127
18	0x3c2627da	0.010141337
19	0xba0d91c1	-0.0005400442
20	0xbc3d90d1	-0.011570171
21	0xbc1553ff	-0.0091142645
22	0xbb973d2d	-0.004615447
23	0x3bfaea93	0.007657358
24	0x3c09d417	0.008412383
25	0xbc5ae15a	-0.013359392
26	0x3ab21473	0.0013586417
27	0xbc09e601	-0.008416654
28	0xbc015225	-0.00789312
29	0xb98dfbb1	-0.0002708114
30	0x3ca11a14	0.019665755
31	0xbbcd5c52	-0.006267109
32	0x3be78993	0.0070659607
33	0xbca82ffa	-0.02053069
34	0xbc3dc7bb	-0.011583264
35	0xbbaff3cc	-0.005369639
36	0x3a8a3f66	0.0010547459
37	0xbc6d9515	-0.014500876
38	0xbb2d4973	-0.0026441484
39	0xbaba26a3	-0.0014202188
40	0x3bd97252	0.0066359425
41	0x3c81c477	0.015840752
42	0x3b24a4dd	0.002512268
43	0x3bec69bb	0.0072147525
44	0xbca6f98d	-0.020382667
45	0x3c21c879	0.009874457
46	0xbaa8ec5f	-0.0012887827
47	0x3b852a6b	0.0040638945
48	0x3a3560cb	0.00069190253
49	0xbc24d2ff	-0.010060071
50	0x3bc368c0	0.005963415
51	0x3c9ee032	0.019394014
52	0x39cab014	0.0003865963
53	0xbbde9ec7	-0.00679383
54	0xbbdf071d	-0.006806268
55	0xba9566eb	-0.001139847
56	0xbc7cf7aa	-0.015439907
57	0xbaf2fe67	-0.0018538953
58	0xbbceac2b	-0.006307145
59	0xbc398eb2	-0.011325525
60	0x3ba46850	0.005017318
61	0xbc162b3c	-0.009165581
62	0x3bbb08f1	0.005707853
63	0x3bcfe6fb	0.0063446737
64	0xba8e9aca	-0.0010879871
65	0x3af888cb	0.0018961666
66	0xb8e1fc3f	-0.000107758206
67	0x3b46a1b7	0.0030308792
68	0xbc018fa3	-0.007907781
69	0xbca74ed4	-0.02042333
70	0xbb83e36c	-0.0040249135
71	0xbaf693ef	-0.0018812398
72	0xbba52fb5	-0.0050410875
73	0x3b110bec	0.002213235
74	0x3c5c4b8a	0.013445744
75	0x3c2eabc7	0.010661072
76	0xbc5e7693	-0.013578075
77	0xbb54e79d	-0.0032486685
78	0x3ae5c6aa	0.001753052
79	0xbbdec3ba	-0.006798235
80	0x3c785e3f	0.015159189
81	0x3b1e1f1a	0.0024127425
82	0xbc3cf64f	-0.011533334
83	0x3a889f5c	0.0010423469
84	0x3c2ea307	0.010658986
85	0xbbe5b6ca	-0.0070103155
86	0x3a7db29b	0.00096777984
87	0xbbfaa72d	-0.0076493234
88	0xbbf0d6e7	-0.007349837
89	0x3b859bb1	0.0040773978
90	0xbc245e1b	-0.010032202
91	0xbc179d27	-0.009253777
92	0x3c0f7788	0.008756526
93	0xb7a04a15	-1.9107983e-05
94	0xbc313165	-0.010814999
95	0xbca147fe	-0.019687649
96	0xb9d8beb5	-0.00041340818
97	0x3c37016b	0.011169772
98	0xbb59be82	-0.0033225124
99	0x3b8e28c3	0.0043383553
100	0xbaee3d23	-0.0018176179
101	0x3c3b19a2	0.011419686
102	0x3c3f7150	0.011684731
103	0xbb90dd8b	-0.004420941
104	0x3b6fe842	0.0036606942
105	0x3bc6c389	0.00606579
106	0x3ba7ce8b	0.0051210574
107	0x3b429d46	0.0029695793
108	0xbb9712a0	-0.0046103746
109	0x3baa7987	0.0052024755
110	0xba040011	-0.000503541
111	0x3c730543	0.014832797
112	0x3b8ac9e3	0.0042354926
113	0x3bf68887	0.0075235995
114	0x39b1b273	0.00033893026
115	0xbb997b8d	-0.004683918
116	0xbb5ae21f	-0.0033398939
117	0xb9f78fd0	-0.0004721866
118	0x3baed992	0.005335995
119	0xbb7d14b2	-0.0038617072
120	0x3b80271a	0.0039109113
121	0xbc2af335	-0.010433962
122	0x3c4d9337	0.012547306
123	0xbbc3f8ee	-0.0059806025
124	0xbb122bce	-0.0022303942
125	0x3c1940b9	0.00935381
126	0x3ca8c327	0.020600868
127	0xb94edcca	-0.00019727941
128	0xbc49f6d3	-0.012326914
129	0x3c41bdb5	0.011825015
130	0x39496440	0.000192062
131	0xbc171e7d	-0.009223578
132	0xbafa8e25	-0.0019115849
133	0xbb7f1a03	-0.0038925416
134	0x39f83143	0.0004733895
135	0x3c37635f	0.0111931255
136	0x3b01b217	0.0019789988
137	0x3c029793	0.007970708
138	0xba2a7152	-0.00065018714
139	0x3b9490c0	0.004533857
140	0xbcc6bfaf	-0.024261324
141	0x3a153277	0.0005691419
142	0x3c601d5b	0.013678874
143	0x3c7b0302	0.015320541
144	0x3b7c03d5	0.0038454433
145	0xbbe6e88b	-0.0070467643
146	0x3b8ad394	0.004236648
147	0x3bd3651f	0.0064512636
148	0x3b853b05	0.0040658736
149	0x3b97d106	0.004633072
150	0x3bdcd1b0	0.006738864
151	0xbab02f03	-0.0013441745
152	0x3b1ec41a	0.0024225772
153	0x3c521552	0.012822466
154	0xbb28dae7	-0.0025765242
155	0x3c2ea53f	0.010659515
156	0x3c8b5763	0.017009443
157	0x3cac1d5e	0.021010097
158	0xbc007d9b	-0.007842447
159	0x3ba6339d	0.0050720708
160	0x38c2d758	9.290752e-05
161	0xb9cd2800	-0.0003913045
162	0xbb439859	-0.0029845445
163	0x3ca20907	0.019779695
164	0x3bcff32f	0.0063461284
165	0x3b458e31	0.0030144567
166	0x3bfb6267	0.0076716426
167	0x3aec1973	0.0018012956
168	0xbc0ff59b	-0.008786584
169	0x3b42075e	0.0029606442
170	0xbb8695a7	-0.0041071954
171	0xbc31a0b8	-0.010841541
172	0xbb75494b	-0.003742772
173	0x3b116eef	0.0022191366
174	0x3b887777	0.004164632
175	0x3a8a048c	0.001052992
176	0x3c89601f	0.016769467
177	0xbc0f4f5b	-0.008746947
178	0x3b719025	0.0036859598
179	0x39832eef	0.00025021235
180	0xbbdf332f	-0.0068115215
181	0xbc6abf87	-0.01432789
182	0xbbc39f1b	-0.0059698946
183	0xbc3e2863	-0.011606309
184	0x3bb71134	0.0055867676
185	0x3bf45218	0.0074560754
186	0x3bb2fef1	0.0054625203
187	0x3c2549fe	0.010088442
188	0xbba2f928	-0.0049735494
189	0xbbc7149b	-0.0060754544
190	0xbc35ad50	-0.011088684
191	0xbb016156	-0.0019741855
192	0xb99d4dc2	-0.00030003308
193	0xbc2eb917	-0.010664246
194	0x3acc8e1f	0.001560632
195	0x3b7f2d4a	0.0038936906
196	0x3beff307	0.0073226723
197	0x3bd1b110	0.0063992813
198	0xbbf385e8	-0.0074317344
199	0x3be7ec48	0.0070777275
200	0xba850a07	-0.0010150083
201	0x3b5c6185	0.0033627462
202	0xbc40762d	-0.011746925
203	0xbbfae4e3	-0.00765668
204	0x3bb8c943	0.0056392266
205	0xbb92a59b	-0.004475308
206	0x3c832907	0.016010774
207	0x3c911020	0.017707884
208	0x3b8f4463	0.004372166
209	0x3c5fc77b	0.0136584
210	0x3aca7c47	0.0015448414
211	0xbaabbde3	-0.0013102855
212	0xbbf882e0	-0.007583961
213	0xbba7950b	-0.005114203
214	0x3aa85194	0.0012841695
215	0xbb2e551f	-0.002660103
216	0x3bee02a0	0.0072634965
217	0xbc1d5777	-0.009603373
218	0xbb600223	-0.003418096
219	0xba0e2453	-0.0005422283
220	0x3c080bdd	0.00830361
221	0xbbbcdf43	-0.0057639196
222	0xbbf89aa3	-0.0075867935
223	0xbb3b9875	-0.0028624807
224	0x3b025a23	0.0019890151
225	0x3c5b033f	0.013367473
226	0x3a3b1e95	0.0007138041
227	0xbade5e7b	-0.0016965413
228	0xb8c55a1d	-9.410477e-05
229	0x3c1a504d	0.009418559
230	0xbbb43d43	-0.005500467
231	0xbbf92755	-0.0076035657
232	0xbb1b42b3	-0.002369088
233	0x3bdeedff	0.0068032737
234	0x3a969924	0.0011489731
235	0xbb85df0b	-0.0040854267
236	0x3a7b78ff	0.000959292
237	0x3bb47b6c	0.005507877
238	0x3aa96972	0.0012925102
239	0x3b40572a	0.0029348829
240	0xbbdfb745	-0.0068272674
241	0x3bcdbbd7	0.006278496
242	0xbc00bf61	-0.007858128
243	0x3c44ed11	0.012019412
244	0x3936fe88	0.00017451693
245	0xbc40d667	-0.0117698675
246	0xbb86d5a7	-0.004114825
247	0xbc1fef25	-0.009761606
248	0xbabf2b99	-0.0014585137
249	0x3c798fbf	0.015232026
250	0xbc08692c	-0.008325856
251	0x3b4c8d0b	0.0031211998
252	0xbc6f4c07	-0.014605529
253	0x3a9e3989	0.001207159
254	0xbc1fbc17	-0.009749434
255	0x3baa806f	0.0052032988

action_model._discrete_distribution.branches.0.bias f4 [3]
0	0x00000000	0.0
1	0x00000000	0.0
2	0x00000000	0.0

action_model._discrete_distribution.branches.1.weight f4 [2, 128]
0	0xbbcee4b0	-0.006313883
1	0x3bc665e7	0.006054628
2	0x3c3f2a0f	0.011667742
3	0x3c41770b	0.011808167
4	0x3c53643f	0.0129023185
5	0xbc26c871	-0.010179625
6	0xbc9fb12f	-0.019493667
7	0xbc10fc0a	-0.008849153
8	0x3c25f418	0.010128997
9	0xbb36a0b8	-0.0027866792
10	0x3bbd5644	0.005778106
11	0x3b3f009c	0.002914465
12	0x3c95b084	0.018272646
13	0x3bfaa093	0.0076485365
14	0x3984a1b8	0.00025297492
15	0x3b332348	0.0027334262
16	0xbc771e18	-0.0150828585
17	0x3b25b1e3	0.002528303
18	0xbc5b9ac8	-0.013403602
19	0x3bb073e3	0.0053849085
20	0xbbb6ae03	-0.005574943
21	0x3c39a4f8	0.0113308355
22	0xba7ac00f	-0.0009565362
23	0x3be7d647	0.0070751044
24	0xbb8a1e77	-0.0042150575
25	0xbc6e0645	-0.014527862
26	0xba4d3afd	-0.00078289193
27	0x396113d8	0.00021465064
28	0xbafe6610	-0.0019409079
29	0xbc060ae1	-0.008181305
30	0xb9d6f11a	-0.00040996895
31	0x3b7e040a	0.0038759732
32	0x3c2f14f7	0.010686151
33	0x3bec23d3	0.007206419
34	0xbb664a43	-0.0035139478
35	0x3c0af02c	0.008480113
36	0xbc5e40ed	-0.013565284
37	0x3b8e635f	0.004345342
38	0x3b5e7497	0.0033944005
39	0xbc0146a6	-0.007890379
40	0xbaefa4db	-0.0018283384
41	0xbafb3c95	-0.0019167835
42	0xbc7387ca	-0.014863918
43	0x3b39dbef	0.002835985
44	0x3bb72af3	0.0055898367
45	0x3b5b9008	0.0033502597
46	0xbc2fd59e	-0.010732083
47	0xbb9af008	-0.004728321
48	0x3bc83ada	0.0061105313
49	0x3c24e280	0.010063767
50	0x3c301eb3	0.010749507
51	0xbb4c74b3	-0.0031197488
52	0xbbe446c5	-0.006966444
53	0xb8d4116f	-0.00010112195
54	0x3b969f4d	0.004596627
55	0x3befe248	0.007320676
56	0xbbaf9d96	-0.005359362
57	0x3ba9a4eb	0.0051771305
58	0xbb4e5eb5	-0.0031489555
59	0x3a9688dc	0.0011484879
60	0xbc4d7348	-0.012539692
61	0x3c73b268	0.014874078
62	0x3c843093	0.016136443
63	0xbad36f98	-0.001613128
64	0xbab624f6	-0.0013896513
65	0xbb281a7a	-0.0025650547
66	0x3c1a49e9	0.009417036
67	0xba0f81ce	-0.00054743595
68	0xbc4af833	-0.012388277
69	0xbb81a485	-0.00395638
70	0x3b587b5d	0.0033032515
71	0xbca428c5	-0.020038972
72	0x3c46101f	0.0120888045
73	0x3b24c7b1	0.002514344
74	0x3b16a1c6	0.0022984608
75	0xbc3dc59e	-0.01158276
76	0x3bae53a7	0.0053200307
77	0x3b0e0b88	0.0021674354
78	0xbc07fd1d	-0.008300093
79	0x3b2593d1	0.0025265107
80	0x3bd93748	0.0066289045
81	0x3c6148e5	0.01375029
82	0xbc066afe	-0.00820422
83	0xbb9c4553	-0.0047690063
84	0x3c3a5ed7	0.011375151
85	0x3aad4229	0.001321857
86	0xbb9ee324	-0.0048488546
87	0x3b55dcba	0.0032632784
88	0x3b19a62c	0.0023444993
89	0xbba259b5	-0.0049545416
90	0x3c4fa74a	0.012674162
91	0xbc00a21c	-0.00785115
92	0xbb853581	-0.004065216
93	0xbb975329	-0.0046180678
94	0xbc1cbbd4	-0.009566266
95	0x3aa8e217	0.0012884763
96	0x3bc40960	0.005982563
97	0xbbe2134f	-0.0068992744
98	0x3b282b9f	0.0025660766
99	0x399cf6b9	0.0002993846
100	0xb993c90e	-0.00028187822
101	0xbb98c057	-0.0046616006
102	0xbc1d4948	-0.009599991
103	0x3bb765bd	0.005596845
104	0x3c93b775	0.018031815
105	0xbc3d8452	-0.011567192
106	0x3b6e2dda	0.0036343248
107	0xbc5f9aab	-0.013647716
108	0x3bc3e5b5	0.005978311
109	0x3c4e42cf	0.012589171
110	0x3bc56348	0.006023798
111	0x3c0bf9df	0.008543461
112	0x3b800b5f	0.0039076055
113	0x3a23fd71	0.0006255722
114	0x3c1ce11b	0.009575154
115	0xbad0325f	-0.0015884152
116	0xbb7242b2	-0.0036966023
117	0x3bd8340f	0.0065980027
118	0xbc85edbb	-0.01634871
119	0x3c0bcc56	0.008532604
120	0xbc0c4cb8	-0.008563213
121	0xb9926bf0	-0.0002792771
122	0x3c3c1783	0.011480215
123	0xbb44a45a	-0.0030005188
124	0xbb389cec	-0.0028169705
125	0x3c2001fd	0.009766099
126	0x3ba4da86	0.005030933
127	0xbb1014a0	-0.002198495
128	0xbc1e1f67	-0.009651042
129	0xba868257	-0.0010262233
130	0x3ba7eb94	0.0051245186
131	0xbbec2528	-0.007206578
132	0x3c28a35b	0.010292853
133	0xbc10cb6e	-0.008837564
134	0x3c1607e4	0.009157155
135	0xbadd42df	-0.0016880891
136	0x3bd8f2eb	0.006620755
137	0x3b1fb063	0.002436661
138	0x3b3634f8	0.0027802568
139	0x3c3da71f	0.011575489
140	0xba12af8a	-0.00055956154
141	0x3c536537	0.0129025495
142	0xbb5cc3c5	-0.0033686024
143	0x3c4eab93	0.012614149
144	0x3c235c21	0.009970696
145	0x3bd9cd08	0.006646756
146	0x3bb4b1ec	0.005514374
147	0x3c856b81	0.016286613
148	0xbc62da0a	-0.01384593
149	0xbbaf5b94	-0.005351493
150	0xbc38168e	-0.011235846
151	0x3c1eaf80	0.009685397
152	0xba2eb6bf	-0.00066648045
153	0x3b964c69	0.0045867455
154	0x3a41b4ee	0.00073893263
155	0xbadac923	-0.0016692023
156	0x3ca95692	0.020671163
157	0xbbeb7c7b	-0.00718647
158	0x3b158a60	0.0022818074
159	0xbab5a6ea	-0.0013858948
160	0x3c3d2d3f	0.011546432
161	0xbb8505c7	-0.0040595266
162	0x3c191774	0.009343971
163	0xbc0e6f73	-0.008693564
164	0x3c31e46a	0.010857681
165	0x3bed4832	0.0072412724
166	0xba8f29dc	-0.0010922509
167	0xbbb8aa04	-0.005635502
168	0xbab95abe	-0.0014141423
169	0x3c154717	0.009111187
170	0x3b77d27a	0.0037814663
171	0xbb83f4cd	-0.0040269853
172	0xbc29fd8b	-0.010375391
173	0x3bd24c72	0.0064178044
174	0xbc39bb4e	-0.011336161
175	0xbb1507c8	-0.0022740234
176	0x3ca9391d	0.020657117
177	0x3c4e0632	0.012574719
178	0x3c14f8da	0.009092534
179	0xb7ed6cfb	-2.830335e-05
180	0xbb41e609	-0.0029586575
181	0x3c8319ea	0.016003568
182	0x3b6cf48a	0.0036156499
183	0xbb0352c9	-0.0020038357
184	0xbb19b82c	-0.0023455722
185	0xbc77766b	-0.015103917
186	0xbc892eab	-0.016745886
187	0x3ae584ed	0.0017510928
188	0xbab0f40b	-0.0013500465
189	0xbc8d9af9	-0.01728581
190	0xbc9fe600	-0.019518852
191	0x3b8f492f	0.004372738
192	0xbc2c690f	-0.010523095
193	0x3c579aeb	0.013159494
194	0x3b48c7ba	0.0030636624
195	0xbc05d3f3	-0.008168208
196	0x3a1f5c73	0.00060791447
197	0xbc34dad7	-0.011038504
198	0x3b9e07c5	0.0048227035
199	0xbbcaa483	-0.006184162
200	0x3c48bfc3	0.012252751
201	0xbc8b290b	-0.016987344
202	0xbc6653e5	-0.014058088
203	0x3bb28d27	0.0054489556
204	0xbc96c651	-0.018405112
205	0x3b8a989f	0.0042296196
206	0xbb6c0408	-0.0036013145
207	0xbade4a0a	-0.0016959321
208	0x39edc83a	0.00045353343
209	0xbb675b63	-0.0035302273
210	0x3c18847b	0.00930893
211	0x3b110230	0.0022126548
212	0x3b8e4d23	0.0043426915
213	0x3aeb7ca2	0.0017966221
214	0x38f9602b	0.00011891158
215	0x3c98c609	0.018649118
216	0xbb86dc13	-0.0041155904
217	0xbb5834c7	-0.0032990442
218	0xba4eefba	-0.00078939984
219	0xbc25c66c	-0.010118108
220	0x3c3e4a17	0.011614344
221	0x3aaa0055	0.001297007
222	0xbbda731a	-0.006666553
223	0xbc0da61f	-0.008645563
224	0xbc19bb5b	-0.009383048
225	0xbb12857d	-0.0022357397
226	0xbc861881	-0.016369106
227	0xbc1cb500	-0.009564638
228	0xbc816aa2	-0.015797917
229	0xbab8e092	-0.0014105013
230	0x3ce95200	0.028481483
231	0x3adf41db	0.0017033176
232	0xbb4a54eb	-0.003087337
233	0x3c2cc42f	0.010544821
234	0x3bd08867	0.0063639167
235	0x3c55383f	0.013013898
236	0x3b95a9a3	0.0045673414
237	0x3b2389d3	0.0024953976
238	0x3b7cc5a5	0.0038569954
239	0xbab25908	-0.0013606856
240	0x3b6aecff	0.0035846827
241	0xb849334a	-4.79699e-05
242	0x3bc637aa	0.006049116
243	0x3c786ec8	0.015163131
244	0x3c5b5f2f	0.013389393
245	0x3c81e45f	0.015855966
246	0xbb12307d	-0.0022306733
247	0x3c807877	0.015682442
248	0x3b1d45d4	0.002399792
249	0xbc170f84	-0.009220008
250	0xbb512412	-0.0031912369
251	0xbc831a17	-0.016003652
252	0xbc339216	-0.010960123
253	0xbaf3dfe5	-0.0018606154
254	0x3bf67423	0.007521169
255	0xbc81c8b1	-0.015842767

action_model._discrete_distribution.branches.1.bias f4 [2]
0	0x00000000	0.0
1	0x00000000	0.0

network_body._body_endoder.seq_layers.0.weight f4 [128, 6]
0	0xbe721470	-0.23640609
1	0xbd064094	-0.03277643
2	0xbe98e649	-0.29863194
3	0x3eac94b2	0.33707196
4	0x3ebea23b	0.37233147
5	0x3e909412	0.2823797
6	0xbe666103	-0.22497945
7	0x3e18a0b5	0.14905055
8	0x3efb60df	0.49097344
9	0x3dee11a8	0.116244614
10	0xbda7d00a	-0.08193977
11	0x3cfc862c	0.030825697
12	0xbcc066df	-0.023486553
13	0x3edaf116	0.4276206
14	0x3f07757a	0.5291363
15	0x3ced8d86	0.028998148
16	0x3c98b3ec	0.018640481
17	0xbbbd48bc	-0.005776493
18	0x3eca4cd0	0.39511728
19	0xbf1efe1f	-0.6210651
20	0x3de56ea7	0.11202746
21	0xbf2c449a	-0.6729218
22	0x3e1c1a84	0.1524449
23	0xbe102733	-0.14077453
24	0x3c73cd15	0.014880438
25	0xbe1c4764	-0.15261608
26	0x3ea23689	0.31682232
27	0xbf12406b	-0.57129544
28	0xbf4be216	-0.79641855
29	0x3e40d649	0.18831743
30	0x3d750c20	0.059826016
31	0xbcd0ac63	-0.025472825
32	0xbe9457a8	-0.28973126
33	0xbe199ca1	-0.15001155
34	0x3e3390b8	0.17535675
35	0x3f37c5fc	0.71786475
36	0x3ed5b10d	0.41736642
37	0x3e4154dd	0.18880029
38	0x3f033ca0	0.5126438
39	0x3ebfa2dc	0.3742894
40	0x3c0d2eee	0.008617146
41	0xbea77c28	-0.3271191
42	0xbe30489a	-0.17215195
43	0xbe8bae8c	-0.27281606
44	0xbe3a51f6	-0.18195328
45	0xbf1ec510	-0.62019444
46	0xbf1a9539	-0.60383946
47	0x3edfdcda	0.43723184
48	0xbe6e644d	-0.23280449
49	0x3cdde12b	0.027084908
50	0x3cc66390	0.024217397
51	0xbe0afe92	-0.13573673
52	0x3ebfcbb0	0.3746009
53	0xbe711c99	-0.23546065
54	0xbe7fc6a0	-0.24978113
55	0xbea313cd	-0.31851044
56	0x3ec66807	0.38751242
57	0x3eef6b38	0.4676149
58	0x3e3a71e0	0.18207502
59	0xbf0a4d67	-0.54024357
60	0x3e7c4244	0.24634653
61	0xbf233163	-0.63747233
62	0xbe5e6e12	-0.21721676
63	0x3ede0cf2	0.4336925
64	0x3dca2d65	0.098719396
65	0x3eab920f	0.3350987
66	0xbdaf57ef	-0.08561694
67	0x3f0e389c	0.5555513
68	0x3e53533c	0.2063722
69	0xbe9b51f2	-0.30335957
70	0xbec61fff	-0.38696286
71	0x3edd6b18	0.4324577
72	0xbcbe38bc	-0.023220412
73	0xbe00b3a9	-0.12568535
74	0x3cfee991	0.031117233
75	0x3e88a2e5	0.2668678
76	0xbe39c9a7	-0.1814333
77	0x3e2237b1	0.15841557
78	0x3ce98d09	0.028509634
79	0x3e102a9b	0.14078753
80	0x3f0865e9	0.532805
81	0xbf0cd0e6	-0.55006254
82	0x3e1c00ee	0.1523473
83	0xbeae44e4	-0.34036934
84	0x3d4e0452	0.05029709
85	0xbe8d1a49	-0.27559116
86	0xbd916116	-0.07098596
87	0x3edd3f3f	0.43212315
88	0x3de540e4	0.111940175
89	0x3f01c469	0.50690323
90	0x3d642984	0.055703655
91	0xbe211ff4	-0.15734845
92	0x3f187910	0.59559727
93	0x3ed7b6c9	0.42131642
94	0x3ef6e08b	0.48218188
95	0xbd28e7b8	-0.04123661
96	0xbeb3b84d	-0.35101548
97	0xbeabb1f9	-0.3353422
98	0x3defdb2b	0.11711725
99	0x3d9cd4e8	0.07657796
100	0x3f4cedad	0.80050164
101	0xbf0cae2a	-0.54953253
102	0xbef0407c	-0.46924198
103	0x3f0c14d0	0.5471926
104	0x3eb9bd94	0.3627745
105	0xbe26a076	-0.16272148
106	0x3f8d3c9f	1.1034125
107	0xbf42b364	-0.7605498
108	0x3e63a399	0.22230376
109	0x3e2382c6	0.15967855
110	0xbf2eb10a	-0.6823889
111	0xbe9a72ca	-0.30165702
112	0x3e055c1c	0.13023418
113	0xbef6bd08	-0.48191094
114	0x3ecfba23	0.405717
115	0xbe7e9d96	-0.24864802
116	0xbf34091c	-0.703264
117	0xbef6133a	-0.48061544
118	0xbeb802c5	-0.35939613
119	0x3d8044e0	0.06263137
120	0x3bddeab0	0.0067723617
121	0x3e715a9f	0.23569725
122	0xbe44123a	-0.19147578
123	0x3e3c7559	0.1840414
124	0xbd77bb12	-0.06048114
125	0xbf47dae0	-0.7806835
126	0xbdbbb1e7	-0.091647916
127	0xbde11174	-0.10989657
128	0xbdd4a32a	-0.103826836
129	0x3ea77e6a	0.32713634
130	0x3da1460d	0.07874689
131	0xbe87c745	-0.26519218
132	0x3dc846f9	0.09779162
133	0xbd0b71dc	-0.03404413
134	0xbf4de71e	-0.8043078
135	0x3ae00887	0.0017092385
136	0xbcf604d3	-0.030031597
137	0x3e9e79d6	0.30952328
138	0x3ee5f64e	0.44914478
139	0xbe56b014	-0.20965606
140	0x3d15660b	0.03647427
141	0xbcfcefbe	-0.030876037
142	0x3e3f0c26	0.18656978
143	0x3f35b6c4	0.70982003
144	0x3f693477	0.9109568
145	0xbeab6120	-0.33472538
146	0x3e3538ff	0.17697524
147	0xbd8a4da1	-0.06753088
148	0xbe00b359	-0.12568416
149	0xbe92d6de	-0.28679556
150	0x3e8bea83	0.27327356
151	0xbcf9ce03	-0.030493742
152	0x3ef80c83	0.48447046
153	0x3e80e6a1	0.25175956
154	0x3ebb8765	0.36626735
155	0xbe06ba85	-0.13157089
156	0x3d97eaee	0.07417856
157	0x3efbda5d	0.49190035
158	0xbd34d536	-0.044148646
159	0x3e5df2e5	0.21674688
160	0xbc5916a8	-0.013250031
161	0x3e8a94c1	0.27066615
162	0xbd6dd161	-0.058061007
163	0xbd841e54	-0.06451097
164	0xbf09face	-0.5389832
165	0xbdb9d608	-0.09074026
166	0x3ebecf9d	0.3726777
167	0xbea5c122	-0.3237391
168	0x3df62044	0.12017873
169	0xbd3c1349	-0.04591683
170	0x3e194530	0.14967799
171	0x3dd8083d	0.10548446
172	0xbd8a4db8	-0.06753105
173	0xbe404242	-0.18775275
174	0xbe0454fd	-0.12923045
175	0xbda1d8ec	-0.07902703
176	0xbf2f9333	-0.68583983
177	0xbe02a4d0	-0.12758183
178	0xbe7a9153	-0.244695
179	0xbc849dc2	-0.016188506
180	0x3dda492b	0.10658487
181	0x3d07c41c	0.03314601
182	0xbe91a459	-0.284457
183	0xbea58784	-0.32329953
184	0x3cc0edcc	0.02355089
185	0x3e8b65ef	0.27226207
186	0x3e51dabc	0.20493597
187	0xbe1b9bc5	-0.1519614
188	0xbf16289a	-0.58655703
189	0xbe8d9ab0	-0.2765708
190	0x3f013c54	0.5048268
191	0x3d243bac	0.04009597
192	0x3e491a8b	0.19639032
193	0xbeefb10a	-0.46814758
194	0xbeb504f3	-0.35355338
195	0x3edd8274	0.4326359
196	0xbcf82ca1	-0.030294718
197	0x3e512a40	0.20426273
198	0x3e257920	0.16159487
199	0x3e0fea1f	0.14054154
200	0x3cca9400	0.024728775
201	0xbe5789d0	-0.21048665
202	0xbe8afd88	-0.27146554
203	0xbe8a6882	-0.27032858
204	0x3f11df8d	0.56981736
205	0xbe1aacf0	-0.15105033
206	0x3e96d48f	0.29459044
207	0xbec7c9dc	-0.39021194
208	0xbf76e86a	-0.96448386
209	0xbea4b7f5	-0.32171598
210	0x3d964f78	0.07339376
211	0x3eb2d6db	0.34929547
212	0xbe43cf5a	-0.19122067
213	0x3d9f1342	0.07767345
214	0x3dfc4a34	0.123188406
215	0x3e4765af	0.19472383
216	0x3e3e8665	0.18605955
217	0x3e008f37	0.12554632
218	0xbeed02df	-0.46291253
219	0x3e944154	0.2895609
220	0xbdf82063	-0.12115552
221	0x3e38d5a4	0.18050247
222	0xbe86c757	-0.2632396
223	0xbe393c6c	-0.18089455
224	0xbe73c5df	-0.2380595
225	0x3e6cb3b2	0.23115423
226	0xbe99a87d	-0.3001136
227	0xbe3a129d	-0.18171163
228	0x3f66968e	0.9007348
229	0xbe76ab7a	-0.2408885
230	0x3e6968d9	0.22793902
231	0xbe5fd793	-0.21859579
232	0xbf5a81a2	-0.85354054
233	0xbedd853e	-0.43265718
234	0xbd608543	-0.05481459
235	0xbf0ef1ed	-0.558379
236	0x3ed8e719	0.42363814
237	0xbd333bf3	-0.043758344
238	0xbf2688e5	-0.65052634
239	0xbe81f658	-0.25383258
240	0x3e8ff8b4	0.28119433
241	0xbc898b43	-0.016790038
242	0x3e9d3673	0.30705604
243	0x3e3f2049	0.1866466
244	0x3f15bcd9	0.58491284
245	0x3e66334d	0.22480507
246	0xbd51d29a	-0.051226236
247	0xbf542ea9	-0.828837
248	0xbec5f811	-0.38665822
249	0xbdc6aadb	-0.09700557
250	0xbf41ab8c	-0.75652385
251	0xbe5e90f7	-0.21734987
252	0xbe452948	-0.19254029
253	0xbe89aa44	-0.26887715
254	0xbf046367	-0.51714176
255	0x3db32aae	0.08748375

network_body._body_endoder.seq_layers.0.bias f4 [128]
0	0x00000000	0.0
1	0x00000000	0.0
2	0x00000000	0.0
3	0x00000000	0.0
4	0x00000000	0.0
5	0x00000000	0.0
6	0x00000000	0.0
7	0x00000000	0.0
8	0x00000000	0.0
9	0x00000000	0.0
10	0x00000000	0.0
11	0x00000000	0.0
12	0x00000000	0.0
13	0x00000000	0.0
14	0x00000000	0.0
15	0x00000000	0.0
16	0x00000000	0.0
17	0x00000000	0.0
18	0x00000000	0.0
19	0x00000000	0.0
20	0x00000000	0.0
21	0x00000000	0.0
22	0x00000000	0.0
23	0x00000000	0.0
24	0x00000000	0.0
25	0x00000000	0.0
26	0x00000000	0.0
27	0x00000000	0.0
28	0x00000000	0.0
29	0x00000000	0.0
30	0x00000000	0.0
31	0x00000000	0.0
32	0x00000000	0.0
33	0x00000000	0.0
34	0x00000000	0.0
35	0x00000000	0.0
36	0x00000000	0.0
37	0x00000000	0.0
38	0x00000000	0.0
39	0x00000000	0.0
40	0x00000000	0.0
41	0x00000000	0.0
42	0x00000000	0.0
43	0x00000000	0.0
44	0x00000000	0.0
45	0x00000000	0.0
46	0x00000000	0.0
47	0x00000000	0.0
48	0x00000000	0.0
49	0x00000000	0.0
50	0x00000000	0.0
51	0x00000000	0.0
52	0x00000000	0.0
53	0x00000000	0.0
54	0x00000000	0.0
55	0x00000000	0.0
56	0x00000000	0.0
57	0x00000000	0.0
58	0x00000000	0.0
59	0x00000000	0.0
60	0x00000000	0.0
61	0x00000000	0.0
62	0x00000000	0.0
63	0x00000000	0.0
64	0x00000000	0.0
65	0x00000000	0.0
66	0x00000000	0.0
67	0x00000000	0.0
68	0x00000000	0.0
69	0x00000000	0.0
70	0x00000000	0.0
71	0x00000000	0.0
72	0x00000000	0.0
73	0x00000000	0.0
74	0x00000000	0.0
75	0x00000000	0.0
76	0x00000000	0.0
77	0x00000000	0.0
78	0x00000000	0.0
79	0x00000000	0.0
80	0x00000000	0.0
81	0x00000000	0.0
82	0x00000000	0.0
83	0x00000000	0.0
84	0x00000000	0.0
85	0x00000000	0.0
86	0x00000000	0.0
87	0x00000000	0.0
88	0x00000000	0.0
89	0x00000000	0.0
90	0x00000000	0.0
91	0x00000000	0.0
92	0x00000000	0.0
93	0x00000000	0.0
94	0x00000000	0.0
95	0x00000000	0.0
96	0x00000000	0.0
97	0x00000000	0.0
98	0x00000000	0.0
99	0x00000000	0.0
100	0x00000000	0.0
101	0x00000000	0.0
102	0x00000000	0.0
103	0x00000000	0.0
104	0x00000000	0.0
105	0x00000000	0.0
106	0x00000000	0.0
107	0x00000000	0.0
108	0x00000000	0.0
109	0x00000000	0.0
110	0x00000000	0.0
111	0x00000000	0.0
112	0x00000000	0.0
113	0x00000000	0.0
114	0x00000000	0.0
115	0x00000000	0.0
116	0x00000000	0.0
117	0x00000000	0.0
118	0x00000000	0.0
119	0x00000000	0.0
120	0x00000000	0.0
121	0x00000000	0.0
122	0x00000000	0.0
123	0x00000000	0.0
124	0x00000000	0.0
125	0x00000000	0.0
126	0x00000000	0.0
127	0x00000000	0.0
