results/ppo/Player Behaviour/Player Behaviour-145.pt (torch, 152103 bytes, 16 tensors)

discrete_act_size_vector f4 [1, 3]
000000 00 00 40 40 00 00 00 40 00 00 00 40
       3.0 2.0 2.0

network_body._body_endoder.seq_layers.0.weight f4 [128, 5]
000000 d8 de bb 3e 7a 5e 0d 3f 56 b5 12 be e6 96 d5 3e
       0.36693454 0.55222285 -0.14326987 0.4171669
000010 21 06 19 bf b1 25 90 3e 32 03 2f 3f 49 6d c7 3e
       -0.59774977 0.28153756 0.6836425 0.38950565
000020 c6 cc 35 bf 9c 09 a4 3e ae 88 71 b6 87 89 b1 3d
       -0.71015584 0.3203858 -3.5991357e-06 0.086688094
000030 f4 fe 7c bd 2d d1 8e be 37 40 04 bf 72 ce 11 bf
       -0.06176658 -0.27893963 -0.51660484 -0.56955636
000040 c8 a8 f0 3c 36 e8 14 bd df 88 cd be 2e b9 d0 bd
       0.029377356 -0.036354266 -0.40143487 -0.1019157
000050 13 c6 d4 be d9 1f 51 bf 5f bc 3f 3e ce 16 eb be
       -0.4155737 -0.8168922 0.18724202 -0.45915836
000060 d5 17 15 3f 2a 1f 90 3e de 51 4b 3e fd f1 36 3e
       0.5823949 0.28148776 0.19855449 0.17865749
000070 83 81 c0 be 49 f0 5f be e0 b5 03 3f e0 ab 0c 3d
       -0.3759881 -0.21869005 0.51449394 0.0343436
000080 51 17 ef bd fe 61 24 be fd 65 ba 3e 6d 23 b3 3e
       -0.11674369 -0.16053006 0.36405936 0.34987965
000090 7a 60 b8 3d 78 d2 c5 3e f2 23 ae be 45 ff 83 3e
       0.090027764 0.38637137 -0.340118 0.25780693
0000a0 7b f1 25 3f 5d f7 05 be 62 37 3f bf d2 99 7b bc
       0.64821595 -0.13082643 -0.7469388 -0.015356498
0000b0 06 4c a6 be 33 7c 28 3d 69 2d 88 3e df 55 d7 3e
       -0.32479876 0.04113407 0.26597145 0.42057702
0000c0 4c a8 f3 3d 63 c5 a8 3d 55 4f d1 3e ec bc 6a be
       0.118973345 0.082407735 0.40880838 -0.2292363
0000d0 9d 06 15 bf 4c 54 9d be 6c dc 02 bf 84 5a 58 bf
       -0.58213216 -0.30728376 -0.5111759 -0.84513116
0000e0 e4 31 3c 3e 08 2e 94 bd 6e 2f c6 3e 66 bd bc 3e
       0.18378407 -0.07235342 0.3870806 0.3686325
0000f0 32 dc 62 3f c7 f4 0f 3e bb 67 70 bf c3 2e 4c be
       0.8861724 0.14058219 -0.9390828 -0.19939713
000100 d4 3c 75 be 5a c6 38 bf 0f b5 29 3e d3 c6 81 3e
       -0.23948985 -0.7217766 0.16572975 0.25347003
000110 cf 8e fc bd 5d 01 bf be 8e 38 a3 be 86 24 65 3f
       -0.12331926 -0.37305728 -0.31879085 0.89508855
000120 01 58 07 3f 48 84 be bc 9a 99 13 bf 47 9f 64 bd
       0.5286866 -0.023256436 -0.5765625 -0.05581596
000130 ef 8e 09 3f f6 16 e0 3e d7 38 0f bf 90 58 8d 3e
       0.53733724 0.43767518 -0.55946106 0.2760663
000140 c4 c5 1b be 8b 31 06 bf 66 71 b2 3e 98 ff 8a be
       -0.1521216 -0.52419347 0.3485214 -0.27148128
000150 de 04 cd 3e 98 a0 25 bf 3c 3e 71 3e 5a f1 80 be
       0.40042776 -0.6469817 0.23558897 -0.25184137
000160 46 e3 20 3d ff f0 10 bf 37 e5 b1 be fa ce 79 3a
       0.039279245 -0.5661773 -0.3474519 0.0009529438
000170 d8 5c 3e 3f 6a e6 2d 3e 0b 5b 46 be be 70 8e be
       0.7436042 0.16982427 -0.19370668 -0.2782039
000180 f9 03 1f 3f dd f1 a2 bd e3 66 c4 3e 8e 3b 9c be
       0.62115437 -0.07956288 0.38359746 -0.30514187
000190 8b e8 10 3e 89 3b 1e be de 9b 84 3d da 11 0f bf
       0.14151208 -0.15452398 0.06475042 -0.55886614
0001a0 0a 46 19 3e d4 89 a2 3e a2 d6 3e bd e3 b4 6b bf
       0.14968124 0.3174578 -0.04659141 -0.92072886
0001b0 cd 4a 40 bb 5f b9 0a 3f a6 5d 89 3c c1 fb 95 be
       -0.002934146 0.54189104 0.016768288 -0.29293635
0001c0 65 a9 00 3f 37 c0 be 3d 0e 10 01 3f 1d a2 37 bf
       0.50258476 0.09314006 0.5041512 -0.7173174
0001d0 38 4d 4d bf b7 67 0e 3f e3 da 88 bf 91 a7 c1 be
       -0.8019595 0.55627006 -1.0691799 -0.37823156
0001e0 43 f0 82 bd 0c ab fe be 91 03 3a bf a9 37 43 3e
       -0.063934825 -0.49739873 -0.7266169 0.19064201
0001f0 7e 71 0a bf 40 8d 1a 3f b5 72 23 3e c1 a8 f2 3e
       -0.54079425 0.6037178 0.15961726 0.47394374
000200 3f 6e fc be 2e 46 b2 be 0c f1 c3 3e 36 c1 08 bf
       -0.4930286 -0.34819168 0.38269842 -0.53419816
000210 d8 e1 a0 bd ce bb 58 3d ce 19 32 bf 9e ed 6a 3e
       -0.07855576 0.05291348 -0.69570625 0.22942206
000220 53 af 87 bd 0a 89 8c 3e 30 bd 71 3d ed f7 ce bc
       -0.06625237 0.27448303 0.059018314 -0.025264705
000230 89 c5 f0 bd ba e3 89 bc 99 4b 83 3e 25 29 30 3e
       -0.11756427 -0.016832221 0.25643614 0.17203195
000240 f3 ba 75 bf da 10 b9 3e a6 e7 0a 3f 8a 64 dc be
       -0.95988387 0.3614567 0.5425972 -0.43045455
000250 c2 7f 98 3d e4 f8 67 be e2 76 c4 be 33 cb f2 3d
       0.07446243 -0.22653538 -0.3837195 0.118551634
000260 58 39 42 be 27 55 b7 bd cd bf a3 be de fe 06 bf
       -0.18967187 -0.089517884 -0.3198227 -0.52732646
000270 55 67 1e 3e 35 dc e2 be 02 95 95 3e 32 01 6c bf
       0.15469106 -0.4430863 0.29215246 -0.92189324
000280 dc ff 1e bf 67 e2 7d 3d e7 f3 1d 3e ec ed f4 bc
       -0.6210916 0.061983492 0.15425073 -0.029898606
000290 41 13 3f 3e 8a 08 13 bf 06 38 25 bf 12 69 d4 3e
       0.18659689 -0.57434905 -0.6453861 0.41486412
0002a0 e0 ff e1 be 1b 14 9a 3e ad 64 81 be ff 5c b8 3e
       -0.4414053 0.30093464 -0.25272122 0.3600845
0002b0 da e4 df be b9 a8 70 be ca c6 c6 3e f4 d0 74 bf
       -0.43729287 -0.23501863 0.3882354 -0.9563134
0002c0 e3 64 eb 3e 72 78 f4 3d a8 b8 11 bf 9b 7c 63 be
       0.45975408 0.119370356 -0.5692239 -0.22215502
0002d0 2d c4 c6 3c bd d8 36 bf ca c2 75 3f 82 7a bc be
       0.024263466 -0.71424466 0.9600035 -0.36812216
0002e0 29 3f 01 3e 91 8f 3d 3d 0d 86 84 be b7 33 6d 3e
       0.1262175 0.046279494 -0.25883523 0.23164259
0002f0 e9 be 6c 3f f4 24 61 be f8 d9 ba 3e dd 96 97 be
       0.92478806 -0.21986753 0.36494422 -0.29607287
000300 3b 67 4f be 9f 46 1f bf 93 f8 c2 be c7 ef f9 be
       -0.20254223 -0.62217134 -0.38080272 -0.48815748
000310 b7 0e 62 3d 79 e9 b9 be 11 17 ab 3e 82 7e 3f be
       0.055189814 -0.36310938 0.33416036 -0.18700603
000320 3f aa 92 bb fe 64 57 bf 60 99 c5 bd 34 9a 60 3f
       -0.0044758613 -0.84138477 -0.096483946 0.87735295
000330 7e f5 a6 3f 80 07 38 3e 23 57 1d 3e ea ce 33 3f
       1.3043668 0.17971611 0.15365271 0.702376
000340 59 4e 51 be 82 15 f1 bd 03 c3 a1 3f 28 c2 45 3e
       -0.20440044 -0.117716804 1.2637638 0.19312346
000350 ca 67 81 be e1 38 f3 3e 6e 63 11 3d 60 ca 84 bf
       -0.25274497 0.47504333 0.035495214 -1.037426
000360 2e 36 01 3e 4b c3 9d be 48 c6 84 3f 45 ab 4e be
       0.12618324 -0.3081306 1.0373011 -0.20182522
000370 e5 29 8b 3d 85 fe 1e 3d af 59 51 bf 36 42 23 3f
       0.067951 0.038816947 -0.8177747 0.63772905
000380 4f 97 42 be 10 ff b4 3e 50 c7 16 bf 03 82 30 bf
       -0.19003032 0.35350847 -0.58897877 -0.6894838
000390 57 f9 b5 be 4a 44 62 be 20 b7 3c bd 16 a8 80 bd
       -0.35541794 -0.22096363 -0.04607308 -0.0628206
0003a0 9d c1 f8 be 62 c7 a5 3e 70 7a 41 bf 38 c9 79 3d
       -0.48585215 0.3237868 -0.7557745 0.060982913
0003b0 63 d8 6f bf 69 52 bd be ec a0 a8 3e f1 d4 15 3f
       -0.93689555 -0.36976936 0.32935274 0.5852805
0003c0 3e db 2e 3d b9 26 c1 be 1f 8c 14 bf b8 e4 bc bd
       0.042689554 -0.37724856 -0.5802631 -0.09223312
0003d0 66 72 fa be ca 46 97 3f 75 59 40 3e 96 77 15 bf
       -0.48915404 1.1818478 0.18784125 -0.583856
0003e0 71 7d 0b 3f 50 7d e6 be 4e ac 91 3c fc 66 9f be
       0.54488283 -0.4501748 0.017782357 -0.31133258
0003f0 4d 79 75 bf b8 8e f5 3e 55 69 70 3d 3b ad 13 3f
       -0.95888215 0.47960448 0.058694202 0.57686204

network_body._body_endoder.seq_layers.0.bias f4 [128]
000000 00 00 00 00 00 00 00 00 00 00 00 00 00 00 00 00
       0.0 0.0 0.0 0.0
000010 00 00 00 00 00 00 00 00 00 00 00 00 00 00 00 00
       0.0 0.0 0.0 0.0
000020 00 00 00 00 00 00 00 00 00 00 00 00 00 00 00 00
       0.0 0.0 0.0 0.0
000030 00 00 00 00 00 00 00 00 00 00 00 00 00 00 00 00
       0.0 0.0 0.0 0.0
000040 00 00 00 00 00 00 00 00 00 00 00 00 00 00 00 00
       0.0 0.0 0.0 0.0
000050 00 00 00 00 00 00 00 00 00 00 00 00 00 00 00 00
       0.0 0.0 0.0 0.0
000060 00 00 00 00 00 00 00 00 00 00 00 00 00 00 00 00
       0.0 0.0 0.0 0.0
000070 00 00 00 00 00 00 00 00 00 00 00 00 00 00 00 00
       0.0 0.0 0.0 0.0
000080 00 00 00 00 00 00 00 00 00 00 00 00 00 00 00 00
       0.0 0.0 0.0 0.0
000090 00 00 00 00 00 00 00 00 00 00 00 00 00 00 00 00
       0.0 0.0 0.0 0.0
0000a0 00 00 00 00 00 00 00 00 00 00 00 00 00 00 00 00
       0.0 0.0 0.0 0.0
0000b0 00 00 00 00 00 00 00 00 00 00 00 00 00 00 00 00
       0.0 0.0 0.0 0.0
0000c0 00 00 00 00 00 00 00 00 00 00 00 00 00 00 00 00
       0.0 0.0 0.0 0.0
0000d0 00 00 00 00 00 00 00 00 00 00 00 00 00 00 00 00
       0.0 0.0 0.0 0.0
0000e0 00 00 00 00 00 00 00 00 00 00 00 00 00 00 00 00
       0.0 0.0 0.0 0.0
0000f0 00 00 00 00 00 00 00 00 00 00 00 00 00 00 00 00
       0.0 0.0 0.0 0.0
000100 00 00 00 00 00 00 00 00 00 00 00 00 00 00 00 00
       0.0 0.0 0.0 0.0
000110 00 00 00 00 00 00 00 00 00 00 00 00 00 00 00 00
       0.0 0.0 0.0 0.0
000120 00 00 00 00 00 00 00 00 00 00 00 00 00 00 00 00
       0.0 0.0 0.0 0.0
000130 00 00 00 00 00 00 00 00 00 00 00 00 00 00 00 00
       0.0 0.0 0.0 0.0
000140 00 00 00 00 00 00 00 00 00 00 00 00 00 00 00 00
       0.0 0.0 0.0 0.0
000150 00 00 00 00 00 00 00 00 00 00 00 00 00 00 00 00
       0.0 0.0 0.0 0.0
000160 00 00 00 00 00 00 00 00 00 00 00 00 00 00 00 00
       0.0 0.0 0.0 0.0
000170 00 00 00 00 00 00 00 00 00 00 00 00 00 00 00 00
       0.0 0.0 0.0 0.0
000180 00 00 00 00 00 00 00 00 00 00 00 00 00 00 00 00
       0.0 0.0 0.0 0.0
000190 00 00 00 00 00 00 00 00 00 00 00 00 00 00 00 00
       0.0 0.0 0.0 0.0
0001a0 00 00 00 00 00 00 00 00 00 00 00 00 00 00 00 00
       0.0 0.0 0.0 0.0
0001b0 00 00 00 00 00 00 00 00 00 00 00 00 00 00 00 00
       0.0 0.0 0.0 0.0
0001c0 00 00 00 00 00 00 00 00 00 00 00 00 00 00 00 00
       0.0 0.0 0.0 0.0
0001d0 00 00 00 00 00 00 00 00 00 00 00 00 00 00 00 00
       0.0 0.0 0.0 0.0
0001e0 00 00 00 00 00 00 00 00 00 00 00 00 00 00 00 00
       0.0 0.0 0.0 0.0
0001f0 00 00 00 00 00 00 00 00 00 00 00 00 00 00 00 00
       0.0 0.0 0.0 0.0

network_body._body_endoder.seq_layers.2.weight f4 [128, 128]
000000 08 dd 5e bd 4c bf 68 bd fa 9c c8 bd 5e 41 95 bd
       -0.05441001 -0.05682306 -0.09795566 -0.072878584
000010 62 94 0e 3d 01 b7 e6 bc de 9e 63 3c 8d f6 51 be
       0.034809478 -0.028163435 0.013892857 -0.20504208
000020 d4 a6 bc bb e4 4d d7 bd de 62 86 bd 1f cc 9a 3c
       -0.005757192 -0.10512903 -0.06561826 0.01889616
000030 21 f0 d1 bc 72 63 33 be 53 42 02 3e 44 f1 87 3c
       -0.025627198 -0.17518404 0.12720613 0.016594537
000040 ed e5 80 3c 14 80 86 bd ea fb ed 3b f9 17 a7 3d
       0.015734637 -0.06567398 0.0072626965 0.08158869
000050 60 c0 65 ba 31 97 01 be 55 b4 6c bd f1 7c dc 3c
       -0.0008764323 -0.12655331 -0.057789166 0.026915045
000060 cd f0 56 3e d7 59 ed 3d e2 cd 8f 3d f4 58 bd 3d
       0.20990296 0.11589401 0.07021691 0.09245482
000070 82 42 b7 3d 63 83 c0 bc 74 8a 56 3d 35 4e 0e 3e
       0.08948232 -0.02350015 0.052378133 0.13897021
000080 01 f3 cd 3d 07 96 08 3e 87 41 16 bd 8c 96 ae 39
       0.10056115 0.13338481 -0.036683585 0.00033300032
000090 fc b6 47 bd 95 a9 5e bd 20 e9 87 be 56 11 66 3d
       -0.048758492 -0.054360945 -0.26545048 0.056168877
0000a0 bb 9d a8 bb c8 3e 2c 3d cf 9a 0b 3d 42 6c 00 3e
       -0.005145756 0.04205206 0.034083184 0.12541297
0000b0 82 6a ca bd 86 9f ff bd 66 7b c6 3c c6 58 33 3d
       -0.09883596 -0.124815986 0.024228763 0.043785833
0000c0 11 e2 05 be cf 4d 8a bd e2 14 8c 3d 39 55 1a 3c
       -0.13074519 -0.06753122 0.068399206 0.009419733
0000d0 2b 79 ed bd f3 66 73 3e 4c ce f4 3c d5 eb 64 bb
       -0.115953766 0.23769741 0.029883526 -0.0034930606
0000e0 ad 2e 25 bc f1 78 81 3d 6a fd 49 bd 63 aa b7 bd
       -0.010081929 0.06321896 -0.04931394 -0.089680456
0000f0 70 59 06 3d b8 38 39 3d d2 f5 b1 bd 3b 95 28 3d
       0.032800138 0.045220107 -0.08689465 0.041157942
000100 72 76 db bc 52 e3 da 3d 9c 9f ea bd 66 3d d0 3c
       -0.026789878 0.10687889 -0.11456224 0.025419902
000110 0a 86 48 bd 91 51 0e 3d fd 26 b4 3d ad cd ec 3d
       -0.048955955 0.034745757 0.08796499 0.11562667
000120 54 24 cb 3b c9 b2 8d 3d 35 9c 6d 3d f5 93 36 3d
       0.006199399 0.06918866 0.0580103 0.044574697
000130 80 d7 04 bd 83 14 8a 3d 24 ea 66 be 13 d4 64 bd
       -0.03243208 0.067421935 -0.22550255 -0.055866312
000140 a6 49 e9 3b 52 02 a1 3d f1 9b d2 3d 10 0b be 3d
       0.0071193753 0.07861771 0.1028365 0.09279454
000150 66 83 21 3d e8 03 f2 bd 1b 4c 47 be 34 90 dd 3d
       0.039431952 -0.11817151 -0.19462626 0.1081852
000160 80 01 1e be 15 a6 33 3d 00 d9 4b be f8 fd be bd
       -0.1543026 0.04385956 -0.19906998 -0.093257844
000170 8f 3a 5e 3c 99 00 31 b9 c4 4b 29 3d e7 68 0f 3e
       0.013563766 -0.00016880258 0.04133202 0.14004861
000180 e7 6c 03 bd 13 fd ac 3d c3 ff 07 3e 75 dd 19 bc
       -0.03208628 0.084467076 0.13281159 -0.009391178
000190 bc 3f 03 be 14 58 ed bb 8a 36 71 bd e5 29 f5 3d
       -0.12817281 -0.0072431657 -0.058889903 0.119708814
0001a0 91 cd 66 3d ba a7 36 3c 3f 12 5c bd 53 81 9b 3d
       0.056348387 0.011148388 -0.05372834 0.07593026
0001b0 69 e9 0d 3e be 4a de bc 32 ed cf bd 91 00 c8 bd
       0.1385857 -0.02713525 -0.10152663 -0.09765733
0001c0 53 f6 03 be b5 1a 09 bd 18 36 05 3d c7 e0 05 3c
       -0.12886934 -0.033472735 0.03252229 0.008171267
0001d0 14 63 98 bd a3 84 98 3b 8a 51 01 be 71 77 a8 3d
       -0.07440773 0.0046544834 -0.12628761 0.08225907
0001e0 7c 20 e6 bd 6f c9 98 bd 13 bc d0 3d 0a 76 16 3e
       -0.11236665 -0.074602954 0.10192122 0.14693466
0001f0 16 7d 45 bc ef 3d 99 bd 57 fa af 3b ca b8 14 3d
       -0.012053749 -0.07482516 0.005370419 0.03630904
000200 84 ef f6 3d 17 fb 2b be f3 60 ee 3d 6b b8 67 bd
       0.12057403 -0.16795002 0.11639585 -0.05657236
000210 2d 3b 92 bc 6b 11 96 3d 2b 5a 5f 3d 41 6f a4 bd
       -0.017850483 0.07327541 0.05452935 -0.080290325
000220 ee 73 33 bc bb 34 ce bd 96 bd df bc 05 27 43 3d
       -0.010952933 -0.10068651 -0.027312081 0.047644634
000230 ba ea 30 bb 4a ae 45 bc e3 83 bf bb fd 39 94 bd
       -0.0026995377 -0.0120654795 -0.0058445795 -0.07237623
000240 6f 08 02 be 9b 47 f7 bb 64 da 1b 3d 3b 42 8b bd
       -0.1269853 -0.007546378 0.03805007 -0.06799742
000250 9f 89 b9 bc 0d 9d cb bd 23 a5 cb bd a0 06 a8 bd
       -0.02264863 -0.099420644 -0.09943607 -0.082043886
000260 74 da bd 3c fe 78 26 3e 6e e2 7d bd 78 7f 65 bd
       0.023175456 0.16257092 -0.06198352 -0.056029767
000270 c4 3c 31 3e c6 be 94 bd 0d 11 47 bd b4 86 8b bc
       0.17308336 -0.0726295 -0.048600245 -0.017032005
000280 ed 02 c2 bd 38 37 f1 bd 2a 2c 20 3d 24 df 03 be
       -0.09473214 -0.1177811 0.039104618 -0.1287809
000290 90 fd a2 3d 70 a2 e6 bc 11 95 13 3d 7b 15 6b bd
       0.079585195 -0.028153628 0.036030833 -0.057393532
0002a0 6b cf c6 3b 87 be 9f bd 9f 7a 07 be 2c 40 54 3c
       0.0060672066 -0.07800012 -0.1323037 0.012954753
0002b0 0c c4 69 3c 13 90 b9 3d b1 95 cb bc 99 28 14 3d
       0.014267933 0.09060683 -0.024851652 0.03617153
0002c0 a4 50 95 be 21 5a 5e bc 0d 9b c0 3c 67 c4 69 bd
       -0.29163086 -0.013571293 0.023511434 -0.05707207
0002d0 c9 96 0b 3e 48 d5 5b bc 59 c8 44 3d c0 99 ac bb
       0.13631739 -0.013417549 0.04804263 -0.005267352
0002e0 e7 ab 6b 3d ab df 3d be 6c 6c a9 bc 5d 6a 5f 3d
       0.057536986 -0.18542354 -0.020681582 0.054544795
0002f0 23 ee d0 3d e3 a3 31 bc 53 76 bc 3d a1 5e 9f 3c
       0.10201671 -0.010842296 0.09202256 0.019454302
000300 54 79 34 bd 0d 9a 1e 3d 5d e7 9a 3c fd 2d da 3d
       -0.04406102 0.038721133 0.01890915 0.10653303
000310 0d 09 ac bd cb 75 e0 3d ef 60 39 3e 2b 34 3e 3d
       -0.08400164 0.10959967 0.18103383 0.04643647
000320 01 9d 90 3d d1 58 00 3e da 57 e0 bd 2e e6 df 3d
       0.07061196 0.12533881 -0.10954256 0.10932575
000330 68 79 3b be 0b 6d b9 3c c2 7b e8 bd 11 14 9a bd
       -0.18308032 0.022635004 -0.1135173 -0.075233586
000340 f9 4f 92 3d 7f dc 96 3d f0 6e b5 bd af 54 c0 bd
       0.0714416 0.07366275 -0.0885905 -0.09391152
000350 46 c5 4d 3d 68 79 c3 bd e3 c0 e1 bd 86 0f 9e bd
       0.050236963 -0.09544641 -0.11023118 -0.077178046
000360 71 08 63 3d 6f ee 76 bd a4 47 8e 3d 20 fb ba 3d
       0.055427972 -0.06028598 0.06947258 0.091299295
000370 d3 bc cd bd 23 50 ae 3d ba ba bb 3c 9a 6b 17 bd
       -0.10045781 0.085113786 0.022916187 -0.03696785
000380 18 d7 66 3c 6a 71 0d 3d 1e 86 32 bc bd 9e 1d 3e
       0.014089368 0.03453199 -0.010896234 0.15392585
000390 13 ed e0 3d 95 cc 86 3d 19 ec 16 3e 68 0b 57 3d
       0.10982718 0.0658199 0.14738502 0.052501112
0003a0 a2 8c 2b bd 26 16 a3 3d b8 4e e6 bc fd 4c 0c bc
       -0.041882165 0.07963209 -0.028113708 -0.008563277
0003b0 1e 1c 9d 3d 8a 38 06 3e f0 7b 86 bd 30 75 0d bd
       0.076713786 0.13107505 -0.06566608 -0.034535587
0003c0 e0 02 0f 3d ef d6 5f 3c f9 3b be bd 2e ce 00 3e
       0.03491485 0.013662084 -0.092887826 0.12578651
0003d0 b1 ad 80 3d 03 7f af bd ad bb b8 3d 99 28 9a 3b
       0.06283129 -0.085691474 0.09020171 0.0047045466
0003e0 80 a0 82 bd 73 3a 86 ba 98 08 68 bd 71 e1 9f 3d
       -0.06378269 -0.0010240808 -0.05664882 0.078066714
0003f0 93 9b 2b 3e 73 9e 95 3d 44 b7 7f 3d 10 ac 82 bd
       0.16758566 0.073056124 0.062430635 -0.063804746

network_body._body_endoder.seq_layers.2.bias f4 [128]
000000 00 00 00 00 00 00 00 00 00 00 00 00 00 00 00 00
       0.0 0.0 0.0 0.0
000010 00 00 00 00 00 00 00 00 00 00 00 00 00 00 00 00
       0.0 0.0 0.0 0.0
000020 00 00 00 00 00 00 00 00 00 00 00 00 00 00 00 00
       0.0 0.0 0.0 0.0
000030 00 00 00 00 00 00 00 00 00 00 00 00 00 00 00 00
       0.0 0.0 0.0 0.0
000040 00 00 00 00 00 00 00 00 00 00 00 00 00 00 00 00
       0.0 0.0 0.0 0.0
000050 00 00 00 00 00 00 00 00 00 00 00 00 00 00 00 00
       0.0 0.0 0.0 0.0
000060 00 00 00 00 00 00 00 00 00 00 00 00 00 00 00 00
       0.0 0.0 0.0 0.0
000070 00 00 00 00 00 00 00 00 00 00 00 00 00 00 00 00
       0.0 0.0 0.0 0.0
000080 00 00 00 00 00 00 00 00 00 00 00 00 00 00 00 00
       0.0 0.0 0.0 0.0
000090 00 00 00 00 00 00 00 00 00 00 00 00 00 00 00 00
       0.0 0.0 0.0 0.0
0000a0 00 00 00 00 00 00 00 00 00 00 00 00 00 00 00 00
       0.0 0.0 0.0 0.0
0000b0 00 00 00 00 00 00 00 00 00 00 00 00 00 00 00 00
       0.0 0.0 0.0 0.0
0000c0 00 00 00 00 00 00 00 00 00 00 00 00 00 00 00 00
       0.0 0.0 0.0 0.0
0000d0 00 00 00 00 00 00 00 00 00 00 00 00 00 00 00 00
       0.0 0.0 0.0 0.0
0000e0 00 00 00 00 00 00 00 00 00 00 00 00 00 00 00 00
       0.0 0.0 0.0 0.0
0000f0 00 00 00 00 00 00 00 00 00 00 00 00 00 00 00 00
       0.0 0.0 0.0 0.0
000100 00 00 00 00 00 00 00 00 00 00 00 00 00 00 00 00
       0.0 0.0 0.0 0.0
000110 00 00 00 00 00 00 00 00 00 00 00 00 00 00 00 00
       0.0 0.0 0.0 0.0
000120 00 00 00 00 00 00 00 00 00 00 00 00 00 00 00 00
       0.0 0.0 0.0 0.0
000130 00 00 00 00 00 00 00 00 00 00 00 00 00 00 00 00
       0.0 0.0 0.0 0.0
000140 00 00 00 00 00 00 00 00 00 00 00 00 00 00 00 00
       0.0 0.0 0.0 0.0
000150 00 00 00 00 00 00 00 00 00 00 00 00 00 00 00 00
       0.0 0.0 0.0 0.0
000160 00 00 00 00 00 00 00 00 00 00 00 00 00 00 00 00
       0.0 0.0 0.0 0.0
000170 00 00 00 00 00 00 00 00 00 00 00 00 00 00 00 00
       0.0 0.0 0.0 0.0
000180 00 00 00 00 00 00 00 00 00 00 00 00 00 00 00 00
       0.0 0.0 0.0 0.0
000190 00 00 00 00 00 00 00 00 00 00 00 00 00 00 00 00
       0.0 0.0 0.0 0.0
0001a0 00 00 00 00 00 00 00 00 00 00 00 00 00 00 00 00
       0.0 0.0 0.0 0.0
0001b0 00 00 00 00 00 00 00 00 00 00 00 00 00 00 00 00
       0.0 0.0 0.0 0.0
0001c0 00 00 00 00 00 00 00 00 00 00 00 00 00 00 00 00
       0.0 0.0 0.0 0.0
0001d0 00 00 00 00 00 00 00 00 00 00 00 00 00 00 00 00
       0.0 0.0 0.0 0.0
0001e0 00 00 00 00 00 00 00 00 00 00 00 00 00 00 00 00
       0.0 0.0 0.0 0.0
0001f0 00 00 00 00 00 00 00 00 00 00 00 00 00 00 00 00
       0.0 0.0 0.0 0.0

action_model._discrete_distribution.branches.0.weight f4 [3, 128]
000000 d6 7f 98 bc 50 45 f7 bb ff 7b f4 3b 3b de 26 bc
       -0.018615644 -0.0075461045 0.0074610705 -0.01018482
000010 52 26 1d 3c b3 17 ca bb 83 3a 4e bc 76 ff c1 bb
       0.009591656 -0.006167376 -0.0125871925 -0.005920346
000020 3f a2 da bb 6e 9c 38 3c 5a e2 82 3b 71 d8 34 3c
       -0.0066721733 0.0112677645 0.0039942684 0.011037932
000030 77 9f 38 3c 27 fa 7e ba 17 f5 c4 3a e3 db b4 bb
       0.011268488 -0.00097266067 0.0015026656 -0.0055193766
000040 32 66 78 bb ff 7d 8f 3a 87 6b b2 ba 9d 84 88 3b
       -0.003790271 0.0010947584 -0.0013612368 0.0041661994
000050 b9 11 18 bc 4a a1 f8 bb 24 45 32 bb f5 87 60 bb
       -0.009281569 -0.0075875865 -0.0027201856 -0.0034260724
000060 82 70 b3 bb 1a 40 6c bb 23 d8 b0 bb 52 46 d4 bb
       -0.0054760585 -0.003604895 -0.0053968593 -0.0064781094
000070 95 d9 13 bb bf b9 c5 3b 8b 41 80 3b 81 01 2a 3c
       -0.002256011 0.0060341056 0.0039140633 0.010376335
000080 22 55 ef bb 9d 6e 12 3c af ad 2a 3b 20 7a 4f bc
       -0.00730385 0.008937505 0.0026043465 -0.012663394
000090 a4 5e 3c bc 99 2f 35 bc 48 69 e0 3b ec e8 8b 3b
       -0.011497173 -0.011058711 0.006848488 0.00426971
0000a0 7b 07 6d 3c 47 c1 c3 3a 89 86 1c bc 71 c1 2a bc
       0.0144671155 0.001493492 -0.00955356 -0.010422097
0000b0 5c 07 38 bc d2 7d 45 bb 64 ad 46 3c 1d db 6e 3a
       -0.011232223 -0.003013481 0.0121263005 0.000911163
0000c0 d5 94 9c bb 4a 35 a3 bb ab b2 78 bc ff db 71 3b
       -0.0047784843 -0.004980718 -0.0151793165 0.003690481
0000d0 35 e1 d4 3b 16 6b 0e 3c bf 3f 0b 3b cf be 30 bb
       0.0064965733 0.008692523 0.0021247712 -0.00269692
0000e0 2f 5f c3 3b 57 c0 f5 ba d0 a3 e9 3b c6 fc c1 bb
       0.0059622745 -0.0018749338 0.0071301237 -0.0059200255
0000f0 82 55 26 3b 63 34 6d bb 07 06 f6 bb 92 4e e6 35
       0.0025380556 -0.0036194555 -0.0075080427 1.7159202e-06
000100 d3 c6 a9 3c 9f 78 4f 3b 81 fe 16 3b 70 ed 88 bc
       0.02072469 0.003165759 0.002303988 -0.016714782
000110 38 9d 5b bb 72 15 f0 bb 12 be 91 bc cd 2f 3e 3c
       -0.0033510458 -0.007326775 -0.017790828 0.011608076
000120 6e 4f bb 3b 6b d6 13 bc 6c e4 0d bc b0 2c b0 bb
       0.005716256 -0.009023289 -0.008660417 -0.005376421
000130 55 aa b3 3b 0a b0 a0 ba 77 b9 64 bc 02 cf f4 ba
       0.0054829516 -0.0012259495 -0.013960234 -0.0018677416
000140 44 16 ad 3b 78 a9 01 bb 7b fd 9e bb 8b fb 0f ba
       0.0052821953 -0.001978485 -0.0048519946 -0.00054925
000150 c3 05 88 3a fe 59 82 bc 7b 2c 9b bb 81 d6 21 3c
       0.0010377694 -0.015912052 -0.004735527 0.009877802
000160 ab 4a 10 bc 1f c3 56 bb 9a 9a 95 3c 4c 44 84 bb
       -0.008806865 -0.003277011 0.018262196 -0.004036462
000170 95 cd 2f 3c 57 a5 4a bb 3d bd a3 ba e7 73 9b 3a
       0.010730167 -0.0030921304 -0.001249231 0.0011860103
000180 a6 2e 84 3c 0d 83 38 bc 9b 89 0d bb 37 49 2a 3c
       0.016135525 -0.011261714 -0.0021596912 0.010393432
000190 45 a1 8d 3b 08 83 d4 3a 85 c3 fe bb 09 4f 19 bc
       0.0043222033 0.0016213367 -0.0077747726 -0.009357222
0001a0 ff 88 10 3c be 3d 92 3a d8 65 90 ba ef 11 1f bb
       0.008821725 0.0011157317 -0.001101668 -0.0024272164
0001b0 f0 cf ed bb ed 33 a3 3c 27 89 3e ba 83 0b 09 3c
       -0.007257454 0.019922221 -0.0007268362 0.008364561
0001c0 0b f8 9b 3a 41 07 10 3a cf c9 a7 3b 0e f4 86 bc
       0.0011899484 0.0005494245 0.005120493 -0.016473796
0001d0 c9 1b 34 bb bf 2d fc 3a 98 b3 c2 bb b1 b4 0b 3c
       -0.0027482382 0.0019239708 -0.0059418194 0.008526967
0001e0 09 bd 88 3b cd 4e 0e 3c a7 06 2b 3b e3 e4 bc 3b
       0.0041729254 0.00868578 0.0026096494 0.00576459
0001f0 23 39 f8 bb d0 b3 d1 bb c7 67 93 bb cf 5f 9f 38
       -0.0075751706 -0.006399609 -0.004498455 7.5995566e-05
000200 f0 fb 8b 3b b7 b5 61 3a 47 72 6a 3c c8 12 10 bb
       0.0042719766 0.00086101465 0.014309472 -0.002198385
000210 03 fd 99 3c 91 cd 37 bc 00 07 94 bb 07 cb eb bb
       0.018797403 -0.011218444 -0.004517436 -0.0071958336
000220 79 48 8a bb be cd 0c bc ba 72 55 3b 58 f4 7a bc
       -0.004220065 -0.008593975 0.0032569603 -0.015317045
000230 bf 09 a8 3b 64 9a 28 bb 38 3c dc bb 17 7a a4 3a
       0.005128115 -0.002572679 -0.006721046 0.0012548593
000240 cf 22 fc bb 53 0d da ba 87 ab 93 bc 78 09 92 3c
       -0.007694579 -0.0016636051 -0.018026127 0.01782678
000250 01 55 99 bb b7 7b cd bb ed 8d 3a bc 02 0e 73 bb
       -0.0046793227 -0.0062708515 -0.011386377 -0.0037087207
000260 cb 3a c7 bb 98 fe db 3b 57 05 f2 3b 80 f7 67 bb
       -0.0060800067 0.0067136995 0.0073858905 -0.0035395324
000270 9b ff 3a 3b d5 b7 97 bb ac e1 1b bc 66 59 2d 3c
       0.00285337 -0.004630069 -0.009514254 0.010580396
000280 62 e0 e9 3a 72 f9 42 bc ab ef 82 bb f6 b2 3b bc
       0.001784336 -0.011900293 -0.003995856 -0.011456242
000290 0f 48 45 3c 23 8a 48 3c eb 4b 8a 3b 9f bd 04 3c
       0.012041106 0.012239966 0.004220476 0.00810185
0002a0 b3 b2 bd 3b 61 04 02 3b fd 0b 2e bb b3 25 94 bb
       0.005789125 0.0019839036 -0.0026557439 -0.0045210957
0002b0 b2 85 84 3a fc 2b 81 bc f5 4b 5d 3c ef 95 bf bb
       0.0010110645 -0.015768044 0.013506879 -0.005846731
0002c0 b6 ac 80 3c 7a 89 a3 bc f9 e7 22 3b 1e a3 81 bb
       0.015707355 -0.019963015 0.0024857505 -0.0039562127
0002d0 68 c4 fe 3a 62 81 5f bc eb a1 d0 b9 80 d2 9b ba
       0.0019437196 -0.013641687 -0.0003979349 -0.0011888295
0002e0 5e 50 cb 3b 3b 60 b7 bb 26 6c 90 3c 83 fd 9e 3b
       0.006204649 -0.0055961884 0.017629694 0.0048519983
0002f0 17 fa 2b bb 17 0b 92 3b 42 0b 0e bc 9b c5 ba bb
       -0.0026241594 0.0044568884 -0.008669676 -0.005699826
000300 08 ee 5a bc 0b d4 e5 3b a7 40 11 bc 40 1e 01 3c
       -0.013362415 0.007013803 -0.008865512 0.007880747
000310 90 df 75 3c 49 f0 2e ba 8d 5b ad bb 45 ea 57 3b
       0.015006915 -0.00066733785 -0.0052904547 0.0032946032
000320 5d 64 f3 ba 97 46 3d 3c 2b 86 c0 bb 6f 14 c4 3a
       -0.0018569339 0.011552474 -0.005875369 0.0014959703
000330 92 53 63 3a bd b0 72 3c d3 ea 90 bc cf 02 45 bb
       0.0008671816 0.0148126455 -0.017690098 -0.0030061489
000340 68 b0 6d 3c 00 95 8f bc 4e 12 17 3c 2a 16 00 3c
       0.014507391 -0.017527103 0.009220673 0.007817784
000350 92 96 4a 3b 5b 12 46 3c d1 55 9b ba ac 74 0d ba
       0.00309125 0.012089337 -0.0011851137 -0.00053961086
000360 34 78 09 ba a0 a0 17 3c f7 35 44 3c 3a 2c a1 3b
       -0.0005244047 0.009254605 0.011975757 0.0049186023
000370 ba d9 b1 3b c6 ff 22 bc ed c6 98 3b ff 35 2e 3b
       0.0054275664 -0.009948676 0.0046623857 0.0026582477
000380 6b 6c 29 3a f9 4a 45 bb 58 60 03 3c b1 be 34 bc
       0.0006462994 -0.0030104502 0.008018576 -0.0110317925
000390 57 14 91 3c 4c 98 94 3c 28 c7 07 3c 88 c1 ce ba
       0.017709894 0.018139027 0.008287229 -0.001577423
0003a0 50 04 63 3b cd 71 21 3c 12 0b 64 3b 1b 80 8f bb
       0.0034640022 0.009853792 0.0034796637 -0.004379285
0003b0 78 f8 9e 3b 5f da 5a bc de a2 2e 3b 71 20 1e bc
       0.004851397 -0.013357728 0.002664737 -0.009651289
0003c0 eb c2 28 bc 8e 65 4c 3c 57 4d 35 bb b8 12 0e 3b
       -0.010300378 0.012475384 -0.0027664506 0.0021678638
0003d0 80 ef 3f 39 62 9d e1 bb ac c6 af 3a 8b 0a 48 ba
       0.000183044 -0.0068852166 0.0013410649 -0.00076309656
0003e0 45 87 16 bc c3 78 8b bc 13 d0 af bb e8 29 8a bb
       -0.009187524 -0.017025357 -0.0053653806 -0.0042164214
0003f0 87 94 76 bc 33 ff 32 3b 13 f7 24 3c 97 82 27 bc
       -0.01505006 0.0027312755 0.010068673 -0.010224006

action_model._discrete_distribution.branches.0.bias f4 [3]
000000 00 00 00 00 00 00 00 00 00 00 00 00
       0.0 0.0 0.0

action_model._discrete_distribution.branches.1.weight f4 [2, 128]
000000 53 b2 64 ba aa 05 6f 3b cf 49 d1 ba 8a 9c 33 3c
       -0.0008724082 0.0036471882 -0.0015967431 0.010962615
000010 77 e7 13 bb a0 a2 4e bc 1b 38 cc bb 99 d5 08 bc
       -0.0022568384 -0.012612015 -0.006232274 -0.008351707
000020 7f f2 5d bb 08 6a de 3b 77 f5 1c 3b e8 6d f7 bb
       -0.0033866463 0.0067875423 0.002395002 -0.0075509436
000030 8b a2 da 3b c4 91 21 3c 10 6d 76 3c 60 f5 90 3b
       0.0066722087 0.009861413 0.015040651 0.004423782
000040 cd 6a 99 bc f3 0c 38 3c e3 c7 db ba 1c 95 10 3a
       -0.018727684 0.011233556 -0.0016767945 0.0005515383
000050 07 bc b7 bb 28 57 4c 3c 5f e5 b5 3a 6b f5 a1 3b
       -0.0056071314 0.012471952 0.0013877562 0.004942586
000060 e5 a9 40 3c 2b 29 0e bc da 1d b2 3b f6 6f 83 3b
       0.011759256 -0.008676807 0.0054356875 0.0040111495
000070 c3 59 a2 3b 1b c3 29 bc 97 e2 a5 3c 5d 94 86 3a
       0.004954548 -0.010361458 0.020249648 0.0010267604
000080 6c 4e 2f bc 87 7d 41 bb 11 3f a8 3b bb 18 e8 3b
       -0.01069985 -0.0029524283 0.005134471 0.007083026
000090 08 89 fb 3a e8 f3 fe 3b 13 20 4b 3b 8a 35 cf 3b
       0.0019190619 0.0077805407 0.003099446 0.006323521
0000a0 68 6f b9 bb 7f 14 2a 3c 97 38 06 3b af db 3b bc
       -0.0056590326 0.010380863 0.0020480508 -0.011465951
0000b0 d9 15 b7 3b 89 b2 25 bb 70 1a fd b9 b0 b8 00 3c
       0.0055873212 -0.0025283417 -0.00048275618 0.007856533
0000c0 0f 75 9a 3b 72 33 b6 39 8a 0b aa 3b 5f 63 85 3b
       0.0047136615 0.00034752075 0.005189364 0.004070684
0000d0 d2 88 75 3b fa ff 46 3b bd fa 0c bb 77 ee 1e 3b
       0.0037465584 0.0030364976 -0.0021511756 0.0024251023
0000e0 ff d1 4a 3b f3 ce 84 bb 63 74 2b ba c0 8f 04 bc
       0.0030947921 -0.0040529906 -0.00065404753 -0.008090913
0000f0 bc 99 3d bb b2 d4 6b 3b eb 20 26 bc 57 ac 94 3c
       -0.0028930744 0.003598493 -0.010139684 0.018148584
000100 1b ae fe 3b 4f f8 01 3c d1 62 17 3c d3 f8 54 3b
       0.00777222 0.007932737 0.009239868 0.0032496944
000110 af d1 26 bb 50 ff 42 bc 6c f0 95 bb 4d df f6 3b
       -0.002545457 -0.011901692 -0.0045757797 0.0075339437
000120 de 25 a8 bb 7b c1 20 3c c1 3f 98 bc 43 9a d2 39
       -0.0051314672 0.009811754 -0.018585088 0.00040169255
000130 94 35 87 3b b8 17 ef bb 72 e0 3a 3c 49 e9 44 bc
       0.00412626 -0.0072965287 0.011406051 -0.01201851
000140 44 20 05 3c 89 a7 b7 bb 02 a8 0e bc bf 8b b2 bc
       0.0081253685 -0.0056046885 -0.008707048 -0.021795152
000150 ad cf 9c bb a8 13 b2 3a f3 16 a0 3a 78 26 a3 bb
       -0.004785499 0.001358618 0.0012213871 -0.004978951
000160 a9 b0 17 bc fb cf 16 bc 9b ac 13 3b 63 73 e8 3b
       -0.009258428 -0.00920486 0.00225333 0.0070938333
000170 fd 8e ec ba b5 43 e7 bb 69 43 ae bb 23 2c a9 3b
       -0.0018047985 -0.007057632 -0.0053180945 0.005162732
000180 c9 e1 1d 3c b1 5e 3e bc c7 5b dd 3a c7 9d 42 ba
       0.009636351 -0.011619256 0.0016888314 -0.00074240234
000190 07 d8 e8 ba b9 d3 15 3b c5 7f bc bb e9 5a 12 3b
       -0.0017764576 0.0022861792 -0.005752536 0.0022332019
0001a0 b6 1a aa bb 55 fd 73 3b 7b 66 dc 3b 13 94 36 3b
       -0.0051911725 0.0037229855 0.006726084 0.0027859255
0001b0 07 31 90 3c 2b 69 d8 bb af cd 4f ba bf ba 86 bc
       0.017601503 -0.006604334 -0.00079270726 -0.01644647
0001c0 6b 3d cb 3b 47 87 6b bc b0 be a7 38 e8 ff fb bb
       0.00620239 -0.014375514 7.998699e-05 -0.0076904185
0001d0 0b 91 47 3c 63 27 0d bc 82 92 35 bc 10 45 f9 ba
       0.012180577 -0.008615348 -0.0110822935 -0.0019017775
0001e0 e8 51 c9 bb 72 37 13 bc 9b 78 1b bc 77 36 70 3b
       -0.006143797 -0.008985387 -0.009489204 0.0036653557
0001f0 1b 70 08 3c 6f af 97 3c 6d 21 cd bb f0 39 03 bb
       0.008327509 0.01851627 -0.006260088 -0.0020023547
000200 d0 b6 f9 3b f0 f5 a4 bb 0f 6c 60 ba 9d 1b d2 bb
       0.00762067 -0.005034201 -0.0008561024 -0.006411983
000210 7c 8c 19 3a 89 e4 8c 3b ff 05 56 ba c8 f7 b8 bb
       0.00058574206 0.0042997045 -0.00081643456 -0.005644772
000220 f8 b0 ef ba e0 25 c9 ba 1f 64 e0 bb ef b2 98 3c
       -0.0018286994 -0.0015346371 -0.006847873 0.01864001
000230 d7 a8 03 39 4d f8 ea 3b 27 38 f0 ba 1b 4f 3e b9
       0.00012556031 0.007170713 -0.0018327282 -0.00018149281
000240 93 48 d0 3c 3d 5c 7d bb 84 7d 2e 3a ab 50 32 bb
       0.025425231 -0.0038659715 0.00066562765 -0.0027208726
000250 35 c8 72 bb c4 a2 31 bc d1 14 88 3b ec ed 3c bb
       -0.0037045602 -0.010842029 0.004152872 -0.0028828336
000260 53 8c 16 ba ab 47 ba 3b ff 5c dd bb bd a8 41 3b
       -0.0005742956 0.005684813 -0.0067554708 0.0029550039
000270 2c 07 0a 3c 83 4b 35 bc cf 81 e4 ba 4f 8f 0e bc
       0.0084245615 -0.011065367 -0.0017433706 -0.00870116
000280 aa a9 33 3c db 45 e9 3b 52 83 8b bb 4f 61 26 3c
       0.010965744 0.007118923 -0.004257598 0.010155036
000290 cd c8 65 3a b5 cc 6e bc 40 0f d5 ba 84 d7 04 3b
       0.00087655784 -0.014575173 -0.0016255155 0.002027006
0002a0 8d 88 b7 3c 07 a3 4f 3c b3 2b 55 3a b3 e1 1f bb
       0.02240398 0.012673146 0.0008131817 -0.0024396002
0002b0 df d8 b2 bc 8f 58 78 3b 55 5a 4e bc 42 53 20 bc
       -0.021831928 0.0037894582 -0.012594779 -0.009785475
0002c0 a4 75 19 bc c8 19 a0 3b 1f d8 d7 3b 35 a0 5c bb
       -0.009366427 0.004885886 0.006587043 -0.0033664827
0002d0 f3 c3 78 3b 07 f5 8e bb 98 20 db b8 75 95 af bb
       0.0037958592 -0.0043627056 -0.00010448805 -0.005358393
0002e0 5b ee 95 bb 59 cf 14 bc cd 4f b0 ba b0 49 83 3c
       -0.0045755333 -0.009082639 -0.0013451517 0.016026348
0002f0 3f fd 62 bb 2a b8 65 bb f5 f8 58 3a 85 c5 5b 3b
       -0.003463581 -0.0035052397 0.00082768436 0.003353448
000300 08 ae e8 bb cb 54 6f bc 38 e4 af 3b 8d f0 fc bb
       -0.0071008243 -0.014607619 0.005367782 -0.0077191056
000310 97 b0 98 bb 8f 26 89 bc 61 86 80 bb 2b fc d0 bb
       -0.004659723 -0.016742019 -0.003922269 -0.006377717
000320 4f 03 34 ba b0 a6 1f bc 5b 6f 67 bc 77 75 33 bb
       -0.0006866948 -0.009744331 -0.01412567 -0.0027383247
000330 ce 05 99 37 1a b0 5c 38 63 fc c3 bb 6f ec c3 3c
       1.8241724e-05 5.2616095e-05 -0.0059810146 0.023916451
000340 7a 8d 71 3c a3 d2 f0 ba 8b ae 20 bc 6c fe 48 bc
       0.014743203 -0.0018373322 -0.009807239 -0.01226769
000350 0b 33 54 bc 5d 10 c8 3b e2 3a 2c 3b 55 e8 c0 bb
       -0.012951623 0.0061054663 0.0026280214 -0.005887071
000360 ff 51 b5 3b b9 fa 85 bb 05 13 3e 3c 0f 08 bf 3a
       0.0055334563 -0.0040887264 0.011601214 0.0014574545
000370 7f 7c 8f bb 24 c0 9b 3b e5 de ca bb 39 44 a6 3b
       -0.0043788548 0.0047531296 -0.006191122 0.0050740507
000380 b4 06 0c bc f7 58 04 bc b3 24 8e 3b 9d 94 d3 bb
       -0.00854652 -0.0080778515 0.004337871 -0.006456925
000390 87 23 23 bc 24 1f 86 3b 54 68 87 3b c0 79 07 bc
       -0.009957201 0.0040930677 0.00413231 -0.008268774
0003a0 78 51 d5 39 df fd e1 3b 83 c1 9c 38 08 19 62 bb
       0.00040687225 0.006896719 7.474704e-05 -0.0034499783
0003b0 d4 48 9f bb c5 97 29 bc db 39 91 bc fd ec 70 ba
       -0.0048609767 -0.010351126 -0.017727783 -0.00091905874
0003c0 2b 7c be bb 92 55 7a 3c 27 06 1d bb 32 70 d9 bb
       -0.005813142 0.015279191 -0.0023959966 -0.006635689
0003d0 3b c6 2b 3b 5f f6 ac bc 87 21 cd ba 4c a5 09 bb
       0.0026210684 -0.021113573 -0.0015650251 -0.0021003066
0003e0 c8 d8 b9 ba e2 25 c6 ba 98 76 3b bb a0 5e 97 3b
       -0.0014178986 -0.0015117491 -0.0028604623 0.0046194345
0003f0 32 ff 2b bb df 50 b2 bb 9b e2 cf 3b f0 e4 48 bc
       -0.0026244638 -0.0054417695 0.006344152 -0.012261614

action_model._discrete_distribution.branches.1.bias f4 [2]
000000 00 00 00 00 00 00 00 00
       0.0 0.0

action_model._discrete_distribution.branches.2.weight f4 [2, 128]
000000 b2 ab a0 3b 9b c7 d1 ba 87 b0 05 bb 5f 93 77 bc
       0.00490328 -0.0016004922 -0.0020399408 -0.01511082
000010 d3 75 e9 ba 05 e4 01 3b 48 d8 c5 bc 27 f4 87 bc
       -0.0017811604 0.0019819748 -0.024150982 -0.016595913
000020 8b cc 52 bb ab 49 3c 3b 7f 75 a4 3c 86 2d 43 3b
       -0.0032165374 0.0028730433 0.020075558 0.0029781773
000030 8d cf 85 bc 33 5a 32 bc e5 f2 3d 3c d5 b9 63 bc
       -0.01633432 -0.010885763 0.011593555 -0.013899286
000040 93 63 46 bc b9 66 b8 bb 1f bb 57 bc b9 e9 80 bb
       -0.012108701 -0.00562748 -0.013167172 -0.003934112
000050 e0 63 01 bc 9f 81 71 bb 5f ca 00 3c e8 48 b0 3a
       -0.007897347 -0.0036850942 0.007860749 0.0013449462
000060 83 d6 e9 3b f2 d2 6a 3c 22 b0 ee 3a 8b da 2d 3a
       0.0071361675 0.01433252 0.0018210451 0.0006631992
000070 13 da 90 3b ab fb c7 ba 63 04 20 3c cf b5 21 3c
       0.0044205277 -0.0015257498 0.009766671 0.009870007
000080 7f 39 f0 bb 0a 79 58 3b 0f 83 58 ba 5b 68 25 3b
       -0.007331073 0.003303113 -0.00082592753 0.0025239203
000090 0b 5c b4 3b 5d 1d a1 3b 9d 44 d8 bb 7f 61 b4 bc
       0.0055041364 0.0049168305 -0.006599976 -0.022019146
0000a0 30 07 22 bb 64 01 4c 3c a7 03 77 bc 78 70 0a 3c
       -0.0024723522 0.012451503 -0.015076554 0.008449666
0000b0 48 6d 85 bc 92 bb 4d 3b b3 3d b3 3b 35 26 f2 bb
       -0.01628746 0.0031392318 0.0054700016 -0.0073898085
0000c0 31 24 01 3b 73 2d 0d 3c 50 fd 2e bc a4 e6 a9 ba
       0.001970541 0.008616793 -0.010680512 -0.0012962413
0000d0 ec a2 2f 3b ff b6 e2 ba a7 31 b2 bb 9e 9e a3 3c
       0.002679999 -0.0017296969 -0.005438048 0.019973096
0000e0 b5 b8 1a 3b a0 43 a5 bc 02 41 84 3c 75 4c bb bb
       0.002360863 -0.020173848 0.01614428 -0.0057159015
0000f0 fe da 2f 3c cd 5d 9c bc 7b 97 da bb ac c8 04 bc
       0.010733364 -0.019087696 -0.00667089 -0.0081044845
000100 5f 6b 17 3c 58 d2 fa bb 46 75 05 3c 9c 5f 23 3c
       0.009241908 -0.0076544695 0.008145636 0.0099715255
000110 70 d9 16 bb 68 43 4f bc 2e 9b 02 3c 83 d3 4c bc
       -0.0023017786 -0.012650348 0.007971568 -0.0125016
000120 af af 3a 3c b4 5c 00 bb 7f 36 8a 3b 69 e5 8d bb
       0.011394425 -0.0019586505 0.004217922 -0.0043303263
000130 ea 94 04 bc 85 7e d9 bb 02 e8 03 3a ba 85 55 b9
       -0.0080921445 -0.0066373968 0.0005031825 -0.0002036308
000140 30 1a f3 bb f3 32 af ba e1 43 95 b9 d2 96 75 3b
       -0.0074188933 -0.0013366624 -0.00028470068 0.003747393
000150 11 5f 3f bb 80 e5 d3 b9 b2 62 e6 bb 72 6a 2c ba
       -0.002920095 -0.00040416047 -0.0070308084 -0.0006577141
000160 fa 9d d3 3b b8 ad a8 3b 43 38 15 3c 0a e0 21 3c
       0.0064580413 0.005147662 0.009107652 0.009880075
000170 2f 48 5d 3c bc e6 22 3c b0 2d 8c 3c 46 10 45 39
       0.013505979 0.009942707 0.01711163 0.00018793446
000180 ca cf 35 3c 3d 1a f2 ba a7 60 f2 ba 6f 89 65 bc
       0.011096904 -0.0018470954 -0.0018491939 -0.0140098175
000190 87 1d fb bb 15 f0 60 39 b4 34 14 bc a5 d6 60 bb
       -0.007663432 0.00021451742 -0.0090457685 -0.0034307626
0001a0 2b 14 63 bc c4 d2 89 3c bf c9 4f 3c 42 79 4d bc
       -0.013859789 0.016824134 0.012682377 -0.012541117
0001b0 b0 12 74 bb ba 73 2c bc 88 c0 53 3c d7 d4 a2 3b
       -0.0037242584 -0.010525638 0.012924321 0.00496922
0001c0 fb db a3 ba 11 16 11 3b 50 f3 ac bb 98 c7 19 3c
       -0.0012501472 0.0022138397 -0.0052780285 0.009385966
0001d0 ab 8e d7 bc b2 47 e4 ba d6 60 83 bc 42 be 99 3c
       -0.026313147 -0.0017416386 -0.016037386 0.01876748
0001e0 bb d1 38 3b 43 db 63 3c cb 49 28 bc 76 a8 02 bb
       0.002820118 0.013907257 -0.0102715 -0.0019936836
0001f0 9a 9d 76 3b 6e fb 0c bb 7f 9b b2 bb a3 f4 f9 3b
       0.003763056 -0.0021512168 -0.0054506655 0.00762804
000200 7b 39 bd bb db 9d 24 bc 25 ce 99 3c 77 05 e6 bb
       -0.0057746745 -0.010047401 0.018775055 -0.0070196944
000210 d4 0f 2c bc c7 8d e1 3a 70 9c e7 bb 93 2b 67 3c
       -0.010501821 0.0017208391 -0.0070682094 0.01410951
000220 22 f2 c4 3b c8 eb a2 bb 19 c4 47 bc cf 5c be 3b
       0.00601031 -0.004971955 -0.012192749 0.0058094035
000230 cd 36 c9 3a 3b 36 22 3c 94 10 82 ba 3a e6 63 3a
       0.0015351415 0.009900625 -0.0009923154 0.0008693669
000240 ca 77 7d bc ec 5e 41 bc a3 7a 59 ba e3 9c d7 3b
       -0.0154704545 -0.011802416 -0.00082961674 0.0065799817
000250 18 a5 19 3b c7 32 9f 3a 9d c6 e7 bb 3d 4f 68 3b
       0.002344435 0.001214587 -0.007073237 0.003544762
000260 67 60 3a 3b 6d 18 82 3b 78 47 62 3c 6b dd 89 bb
       0.0028438808 0.003970197 0.013810985 -0.0042073033
000270 58 24 10 bc 36 28 36 3c f7 ac 67 3c a5 64 0e ba
       -0.0087977275 0.0111179855 0.014140359 -0.00054318673
000280 09 44 46 3c 3d 0d 4f bc 6f db 1f 3b 50 f7 bd bb
       0.012101182 -0.012637434 0.0024392267 -0.005797304
000290 8a aa 97 bb d7 d5 77 3b ad fc f8 3a 55 13 6c bb
       -0.004628484 0.0037816667 0.0018996202 -0.0036022265
0002a0 c3 55 87 bb 52 fa de 3b 57 c9 3d 3b 50 fa e1 38
       -0.0041300966 0.006804743 0.002895912 0.000107754604
0002b0 9b c2 3c bc 68 b5 5a bc 13 d1 ff bb a8 f8 83 3c
       -0.011521007 -0.013348915 -0.007806906 0.01610978
0002c0 07 18 54 3c 5d eb 6d bb 83 56 5a 3b 15 36 5f bb
       0.012945182 -0.0036303618 0.0033315725 -0.0034059335
0002d0 a0 68 72 3c 28 74 6b 3b af c7 84 3b b7 8a 00 3b
       0.014795452 0.0035927389 0.0040521245 0.001961393
0002e0 0f 72 1f 3c b6 50 92 3b 03 98 86 bc eb df 9e 3b
       0.0097317835 0.004465188 -0.016429907 0.0048484704
0002f0 53 69 b2 bb 8e 12 33 bc 28 fb de 38 9b d4 5a bb
       -0.0054446845 -0.010929717 0.000106325664 -0.0033390883
000300 ce aa 3f 39 31 9b 8a 3b 6c 1e 82 3c 07 cc 1c 3c
       0.00018278809 0.004229926 0.015883647 0.009570128
000310 4f 0f 60 bc 39 c8 88 3b 1b 25 e2 3a 74 fe 0e bc
       -0.013675525 0.004174259 0.001725349 -0.008727659
000320 cb 79 78 bb a3 e9 99 bc 76 23 a6 ba 85 68 4e 3c
       -0.003791439 -0.018788164 -0.0012675363 0.012598162
000330 ef 34 f3 bb e3 e0 a3 3b 9b 6e 90 bc 57 f1 bf 39
       -0.0074220817 0.005001174 -0.017630866 0.0003661017
000340 58 09 00 3c 8f 50 7c 3a 3f d6 41 bb 3f 80 9e 3b
       0.007814728 0.0009625041 -0.0029577164 0.0048370655
000350 15 7e 96 3b a9 77 b0 3c 25 76 77 b7 ac cb 2c 3b
       0.004592667 0.021541433 -1.4749855e-05 0.0026366515
000360 57 e5 90 b9 6f 5e 81 bb d0 63 5e 3c 5a 72 42 3c
       -0.00027636692 -0.003948025 0.013573602 0.011868084
000370 dc aa 2b 3c 25 1c 5a 3b 63 64 d8 3b a2 15 0a 3c
       0.010477748 0.0033280936 0.006603764 0.008428009
000380 e7 24 73 3b 98 be cd 3b 3a bf a8 3a 5f 9a ad 3a
       0.0037100853 0.006278824 0.0012874373 0.0013244859
000390 be 6d 3e 3c c6 9b 0d 3a b7 f0 e4 bb 42 4b a5 3c
       0.011622844 0.0005401935 -0.0069867033 0.020177487
0003a0 5d ea 2d 3c 83 85 2c bb bf f7 40 ba 90 87 a2 bb
       0.010614959 -0.0026324696 -0.0007361136 -0.004960008
0003b0 a6 cc be 3c 8f 4f d4 3b 73 9f 60 bc 08 ce ad 3c
       0.023290943 0.0064792107 -0.013709891 0.021216407
0003c0 81 09 8f 3c 18 56 9f bc 63 ad 5b 3c f3 5f 42 bb
       0.017460587 -0.019450232 0.013408038 -0.002965924
0003d0 5f a5 59 bc 3a 99 04 3a 13 d1 5c bc f2 85 98 3c
       -0.013284056 0.0005058233 -0.013477582 0.018618558
0003e0 a2 23 2d 3c 3d 34 c8 3b 6f 6c c7 bb 29 f0 87 bc
       0.010567578 0.006109743 -0.0060859243 -0.01659401
0003f0 17 33 d8 3a 62 4e 18 3b 0a 3d d1 3b 68 6e 81 ba
       0.0016494718 0.002324008 0.0063854503 -0.0009874823

action_model._discrete_distribution.branches.2.bias f4 [2]
000000 00 00 00 00 00 00 00 00
       0.0 0.0

network_body._body_endoder.seq_layers.0.weight f4 [128, 5]
000000 60 ec 49 3f 7e f0 29 3f 1e 40 c2 bc bb 35 17 3f
       0.78876305 0.66382587 -0.023712214 0.5906636
000010 bb e9 ba be 13 a0 29 3e 76 98 72 bd b0 d8 15 3f
       -0.36506447 0.1656497 -0.05922743 0.58533764
000020 c6 e2 5b 3e 88 ed 4e be 78 6b 46 be 44 85 3f 3e
       0.21473226 -0.20207798 -0.19376934 0.1870318
000030 69 55 a1 be 40 1e 57 3e 62 40 ab bf 9b f6 b4 3d
       -0.31510475 0.21007633 -1.3379023 0.08836099
000040 01 f9 6f bd 7c a8 9f 3d 4b e7 59 bd 4b 56 af be
       -0.058587078 0.07795808 -0.053199094 -0.34245524
000050 1c 5b 4a 3e 88 88 16 bf 7a c4 77 bf f8 7c c0 be
       0.19761318 -0.5880208 -0.96784174 -0.37595344
000060 41 b4 32 bd f6 e6 6a 3d 53 b6 01 3e 05 d6 28 3d
       -0.043628935 0.057349168 0.12667207 0.04121973
000070 b8 55 51 3f 53 f6 ab 3e a7 a6 28 bf af 24 26 be
       0.8177142 0.33586368 -0.6587929 -0.16224931
000080 c7 f1 09 3f cb ee 17 bf bc a5 80 3c a0 a7 33 3f
       0.5388455 -0.59348744 0.015704028 0.7017765
000090 b0 0d 8d be 9a 3f 8e 3e 6f be 24 3f 66 ba b7 3d
       -0.27549505 0.277829 0.6435308 0.089710996
0000a0 20 ab 5d 3f e2 33 a7 bd 4f 8c 99 be 4d b9 ba be
       0.8658924 -0.08164193 -0.2998986 -0.36469498
0000b0 7a 49 7c 3f 39 65 e9 be 29 19 20 bd a9 04 c5 3e
       0.98549616 -0.4558504 -0.039086495 0.38480118
0000c0 d6 34 b0 bc 11 20 ed be 4a 4f 20 3f c9 b1 52 bf
       -0.02150957 -0.46313527 0.62620986 -0.8230253
0000d0 bd 00 05 3f 29 02 04 3e b7 c5 76 3f 42 ed 8f 3e
       0.5195425 0.12891449 0.9639544 0.281107
0000e0 78 c9 ab bc 13 6d cf 3d ef 9e 8d be 64 47 c4 3e
       -0.020970091 0.10128226 -0.2766032 0.38335717
0000f0 20 30 bf be 74 14 d0 3e 7a c3 4e 3e c7 bf 0c 3e
       -0.37341404 0.40640604 0.20191756 0.13745032
000100 b9 0b 1d 3f 0b bf 1f 3f eb 51 e0 3e cb d7 a0 be
       0.6134601 0.62400883 0.43812498 -0.31414637
000110 bb 32 51 be 03 52 9a 3e e6 79 64 3f 8b b2 bb be
       -0.20429508 0.30140695 0.892485 -0.36659655
000120 d1 2f c9 3e 49 92 16 be d6 76 57 3d 87 eb 88 3e
       0.39294294 -0.14704241 0.052603565 0.26742193
000130 53 61 4d 3f e8 78 ca bd 44 1b db 3e b6 bb 12 be
       0.8022663 -0.09886342 0.4279424 -0.14329419
000140 05 96 a5 be cb c3 77 be 2d 84 a8 be 3e 14 70 3e
       -0.32341018 -0.24195783 -0.32913342 0.23445222
000150 fd d7 3b bf bd e6 3f 3e f2 f8 1c bf 9e c2 a0 3e
       -0.73376447 0.18740363 -0.6131736 0.3139848
000160 5e a8 36 3f c3 61 dd be dc 59 70 3e 2d 65 d3 bd
       0.7135066 -0.4323865 0.23471779 -0.10322032
000170 02 e9 2d 3e 7c 1c 4c be 05 cf d3 3d 9c 4a 9b 3d
       0.16983417 -0.19932741 0.1034222 0.0758259
000180 42 ce 29 bf 71 5c 4e be f0 a1 9c bd 45 84 38 3e
       -0.6633035 -0.20152451 -0.076480746 0.18019207
000190 52 28 f5 bd e2 b4 04 3f c2 73 68 be c7 b5 35 bf
       -0.11970581 0.51838505 -0.22700408 -0.70980495
0001a0 84 d8 bb be 22 14 96 bd 4e 83 c9 be 9e e7 13 3e
       -0.36688626 -0.07328059 -0.3935799 0.14443824
0001b0 30 69 29 bf fc 7c 99 3e de 71 e2 bc 83 ca c3 be
       -0.6617613 0.29978168 -0.027642187 -0.38240442
0001c0 9c e1 9a be 89 0d 80 be b1 ca ef 3e f2 89 65 3e
       -0.3025025 -0.25010327 0.4683433 0.22415903
0001d0 bc 97 0e 3d ec d1 84 3e 39 a9 57 3e a2 55 12 3f
       0.034812674 0.25941408 0.21060647 0.57161915
0001e0 4c c3 49 bf 00 9e 52 be 03 7c 09 3f bd 00 59 bf
       -0.78813624 -0.20568085 0.5370485 -0.8476675
0001f0 05 8f a1 be fd 13 bd 3e 51 f5 9f be e2 84 8b 3d
       -0.31554428 0.36929312 -0.3124185 0.06812455
000200 e6 36 90 3d af d4 15 3f ee e3 f6 3e dd 94 95 be
       0.07041721 0.58527654 0.48220772 -0.29215136
000210 6d e9 4a bf ef dc cd bd d0 56 c8 3e fd 53 c0 be
       -0.7926243 -0.10051905 0.39128733 -0.37564078
000220 02 64 4b 3e 07 fc 3a 3e 39 6d d3 bc dd 36 ef be
       0.19862369 0.18260203 -0.025808917 -0.46721545
000230 e7 d5 a7 3e 9a d4 46 3f ff b3 37 3f db 63 01 bf
       0.32780382 0.77668154 0.7175903 -0.5054299
000240 1d b7 c1 bd 62 b0 9f be e7 cc 1d bf 2d 2b a2 3e
       -0.09458754 -0.31189257 -0.6164078 0.31673566
000250 6c 64 59 be 81 16 1a be ff 32 95 bc 13 f8 45 bd
       -0.21229714 -0.15047647 -0.018212793 -0.048332285
000260 de a9 26 3f 97 06 86 3e 63 75 ad be 1e 05 ca 3e
       0.65102947 0.26176903 -0.3387862 0.3945703
000270 cb ee 51 be b5 9b 3e bf b5 4c 27 be b9 75 c6 be
       -0.20501249 -0.7445634 -0.16337855 -0.3876169
000280 80 99 57 be e2 39 2a 3f f8 2c 2d 3e 00 5a 57 be
       -0.2105465 0.6649457 0.16911685 -0.21030426
000290 e5 29 ad 3e 84 34 e2 be 14 9d 41 be 98 97 c5 be
       0.33821025 -0.4418069 -0.18907577 -0.3859222
0002a0 aa c9 03 3d 6a 09 22 3f a5 72 34 be f5 81 a7 3e
       0.032174744 0.63295615 -0.17621858 0.32716337
0002b0 3f 28 99 be 23 49 d1 3c 07 e3 d3 3d 3d 9e c8 be
       -0.29913518 0.02554757 0.103460364 -0.39183226
0002c0 35 1d 97 3c 2b 97 e7 bc 43 33 27 be ba 31 2c 3d
       0.018446544 -0.028270325 -0.16328149 0.04203961
0002d0 36 57 ca 3e ba d1 d2 3e dd 35 b7 be 7c 51 0d be
       0.39519662 0.41175634 -0.35783282 -0.13800615
0002e0 f7 fd 4c 3f c6 18 ac 3d ac c5 e0 bb d0 00 f6 bd
       0.8007502 0.08403163 -0.006859502 -0.12011874
0002f0 0e f0 07 3f 31 34 33 3e 09 54 33 3d 98 00 51 bf
       0.5310067 0.17500378 0.043781314 -0.8164153
000300 8d 8e 1b 3f 28 3b 45 3f 0b e4 ab be b2 a0 1b bf
       0.6076439 0.7704339 -0.3357242 -0.60792077
000310 a3 45 0d be 3f b8 27 3e 88 98 01 bf c9 a0 a6 3e
       -0.13796096 0.16378878 -0.5062337 0.32544544
000320 31 41 e2 3e 19 b1 e1 3e 98 0a b2 be d8 c2 2c bd
       0.44190362 0.44080427 -0.34773707 -0.042178005
000330 7e 8f 1f 3e 62 c6 a9 bd 16 37 1c 3f 56 c0 48 bf
       0.15582082 -0.08289792 0.61021554 -0.7841848
000340 15 54 a7 3c 76 87 37 3d de b0 fc 3e 7f 0e 12 bd
       0.020425836 0.04480692 0.4935369 -0.035658356
000350 62 fc 05 3d 37 69 17 bb 66 36 08 3e f8 21 12 3f
       0.032711394 -0.0023103484 0.13302001 0.5708308
000360 1b 01 67 bf b2 cb 16 3f 63 ab 23 3e a2 7e 1a 3f
       -0.9023606 0.58904564 0.15983348 0.60349476
000370 43 08 87 3e c0 7f fc 3e af 1c 5c be 81 e4 a0 bd
       0.2637349 0.49316216 -0.21495317 -0.07856084
000380 26 f6 47 bf 52 3d 9b 3e 7b c5 45 bd ca 7b 93 be
       -0.7810997 0.3032022 -0.048284035 -0.2880538
000390 c3 9b 8d 3e 2a 2a 31 bf b4 7a 74 3f b7 a4 54 3f
       0.276579 -0.6920496 0.9549973 0.83063835
0003a0 d5 f5 b4 bd 7e 56 18 3f ff b9 18 bf 6e e9 3b bc
       -0.08835951 0.59506977 -0.5965881 -0.011469228
0003b0 dd fd 75 bc f1 6a 83 3f 54 93 3e 3e ae 7e 69 3e
       -0.015014139 1.0267011 0.18610889 0.2280223
0003c0 76 be 92 3e e1 e7 53 bd 32 c7 01 be d5 33 f6 bd
       0.28660935 -0.05173481 -0.12673643 -0.12021605
0003d0 0a e1 68 bc 37 67 fc be 26 30 93 3e 65 f4 3a 3f
       -0.01421381 -0.49297497 0.28747672 0.73029166
0003e0 2c 08 54 bd c7 2c 8e be 96 1d d9 be 74 f0 2a 3f
       -0.051765606 -0.27768537 -0.42405385 0.6677315
0003f0 4a dd 99 3f 8b d4 35 be 26 aa 55 3d 3d 60 38 3f
       1.2020657 -0.1775686 0.05216422 0.7202185
