results/ppo/Player Behaviour/Player Behaviour-704.onnx (onnx, 76307 bytes, 10 tensors)

discrete_action_output_shape f4 [1, 2]
000000 00 00 40 40 00 00 00 40
       3.0 2.0

network_body._body_endoder.seq_layers.0.weight f4 [128, 5]
000000 25 a7 3c bf 55 1a 8c 3d 2a 4d bb 3d 68 ce 50 bd
       -0.7369254 0.0684096 0.09145577 -0.050978094
000010 60 d8 58 3e 6a fd b3 3e 26 08 18 be 9b 4b 45 3e
       0.2117629 0.35154277 -0.14846858 0.19267122
000020 d3 fc fa 3b 71 c0 e5 bd 6c 03 95 bd 97 5d 9d 3e
       0.0076595335 -0.11218346 -0.07276043 0.30735466
000030 bd 3a 97 3e d3 b1 97 3e 7d af 20 bf 2e f1 b0 3e
       0.29537 0.29627857 -0.62767774 0.34559005
000040 c8 bc 4c bf 06 29 19 3e 90 d1 3b be 09 4f a1 be
       -0.7997556 0.14957055 -0.1834166 -0.31505612
000050 bc 0a 27 bf 18 af 49 3d 1d 62 a6 3d 6b 85 ae 3e
       -0.65250754 0.049239248 0.081241824 0.34086165
000060 31 8d c1 be d2 e2 04 bf 28 5d fa 3d 93 b1 29 be
       -0.37803033 -0.519086 0.122247994 -0.16571645
000070 18 ce 1b bf 1c 61 4e bf 81 0e 89 3d 08 36 c5 3e
       -0.6086135 -0.8061693 0.066922195 0.38517785
000080 53 de 6b 3d 59 54 c9 3e 3d 71 0f bf b4 6c 8c be
       0.05758507 0.39322165 -0.5603216 -0.27426684
000090 e8 d1 0b 3f 20 ad 70 3e 6f 62 cd 3d e2 40 99 3c
       0.54617167 0.23503542 0.1002854 0.018707696
0000a0 81 bc 11 3d 2c 34 4a 3f eb 85 97 3c 77 d4 26 3f
       0.035580162 0.7898586 0.018496474 0.65167946
0000b0 c6 bb 25 3f 22 6d d6 be aa c5 a3 3e cb ce bd 3e
       0.64739645 -0.41880137 0.31986743 0.37071833
0000c0 a9 ec 8d be a6 62 0a be 63 cf d3 be 8c 30 bb 3e
       -0.2771962 -0.13514194 -0.4136916 0.36560476
0000d0 f0 02 54 3e e0 82 06 be 2e 29 a5 be c3 96 02 be
       0.20704246 -0.13135862 -0.3225798 -0.12752824
0000e0 ce 87 0f bf a8 70 0d bf 9b da 79 3f 23 06 c2 be
       -0.56066597 -0.55250025 0.9759919 -0.37895307
0000f0 65 51 9f bd 41 22 14 3f 14 40 24 be 91 89 4b 3d
       -0.07779197 0.5786477 -0.16040069 0.04969174
000100 fa 02 b5 be c2 bf c3 3e a2 7e 5a be 06 de da bd
       -0.35353833 0.38232237 -0.21337369 -0.10686879
000110 28 5c 99 3e 4b ad 12 be bf c8 dc be 28 a9 20 3e
       0.29953122 -0.14323919 -0.43121907 0.15689528
000120 a7 92 a0 3e de ed 11 3f 6f e9 ee be 0b 9f 5f 3f
       0.31361887 0.5700358 -0.4666247 0.87352055
000130 ec db 12 3f f1 dd 45 bf d3 0e 93 be c6 45 92 3d
       0.57366824 -0.7729178 -0.28722247 0.071422145
000140 e1 e1 21 be 00 31 fa be 23 c7 de 3e f1 9c 23 bf
       -0.15808822 -0.4886551 0.43511304 -0.6391135
000150 b3 ba c1 3d 84 98 6a bd 39 75 98 3e e7 1f 03 bd
       0.09459438 -0.057274356 0.29776934 -0.032012846
000160 ba 93 91 3e 38 e5 15 3f 60 f6 90 be 95 74 9f be
       0.2843302 0.58552885 -0.2831297 -0.31143633
000170 6f 8f 60 3e 84 a7 4b 3f ee 92 4d bf b8 bd af bd
       0.21929716 0.79552484 -0.8030232 -0.08581108
000180 52 b1 1b 3d a8 47 d1 3e 65 7d 6d bd a5 21 d8 bf
       0.038010903 0.40874982 -0.057980914 -1.6885267
000190 79 36 dc 3e fa b4 1e bf 1e 2d 76 3e 81 22 09 3e
       0.4301031 -0.619949 0.24040648 0.13392068
0001a0 3d 48 01 bf 30 c0 0d 3f fd 19 b7 be a8 d4 e1 be
       -0.5050085 0.5537138 -0.35762015 -0.44107556
0001b0 47 a2 47 3e 48 7d 9e be eb 11 ad be 0b 04 de 3e
       0.19495498 -0.30954957 -0.33802733 0.4336246
0001c0 12 9c cf be 87 a8 49 3e 60 21 e4 bd 50 b1 04 3e
       -0.4054876 0.19693194 -0.11139178 0.12958264
0001d0 2a 4c 85 3f 8a 83 7e 3f 52 5b 48 3f 30 bb 75 bf
       1.0413868 0.9941946 0.78264344 -0.9598875
0001e0 40 c0 cc be b6 ad 02 bd 18 99 9c 3e 90 eb bc 3e
       -0.39990425 -0.031903945 0.3058555 0.3689847
0001f0 ee e5 22 3e 09 44 5d bf 74 a6 94 3b c3 ec cd bc
       0.15908024 -0.8643194 0.0045364443 -0.02513731
000200 46 a7 c3 bd ef 07 bf b7 92 db 31 be bb ce a9 3e
       -0.09553389 -2.2772669e-05 -0.17368916 0.33165535
000210 e0 7a 18 3f 00 a7 2f bf 08 7f 66 3e 46 40 9c be
       0.5956249 -0.68614197 0.22509396 -0.30517787
000220 dd 91 80 bd fb db 8a 3e a1 fe 96 be 52 d2 ba 3e
       -0.06277821 0.27120957 -0.2949114 0.36488587
000230 b8 a4 1d be 81 79 15 3e 51 4b 05 3f 91 95 c5 3d
       -0.15394866 0.14597131 0.5206805 0.09647668
000240 38 25 6f bd 52 8e 6e be 04 51 05 3d 6a 8c 86 3e
       -0.058385104 -0.23296478 0.032547966 0.26279002
000250 3e 05 56 bf 19 8e a4 be 02 79 e4 be 35 f1 5c bf
       -0.8360175 -0.32139662 -0.44623572 -0.8630555
000260 e1 d8 00 3e ca 32 06 3f 2b 9a fe be 2e 8c 4c 3e
       0.12582733 0.5242125 -0.49726996 0.1997535
000270 3d 92 af 3e bc bf 5f 3f 14 a3 e9 3d 61 4a d4 bd
       0.34291258 0.8740194 0.11408058 -0.10365749
000280 a4 3f 68 be 0c d3 5f bf e4 d6 0a 3f 62 f4 96 3e
       -0.22680527 -0.87431407 0.5423415 0.29483324
000290 74 9c d8 bd 47 6b 15 be 2a 27 b2 be 34 2f cf bd
       -0.10576716 -0.14591704 -0.34795505 -0.10116425
0002a0 1b bc fb be d9 d8 27 3f 4e b5 1d 3e bc 1a 62 bf
       -0.4916695 0.6556526 0.15401193 -0.88322043
0002b0 1b 34 51 bd 34 55 23 3e 7a 26 d5 3e 59 5c 2f bf
       -0.051075082 0.15950471 0.41630918 -0.68500286
0002c0 64 80 84 3f 7f a6 f1 3e 70 36 c0 3d b3 26 fa 3e
       1.0351682 0.4719734 0.09385383 0.4885765
0002d0 c6 bc 03 3e a7 4a f1 3e 13 6b f1 bd 31 db be be
       0.1286498 0.47127268 -0.11788001 -0.37276605
0002e0 48 fe 31 3e 86 32 6f 3e ed 6a 8a 3e a3 a0 98 3e
       0.17382157 0.23359117 0.27034703 0.29810056
0002f0 56 8a ea be 7b d6 96 be 4b 9d c6 3e 6c 8c 7f 3f
       -0.45808667 -0.2946051 0.3879188 0.9982364
000300 c7 11 cf 3e 34 15 c7 3e 77 9b 08 bf b7 97 17 bf
       0.4044325 0.38883364 -0.5336222 -0.59215873
000310 73 ab 4d 3f 49 3b a3 3d 12 dc 97 bf 51 3b 91 3e
       0.80339736 0.07970292 -1.1864035 0.28365567
000320 ca 4a 01 bf 44 81 89 3e c4 84 d2 3e e6 0e 0a be
       -0.50504744 0.26856434 0.41116917 -0.13482246
000330 e5 3a da 3e 54 40 db bd 14 cb ce 3d 84 be 8a 3f
       0.42623058 -0.10705629 0.10097328 1.0839391
000340 7e dc 87 3e 6c c7 b6 be 6a 6f b5 be 96 8a e3 bc
       0.2653541 -0.35699022 -0.35436565 -0.027776044
000350 04 da 2e be 70 b9 02 bc bf 24 85 be 3b f6 67 be
       -0.17075354 -0.007978782 -0.26004598 -0.22652523
000360 8e 8e 0d bf 5e 12 28 3e 10 44 4d bd ef 4f 37 3f
       -0.55295646 0.16413257 -0.050113738 0.71606344
000370 48 56 0a 3e e7 03 3d be 26 d1 71 bf c3 cd 46 bf
       0.13509476 -0.1845852 -0.9445976 -0.7765772
000380 b5 82 82 bf 50 13 6c be 5e a1 52 bd 53 d2 e6 3e
       -1.0196139 -0.23054242 -0.051423423 0.4508234
000390 55 89 9b be dc 7b fe 3e 3b 35 f3 3d d0 79 2e be
       -0.30378214 0.49703872 0.11875387 -0.17038655
0003a0 db 86 32 3f e9 da 69 3e f0 4a b9 be db d6 33 bf
       0.69737023 0.22837414 -0.36189985 -0.7024972
0003b0 d0 f8 2d bf 95 59 bd 3e 01 67 34 be 99 1e d9 be
       -0.6795778 0.36982408 -0.17617418 -0.42406157
0003c0 c7 7a 13 3e c4 c3 58 be 4f 13 96 be 78 86 88 be
       0.14402305 -0.21168429 -0.29311606 -0.26665092
0003d0 bd d3 fa bd 41 f9 6b 3f 0e 28 84 be 92 17 bb bd
       -0.12247417 0.92177206 -0.2581181 -0.09135355
0003e0 e6 13 80 3f 78 cb 55 3e 4b 22 72 3d b6 c8 f5 be
       1.0006073 0.20878398 0.059114736 -0.48004693
0003f0 c9 e9 57 be 2f 1c 72 3f 6b 8c 69 3e ad bc a2 bd
       -0.21085276 0.94574255 0.22807471 -0.07946143

network_body._body_endoder.seq_layers.0.bias f4 [128]
000000 00 00 00 00 00 00 00 00 00 00 00 00 00 00 00 00
       0.0 0.0 0.0 0.0
000010 00 00 00 00 00 00 00 00 00 00 00 00 00 00 00 00
       0.0 0.0 0.0 0.0
000020 00 00 00 00 00 00 00 00 00 00 00 00 00 00 00 00
       0.0 0.0 0.0 0.0
000030 00 00 00 00 00 00 00 00 00 00 00 00 00 00 00 00
       0.0 0.0 0.0 0.0
000040 00 00 00 00 00 00 00 00 00 00 00 00 00 00 00 00
       0.0 0.0 0.0 0.0
000050 00 00 00 00 00 00 00 00 00 00 00 00 00 00 00 00
       0.0 0.0 0.0 0.0
000060 00 00 00 00 00 00 00 00 00 00 00 00 00 00 00 00
       0.0 0.0 0.0 0.0
000070 00 00 00 00 00 00 00 00 00 00 00 00 00 00 00 00
       0.0 0.0 0.0 0.0
000080 00 00 00 00 00 00 00 00 00 00 00 00 00 00 00 00
       0.0 0.0 0.0 0.0
000090 00 00 00 00 00 00 00 00 00 00 00 00 00 00 00 00
       0.0 0.0 0.0 0.0
0000a0 00 00 00 00 00 00 00 00 00 00 00 00 00 00 00 00
       0.0 0.0 0.0 0.0
0000b0 00 00 00 00 00 00 00 00 00 00 00 00 00 00 00 00
       0.0 0.0 0.0 0.0
0000c0 00 00 00 00 00 00 00 00 00 00 00 00 00 00 00 00
       0.0 0.0 0.0 0.0
0000d0 00 00 00 00 00 00 00 00 00 00 00 00 00 00 00 00
       0.0 0.0 0.0 0.0
0000e0 00 00 00 00 00 00 00 00 00 00 00 00 00 00 00 00
       0.0 0.0 0.0 0.0
0000f0 00 00 00 00 00 00 00 00 00 00 00 00 00 00 00 00
       0.0 0.0 0.0 0.0
000100 00 00 00 00 00 00 00 00 00 00 00 00 00 00 00 00
       0.0 0.0 0.0 0.0
000110 00 00 00 00 00 00 00 00 00 00 00 00 00 00 00 00
       0.0 0.0 0.0 0.0
000120 00 00 00 00 00 00 00 00 00 00 00 00 00 00 00 00
       0.0 0.0 0.0 0.0
000130 00 00 00 00 00 00 00 00 00 00 00 00 00 00 00 00
       0.0 0.0 0.0 0.0
000140 00 00 00 00 00 00 00 00 00 00 00 00 00 00 00 00
       0.0 0.0 0.0 0.0
000150 00 00 00 00 00 00 00 00 00 00 00 00 00 00 00 00
       0.0 0.0 0.0 0.0
000160 00 00 00 00 00 00 00 00 00 00 00 00 00 00 00 00
       0.0 0.0 0.0 0.0
000170 00 00 00 00 00 00 00 00 00 00 00 00 00 00 00 00
       0.0 0.0 0.0 0.0
000180 00 00 00 00 00 00 00 00 00 00 00 00 00 00 00 00
       0.0 0.0 0.0 0.0
000190 00 00 00 00 00 00 00 00 00 00 00 00 00 00 00 00
       0.0 0.0 0.0 0.0
0001a0 00 00 00 00 00 00 00 00 00 00 00 00 00 00 00 00
       0.0 0.0 0.0 0.0
0001b0 00 00 00 00 00 00 00 00 00 00 00 00 00 00 00 00
       0.0 0.0 0.0 0.0
0001c0 00 00 00 00 00 00 00 00 00 00 00 00 00 00 00 00
       0.0 0.0 0.0 0.0
0001d0 00 00 00 00 00 00 00 00 00 00 00 00 00 00 00 00
       0.0 0.0 0.0 0.0
0001e0 00 00 00 00 00 00 00 00 00 00 00 00 00 00 00 00
       0.0 0.0 0.0 0.0
0001f0 00 00 00 00 00 00 00 00 00 00 00 00 00 00 00 00
       0.0 0.0 0.0 0.0

network_body._body_endoder.seq_layers.2.weight f4 [128, 128]
000000 7b ff 39 3d 9f 83 99 bb 83 bc ae bd 1a a0 0a 3e
       0.04540966 -0.00468488 -0.085320495 0.13537636
000010 e9 a0 ed bd 60 d0 ab bd f6 0c fc 3d 38 bc b0 3d
       -0.11602957 -0.08389354 0.123071596 0.0862965
000020 df 42 9e bb d9 1c 6e bd 09 d5 8a 3b 59 78 2e bc
       -0.004829749 -0.05813298 0.0042368216 -0.01064881
000030 09 3e fc bc d2 de b9 3d df bf 67 bd d4 e4 2c 3e
       -0.0307913 0.09075703 -0.056579467 0.16884166
000040 f8 61 90 bd b1 16 c5 bc 00 65 16 3d 9d e0 87 bd
       -0.07049936 -0.024058672 0.036717415 -0.066346385
000050 a3 e4 8c 3b 36 c7 8f 3d 65 42 c7 bc 2e 59 8c 3d
       0.0042997166 0.07020418 -0.024323652 0.06852947
000060 d9 49 25 be 11 15 6f 3d c3 b1 7a bd c2 df 15 bc
       -0.16141452 0.0583697 -0.061204683 -0.009147586
000070 29 45 b7 3d bf 0d 6c 3b f6 8e 09 3e b4 54 5b 3d
       0.08948738 0.0036018935 0.13433442 0.053547576
000080 88 8e 0e bd e0 7e dd bc 7b c7 b7 bd ca d8 85 bd
       -0.034803897 -0.027038038 -0.08973595 -0.0653549
000090 47 a9 54 3d a8 84 0e be e3 ff 7e bd 3d e2 af bc
       0.051919248 -0.13917792 -0.06225575 -0.021470184
0000a0 5b 81 41 bc b0 d1 16 be 63 66 3d bc fe b8 e8 bd
       -0.011810626 -0.14728427 -0.011560055 -0.113634095
0000b0 0e 0a e3 3c a0 e6 69 bd 7f 15 17 3e 45 61 a0 3c
       0.027714755 -0.057104707 0.14754294 0.019577632
0000c0 92 83 98 bc 16 19 2c 3e cd e0 d7 bd f0 c8 68 be
       -0.018617425 0.16806445 -0.10540924 -0.22732902
0000d0 f0 40 aa 3c 31 ea 0b 3d 6e 28 f1 3d a2 dc dc bd
       0.020782918 0.03415889 0.117752895 -0.1078427
0000e0 b2 29 6b bb 16 00 85 3d ac 40 19 3e d4 7f 9f 3c
       -0.0035883007 0.06494157 0.14966077 0.019470133
0000f0 e6 da 87 bd e2 fa a8 3d d5 fd 14 be f7 eb dd 3d
       -0.066335484 0.08250977 -0.14549954 0.10836022
000100 94 ca 9b bd 27 1c bd 3d 1d 15 a7 3c c4 d5 db bc
       -0.07606998 0.09233885 0.02039581 -0.02683533
000110 2b 3d 24 bc e9 48 b3 3c 70 71 89 bc 00 e5 3e bd
       -0.010024349 0.021885352 -0.016777724 -0.04660511
000120 49 92 3c 3d 3d 05 14 bd 8e 95 02 3e 97 81 d3 3d
       0.046037946 -0.036137808 0.12752363 0.10327452
000130 56 ba bd 3c c7 5e 0a 3d ee a8 20 3e 28 be df 3d
       0.023160141 0.033781793 0.15689442 0.10924941
000140 24 4e 37 be ec 6f 2d bd 47 76 19 be 7e 44 7d 3c
       -0.17900902 -0.042343065 -0.14986525 0.015458224
000150 56 cd 5e 3b 1e cf 84 bd 97 ee 0f be 8b 97 fb ba
       0.0033996901 -0.06484817 -0.14055859 -0.0019194944
000160 ff 3e 48 bd 22 41 4f 3d 40 f9 0f 3c 92 9d ca 3d
       -0.048888203 0.050599225 0.008787453 0.098933354
000170 b0 a9 ec bc d8 91 9e bd d9 05 0e bd 07 1c c8 bd
       -0.028889507 -0.07742661 -0.034673546 -0.09770971
000180 3f 8a f8 bc 28 20 c3 3c 25 92 24 bd e0 d9 53 3d
       -0.030339358 0.023819044 -0.040178437 0.051721454
000190 76 9d 65 bd aa 2d 46 3d 92 8b 9e bd 1a 95 60 bc
       -0.05605837 0.048383392 -0.07741465 -0.013707424
0001a0 d0 db fe 3d 23 47 cb bd 62 05 0d 3c 19 7e aa 3d
       0.1244427 -0.099256776 0.00860724 0.083248325
0001b0 a1 31 af 3d 53 b9 60 bc 33 98 cb 3c 3b 34 4c 3e
       0.08554388 -0.01371606 0.024852848 0.199418
0001c0 0b d5 bb 3c 84 21 74 bd ea 28 1b 3e 36 01 3e 3e
       0.022928735 -0.059602275 0.15152326 0.1855515
0001d0 5a 15 22 bc 38 6b ee 3b d1 6c 0b 3d ac 79 3c 3d
       -0.009892786 0.007275965 0.034039322 0.046014473
0001e0 b7 28 69 bc 7b 5f 34 bc b1 fc 05 bd ec fb d6 bd
       -0.014230899 -0.011009092 -0.03271169 -0.10497269
0001f0 45 32 90 3d 23 73 2c bd 4f 56 94 bd 1d 72 ee bd
       0.07040838 -0.04210199 -0.072430246 -0.11642859
000200 94 9a c9 bc 2f af 2c 3e cd 7f cd ba 01 b2 de bd
       -0.024609841 0.16863702 -0.0015678346 -0.10873795
000210 7c ee 6b bd 50 ff 8a 3d 25 7a 94 bd cb 77 87 bd
       -0.057600483 0.06786978 -0.0724986 -0.066146456
000220 31 bc 1c 3e 93 31 ed bc a5 4a 9d bd a0 a0 bc 3d
       0.15306164 -0.028954303 -0.07680253 0.09210324
000230 5a 83 07 bc 4b 5e e3 3c 1a 7d d8 bc f9 4b c2 3d
       -0.008271063 0.027754923 -0.02642684 0.09487147
000240 22 fd a9 3d 20 dc 89 3c b6 06 44 3d 22 e0 1c 3d
       0.083002344 0.016828597 0.047857963 0.038299687
000250 66 f4 a3 3d 08 ee a3 3c 91 0f df bd b3 2b 13 3e
       0.080056 0.020010963 -0.10891641 0.14372139
000260 ca 92 66 3d 31 ef 17 be e6 bf 59 bd 53 2b aa 3d
       0.056292333 -0.14837338 -0.053161524 0.08309045
000270 14 0f 56 bd 47 d2 b3 3d e8 97 84 bd 4e bf 1b be
       -0.052260473 0.087803416 -0.06474286 -0.15209696
000280 cc ca 8b bd 2b 3f f0 bc 3b 5b 06 bd 27 3d fd ba
       -0.0682579 -0.029326996 -0.032801848 -0.0019320593
000290 eb 35 e2 3d 55 af c2 3b 7f 14 fe 3c dc e5 cb 3d
       0.1104544 0.0059413114 0.031015633 0.099559516
0002a0 6a 48 e6 3c f0 8c 13 3d ed 62 19 bd 12 9a 0e 3e
       0.028110702 0.03602308 -0.03744786 0.1392596
0002b0 02 33 d6 bd b7 e9 25 bd c0 b9 7b bd 46 6e 80 bd
       -0.10458948 -0.04050609 -0.061456442 -0.06271033
0002c0 01 f6 3a 3e 10 2a f8 3a eb a9 78 3d 58 37 9f bc
       0.18257906 0.0018933434 0.06070892 -0.01943557
0002d0 bb 52 05 3e cd 16 10 be 2e 25 0d 3e 0f cb f0 bd
       0.1301984 -0.14071198 0.13783714 -0.1175748
0002e0 d2 0e 2d bd fb 93 14 be ad ff 15 3e ab ce 89 bd
       -0.042250462 -0.14509575 0.14648314 -0.06728872
0002f0 70 1a 73 be 0e 05 4b 3d 09 0e 18 be a9 8c 64 3d
       -0.23740554 0.049565367 -0.14849104 0.055798206
000300 e4 61 5b 3d 5d 65 02 3d a0 ff bd 3d 59 5f 46 bd
       0.053560153 0.03183495 0.09277272 -0.048430774
000310 ac 6b 16 bd 80 c7 7f 3d 5c c7 63 3d 49 71 22 3d
       -0.036723778 0.062446117 0.055610046 0.03965882
000320 85 69 1b 3d 26 2b a1 be ab 9c 64 bd af ba 00 3d
       0.03794243 -0.31478232 -0.055813473 0.031428035
000330 5e 8b 15 bd 20 3f 6d be f3 25 a1 3c 57 ac 0d ba
       -0.036509864 -0.23168612 0.019671416 -0.0005404404
000340 95 8a d3 bb c2 cb e0 3c 69 52 23 3e fa af 20 bd
       -0.0064557292 0.02744091 0.15949406 -0.039230324
000350 e6 aa 79 b8 9a a1 cb 3d ce 2f 6f bc ac ca 84 3d
       -5.9525388e-05 0.099429324 -0.0145988 0.06483969
000360 01 9c d4 3d 0c d6 22 3b 8a d5 e9 3c 40 52 07 be
       0.10381318 0.002484682 0.028544206 -0.1321497
000370 83 e9 e2 3b 59 ed a1 3c ab b6 1f be 33 e8 a9 3d
       0.0069248094 0.019766496 -0.15597026 0.082962416
000380 65 f2 d4 3b 3d 5c d9 3d 01 38 19 3e 57 f8 74 bd
       0.0064986222 0.10613296 0.1496277 -0.059807148
000390 0b 57 3e 3d 90 27 14 be dd b6 2f 3e 9c 16 1e 3e
       0.04646973 -0.14468217 0.171596 0.15438312
0003a0 4c 11 77 bd 19 d8 8c 3d 20 af c5 3d 98 c9 78 3d
       -0.06031923 0.06877155 0.09652543 0.06073913
0003b0 a9 05 58 3d 13 e8 48 3c a5 83 56 bd ef 33 90 3d
       0.052739773 0.012262362 -0.05237164 0.070411555
0003c0 97 4f 85 bd d6 9e fe 3c 01 6f a3 bd 30 e9 a8 bc
       -0.06509321 0.031081598 -0.07980157 -0.020619005
0003d0 c5 7e 55 be d9 46 1a be 92 b8 9a 3c ee a4 d5 3d
       -0.2084914 -0.15066089 0.018886838 0.104318485
0003e0 5d 52 fc bc f2 17 96 bc 5a f0 2e bd 40 dc 3d 3e
       -0.030800993 -0.018321965 -0.042709686 0.1854105
0003f0 bd c7 e6 3d 69 b9 a1 3d a6 38 06 3d 17 5c b6 3a
       0.11268566 0.07896692 0.032768868 0.0013912943

network_body._body_endoder.seq_layers.2.bias f4 [128]
000000 00 00 00 00 00 00 00 00 00 00 00 00 00 00 00 00
       0.0 0.0 0.0 0.0
000010 00 00 00 00 00 00 00 00 00 00 00 00 00 00 00 00
       0.0 0.0 0.0 0.0
000020 00 00 00 00 00 00 00 00 00 00 00 00 00 00 00 00
       0.0 0.0 0.0 0.0
000030 00 00 00 00 00 00 00 00 00 00 00 00 00 00 00 00
       0.0 0.0 0.0 0.0
000040 00 00 00 00 00 00 00 00 00 00 00 00 00 00 00 00
       0.0 0.0 0.0 0.0
000050 00 00 00 00 00 00 00 00 00 00 00 00 00 00 00 00
       0.0 0.0 0.0 0.0
000060 00 00 00 00 00 00 00 00 00 00 00 00 00 00 00 00
       0.0 0.0 0.0 0.0
000070 00 00 00 00 00 00 00 00 00 00 00 00 00 00 00 00
       0.0 0.0 0.0 0.0
000080 00 00 00 00 00 00 00 00 00 00 00 00 00 00 00 00
       0.0 0.0 0.0 0.0
000090 00 00 00 00 00 00 00 00 00 00 00 00 00 00 00 00
       0.0 0.0 0.0 0.0
0000a0 00 00 00 00 00 00 00 00 00 00 00 00 00 00 00 00
       0.0 0.0 0.0 0.0
0000b0 00 00 00 00 00 00 00 00 00 00 00 00 00 00 00 00
       0.0 0.0 0.0 0.0
0000c0 00 00 00 00 00 00 00 00 00 00 00 00 00 00 00 00
       0.0 0.0 0.0 0.0
0000d0 00 00 00 00 00 00 00 00 00 00 00 00 00 00 00 00
       0.0 0.0 0.0 0.0
0000e0 00 00 00 00 00 00 00 00 00 00 00 00 00 00 00 00
       0.0 0.0 0.0 0.0
0000f0 00 00 00 00 00 00 00 00 00 00 00 00 00 00 00 00
       0.0 0.0 0.0 0.0
000100 00 00 00 00 00 00 00 00 00 00 00 00 00 00 00 00
       0.0 0.0 0.0 0.0
000110 00 00 00 00 00 00 00 00 00 00 00 00 00 00 00 00
       0.0 0.0 0.0 0.0
000120 00 00 00 00 00 00 00 00 00 00 00 00 00 00 00 00
       0.0 0.0 0.0 0.0
000130 00 00 00 00 00 00 00 00 00 00 00 00 00 00 00 00
       0.0 0.0 0.0 0.0
000140 00 00 00 00 00 00 00 00 00 00 00 00 00 00 00 00
       0.0 0.0 0.0 0.0
000150 00 00 00 00 00 00 00 00 00 00 00 00 00 00 00 00
       0.0 0.0 0.0 0.0
000160 00 00 00 00 00 00 00 00 00 00 00 00 00 00 00 00
       0.0 0.0 0.0 0.0
000170 00 00 00 00 00 00 00 00 00 00 00 00 00 00 00 00
       0.0 0.0 0.0 0.0
000180 00 00 00 00 00 00 00 00 00 00 00 00 00 00 00 00
       0.0 0.0 0.0 0.0
000190 00 00 00 00 00 00 00 00 00 00 00 00 00 00 00 00
       0.0 0.0 0.0 0.0
0001a0 00 00 00 00 00 00 00 00 00 00 00 00 00 00 00 00
       0.0 0.0 0.0 0.0
0001b0 00 00 00 00 00 00 00 00 00 00 00 00 00 00 00 00
       0.0 0.0 0.0 0.0
0001c0 00 00 00 00 00 00 00 00 00 00 00 00 00 00 00 00
       0.0 0.0 0.0 0.0
0001d0 00 00 00 00 00 00 00 00 00 00 00 00 00 00 00 00
       0.0 0.0 0.0 0.0
0001e0 00 00 00 00 00 00 00 00 00 00 00 00 00 00 00 00
       0.0 0.0 0.0 0.0
0001f0 00 00 00 00 00 00 00 00 00 00 00 00 00 00 00 00
       0.0 0.0 0.0 0.0

action_model._continuous_distribution.mu.weight f4 [1, 128]
000000 c7 4f d1 bc c2 5c 97 3c 5f ce 72 3c f0 d2 58 3c
       -0.025550736 0.018476848 0.0148197105 0.013233885
000010 1d 65 fa bb a4 90 38 3c ab 69 55 3b 93 04 ea bb
       -0.007641448 0.011264954 0.0032564204 -0.0071416586
000020 f0 c0 b6 3c 74 01 9f 3b b2 0d 4e bb 45 77 55 3b
       0.022308797 0.004852468 -0.0031441269 0.003257231
000030 10 aa 1a 3c 12 d9 6f bb d9 57 16 3d bf 4a d0 bb
       0.00943996 -0.003659789 0.03670487 -0.0063565667
000040 97 0f 75 3b c8 b0 d4 bc a7 47 8b 3b ca b0 19 3d
       0.0037393325 -0.025963202 0.004250485 0.037522115
000050 79 cc 11 3c 43 3c f4 3b 64 a4 ad 3b c8 5c 83 bc
       0.008898848 0.007453473 0.005299138 -0.016035452
000060 65 ff 2f 3c 51 e1 34 3c 7b 8d de 3c 78 c0 fe bc
       0.010742043 0.011040048 0.027167073 -0.031097636
000070 2c 20 a7 3b 84 f5 0a bc b0 5a 1f 3a 68 94 1e 3c
       0.0051002707 -0.008481387 0.0006078882 0.0096789375
000080 71 6f 35 3c 23 0a 82 3c c3 b3 80 3c 3e c0 45 3b
       0.011073933 0.015873974 0.015710717 0.00301744
000090 45 a2 ea 3c 37 60 88 bc 37 60 5f 3c f6 c1 26 bc
       0.02864183 -0.016647441 0.013633779 -0.01017808
0000a0 63 cf 2c bc 3b 56 99 bc df 25 dd bc 30 03 03 bd
       -0.010547492 -0.018717876 -0.026995597 -0.03198546
0000b0 90 df 07 3c ef f0 9b 3b 15 e1 16 bc 4a 64 e4 3b
       0.008293048 0.004758946 -0.009208937 0.006969963
0000c0 bf f4 16 bc 8f f1 4c 3d 40 5a 1c 3b bb 5e 79 bc
       -0.009213625 0.050035056 0.0023857504 -0.015220339
0000d0 9b 2b bd bc 77 22 bf bc 73 7d f6 ba 6f c3 51 bc
       -0.023092082 -0.023331864 -0.0018805697 -0.012802943
0000e0 65 82 c2 3c c3 80 17 bc b5 a6 0f 3c 15 c9 a1 bb
       0.023743818 -0.009247008 0.008767773 -0.004937301
0000f0 03 45 71 bb da 73 64 bc 77 59 71 3c a7 4b 8a bc
       -0.0036814816 -0.013943637 0.014730803 -0.016881777
000100 e4 32 48 bc 76 b3 93 bc 43 76 87 3b fe 05 bb 3b
       -0.0122191645 -0.01802991 0.004133971 0.0057075014
000110 96 45 ad 3c 63 86 ff 3c 57 71 1f ba 74 81 b5 3c
       0.021151345 0.03119201 -0.00060822576 0.022156455
000120 e1 0f 8d 3c 63 0f de 3c 23 03 1e 3c 2c 09 c7 3b
       0.017219486 0.027106946 0.009644303 0.0060740914
000130 2b 15 eb ba 1f d8 f5 bb 4b 61 ac bb 7b e4 cf 3a
       -0.0017935386 -0.0075025703 -0.0052606217 0.0015860939
000140 62 69 62 bc 9a e6 2b 3b 13 1e ce 3b 0f c8 bd 3c
       -0.0138190705 0.0026229979 0.006290206 0.023166684
000150 e9 6d 3a bc 25 8b ff 3b d0 d0 60 bc f8 58 13 bd
       -0.011378744 0.0077985697 -0.01372166 -0.03597352
000160 b1 c0 1b bc 1b e7 88 ba 73 02 8b 3c 0d 16 69 ba
       -0.00950639 -0.0010444851 0.016968941 -0.00088915305
000170 ca d2 d8 3c bb 16 a1 bc 04 6d cb bb 0b 8e 9d bc
       0.0264677 -0.019664159 -0.006208064 -0.01923277
000180 ba fb a5 3b 37 79 06 bd 9f ae 88 3c 8b 93 c4 3b
       0.0050654085 -0.032830443 0.016684828 0.005999034
000190 71 b3 3a bc a2 5d a3 bb b5 01 48 3c 65 f8 99 bc
       -0.011395321 -0.004985527 0.012207438 -0.018795202
0001a0 4b c1 c7 3c 68 03 d8 bc bb 8e a8 bb 6b ab 41 bc
       0.024384161 -0.026368812 -0.005143968 -0.011820654
0001b0 9d 98 53 bc 9f 78 cd bc 10 d3 b6 b9 4f 89 04 bd
       -0.012914804 -0.02508193 -0.00034871 -0.03235751
0001c0 ad 76 f1 bc f2 4d 8e bc da 60 e9 bb 1a 06 7f bc
       -0.029475534 -0.017371152 -0.0071221413 -0.01556542
0001d0 8c 04 01 3c a7 dd a1 bb 68 0d 05 bd 6f 7a f9 ba
       0.007874619 -0.004939753 -0.03248349 -0.001903368
0001e0 4b a0 11 bd f2 8c 19 3c e7 4d e2 3c d3 f7 9d 3c
       -0.035553258 0.009371983 0.027625037 0.01928321
0001f0 7f 08 71 bc 4a 90 92 bc 72 cd f2 3b bd 6d 2a 3d
       -0.014711498 -0.017891068 0.007409745 0.04160856

action_model._discrete_distribution.branches.0.weight f4 [3, 128]
000000 5a b7 99 ba d2 31 52 3c 37 4a b9 bb 0a d1 e8 3b
       -0.0011727617 0.012829261 -0.005654599 0.0071049975
000010 6f 45 23 3c fb f7 53 3c d2 f3 81 3c 36 2d 97 3b
       0.009965285 0.012937541 0.015863333 0.004613544
000020 53 d9 43 bc 68 c7 36 3b f7 28 41 3c 8a a2 5f 3b
       -0.01195367 0.0027889851 0.011789552 0.003412398
000030 8b 48 62 3b c7 8e 59 3a 35 cf 3b 3b d2 ba 52 3c
       0.0034528102 0.00082991685 0.002865744 0.012861924
000040 67 19 ef 3b 52 5c 84 3a 0d cc a4 bb 1b ed 10 3b
       0.0072967294 0.0010098314 -0.0050292076 0.0022113982
000050 4a 32 56 3c f8 ed 98 3b d0 15 63 bc 25 5d 4b 3c
       0.013073513 0.00466704 -0.013860181 0.012412344
000060 00 a6 20 bb cb 7e 5c bb 87 71 08 bc 67 8b 04 3c
       -0.0024513006 -0.003364491 -0.008327848 0.008089877
000070 f3 00 d1 ba ab e6 43 bb 78 5a cb 3b 77 59 8a 3c
       -0.0015945717 -0.0029892127 0.006205853 0.016888363
000080 5a 56 3a 3c 2d 7b 6f 3c 2b 77 cd 3a ae c1 b4 bc
       0.011373127 0.01461677 0.0015675774 -0.02206501
000090 88 e0 00 3c af ba 00 bc 28 bc 29 3c af b0 9d 3b
       0.007866032 -0.007857009 0.010359801 0.004812322
0000a0 62 31 5a bb da d3 ec 3b 0f fa e8 bb 74 81 20 3c
       -0.0033293595 0.007227403 -0.0071098874 0.009796489
0000b0 6d e4 41 bb 84 74 36 bc 5f 0e 44 bb 04 3e 93 bb
       -0.0029585615 -0.011136178 -0.0029915792 -0.004493477
0000c0 5f ff 41 bb b7 e4 78 3b b8 7d 46 bb a9 c6 b0 3a
       -0.0029601676 0.0037978122 -0.0030287337 0.001348694
0000d0 bf c5 4e bb 49 32 30 3b 37 1a 2e 3b 0d 8b 5c 3c
       -0.0031550971 0.002688544 0.0026565918 0.013460887
0000e0 77 bb 61 ba 7a fa 57 3c dd b5 a0 bb 25 7a dc bb
       -0.0008611003 0.013182277 -0.0049044923 -0.006728428
0000f0 b8 be 15 3c b5 e2 eb bb bb c4 e2 39 27 13 49 bb
       0.009139709 -0.0071986564 0.00043252655 -0.0030681582
000100 a3 cf 9d 3c b5 dd 47 bc 30 f2 82 3b f0 41 cb ba
       0.019264048 -0.012198855 0.003996156 -0.0015507322
000110 57 49 94 bb 18 db 9d 3b 87 28 0f bc 5b 69 e6 3b
       -0.0045253444 0.004817378 -0.00873769 0.0070316023
000120 34 25 9b 3c cd 8f 57 bc 00 21 2d bc e4 0f bb 39
       0.018938638 -0.013156843 -0.01056695 0.0003567926
000130 25 ba d6 3b ff e7 6d bc 7c 06 c4 3b 7c 29 1c bc
       0.006552952 -0.014520644 0.0059822183 -0.009531375
000140 2b b8 50 3c 62 58 ef 3a 26 cf 23 3b 1d 15 38 3c
       0.012739222 0.0018260593 0.0024995296 0.011235503
000150 e2 5d cb 3b 78 4e 6e 3c e1 a4 9d 3b 0b c8 f9 3a
       0.00620626 0.014545076 0.004810915 0.001905681
000160 be 95 81 bc 2d 3d 9c ba e8 52 ea 3b 93 23 21 bc
       -0.015818473 -0.0011920087 0.0071509965 -0.009835142
000170 72 b1 4d b9 67 4c 3d bc 4d 07 7c bc 82 30 d4 bb
       -0.00019616427 -0.01155386 -0.0153826 -0.006475509
000180 87 a1 40 bc 18 1e ee 3b ff 39 d2 3b 70 79 18 ba
       -0.011757261 0.007266771 0.006415605 -0.00058164354
000190 1b e1 ed bb 9e bd bf 3a 01 13 1e 3c 87 1b 61 bc
       -0.0072595007 0.0014628654 0.009648086 -0.013739473
0001a0 df 26 cf 3b 3b 43 0e 3c ae 86 c4 bb ae e4 3b 3a
       0.0063217725 0.008683021 -0.0059975004 0.000716756
0001b0 d3 79 86 3b 33 39 6d 3c ac 33 2f bc 1b ec d2 b9
       0.004103878 0.014478969 -0.010693472 -0.00040230234
0001c0 a2 8b 29 3b 58 3d 74 3c 3a 28 9a bb 50 e4 a7 ba
       0.002587058 0.014907204 -0.0047045024 -0.0012809131
0001d0 92 41 97 bb 1c 82 05 3c 4c e6 1f 3c 12 5c d9 3b
       -0.004615971 0.008148696 0.009759497 0.00663329
0001e0 52 04 0f 3b bf b8 17 3c 33 07 45 3a a8 28 7b bc
       0.0021822643 0.0092603555 0.00075160264 -0.015329517
0001f0 4c f2 92 bb dd 48 cf 3b a3 2a 53 3c cd ca 70 3c
       -0.0044844504 0.0063258247 0.012888583 0.014696789
000200 05 f5 38 3c 2a de 4f 3c fb d3 e3 39 a8 92 b7 bc
       0.011288886 0.012687245 0.00043454752 -0.022408798
000210 c7 e9 b9 bb 1b 3a 66 3c f0 31 fe 3b c0 54 ed bb
       -0.0056736204 0.014051939 0.007757418 -0.007242769
000220 43 2d 96 3a 40 16 9b bb 42 da 4c 3b 33 11 05 3c
       0.0011457581 -0.004732877 0.0031258021 0.008121776
000230 1b eb 81 3c a2 d6 d7 3b 89 d4 88 3b d2 d6 cd ba
       0.015859177 0.0065868655 0.004175727 -0.001570428
000240 b0 f1 25 bc 0a 88 35 bc 40 eb 01 3b d4 4d ab bc
       -0.010128424 -0.0110797975 0.0019824058 -0.020911135
000250 2d cd 49 3c a0 43 31 3c 34 c5 a3 bb 81 be 14 bc
       0.012316984 0.010819346 -0.0049978737 -0.009078623
000260 4b e6 17 bc 09 d5 1e 3b 5f 1f bf bc ab 05 a2 bb
       -0.009271215 0.0024235866 -0.023330389 -0.0049445233
000270 a6 89 49 3b 43 53 37 bc b5 84 db 3a d8 50 f0 3b
       0.003075221 -0.011189285 0.0016747924 0.007333856
000280 85 78 d8 3a c0 27 a2 3a 8b 52 8a 3c 86 b9 b7 3a
       0.001651541 0.0012371466 0.016885063 0.0014017082
000290 4b d5 d2 bc bf f7 cc bb 5b 77 db 3b dc ac b1 bb
       -0.025736472 -0.0062551196 0.006697578 -0.005422218
0002a0 3b 2f 98 ba 33 e2 aa 39 48 ce 08 bc 6a 3a 1f bc
       -0.0011610755 0.00032593458 -0.0083499625 -0.009718517
0002b0 e5 3b d4 bb 2e fa ae 3b 43 33 91 39 fd 16 a9 ba
       -0.0064768665 0.0053398823 0.00027694748 -0.0012900528
0002c0 03 e9 30 3c d3 d9 50 3c 1b 57 4b bb 77 7c 14 bc
       0.010797742 0.012747246 -0.003102726 -0.009062878
0002d0 a2 9a e6 3b 04 43 cb 3a 72 2c 43 3c 53 04 fc 3b
       0.0070374766 0.0015507643 0.011912452 0.007690945
0002e0 0d 35 a1 3b fd e1 04 bc 45 d5 54 3c ce 23 34 3c
       0.004919654 -0.00811052 0.012990301 0.010994865
0002f0 d3 9b 42 3c 68 e5 37 3c 66 1f 09 3c c8 ac fe bb
       0.011877972 0.011224128 0.008369302 -0.007772062
000300 c0 97 59 b9 d2 dd e8 3b ad 33 f2 bb 83 08 99 3c
       -0.00020751264 0.007106521 -0.007391414 0.018680817
000310 30 eb 5a ba a7 54 ab 3a 05 86 e1 bb 6b 71 dd 3b
       -0.00083510857 0.0013071493 -0.0068824315 0.0067579052
000320 33 04 28 bb f5 77 85 3c ef 7a d1 bb c4 0c b2 ba
       -0.0025637269 0.016292552 -0.0063928287 -0.0013584127
000330 ad d5 ff bb c2 fd 74 3b bf 13 ae bb 8e 0c 1c 3c
       -0.0078074546 0.0037382697 -0.0053124125 0.009524478
000340 e4 13 1c bc f9 ee c7 bb 21 b4 42 bb 59 91 80 3c
       -0.009526227 -0.006101486 -0.0029709416 0.015694307
000350 6f 10 ab bc 40 91 11 bc 07 0d 1f 3c fa ba e8 bb
       -0.02088186 -0.008884728 0.009707696 -0.0071023675
000360 d7 8b 72 3b f5 d5 10 bc a1 03 a0 3a f3 fd 04 bd
       0.003700962 -0.008840074 0.0012208113 -0.032468747
000370 3d 43 5e 3c 6f c2 27 3b 62 62 70 bb 3b 8e 57 3c
       0.013565836 0.002559807 -0.0036679734 0.013156469
000380 ff 48 d3 3b af 4b 25 3b 8b 0d 91 3b 83 93 80 3b
       0.006447911 0.0025222113 0.0044266633 0.003923835
000390 dc 11 4a 3b cf 3f 02 bc 4e 31 0a 3b 41 10 b7 bb
       0.00308334 -0.0079497835 0.0021086517 -0.0055866544
0003a0 df bb 0a 3a 23 53 02 3c 6f d8 f3 3b 7b b8 f5 3b
       0.0005292277 0.007954392 0.0074415724 0.0074987984
0003b0 7d 64 e9 bb 0f 94 48 bc 29 32 1a 3c df 4b c4 3b
       -0.007122575 -0.012242331 0.009411373 0.00599049
0003c0 65 60 27 bc 1c aa 2d 3c c0 b6 91 bb cf 2c 84 3b
       -0.010215853 0.010599639 -0.0044468343 0.004033662
0003d0 f3 0d a6 3a 4f 12 e0 bb 24 dd 82 bb 2d b4 33 bc
       0.0012668952 -0.00683812 -0.003993647 -0.01096825
0003e0 02 56 3a 3c 90 43 f2 3b 1b e8 f4 3b 4f a4 82 3b
       0.011373045 0.007393308 0.007473958 0.0039868723
0003f0 44 ed 1e 3b 63 5f 6a 3b 67 47 80 bc 79 83 a1 3b
       0.0024250308 0.0035762421 -0.015659047 0.004929003

action_model._discrete_distribution.branches.0.bias f4 [3]
000000 00 00 00 00 00 00 00 00 00 00 00 00
       0.0 0.0 0.0

action_model._discrete_distribution.branches.1.weight f4 [2, 128]
000000 51 be 0a bc f2 38 44 bc 1a 0e a2 ba 03 6d 7b 3b
       -0.0084682265 -0.011976467 -0.0012363822 0.0038364537
000010 c5 83 ce bb b8 2a 45 bc a6 3f 8a 3c 43 e1 ad bb
       -0.0063023292 -0.012034111 0.016876053 -0.0053063943
000020 fa 6c 1e 3b 78 3e b3 bb 59 4d 0f 3b ba 6d c0 ba
       0.0024173842 -0.0054700933 0.002186617 -0.0014681139
000030 e7 96 2c bb a8 ab fa 3b cd c7 bb 3b f3 c7 36 bc
       -0.0026335062 0.0076498576 0.005730605 -0.01115607
000040 52 15 3a bc 3d 9a e8 3b df c7 5a 3c 49 9c 38 3c
       -0.011357622 0.0070984648 0.013353317 0.01126773
000050 17 27 83 3b fe 65 19 3b a6 bc c9 ba 23 1e c1 3b
       0.0040024626 0.002340674 -0.0015391305 0.005893485
000060 4a 46 50 3b 34 96 03 bb 0a 81 dc 3b 7e e5 15 bb
       0.0031780177 -0.0020078542 0.00672925 -0.0022872384
000070 1b e9 df 3a 73 26 9a 3b 2d e6 8d bb 4d 1f 64 3c
       0.0017083021 0.0047042905 -0.0043304176 0.013923478
000080 5c a9 3f 3b 93 94 ee 3b 2e 7f 8b bb 92 34 e1 ba
       0.0029245233 0.007280895 -0.0042571044 -0.0017181805
000090 5f b6 7a 3c 9a 24 a1 3b 17 05 6c bc 75 02 3c 3c
       0.01530227 0.0049176933 -0.01440551 0.011475195
0000a0 ce e0 95 bc 10 d3 03 3c 1a ab de ba ee bd 3f ba
       -0.018295672 0.008045927 -0.0016988248 -0.00073143735
0000b0 39 dd 10 3b 0b 5f c2 bb 5b fb 0d bc aa fd 85 3b
       0.0022104515 -0.00593174 -0.008665885 0.004089077
0000c0 ac 43 04 bc 53 82 2c bc 7f 64 7b bb b2 b5 69 3c
       -0.008072775 -0.010529119 -0.003835946 0.014264511
0000d0 c5 3f 4d bc b8 b9 97 bc bf 14 26 3b 81 47 33 3c
       -0.012527411 -0.018521175 0.0025341955 0.010942341
0000e0 16 7e 3d 3c 6b 98 5a 3a ea 29 56 3b 5e c3 42 3c
       0.011565706 0.0008338752 0.0032678791 0.0118873995
0000f0 24 a4 26 3c 3a 30 62 3c a5 12 7d 3c 27 b1 6b bc
       0.01017097 0.013805443 0.01544634 -0.014385498
000100 b1 b3 04 3c 0b 62 a9 bb 88 c5 92 ba 83 67 03 bb
       0.008099482 -0.0051691583 -0.0011197785 -0.0020050711
000110 2d 3a c0 3a d4 d9 c5 3b f8 8d 2f 3c db 80 ad 3b
       0.0014665775 0.00603793 0.010715 0.005294902
000120 d5 f1 fc 39 ae 94 08 39 d4 75 b8 bb 94 1e b6 bb
       0.00048245364 0.00013025358 -0.0056292806 -0.0055578444
000130 1a b3 0d bb ef ae 85 bb 82 62 66 bc 8d 54 ff bb
       -0.0021621645 -0.0040796916 -0.014061572 -0.0077920617
000140 87 a6 ea bb 44 13 00 3c c2 ef 81 bb 07 a4 2c 3c
       -0.007160965 0.007817093 -0.003965349 0.010537154
000150 d3 a1 30 ba f2 ec 65 bb ca e4 ed bb 3a b4 19 bb
       -0.0006737981 -0.0035083857 -0.00725994 -0.002345337
000160 d3 71 9d bb 2d e6 66 bc c4 6a 4c bb bf f2 1a bc
       -0.0048048287 -0.014092964 -0.0031191567 -0.009457289
000170 b3 21 70 bc f2 ee bb 3b ea 96 80 bb be e5 a9 3b
       -0.014656472 0.0057352716 -0.0039242404 0.005184858
000180 30 71 39 bb 62 6d d5 3a 2f 6f 74 3c 5e 76 25 bc
       -0.0028296225 0.0016283209 0.014919086 -0.010099022
000190 88 60 05 ba 14 e1 b1 3a 00 d4 fc 3a 6b 49 b4 ba
       -0.00050879316 0.0013571107 0.0019289255 -0.001375479
0001a0 f0 a3 e3 3b 3b a3 7e 3c a5 4c 6e bb be c2 0c 3c
       0.006947033 0.015541847 -0.0036361602 0.008591352
0001b0 ba f3 f4 3b e5 ee 86 bb 1d f0 51 bc 4b 18 55 bc
       0.0074753435 -0.004117834 -0.012813595 -0.01300628
0001c0 33 e5 ec 3b 40 45 fa ba bf 8d e2 ba 20 e7 5f bb
       0.007229471 -0.0019094124 -0.0017284675 -0.003416486
0001d0 a0 b3 17 3c 98 ea 60 b9 35 2f 73 bc 6b 86 9c 3c
       0.0092591345 -0.00021449698 -0.014842798 0.019107064
0001e0 a0 ea 4d 3b a1 5f 81 3c 9b e6 e9 38 8b d4 8e bb
       0.0031420365 0.01579267 0.000111532594 -0.004358833
0001f0 0f 0e 3b 3a d3 02 a3 3b f3 f2 21 bc af b1 dd bb
       0.0007135579 0.004974702 -0.009884584 -0.0067655663
000200 4f e0 17 3c ad 06 f1 bb 48 8b 26 bc a8 bd 9a bc
       0.009269788 -0.007355532 -0.010165043 -0.018889263
000210 25 fa 0f 3a 70 97 a3 3a b7 f5 c9 bb ee 6f c6 ba
       0.00054922915 0.0012481045 -0.0061633247 -0.0015139559
000220 2d d7 7a bc 23 fa 1b 3c 97 ca 9d bb 68 69 1f bc
       -0.015310091 0.009520086 -0.0048154104 -0.009729721
000230 88 5d 56 bc e9 25 b1 bb 9d b6 47 3c 34 ee 3d 3a
       -0.013083823 -0.0054061306 0.0121895345 0.0007245273
000240 e6 e7 8e 3b 40 aa c9 3b e8 ec fb bb 9f 6b 5d ba
       0.0043611405 0.0061543286 -0.0076881535 -0.0008446518
000250 73 53 ef ba 4a 4f b7 b9 45 a1 78 bc f8 ba 6f 3c
       -0.0018259123 -0.00034963555 -0.015175168 0.014631979
000260 2f 29 7b 3b 02 c2 85 3a c3 cb 83 bb 14 36 8e bc
       0.0038324108 0.0010204914 -0.004022093 -0.01735977
000270 80 fc e3 bb 6d ab af 3c 9d 69 ea bb 10 ea 9d 3c
       -0.0069575906 0.021444047 -0.0071537034 0.019276649
000280 54 5a 09 bb b4 b5 a5 3b eb bf 06 bc e7 20 5a 3c
       -0.002095838 0.005057061 -0.008224468 0.013313509
000290 53 e3 6b 3b f1 7a a2 bb a3 f6 73 bb 32 0b a9 bb
       0.003599365 -0.0049585034 -0.0037225864 -0.0051588053
0002a0 ae 53 95 b9 74 53 98 bb 2b f5 db bb 13 66 44 bc
       -0.0002848184 -0.0046486203 -0.006712576 -0.011987227
0002b0 ee db b9 bb 4b 08 7d 3c 9f f1 f6 3b 2e f4 15 3c
       -0.0056719696 0.015443872 0.0075361277 0.009152455
0002c0 35 07 f8 3b f0 38 43 bc 48 17 e4 3b 13 9d 8a bc
       0.0075692185 -0.01191543 0.006960783 -0.016920602
0002d0 9b bf ec 3a af 3f fa bb b3 0c 38 3b 47 ed 0b bb
       0.0018062474 -0.007636986 0.0028083741 -0.0021351145
0002e0 4e 37 c1 b9 3a 63 85 3b ee df 92 bb d2 74 66 3b
       -0.00036853034 0.0040706666 -0.004482261 0.0035164845
0002f0 42 3b 30 3c 47 31 b7 3b f5 9e 9b 3b 43 f7 03 bb
       0.010756316 0.005590591 0.0047491738 -0.0020136393
000300 e0 cc 1c 3b 5e 75 aa 3b 7b e6 3e bb db 56 95 3b
       0.0023925826 0.0052019795 -0.0029129076 0.004557473
000310 fa e8 00 3b 27 47 5f bb 05 1d 5b bc 2a 82 42 3b
       0.0019670115 -0.003406951 -0.013373618 0.0029679635
000320 c1 a1 21 3c 79 3b 0b bc f2 86 47 bc b8 6e 6c 3b
       0.009865225 -0.008498066 -0.01217817 0.0036076736
000330 23 6d 8c 3b 73 57 5e bc 4e 2b 9c bc d6 be 9b 3b
       0.004285471 -0.013570654 -0.019063618 0.004752974
000340 0f 81 c5 bc 13 13 b6 ba 70 40 1d 3c 9f cc 67 3b
       -0.024109391 -0.0013891183 0.009597883 0.0035369766
000350 c6 38 39 3b aa 1e b9 3b f3 ce 4a 3c bf 87 94 3c
       0.00282626 0.0056494074 0.012378442 0.018131135
000360 0f d7 54 3b a9 99 19 3a e7 e5 2a bc fa 30 57 3c
       0.0032476818 0.0005859384 -0.01043079 0.0131342355
000370 9b 33 b9 39 d8 fc 01 3b 61 7a 0a bc 13 91 6a 3b
       0.000353244 0.0019834545 -0.008452029 0.0035792037
000380 a7 1f 9b 3a 87 3e 0c bc ce c1 b2 bc 6f 3e 14 bc
       0.0011834995 -0.00855983 -0.021820929 -0.009048088
000390 fb 03 45 bc 79 58 82 3c 37 0b bb bb cb 27 ad 3c
       -0.012024875 0.015911328 -0.005708124 0.021137139
0003a0 d7 10 bb 3b 99 fe 2d ba 7e 1f 03 bc eb 09 56 3c
       0.0057087946 -0.0006637364 -0.008003114 0.013063888
0003b0 5b d8 14 3c 72 71 d2 3b a7 d2 e3 39 2b a5 a2 3c
       0.009084786 0.006422215 0.00043453762 0.019854149
0003c0 c3 83 0c bc 95 31 e2 b9 89 1f 06 bb 7f 52 23 bb
       -0.008576336 -0.0004314302 -0.0020465574 -0.0024920998
0003d0 c7 35 c4 bb e0 4e fe 3b 6e e6 b9 ba 5a 16 da 3b
       -0.005987856 0.0077608675 -0.0014183053 0.0066554965
0003e0 fa e8 84 bc 43 26 25 39 82 b0 ce 3b 84 22 87 3c
       -0.016224373 0.0001574988 0.0063076625 0.01649595
0003f0 8f 38 df bb 80 16 df 3b a6 78 01 bb a2 9d 6a 3b
       -0.006812162 0.006808102 -0.001975575 0.0035799523

action_model._discrete_distribution.branches.1.bias f4 [2]
000000 00 00 00 00 00 00 00 00
       0.0 0.0
