results/ppo/Player Behaviour/Player Behaviour-256.onnx (onnx, 76819 bytes, 10 tensors)

discrete_action_output_shape f4 [1, 2]
000000 00 00 40 40 00 00 00 40
       3.0 2.0

network_body._body_endoder.seq_layers.0.weight f4 [128, 6]
000000 19 d1 f0 bd 19 58 5b be ac 94 3c be e1 e4 33 bf
       -0.11758632 -0.21420325 -0.18416089 -0.70271116
000010 33 c5 17 bf eb 85 b7 3e 8f 83 cb be 2f 41 84 3d
       -0.5928528 0.3584436 -0.3974881 0.06457745
000020 2e 0c 02 be a1 ed 8b be fc fa ef 3e 46 c4 ec 3e
       -0.12699959 -0.27329734 0.46871173 0.46243495
000030 57 20 75 3e 9c 9f a0 3e e8 bf 90 3e f6 35 39 bf
       0.23938118 0.31371772 0.28271413 -0.7234796
000040 79 73 bd be 2b df a2 be 52 86 05 be c4 00 71 bd
       -0.3700216 -0.3181089 -0.1303952 -0.05883862
000050 df 37 cb 3d 21 e5 50 3f 94 e5 20 bf 7a dd 1b 3d
       0.09922766 0.8159962 -0.6285031 0.038053013
000060 1b c4 40 3e 7f af 62 be cd 0e 23 3f ff c3 40 bf
       0.18824808 -0.22137259 0.6369446 -0.75299066
000070 b7 d3 bf 3e 08 5f 70 bd 96 04 ed 3c 3b 4d d1 3e
       0.37466213 -0.05868438 0.02893285 0.40879235
000080 94 2c e6 3e 08 45 09 be 59 99 d6 3e 72 b5 81 3e
       0.44955885 -0.1340524 0.4191387 0.25333744
000090 1e cb 72 3e da 35 08 3e ce 08 2f bf e3 9f e4 be
       0.23710296 0.13301793 -0.6837281 -0.44653234
0000a0 55 57 43 3f 1c c5 8c 3f 75 d0 85 3d 86 e7 75 3e
       0.76305133 1.0997653 0.06533901 0.240141
0000b0 47 df 5c 3f ac fb fe be 90 d8 af 3e c4 81 dd 3d
       0.86278194 -0.49801385 0.34344912 0.108157665
0000c0 e7 bc 98 3e 61 83 2b bf 9b d8 bc 3e 85 19 9e be
       0.2983162 -0.66997343 0.36884007 -0.30878845
0000d0 c5 6a 14 3f d0 89 87 3e e6 47 27 3e 97 9b ff 3e
       0.5797542 0.2647233 0.16336021 0.49923393
0000e0 7a 57 1f 3e 09 38 f1 bd cc 1f 34 3d a0 47 78 3e
       0.15560713 -0.11778266 0.043975636 0.24246073
0000f0 25 f7 10 3e 84 ee e1 3e 8c f1 57 be 39 62 bb 3e
       0.14156778 0.44127285 -0.21088237 0.36598375
000100 d0 e3 b8 be 3a 45 39 3f 85 94 97 3e c6 ea db 3e
       -0.36111307 0.72371256 0.296055 0.42952555
000110 fc 52 26 bf 24 fc b6 bd 94 3e bb 3e 95 d7 7b 3e
       -0.64970374 -0.08934811 0.3657118 0.24593957
000120 f3 a1 e5 bd e6 5e b6 3d 29 2e 8f 3e 30 e3 06 bd
       -0.1121253 0.08904819 0.27964905 -0.032931507
000130 75 57 8d be 03 66 69 3d 1d 56 92 be 24 86 2d be
       -0.27605787 0.05698205 -0.28581324 -0.16945702
000140 45 11 12 3e 69 ef 5b 3d bf 22 18 3f 0b 87 39 be
       0.142644 0.053695116 0.5942802 -0.18117921
000150 b6 80 b5 bd e3 9d 05 bf 54 1e 0e be 12 fe 93 3d
       -0.0886244 -0.5219404 -0.13878757 0.072261944
000160 6b 05 0a 3f 35 47 20 bd 3f 44 fc bd f4 5f 0d bf
       0.5391452 -0.03913041 -0.123177044 -0.5522454
000170 59 8a 58 3d 3a 9c 52 3e c2 cc c6 be 2d 94 1d 3f
       0.052866314 0.20567408 -0.38828093 0.61554223
000180 d7 f8 ef 3e 5a 2b 52 be ed d3 50 3e 28 17 28 3f
       0.46869537 -0.2052435 0.20393343 0.65660334
000190 42 69 81 be 4b c4 01 bf 8b 4e 95 3e d1 a9 14 be
       -0.25275618 -0.50690144 0.29161486 -0.14517905
0001a0 5a bc 65 be 6a 13 10 be 40 1a 25 bf da 32 92 be
       -0.22435132 -0.14069906 -0.6449318 -0.28554422
0001b0 aa 5d 05 3b a7 36 e5 3d 81 70 6d 3e 18 44 07 bf
       0.0020350018 0.11192065 0.23187448 -0.5283828
0001c0 0f 1d 32 bf 87 83 62 be 2e cc cf be aa 94 1a be
       -0.6957559 -0.22120486 -0.40585464 -0.15095773
0001d0 60 5d c8 3e 45 3a 1b bf e0 5d 55 be ab 72 b3 be
       0.3913374 -0.6063579 -0.20836592 -0.35048422
0001e0 10 84 4b be da fd 00 3f 1b 99 c9 bd 2f c9 34 bf
       -0.19874597 0.50387347 -0.09843656 -0.7061948
0001f0 92 b9 84 bf 0b 9f bb be 7c 92 99 3e b1 36 c3 3e
       -1.0369132 -0.36644778 0.2999457 0.38127664
000200 5d b5 a4 3e 2a 6a 84 be 02 b0 09 bd 25 10 11 bf
       0.3216962 -0.25862247 -0.03361512 -0.5666526
000210 4e 16 1e 3d a2 45 9f bd 4b d1 2b be 82 de 1b bf
       0.03859549 -0.07776953 -0.16779058 -0.60886395
000220 17 e6 a1 bd 27 9b 35 bd 9b da 47 be 10 41 12 bf
       -0.07905214 -0.044337418 -0.19516985 -0.5713053
000230 39 59 83 bc b0 0c 0e 3b 7e 90 ec be 69 68 d1 3e
       -0.016033756 0.0021675043 -0.4620399 0.4089997
000240 e5 7e 1a bd f4 03 4f 3d 3d 86 31 bf d9 0a 2a bf
       -0.037718672 0.05054088 -0.69345456 -0.664228
000250 a4 70 e1 be 76 15 a2 3c 8b 2a df 3e 29 80 99 bf
       -0.4403125 0.019785624 0.43587145 -1.1992236
000260 72 6d a9 3d 2d 91 94 be 74 6b 1d 3d 92 45 21 bf
       0.08272828 -0.2901701 0.038432553 -0.6299678
000270 5f 96 e3 3e a3 6e 98 3c ba 68 88 3e 55 e9 9a 3e
       0.44450662 0.018607443 0.266424 0.30256143
000280 b7 b2 53 3f 43 d4 da 3e b4 f5 ff be 2a 8d a7 be
       0.8269457 0.42740068 -0.49992144 -0.32724887
000290 b9 e4 b2 3e 5e 31 63 bb 70 1c 78 3e 10 60 4f be
       0.34940127 -0.0034666876 0.24229598 -0.20251489
0002a0 32 5a fe bc 75 61 98 be 4d c6 40 3f de c1 ae be
       -0.031048868 -0.29761854 0.7530258 -0.34132284
0002b0 35 81 dc 3e ff de 8a 3c a2 6f ad 3e de ee c9 be
       0.43067327 0.016952036 0.33874232 -0.39440054
0002c0 0e 32 08 3d 91 94 ad 3d ce ea c4 3e 25 5d 3f be
       0.03325086 0.084756024 0.38460392 -0.18687876
0002d0 b1 97 dd 3d 5f 9c c6 be 95 a8 74 be 57 23 13 3e
       0.108199485 -0.38791177 -0.23892434 0.1436895
0002e0 16 a4 4e be 3c b7 5d bf ed 72 9c be 33 9b 88 be
       -0.20179781 -0.8660772 -0.3055643 -0.26680908
0002f0 7e 45 b6 3e c3 ce 07 be fd 92 59 3e 0d 36 63 be
       0.35599893 -0.13262467 0.21247478 -0.22188587
000300 53 53 d7 3c 27 e9 3f 3f d1 08 88 be fa 6c fb be
       0.02628485 0.7496514 -0.26569226 -0.4910658
000310 eb ad ce be 49 26 4c 3f 31 0d 0b 3f 6e f9 d5 3e
       -0.40367064 0.7974592 0.54317003 0.41791862
000320 57 4d c4 3e 11 74 c6 be fd c2 6d 3f 4c 4b 71 3e
       0.38340256 -0.38760427 0.92875654 0.2356388
000330 2b f3 92 3e 6e a8 37 be d5 02 f0 be 18 f2 0f bd
       0.28701147 -0.17935345 -0.4687716 -0.035142988
000340 d3 70 c7 be bd b7 b4 bd e1 a9 1e 3e 9b 49 d9 3e
       -0.38953266 -0.08824108 0.15494491 0.4243897
000350 84 71 ea 3d f4 e2 3d bf c7 f4 ac 3e 6d 7e 14 3f
       0.11447433 -0.7417443 0.337805 0.5800541
000360 3a 75 43 bc 45 8f 8f 3e 6a 47 8e be 30 2d 3e be
       -0.011929804 0.28038993 -0.2778886 -0.18571925
000370 98 5d 11 bf 8b fb 02 3f 76 bf 4e 3e 0f 29 d7 3d
       -0.5678344 0.51165074 0.20190224 0.10505878
000380 c8 80 17 bf 39 9d ea be 5c fa 81 be bd 29 0a 3e
       -0.5918088 -0.45823076 -0.25386322 0.13492484
000390 de f2 7e 3e 8a 63 05 be 85 bc 59 3e fb 29 f8 be
       0.24897334 -0.13026252 0.2126332 -0.4846953
0003a0 d2 25 c1 3e 87 95 f6 3e 55 45 26 3e 4b 87 b8 be
       0.37724167 0.48160955 0.16237386 -0.3604072
0003b0 83 f6 60 3e a7 e8 87 be 12 07 c6 bd f0 22 66 be
       0.21969037 -0.26544687 -0.09669317 -0.22474265
0003c0 94 ff 04 3e c6 a2 7c 3f ea 84 34 bf 79 7c 04 bd
       0.1298812 0.9868587 -0.7051531 -0.03234527
0003d0 a8 73 56 bf 1b 95 00 bf 4c c6 07 3f 75 2d 6d bd
       -0.8377023 -0.50227517 0.5303695 -0.05790468
0003e0 4e 30 e7 be a6 7f e2 be 80 f3 72 3e b1 39 ed bc
       -0.4515404 -0.44238013 0.237257 -0.028958173
0003f0 b5 c4 0a 3f 98 01 45 3f 56 c9 39 bf 06 38 a3 be
       0.542064 0.76955557 -0.7257284 -0.3187868

network_body._body_endoder.seq_layers.0.bias f4 [128]
000000 00 00 00 00 00 00 00 00 00 00 00 00 00 00 00 00
       0.0 0.0 0.0 0.0
000010 00 00 00 00 00 00 00 00 00 00 00 00 00 00 00 00
       0.0 0.0 0.0 0.0
000020 00 00 00 00 00 00 00 00 00 00 00 00 00 00 00 00
       0.0 0.0 0.0 0.0
000030 00 00 00 00 00 00 00 00 00 00 00 00 00 00 00 00
       0.0 0.0 0.0 0.0
000040 00 00 00 00 00 00 00 00 00 00 00 00 00 00 00 00
       0.0 0.0 0.0 0.0
000050 00 00 00 00 00 00 00 00 00 00 00 00 00 00 00 00
       0.0 0.0 0.0 0.0
000060 00 00 00 00 00 00 00 00 00 00 00 00 00 00 00 00
       0.0 0.0 0.0 0.0
000070 00 00 00 00 00 00 00 00 00 00 00 00 00 00 00 00
       0.0 0.0 0.0 0.0
000080 00 00 00 00 00 00 00 00 00 00 00 00 00 00 00 00
       0.0 0.0 0.0 0.0
000090 00 00 00 00 00 00 00 00 00 00 00 00 00 00 00 00
       0.0 0.0 0.0 0.0
0000a0 00 00 00 00 00 00 00 00 00 00 00 00 00 00 00 00
       0.0 0.0 0.0 0.0
0000b0 00 00 00 00 00 00 00 00 00 00 00 00 00 00 00 00
       0.0 0.0 0.0 0.0
0000c0 00 00 00 00 00 00 00 00 00 00 00 00 00 00 00 00
       0.0 0.0 0.0 0.0
0000d0 00 00 00 00 00 00 00 00 00 00 00 00 00 00 00 00
       0.0 0.0 0.0 0.0
0000e0 00 00 00 00 00 00 00 00 00 00 00 00 00 00 00 00
       0.0 0.0 0.0 0.0
0000f0 00 00 00 00 00 00 00 00 00 00 00 00 00 00 00 00
       0.0 0.0 0.0 0.0
000100 00 00 00 00 00 00 00 00 00 00 00 00 00 00 00 00
       0.0 0.0 0.0 0.0
000110 00 00 00 00 00 00 00 00 00 00 00 00 00 00 00 00
       0.0 0.0 0.0 0.0
000120 00 00 00 00 00 00 00 00 00 00 00 00 00 00 00 00
       0.0 0.0 0.0 0.0
000130 00 00 00 00 00 00 00 00 00 00 00 00 00 00 00 00
       0.0 0.0 0.0 0.0
000140 00 00 00 00 00 00 00 00 00 00 00 00 00 00 00 00
       0.0 0.0 0.0 0.0
000150 00 00 00 00 00 00 00 00 00 00 00 00 00 00 00 00
       0.0 0.0 0.0 0.0
000160 00 00 00 00 00 00 00 00 00 00 00 00 00 00 00 00
       0.0 0.0 0.0 0.0
000170 00 00 00 00 00 00 00 00 00 00 00 00 00 00 00 00
       0.0 0.0 0.0 0.0
000180 00 00 00 00 00 00 00 00 00 00 00 00 00 00 00 00
       0.0 0.0 0.0 0.0
000190 00 00 00 00 00 00 00 00 00 00 00 00 00 00 00 00
       0.0 0.0 0.0 0.0
0001a0 00 00 00 00 00 00 00 00 00 00 00 00 00 00 00 00
       0.0 0.0 0.0 0.0
0001b0 00 00 00 00 00 00 00 00 00 00 00 00 00 00 00 00
       0.0 0.0 0.0 0.0
0001c0 00 00 00 00 00 00 00 00 00 00 00 00 00 00 00 00
       0.0 0.0 0.0 0.0
0001d0 00 00 00 00 00 00 00 00 00 00 00 00 00 00 00 00
       0.0 0.0 0.0 0.0
0001e0 00 00 00 00 00 00 00 00 00 00 00 00 00 00 00 00
       0.0 0.0 0.0 0.0
0001f0 00 00 00 00 00 00 00 00 00 00 00 00 00 00 00 00
       0.0 0.0 0.0 0.0

network_body._body_endoder.seq_layers.2.weight f4 [128, 128]
000000 80 2f 59 bd ea cf d0 bd d9 58 3e 3e 2c 47 43 3d
       -0.053023815 -0.101959065 0.1858858 0.047675297
000010 2f 71 07 be e7 a1 45 be 03 ce 0b bc 80 f4 96 be
       -0.1322677 -0.19300042 -0.008533004 -0.29483414
000020 82 c7 92 3d e5 85 fa bd e9 6b 94 3d 3d b2 57 bc
       0.07166959 -0.122325696 0.07247145 -0.013165054
000030 93 b7 43 3d 10 7d a6 bc 6a 9d 94 3d 30 ae 85 3b
       0.047782492 -0.020323306 0.07256587 0.0040796027
000040 ed 44 95 bd 33 34 8c 3d a5 8a 12 3e 3b 79 63 bd
       -0.07288537 0.06845894 0.14310701 -0.055535536
000050 29 f7 6c 3d b4 81 db 3d 75 c9 1b be d7 1c 68 3e
       0.057852898 0.10718098 -0.15213569 0.22667252
000060 48 97 48 3d c7 41 8b 3d f6 ec 69 3c 2e f3 7f 3d
       0.048972398 0.067996554 0.014277687 0.062487774
000070 82 10 bd bc 5c 35 9a 3b b7 ce c0 bd ae 8a 8f 3d
       -0.02307916 0.004706068 -0.09414428 0.07008873
000080 c0 36 84 bd 68 ef 07 be 24 bb 01 be bd 72 98 3c
       -0.06455755 -0.1327492 -0.12669045 0.018609399
000090 49 4d 9f bc 4e 3d 1d be 2b d5 f8 bd dd 23 cf 3b
       -0.019446032 -0.15355417 -0.121500336 0.006321414
0000a0 0f 1a 97 3b 96 dd 22 be f4 3f ad bd a8 11 89 bd
       0.0046112607 -0.15904841 -0.08459464 -0.06692821
0000b0 0e 0b c9 bd a9 88 b8 bd ee 26 4b 3b 5e 3a 5d 3d
       -0.09816562 -0.09010441 0.0030998546 0.05401074
0000c0 6f 40 24 ba fe 45 9e bd fd ff 11 bd 28 4c ab bd
       -0.0006265705 -0.07728194 -0.03564452 -0.08364135
0000d0 c0 fb 0a 3c a6 87 31 bd c3 8f 49 bd 64 dd 65 3c
       0.008482873 -0.043342255 -0.049209367 0.014029834
0000e0 91 c4 8e bd 5c 24 18 3e 74 00 29 bd 28 02 0b be
       -0.06971086 0.1485762 -0.041260198 -0.13575041
0000f0 6f 8f 0a 3e ee e3 88 3d 71 2a 02 3d ad e8 f7 3c
       0.13531278 0.06684099 0.031778757 0.030262316
000100 39 e1 43 bc cf 0e 9f 3d 3c fb 21 bd cf 8d ab 3d
       -0.011955553 0.077664964 -0.039546236 0.08376657
000110 b6 51 fb 3c 95 f4 c9 3d 7a b1 40 3d 5e 70 fc bc
       0.030678611 0.098611034 0.047044255 -0.0308153
000120 f0 9c c5 bb 3e bc 1d be f0 23 08 3e d8 fd b6 3d
       -0.0060306713 -0.1540384 0.13294959 0.089351356
000130 42 50 25 3e 0e 3e bf 3c cf 24 8a bd 8a 91 97 3d
       0.16143897 0.02334502 -0.06745302 0.07400806
000140 99 4b 9b bd 08 ef a2 3a 79 6d 15 bd 28 77 09 bc
       -0.075827785 0.0012430856 -0.036481354 -0.0083902255
000150 4b cf 78 bd 65 cc 68 3d 13 1a 4f be 82 c1 99 3b
       -0.060744565 0.05683555 -0.2022479 0.0046922574
000160 7d 98 52 3e aa 3a 3c bd 44 fd 07 be 28 a4 0b bd
       0.20565982 -0.045954384 -0.13280207 -0.0340921
000170 3e ad 05 bc 20 54 b1 bd ce 13 67 3e 4a cc ae 3d
       -0.00815898 -0.08658624 0.22566149 0.08535059
000180 55 9f a0 bc 0f 7e 74 bd 26 fd 7e be 8d 7f de bc
       -0.019607225 -0.05969053 -0.24901256 -0.02716043
000190 22 ba 55 bc fe ec d1 3c 0c f7 06 bc 29 c1 2d be
       -0.013044866 0.025625702 -0.0082376115 -0.16968216
0001a0 e1 31 61 3c b9 d7 a8 3d bc 20 da 3b 67 53 10 3d
       0.013744802 0.08244271 0.0066567343 0.03523579
0001b0 c4 84 0c 3e f7 fe fb bd 7c a0 9d 3d ef 0b 60 bd
       0.13722521 -0.1230449 0.076966256 -0.05469888
0001c0 3d bf c9 bb 1e c4 27 bc 78 33 c1 bc 6d 81 ee bb
       -0.0061568306 -0.010239629 -0.023584113 -0.0072786123
0001d0 38 48 46 3d 97 dd c6 3d 6f 85 f6 3c 12 fc 3d 3d
       0.048408717 0.09710234 0.030092923 0.04638297
0001e0 8d 93 8f bc da 2a 23 3b 8d 8a 23 bd 3e 9e 57 3d
       -0.017526412 0.0024897368 -0.039927054 0.052641146
0001f0 69 1c 43 bd 5e c0 66 3d 6b f9 d9 3d 95 03 9a 3d
       -0.047634516 0.0563358 0.10643276 0.075202145
000200 12 15 dd bb 42 12 b2 bd 43 4e 38 bd c4 7a 58 3d
       -0.0067468965 -0.08694889 -0.04499651 0.052851453
000210 e6 38 18 be f0 f6 19 3e 7c ec 3d 3d 4b 1c 34 3d
       -0.14865455 0.15035605 0.046368107 0.043972295
000220 d4 7d 17 3e e0 fc f3 bb f0 43 75 bd a7 b7 b1 bd
       0.14794093 -0.0074459165 -0.059879243 -0.08677607
000230 09 54 b0 bb fd dc d1 bb 25 fd 93 3d 8f b1 9c 3d
       -0.0053811115 -0.0064045177 0.07226018 0.07651054
000240 d1 f9 95 bb db 3c 22 3e 33 8d 00 be cc af d6 bc
       -0.0045768996 0.15843527 -0.12553863 -0.026206873
000250 e8 3a fa bd d3 41 3c bd f8 f1 90 bd 4a a9 f2 bd
       -0.12218267 -0.045961212 -0.07077402 -0.118486956
000260 10 2c d0 bd cd 93 7e bc 09 56 cb 3d 70 0e c0 3d
       -0.10164654 -0.015538168 0.09928519 0.09377754
000270 90 ea 3d 3d df fd d7 3d 64 ed 76 bd 9d ca a7 bd
       0.046366274 0.10546469 -0.060284987 -0.08192942
000280 16 2f 88 3d 63 4a ba 3d 16 bc 23 3e d9 27 7a 3c
       0.06649606 0.090962194 0.15989718 0.0152682895
000290 06 5a b0 3d 40 a2 e9 3c a3 9f d5 bc fd da 64 3c
       0.086109206 0.02851975 -0.026077097 0.0139682265
0002a0 8e f4 26 be 99 b4 7c 3c bb 29 dd 3c 85 fa 63 3d
       -0.16304228 0.015423917 0.026997438 0.055658836
0002b0 03 c2 af bd b3 40 86 3e 9b bd 21 3c 55 78 b2 bc
       -0.08581927 0.26221237 0.009871866 -0.021785894
0002c0 67 05 ee 3d c4 7f 29 3e 27 9e 8c 3d 48 b1 00 3d
       0.11622124 0.16552645 0.06866103 0.03141907
0002d0 18 e1 14 3b e4 0a 14 bd 0a 4b 5d be 51 fb e3 3d
       0.0022717174 -0.0361432 -0.21610656 0.11131919
0002e0 d1 26 08 3d e7 59 cc 3d 29 bc 0a bd d2 df 2d 3e
       0.033240143 0.09978085 -0.03387085 0.16979912
0002f0 a8 5e 34 3b a1 cd 24 be bd e3 01 bc 65 4e 83 bd
       0.002752224 -0.16094066 -0.007927832 -0.06411437
000300 16 9f 56 bd 07 34 9e bd df ad 11 3d da c3 3c 3d
       -0.05239781 -0.07724767 0.035566207 0.046085216
000310 c5 bf b2 bb e4 9a 8a bd aa 7f aa bc 54 ac 8c 3c
       -0.0054549896 -0.06767824 -0.020812828 0.017172016
000320 b5 55 a4 bd 2f 65 1b 3e f5 f0 f6 bc 74 38 96 3d
       -0.0802416 0.15175317 -0.030144194 0.07334986
000330 62 5f 25 3e 00 dd 9b 3b e3 5a 60 bd bc 61 b7 3d
       0.16149667 0.00475657 -0.054774176 0.08954188
000340 c5 00 80 3b 64 38 19 be db 26 98 3c cd 15 d8 bd
       0.0039063417 -0.14962918 0.018573215 -0.10551033
000350 69 07 91 bd 2c 4f 58 bd 3c 41 c2 bd 2a 48 1f 3d
       -0.070814915 -0.05280988 -0.09485099 0.03888718
000360 86 5b 03 3e d6 bc 24 bd 3d 2b cb 3d d8 b8 ab 3d
       0.12827882 -0.04021915 0.099203564 0.083848655
000370 06 77 01 bd e5 57 d6 3d 4a 8c 81 bd d9 d0 c6 3d
       -0.03160765 0.10465983 -0.06325586 0.09707803
000380 87 c9 9a bd db 28 d7 bb be a4 2e bd 65 ed 4a bd
       -0.075579695 -0.0065661496 -0.04263758 -0.049542803
000390 de 89 41 3e 37 96 39 3e c8 b2 05 3d 30 ae 23 bd
       0.18900248 0.18123709 0.032641202 -0.03996104
0003a0 65 96 4d 3e 96 3f 38 3c 9d 15 22 3e 8e 21 bd bd
       0.20076902 0.011245629 0.15828557 -0.09234916
0003b0 4c 13 af 3d 3b b4 52 3e 81 89 6b bd 7f b2 aa 3d
       0.085486025 0.20576565 -0.05750418 0.08334827
0003c0 10 0f 8f bd 61 0b a4 bd 3e 31 8f bd e5 1d a6 3d
       -0.06985295 -0.08009983 -0.06991814 0.08111171
0003d0 02 96 85 3d 86 5a 08 3d 2d 4e af bc 1f 39 ca bd
       0.06522752 0.033289455 -0.021399582 -0.09874176
0003e0 e2 d1 72 3d a4 ac 8e bb 50 cf a0 3d 27 43 0f 3e
       0.05928219 -0.0043540765 0.07852042 0.1399046
0003f0 ce 3f 64 bd 48 f9 ad bc 24 79 c1 3c 46 4a 24 bd
       -0.05572491 -0.02123703 0.023617335 -0.040109895

network_body._body_endoder.seq_layers.2.bias f4 [128]
000000 00 00 00 00 00 00 00 00 00 00 00 00 00 00 00 00
       0.0 0.0 0.0 0.0
000010 00 00 00 00 00 00 00 00 00 00 00 00 00 00 00 00
       0.0 0.0 0.0 0.0
000020 00 00 00 00 00 00 00 00 00 00 00 00 00 00 00 00
       0.0 0.0 0.0 0.0
000030 00 00 00 00 00 00 00 00 00 00 00 00 00 00 00 00
       0.0 0.0 0.0 0.0
000040 00 00 00 00 00 00 00 00 00 00 00 00 00 00 00 00
       0.0 0.0 0.0 0.0
000050 00 00 00 00 00 00 00 00 00 00 00 00 00 00 00 00
       0.0 0.0 0.0 0.0
000060 00 00 00 00 00 00 00 00 00 00 00 00 00 00 00 00
       0.0 0.0 0.0 0.0
000070 00 00 00 00 00 00 00 00 00 00 00 00 00 00 00 00
       0.0 0.0 0.0 0.0
000080 00 00 00 00 00 00 00 00 00 00 00 00 00 00 00 00
       0.0 0.0 0.0 0.0
000090 00 00 00 00 00 00 00 00 00 00 00 00 00 00 00 00
       0.0 0.0 0.0 0.0
0000a0 00 00 00 00 00 00 00 00 00 00 00 00 00 00 00 00
       0.0 0.0 0.0 0.0
0000b0 00 00 00 00 00 00 00 00 00 00 00 00 00 00 00 00
       0.0 0.0 0.0 0.0
0000c0 00 00 00 00 00 00 00 00 00 00 00 00 00 00 00 00
       0.0 0.0 0.0 0.0
0000d0 00 00 00 00 00 00 00 00 00 00 00 00 00 00 00 00
       0.0 0.0 0.0 0.0
0000e0 00 00 00 00 00 00 00 00 00 00 00 00 00 00 00 00
       0.0 0.0 0.0 0.0
0000f0 00 00 00 00 00 00 00 00 00 00 00 00 00 00 00 00
       0.0 0.0 0.0 0.0
000100 00 00 00 00 00 00 00 00 00 00 00 00 00 00 00 00
       0.0 0.0 0.0 0.0
000110 00 00 00 00 00 00 00 00 00 00 00 00 00 00 00 00
       0.0 0.0 0.0 0.0
000120 00 00 00 00 00 00 00 00 00 00 00 00 00 00 00 00
       0.0 0.0 0.0 0.0
000130 00 00 00 00 00 00 00 00 00 00 00 00 00 00 00 00
       0.0 0.0 0.0 0.0
000140 00 00 00 00 00 00 00 00 00 00 00 00 00 00 00 00
       0.0 0.0 0.0 0.0
000150 00 00 00 00 00 00 00 00 00 00 00 00 00 00 00 00
       0.0 0.0 0.0 0.0
000160 00 00 00 00 00 00 00 00 00 00 00 00 00 00 00 00
       0.0 0.0 0.0 0.0
000170 00 00 00 00 00 00 00 00 00 00 00 00 00 00 00 00
       0.0 0.0 0.0 0.0
000180 00 00 00 00 00 00 00 00 00 00 00 00 00 00 00 00
       0.0 0.0 0.0 0.0
000190 00 00 00 00 00 00 00 00 00 00 00 00 00 00 00 00
       0.0 0.0 0.0 0.0
0001a0 00 00 00 00 00 00 00 00 00 00 00 00 00 00 00 00
       0.0 0.0 0.0 0.0
0001b0 00 00 00 00 00 00 00 00 00 00 00 00 00 00 00 00
       0.0 0.0 0.0 0.0
0001c0 00 00 00 00 00 00 00 00 00 00 00 00 00 00 00 00
       0.0 0.0 0.0 0.0
0001d0 00 00 00 00 00 00 00 00 00 00 00 00 00 00 00 00
       0.0 0.0 0.0 0.0
0001e0 00 00 00 00 00 00 00 00 00 00 00 00 00 00 00 00
       0.0 0.0 0.0 0.0
0001f0 00 00 00 00 00 00 00 00 00 00 00 00 00 00 00 00
       0.0 0.0 0.0 0.0

action_model._continuous_distribution.mu.weight f4 [1, 128]
000000 70 7b 54 3b 6d 56 f2 bb 7c 5f 86 bc fa 2b 4f 3c
       0.0032422207 -0.0073955567 -0.016402952 0.012644762
000010 35 6c 73 bc 26 07 aa bc a2 73 87 bc 8f 10 20 3c
       -0.014857342 -0.020755362 -0.01653463 0.009769573
000020 a2 c7 61 bc b2 4d 1a bd b7 eb 05 3d 6a 57 84 3c
       -0.013780506 -0.037671752 0.0326955 0.016154964
000030 fb 84 91 bc 94 b7 44 bc c5 1e 92 bc bb 8d d6 3c
       -0.017763605 -0.012006659 -0.017836938 0.02619063
000040 c3 2a f7 39 51 7f 8b 3c ef 9a db bc 11 59 c8 3c
       0.0004714337 0.017028483 -0.026807277 0.024456533
000050 b7 ce 2e bc e7 77 99 3b ad 74 50 bc e1 67 82 3c
       -0.010669402 0.004683483 -0.01272313 0.015918674
000060 ea 8a df 3b 7b c6 64 bc a8 c7 3e bb 07 39 c3 bb
       0.00682198 -0.013963337 -0.0029110704 -0.005957726
000070 fb 25 13 bc f3 dd 8f 3c 99 80 05 bc af e6 da 3b
       -0.008981223 0.017561888 -0.008148336 0.0066803317
000080 18 6b fa 3b df a5 15 bc cb c3 a3 3c 10 75 58 bc
       0.007642161 -0.009133785 0.019990822 -0.013211504
000090 df db 00 3c 00 54 a5 bb c8 f1 af 3b 57 bd 24 bc
       0.007864921 -0.005045414 0.0053693987 -0.010054908
0000a0 bb e9 67 bb b7 be 38 3c f7 05 b5 3c 7f f3 29 bd
       -0.0035387117 0.011275939 0.02209757 -0.04149198
0000b0 21 b4 1d 3c dd 32 6c bc 18 8e 00 3d 24 8e 03 bc
       0.009625466 -0.014416424 0.03138551 -0.008029494
0000c0 37 af d0 bb d5 b3 d1 ba b6 ef 81 3b 57 15 14 bd
       -0.0063685435 -0.0015999029 0.0039653433 -0.036153164
0000d0 4c a5 0c bd 80 cd 58 bb 38 47 87 bc f3 21 79 bb
       -0.034337327 -0.0033081472 -0.016513452 -0.003801462
0000e0 ab 65 d3 3b 24 68 31 bb 43 7d 91 bc 73 6f 18 3d
       0.0064513288 -0.002707013 -0.017759925 0.03721566
0000f0 28 fe 9a 3b 63 09 05 bd b3 d9 a0 bc 4b 43 12 bd
       0.004730005 -0.032479655 -0.019635057 -0.035708707
000100 b1 08 b9 bc 39 09 9c 3c c6 7c bb bc 55 fe e9 bc
       -0.022587152 0.019047366 -0.022886645 -0.028563658
000110 32 ce 29 bc c6 8e 42 3c db ed e7 3b b3 ae 0e 3d
       -0.010364102 0.01187486 0.007077915 0.034834575
000120 9a 43 9b bc dd 01 8c bc 88 d3 a4 bb 20 2d 88 3c
       -0.018953133 -0.017090732 -0.0050300993 0.01662308
000130 ca 1f 36 bb 55 be b4 b9 cb 35 93 3c b8 4d 35 bb
       -0.0027789944 -0.00034474084 0.017969986 -0.0027664732
000140 fd 17 96 bc d7 92 3b 3b 3c d9 09 bd a3 8a 80 3c
       -0.018321985 0.002862146 -0.033654436 0.015691107
000150 5d 2c fe bb ff a1 5f 3c 7e 3b 8c 38 d2 fa f8 3c
       -0.0077567534 0.013649463 6.6868015e-05 0.030393038
000160 9d 26 6a 3a 2b 67 b1 3c 1f 9d d9 bc 42 dd 16 3a
       0.00089321454 0.02165564 -0.026564179 0.0005755016
000170 84 bc 3c bc 95 b2 c4 3b b1 5a 2e 3c 6b 7a 9b 3a
       -0.011519555 0.006002734 0.01064174 0.0011862045
000180 4c c5 a9 3b 18 2c 82 b9 7d 8c cc bc c3 e8 d0 3c
       0.0051809903 -0.00024828385 -0.024969334 0.025501614
000190 ff d8 d7 3b eb 5b e9 ba 9c 71 9e bc 55 80 d4 bc
       0.0065871472 -0.0017803883 -0.019341283 -0.0259401
0001a0 95 14 e2 3c 98 6c 03 bc a7 b0 be bb 55 4c d5 3c
       0.027597705 -0.008021496 -0.0058193984 0.026037375
0001b0 df ff aa 3c af cd 13 bc da 54 ef 3b ea 11 20 3c
       0.020873962 -0.009021207 0.0073038163 0.009769896
0001c0 40 ef 9f 3c 4b 18 c9 3c 0d 76 aa bb f8 25 da bc
       0.019523263 0.024547717 -0.005202061 -0.026629433
0001d0 e2 42 0c 3c e5 fe 67 3b 80 37 02 3d 80 13 01 3d
       0.008560868 0.0035399732 0.03179121 0.031512737
0001e0 48 f8 4e bd 4f 78 8e 3c b1 cc 1e 3c a0 31 41 3b
       -0.05052975 0.017391352 0.009692357 0.0029479042
0001f0 83 a2 f0 3b d7 52 bf bc 6a 4b b1 bc 4d 85 6f 3a
       0.0073435917 -0.02335493 -0.021642406 0.000913699

action_model._discrete_distribution.branches.0.weight f4 [3, 128]
000000 3d 13 52 bb c9 ef 9f 3a 6b 95 25 bc 27 35 c8 3a
       -0.0032054924 0.0012202199 -0.010106425 0.001527463
000010 e0 83 19 3c d8 93 9f bc 9d cc d7 ba f6 24 01 3b
       0.00936982 -0.019479677 -0.0016464178 0.0019705868
000020 f5 a0 eb 3b 42 ec 06 bc 3a 68 7f 3c 3f ea 29 3c
       0.0071908184 -0.008235039 0.015588814 0.01037079
000030 9f 15 e2 bb 32 06 89 bc d8 f0 4d bc 0b 70 33 3a
       -0.00689955 -0.016726587 -0.012569629 0.0006845004
000040 a7 f9 72 3c ef 9f 6f 3c 1b 5d 3b bb e0 3a 3e bc
       0.01483003 0.0146255335 -0.002858943 -0.011610717
000050 38 75 cc bb bb 9b 92 ba 03 5a 83 ba e8 7d da ba
       -0.0062395595 -0.0011185327 -0.0010021332 -0.0016669603
000060 e7 48 2e 3b 31 dd bf 3b ea a0 d5 3b 23 4b 86 3a
       0.0026593746 0.0058552255 0.0065194266 0.0010245781
000070 5b db 8e 3c 9f 75 bc bb 00 ef 40 3b 47 9d da bb
       0.017438581 -0.005751326 0.002943933 -0.006671581
000080 b7 51 12 bc 6e f3 b1 3b a6 0c 3c bb 02 50 51 3b
       -0.008930615 0.0054306304 -0.0028694062 0.0031938558
000090 7f 9a 81 3b 00 b0 66 bc 0e cb 46 3c 68 45 4b 3c
       0.003955185 -0.014080048 0.012133373 0.012406684
0000a0 85 27 f6 ba 13 15 1e 3a 6f 98 55 3c 7f 01 4e bb
       -0.0018780088 0.0006030362 0.013036831 -0.0031433997
0000b0 99 3b 9f b9 ef 24 e5 3b 8d 44 95 3b c6 8d 2c bb
       -0.00030371247 0.006992928 0.004555291 -0.002632962
0000c0 c7 f5 58 3b c5 6c ee 3b d8 2b 1d 3b eb a6 24 3c
       0.003310548 0.00727615 0.0023982432 0.010049562
0000d0 95 02 a9 bb e8 2e 0f 3c f9 b3 a1 bb 03 ab 40 bb
       -0.0051577785 0.008739211 -0.0049347845 -0.0029398806
0000e0 d9 7e 2a bc 32 18 7d bc 55 e1 8f bb 13 52 8e 3c
       -0.010406219 -0.015447663 -0.0043908753 0.01737312
0000f0 bb a0 9a bb 35 6f 55 bc 6a 12 c8 bc af 4b 7e 3b
       -0.0047188676 -0.013027002 -0.024422843 0.0038802435
000100 63 d3 cc ba 6f f2 db bb eb b5 75 bc 15 fd d2 3b
       -0.0015626963 -0.00671225 -0.014996986 0.006438861
000110 93 d6 09 bc 4b d5 9e bb 32 f7 ef ba 79 50 08 3b
       -0.008412975 -0.004847204 -0.0018307923 0.0020799919
000120 27 a3 78 bc 5e 48 40 3b 9b 0e 9a 3c 4a a4 90 bb
       -0.015175617 0.002934001 0.018805793 -0.004414116
000130 a7 eb 6f 3c 68 e1 cd 3b 6a e8 c4 3b 2b 12 04 3c
       0.014643586 0.006282974 0.006009151 0.008060972
000140 17 c4 2f bb 45 39 8b bb 95 78 36 bb 79 4b c9 3b
       -0.002681976 -0.0042487704 -0.0027842869 0.0061430302
000150 5f 32 60 3b 33 1c 9b 3a c8 5c e2 3a c7 61 45 bb
       0.003420971 0.0011833966 0.0017270083 -0.0030118094
000160 63 b2 4b bc fb 49 d9 3b 1a 7e f0 3b e0 11 3a 3c
       -0.012432667 0.0066311336 0.007339251 0.011356801
000170 d2 24 ee bb 65 ba c8 bb bc d2 c2 bb d2 b7 87 3b
       -0.007267573 -0.0061257356 -0.0059455317 0.004141786
000180 52 78 de b8 e8 a4 b8 3c 0c 78 c6 bb eb 00 54 3c
       -0.00010608196 0.02253957 -0.006056791 0.012939672
000190 33 4f 13 bc 05 3b e6 39 0b cc 02 bb 12 a5 64 bb
       -0.0089910505 0.00043912992 -0.0019958045 -0.0034888429
0001a0 32 6b 34 3c 39 22 47 3c 5a f2 90 bb a3 81 52 3c
       0.0110118855 0.012154155 -0.004423422 0.012848291
0001b0 57 17 d0 3b 74 f9 34 3c f5 8b f5 3b 0c d7 ab bb
       0.0063504386 0.011045802 0.007493491 -0.0052441414
0001c0 6b 4c aa bb 33 47 0e 3c 45 5b e5 3a e0 b6 96 3b
       -0.005197098 0.008683967 0.0017498514 0.004599437
0001d0 22 bf 5c bc 0f d4 c7 bb 51 8c bb bb 57 20 fd ba
       -0.013473304 -0.0060982774 -0.005723514 -0.0019312006
0001e0 bf 23 bc 3b ac b8 86 3b c2 7e 40 3c 01 21 b4 bb
       0.005741566 0.00411137 0.011748971 -0.0054970984
0001f0 f5 19 34 ba d0 e3 0f 3c 5d 60 33 ba 7c b2 9e 3b
       -0.0006870323 0.008782342 -0.00068426674 0.0048430543
000200 c5 03 47 39 58 98 fe 39 cf 72 26 bc a3 cc 2b bc
       0.00018979523 0.0004856016 -0.010159208 -0.010485801
000210 f5 41 cc bb 6f 63 42 3a 81 4b 33 3c e7 8a b5 3c
       -0.0062334486 0.00074153295 0.0109432945 0.02216096
000220 24 bc 4c bc b9 0e 83 bb f7 7e 65 3c 54 a6 05 bb
       -0.012496028 -0.003999558 0.014007322 -0.0020393329
000230 b7 c6 b7 3b bf 67 2b bb 12 5c f3 bb ea b6 03 3a
       0.0056084055 -0.0026154367 -0.007426747 0.000502451
000240 e5 47 85 bc 73 42 95 bb 27 54 14 bc 9f ea bf 3b
       -0.016269634 -0.0045550405 -0.009053267 0.0058568264
000250 10 3d cb bb 95 3c 13 3c 47 26 a6 38 01 25 4b bb
       -0.0062023476 0.008986612 7.9226265e-05 -0.0030997398
000260 1d 1d 96 3a 7c c6 0c 3c 13 88 5b bc 95 13 ab bb
       0.0011452768 0.008592244 -0.013399142 -0.00522084
000270 7b 9b 3e 3a b8 ef 8e bb 00 e0 f9 3b 5a 73 d8 3b
       0.0007271093 -0.004362073 0.00762558 0.006605548
000280 d0 ac b5 3b e3 97 e0 bb 10 c3 56 3b c2 e3 0b bc
       0.0055442825 -0.006854044 0.0032770075 -0.008538188
000290 0b 10 28 bc 54 c4 0a 3c 8f ed 03 3c 73 32 4b bb
       -0.010257731 0.00846966 0.008052244 -0.0031005412
0002a0 ba ac a8 3c 33 cf 13 bc 39 5e 0e 3b 23 e2 e3 3b
       0.020590175 -0.009021568 0.0021723642 0.006954448
0002b0 e1 08 96 39 0f 9b de bb b7 b4 4b 3c e8 e7 2e 3c
       0.00028616845 -0.006793387 0.0124332225 0.010675408
0002c0 ff d6 0f 3c 1b eb 7f 3c 5b b9 56 bc 17 05 2a 3b
       0.008779286 0.015620018 -0.013105716 0.0025942975
0002d0 cb b7 48 bb af 3d 53 3b 4d 8f a8 bb d2 fa 96 3c
       -0.0030627127 0.0032232811 -0.005144036 0.018430147
0002e0 3d f9 d2 3a 59 c7 1a 3c 63 65 e4 b9 c3 49 59 bb
       0.0016096007 0.009446942 -0.00043563088 -0.0033155538
0002f0 79 e0 83 bc 2f aa bd 3b 95 47 52 bc bf 30 27 ba
       -0.016098248 0.0057881097 -0.012834449 -0.0006377808
000300 b7 4e 61 bc 2c ef bb bb 3d 3f ed bb f3 ca 09 bc
       -0.013751677 -0.0057352986 -0.0072402046 -0.008410203
000310 af 4e f9 bb 6b 02 e5 3b c1 9e 00 bb ae 2e 4b 3b
       -0.007608257 0.0069888136 -0.0019625875 0.0031003165
000320 9b c9 7f 3c 10 e8 8b bc 55 7b b6 3b 26 ed c2 3b
       0.015612031 -0.01707843 0.0055689015 0.0059486805
000330 77 9a 56 bc d4 1c 18 bc a5 f0 5a 3b 92 41 69 3c
       -0.013098351 -0.009284217 0.0033407595 0.014236825
000340 17 84 0e bb 5c 84 c8 3b 12 9a 82 ba 1a 7c 13 bc
       -0.0021746212 0.006119294 -0.000996413 -0.009001756
000350 b7 4c f1 bb 74 30 a1 bb 10 5e 46 bb ff eb be b8
       -0.0073638815 -0.004919106 -0.0030268468 -9.103864e-05
000360 c5 1c 70 bc 05 f2 32 3b 6c 71 23 bc 6d 66 40 3c
       -0.014655297 0.00273049 -0.009975772 0.01174317
000370 3f dd c3 ba 0a 77 98 bb ed 35 e1 bb e8 bf db 3b
       -0.0014943256 -0.0046528624 -0.0068728835 0.0067062266
000380 8a db 3b 3a 4b 51 78 bc c3 87 79 bc 4f c6 08 bc
       0.0007166198 -0.0151561005 -0.015230122 -0.008348062
000390 ba 55 75 3b 5c 97 96 3c 2b 58 b2 ba bd a7 6c bb
       0.003743513 0.01838272 -0.0013606598 -0.0036110722
0003a0 41 5b 93 bb 8c 9e 80 3b e4 b7 82 3a c2 5f 5b bc
       -0.0044969623 0.0039251503 0.0009973017 -0.01338953
0003b0 ad e5 00 bc 3d d6 93 3c 3e 7b 80 bc 78 08 70 3b
       -0.007867259 0.018046493 -0.015683766 0.0036626142
0003c0 97 be 02 3c f0 40 64 3b ef 6f 29 bb 88 9a d4 3b
       0.0079800105 0.0034828745 -0.002585407 0.006488148
0003d0 95 41 80 3b 06 2b a5 3a cb 0f 5e 3b 03 13 a3 bc
       0.003914068 0.0012601323 0.0033883925 -0.019906526
0003e0 a0 0e 37 bc c2 a3 a6 bb 07 34 fb ba f0 a9 b3 ba
       -0.01117292 -0.0050854394 -0.0019165286 -0.0013707262
0003f0 c3 c3 c2 ba 88 49 84 ba b8 a1 59 3a ed ee 04 3c
       -0.0014859367 -0.0010092715 0.0008301991 0.008113605

action_model._discrete_distribution.branches.0.bias f4 [3]
000000 00 00 00 00 00 00 00 00 00 00 00 00
       0.0 0.0 0.0

action_model._discrete_distribution.branches.1.weight f4 [2, 128]
000000 67 da f0 bb 33 61 56 3b 08 c2 d0 3b e8 ec 25 3c
       -0.0073502543 0.0032711744 0.0063707866 0.010127284
000010 fe f8 8b 3b 5f 49 42 3c 6b b8 97 bb ff 30 c0 bb
       0.0042716255 0.011858313 -0.0046301386 -0.005865216
000020 3f b0 81 bc a9 cc 03 3b df 64 3c 3b 4f a3 45 3c
       -0.015831111 0.0020111 0.0028746647 0.012062862
000030 bf a6 d5 3b 3e 73 09 bb 1a 8e 67 3b 03 1f 6a bc
       0.006520122 -0.002097323 0.0035332502 -0.01428962
000040 2b 14 45 bc ad d3 32 3c 5c f6 cb bb 05 a2 e1 ba
       -0.012028734 0.010914725 -0.0062244367 -0.0017214423
000050 7b 67 0f 3a e8 0d 8d 3a af bc 9c 3b bb 56 b6 3b
       0.0005470437 0.0010761591 0.004783235 0.0055645383
000060 e0 f6 67 3c 19 01 95 bb eb 92 2e bc c5 65 18 3c
       0.014157981 -0.00454725 -0.010655145 0.0093016075
000070 13 64 0a 3b dd c7 11 3c bd fd 6f 3b 01 c4 11 3b
       0.0021116778 0.008897749 0.0036619746 0.0022242072
000080 40 ad 7c bb 0a 15 19 bb 5a c3 e5 bb 91 36 1b 3c
       -0.0038555413 -0.0023358488 -0.007011813 0.009473459
000090 2d 6e b5 39 8b 06 26 3c 52 3c e1 bc 9c 47 93 bc
       0.00034605098 0.010133396 -0.027494583 -0.017978482
0000a0 68 4d 7e bc fa 76 71 3c f2 df 2d 3c 45 3e 1a 3c
       -0.015521385 0.014737839 0.010612475 0.00941426
0000b0 ce 45 0d 3c 3a 97 d1 3b 13 6a 52 bc 5a f5 4d 3c
       0.0086226 0.0063962014 -0.012842673 0.012570703
0000c0 ef a5 e8 39 61 64 91 bc 0d a6 ea bb 83 6e 5c bb
       0.00044374118 -0.01774806 -0.007160908 -0.0033635206
0000d0 9b 2a 63 bb 75 0f 56 bc 8b 1f 12 bc e5 fa b7 b9
       -0.0034662846 -0.013065209 -0.008918653 -0.0003509141
0000e0 c4 2e 49 bc 9a a2 d7 ba 0a b2 e1 3a 3d f7 64 3c
       -0.012279216 -0.0016451657 0.0017219197 0.013974962
0000f0 49 f0 13 3b bb e0 59 bb 88 b0 5b 3c 10 8a 8e bc
       0.002257364 -0.0033245522 0.013408788 -0.017399818
000100 f0 91 0d bc 84 26 38 3c ac 76 47 3a f1 7c ca b9
       -0.008640751 0.011239652 0.0007608931 -0.0003862153
000110 f2 cf 66 3c 7f 80 10 3b 07 0e 9d 3b 46 70 25 bb
       0.014087664 0.0022049246 0.004792932 -0.0025243922
000120 bb cc 06 3c 8b 87 cb 3a c7 2e b0 bb 8c 53 b0 3b
       0.0082275225 0.0015528066 -0.00537667 0.0053810533
000130 02 a4 86 3c 38 ed 06 bc 25 c8 56 3c f1 1f bd 3a
       0.016435627 -0.008235268 0.013109242 0.0014429075
000140 5d b7 3e bc 6a b8 5a bb 10 d1 74 bb f2 88 0f 3a
       -0.011640397 -0.003337408 -0.0037356056 0.00054754235
000150 af 1d a4 3a 17 7e 7f bb 6d 0c 6b 3c 9b 02 ff bb
       0.0012521053 -0.0038985068 0.014346224 -0.007782293
000160 ab 5e 2b 3a 7a 33 19 3c a3 69 0e 3c bb d6 8c bc
       0.0006537239 0.009350652 0.008692178 -0.017192235
000170 30 e4 5c 3c 49 49 bd bb 49 aa 84 bc 98 a8 23 3b
       0.0134821385 -0.0057765585 -0.01619448 0.0024972316
000180 a2 bc 96 bb 9b 6a c7 bc 73 46 a3 bb ff 77 03 bc
       -0.0046001235 -0.024342826 -0.0049827634 -0.008024215
000190 6d 69 66 3a e2 03 50 bb da 11 9a b9 84 8c 19 bc
       0.00087895134 -0.0031740596 -0.0002938647 -0.00937188
0001a0 da 3c 84 bb 16 5f b5 3b cb 78 42 bb 7f 05 13 3a
       -0.0040355744 0.005535017 -0.002967405 0.0005608424
0001b0 6f 01 d7 3b c8 f6 47 ba 06 39 02 3b 6d d9 85 bc
       0.00656145 -0.0007628021 0.0019870414 -0.016339028
0001c0 9d 65 84 bb 67 c0 1a 3c bf 61 8e bc ff 65 71 3c
       -0.0040404336 0.009445286 -0.017380593 0.01473379
0001d0 bf 61 b1 3a da 09 8e 3b be 24 28 3b c7 f1 ec bb
       0.0013533159 0.0043346705 0.0025656666 -0.0072309705
0001e0 0d 46 5f bc d7 dd 6c bb 57 17 75 bc 23 6b 34 bc
       -0.013627541 -0.003614297 -0.014959178 -0.0110118715
0001f0 8f f5 fa 3a fb 7b 78 ba bf 5c 29 bc f1 b2 0d b9
       0.0019146668 -0.0009478924 -0.010337054 -0.00013513469
000200 f8 dd 51 bb 5c dc 37 ba f7 bb b1 3b 99 bd 84 ba
       -0.0032023173 -0.0007013732 0.0054240185 -0.0010127305
000210 c5 eb 55 bb db 88 db 3b 10 cd 99 ba af 80 a9 3b
       -0.003264175 0.006699664 -0.0011734087 0.005172811
000220 67 f7 91 b9 37 cb b1 b7 93 34 97 3b a2 2a a8 3c
       -0.00027840884 -2.1194674e-05 0.0046144216 0.020528141
000230 75 dd 57 3c 3f a1 12 3c aa 26 b2 39 a7 6b e5 3b
       0.013175358 0.008949577 0.00033979613 0.0070013586
000240 eb cb 66 3c 17 5d 17 3c f8 69 3e b9 01 b3 92 39
       0.014086704 0.009238503 -0.00018159288 0.00027980658
000250 eb dd 0a bc d7 39 20 3c 92 35 24 3b 63 70 e0 bb
       -0.008475761 0.009779415 0.0025056344 -0.006849335
000260 52 82 54 39 6a 10 53 bc 70 8e 62 bb 9c c2 a0 3c
       0.00020266444 -0.012882331 -0.0034569763 0.019624047
000270 9f 7a 18 3c 20 d9 e3 bb bd cd 87 bb e8 d8 76 3b
       0.009306579 -0.0069533736 -0.004144399 0.0037665907
000280 ea f5 d6 3b 1b 9d 3c 3b 68 8c 1d 3b 87 9e 8c ba
       0.006560077 0.0028780166 0.0024039987 -0.0010728397
000290 aa 0b 4e bc d4 77 2a 3c 18 f7 72 bb 48 53 26 bc
       -0.012576023 0.010404546 -0.003707355 -0.010151692
0002a0 22 cb 33 bc 6f d6 df 3a bb 0e 75 bb db c5 24 3c
       -0.010973724 0.0017077456 -0.0037392813 0.010056938
0002b0 d8 36 d7 bb 99 84 b7 3b 5c 46 3d bc 15 b6 d2 3a
       -0.006567817 0.0056005237 -0.0115524195 0.0016075993
0002c0 cb c1 fe bb a3 94 ba ba c7 b3 fb bb 72 6b d5 ba
       -0.0077745668 -0.0014234971 -0.0076813432 -0.0016282632
0002d0 bf 25 e4 3b 37 dd 28 bb bf 72 3d bb ae c6 85 bc
       0.0069625075 -0.002576662 -0.0028907505 -0.01633009
0002e0 5b e8 51 bc 13 35 de 3a 06 eb a7 bc 23 92 61 bc
       -0.0128117455 0.0016953073 -0.02049781 -0.013767752
0002f0 3f 58 4c 3b 8f 71 75 3b 0f 57 a6 3b e2 61 56 bb
       0.0031180528 0.003745172 0.005076296 -0.0032712151
000300 ea 9f d8 3a 20 52 d9 bb 27 1d 26 3b c0 6e af 3b
       0.001652715 -0.0066321045 0.0025346966 0.0053537786
000310 59 46 0e bc a3 b3 fb 3b 43 29 88 bc a5 28 58 bb
       -0.008683764 0.0076813265 -0.016621238 -0.003298321
000320 f4 6e a1 ba f6 04 13 3c fb 39 2b 3b 83 03 26 bc
       -0.0012316392 0.008973351 0.0026127088 -0.010132673
000330 42 57 d6 bb 15 3a 43 3c 67 b4 96 ba 8b f9 a4 bb
       -0.0065411637 0.011915703 -0.0011497856 -0.0050346307
000340 93 34 a8 ba 83 09 5a bb c0 db a4 bc bd 55 4d ba
       -0.0012833051 -0.003326983 -0.020124316 -0.00078329054
000350 85 86 01 bc 74 b9 bd 3a 2e d1 2a bc c3 32 0a 3c
       -0.007905607 0.0014474825 -0.010425849 0.008434954
000360 38 f6 51 bc fd ba 99 3b 4b 51 ac 3b f0 cf 31 bc
       -0.012815051 0.00469148 0.0052587143 -0.010852799
000370 d7 0a a2 3b 43 ef 1f bc 0f 91 79 bb c6 fe 08 39
       0.00494514 -0.009761634 -0.0038080846 0.00013064881
000380 c8 bf 1d 3c 13 1a e2 3c 5d a9 d0 3b 92 5c c0 3b
       0.009628244 0.027600324 0.006367846 0.0058704102
000390 e0 24 ff 3b e8 60 8f bb c3 3d ae bb 70 de de 3b
       0.0077863783 -0.004375566 -0.005317421 0.006801419
0003a0 6f af a3 b5 e5 69 61 bb a8 87 cc 3c 6c 61 c4 bb
       -1.2195504e-06 -0.0034395393 0.02496703 -0.005993059
0003b0 df 61 cd b9 de 23 ae bb 23 df 1c 3c 9b 55 83 3c
       -0.00039173567 -0.0053143343 0.009574684 0.01603203
0003c0 ba 24 be 3b cf 66 3e 3b 5a 63 8a bc 5d 99 f1 ba
       0.005802718 0.0029052978 -0.016893078 -0.0018432547
0003d0 ac 50 be 3c 30 4d 8b bc 20 f6 cd bb 4d 88 59 bb
       0.023231827 -0.01700458 -0.006285444 -0.0033192814
0003e0 c7 85 c7 3a 3b d2 7b 3b 1b 50 0f bc 02 96 2b ba
       0.0015222364 0.0038424868 -0.008747126 -0.0006545485
0003f0 5d 60 28 38 83 a5 3b 3c ef af a3 3b b7 e9 91 3b
       4.0144067e-05 0.011453035 0.004995338 0.00445291

action_model._discrete_distribution.branches.1.bias f4 [2]
000000 00 00 00 00 00 00 00 00
       0.0 0.0
