results/ppo/Player Behaviour/Player Behaviour-320.onnx (onnx, 76643 bytes, 11 tensors)

discrete_action_output_shape f4 [1, 3]
00000000: 0000 4040 0000 0040 0000 0040
3.0 2.0 2.0

network_body._body_endoder.seq_layers.0.weight f4 [128, 5]
00000000: f5e5 d1bb 4099 2d3e 8b80 0dbf 0726 003d
00000010: 9bf4 f53e 7b42 42bf eb12 063f 4b53 bcbe
00000020: 5440 f83d 1a40 1fbe 1acb 723e 5d80 e93e
00000030: 71ad fcbc 23d1 203f c368 183e 1f3e 913d
00000040: 3912 d23e 570b e9be 6452 80be e57c 673e
00000050: f999 bfbe ff34 763e 09ea b2bd 36cf 9d3e
00000060: 95d9 8ebe 2b75 eb3e 9aa8 813f b3e7 4abe
00000070: 9597 1bbf c3b2 093e c7de d23d d265 453e
00000080: d0ec b03e 1c0a 0bbf 5896 f33e b482 49bf
00000090: b12d 92be 83a8 63bf 37ed 36be c653 453e
000000a0: afb2 193f 9bf4 4cbe 5c71 d63e 3c0c 933e
000000b0: 7d99 76be 32c4 793e 0433 14bf 8286 14bf
000000c0: ba35 563f 70e8 d2be daf2 993e ab23 2d3f
000000d0: a031 343e 7bf4 4a3e 5900 b53e 1bc9 e0be
000000e0: 53f9 0bbe d603 06bf b632 723e 15a4 56be
000000f0: 9255 1abd b645 53bf f007 423e adb8 463f
00000100: efd6 833e 934a 183f 230d a53e 1c96 1bbf
00000110: 6de1 c8be b1a2 193f 62b6 a9bb b48f 95bd
00000120: 163a 31bd 9258 dc3e f60a dd3e bd8b 89be
00000130: 8138 a23e e08b 2dbf c29a 893d db78 a43c
00000140: da00 ecbd 2864 cb3e 9176 96be 2a2d efbe
00000150: c813 0f3f f369 87bd 3af0 fd3d 9d51 163e
00000160: 3cd3 2ebf a6ac 90be d797 b33f 22c8 9d3d
00000170: 1759 7a3f c8a3 d3bd 6ca3 a73d 887f b1be
00000180: 92df ae3e 2c7e 81bd 36f9 31bf 34ec e83e
00000190: 6172 afbe 369b ffbe 4103 583e 51ef 4dbf
000001a0: 9c31 973e ee89 a73d 8046 63bf 45ee 833e
000001b0: 80c8 a43e a638 d1be c02d a93e e720 b73e
000001c0: 27e8 a33d b259 18bf be20 b93e 7b12 a6be
000001d0: 89e7 94be a5bf 91be ed6d 753e 7571 db3e
000001e0: 6cd0 2b3e a0a4 ad3d cc8d 183f 6381 f93e
000001f0: 590c bfbc 487d 49be 8933 48bf 6dbb 603e
00000200: 9da3 643e 443a 8bbe 858c 0c3f 4285 96bd
00000210: 6ac6 b3bd 8967 3dbf c16b 0fbe 9cff f13d
00000220: 05d6 01bf ea79 abbe c317 123f 8463 3c3d
00000230: 03c4 323f 6493 573f d1ed 403e 0b35 03bd
00000240: 9592 dfbe 0ee1 a93e b9da adbd 3d11 2abf
00000250: c22e 84bc 2818 61be 389c e63d e0ab 0f3f
00000260: df3d 1dbd cb5d 973e 323a 433f 57a6 133e
00000270: 0631 96bd 872a c0be b3ec 703e 0683 bc3d
00000280: 1240 d9be 29a2 cc3f fe48 e43e e885 18bf
00000290: 7dfa 6cbb 0d44 c5bd f5cb d53e 86ae 4a3e
000002a0: b1e5 2abf 1063 253f a615 1bbe 752d 413d
000002b0: b1b5 2d3f 56a9 2abf 0573 023f b01e 423e
000002c0: 3921 d33e 32c1 7fbe d8f0 16bd acae 14bf
000002d0: 1eaa 0d3f 0250 74be 4145 a8be 99a8 513b
000002e0: 4eea 993e 20d5 443f c8bd 9a3e b2ee a8be
000002f0: d814 7bbe 5abb 1b3f 3efb 1dbf cfe6 f63e
00000300: 48e9 683e c959 373f 7036 9dbe b729 b5be
00000310: 0eca 973e 55d4 663e 4e70 333e 8107 703e
00000320: 8bce bb3d b8b9 c93e 9b1a 12bd 1c91 eebe
00000330: e12e 263d 1a3f 72be 8a8e e7be da24 1e3e
00000340: 6c16 933d 99c6 a7be 1c5f ac3e ec90 893e
00000350: 7ef4 a1be 501d a53d 4fba cb3e dc4f f63e
00000360: b56b 003f f47d 883e b97f abbe f5f4 cd3e
00000370: d43b 3dbe d2ee 223e e794 573e 5318 423f
00000380: ece8 c13e 7860 623f 7f47 aa3e 2c20 58be
00000390: 2db5 07be 0718 a5be 5889 5dbf 53d9 33bc
000003a0: 4795 943e ea9a 113f b40d 18bf 6b91 8ebe
000003b0: b9c1 2fbe bc77 a73e 29ae 0c3f f72f 613e
000003c0: 5984 89bc 36bd fa3d 31f3 cf3e 10eb de3e
000003d0: 08f3 1dbe 6779 3b3f 7482 93bd 55af 373f
000003e0: b172 e63e 1e74 2e3f e7e7 b33e be12 bebd
000003f0: 7f91 163f 5a02 923e c35d 34bf aefc 953f
-0.006405587 0.16952991 -0.55274266 0.031286266 0.48038182 -0.7588269 0.52372617 -0.36782297
0.121216446 -0.15551797 0.2371029 0.45605746 -0.030844422 0.6281912 0.14883713 0.07091927
0.41029528 -0.45516464 -0.2506286 0.22606237 -0.3742216 0.24043654 -0.08736045 0.30822152
-0.27900377 0.4598783 1.0129578 -0.19814949 -0.6077817 0.13447098 0.10296398 0.19277123
0.34555674 -0.543123 0.4757564 -0.7871506 -0.28550485 -0.88929003 -0.17863928 0.19270238
0.60038275 -0.20015185 0.4188336 0.28720272 -0.24081989 0.24391249 -0.57890344 -0.5801774
0.8367573 -0.4119296 0.30068094 0.6763255 0.17597055 0.19819824 0.35351828 -0.4390343
-0.13669328 -0.52349603 0.23652157 -0.2096103 -0.037679262 -0.82528245 0.1894834 0.7762554
0.2574992 0.5948879 0.32236585 -0.60775924 -0.39234486 0.6001387 -0.0051792124 -0.073028
-0.043268286 0.43036324 0.43172425 -0.26864424 0.31683734 -0.6779156 0.06718971 0.02007716
-0.115236 0.3972485 -0.29387334 -0.46714145 0.5588956 -0.06612005 0.12399335 0.1467957
-0.6829107 -0.2825672 1.4030713 0.07704188 0.9779219 -0.10333973 0.08185467 -0.3466761
0.34154946 -0.063228935 -0.6952089 0.4549271 -0.34266952 -0.49923104 0.21094991 -0.8044329
0.29530036 0.08180605 -0.8877945 0.25767723 0.3218422 -0.40863532 0.33042717 0.3576729
0.08003264 -0.59511864 0.36157793 -0.32435974 -0.29082897 -0.28466526 0.23967715 0.42859998
0.16778725 0.08478665 0.59591365 0.48731527 -0.023321318 -0.19676697 -0.78203636 0.21946497
0.22328039 -0.2719289 0.54901916 -0.07349636 -0.08778079 -0.7398611 -0.14005949 0.11816332
-0.5071719 -0.3349145 0.5706751 0.045993343 0.6983034 0.84209275 0.1884072 -0.032033008
-0.4366652 0.33179516 -0.08488984 -0.66432554 -0.016135577 -0.21981871 0.11260265 0.56121635
-0.038389083 0.29563746 0.76260674 0.14418922 -0.07333569 -0.37532446 0.23527794 0.09204678
-0.42431694 1.5986987 0.4458694 -0.59579325 -0.0036160045 -0.0963212 0.4175717 0.19793138
-0.6675673 0.6460428 -0.15144977 0.04716249 0.67855364 -0.66664636 0.50956756 0.18957019
0.41236284 -0.24976042 -0.03685078 -0.5807903 0.55337703 -0.23858646 -0.32865337 0.0031991361
0.30061573 0.768877 0.30222917 -0.3299461 -0.2451967 0.6083275 -0.6171149 0.48222968
0.2274524 0.71621376 -0.30705595 -0.35383388 0.29646343 0.22541936 0.1752331 0.23440363
0.09170254 0.39399505 -0.035669904 -0.46595085 0.04057205 -0.23656884 -0.45225936 0.15443745
0.07182011 -0.32768705 0.33666313 0.2686838 -0.31631845 0.080622315 0.3979058 0.48107803
0.5016435 0.26658595 -0.33495882 0.4022595 -0.18479854 0.15911415 0.21052895 0.75818366
0.37873018 0.8842845 0.33257672 -0.21106023 -0.13252707 -0.32244894 -0.86537695 -0.010977107
0.2902014 0.56877005 -0.5939591 -0.2784532 -0.17163743 0.32708538 0.5495325 0.21990953
-0.016786741 0.1224312 0.40615228 0.43538713 -0.1542474 0.7323212 -0.07202616 0.7175191
0.45009378 0.6814593 0.35137865 -0.092809185 0.5881576 0.2851742 -0.7045557 1.1717737

network_body._body_endoder.seq_layers.0.bias f4 [128]
00000000: 0000 0000 0000 0000 0000 0000 0000 0000
00000010: 0000 0000 0000 0000 0000 0000 0000 0000
00000020: 0000 0000 0000 0000 0000 0000 0000 0000
00000030: 0000 0000 0000 0000 0000 0000 0000 0000
00000040: 0000 0000 0000 0000 0000 0000 0000 0000
00000050: 0000 0000 0000 0000 0000 0000 0000 0000
00000060: 0000 0000 0000 0000 0000 0000 0000 0000
00000070: 0000 0000 0000 0000 0000 0000 0000 0000
00000080: 0000 0000 0000 0000 0000 0000 0000 0000
00000090: 0000 0000 0000 0000 0000 0000 0000 0000
000000a0: 0000 0000 0000 0000 0000 0000 0000 0000
000000b0: 0000 0000 0000 0000 0000 0000 0000 0000
000000c0: 0000 0000 0000 0000 0000 0000 0000 0000
000000d0: 0000 0000 0000 0000 0000 0000 0000 0000
000000e0: 0000 0000 0000 0000 0000 0000 0000 0000
000000f0: 0000 0000 0000 0000 0000 0000 0000 0000
00000100: 0000 0000 0000 0000 0000 0000 0000 0000
00000110: 0000 0000 0000 0000 0000 0000 0000 0000
00000120: 0000 0000 0000 0000 0000 0000 0000 0000
00000130: 0000 0000 0000 0000 0000 0000 0000 0000
00000140: 0000 0000 0000 0000 0000 0000 0000 0000
00000150: 0000 0000 0000 0000 0000 0000 0000 0000
00000160: 0000 0000 0000 0000 0000 0000 0000 0000
00000170: 0000 0000 0000 0000 0000 0000 0000 0000
00000180: 0000 0000 0000 0000 0000 0000 0000 0000
00000190: 0000 0000 0000 0000 0000 0000 0000 0000
000001a0: 0000 0000 0000 0000 0000 0000 0000 0000
000001b0: 0000 0000 0000 0000 0000 0000 0000 0000
000001c0: 0000 0000 0000 0000 0000 0000 0000 0000
000001d0: 0000 0000 0000 0000 0000 0000 0000 0000
000001e0: 0000 0000 0000 0000 0000 0000 0000 0000
000001f0: 0000 0000 0000 0000 0000 0000 0000 0000
0.0 0.0 0.0 0.0 0.0 0.0 0.0 0.0
0.0 0.0 0.0 0.0 0.0 0.0 0.0 0.0
0.0 0.0 0.0 0.0 0.0 0.0 0.0 0.0
0.0 0.0 0.0 0.0 0.0 0.0 0.0 0.0
0.0 0.0 0.0 0.0 0.0 0.0 0.0 0.0
0.0 0.0 0.0 0.0 0.0 0.0 0.0 0.0
0.0 0.0 0.0 0.0 0.0 0.0 0.0 0.0
0.0 0.0 0.0 0.0 0.0 0.0 0.0 0.0
0.0 0.0 0.0 0.0 0.0 0.0 0.0 0.0
0.0 0.0 0.0 0.0 0.0 0.0 0.0 0.0
0.0 0.0 0.0 0.0 0.0 0.0 0.0 0.0
0.0 0.0 0.0 0.0 0.0 0.0 0.0 0.0
0.0 0.0 0.0 0.0 0.0 0.0 0.0 0.0
0.0 0.0 0.0 0.0 0.0 0.0 0.0 0.0
0.0 0.0 0.0 0.0 0.0 0.0 0.0 0.0
0.0 0.0 0.0 0.0 0.0 0.0 0.0 0.0

network_body._body_endoder.seq_layers.2.weight f4 [128, 128]
00000000: 2225 423d 07ee ee3c 3365 79bd 510d 973d
00000010: bf5a 46bd d548 5c3c 50c1 053d 9bf3 563d
00000020: a4cb a6bd 8c75 503e 5680 03bd 7b85 133d
00000030: 1284 b83d 9cd5 b0bd b966 273e f79e c2bd
00000040: 34b5 29bd 9aee 023c 0531 7dbd 2f5e 48be
00000050: 3fa6 2bbd 3c71 843d fce9 22be 408c d9bd
00000060: 3f31 e93c 50b5 223e 481d 323e 5f77 51bd
00000070: 898e 173c 7e42 cc3b d958 a23d 0c36 bdbd
00000080: 8d11 63bd 0ce4 a8bd a0f4 60bd 691b 48be
00000090: 8c67 3d3d 5f37 233d a7a0 51bd 291e 1e3d
000000a0: ffc6 e5bc 33a8 82bc ccaa d2bd 207a 8c3d
000000b0: 08cb 04be 86c9 973d 52fa c6bd 5fcc 5d3e
000000c0: 396c dabd 7772 54bc de41 e5bd 974e 033e
000000d0: a13e 8b3a 04af bebd 495b d4bd 06df 1ebe
000000e0: ca9f 483e 8a07 923c abbb 423d c350 803c
000000f0: a211 a63b a99a 453d ef44 d3bc 8e9e 1a3d
00000100: 41e8 c53d 7c46 33bd 7ff2 50bd d4d8 4fbd
00000110: 043b b23c 5faa 873d 7548 e1bc 87a0 ed3d
00000120: ddf0 91bd f509 d6bd 01e9 f53c e907 57bd
00000130: 8888 1abe ecee d43b 7d6c 533d 699b 513d
00000140: 9ba0 183c e6ec 7fbd bf97 b7bd cdc9 5e3d
00000150: a6ca 01bd 4706 37bd 26a9 cd3c 5df2 55bd
00000160: a8d5 f2bd 5dc1 ed3c de08 a2bd e176 40bd
00000170: 95a2 983d 2c53 85bd 0acf 033c 30db 813e
00000180: b1b0 e5bd 7001 283e 3568 12bd 1fd8 b2bd
00000190: 3142 ae3d 97fa 05be a8ba e83c b2cb cdbd
000001a0: bd78 593c 12e9 ca3d 8541 17bd 35fd d1bd
000001b0: 11db 2dbc 23ee ce3d d2cd 00bc d4b0 a43d
000001c0: e92a fdbc a347 ed3c b603 ca3a 7b64 293e
000001d0: cda7 0d3e c66e 47bc 10ca 343e 8deb 8f3d
000001e0: 6c92 363c f7f3 fcbb 18ca 3abe fcfe 2abc
000001f0: 2030 fc3d c54a ca3c 0ec5 30bc 8479 0b3c
00000200: d382 1c3d 8458 c8bd 94fe b33d b542 743d
00000210: 6fff 193c 21c1 a6bc 9941 d3bd e9da 8bbc
00000220: 9ae2 11be 48aa 0b3d 6a84 c73d 8dea d7bd
00000230: b915 aabd 462b 533d 8747 adbd b277 89bd
00000240: 5afb db3b e5e7 9c3d 5bf3 e63c 0f36 813c
00000250: caf8 48bd e625 c33d b899 f6bd 9605 a83d
00000260: e01e cfbd 382c bd3c 04a2 58bc 55c9 483d
00000270: dacf d4bb 4362 d03c 4599 203c 7389 083e
00000280: 6105 af3d af7f 34bd bb73 3d3d 0215 243e
00000290: c27a c23d 4aee 4fbc 4392 f3bd 0639 673d
000002a0: ddd4 853d a808 ac3d c40a 18bc 8cdb 1cbd
000002b0: 714b 813d a298 0c3d 8c84 15bd 0893 89bd
000002c0: 0be9 b33d 3d3c ec3c a3da 003d 79d9 aa3d
000002d0: f1f8 053e 118e 9f3d 0538 dfbd 805a fe3d
000002e0: c0c1 03bd 1052 b6bd 6856 743d 9670 0bbc
000002f0: 63ae 44bd 24fe ba3d c0da a6bd 58d4 b4bd
00000300: 8282 763d f63c 8cbc 7047 29bc ebb7 aebd
00000310: 3e7c 91bc 9cf9 abbd 2bf3 debb 03b7 07be
00000320: 3bee 25be ccb2 c23d 2ece 0d3d 69b8 b4bb
00000330: eeaf 0dbc 9344 c23a a450 99bd 8d3c 85bd
00000340: aeb6 6bbd 1e84 943d d337 8c3b cb2d d63d
00000350: 95ba c5bd 6180 b43d 7850 5a3d 6e48 e93c
00000360: b49e fdbb 2a2a d9bd ab2f 62bd 23c3 81bd
00000370: 3b59 173d 44dd be3d d9ac df3d 41ab bbbd
00000380: cbd0 1e3e 697e c3bd 799c 97bd 2d26 243d
00000390: 69b3 43be 989d 963d 1b55 c13d 990c a8bd
000003a0: 9960 03bd 6ec5 953d 4346 c63c c902 243e
000003b0: 15f6 13be 63ac a33d d233 c0bd 1032 cf3d
000003c0: 87cf a6bb db2b 7e3d 533a 863d a684 e1bd
000003d0: ca77 66bd 66df f6bd a458 b0bb d6d7 66bd
000003e0: b0ee 903d 4167 5dbd d8fb 493d 68f5 003e
000003f0: 68b9 e43d d708 343d 5692 9fbd 3dd3 643e
0.047398694 0.029166235 -0.060887527 0.07375587 -0.048426386 0.013445099 0.03265506 0.052478414
-0.0814431 0.2035734 -0.032104813 0.03601597 0.090095654 -0.08634493 0.1634778 -0.095029764
-0.041432574 0.007991457 -0.061814327 -0.19567178 -0.04190659 0.0646691 -0.1590957 -0.10622454
0.028465865 0.15889478 0.17393982 -0.05113923 0.009250292 0.0062335124 0.079271026 -0.09238824
-0.05543666 -0.082466215 -0.054920793 -0.19541706 0.046241328 0.039847728 -0.0511786 0.03860298
-0.02804899 -0.015949344 -0.10286483 0.06859231 -0.12968075 0.074114844 -0.097157136 0.21659993
-0.10665173 -0.012966744 -0.11194204 0.12822948 0.0010623523 -0.09310725 -0.10368974 -0.15514764
0.19592205 0.01782586 0.047542255 0.01566351 0.00506802 0.0482432 -0.025789706 0.037748866
0.096634395 -0.04376839 -0.051012512 -0.050743893 0.021756656 0.066242926 -0.02750037 0.11602884
-0.07126019 -0.10451118 0.030018331 -0.052497778 -0.15091145 0.0064982083 0.051617134 0.0511736
0.009315635 -0.062481783 -0.0896449 0.05439167 -0.0316874 -0.04468372 0.02510507 -0.05223309
-0.11857158 0.029022867 -0.079118475 -0.04698837 0.07452885 -0.065100044 0.008044967 0.2536254
-0.11215342 0.16406798 -0.03574391 -0.08732628 0.08508719 -0.13083874 0.028409317 -0.100486174
0.013273415 0.09907736 -0.03692772 -0.102533735 -0.0106113115 0.10104015 -0.007861571 0.0804154
-0.03090425 0.028964823 0.0015412483 0.16542237 0.13833542 -0.012172407 0.17655206 0.070273496
0.011143308 -0.0077195126 -0.18241155 -0.01043677 0.123138666 0.024693856 -0.010789169 0.008512858
0.0382107 -0.09782508 0.08788791 0.05963393 0.009399279 -0.020355763 -0.10315246 -0.017072158
-0.14246598 0.03409794 0.09742053 -0.10542784 -0.083049245 0.05155494 -0.084609084 -0.06712283
0.006713313 0.07661418 0.028192213 0.015772847 -0.04906539 0.09528713 -0.12041038 0.082041904
-0.10113311 0.023092374 -0.013222221 0.04902013 -0.0064945044 0.02543748 0.009802167 0.13333683
0.08545948 -0.04406708 0.046252947 0.16023639 0.094960704 -0.01269109 -0.118931316 0.056450866
0.06534741 0.084000885 -0.0092799105 -0.038295314 0.063132174 0.03432525 -0.03650336 -0.06717497
0.08784684 0.028837318 0.03145851 0.08342261 0.13083245 0.07790769 -0.10899357 0.12419605
-0.032167196 -0.08902371 0.059652716 -0.008510729 -0.04801787 0.09130505 -0.08147192 -0.08829564
0.060183056 -0.017118912 -0.010331973 -0.08531173 -0.017759439 -0.083972186 -0.00680389 -0.13253407
-0.16204159 0.09506759 0.034620456 -0.0055151475 -0.008647902 0.0014821462 -0.07486084 -0.0650569
-0.057547264 0.07251762 0.0042791157 0.10457953 -0.09654728 0.08813549 0.053299397 0.02847692
-0.007739866 -0.10603745 -0.05522124 -0.063360475 0.03695033 0.09319547 0.1092164 -0.091635235
0.15509336 -0.09545595 -0.07402892 0.04007547 -0.19111408 0.07354277 0.09440061 -0.08205528
-0.032074545 0.07313047 0.024203425 0.16016687 -0.14449342 0.079918645 -0.09384884 0.101169705
-0.005090657 0.062053543 0.06554093 -0.11011629 -0.056266584 -0.120543286 -0.0053816605 -0.05635818
0.07076776 -0.05405355 0.049312443 0.12593615 0.11168176 0.043953743 -0.07791583 0.22346206

network_body._body_endoder.seq_layers.2.bias f4 [128]
00000000: 0000 0000 0000 0000 0000 0000 0000 0000
00000010: 0000 0000 0000 0000 0000 0000 0000 0000
00000020: 0000 0000 0000 0000 0000 0000 0000 0000
00000030: 0000 0000 0000 0000 0000 0000 0000 0000
00000040: 0000 0000 0000 0000 0000 0000 0000 0000
00000050: 0000 0000 0000 0000 0000 0000 0000 0000
00000060: 0000 0000 0000 0000 0000 0000 0000 0000
00000070: 0000 0000 0000 0000 0000 0000 0000 0000
00000080: 0000 0000 0000 0000 0000 0000 0000 0000
00000090: 0000 0000 0000 0000 0000 0000 0000 0000
000000a0: 0000 0000 0000 0000 0000 0000 0000 0000
000000b0: 0000 0000 0000 0000 0000 0000 0000 0000
000000c0: 0000 0000 0000 0000 0000 0000 0000 0000
000000d0: 0000 0000 0000 0000 0000 0000 0000 0000
000000e0: 0000 0000 0000 0000 0000 0000 0000 0000
000000f0: 0000 0000 0000 0000 0000 0000 0000 0000
00000100: 0000 0000 0000 0000 0000 0000 0000 0000
00000110: 0000 0000 0000 0000 0000 0000 0000 0000
00000120: 0000 0000 0000 0000 0000 0000 0000 0000
00000130: 0000 0000 0000 0000 0000 0000 0000 0000
00000140: 0000 0000 0000 0000 0000 0000 0000 0000
00000150: 0000 0000 0000 0000 0000 0000 0000 0000
00000160: 0000 0000 0000 0000 0000 0000 0000 0000
00000170: 0000 0000 0000 0000 0000 0000 0000 0000
00000180: 0000 0000 0000 0000 0000 0000 0000 0000
00000190: 0000 0000 0000 0000 0000 0000 0000 0000
000001a0: 0000 0000 0000 0000 0000 0000 0000 0000
000001b0: 0000 0000 0000 0000 0000 0000 0000 0000
000001c0: 0000 0000 0000 0000 0000 0000 0000 0000
000001d0: 0000 0000 0000 0000 0000 0000 0000 0000
000001e0: 0000 0000 0000 0000 0000 0000 0000 0000
000001f0: 0000 0000 0000 0000 0000 0000 0000 0000
0.0 0.0 0.0 0.0 0.0 0.0 0.0 0.0
0.0 0.0 0.0 0.0 0.0 0.0 0.0 0.0
0.0 0.0 0.0 0.0 0.0 0.0 0.0 0.0
0.0 0.0 0.0 0.0 0.0 0.0 0.0 0.0
0.0 0.0 0.0 0.0 0.0 0.0 0.0 0.0
0.0 0.0 0.0 0.0 0.0 0.0 0.0 0.0
0.0 0.0 0.0 0.0 0.0 0.0 0.0 0.0
0.0 0.0 0.0 0.0 0.0 0.0 0.0 0.0
0.0 0.0 0.0 0.0 0.0 0.0 0.0 0.0
0.0 0.0 0.0 0.0 0.0 0.0 0.0 0.0
0.0 0.0 0.0 0.0 0.0 0.0 0.0 0.0
0.0 0.0 0.0 0.0 0.0 0.0 0.0 0.0
0.0 0.0 0.0 0.0 0.0 0.0 0.0 0.0
0.0 0.0 0.0 0.0 0.0 0.0 0.0 0.0
0.0 0.0 0.0 0.0 0.0 0.0 0.0 0.0
0.0 0.0 0.0 0.0 0.0 0.0 0.0 0.0

action_model._discrete_distribution.branches.0.weight f4 [3, 128]
00000000: 643d 28bb ab93 f53b cd1b 62bc cfb6 3f3c
00000010: fffa 963b e8a8 da3c 8be9 9eba 93dc 26bc
00000020: 92d7 2c3c 55e4 6cbb 3445 313c d1cd 8eb9
00000030: 6381 dd3b f494 3f3c 8009 fdbb 5719 e338
00000040: af55 99bb 89b4 273c 76c7 883c 8fd5 cebb
00000050: 487e 053c fba0 123c 9b50 eabb a64a 0b3c
00000060: 6501 003c 4dda 48bc 05fe 71ba 5018 50bc
00000070: 2a59 023c 45f1 d2b9 1736 fc3a 3650 2f3b
00000080: d8d2 643c e16b b9ba 92d8 1f3c 8d58 cf3b
00000090: 2be8 aabb 1561 50bb 0c34 ae3b b910 9cb5
000000a0: 838a 52bb 427d efba cafc 9fb9 6f6e d93b
000000b0: e6e9 49bc 77e7 a43c 3781 b8b9 6a36 0fbc
000000c0: c4c1 38bc 7d58 59bb 23ba 033c 125a 34bb
000000d0: 877e 26bc c8d4 10bc 45da 06bc e8c0 3d3c
000000e0: 5564 a33c 4026 613c dd7d 7c39 0579 593a
000000f0: 8763 40bc 9d39 503c 5dd3 7bbb 3b6b 6dbc
00000100: 36c1 893c cde1 27bc d3b1 903b 8f06 d9ba
00000110: 74db 93bc 48af 32bb cd67 dfb9 94d5 97bb
00000120: e366 fabb 9b3d aabb 2c7d 95bb 40b8 2fba
00000130: e722 b0b9 329a fe3b 05a9 633b a368 4dbb
00000140: 9711 df3b 22e5 c1bc b7b2 1b3c 0f58 72b8
00000150: 01ea 953c 3f2c c33b 43a6 493c 2aab 8d3c
00000160: bfa2 af3b 5270 6dbc 6be8 4f3c 0e26 903b
00000170: 59ed 1838 7bdb 013b 209d 1e3c 7b7d b839
00000180: 39c4 be3b d8e7 053c a748 16bc d309 93bb
00000190: cbcb 9d3a 44ed 0b3c 1fde 463c dd18 6a3b
000001a0: d25e ebba c524 4bbc 1731 28bb 40be 16ba
000001b0: eb8b c33b 083d f3bb 758f cc3b d3a9 8bbc
000001c0: 70c3 ebbb 80ea 5a3c 4551 943b 7a84 d53a
000001d0: dbf3 aebb 162f a9bc 189b 9a3c 1b2e 3fbc
000001e0: 6314 c2bb ff66 d0bb ab83 7d3b 9d52 15bb
000001f0: a0b5 283c a398 1abc e388 063b 279b bebb
00000200: b04e 5e3b a32e babb 37a6 283c 10b2 2e3c
00000210: 73da a1bb 0f8b a0bb aa65 8e3a 3377 6e3c
00000220: faa3 c3bb 3531 08bc 7119 88bb d848 86bc
00000230: 0292 503c 5506 b1bb 0bfe f0ba bd80 5ebb
00000240: 4f59 0f3a e7bf 09bd 3466 08ba 17e0 b13b
00000250: 2eb5 c6bc dd29 5a3b 4a6a 67bb 831f 63bb
00000260: f8d0 67bc ff71 77bb 93a0 223c 6741 8cbb
00000270: 683a 4ebb 971a 15bb 8b7a df3b 160a 21bc
00000280: dc18 0ebc 7370 4a3b 2995 b1bb 9b0a de3b
00000290: 8a24 3d3c 891a 80bc c623 2d3a 96f3 b73b
000002a0: d83a 053b 0f00 cbbc 38cf 03bc 9f74 cbb9
000002b0: 4779 b03b b7ae 9abb 7561 8c3b 1817 b0bb
000002c0: c989 0c3c 13d2 cfbc 080f da3b d2ce a73b
000002d0: 2439 423c 391a 07bb fbd4 58bb 2b99 2e3c
000002e0: e643 bf3a 607d 6c3b 6516 f73b 2ee8 84bc
000002f0: 5c19 303b eb12 2abc 2a9c 4ebb 4366 72bc
00000300: 8da2 aa3b 8f9f 1dbc 73b3 20bb ebf0 a8bb
00000310: d4de 923b 7175 46bc dd1f 90ba c8a8 693c
00000320: c76f 12bc 36b3 113b 92a4 7bbb b585 bcbc
00000330: aba8 973b 0751 263c d3ae 7a3b 068b 2fbc
00000340: 38a8 a2bb 675a 0c3c c75f 43bc 58f9 783c
00000350: 9166 833c 7f06 9fba 932a 00bc e357 4c3c
00000360: 3916 343c 7c62 813c f081 8b3b eb1b c83b
00000370: cfff 8abc a7f5 7abb bb69 f3bb 0a12 8bbb
00000380: cd82 4dba 8f3e 20bc e3bc 5abc 08fb 1abc
00000390: 33a6 a53b 9315 543c e028 363c 3f50 cfbb
000003a0: d3da 173c 5320 9ebc 4312 143b 7ba7 59bc
000003b0: ddba 69bb 2b04 d63b 8ffb be3b 9b2e bdbb
000003c0: 2260 863c cce4 b63b 9f49 de3a ffee d03b
000003d0: 5fc9 61bb d163 96bb b7df d63b 2bdd 683a
000003e0: e331 83bc 0761 11bb 7e2b 0cbb 1f97 033c
000003f0: f338 d1ba fbda 273c 987c b7bb 0bcf 15bc
-0.0025671357 0.00749441 -0.013800574 0.0117013 0.004607558 0.026691869 -0.0012124045 -0.010184425
0.010549443 -0.0036146839 0.010819722 -0.00027237696 0.006759809 0.011693228 -0.0077220798 0.000108289234
-0.0046794037 0.010235914 0.016696673 -0.0063120793 0.008147784 0.008949514 -0.007150722 0.008501684
0.0078128325 -0.012259078 -0.0009231272 -0.012701109 0.007955829 -0.0004023408 0.0019242194 0.002675069
0.013966285 -0.001414653 0.009756224 0.0063276947 -0.005215665 -0.0031796147 0.005316263 -1.1627773e-06
-0.0032126016 -0.0018271583 -0.00030515186 0.006635479 -0.012323832 0.020129902 -0.00035191487 -0.008741001
-0.011276666 -0.0033164315 0.008039984 -0.0027519506 -0.010162002 -0.0088397935 -0.00823075 0.011581637
0.019945303 0.01374203 0.0002407948 0.00082959264 -0.011742479 0.012709049 -0.0038425543 -0.014490898
0.016815763 -0.010246706 0.0044157295 -0.0016557741 -0.01804898 -0.002726512 -0.00042611212 -0.004633615
-0.0076416596 -0.005195332 -0.004562041 -0.00067031756 -0.0003359534 0.0077698464 0.0034738195 -0.0031342886
0.006807517 -0.02366883 0.009503058 -5.7779307e-05 0.018300058 0.0059562023 0.012307706 0.017293531
0.005359977 -0.014492111 0.01268969 0.0043990677 3.646067e-05 0.0019814658 0.009681016 0.00035188705
0.0058217314 0.008172952 -0.009172595 -0.004487255 0.0012038884 0.008540455 0.012137919 0.0035720386
-0.0017957336 -0.012398903 -0.0025664025 -0.00057503954 0.0059676073 -0.007423047 0.0062426873 -0.017048752
-0.007194929 0.013361573 0.0045262896 0.0016290091 -0.0053391284 -0.020652335 0.018872783 -0.011668707
-0.0059228404 -0.0063599343 0.0038683217 -0.0022784837 0.010297209 -0.0094358055 0.0020528368 -0.0058168354
0.0033921413 -0.005681829 0.010293535 0.010662571 -0.0049393713 -0.0048993896 0.0010864038 0.0145547865
-0.0059704753 -0.008312513 -0.0041534235 -0.016392156 0.0127301235 -0.005402366 -0.0018386258 -0.0033951246
0.0005468325 -0.033630278 -0.0005203218 0.005428325 -0.024256315 0.0033289113 -0.0035311156 -0.0034656234
-0.014148943 -0.0037757156 0.009925979 -0.0042802575 -0.0031467918 -0.0022751444 0.006820028 -0.009829065
-0.008672919 0.003088978 -0.0054193926 0.0067761666 0.011544356 -0.015637653 0.0006604757 0.0056137545
0.0020329263 -0.024780301 -0.00804501 -0.00038806067 0.005385551 -0.0047205347 0.0042840787 -0.0053738467
0.008577772 -0.025368726 0.006654624 0.0051210904 0.011854444 -0.0020614995 -0.003308593 0.010656635
0.0014592379 0.0036085472 0.0075405114 -0.016223993 0.0026870584 -0.010380487 -0.0031526187 -0.014794889
0.005207366 -0.009620561 -0.0024521023 -0.005155673 0.0044821296 -0.012112961 -0.0010995824 0.014261432
-0.008937783 0.0022232062 -0.0038397652 -0.023012975 0.004628261 0.010151154 0.0038251176 -0.010714298
-0.004963901 0.0085664755 -0.011924691 0.015196167 0.016040118 -0.0012132673 -0.0078226505 0.012472126
0.010991626 0.015794031 0.004257433 0.0061068437 -0.016967682 -0.0038293393 -0.0074283755 -0.004244094
-0.000783962 -0.00978054 -0.013350698 -0.009459265 0.005055213 0.012944597 0.011118144 -0.0063267048
0.00926848 -0.019302523 0.0022593893 -0.013284559 -0.0035664358 0.0065312586 0.005828328 -0.005773378
0.016403262 0.005581474 0.0016959197 0.006376147 -0.0034452302 -0.0045895358 0.0065574306 0.0008883054
-0.016014999 -0.0022183077 -0.0021388228 0.008031636 -0.0015962407 0.01024508 -0.0055995695 -0.009143601

action_model._discrete_distribution.branches.0.bias f4 [3]
00000000: 0000 0000 0000 0000 0000 0000
0.0 0.0 0.0

action_model._discrete_distribution.branches.1.weight f4 [2, 128]
00000000: e66c 033c d8b6 b5bc c9ec 34bb f839 df3b
00000010: 22a3 883a eb19 4d3a af8f 43bb ea9c 2439
00000020: 74e0 0fbb 9499 97bb d3ee 4b3a c1e3 963c
00000030: 7fad a8bb 4075 db3a 47e7 c7bc 382d df3b
00000040: 2ae2 21bc 6320 9c3c e82c 19bc 4589 b9ba
00000050: 1fa0 f03b 2f99 d7bb 4f3b 47bb d733 063c
00000060: bac2 f93b dbfb 403b fbb8 96bb 43a3 d6bb
00000070: 9895 1fbb 9bfd bfbc 64c3 40bb c32d 563c
00000080: ae54 23bb 8fca 513b 4ef2 0b3a d65b 40bc
00000090: a3fe b6bb b3af 6fbc 60e6 6b3b 6296 61bc
000000a0: d82a e03a 5faa 13bc 3a9e ed3b 9279 3cbb
000000b0: e66b 943c 0a58 ecba 7713 643c 78f4 c83b
000000c0: 400a 6a3b be42 28bc c036 3ebc 7a00 80bb
000000d0: a50d 65bb 605f 59bc a0e5 d63a cf1e d83b
000000e0: a080 d3bb 2e1c 263c af7d 003b 9a3c bc3a
000000f0: 9aeb 7bba af98 bd3b 92ef 15bb 2211 0e3c
00000100: 508c 6fbc 5786 c63b 27ff 403c 439f cdb8
00000110: 45f4 53bb 2b62 fc3a 4f7c ac3a d379 27bc
00000120: 4443 a83c fb8c 97ba e006 6abc c459 053c
00000130: a725 d0bc 49e0 a7bb 2afb f43b 2807 e23a
00000140: 32e9 033c 2b9b d33b 2ced 0fbc 4bb6 21bc
00000150: c7f3 8dbb 10e7 3bbc c282 0abc 3ff4 c6ba
00000160: a356 d4ba 8d42 f93b c2b7 583c f9a0 443b
00000170: 5d7b ccbb f240 5b3b 874b c73b 93b3 c63b
00000180: 6228 ecbb 5535 09bc 549f 0cbc 179a e8bb
00000190: 7f38 ad3b 3c30 98ba ec7c c5bb 2874 72bb
000001a0: 3d7d ddb9 ca05 b83b ce96 913b 8337 92bb
000001b0: cf34 22bb 44fd 0cbc 8b54 533c cb70 073c
000001c0: d2f4 6cbc db13 f33b 5d3b 2a3b 1b02 793c
000001d0: d529 6b3c 8504 10bc b60d 85bb ab14 2ebc
000001e0: 2edc a2bb 4f2e 0b3b 8be2 2ebb a083 503c
000001f0: 4f3d 8ab9 4d7f ffbb 97e7 f5bb 0a56 fabb
00000200: 63bc 853c 102a e63b e0af 243c 1706 37bc
00000210: 5c5a 94ba 3f22 93bc 0b9d a2ba c941 3e3b
00000220: c62c b03a 7751 73bb 27ea 683b f14a 82bb
00000230: a7d3 87bc da1e 803a 45b7 ea38 f242 eeba
00000240: 3695 85ba 6808 803c 3bf9 c63b 890e 373b
00000250: c9a7 97bb 6ed9 bd3b be5e c23b 9794 733b
00000260: 771a 0ebc 470a 1b3b f0cb 4abc 932f b73a
00000270: 9ad2 a4bb 3da0 f83b 2bd2 9a3b da6e d0ba
00000280: a11a 99bb c28d 24ba e06c 5cbc 77f7 4abc
00000290: 3f50 bfbc c5b9 e93a b73e 963b 0fa2 39bb
000002a0: 7afa e9ba 271d 523c ef5c d13b 4bcd 683a
000002b0: 9790 22bc c5e9 73bc 03b9 cf3b 9b23 5ebc
000002c0: b021 aa39 30b1 913c 06a7 45bc bfa1 4abc
000002d0: e69c babb 7aea 3abc 8f09 433b d7c6 173c
000002e0: fad1 5d3c abef b33b 533e f4bb 3ab9 b53c
000002f0: 1f09 603c a287 5f3c af6c c7bb 1da0 4cbc
00000300: 6caf 1d3b 9fd5 5cbb df89 6cbb 4b9d 18ba
00000310: 62cd 513b bc6f c6bb 17f1 833b 1fce c7bb
00000320: a3d8 113c 14bd cc3b 8154 b6bb a7a2 6f3b
00000330: 006d 36bb 90f5 dd3b 806a e63a 93b0 85bb
00000340: 6fe8 c4ba 5a58 da3b 8c9c 033b 5b10 afba
00000350: 279f 2a3c 0361 813a 8c0c 95bc 4f48 26bc
00000360: 6b7c cfbb 73cc 4d3c 534d 283c 6555 eb3b
00000370: 573b b2ba a136 be3b 3783 5d3c 38ac 18bc
00000380: f298 14bc 9b8f ef3b 33f0 abba 2a14 583b
00000390: bdc9 b9ba e89d 383b e5df 4fbb efe9 babb
000003a0: 948d 1d3b 97cc 39bc 03ad 0fba 32da 95ba
000003b0: 3456 903b 9375 a839 0746 4a3c 3735 453b
000003c0: cf78 3dbb 6abe 6abb 4b58 e83c 3877 513b
000003d0: ad3e 7eba 7af7 93bb ef45 0abb 0462 4cbc
000003e0: c515 c23b b713 a63a 9f9a 893b e0e3 48bb
000003f0: d97f 963b 3567 ffbb d7fb 04bc 287c 6dba
0.008021569 -0.022181913 -0.0027606955 0.0068123303 0.0010424594 0.00078239915 -0.002984028 0.00015698714
-0.0021953853 -0.0046264622 0.0007779423 0.018419148 -0.0051476355 0.0016743317 -0.024402274 0.0068108104
-0.009880582 0.019058412 -0.009349085 -0.0014155289 0.0073433067 -0.00657954 -0.003040034 0.0081910705
0.00762209 0.0029446993 -0.004599688 -0.006550224 -0.002435064 -0.023436358 -0.0029413337 0.013072434
-0.00249223 0.0032011603 0.00053385354 -0.011740645 -0.0055845543 -0.014629292 0.0035995468 -0.013768764
0.0017102612 -0.009012788 0.007251528 -0.0028758985 0.018117856 -0.0018031609 0.013920656 0.0061326586
0.0035711676 -0.010269819 -0.011609733 -0.003906307 -0.003495076 -0.013267368 0.0016395338 0.0065954695
-0.0064545423 0.0101385545 0.0019606163 0.0014361322 -0.00096099975 0.0057860236 -0.002287839 0.008671077
-0.014620855 0.006058495 0.011779583 -9.8048265e-05 -0.003234164 0.001925533 0.0013159605 -0.010221916
0.020539887 -0.0011562401 -0.014283866 0.008139078 -0.025408579 -0.0051231724 0.00747623 0.0017244564
0.008051204 0.0064577064 -0.0087845735 -0.009870122 -0.004332039 -0.011468664 -0.008454027 -0.0015178992
-0.0016200136 0.0076068104 0.013227405 0.0030003174 -0.006240292 0.0033455458 0.0060820016 0.0060638874
-0.0072069624 -0.008374532 -0.008582909 -0.007098447 0.005286276 -0.0011611055 -0.0060268547 -0.0036995504
-0.00042245715 0.0056159245 0.004443026 -0.004462184 -0.0024750715 -0.008605305 0.012898575 0.008266638
-0.014462667 0.0074181384 0.0025975325 0.015198256 0.014353235 -0.00879014 -0.0040604724 -0.010625045
-0.004970095 0.002123732 -0.0026685323 0.012726694 -0.0002636709 -0.007797158 -0.0075044143 -0.007639651
0.016325181 0.007024057 0.0100516975 -0.0111708855 -0.0011318433 -0.017960666 -0.0012406422 0.002903091
0.0013441078 -0.0037127414 0.0035539956 -0.003976219 -0.016580416 0.000977482 0.00011192126 -0.001817791
-0.0010191563 0.015629008 0.006072191 0.0027932248 -0.004628156 0.005793742 0.0059317043 0.0037167424
-0.008673302 0.0023657249 -0.012377724 0.001397597 -0.0050299885 0.0075874613 0.004724761 -0.0015902177
-0.004672364 -0.0006277227 -0.013453692 -0.012388102 -0.023353694 0.0017831853 0.004585113 -0.0028325354
-0.0017851137 0.012824333 0.0063892524 0.00088806887 -0.009922168 -0.014887278 0.006339194 -0.013558294
0.00032450026 0.017784685 -0.012063747 -0.012367665 -0.0056949733 -0.011408443 0.0029760336 0.009263716
0.013538832 0.005491217 -0.0074537187 0.02218305 0.01367405 0.013643177 -0.006085954 -0.012489346
0.0024060858 -0.0033696664 -0.003609292 -0.00058217783 0.0032013287 -0.0060558002 0.004026543 -0.0060975696
0.008901748 0.006248126 -0.005564273 0.0036565454 -0.0027835965 0.006773658 0.0017579347 -0.004079887
-0.0015022884 0.0066633644 0.0020082323 -0.0013356315 0.010413921 0.0009870831 -0.01819446 -0.010149076
-0.0063319704 0.0125609515 0.010272342 0.0071818107 -0.0013598007 0.005804852 0.013520054 -0.009318404
-0.009069668 0.0073108203 -0.001311785 0.0032971003 -0.0014174503 0.0028170291 -0.0031719145 -0.0057041566
0.0024040686 -0.011340282 -0.0005480798 -0.0011432825 0.0044048075 0.00032131057 0.012345797 0.0030091533
-0.002891112 -0.0035819062 0.028362414 0.003196193 -0.00096986705 -0.0045155855 -0.0021098813 -0.012474541
0.0059230053 0.001267067 0.0041993405 -0.0030653402 0.0045928773 -0.0077942857 -0.008116684 -0.0009059333

action_model._discrete_distribution.branches.1.bias f4 [2]
00000000: 0000 0000 0000 0000
0.0 0.0

action_model._discrete_distribution.branches.2.weight f4 [2, 128]
00000000: b3e4 1dbc c41e 2ebc 9053 7cbb d25f fd3b
00000010: a5b1 a73c ca75 513c 151a 5e3c 468e 053b
00000020: c0e5 933b 97f7 583b cdc2 d4bb e555 fcbb
00000030: 5bfe 3a39 fa3e 483c cb6e f7ba f34b cdb7
00000040: 7fbc 2bbb dbaf 4cbc 1b4e eb3b 8493 85bb
00000050: 8e27 073c 0b2d 663b 2b1d 5dbb 4b28 5fbc
00000060: 57d8 5bbb 00b0 683c eb30 dc3b 4596 ec3a
00000070: b5cd 71b9 8fe7 02bc 645b b33b 5b23 9a3a
00000080: c0af 9c3b ab39 68bb 103a c4bb 7461 8d3b
00000090: c689 97ba f054 55bc 200d de3b b884 0c3b
000000a0: da93 dabb 6509 96bc 25be d9ba c5b7 c4b9
000000b0: 1f32 e03b bfcd c4bb 57b5 363c 586d d23b
000000c0: 1bd6 afba 9533 fabb 91f0 113c 8591 673c
000000d0: d08d 78ba caa1 acbb ca77 653c 5a08 a33b
000000e0: 104b bfb9 487b 443c f77c 4a3c 524c 4b3c
000000f0: 3b12 033c 7fc3 0a3c bbac 6ebb a79a 963b
00000100: 480e cd3a 4cb8 80bb 2b41 14ba 2ddb 98bb
00000110: 3f2b 033b afef 803b 854f b83b bd61 fc39
00000120: b291 76b8 357a 39bb 8adc 05bc 6036 423c
00000130: 97ad 333c 9ae7 24bb 103a 15bc 7d9d 53bc
00000140: 3847 d5bb afad c9bb cf5f 0a3c 55ff 093c
00000150: 2a25 063c a376 bcb9 ca4f 6b3c 8d3b 123b
00000160: f998 233c 545f c4bb 3b87 b5ba 02bb 96ba
00000170: 8dd6 aaba fb09 9bbb a2ab e43b ebd4 ebb8
00000180: 22b7 3cbc cdec ef3b bf9b 82bc 6270 c3bb
00000190: 5061 063c 5baa 163c 68f9 89bb 7f35 833c
000001a0: 9ac4 86bc 7f80 4bbc ce8f 1a3b 8ec7 0d3c
000001b0: 01cc 093c 0110 88bb 2b54 013a 4a7f bf3b
000001c0: f21f 3abc c981 b63b 67a7 943c 6701 4e3b
000001d0: 5bcb 8ebc 99b0 c9ba 33ad 52bb 4188 a839
000001e0: 5ff7 1a3c 1304 a3bb eb99 50bb 6284 22bc
000001f0: 0313 fb3b cfe3 c2ba 40ff b63a 1cde cb3b
00000200: 4448 0cbc 39c4 b3b9 74c9 16bc aebf 1abc
00000210: bf28 293c 1d97 59bc 0bd3 d13a 7ba2 733c
00000220: 36bb b5bb a8d0 f8bb 2f05 a23b f649 3d3c
00000230: 77d0 163a f7de 1c3c 552f d2bb c862 f53b
00000240: e73a 10bc bd87 e4bb e886 bb3b f11f 243a
00000250: 3fb6 96bc e677 373c c509 d13b d8c0 953c
00000260: 3c4b 8fbc 3e1d b1ba 1dec 443c 4740 0bb9
00000270: e324 203c 8606 3bbb 5d24 a6bb 839f d73b
00000280: 535c aa3c 636c 2cbc 3e2d 45bc 3198 31bc
00000290: e649 81bc 4aa9 433c ca29 36bc f385 e2bb
000002a0: afa9 1bbc facc 743c 0ed7 30bc d8eb 8fbb
000002b0: d01b 7cbb 7fce 0cbb eb53 d3bc b158 c33b
000002c0: 1f90 c8bb 5cfb 2d39 8ac2 b9bb dab2 183c
000002d0: 58d6 643c a88b 4eb9 6f3a 933c 9bc0 75bb
000002e0: 757a af3b 8b80 673c db87 3ebc f8ae 06bc
000002f0: 32ad fb39 d502 383c cfb1 44bc a2f5 d53c
00000300: 6008 1fbc 44b1 04bc df36 46bc c8f8 4e39
00000310: 32ac e13b 7a2d 783b 4d0e d3bb eb1e dc3b
00000320: 72ca dd3b 1745 1dbc d21d 293a 12ad 0b3c
00000330: d6ba 953c 1b89 b0bb 91fe 31bc 336d 47bc
00000340: 94e7 953b 8dad c53b f336 2abc cbce aa3b
00000350: 538a 1b3c b57d 5f3c 7302 65bc 944a 1bbc
00000360: 8fc5 e73b 729e d7ba 097e a23b 9dda 113c
00000370: e7c2 6cbc 2607 003c c5c4 eabb f117 923c
00000380: 49fd bdbb b385 153c 649c 94bc 9b71 21bc
00000390: 4b6f 4d3b 9bd8 b13b c166 a63b 8a3a d5bb
000003a0: 4b87 8abc 60f9 ccbb f898 d53b eaa0 5fbc
000003b0: 36da 33bc 1f4b 083b 64e8 0a3c cb34 f93b
000003c0: 0f39 a1bb 6bf1 853b cd9c 793a 90a3 a43a
000003d0: 10e0 c83c f5b7 37bb 55b7 1abc 5163 b73b
000003e0: 1233 5f3c 660d c93a 2ab7 303b 4faa 213c
000003f0: 3f7f 37bb 4624 2eba 1728 6dbc 0174 223c
-0.009637046 -0.010627452 -0.0038501956 0.00773237 0.02047045 0.012784431 0.013556023 0.002037899
0.0045134723 0.003310656 -0.0064929486 -0.007700669 0.00017833097 0.012222046 -0.0018877623 -2.4473271e-05
-0.0026204882 -0.012493099 0.0071809418 -0.004076423 0.008249177 0.0035122063 -0.003373931 -0.013620446
-0.0033545697 0.014202118 0.0067196987 0.0018050155 -0.00023060183 -0.007989778 0.005473541 0.0011759804
0.004781693 -0.0035434763 -0.005988367 0.004314596 -0.0011561445 -0.013020739 0.006776467 0.0021441411
-0.0066704573 -0.018315027 -0.0016612454 -0.00037520952 0.0068419124 -0.006005972 0.011151633 0.006421726
-0.0013415249 -0.0076355436 0.008907453 0.014133816 -0.0009481581 -0.00526831 0.014005611 0.004975361
-0.00036486285 0.011992283 0.0123588955 0.012408333 0.007999952 0.008469461 -0.0036418873 0.0045960727
0.0015644515 -0.00392822 -0.0005655463 -0.0046647997 0.002001479 0.0039348225 0.005624714 0.00048138006
-5.878666e-05 -0.00283016 -0.008170256 0.011853784 0.01096668 -0.002516246 -0.009108081 -0.012915966
-0.006508734 -0.006154738 0.008445694 0.008422692 0.008187572 -0.00035946546 0.014362285 0.0022313327
0.009985202 -0.0059928093 -0.0013849506 -0.0011499824 -0.0013033912 -0.0047314144 0.006978468 -0.00011245332
-0.011518272 0.00732193 -0.015943406 -0.005964325 0.008201912 0.009195889 -0.0042106397 0.01601672
-0.016451169 -0.012420773 0.002358425 0.008653535 0.008410455 -0.0041522984 0.00049335015 0.0058440315
-0.011360155 0.005569671 0.01814623 0.0031433941 -0.017430952 -0.0015387713 -0.0032146692 0.00032144974
0.009458392 -0.004974851 -0.0031830024 -0.009919258 0.0076621785 -0.0014868918 0.0013961568 0.006221546
-0.008562151 -0.00034287738 -0.009203304 -0.009445114 0.010324656 -0.013280657 0.001600833 0.014870281
-0.005545999 -0.007593233 0.0049444656 0.011553278 0.00057531096 0.009574643 -0.006414334 0.0074885823
-0.008803106 -0.006974189 0.005722869 0.0006260863 -0.018397449 0.01119802 0.0063793384 0.018280432
-0.01749193 -0.0013512743 0.012019184 -0.00013280018 0.0097744195 -0.0028537824 -0.005070253 0.0065802946
0.020795977 -0.010523888 -0.012034712 -0.010839508 -0.015782308 0.011942217 -0.011118362 -0.0069129406
-0.009500905 0.014941448 -0.0107934605 -0.0043921284 -0.0038468726 -0.0021485386 -0.025796851 0.0059615006
-0.006120696 0.00016592204 -0.005668943 0.009319985 0.013967119 -0.00019697717 0.0179722 -0.0037498835
0.005355174 0.014129768 -0.01162907 -0.008220427 0.0004800349 0.011231144 -0.0120052835 0.026118103
-0.009706587 -0.008098904 -0.012098043 0.00019738369 0.0068869824 0.0037868903 -0.006440914 0.006717553
0.006768518 -0.009598992 0.0006451282 0.00852515 0.018277567 -0.005387438 -0.010863916 -0.012172031
0.0045747254 0.0060326518 -0.0103890775 0.00521264 0.009493428 0.013640811 -0.013977635 -0.00947823
0.0070731114 -0.0016450419 0.004958872 0.008902219 -0.014450765 0.007814204 -0.00716457 0.017833682
-0.005798016 0.009126115 -0.01814098 -0.009853746 0.0031346853 0.0054274327 0.005078167 -0.0065072225
-0.016910216 -0.0062553138 0.0065184794 -0.013649205 -0.0109773185 0.0020796729 0.008478258 0.0076051704
-0.004920132 0.004087617 0.00095219613 0.0012560952 0.024520904 -0.002803323 -0.009443124 0.0055965562
0.013623016 0.0015339076 0.0026964643 0.009867265 -0.0027999429 -0.00066429784 -0.01447489 0.009915353

action_model._discrete_distribution.branches.2.bias f4 [2]
00000000: 0000 0000 0000 0000
0.0 0.0
