results/ppo/Player Behaviour/Player Behaviour-3584.onnx (onnx, 76307 bytes, 10 tensors)

discrete_action_output_shape f4 [1, 2]
3.0 2.0
00000000: 0000 4040 0000 0040

network_body._body_endoder.seq_layers.0.weight f4 [128, 5]
0.63008535 -0.5902103 0.2045632 0.7721645 0.83159083 0.7514324 0.10163812 -0.16081557
-0.30895624 -0.03253014 -0.23011865 -0.6512853 0.6974362 -0.3898953 -0.8032667 -0.19160284
0.31245935 -0.080099605 -0.29495865 0.05856876 0.12632951 0.74512553 0.1810533 -1.1660795
0.1738268 0.3526361 0.367873 -0.39588428 0.07561827 0.26973194 -0.52277267 0.22486134
0.24716982 0.0303597 0.09244746 -0.38038093 1.2361546 -0.40441105 0.18290542 -0.10786134
-0.40629858 -0.23055428 0.47960255 -0.26998374 -0.2852664 -0.10940865 -0.15192439 -0.26935223
-0.56761307 -0.060792796 0.24234058 0.8594998 -0.57496595 0.5823873 0.16097705 -0.194329
0.37284273 0.12607124 -0.05605122 0.35130188 -0.48898014 0.520584 -0.25025278 -0.1872213
-0.026363378 -0.24285473 -0.08785153 0.20407899 0.63664806 -0.3618274 -0.61641234 -0.54370564
-0.038081642 -0.42594078 -0.019852728 -0.41172472 0.021130912 0.91009516 -0.05890749 0.018477973
-0.40451905 -0.082249165 0.24994293 0.0024524895 0.57416475 0.6788406 0.5011654 0.06116621
-0.008231872 0.57069635 -0.033266764 0.3523519 0.18920845 -0.5155193 0.044820108 0.12279311
0.4515003 0.11507 0.4020263 -0.3911288 0.038464792 0.46869177 -0.19181384 -0.029138178
0.18690921 -0.44847947 -0.3693089 0.045538723 -0.47221628 -0.20713995 -0.62719744 0.49611393
0.62077856 1.09441 0.22844844 0.46243966 -0.59757614 -0.3748057 0.34106645 0.6114906
0.32001853 0.36409354 0.4665353 0.4422187 0.34287322 0.3918914 0.13575268 0.28356308
-0.6161829 -0.26412845 0.8871201 0.18103097 -0.6594128 -0.8096261 0.18431073 -0.33875158
0.35646033 0.47910994 0.22596689 0.04177416 -0.31609222 0.056175042 0.49276072 -0.72106826
-0.857382 -0.22980231 -0.36739805 -0.11400805 -0.4741305 -0.63377464 0.08903331 -0.59011877
-0.075464234 0.4081005 0.26487967 0.108778626 -0.010142996 0.4551968 0.62051296 0.62690103
-0.031640302 -0.17602901 -0.4257744 0.31661248 0.36939356 -0.94275004 0.21128006 0.15453832
0.47963685 -0.28398526 0.4562658 0.6424855 -0.12927535 0.20108874 -0.55605966 -0.045050908
-0.8724518 -0.3984254 -0.09539829 -0.59628826 -0.14691453 0.026804863 0.51458687 1.1920795
-0.51793915 0.41151735 -0.122505054 -0.5182427 0.31833076 0.27298334 -0.7152664 -0.5465856
0.26810718 0.2961761 0.5048029 0.40097234 0.42569494 -0.7858684 -0.7671908 0.10665347
0.33212903 -0.8061639 -0.13985515 0.088977374 -0.16354834 -0.31954813 -0.39375257 -0.46425563
0.51503587 -0.041656014 0.15360016 -0.030192723 -0.69297814 -0.08790819 -0.12319812 -0.16853932
-0.5873017 -0.31709537 -0.4108726 -0.72019035 0.16253471 0.275901 0.20370135 0.21440396
-0.62054175 0.036173385 0.03352047 -0.34739262 0.39945263 -0.2334861 -0.5686915 -0.026113296
0.29546672 0.13032167 -1.035848 -0.15665731 -0.25941727 -0.12529549 -0.41403127 -0.5033719
0.3349461 0.0036923 -0.66823864 -0.064240426 -0.5593184 -0.40328747 -0.29213035 0.013288827
-0.02305931 0.34471008 0.14866662 0.13546398 -0.17291537 -0.023931742 -0.6529137 0.08521921
00000000: 464d 213f 0618 17bf 0479 513e 93ac 453f
00000010: 23e3 543f e05d 403f a627 d03d d6ac 24be
00000020: 832f 9ebe 533e 05bd 39a4 6bbe a2ba 26bf
00000030: 2e8b 323f 5ba0 c7be e3a2 4dbf 8933 44be
00000040: acfa 9f3e 430b a4bd d204 97be cce5 6f3d
00000050: 865c 013e 8cc0 3e3f 0966 393e 1842 95bf
00000060: a7ff 313e b88c b43e da59 bc3e 58b1 cabe
00000070: c0dd 9a3d 4e1a 8a3e 6ed4 05bf 0d42 663e
00000080: 161a 7d3e e8b4 f83c 1855 bd3d 4ac1 c2be
00000090: 503a 9e3f f70e cfbe 8f4b 3b3e 68e6 dcbd
000000a0: 5e06 d0be 6c16 6cbe 778e f53e 4f3b 8abe
000000b0: 700e 92be a411 e0bd 1192 1bbe 89e8 89be
000000c0: 174f 11bf de01 79bd 2128 783e 2e08 5c3f
000000d0: f830 13bf 5617 153f 2bd7 243e 2efe 46be
000000e0: 3ee5 be3e d218 013e f795 65bd d7dd b33e
000000f0: 9b5b fabe fe44 053f 2221 80be f1b6 3fbe
00000100: 03f8 d7bc e9ae 78be 81eb b3bd 15fa 503e
00000110: 5efb 223f 7141 b9be 33cd 1dbf 4b30 0bbf
00000120: 7ffb 1bbd e914 dabe 30a2 a2bc 95cd d2be
00000130: bc1a ad3c fffb 683f fb48 71bd 1e5f 973c
00000140: 1f1d cfbe 4072 a8bd 0af1 7f3e f2b9 203b
00000150: 76fc 123f 7fc8 2d3f 604c 003f 6b89 7a3d
00000160: f9de 06bc 2819 123f bb42 08bd 7867 b43e
00000170: dcbf 413e 13f9 03bf 4a95 373d f47a fb3d
00000180: 0c2b e73e d2a9 eb3d 64d6 cd3e 0942 c8be
00000190: 428d 1d3d 5ef8 ef3e d96a 44be 30b3 eebc
000001a0: 2165 3f3e 1a9f e5be 0e16 bdbe d086 3a3d
000001b0: 55c6 f1be 7f1c 54be 0390 20bf a502 fe3e
000001c0: 58eb 1e3f a015 8c3f 63ee 693e e4c4 ec3e
000001d0: c0fa 18bf 88e6 bfbe 43a0 ae3e a68a 1c3f
000001e0: 78d9 a33e 786a ba3e b7dd ee3e 7d6a e23e
000001f0: 148d af3e fda5 c83e c002 0b3e 2e2f 913e
00000200: 2abe 1dbf d83b 87be 4e1a 633f 2f60 393e
00000210: 47cf 28bf a843 4fbf f4bb 3c3e d970 adbe
00000220: f881 b63e e64d f53e dd63 673e 621b 2b3d
00000230: d7d6 a1be cd17 663d 224b fc3e ee97 38bf
00000240: 637d 5bbf 4c51 6bbe 991b bcbe 0d7d e9bd
00000250: 3cc1 f2be 0e3f 22bf 1957 b63d 0612 17bf
00000260: fe8c 9abd 8cf2 d03e 4f9e 873e 54c7 de3d
00000270: cf2e 26bc 8e0f e93e f0d9 1e3f 967c 203f
00000280: 4399 01bd f340 34be 1aff d9be 081b a23e
00000290: 2721 bd3e 1158 71bf cd59 583e 4b3f 1e3e
000002a0: f692 f53e 8466 91be ac9b e93e ee79 243f
000002b0: c260 04be 35ea 4d3e ed59 0ebf 4d87 38bd
000002c0: 0059 5fbf 6afe cbbe 2e60 c3bd 59a6 18bf
000002d0: c370 16be df95 db3c f7bb 033f 1096 983f
000002e0: a997 04bf 67b2 d23e eee3 fabd 8eab 04bf
000002f0: 40fc a23e 79c4 8b3e b31b 37bf 09ed 0bbf
00000300: 5845 893e 65a4 973e c33a 013f 3f4c cd3e
00000310: b0f4 d93e ac2e 49bf 9e66 44bf 226d da3d
00000320: d10c aa3e c260 4ebf 3036 0fbe c539 b63d
00000330: 3779 27be d09b a3be f099 c9be eab2 edbe
00000340: 64d9 033f 7f9f 2abd 5c49 1d3e bb56 f7bc
00000350: 0467 31bf 3609 b4bd 4c4f fcbd 9295 2cbe
00000360: 6759 16bf 535a a2be e55d d2be 655e 38bf
00000370: 806f 263e e542 8d3e 1697 503e b68c 5b3e
00000380: d3db 1ebf 8b2a 143d c34c 093d 72dd b1be
00000390: 0e85 cc3e fb16 6fbe c495 11bf 8deb d5bc
000003a0: 6a47 973e 0b73 053e ab96 84bf c66a 20be
000003b0: 57d2 84be 764d 00be e8fb d3be fbdc 00bf
000003c0: 0e7e ab3e 84fa 713b b011 2bbf 7c90 83bd
000003d0: 7e2f 0fbf b27b cebe 1c92 95be 61b9 593c
000003e0: e1e6 bcbc d77d b03e 103c 183e 12b7 0a3e
000003f0: ba10 31be 800c c4bc 5a25 27bf 6987 ae3d

network_body._body_endoder.seq_layers.0.bias f4 [128]
0.0 0.0 0.0 0.0 0.0 0.0 0.0 0.0
0.0 0.0 0.0 0.0 0.0 0.0 0.0 0.0
0.0 0.0 0.0 0.0 0.0 0.0 0.0 0.0
0.0 0.0 0.0 0.0 0.0 0.0 0.0 0.0
0.0 0.0 0.0 0.0 0.0 0.0 0.0 0.0
0.0 0.0 0.0 0.0 0.0 0.0 0.0 0.0
0.0 0.0 0.0 0.0 0.0 0.0 0.0 0.0
0.0 0.0 0.0 0.0 0.0 0.0 0.0 0.0
0.0 0.0 0.0 0.0 0.0 0.0 0.0 0.0
0.0 0.0 0.0 0.0 0.0 0.0 0.0 0.0
0.0 0.0 0.0 0.0 0.0 0.0 0.0 0.0
0.0 0.0 0.0 0.0 0.0 0.0 0.0 0.0
0.0 0.0 0.0 0.0 0.0 0.0 0.0 0.0
0.0 0.0 0.0 0.0 0.0 0.0 0.0 0.0
0.0 0.0 0.0 0.0 0.0 0.0 0.0 0.0
0.0 0.0 0.0 0.0 0.0 0.0 0.0 0.0
00000000: 0000 0000 0000 0000 0000 0000 0000 0000
00000010: 0000 0000 0000 0000 0000 0000 0000 0000
00000020: 0000 0000 0000 0000 0000 0000 0000 0000
00000030: 0000 0000 0000 0000 0000 0000 0000 0000
00000040: 0000 0000 0000 0000 0000 0000 0000 0000
00000050: 0000 0000 0000 0000 0000 0000 0000 0000
00000060: 0000 0000 0000 0000 0000 0000 0000 0000
00000070: 0000 0000 0000 0000 0000 0000 0000 0000
00000080: 0000 0000 0000 0000 0000 0000 0000 0000
00000090: 0000 0000 0000 0000 0000 0000 0000 0000
000000a0: 0000 0000 0000 0000 0000 0000 0000 0000
000000b0: 0000 0000 0000 0000 0000 0000 0000 0000
000000c0: 0000 0000 0000 0000 0000 0000 0000 0000
000000d0: 0000 0000 0000 0000 0000 0000 0000 0000
000000e0: 0000 0000 0000 0000 0000 0000 0000 0000
000000f0: 0000 0000 0000 0000 0000 0000 0000 0000
00000100: 0000 0000 0000 0000 0000 0000 0000 0000
00000110: 0000 0000 0000 0000 0000 0000 0000 0000
00000120: 0000 0000 0000 0000 0000 0000 0000 0000
00000130: 0000 0000 0000 0000 0000 0000 0000 0000
00000140: 0000 0000 0000 0000 0000 0000 0000 0000
00000150: 0000 0000 0000 0000 0000 0000 0000 0000
00000160: 0000 0000 0000 0000 0000 0000 0000 0000
00000170: 0000 0000 0000 0000 0000 0000 0000 0000
00000180: 0000 0000 0000 0000 0000 0000 0000 0000
00000190: 0000 0000 0000 0000 0000 0000 0000 0000
000001a0: 0000 0000 0000 0000 0000 0000 0000 0000
000001b0: 0000 0000 0000 0000 0000 0000 0000 0000
000001c0: 0000 0000 0000 0000 0000 0000 0000 0000
000001d0: 0000 0000 0000 0000 0000 0000 0000 0000
000001e0: 0000 0000 0000 0000 0000 0000 0000 0000
000001f0: 0000 0000 0000 0000 0000 0000 0000 0000

network_body._body_endoder.seq_layers.2.weight f4 [128, 128]
0.09994519 -0.030292481 -0.14415547 0.014770394 0.10019568 -0.106132425 -0.0035925535 0.074229136
-0.03969933 -0.006854231 0.012150882 -0.07608534 -0.09182683 -0.04367473 -0.06202229 -0.045415506
0.1304785 0.021990681 -0.060551364 0.010808171 0.08608874 0.0013547891 -0.1253441 0.012646389
0.009338825 -0.1575799 -0.017533574 -0.047052205 0.057193663 -0.06163864 -0.07065397 -0.11055829
-0.06165394 0.106251806 -0.0658697 0.032140583 -0.01889968 0.007642808 0.062086564 -0.033270314
0.0735482 -0.043806765 0.0076879235 0.039397027 0.10965275 0.015554781 0.079275556 0.17950463
0.09703641 0.009392332 0.19307494 0.026066191 0.18607628 -0.04428648 -0.12962556 0.10149193
-0.06263117 0.022610549 0.09261144 -0.078630246 -0.13678834 -0.036814135 -0.05932837 0.14727485
0.0555459 0.083861314 -0.098695196 0.049745787 0.08914118 0.08421415 -0.014036946 0.12959613
0.020902678 -0.006585492 -0.06968666 -0.03320841 -0.014451914 -0.07114376 -0.09186639 0.08310432
-0.0389171 -0.010633422 -0.01582155 0.052418113 0.041672017 -0.07259772 0.09820383 -0.021870319
0.076275475 -0.027025554 -0.034541 -0.116587915 -0.09776675 -0.03332752 0.03072418 0.058926355
-0.003914432 -0.051424924 0.04654246 -0.17159885 -0.07779429 0.070405506 -0.16928975 0.062279332
0.20426759 0.10943882 -0.078414686 -0.0054481793 0.06953384 0.037008308 -0.07983241 -0.054648645
-0.06171246 -0.044850927 0.05721933 0.1292173 -0.025174899 0.14813927 -0.010000089 -0.037599903
-0.064301655 -0.23401919 -0.092462264 -0.11109498 0.102226935 -0.10056892 -0.000672694 0.029327238
-0.0021633364 0.12461938 -0.06042626 -0.11592147 -0.037781484 -0.10762027 -0.055261586 -0.057289936
-0.054718047 -0.050542045 0.041074425 -0.012589747 0.1507461 0.012862416 -0.010670214 0.105111375
0.049870227 0.121115625 -0.038649652 0.0057907887 -0.007573724 -0.16096354 0.12760894 -0.060064178
-0.1189913 -0.12892802 -0.03707725 0.024816107 -0.05576891 0.10338193 -0.119658746 -0.020925015
-0.049118225 0.053322744 -0.12748948 -0.017967401 -0.023957033 -0.03022295 -0.021268953 0.028724479
-0.055549994 0.049774606 0.14317045 0.04173836 0.13775069 -0.06063557 -0.052542035 0.010445505
-0.07069593 -0.05734296 -0.006424149 0.05953659 0.19101031 0.05310926 0.039019063 0.24035941
0.01298368 0.07623559 -0.027823793 -0.033130888 -0.106836125 0.13869283 -0.04036758 0.09704949
-0.08319449 0.16830088 0.10288902 0.006518678 -0.10576194 0.021958545 -0.18126123 -0.26644272
0.0045672236 0.13363728 0.14936334 0.047991715 -0.0075584846 0.04716423 0.0770871 0.060542993
-0.17716318 0.0847762 0.040923223 0.033797182 -0.0644063 -0.07562089 0.10920721 0.05586052
0.0898166 0.02626245 0.052636854 0.10858192 0.049367998 0.0054794457 0.10116904 0.011208487
-0.0810925 -0.1035061 0.15997879 -0.0344865 0.025683772 0.11083343 0.07687476 0.014853261
0.085710034 0.011684201 -0.073181115 -0.16115032 -0.09853434 0.13897966 0.047654554 -0.016461248
0.010537215 -0.06960484 0.009973807 0.034979116 -0.068246976 -0.043727305 0.101435974 0.037711617
0.06790894 0.07678262 -0.07688658 -0.091962926 0.038199812 0.068764746 -0.0909256 0.066474564
00000000: 10b0 cc3d f027 f8bc 7e9d 13be 86ff 713c
00000010: 6533 cd3d f55b d9bd 0c71 6bbb 7205 983d
00000020: c49b 22bd 7599 e0bb 7e14 473c a1d2 9bbd
00000030: b40f bcbd 46e4 32bd 160b 7ebd 9c05 3abd
00000040: 289c 053e cd25 b43c b504 78bd c114 313c
00000050: 4b4f b03d 2e93 b13a 345a 00be cd32 4f3c
00000060: df01 193c a05c 21be 92a2 8fbc d0b9 40bd
00000070: e743 6a3d cc78 7cbd 07b3 90bd 626c e2bd
00000080: d788 7cbd 8c9a d93d b1e6 86bd d8a5 033d
00000090: 80d3 9abc 8570 fa3b 7b4e 7e3d 7446 08bd
000000a0: 70a0 963d b96e 33bd faea fb3b c75e 213d
000000b0: 9f91 e03d 7bd9 7e3c 395b a23d 10d0 373e
000000c0: 06bb c63d 4ce2 193c 70b5 453e c488 d53c
000000d0: c88a 3e3e bd65 35bd 90bc 04be 00db cf3d
000000e0: c544 80bd c239 b93c 11ab bd3d e508 a1bd
000000f0: 3e12 0cbe 6bca 16bd 4e02 73bd 38cf 163e
00000100: 1984 633d 7bbf ab3d b520 cabd 3dc2 4b3d
00000110: a78f b63d 7878 ac3d 38fb 65bc d9b4 043e
00000120: 183c ab3c 1ccb d7bb e1b7 8ebd 8b05 08bd
00000130: b8c7 6cbc d2b3 91bd 7224 bcbd 9932 aa3d
00000140: 8967 1fbd ce37 2ebc 329c 81bc 60b4 563d
00000150: 47b0 2a3d 1dae 94bd 171f c93d 6229 b3bc
00000160: 5136 9c3d b264 ddbc dd7a 0dbd a5c5 eebd
00000170: ef39 c8bd 7082 08bd 47b1 fb3c c35c 713d
00000180: a344 80bb f1a2 52bd 4ea3 3e3d 9cb7 2fbe
00000190: 9d52 9fbd c330 903d 4b5a 2dbe 9d18 7f3d
000001a0: 862b 513e 7621 e03d e197 a0bd a486 b2bb
000001b0: c267 8e3d 0696 173d 2d7f a3bd 42d7 5fbd
000001c0: 34c6 7cbd 9bb5 37bd d15e 6a3d 8a51 043e
000001d0: 973b cebc d2b1 173e 6ad7 23bc 5b02 1abd
000001e0: 96b0 83bd baa2 6fbe db5c bdbd c485 e3bd
000001f0: 5b5c d13d 14f7 cdbd bb57 30ba ad3f f03c
00000200: c3c6 0dbb 7238 ff3d 8781 77bd 3c68 edbd
00000210: c2c0 1abd 0468 dcbd f959 62bd daa8 6abd
00000220: 0820 60bd 2d05 4fbd a83d 283d 3a45 4ebc
00000230: 305d 1a3e e2bc 523c 1fd2 2ebc a244 d73d
00000240: b944 4c3d 780b f83d 194f 1ebd a8c0 bd3b
00000250: 002d f8bb a0d3 24be ebab 023e db05 76bd
00000260: b6b1 f3bd b505 04be 51de 17bd 264b cb3c
00000270: f16d 64bd e8b9 d33d a50f f5bd f06a abbc
00000280: 3130 49bd f368 5a3d 9a8c 02be 5f30 93bc
00000290: 8a41 c4bc 1f96 f7bc 3a3c aebc 994f eb3c
000002a0: 6488 63bd 75e0 4b3d 469b 123e d8f5 2a3d
000002b0: 840e 0d3e 015d 78bd 5136 57bd a023 2b3c
000002c0: 07c9 90bd 74e0 6abd ab81 d2bb a4dc 733d
000002d0: 3598 433e 1889 593d 74d2 1f3d c720 763e
000002e0: 80b9 543c 6821 9c3d b9ee e3bc 41b4 07bd
000002f0: e6cc dabd 7e05 0e3e 7a58 25bd e2c1 c63d
00000300: df61 aabd 1157 2c3e 7bb7 d23d a29a d53b
00000310: b799 d8bd 68e2 b33c 8b9c 39be 2e6b 88be
00000320: a6a8 953b 36d8 083e b4f2 183e f692 443d
00000330: 2aad f7bb 482f 413d d7df 9d3d eefb 773d
00000340: 446a 35be 259f ad3d 1c9f 273d ea6e 0a3d
00000350: 73e7 83bd 20df 9abd 08a8 df3d 00ce 643d
00000360: c4f1 b73d 5924 d73c be99 573d 3360 de3d
00000370: 1936 4a3d ec8c b33b b731 cf3d cda3 373c
00000380: d313 a6bd 02fb d3bd 7bd1 233e b741 0dbd
00000390: c666 d23c a3fc e23d 8470 9d3d 185b 733c
000003a0: be88 af3d 176f 3f3c fbdf 95bd 9704 25be
000003b0: 5fcc c9bd af50 0e3e 6c31 433d bdd9 86bc
000003c0: 48a4 2c3c fb8c 8ebd 2e69 233c 4346 0f3d
000003d0: 12c5 8bbd 671b 33bd aabd cf3d 7f77 1a3d
000003e0: d813 8b3d 3540 9d3d b676 9dbd 0f57 bcbd
000003f0: 6877 1c3d 88d4 8c3d 3337 babd d123 883d

network_body._body_endoder.seq_layers.2.bias f4 [128]
0.0 0.0 0.0 0.0 0.0 0.0 0.0 0.0
0.0 0.0 0.0 0.0 0.0 0.0 0.0 0.0
0.0 0.0 0.0 0.0 0.0 0.0 0.0 0.0
0.0 0.0 0.0 0.0 0.0 0.0 0.0 0.0
0.0 0.0 0.0 0.0 0.0 0.0 0.0 0.0
0.0 0.0 0.0 0.0 0.0 0.0 0.0 0.0
0.0 0.0 0.0 0.0 0.0 0.0 0.0 0.0
0.0 0.0 0.0 0.0 0.0 0.0 0.0 0.0
0.0 0.0 0.0 0.0 0.0 0.0 0.0 0.0
0.0 0.0 0.0 0.0 0.0 0.0 0.0 0.0
0.0 0.0 0.0 0.0 0.0 0.0 0.0 0.0
0.0 0.0 0.0 0.0 0.0 0.0 0.0 0.0
0.0 0.0 0.0 0.0 0.0 0.0 0.0 0.0
0.0 0.0 0.0 0.0 0.0 0.0 0.0 0.0
0.0 0.0 0.0 0.0 0.0 0.0 0.0 0.0
0.0 0.0 0.0 0.0 0.0 0.0 0.0 0.0
00000000: 0000 0000 0000 0000 0000 0000 0000 0000
00000010: 0000 0000 0000 0000 0000 0000 0000 0000
00000020: 0000 0000 0000 0000 0000 0000 0000 0000
00000030: 0000 0000 0000 0000 0000 0000 0000 0000
00000040: 0000 0000 0000 0000 0000 0000 0000 0000
00000050: 0000 0000 0000 0000 0000 0000 0000 0000
00000060: 0000 0000 0000 0000 0000 0000 0000 0000
00000070: 0000 0000 0000 0000 0000 0000 0000 0000
00000080: 0000 0000 0000 0000 0000 0000 0000 0000
00000090: 0000 0000 0000 0000 0000 0000 0000 0000
000000a0: 0000 0000 0000 0000 0000 0000 0000 0000
000000b0: 0000 0000 0000 0000 0000 0000 0000 0000
000000c0: 0000 0000 0000 0000 0000 0000 0000 0000
000000d0: 0000 0000 0000 0000 0000 0000 0000 0000
000000e0: 0000 0000 0000 0000 0000 0000 0000 0000
000000f0: 0000 0000 0000 0000 0000 0000 0000 0000
00000100: 0000 0000 0000 0000 0000 0000 0000 0000
00000110: 0000 0000 0000 0000 0000 0000 0000 0000
00000120: 0000 0000 0000 0000 0000 0000 0000 0000
00000130: 0000 0000 0000 0000 0000 0000 0000 0000
00000140: 0000 0000 0000 0000 0000 0000 0000 0000
00000150: 0000 0000 0000 0000 0000 0000 0000 0000
00000160: 0000 0000 0000 0000 0000 0000 0000 0000
00000170: 0000 0000 0000 0000 0000 0000 0000 0000
00000180: 0000 0000 0000 0000 0000 0000 0000 0000
00000190: 0000 0000 0000 0000 0000 0000 0000 0000
000001a0: 0000 0000 0000 0000 0000 0000 0000 0000
000001b0: 0000 0000 0000 0000 0000 0000 0000 0000
000001c0: 0000 0000 0000 0000 0000 0000 0000 0000
000001d0: 0000 0000 0000 0000 0000 0000 0000 0000
000001e0: 0000 0000 0000 0000 0000 0000 0000 0000
000001f0: 0000 0000 0000 0000 0000 0000 0000 0000

action_model._continuous_distribution.mu.weight f4 [1, 128]
0.0003633104 0.024526864 0.01993649 -0.007183993 0.03522023 0.03096561 0.011912263 0.014274566
0.015652861 0.005917614 0.034092337 -0.0051293527 0.0063284533 0.0042244857 0.025647858 -0.021104624
-0.03178699 -0.0042871246 0.012778051 -0.0389329 0.013346696 0.010747192 -0.03328539 0.003335269
-0.028310958 0.023295954 -0.014206505 -0.009689638 0.011945768 -9.148066e-05 -0.006880914 -0.010942018
0.01318379 -0.0022336636 0.013790888 -0.012296207 0.009804161 -0.03042132 -0.027475664 0.018920397
4.7927777e-05 -0.031750083 -0.010553948 -0.010291352 0.0020383233 -0.013513729 -0.0125520425 -0.0047894805
0.0021688463 -0.031058822 0.025012514 -0.011479466 0.028419051 0.012627825 0.009024785 0.027410656
0.0025590013 -0.0009951752 0.0068184147 -0.0006500887 -0.0031629074 -0.0027298522 0.008389995 0.03049678
-0.011144821 0.021757094 0.024161963 0.0010040618 0.019414796 -0.0015955775 0.0003306951 -0.009131358
0.002895996 0.018134944 -0.006571998 0.00654347 0.061698318 -0.009215652 -0.0014071491 -0.018829877
0.014177467 -0.0030280265 0.014540732 -0.009163498 -0.011853938 0.016969336 0.0088744955 -0.007674459
0.015745472 -0.012175489 0.016426384 -0.0369444 -0.012626338 0.008231195 0.0023720704 0.0011334404
0.025476778 -0.015397522 -0.019267054 -0.005516451 0.00299664 -0.013224904 -0.039162155 0.017121425
-0.0020727094 -0.009144135 -0.010167019 0.02239662 -0.007886432 -0.0065947114 -0.0069469153 -0.0070595234
0.029042184 -0.00493725 0.01240754 0.010233763 0.00062124495 0.008681067 -0.0038625107 -0.016101161
0.03952044 0.025971347 0.023064028 -0.008255131 0.0073125884 -0.0036167845 0.015594156 -0.027524536
00000000: b27a be39 90ec c83c da51 a33c b367 ebbb
00000010: 1743 103d 97ab fd3c a72b 433c dfdf 693c
00000020: 6e3a 803c 8be8 c13b 68a4 0b3d 2114 a8bb
00000030: ea5e cf3b 8e6d 8a3b 751b d23c 9be3 acbc
00000040: 1333 02bd 027b 8cbb 085b 513c 1b78 1fbd
00000050: 1aac 5a3c fe14 303c 4356 08bd 8794 5a3b
00000060: 62ec e7bc 28d7 be3c 67c2 68bc 4ac1 1ebc
00000070: 2fb8 433c 4ed9 bfb8 4a79 e1bb 2646 33bc
00000080: d300 583c a862 12bb 2df3 613c 0876 49bc
00000090: a2a1 203c 2236 f9bc a514 e1bc f3fe 9a3c
000000a0: 0f06 4938 600c 02bd 77ea 2cbc 0f9d 28bc
000000b0: 6495 053b b068 5dbc 15a7 4dbc 13f1 9cbb
000000c0: 3423 0e3b 126f febc 0be7 cc3c 5f14 3cbc
000000d0: 12cf e83c f0e4 4e3c b1dc 133c 508c e03c
000000e0: ebb4 273b 8a70 82ba 026d df3b b76a 2aba
000000f0: c848 4fbb 52e7 32bb 3176 093c 62d4 f93c
00000100: c498 36bc ef3b b23c 4fef c53c b99a 833a
00000110: c70b 9f3c b222 d1ba 2561 ad39 b19b 15bc
00000120: c0ca 3d3b bc8f 943c ea59 d7bb 9b6a d63b
00000130: 60b7 7c3d 3ffd 16bc 1770 b8ba 1d41 9abc
00000140: 9b48 683c db71 46bb 403c 6e3c 7f22 16bc
00000150: 0537 42bc 4703 8b3c 5566 113c 077a fbbb
00000160: a6fc 803c b47b 47bc a090 863c 0353 17bd
00000170: b3de 4ebc 22dc 063c bd74 1b3b f38f 943a
00000180: adb4 d03c e345 7cbc f1d5 9dbc 58c3 b4bb
00000190: 4763 443b 45ad 58bc 7f68 20bd 3b42 8c3c
000001a0: 4bd6 07bb 48d1 15bc 9293 26bc 1e79 b73c
000001b0: 1836 01bc 7318 d8bb f3a2 e3bb 9353 e7bb
000001c0: e0e9 ed3c a8c8 a1bb ff48 4b3c 83ab 273c
000001d0: 0bdb 223a 093b 0e3c 2d22 7dbb 95e6 83bc
000001e0: 2fe0 213d ddc1 d43c c6f0 bc3c 8740 07bc
000001f0: 709e ef3b 9307 6dbb a27e 7f3c 237b e1bc

action_model._discrete_distribution.branches.0.weight f4 [3, 128]
-0.0028776226 0.0032099225 -0.0011734335 0.007936494 0.0153314015 -0.0025482455 0.005956459 0.025520561
-0.01060029 -0.008123061 0.005945958 0.020714259 -0.01374508 0.014410778 0.014975927 0.013064711
-0.00031365582 -0.022043033 -0.0069434657 -0.0005623947 0.0040766313 0.0032453742 0.009050743 0.0013722404
0.009570246 0.014612799 0.0003655905 -0.0009623389 0.0025202155 0.014608751 0.008892513 -0.015333063
-0.012952021 -0.015253638 8.648732e-05 -0.0069004125 -0.0035309803 -0.008995479 0.0034047817 -0.005915692
-0.0030311297 0.0028691646 0.014299321 0.004857245 -0.010131138 0.011909706 0.0027262864 -0.001642631
-0.0033441472 -0.0039836094 0.001272203 -0.0025752217 0.0045183697 -0.0018529166 -0.003072767 0.017504891
0.003526954 0.0009016208 0.0007138494 0.0059546987 -9.788821e-05 0.011699767 -0.0057548014 0.016454196
-0.006814061 0.0012595 -0.0062763407 -0.015967296 -0.005337091 0.012964638 0.0029129356 -0.007445135
-0.002356162 0.014237689 -0.0103685465 0.01064762 -0.004656128 0.0059464904 0.0012567143 0.012814519
-0.010839731 0.004655735 0.008504258 0.0019426573 0.007805829 -0.021150304 -8.7166285e-05 0.008352648
0.01046318 0.0059400233 0.0066501983 0.0014111091 -0.0021087432 0.01481391 -0.007960018 -0.018024208
-0.0032676246 0.019061197 -0.012222716 -0.0127063235 -0.013084433 0.0032360652 -0.001227343 -0.003790261
-0.010858966 0.0051198774 -0.018880896 -0.00022948976 -0.0051132166 -0.009891073 0.0071524554 -0.00060151034
-0.0008835927 0.0077106566 0.009017951 -0.0119239 0.01676346 0.019122986 0.0014743224 -0.00799461
-0.0034437235 -0.0093107205 0.011752204 -0.0004911841 0.007135431 0.015374355 0.0030835818 -0.0018083545
0.0003202221 0.0107077025 -0.0058948966 -0.0065060477 -0.00011180225 0.0076026767 0.0067085917 0.0034489871
0.0006794866 -0.0070157894 0.0012922497 0.009303875 0.0053004823 -0.0050074724 -0.007329122 -0.0006979754
0.0015523863 -0.0052298554 -0.012808742 -0.0039434372 0.01353053 -0.0036582865 0.01839128 -0.0074899793
0.00863564 -0.012349437 0.009809895 0.014507758 0.0031347347 -0.007941808 -0.007775303 -0.017653378
-0.0062040496 0.001905354 -0.009034821 -0.008493546 0.014490816 -0.0025183668 -0.001931007 -0.002041542
0.004198627 -0.0005500448 0.009510057 -0.01650727 -0.009797889 -0.01859126 -0.004657909 0.015205693
0.0029417032 0.010812893 -0.0086285835 -0.008504098 0.007150519 -0.0005712288 -0.0046009393 0.0037805398
0.0015714726 0.0033774506 0.026532874 0.0011567528 -0.016955443 0.002351403 0.0035484761 -0.004753645
0.005782899 -0.011858644 -0.0023688492 0.0055774315 0.0031813055 -0.004112599 -0.0043432782 0.0001425693
0.023841398 0.009793634 -0.002191688 -0.016143052 -0.005387579 -0.02154186 -0.007653897 -0.001875589
0.011595453 0.0062713805 -0.0053705825 0.00047208933 -0.0002863798 0.00208098 0.0030890782 -0.0064968094
0.0064411084 0.0034643647 -0.0018349998 0.0024711709 -0.010364204 0.00040553516 0.006751315 0.0016867245
-0.0045525315 -0.011673386 0.0046032234 -0.00038536705 0.0009242247 -0.0031804002 0.0029540283 -0.009722899
0.0082946895 -0.0059349686 -0.002636104 0.016028648 -0.005678833 -0.0015462268 0.0071765194 -0.004470181
0.0041451324 0.0008838296 0.010424646 0.00061069045 0.00929841 -0.0069780992 0.000785832 0.008833903
-0.0057629687 -0.021713672 -0.010845244 0.005829727 -0.004050319 0.0141649395 0.0017656643 0.009538471
00000000: 7f96 3cbb 905d 523b e5cd 99ba 1208 023c
00000010: 8f30 7b3c 7700 27bb 662e c33b 7f10 d13c
00000020: d7ac 2dbc 9616 05bc 50d6 c23b f3b0 a93c
00000030: 0b33 61bc 2f1b 6c3c 975d 753c 5f0d 563c
00000040: 2c72 a4b9 9793 b4bc 0386 e3bb ab6d 13ba
00000050: 4395 853b 58b0 543b 9149 143c bfdc b33a
00000060: 85cc 1c3c 856a 6f3c baac bf39 7845 7cba
00000070: 332a 253b 8b59 6f3c e7b1 113c 8737 7bbc
00000080: b734 54bc 65ea 79bc 8760 b538 db1c e2bb
00000090: 0568 67bb c661 13bc c222 5f3b 6cd8 c1bb
000000a0: eba5 46bb 9808 3c3b b347 6a3c 8629 9f3b
000000b0: 13fd 25bc ed20 433c 7fab 323b 8d4d d7ba
000000c0: 7b29 5bbb f088 82bb 0dc0 a63a 0dc5 28bb
000000d0: d50e 943b 90dd f2ba 7a60 49bb 6b66 8f3c
000000e0: 7824 673b bf5a 6c3a 9f21 3b3a a21f c33b
000000f0: 5549 cdb8 61b0 3f3c c692 bcbb f3ca 863c
00000100: 7d48 dfbb cf15 a53a c3a9 cdbb d9cd 82bc
00000110: c4e2 aebb a269 543c f3e6 3e3b 52f6 f3bb
00000120: d769 1abb 3245 693c d6e0 29bc 5b73 2e3c
00000130: 6f92 98bb c7da c23b 56b8 a43a fdf3 513c
00000140: 2199 31bc 238f 983b 7155 0b3c c3a0 fe3a
00000150: 0ac8 ff3b 6743 adbc 0bcd b6b8 8bd9 083c
00000160: c26d 2b3c 87a4 c23b e8e9 d93b f7f4 b83a
00000170: d732 0abb 0bb6 723c bc6a 02bc 81a7 93bc
00000180: a525 56bb 3a26 9c3c c941 48bc 2f2e 50bc
00000190: 1760 56bc 2a14 543b ccde a0ba 0766 78bb
000001a0: cee9 31bc a5c4 a73b 1cac 9abc 30a3 70b9
000001b0: c58c a7bb 2b0e 22bc 255f ea3b adae 1dba
000001c0: e7a0 67ba ada9 fc3b 07c0 133c 765c 43bc
000001d0: 8653 893c cfa7 9c3c 0d3e c13a d3fb 02bc
000001e0: 18b0 61bb fe8b 18bc 518c 403c cfc2 00ba
000001f0: 55d0 e93b b8e4 7b3c eb15 4a3b 4f06 edba
00000200: 7ce3 a739 5c6f 2f3c fa29 c1bb af30 d5bb
00000210: 6077 eab8 e01f f93b bfd3 db3b 6708 623b
00000220: 931f 323a b5e4 e5bb b460 a93a 486f 183c
00000230: abaf ad3b b915 a4bb 2229 f0bb 56f8 36ba
00000240: 7179 cb3a 355f abbb c2db 51bc f337 81bb
00000250: 28af 5d3c ddbf 6fbb 4fa9 963c 806e f5bb
00000260: 807c 0d3c 4b55 4abc afb9 203c f3b1 6d3c
00000270: 1f70 4d3b 5b1e 02bc f8c7 febb d19d 90bc
00000280: 574b cbbb 12bd f93a c906 14bc 8428 0bbc
00000290: e36a 6d3c 2f0b 25bb d819 fdba 64cb 05bb
000002a0: a394 893b e230 10ba 12d0 1b3c 413a 87bc
000002b0: 5387 20bc b34c 98bc 5fa1 98bb 4d21 793c
000002c0: 97c9 403b 8f28 313c e75e 0dbc c654 0bbc
000002d0: e74e ea3b 84be 15ba 7ac3 96bb efc2 773b
000002e0: dff9 cd3a 3858 5d3b 785b d93c 2f9e 973a
000002f0: 24e6 8abc ff19 1a3b 8d8d 683b 77c4 9bbb
00000300: 797e bd3b c24a 42bc b23e 1bbb e3c2 b63b
00000310: 737d 503b fbc2 86bb 0f52 8ebb a87e 1539
00000320: 094f c33c 7a75 203c 6ca2 0fbb 6f3e 84bc
00000330: 4a8a b0bb 8e78 b0bc 8bcd fabb 53d6 f5ba
00000340: dbfa 3d3c 2780 cd3b b6fb afbb c282 f739
00000350: 3f25 96b9 0d61 083b 2272 4a3b 30e3 d4bb
00000360: ef0f d33b 650a 633b 6084 f0ba 5ef3 213b
00000370: 9fce 29bc 029e d439 233a dd3b 1515 dd3a
00000380: 672d 95bb bb41 3fbc a3d6 963b 170b cab9
00000390: ab47 723a 436e 50bb 5f98 413b cb4c 1fbc
000003a0: 73e6 073c 207a c2bb 7cc2 2cbb 834e 833c
000003b0: 8115 babb c3aa caba 0229 eb3b 997a 92bb
000003c0: e4d3 873b cdb0 673a 22cc 2a3c be16 203a
000003d0: 5c58 183c 8aa8 e4bb 4b00 4e3a 13bc 103c
000003e0: 49d7 bcbb dfe0 b1bc 40b0 31bc 4b07 bf3b
000003f0: 8ab8 84bb 1014 683c dd6d e73a 3f47 1c3c

action_model._discrete_distribution.branches.0.bias f4 [3]
0.0 0.0 0.0
00000000: 0000 0000 0000 0000 0000 0000

action_model._discrete_distribution.branches.1.weight f4 [2, 128]
0.0073959543 -0.0071910243 -0.0005501607 0.003319686 -0.0055606123 0.0013863639 -0.0005585371 -0.00687946
0.013694956 -0.011441985 0.0062014717 0.011960286 0.009070665 -0.013775021 -0.013061068 -0.0046395212
-0.0034863667 -0.007859159 -0.010794692 -0.008609564 -0.0019137983 -0.000705892 -0.0032196715 -0.0063914484
0.013622427 -0.002273175 0.013358699 -0.004781917 -0.011693813 -0.0028476296 0.00909772 -0.015266145
0.01184931 0.021175968 -0.0039314264 0.0029448478 0.006024869 0.0012152602 0.010831877 -0.012688667
-0.017481212 -0.0044372925 0.018814549 -0.003247734 -0.0010554272 0.020914426 0.0106065385 0.0039339415
0.0019393997 -0.01059357 -0.003811443 0.0038560077 -0.016312597 0.010868459 0.0015948657 0.008657496
0.006095949 -0.006185046 0.0053225914 0.014513405 -0.015416819 -0.004278232 -0.0038887435 -0.0048209415
-0.008411639 0.009990188 0.014495443 -0.027583709 -0.005717708 0.00973234 0.0045604436 0.002700568
-0.0053365356 0.011375926 -0.008710674 -0.0065451176 0.020203738 0.0011449883 0.006570638 0.007921483
-0.0041063107 0.0054957867 -0.0004048736 0.00018733651 -0.0019857683 -0.004901413 -0.006366975 -0.0051737684
0.00030638496 -0.0005163685 0.0057826308 0.0012454777 0.002199349 -0.011852085 -0.0017726974 0.008821282
0.00017508739 -0.0085447915 0.009887205 0.00050595304 -0.002228787 -0.0048262835 0.0056927665 -0.012002344
-0.013062564 0.011640301 -0.020185309 -0.007947903 0.0065546655 -0.012660469 -0.022357328 0.012417574
0.02146309 -0.009210638 0.005801988 0.003671698 0.006462417 -0.017595978 0.012135612 -0.011300101
0.002086712 0.0031477448 -0.007818672 0.003660739 0.0018208026 -0.016995773 0.0012005585 -0.0045094336
-0.0034028615 0.00493651 -0.0026475694 0.016662007 -0.011876872 0.009427776 0.018201772 -0.0013644536
-0.0015292048 -0.0014720424 0.001410961 -0.00076161645 0.0040132585 0.002769853 -0.0114105595 -0.0054022693
-0.0050452193 0.008767949 -0.017854134 -0.0037837306 -0.008832765 -0.004417637 -0.004220725 0.0018351505
-0.007536471 0.00036164702 -0.0052523655 0.00655364 0.014477764 -0.0012305764 0.0013051827 0.007678844
0.013367902 0.0022945013 4.9644743e-05 0.0044697872 0.018983457 0.010970102 -0.0026022138 -0.013637408
0.009721933 -0.006229713 0.004118396 -0.0075663156 -0.005597322 0.0027188899 -0.00015859211 0.0054503405
0.004883434 0.005807655 0.0042682267 -0.008803981 0.008715344 0.011060721 6.302404e-05 7.334014e-05
0.016518539 0.0007345187 -0.004273633 0.008135422 0.002470681 -0.011245183 0.009849841 0.015344888
0.010381214 -0.017739473 0.0048267124 0.0037508511 -0.00036461707 0.002623893 -0.006739693 -0.014335233
0.0063151917 0.016052773 0.00018365418 0.0011506216 0.006062511 -0.0007370882 -0.003668793 -0.01929556
0.0022602512 0.008321766 -0.004648021 -0.0059929583 0.017764505 -0.007569098 0.01057309 -0.014751247
0.003469186 0.0070121787 0.01071597 0.0032463346 -0.015100609 0.0030877162 0.0027510212 0.00047504893
0.0023545616 -0.003836859 -0.0034332634 -0.0021043427 0.008615371 -0.0066844644 0.0014399523 0.012370903
0.01275543 -0.008576005 -0.009036558 0.0033862416 0.0055577653 0.012525188 -0.0145814745 0.014269081
-0.01036771 -0.0039299144 0.0016911064 -0.000442401 -0.01724624 2.1955323e-06 0.0009366562 0.001034038
0.0052970997 -0.0040029995 0.008697904 -0.012920856 -0.008150186 0.00011786064 0.003564858 -0.0015550427
00000000: c359 f23b afa2 ebbb a938 10ba 178f 593b
00000010: cc35 b6bb a7b6 b53a ca6a 12ba 186d e1bb
00000020: cf60 603c 2a77 3bbc b735 cb3b 13f5 433c
00000030: 209d 143c a0b0 61bc 17fe 55bc 2007 98bb
00000040: 877b 64bb b4c3 00bc 38dc 30bc 210f 0dbc
00000050: 6ad8 faba 9c0b 39ba 2001 53bb 5b6f d1bb
00000060: 9a30 5f3c 8cf9 14bb 72de 5a3c a1b1 9cbb
00000070: 6897 3fbc 4c9f 3abb 9a0e 153c da1e 7abc
00000080: 9c23 423c 3979 ad3c 32d3 80bb 59fe 403b
00000090: 446c c53b 5e49 9f3a 2f78 313c 20e4 4fbc
000000a0: c234 8fbc b566 91bb f820 9a3c efd7 54bb
000000b0: 4356 8aba bb54 ab3c 0cc7 2d3c 4be8 803b
000000c0: 7533 fe3a a790 2dbc 67c9 79bb 13b5 7c3b
000000d0: ffa1 85bc 9f11 323c d00a d13a 2cd8 0d3c
000000e0: 87c0 c73b edab cabb 2269 ae3b a2c9 6d3c
000000f0: d396 7cbc 6930 8cbb 4ada 7ebb fdf8 9dbb
00000100: f9d0 09bc e3ad 233c 4b7e 6d3c 3bf7 e1bc
00000110: 9c5b bbbb 6574 1f3c c66f 953b 03fc 303b
00000120: 1bde aebb 1862 3a3c 37b7 0ebc 6d78 d6bb
00000130: 4f82 a53c 6f13 963a 824e d73b 1cc9 013c
00000140: 3b8e 86bb 0016 b43b 3745 d4b9 c36f 4439
00000150: aa23 02bb 089c a0bb 0fa2 d0bb b788 a9bb
00000160: 4ba2 a039 e75c 07ba 397c bd3b 4c3f a33a
00000170: f422 103b 3f2f 42bc db59 e8ba 2387 103c
00000180: aa97 3739 74ff 0bbc f2fd 213c efa1 043a
00000190: d710 12bb cd25 9ebb 638a ba3b 7ba5 44bc
000001a0: 5d04 56bc f6b6 3e3c a95b a5bc ec37 02bc
000001b0: 85c8 d63b db6d 4fbc b726 b7bc 1573 4b3c
000001c0: 5dd3 af3c 37e8 16bc 9a1e be3b dfa0 703b
000001d0: afc2 d33b 7125 90bc 72d4 463c 0f24 39bc
000001e0: 38c1 083b 654a 4e3b e319 00bc 02e9 6f3b
000001f0: ffa7 ee3a b83a 8bbc 0f5c 9d3a dfc3 93bb
00000200: 8b02 5fbb 73c2 a13b d882 2dbb c37e 883c
00000210: 3697 42bc f576 1a3c e21b 953c 77d7 b2ba
00000220: 996f c8ba 8cf1 c0ba ffef b83a 37a7 47ba
00000230: a781 833b 6c86 353b 5bf3 3abc 8505 b1bb
00000240: 5e52 a5bb 72a7 0f3c d542 92bc 77f8 77bb
00000250: 4db7 10bc d3c1 90bb 024e 8abb 6f89 f03a
00000260: 80f4 f6bb 719b bd39 091c acbb ebbf d63b
00000270: 2534 6d3c 4b4b a1ba aa12 ab3a d09e fb3b
00000280: 0b05 5b3c 585f 163b a339 5038 4b77 923b
00000290: 3283 9b3c f1bb 333c e789 2abb 6f6f 5fbc
000002a0: be48 1f3c 9f22 ccbb 9cf3 863b dbee f7bb
000002b0: bd69 b7bb 672f 323b bf4b 26b9 c598 b23b
000002c0: 3705 a03b 244e be3b 7bdc 8b3b 933e 10bc
000002d0: cdca 0e3c 0738 353c c62b 8438 30ce 9938
000002e0: e351 873c b78c 403a d509 8cbb 6f4a 053c
000002f0: 26eb 213b b73d 38bc 3a61 213c 2069 7b3c
00000300: f815 2a3c 5f52 91bc 6629 9e3b d7d0 753b
00000310: 132a bfb9 9ff5 2b3b a5d8 dcbb 53de 6abc
00000320: abef ce3b 1b81 833c 4b93 4039 74d0 963a
00000330: 07a8 c63b 2739 41ba 2270 70bb b911 9ebc
00000340: b920 143b 0458 083c 6d4e 98bb 9460 c4bb
00000350: de86 913c 3206 f8bb c13a 2d3c 37af 71bc
00000360: 485b 633b 6bc6 e53b 0992 2f3c 75c0 543b
00000370: 8b68 77bc 485b 4a3b 7a4a 343b fd0f f939
00000380: fd4e 1a3b d073 7bbb 9a00 61bb 03e9 09bb
00000390: 7c27 0d3c 5a09 dbbb c8bc bc3a 54af 4a3c
000003a0: 27fc 503c 5f82 0cbc 120e 14bc b5eb 5d3b
000003b0: ea1d b63b 7236 4d3c 23e7 6ebc ddc8 693c
000003c0: 54dd 29bc 83c6 80bb 1da8 dd3a 0ff2 e7b9
000003d0: fd47 8dbc f556 1336 ef89 753a 8f88 873a
000003e0: 4b93 ad3b 982b 83bb a781 0e3c ffb1 53bc
000003f0: 5c88 05bc f32b f738 65a0 693b 93d2 cbba

action_model._discrete_distribution.branches.1.bias f4 [2]
0.0 0.0
00000000: 0000 0000 0000 0000
