results/ppo/Player Behaviour/Player Behaviour-256.pt (torch, 153007 bytes, 15 tensors)

discrete_act_size_vector f4 [1, 2]
0	0x40400000	3.0
1	0x40000000	2.0

network_body._body_endoder.seq_layers.0.weight f4 [128, 6]
0	0xbdf74afd	-0.1207485
1	0xbdb89ac4	-0.09013894
2	0xbe69fc78	-0.22850215
3	0x3e9750d3	0.2955385
4	0xbe9b925c	-0.303851
5	0x3f7e4ea8	0.9933877
6	0xbf0cdde1	-0.5502606
7	0xbe71fd4a	-0.23631778
8	0xbf187600	-0.59555054
9	0xbe975cde	-0.2956304
10	0x3ef2d225	0.47425953
11	0xbda9f5f5	-0.08298866
12	0x3e45ed58	0.1932882
13	0xbd82de10	-0.06390011
14	0x3e830dc1	0.2559643
15	0xbf5145ff	-0.8174743
16	0xbf811ddc	-1.0087237
17	0x3ec65993	0.38740215
18	0x3f04f976	0.5194315
19	0x3cb59023	0.022163456
20	0xbebb1180	-0.3653679
21	0xbed0564d	-0.40690842
22	0x3d59468b	0.05304579
23	0xbe0abfbc	-0.13549703
24	0x3ef020b1	0.46899942
25	0x3e8d9924	0.276559
26	0xbe65bddc	-0.22435707
27	0xbf4a825d	-0.7910517
28	0x3e70fdae	0.23534271
29	0xbebc7e69	-0.36815193
30	0x3f44efad	0.76928216
31	0xbe558b39	-0.2085389
32	0x3d43d2ee	0.04780858
33	0xbe74fbcb	-0.23924176
34	0x3f0a2f2b	0.5397822
35	0xbe72902e	-0.23687813
36	0x3eb0462b	0.34428534
37	0x3df05569	0.11735041
38	0xbeb3e5ba	-0.35136205
39	0x3de7ed2c	0.11324534
40	0xbf2515f7	-0.6448664
41	0xbd3c384c	-0.045952126
42	0x3efa5452	0.48892456
43	0xbcfa03a5	-0.030519316
44	0x3c85898d	0.01630094
45	0x3ec3cc44	0.3824178
46	0x3e864b64	0.26229393
47	0xbe5d4f1d	-0.2161221
48	0xbe4ba29b	-0.19886248
49	0xbf80a7d5	-1.0051218
50	0x3d3b42d7	0.04571804
51	0x3effaa7d	0.4993476
52	0xbd4b4f13	-0.049635958
53	0x3f5cd595	0.862634
54	0x3f265f3f	0.64989084
55	0x3f15c763	0.58507365
56	0xbebf208f	-0.37329528
57	0xbec92c53	-0.3929163
58	0x3ecd849c	0.40140235
59	0xbc828583	-0.015932804
60	0x3ed130b9	0.40857485
61	0xbea6e913	-0.32599697
62	0xbe3e29c4	-0.1857062
63	0xbd89d58b	-0.06730183
64	0x3d8427ad	0.0645288
65	0x3f03515f	0.5129604
66	0x3f23ef3d	0.64036924
67	0x3e2ab424	0.1667028
68	0xbe51d24b	-0.20490377
69	0xbe3edb9b	-0.1863846
70	0xbbbc636c	-0.0057491567
71	0x3f20bf2d	0.6279171
72	0xbf16224a	-0.5864607
73	0x3e01e15b	0.12683623
74	0xbe5311be	-0.20612237
75	0x3da49399	0.080359645
76	0x3f59e562	0.85115635
77	0x3ee693b4	0.45034564
78	0x3e8ebf90	0.27880526
79	0x3fa8902f	1.3169001
80	0xbe5fc486	-0.21852311
81	0x3f246373	0.6421425
82	0xbe0d4d9a	-0.13799134
83	0xbeb812d6	-0.3595187
84	0x3ed1f829	0.41009644
85	0xbe1d19bd	-0.1534185
86	0x3f37c308	0.7178197
87	0xbe68e559	-0.22743739
88	0xbe3e7202	-0.18598178
89	0xbd0d2ba0	-0.034465432
90	0xbf77348f	-0.96564573
91	0xbe52cf3d	-0.20586868
92	0xbdcb9f2a	-0.099424675
93	0x3ed5c798	0.4175384
94	0xbd999ff0	-0.07501209
95	0xbe88a151	-0.26685575
96	0x3dce2b6b	0.10066875
97	0xbeb24f77	-0.34826252
98	0xbc27d2dc	-0.010243144
99	0xbefc43b4	-0.49270403
100	0xbe8a48e8	-0.27008748
101	0x3f4c5198	0.79812
102	0xbf0c905f	-0.5490779
103	0xbeb53b5a	-0.35396844
104	0x3ecf59d3	0.40498218
105	0xbd58f019	-0.05296335
106	0x3e994bbf	0.29940602
107	0xbe7aeb9e	-0.24503943
108	0xbf012cd2	-0.50459015
109	0x3e8de3b0	0.27712774
110	0xbde6e2d9	-0.112737365
111	0x3e2259d0	0.15854573
112	0xbe8c393a	-0.2738741
113	0xbea99dbe	-0.3312816
114	0x3e03df0f	0.12878059
115	0x3ed3c9fe	0.41365045
116	0x39344e69	0.00017195348
117	0x3dae5bb7	0.08513587
118	0x3f01305c	0.50464416
119	0xbe3f85ba	-0.18703356
120	0x3f90f688	1.1325235
121	0xbe27b2b4	-0.16376764
122	0x3efda81f	0.4954233
123	0xbe2f5f6c	-0.17126244
124	0x3ec4701b	0.3836678
125	0xbe849131	-0.25892022
126	0x3ee522c3	0.44753084
127	0x3dfb398e	0.12266837
128	0xbdc1d0fe	-0.0946369
129	0xbee00877	-0.43756458
130	0xbf214783	-0.62999743
131	0xbe9b8c7d	-0.30380622
132	0x3d99d867	0.075119786
133	0xbef7499b	-0.48298344
134	0x3e88d821	0.26727393
135	0x3de68349	0.112555094
136	0xbf48b4d9	-0.7840095
137	0x3d84079a	0.064467624
138	0x3e9fd9e4	0.31220925
139	0xbed00900	-0.40631866
140	0x3dc3d334	0.09561768
141	0x3e6c4ac8	0.23075402
142	0x3eaab741	0.33342937
143	0x3e8f7b82	0.28023916
144	0x3cd5aab2	0.02608237
145	0xbeb94448	-0.36184907
146	0xbf359ad7	-0.7093939
147	0x3dd3fdbc	0.1035113
148	0xbf818cd0	-1.0121098
149	0xbf1bd090	-0.60865116
150	0x3ecc12a3	0.3985797
151	0x3eb3681b	0.35040364
152	0x3ed70986	0.41999453
153	0x3eff028a	0.49806625
154	0xbf635bcf	-0.88811964
155	0xbe962762	-0.29326922
156	0x3e4cce2d	0.20000525
157	0x3e40cb64	0.18827587
158	0xbed5d22d	-0.41761914
159	0x3ec3501e	0.38147062
160	0xbefa8ba1	-0.48934653
161	0xbe0768d1	-0.13223578
162	0x3e605f9b	0.2191147
163	0xbe2e4be8	-0.17021143
164	0x3f3bed7e	0.7340926
165	0xbe00c9d7	-0.12576996
166	0x3e6644f0	0.22487235
167	0xbed43a73	-0.41450843
168	0xbef2500c	-0.47326696
169	0x3e207b52	0.15672043
170	0x3f49d2fd	0.7883757
171	0xbf1c6cbb	-0.6110341
172	0xbd463615	-0.04839142
173	0xbcd54cac	-0.026037537
174	0xbe2786d6	-0.1636003
175	0xbf1ebd67	-0.62007755
176	0xbf46ec27	-0.7770409
177	0xbd137bdc	-0.036006793
178	0x3c9f0095	0.019409457
179	0x3dae6cf3	0.08516874
180	0x3ec4e9be	0.3845958
181	0xbe4c27a0	-0.1993699
182	0xbdf11206	-0.11771016
183	0xbe10daae	-0.1414592
184	0xbea47551	-0.32120755
185	0x3f60f3b6	0.87871873
186	0xbe345a52	-0.1761258
187	0xbe4a08d8	-0.19729936
188	0xbc6d7787	-0.01449383
189	0x3de1e8c4	0.11030725
190	0x3e0d6af6	0.13810334
191	0xbe534ca0	-0.20634699
192	0x3e637295	0.22211678
193	0xbebc7ec8	-0.36815476
194	0xbecf0b4f	-0.40438315
195	0xbd27915e	-0.040910117
196	0xbf378fc2	-0.7170373
197	0x3edb4f02	0.42833716
198	0xbe2cba4c	-0.16867942
199	0x3f013208	0.50466967
200	0x3e4251a4	0.18976456
201	0xbec0d842	-0.37664992
202	0x3e3cad5e	0.1842551
203	0xbe4b94ad	-0.19880934
204	0x3d860103	0.06543162
205	0xbe6457bb	-0.22299092
206	0xbf259536	-0.646808
207	0x3e627f9e	0.22118995
208	0x3ea15f8b	0.31518206
209	0xbdc4afdf	-0.09603857
210	0x3ec2a3f4	0.3801571
211	0x3e6c4fa8	0.23077261
212	0xbf413c7a	-0.75482905
213	0xbe2320dd	-0.15930505
214	0x3e5cc566	0.21559677
215	0xbe8246de	-0.25444692
216	0x3de1ccad	0.11025367
217	0xbe651919	-0.22372855
218	0x3eacb174	0.33729136
219	0xbccfb4cd	-0.025354767
220	0x3ce876ab	0.028376898
221	0xbe7420ce	-0.23840639
222	0xbd98be4d	-0.07458172
223	0x3f1ec61f	0.6202106
224	0xbdcf39c1	-0.101184376
225	0x3e2a4695	0.16628487
226	0x3f86c41c	1.0528598
227	0xbf039dfc	-0.5141294
228	0xbf16b60d	-0.5887154
229	0xbeb9e924	-0.36310685
230	0x3d88b66d	0.0667542
231	0xbe8434f1	-0.2582164
232	0x3ef4fe1e	0.47850126
233	0x3eb3227a	0.3498724
234	0xbee2904d	-0.44250718
235	0xbe68d16c	-0.22736138
236	0x3dcec254	0.10095659
237	0x3e57fb29	0.21091904
238	0xbed72159	-0.4201763
239	0xbe376e54	-0.1791318
240	0xbef561fc	-0.4792632
241	0xbe5603dc	-0.2089991
242	0xbe858ada	-0.26082498
243	0x3f2b1235	0.66824657
244	0xbe09e7f2	-0.13467386
245	0xbeca1a68	-0.3947327
246	0xbecb0585	-0.3965265
247	0xbeb94019	-0.36181715
248	0xbea4cb79	-0.32186487
249	0xbedc7028	-0.43054318
250	0x3f36be6d	0.71384317
251	0x3ea3d2fd	0.3199691
252	0x3e9c7611	0.30558828
253	0xbf451320	-0.7698231
254	0x3eacef55	0.33776346
255	0x3e5129b3	0.20426063

network_body._body_endoder.seq_layers.0.bias f4 [128]
0	0x00000000	0.0
1	0x00000000	0.0
2	0x00000000	0.0
3	0x00000000	0.0
4	0x00000000	0.0
5	0x00000000	0.0
6	0x00000000	0.0
7	0x00000000	0.0
8	0x00000000	0.0
9	0x00000000	0.0
10	0x00000000	0.0
11	0x00000000	0.0
12	0x00000000	0.0
13	0x00000000	0.0
14	0x00000000	0.0
15	0x00000000	0.0
16	0x00000000	0.0
17	0x00000000	0.0
18	0x00000000	0.0
19	0x00000000	0.0
20	0x00000000	0.0
21	0x00000000	0.0
22	0x00000000	0.0
23	0x00000000	0.0
24	0x00000000	0.0
25	0x00000000	0.0
26	0x00000000	0.0
27	0x00000000	0.0
28	0x00000000	0.0
29	0x00000000	0.0
30	0x00000000	0.0
31	0x00000000	0.0
32	0x00000000	0.0
33	0x00000000	0.0
34	0x00000000	0.0
35	0x00000000	0.0
36	0x00000000	0.0
37	0x00000000	0.0
38	0x00000000	0.0
39	0x00000000	0.0
40	0x00000000	0.0
41	0x00000000	0.0
42	0x00000000	0.0
43	0x00000000	0.0
44	0x00000000	0.0
45	0x00000000	0.0
46	0x00000000	0.0
47	0x00000000	0.0
48	0x00000000	0.0
49	0x00000000	0.0
50	0x00000000	0.0
51	0x00000000	0.0
52	0x00000000	0.0
53	0x00000000	0.0
54	0x00000000	0.0
55	0x00000000	0.0
56	0x00000000	0.0
57	0x00000000	0.0
58	0x00000000	0.0
59	0x00000000	0.0
60	0x00000000	0.0
61	0x00000000	0.0
62	0x00000000	0.0
63	0x00000000	0.0
64	0x00000000	0.0
65	0x00000000	0.0
66	0x00000000	0.0
67	0x00000000	0.0
68	0x00000000	0.0
69	0x00000000	0.0
70	0x00000000	0.0
71	0x00000000	0.0
72	0x00000000	0.0
73	0x00000000	0.0
74	0x00000000	0.0
75	0x00000000	0.0
76	0x00000000	0.0
77	0x00000000	0.0
78	0x00000000	0.0
79	0x00000000	0.0
80	0x00000000	0.0
81	0x00000000	0.0
82	0x00000000	0.0
83	0x00000000	0.0
84	0x00000000	0.0
85	0x00000000	0.0
86	0x00000000	0.0
87	0x00000000	0.0
88	0x00000000	0.0
89	0x00000000	0.0
90	0x00000000	0.0
91	0x00000000	0.0
92	0x00000000	0.0
93	0x00000000	0.0
94	0x00000000	0.0
95	0x00000000	0.0
96	0x00000000	0.0
97	0x00000000	0.0
98	0x00000000	0.0
99	0x00000000	0.0
100	0x00000000	0.0
101	0x00000000	0.0
102	0x00000000	0.0
103	0x00000000	0.0
104	0x00000000	0.0
105	0x00000000	0.0
106	0x00000000	0.0
107	0x00000000	0.0
108	0x00000000	0.0
109	0x00000000	0.0
110	0x00000000	0.0
111	0x00000000	0.0
112	0x00000000	0.0
113	0x00000000	0.0
114	0x00000000	0.0
115	0x00000000	0.0
116	0x00000000	0.0
117	0x00000000	0.0
118	0x00000000	0.0
119	0x00000000	0.0
120	0x00000000	0.0
121	0x00000000	0.0
122	0x00000000	0.0
123	0x00000000	0.0
124	0x00000000	0.0
125	0x00000000	0.0
126	0x00000000	0.0
127	0x00000000	0.0

network_body._body_endoder.seq_layers.2.weight f4 [128, 128]
0	0x3de2e0f7	0.11078065
1	0xbd3ed978	-0.046594113
2	0xbda910fb	-0.08255192
3	0x3dfc078e	0.123061284
4	0xbe257cdf	-0.16160916
5	0x3c0c1808	0.008550651
6	0x3c5d7f8e	0.013519181
7	0x3a99af5b	0.0011725234
8	0x3ced9ae2	0.029004518
9	0x3d858539	0.06519551
10	0xbdce0e70	-0.100613475
11	0xbd19b16a	-0.03752271
12	0x3d9788f1	0.073991664
13	0x3e0185e5	0.12648733
14	0x3bcfe263	0.006344126
15	0xbd7d30fc	-0.061814293
16	0x3da9421a	0.08264561
17	0x3da85702	0.082197204
18	0x3dcfaa8f	0.10139953
19	0x3d8aa92a	0.06770547
20	0xbdeea278	-0.11652082
21	0xbe46fc18	-0.19432104
22	0xbd087ff1	-0.03332514
23	0xbcf610a2	-0.030037228
24	0x3e26dc8d	0.16295071
25	0x3db6af16	0.08920114
26	0xbdb77868	-0.089585125
27	0xbdd22111	-0.10260213
28	0x3d86ab3b	0.06575628
29	0x3d1b0577	0.03784701
30	0xbd80ac18	-0.06282824
31	0xbd1219b8	-0.03566906
32	0xbdc7e2bb	-0.09760042
33	0xbc32360c	-0.010877144
34	0x3d860d5a	0.06545515
35	0x3d70deaf	0.058806118
36	0x3db38d2f	0.08767163
37	0xbcf93b1a	-0.03042369
38	0x3cf66d47	0.030081404
39	0x3d3e9388	0.046527416
40	0x3d72d230	0.05928248
41	0xbe0c8ef4	-0.13726407
42	0xbb734f19	-0.0037126003
43	0x3d83385c	0.06407234
44	0xbe2fabdd	-0.17155404
45	0xbd346f0f	-0.044051226
46	0x3df73c7e	0.12072085
47	0x3d15a48d	0.03653388
48	0xbd4d137f	-0.05006742
49	0x3cb00df5	0.02149103
50	0xbe18d170	-0.14923644
51	0x3d33ed08	0.043927222
52	0x3e09251e	0.13393065
53	0x3d588530	0.052861392
54	0x3e143350	0.14472699
55	0x3d49c98f	0.049264487
56	0xbd2c6504	-0.042088524
57	0x3d26561e	0.04060947
58	0xbc909bbc	-0.017652385
59	0x3d09a723	0.03360666
60	0x3bc7d58a	0.006098454
61	0x3e1db33f	0.15400408
62	0x3dc5d750	0.09660208
63	0xbd82ad93	-0.06380763
64	0xbb1afd5b	-0.0023649547
65	0x3dfbf786	0.12303071
66	0x3d3720c4	0.044708982
67	0xbd98ba47	-0.074574046
68	0x3ceb792f	0.028744308
69	0xbd74a0c2	-0.059723623
70	0x3cbceb86	0.023061525
71	0x3c1ab4f1	0.009442554
72	0xbe17e60d	-0.14833851
73	0xbe582283	-0.21106915
74	0x3d59f671	0.05321354
75	0xbd26715d	-0.040635455
76	0xbc00e69f	-0.007867484
77	0x3d91c011	0.07116712
78	0xbe25b2bb	-0.16181462
79	0xbd0ad9af	-0.033899006
80	0x3c37b159	0.011211717
81	0x3caefd12	0.021360908
82	0xbd3a3559	-0.045461033
83	0x3e2411ee	0.16022465
84	0xbe04f6b2	-0.12984732
85	0x3db34ab7	0.08754485
86	0xbe0f9518	-0.14021719
87	0x3bb8763f	0.0056293304
88	0xbbee175e	-0.007265969
89	0x3dc11000	0.0942688
90	0x3da76fed	0.08175645
91	0xbd96d7ad	-0.07365356
92	0xbdb81b38	-0.089895666
93	0x3c0a07bb	0.008424695
94	0xbdc0e4cd	-0.0941864
95	0x3dbf3735	0.09336702
96	0x3dafe0ea	0.08587821
97	0xbd9abd61	-0.075556524
98	0xbd30370d	-0.04302125
99	0xbda91131	-0.08255232
100	0x3c49c19d	0.012314227
101	0xbd3be909	-0.045876537
102	0xbcca0e5b	-0.024665048
103	0x3c79d47a	0.015248412
104	0xbd4c81ee	-0.049928598
105	0x3ce2bc7c	0.027677767
106	0xbc8bd124	-0.0170675
107	0x3c82e557	0.015978498
108	0xbc6ad976	-0.014334073
109	0x3e149fcd	0.14514084
110	0xbdb3434d	-0.08753071
111	0xbd0b5416	-0.034015737
112	0xbd7288dd	-0.059212554
113	0x3d0325f4	0.032018617
114	0xbd4c0114	-0.049805716
115	0xbd844954	-0.06459299
116	0xbd7942e5	-0.06085481
117	0x3d812430	0.0630573
118	0xbb96e554	-0.0046049748
119	0xbbe99b4a	-0.0071291076
120	0xbceee513	-0.029161965
121	0x3b5a0e65	0.003327274
122	0xbd8608df	-0.06544661
123	0xbde70889	-0.11280925
124	0x3cbac7a3	0.022800272
125	0xbcd6f71b	-0.026240876
126	0x3c7ff638	0.015622668
127	0xbc29b044	-0.010356966
128	0x3d459967	0.048242
129	0x3dc497ca	0.09599264
130	0xbdae0c08	-0.084983885
131	0x3d8a1de3	0.06743982
132	0xbd5e89c5	-0.054330606
133	0xbc1b1ac3	-0.00946683
134	0xbd5f678f	-0.05454212
135	0xbd8e1556	-0.06937663
136	0xbcb9567c	-0.022624247
137	0xbd62e3de	-0.055393092
138	0x3d1bcf00	0.038039207
139	0xbe0b68f9	-0.13614263
140	0xbd86e449	-0.06586511
141	0x3d0ef0c9	0.0348976
142	0xbcad7346	-0.02117313
143	0x3e0e6e7f	0.13909338
144	0xbe0b8e35	-0.13628466
145	0x3e29ded1	0.16588904
146	0x3b4a673b	0.0030884284
147	0xbe044cb6	-0.12919888
148	0x3928e569	0.0001610719
149	0xbd0391d9	-0.032121513
150	0xbe0ee8e9	-0.13956036
151	0xbd6c75cf	-0.05772954
152	0x3e2a7ad1	0.16648413
153	0x3d9d7360	0.07688022
154	0x3db5a3d9	0.08869142
155	0xbd67a4e8	-0.05655375
156	0xbcafcd8c	-0.021460317
157	0xbd11a054	-0.03555329
158	0xbd493723	-0.049124848
159	0x3db39276	0.087681696
160	0xbda6d125	-0.0814536
161	0xbd830c3a	-0.063988164
162	0xbd0d5f70	-0.034514844
163	0x3dd7a1ad	0.10528884
164	0xbb86238c	-0.004093593
165	0xbd4a71a9	-0.0494248
166	0x3dc4b2e5	0.09604434
167	0xbd1f1fc3	-0.03884865
168	0x3e213377	0.15742289
169	0xbc7450c2	-0.014911832
170	0x3cf22ffd	0.029563898
171	0x3e105f4c	0.14098853
172	0x3e11d777	0.1424235
173	0x3d40f12d	0.047105003
174	0x3dc1c965	0.09462241
175	0xbc429be3	-0.011877987
176	0x3d9dc5c7	0.07703739
177	0xbe6e71fe	-0.23285672
178	0xbd941896	-0.07231252
179	0xbbffdb14	-0.0078080986
180	0xbce45feb	-0.027877769
181	0xbe17ac09	-0.1481172
182	0xbd541422	-0.051777013
183	0x3dd3fdb6	0.10351126
184	0xbd8626ad	-0.065503456
185	0xbc5a0fa7	-0.013309396
186	0xbcc3c63e	-0.02389824
187	0x3dc8d3f0	0.09806049
188	0xbdc5de87	-0.09661584
189	0x3db4909a	0.08816643
190	0xbda26623	-0.07929637
191	0xbd40f96e	-0.047112875
192	0x3c12b38b	0.008953939
193	0xbdd7b058	-0.10531682
194	0x3e022b39	0.127118
195	0x3d271d79	0.04079959
196	0x3d850752	0.06495537
197	0x3e348484	0.17628676
198	0xbd36cf7c	-0.044631466
199	0xbd2842a6	-0.041079186
200	0x3e189e1f	0.14904068
201	0xbe0dcf54	-0.1384862
202	0x3e220028	0.15820372
203	0xbdc3308a	-0.095307425
204	0xbdc5e458	-0.09662694
205	0x3dbdbb76	0.09264271
206	0x3d9a1df4	0.07525244
207	0xbd7573d2	-0.059924908
208	0x3d3ec234	0.046571925
209	0x3da17282	0.07883169
210	0xbe216e59	-0.1576475
211	0x3dd185ea	0.1023062
212	0x3dc11cdf	0.09429335
213	0xbba534d5	-0.0050416985
214	0xbda91b8f	-0.082572095
215	0xbd8b8818	-0.06813067
216	0xbdc26aa3	-0.094929956
217	0x3e165ec7	0.14684592
218	0x3c984d86	0.018591654
219	0x3d8effaf	0.069823615
220	0x3c706bc6	0.014674133
221	0x3d8067d8	0.062698066
222	0x3da173ae	0.07883392
223	0xbd775a20	-0.060388684
224	0xbd93828e	-0.07202636
225	0xbcaa7c83	-0.020811325
226	0x3d81dff8	0.06341547
227	0xbd603296	-0.054735743
228	0x3d973246	0.07382636
229	0x3d4ab136	0.049485408
230	0x3e3f8dce	0.18706438
231	0x3bfa3495	0.007635663
232	0xbd2c6966	-0.042092703
233	0x3d66cfd5	0.056350548
234	0x3a6042ba	0.0008554865
235	0x3dbbb0ac	0.09164557
236	0xbbac128b	-0.005251234
237	0xbc5e3436	-0.013562253
238	0xbda3454b	-0.07972201
239	0xbd875e9d	-0.06609843
240	0x3bb2a6ff	0.0054520364
241	0xbd34830c	-0.04407029
242	0xbe126aa1	-0.14298488
243	0xbe3ba6f9	-0.18325414
244	0x3d813ef4	0.063108355
245	0xbdb99df9	-0.09063334
246	0x3dedfe65	0.116207875
247	0x3e503020	0.20330858
248	0xbd396c84	-0.045269504
249	0xbc0bdf99	-0.008537197
250	0x3c2de828	0.010614432
251	0x3d619fda	0.055084087
252	0x3c6e025a	0.014526928
253	0x3bfa7ae1	0.007644043
254	0x3e01e636	0.12685475
255	0xbcf11ae1	-0.029431762

network_body._body_endoder.seq_layers.2.bias f4 [128]
0	0x00000000	0.0
1	0x00000000	0.0
2	0x00000000	0.0
3	0x00000000	0.0
4	0x00000000	0.0
5	0x00000000	0.0
6	0x00000000	0.0
7	0x00000000	0.0
8	0x00000000	0.0
9	0x00000000	0.0
10	0x00000000	0.0
11	0x00000000	0.0
12	0x00000000	0.0
13	0x00000000	0.0
14	0x00000000	0.0
15	0x00000000	0.0
16	0x00000000	0.0
17	0x00000000	0.0
18	0x00000000	0.0
19	0x00000000	0.0
20	0x00000000	0.0
21	0x00000000	0.0
22	0x00000000	0.0
23	0x00000000	0.0
24	0x00000000	0.0
25	0x00000000	0.0
26	0x00000000	0.0
27	0x00000000	0.0
28	0x00000000	0.0
29	0x00000000	0.0
30	0x00000000	0.0
31	0x00000000	0.0
32	0x00000000	0.0
33	0x00000000	0.0
34	0x00000000	0.0
35	0x00000000	0.0
36	0x00000000	0.0
37	0x00000000	0.0
38	0x00000000	0.0
39	0x00000000	0.0
40	0x00000000	0.0
41	0x00000000	0.0
42	0x00000000	0.0
43	0x00000000	0.0
44	0x00000000	0.0
45	0x00000000	0.0
46	0x00000000	0.0
47	0x00000000	0.0
48	0x00000000	0.0
49	0x00000000	0.0
50	0x00000000	0.0
51	0x00000000	0.0
52	0x00000000	0.0
53	0x00000000	0.0
54	0x00000000	0.0
55	0x00000000	0.0
56	0x00000000	0.0
57	0x00000000	0.0
58	0x00000000	0.0
59	0x00000000	0.0
60	0x00000000	0.0
61	0x00000000	0.0
62	0x00000000	0.0
63	0x00000000	0.0
64	0x00000000	0.0
65	0x00000000	0.0
66	0x00000000	0.0
67	0x00000000	0.0
68	0x00000000	0.0
69	0x00000000	0.0
70	0x00000000	0.0
71	0x00000000	0.0
72	0x00000000	0.0
73	0x00000000	0.0
74	0x00000000	0.0
75	0x00000000	0.0
76	0x00000000	0.0
77	0x00000000	0.0
78	0x00000000	0.0
79	0x00000000	0.0
80	0x00000000	0.0
81	0x00000000	0.0
82	0x00000000	0.0
83	0x00000000	0.0
84	0x00000000	0.0
85	0x00000000	0.0
86	0x00000000	0.0
87	0x00000000	0.0
88	0x00000000	0.0
89	0x00000000	0.0
90	0x00000000	0.0
91	0x00000000	0.0
92	0x00000000	0.0
93	0x00000000	0.0
94	0x00000000	0.0
95	0x00000000	0.0
96	0x00000000	0.0
97	0x00000000	0.0
98	0x00000000	0.0
99	0x00000000	0.0
100	0x00000000	0.0
101	0x00000000	0.0
102	0x00000000	0.0
103	0x00000000	0.0
104	0x00000000	0.0
105	0x00000000	0.0
106	0x00000000	0.0
107	0x00000000	0.0
108	0x00000000	0.0
109	0x00000000	0.0
110	0x00000000	0.0
111	0x00000000	0.0
112	0x00000000	0.0
113	0x00000000	0.0
114	0x00000000	0.0
115	0x00000000	0.0
116	0x00000000	0.0
117	0x00000000	0.0
118	0x00000000	0.0
119	0x00000000	0.0
120	0x00000000	0.0
121	0x00000000	0.0
122	0x00000000	0.0
123	0x00000000	0.0
124	0x00000000	0.0
125	0x00000000	0.0
126	0x00000000	0.0
127	0x00000000	0.0

action_model._continuous_distribution.mu.weight f4 [1, 128]
0	0x3ae26d62	0.001727503
1	0x3c0eebdf	0.008723228
2	0xbc97fbcd	-0.018552685
3	0x3c8f6959	0.017506288
4	0x3caa3bff	0.020780561
5	0x3c943cd3	0.01809541
6	0x3b606590	0.0034240223
7	0x3cba031f	0.022706566
8	0xbce3a4cd	-0.027788544
9	0xbb854507	-0.0040670666
10	0xbd1f16d3	-0.038840126
11	0xbaa585f7	-0.0012628426
12	0x3b50b433	0.0031845688
13	0x3cb9913f	0.022652267
14	0x3ccfce8f	0.02536705
15	0x3b9a0a70	0.0047009513
16	0xbc819d6e	-0.015822139
17	0x3cca09b5	0.024662832
18	0x3c3f0507	0.011658913
19	0xbc661393	-0.014042753
20	0x3c0821a4	0.008308802
21	0xbc0b0114	-0.008484144
22	0xbb12c089	-0.0022392592
23	0xbc47de6e	-0.012199027
24	0xbc89affb	-0.016807547
25	0xbaacdc5b	-0.001318823
26	0x3bf559b7	0.0074875015
27	0xbb32dce6	-0.002729231
28	0xba8687d7	-0.0010263872
29	0xbba57b0f	-0.00505007
30	0x3c8ebc3b	0.01742374
31	0x3c341139	0.010990434
32	0xbc7157b8	-0.014730386
33	0x3d17760f	0.036977824
34	0x3a457dd6	0.00075337046
35	0xbc9a1bed	-0.018812144
36	0x3c897604	0.016779907
37	0x3c6bf57a	0.014401788
38	0xbc223133	-0.009899425
39	0xbb7056e2	-0.003667288
40	0x3cb624b5	0.0222343
41	0x3c7a7f63	0.01528916
42	0xbcde7a1a	-0.027157832
43	0xbc8ce465	-0.01719875
44	0xbc6c207d	-0.014412043
45	0x3cc41a27	0.023938252
46	0x3b9a4c53	0.0047088056
47	0xbbaa0e7f	-0.0051897164
48	0xbc46b9eb	-0.012129287
49	0x3c31d7f3	0.010854709
50	0x3bd9c7a0	0.0066461116
51	0x3cd28003	0.025695806
52	0x3ca90d17	0.020636125
53	0xbca9d03b	-0.020729175
54	0x3bbc106f	0.0057392637
55	0xbd1a9f8b	-0.03774981
56	0xbcc18e68	-0.023627475
57	0xbc4a98b9	-0.0123655135
58	0xbb086ec9	-0.0020817986
59	0xbce6a67d	-0.02815556
60	0xbc6de23a	-0.014519269
61	0xbc55ffc2	-0.013061466
62	0x3d0ced6d	0.034406114
63	0xbcae27b6	-0.02125917
64	0xbb95dc09	-0.0045733494
65	0x3c05210b	0.008125554
66	0xbc50561b	-0.012715842
67	0x3c94ee17	0.018179936
68	0x3c1641f4	0.009170998
69	0xbcd1c16a	-0.025604922
70	0xbc959c4d	-0.018263007
71	0xbc735d6d	-0.014853817
72	0xbc93264c	-0.017962597
73	0xbcec2103	-0.028824335
74	0xbca09c00	-0.019605637
75	0x3ce7bee7	0.028289272
76	0xbbcda31f	-0.006275549
77	0x3c373ad2	0.011183457
78	0x3b901f4f	0.0043982635
79	0xbc25b761	-0.010114522
80	0xbcd61b9d	-0.026136214
81	0x3c6972ad	0.014248532
82	0x3bdb6550	0.006695427
83	0xbb1a638b	-0.0023557867
84	0x3c2ea537	0.0106595075
85	0xbc2b6ce7	-0.010462976
86	0xba2cce29	-0.00065919996
87	0xbb397d91	-0.0028303603
88	0x3aeef76d	0.0018231698
89	0xbc80506d	-0.01566335
90	0xbbb30b8e	-0.005464024
91	0xbc8c2061	-0.017105283
92	0x3c060042	0.008178772
93	0x3cc6121f	0.024178563
94	0xbb49043c	-0.003067269
95	0xbcac3ed9	-0.021026062
96	0x3c08cf79	0.008350247
97	0x3c2241af	0.0099033555
98	0x3c0480ac	0.008087318
99	0x3b87a12d	0.0041390867
100	0x3bb20103	0.0054322495
101	0xbbd7a697	-0.0065811384
102	0x3cbbb9da	0.02291577
103	0xbc75ccdf	-0.015002458
104	0x3c6fd123	0.014637264
105	0x3d45ba53	0.048273396
106	0xbbe6128b	-0.0070212535
107	0x3b40bc9e	0.00294093
108	0x3d014e0a	0.031568564
109	0xbd152e18	-0.03642091
110	0xbbd79e95	-0.0065801837
111	0xbbd766a2	-0.006573514
112	0xba7752a8	-0.0009434619
113	0xbb97f003	-0.004636766
114	0x3ce770d5	0.028252045
115	0xbbcbd973	-0.0062209903
116	0x3b9ed494	0.0048471186
117	0x3cba8e23	0.022772854
118	0xbc92e94d	-0.017933512
119	0x3b9ceabf	0.004788726
120	0x3c2a8870	0.010408506
121	0xbc5cc28b	-0.013474117
122	0xbb4f0852	-0.0031590653
123	0xbc215da2	-0.009848984
124	0x3d117e91	0.035521094
125	0x3c8bce56	0.017066162
126	0x3d2c7306	0.042101882
127	0x3cecaf83	0.028892284

action_model._discrete_distribution.branches.0.weight f4 [3, 128]
0	0xbb89802b	-0.004196187
1	0x3bf42cf2	0.007451647
2	0xbba352ad	-0.004984221
3	0xbbf98e73	-0.007615858
4	0x3b5a4088	0.0033302624
5	0x3c83c3a1	0.016084494
6	0xbb205703	-0.0024465926
7	0x3bdb2408	0.006687645
8	0x3bf980ab	0.0076142154
9	0x3bf660e8	0.0075188763
10	0x3c76f11f	0.015072136
11	0xbb809918	-0.0039245
12	0xbb9664bb	-0.0045896447
13	0xbc85daf1	-0.016339751
14	0xbc3b4efd	-0.0114324065
15	0x3c296776	0.010339608
16	0xbc4078dd	-0.011747566
17	0x3bb4da43	0.005519183
18	0xbb83eafb	-0.0040258146
19	0x3b254a7b	0.0025221396
20	0x3a851bd2	0.0010155386
21	0xbc3d8fbc	-0.0115699135
22	0x3c095322	0.008381637
23	0x3bbf64e5	0.005840885
24	0xbc221e82	-0.009894969
25	0xbc5d4987	-0.0135063
26	0x3b866b4e	0.004102147
27	0xbc36409f	-0.011123805
28	0xbbbfc314	-0.0058521125
29	0xbc19609f	-0.009361415
30	0xbc39b6d4	-0.0113350935
31	0x3c21a4c3	0.009865942
32	0xbc0382b3	-0.008026767
33	0x3b17f577	0.002318708
34	0x3b887ccc	0.0041652676
35	0xbc699e07	-0.014258868
36	0x3c53434b	0.012894462
37	0xbb90ac70	-0.0044150874
38	0xbba78f44	-0.005113514
39	0xbb934e4f	-0.004495419
40	0xbbcae0bf	-0.0061913426
41	0xbaf68b8b	-0.0018809898
42	0xbc239525	-0.009984289
43	0x3c8c54ad	0.01713022
44	0xbc4f79c7	-0.012663311
45	0x3a48d7df	0.0007661562
46	0xbc1d896b	-0.0096152825
47	0xbc7308f2	-0.014833676
48	0xbb8beaed	-0.0042699487
49	0x3b04d884	0.0020270655
50	0xbb0c9a3c	-0.0021454236
51	0x3bc8b560	0.006125137
52	0x3b74c34d	0.0037347854
53	0xbb406a4b	-0.002936023
54	0x3c14dceb	0.009085874
55	0x3c6bc4a2	0.014390143
56	0x3c8327df	0.016010223
57	0xba7cf6c8	-0.00096498104
58	0x3c15c221	0.009140522
59	0xbc0a5f0b	-0.008445512
60	0x3c197297	0.009365699
61	0x3c3374c2	0.01095313
62	0xbc851f31	-0.016250225
63	0xbbaeb097	-0.0053311097
64	0xbab4fb7f	-0.0013807862
65	0x3bdfbcc8	0.0068279244
66	0xbc33cd77	-0.01097428
67	0x3ba80535	0.005127574
68	0xbc9d8ab3	-0.019231176
69	0x3c4e111d	0.012577322
70	0xbb52853f	-0.0032122878
71	0x3bd85b42	0.0066026757
72	0x3a8d490b	0.0010779215
73	0x37042dab	7.878446e-06
74	0xbb9f781b	-0.0048666126
75	0x3ba8a335	0.005146409
76	0x3bbf6e0f	0.0058419774
77	0x3b8573cf	0.0040726434
78	0xbb9e0263	-0.004822062
79	0x3a3458a5	0.0006879664
80	0x3ac3fdfa	0.001495301
81	0xbc2d0838	-0.0105610415
82	0xbbb3d133	-0.005487585
83	0x3c6ad05a	0.014331901
84	0xbc86e98f	-0.016468791
85	0xbb704727	-0.0036663504
86	0x3aed7715	0.0018117154
87	0xbb008fdc	-0.0019616997
88	0x3c088c41	0.00833422
89	0xbbd29acb	-0.006427144
90	0xbadabec5	-0.0016688934
91	0xbc0711b8	-0.008243971
92	0xbc45a22a	-0.012062589
93	0x3a820543	0.0009919781
94	0x3ba9b15f	0.005178615
95	0xbbff42f8	-0.0077899657
96	0x3bb001d2	0.0053713107
97	0x3be1921b	0.006883872
98	0xbb98c2f1	-0.0046619107
99	0x39d4cafb	0.00040587023
100	0x3b8d60bd	0.0043145106
101	0x3c2f1f87	0.010688669
102	0xbc12962f	-0.008946939
103	0x3a8a49b1	0.0010550526
104	0x3b4d5a20	0.0031334236
105	0xbc0bc1ce	-0.008530093
106	0x3c1cf49b	0.009579803
107	0x3c8ebbae	0.017423477
108	0xbb2e7e69	-0.002662564
109	0xbbc06e2e	-0.0058725094
110	0xbaf70ffa	-0.0018849366
111	0xbc155033	-0.009113359
112	0xbbf98317	-0.007614504
113	0x3c30eff3	0.010799396
114	0x39e0ad60	0.00042853784
115	0x3b7194bf	0.0036862341
116	0x3bc3be49	0.0059736115
117	0xbb12186b	-0.0022292386
118	0x3c361a8b	0.011114727
119	0x3c0e75c3	0.008695069
120	0x3b51fdf8	0.0032042246
121	0x3c2c9d4d	0.01053555
122	0xbbd1ba23	-0.006400363
123	0x3cb22567	0.02174635
124	0xbb6d785d	-0.0036235072
125	0x3cb326a3	0.02186901
126	0xbc44d697	-0.012014053
127	0xbb902187	-0.004398528
128	0x3be88660	0.007096097
129	0xbbe02d5d	-0.006841345
130	0xbc3f63ee	-0.01168154
131	0xbbedf8d0	-0.007262327
132	0xbb93286f	-0.004490904
133	0x3988fb47	0.00026127158
134	0xba8e7a21	-0.0010870137
135	0xbbc35313	-0.005960831
136	0x3bb2fa5d	0.0054619745
137	0x3a6351a5	0.0008671529
138	0x3a5b560a	0.0008367008
139	0x3ac2629a	0.0014830411
140	0x3b73580d	0.003713134
141	0x3bd671cf	0.0065443288
142	0x3bdb9b98	0.006701898
143	0xbc0a7e7d	-0.008453009
144	0xbb9dd16b	-0.0048162243
145	0x3c4b46bd	0.012407002
146	0xbb18c8a3	-0.0023312948
147	0xbadee9ef	-0.0017006974
148	0xbb8d1625	-0.0043056183
149	0xbb4de375	-0.0031416093
150	0x3b4b4904	0.0031018863
151	0xbbad12a7	-0.0052817645
152	0x3c472872	0.012155639
153	0xbbd3de2a	-0.006465693
154	0x3c6ad2f5	0.014332523
155	0xbc1c4e37	-0.009540132
156	0xbbbbd3cf	-0.0057320367
157	0x3ac751a4	0.0015206826
158	0xbbc5e21f	-0.0060389186
159	0x3c69129f	0.014225631
160	0x3c3e1ddb	0.011603798
161	0x3c1964e6	0.009362435
162	0xbc3d0b7f	-0.011538385
163	0x3c2ff653	0.010739881
164	0x3a66bdef	0.0008802106
165	0xbbaf7a6f	-0.0053551714
166	0xbbc946d8	-0.0061424784
167	0xbad0fc90	-0.001594441
168	0xbbffbfd3	-0.0078048497
169	0x3c0856d5	0.008321484
170	0x3c8baccb	0.017050168
171	0xbba083b5	-0.004898513
172	0xbbfe08fa	-0.007752535
173	0x3c293354	0.010327179
174	0xbbf1e5fd	-0.007382153
175	0xbcca5145	-0.024696955
176	0xbc380e2b	-0.011233847
177	0xbc9a3320	-0.018823206
178	0x3b833a0b	0.004004722
179	0xbc6f14a7	-0.014592326
180	0x3a036be2	0.0005013329
181	0x3aa0446d	0.0012227424
182	0xba1e3a0c	-0.00060358713
183	0x3be80bba	0.007081476
184	0xbb968d5c	-0.004594488
185	0xbb22c789	-0.002483817
186	0x3cb99517	0.0226541
187	0xbc10c0cb	-0.008835028
188	0x3bac75ae	0.005263052
189	0x38a0f8c8	7.675734e-05
190	0x3c34c692	0.011033671
191	0x3bf3aa4d	0.007436073
192	0xbbbdfcb2	-0.005797946
193	0xbc1e7121	-0.009670527
194	0x3ba6c74f	0.0050896774
195	0xbb9b348a	-0.0047364878
196	0x3bb20312	0.005432495
197	0x3b646f18	0.0034856256
198	0x3987b94c	0.00025887263
199	0x3ba55967	0.005046058
200	0xbae38345	-0.0017357847
201	0x3c035c9d	0.008017686
202	0xbc7f33b2	-0.01557629
203	0x3bc04e57	0.005868714
204	0x39a7f10f	0.00032032325
205	0x3b0bc6d7	0.0021328235
206	0xbbc5255e	-0.0060164174
207	0x3bb304fd	0.005463241
208	0x37a54682	1.9702366e-05
209	0x3b0307d3	0.0019993677
210	0xbc01b7ce	-0.007917358
211	0x3c0fcd23	0.008776936
212	0xbc531328	-0.012882985
213	0x3cce3cd2	0.025175486
214	0xbbaf00ac	-0.0053406563
215	0xbc301614	-0.010747451
216	0xbc46000b	-0.012084971
217	0xbc08ab8b	-0.00834168
218	0xbb95be42	-0.0045697996
219	0x3a8e6f44	0.00108669
220	0xbbed0cff	-0.0072342153
221	0xbb93eacb	-0.0045140735
222	0xba852ac6	-0.0010159842
223	0xbbbaa972	-0.005696469
224	0x3c09cce2	0.008410664
225	0x3b0d3313	0.0021545335
226	0xbc0e3951	-0.0086806575
227	0xbc80b46b	-0.01571103
228	0x3c1e09ec	0.00964592
229	0x3c02f699	0.007993364
230	0xbb831fa1	-0.004001573
231	0xba0dc708	-0.0005408381
232	0xbca74171	-0.020416947
233	0x3a330124	0.0006828478
234	0xbc6ef6b8	-0.0145851895
235	0xba6f15fa	-0.0009120401
236	0x3a89ebeb	0.001052258
237	0x3b61dc43	0.0034463562
238	0x3b906b8f	0.0044073532
239	0xbbfd270d	-0.0077256025
240	0xbc277b6c	-0.010222297
241	0x3b610e6f	0.0034340878
242	0xbbb1ac77	-0.0054221707
243	0x3c219d8a	0.00986422
244	0x3a4c9812	0.00078046427
245	0x3cb4642e	0.022020426
246	0x39e365a7	0.0004337255
247	0x3bddecf0	0.00677263
248	0x3b5b27b8	0.0033440422
249	0xbb173b20	-0.0023076013
250	0x3be87708	0.0070942678
251	0xbc306ddb	-0.010768379
252	0x3a831ce1	0.0010003113
253	0xba9f73fb	-0.0012165302
254	0xbbf6640f	-0.007519252
255	0x3c1ec1da	0.0096897725

action_model._discrete_distribution.branches.0.bias f4 [3]
0	0x00000000	0.0
1	0x00000000	0.0
2	0x00000000	0.0

action_model._discrete_distribution.branches.1.weight f4 [2, 128]
0	0x3bee8708	0.0072792806
1	0x3b1769bb	0.0023103792
2	0xba2f70b6	-0.00066925155
3	0xba00e661	-0.00049171416
4	0x3bcd3e0b	0.0062634996
5	0x3c61e83f	0.013788282
6	0x3c6cb930	0.014448449
7	0xbca53567	-0.020167066
8	0xbc6f4a5d	-0.014605132
9	0x3c1111ac	0.008854311
10	0x3b90f66f	0.0044239084
11	0x3b9464de	0.004528626
12	0x3c8fdfbe	0.017562743
13	0x3c19b7c4	0.009382192
14	0x3c1b9b04	0.009497408
15	0xbc6f248d	-0.014596117
16	0x3ca61433	0.020273304
17	0x3b64f0ed	0.0034933642
18	0xbbbeecca	-0.0058265673
19	0xbc3b7bfe	-0.011443136
20	0xbbec13c0	-0.007204503
21	0xbbe3a0ad	-0.0069466443
22	0xbc08696a	-0.008325914
23	0x3c01a98a	0.007913956
24	0x3ba775b9	0.005110469
25	0xb920c813	-0.00015333323
26	0x3a8bba8b	0.0010660453
27	0x3a2b6d43	0.00065394136
28	0xbb489705	-0.0030607593
29	0xbb66ebb7	-0.0035235712
30	0x3be8f323	0.0071090623
31	0xbc8aa1df	-0.01692289
32	0xba446547	-0.0007491898
33	0x3a07baab	0.0005177657
34	0x3bbe9e5a	0.005817217
35	0xbb49e97a	-0.003080933
36	0xbbc03f1d	-0.0058668987
37	0x3c66a157	0.014076552
38	0xbada820b	-0.0016670836
39	0xbc9c744e	-0.019098427
40	0x3bf75887	0.007548395
41	0x3ca70d0e	0.020391967
42	0x3b8baddb	0.0042626685
43	0xbc3e5504	-0.011616949
44	0xbb2faf0f	-0.0026807224
45	0xbb706300	-0.0036680102
46	0xbb25fe4f	-0.0025328582
47	0x3b87f7db	0.0041494197
48	0xbb264307	-0.0025369541
49	0xbc6815b8	-0.014165334
50	0x3b70d2f7	0.0036746839
51	0x3c8c6303	0.017137056
52	0xbc71fcaf	-0.014769717
53	0xbaf8ea6d	-0.0018990763
54	0x3adeadab	0.0016989013
55	0xbb84aa44	-0.0040486176
56	0x3b0e3018	0.0021696147
57	0x3c68f5fb	0.014218803
58	0x3c5840d5	0.013199051
59	0x3c463ba3	0.012099179
60	0x3b863037	0.004095103
61	0x3b54fdb8	0.003249986
62	0xbb178f6f	-0.0023126265
63	0xbba5f977	-0.005065139
64	0xbc0f5560	-0.008748382
65	0xbb9f5a17	-0.0048630345
66	0x3c1e79fb	0.009672637
67	0x3b93e2fb	0.004513142
68	0x3b8c4fe7	0.004281986
69	0x3af2b920	0.0018518306
70	0xbc2149f1	-0.009844289
71	0x3b483723	0.0030550442
72	0xbba98177	-0.005172904
73	0x3ca283b3	0.01983819
74	0x3baaf2ad	0.0052169175
75	0x393e8243	0.00018168338
76	0x3c0fa9b0	0.008768484
77	0xb8bfcb26	-9.145429e-05
78	0x3b9ea4c4	0.004841419
79	0x3c6aaadb	0.014322962
80	0x3c095ef0	0.008384451
81	0x3a726e2f	0.0009247986
82	0x3b90781e	0.0044088503
83	0xbc0bc9fd	-0.0085320445
84	0xbbee6818	-0.0072755925
85	0x3b070973	0.0020604997
86	0x3aa07467	0.0012241722
87	0x3c22ff73	0.009948599
88	0xba4ed0ea	-0.0007889407
89	0x3bc395b9	0.005968776
90	0xbc487890	-0.012235776
91	0x3b4d98ea	0.0031371661
92	0xbb0806a4	-0.0020755911
93	0x3ca579f2	0.02019975
94	0xb8286dff	-4.0156763e-05
95	0xbc1d9ebc	-0.009620365
96	0xbbff6a9a	-0.0077946903
97	0xb9a2e7d3	-0.0003107177
98	0xbbcdcdd7	-0.0062806415
99	0x3bd017e8	0.006350506
100	0xbc48591a	-0.012228275
101	0x39e09370	0.0004283446
102	0x3bbffc96	0.005858968
103	0xbab1914d	-0.0013547331
104	0x3bfa1f1a	0.007633102
105	0xbbf779ca	-0.00755236
106	0xbc495377	-0.012287966
107	0x3c4c8adc	0.0124842785
108	0xbb36b96e	-0.002788152
109	0xbc46f678	-0.012143724
110	0x3b7e3a7b	0.0038792181
111	0xbb8ed347	-0.0043586823
112	0xbc6717f7	-0.014104835
113	0x39ae9da3	0.00033305315
114	0xbbe721eb	-0.007053604
115	0xbc031eed	-0.008002979
116	0x3ac2361b	0.001481715
117	0x3c25cb98	0.010119341
118	0x3c27c935	0.010240843
119	0xbb4b3110	-0.0031004585
120	0xbc0c563b	-0.008565481
121	0xba9f1eaf	-0.0012139882
122	0x3925ddbf	0.00015818233
123	0xbc0da5ef	-0.008645519
124	0x3bdfc9d3	0.0068294792
125	0x3b6ecc3f	0.0036437658
126	0xbc16ba0f	-0.009199633
127	0xbbdb8fe7	-0.006700504
128	0xbbaa09db	-0.005189163
129	0xbb2dab94	-0.0026499974
130	0xbb2b868e	-0.002617273
131	0xbc834270	-0.01602289
132	0xbb2e71de	-0.0026618163
133	0x3b82c20f	0.0039904187
134	0x3bc5c000	0.006034851
135	0xbb5b52ea	-0.0033466169
136	0x3c664b07	0.014055974
137	0xbc68b892	-0.014204161
138	0xba99a31a	-0.0011721582
139	0x3b1666ad	0.0022949383
140	0xba583530	-0.00082476716
141	0xbb915169	-0.0044347537
142	0x3a99f61d	0.0011746321
143	0x3c916173	0.017746663
144	0xbab4f251	-0.0013805126
145	0xbba5a779	-0.0050553647
146	0xbbfbfbc7	-0.0076899263
147	0xbbee0efa	-0.007264969
148	0x3b4845f3	0.003055927
149	0x3c899c91	0.01679829
150	0x3b8a25cd	0.004215932
151	0xbc49ee67	-0.012324906
152	0x3bc36832	0.005963349
153	0xbc65835f	-0.014008372
154	0x3b935577	0.004496272
155	0xbc1d9571	-0.009618149
156	0x3c0c936b	0.008580069
157	0xbb932e79	-0.004491624
158	0x3c5e85ea	0.013581732
159	0xbc55170a	-0.013005981
160	0x3c568922	0.013094218
161	0xbc077a94	-0.008268971
162	0xbafd86b0	-0.0019342508
163	0xb991648b	-0.00027731466
164	0xbc791cd3	-0.015204626
165	0xbb1af0ea	-0.002364213
166	0x3bf365ba	0.0074278982
167	0x3c6b28e3	0.01435301
168	0x3b8fb35c	0.004385395
169	0xbb72acb8	-0.0037029218
170	0xba2cabfb	-0.00065869064
171	0x3a6d0e2b	0.0009042944
172	0xbbb0a30a	-0.0053905295
173	0xbca63e2f	-0.020293323
174	0x3c61a388	0.013771899
175	0x3b3df49d	0.0028984912
176	0x3b71d33a	0.0036899582
177	0x3c587aaf	0.013212844
178	0x3b7236db	0.0036958966
179	0x3c21796f	0.009855612
180	0xbbdb7f10	-0.0066984966
181	0xbb6f49df	-0.0036512536
182	0x3bbf68d6	0.005841355
183	0x3b5db9af	0.00338326
184	0xbc4ecec2	-0.012622537
185	0x3abd71db	0.0014453487
186	0xbbe4f368	-0.006987024
187	0xbb8ca42b	-0.0042920313
188	0x3bf289c8	0.0074016787
189	0x3cb64bcb	0.022252938
190	0x39e9984a	0.00044554687
191	0xbb336df3	-0.0027378767
192	0xbc731d5b	-0.014838542
193	0xbb2e7dbb	-0.0026625234
194	0xbb4a8326	-0.0030900924
195	0xbbab9772	-0.0052365595
196	0x3bc8f444	0.0061326344
197	0x3c1d4553	0.009599048
198	0x3babb2a9	0.005239804
199	0x3b44994f	0.0029998606
200	0xbc1cf210	-0.009579197
201	0xbbaf2a8e	-0.005345649
202	0xbafb3ae2	-0.0019167329
203	0x3c81037b	0.01574873
204	0xbc1793a9	-0.0092515135
205	0x3b1fd2bc	0.0024387082
206	0xbb643e97	-0.0034827346
207	0xbbc4b75b	-0.006003303
208	0xbb0e7737	-0.0021738538
209	0x3b04edea	0.002028341
210	0x3a8c178c	0.001068817
211	0xb9c9e427	-0.00038507694
212	0xbb9c3b93	-0.004767844
213	0xbacc6fa0	-0.0015597232
214	0x3b1ca6f0	0.0023903213
215	0x3b63153f	0.0034650115
216	0x3c1cf60a	0.009580145
217	0xbcc888bc	-0.024479263
218	0x3b84eab5	0.0040562996
219	0x3b9ee71b	0.0048493273
220	0xbbbea58e	-0.0058180755
221	0xbbb46a2b	-0.0055058203
222	0x3babec11	0.005246647
223	0x3bb4607f	0.0055046673
224	0xbc544f7f	-0.0129584065
225	0xbca2c74a	-0.019870419
226	0xbbe6f0e5	-0.00704776
227	0xbc2f0263	-0.010681721
228	0x3b08495b	0.0020795676
229	0x3c68708a	0.014186988
230	0xbc50bdcb	-0.012740563
231	0x3c10768d	0.008817327
232	0xbb828b47	-0.0039838883
233	0x3c412c04	0.011790279
234	0xbb017cce	-0.0019758227
235	0x3bd381f2	0.0064546997
236	0xbc185b38	-0.009299092
237	0x3c01c0a7	0.007919467
238	0xbbbf858a	-0.0058447765
239	0xbbcb0912	-0.0061961496
240	0xbc130ad4	-0.00897475
241	0xbbc8b68f	-0.0061252783
242	0xbb591e60	-0.0033129677
243	0x3b4f8ae7	0.0031668486
244	0xbac6248f	-0.0015117096
245	0xbbf4ec00	-0.0074744225
246	0x3bacb529	0.0052706194
247	0x3c45f515	0.012082358
248	0xba608d8f	-0.0008566016
249	0xbaf3296d	-0.0018551775
250	0xbb927561	-0.004469559
251	0xbb116a5b	-0.0022188637
252	0x3c1bb10e	0.009502662
253	0x3b44b49d	0.003001488
254	0x3c680253	0.01416071
255	0xbbfc89b8	-0.007706847

action_model._discrete_distribution.branches.1.bias f4 [2]
0	0x00000000	0.0
1	0x00000000	0.0

network_body._body_endoder.seq_layers.0.weight f4 [128, 6]
0	0xbe8d2fe0	-0.27575588
1	0xbea03975	-0.31293836
2	0xbeaf0816	-0.34185857
3	0xbf0091bc	-0.50222373
4	0xbea6966f	-0.32536647
5	0xbe571d56	-0.21007285
6	0x3ea93c9f	0.33054063
7	0xbedc811e	-0.4306726
8	0x3f2ae3bb	0.6675374
9	0xbdd6f628	-0.10496169
10	0x3f186b8c	0.59539104
11	0x3ecc0866	0.39850157
12	0x3ecf1d57	0.40452072
13	0x3d8754b0	0.0660795
14	0xbf685574	-0.9075539
15	0x3f5a3293	0.8523342
16	0x3ebc92f6	0.36830872
17	0xbdff1827	-0.124557786
18	0xbf08242c	-0.53180194
19	0x3e158fdc	0.14605659
20	0x3db3a574	0.08771792
21	0x3f16b6ca	0.58872664
22	0xbef226bb	-0.47295174
23	0xbe22460f	-0.15847038
24	0x3e881857	0.2658107
25	0x3e909aa6	0.28242987
26	0x3d33b109	0.043870006
27	0x3ead37db	0.33831677
28	0x3e94674d	0.28985062
29	0xbf30b9ef	-0.6903371
30	0x3e1a3804	0.15060431
31	0x3e418dad	0.18901701
32	0xbeb22f9d	-0.3480195
33	0xbe8ae959	-0.27131155
34	0xbd60f0ca	-0.054917134
35	0xbec1b97a	-0.3783682
36	0x3ea292e1	0.31752685
37	0x3e8687ad	0.26275387
38	0x3f03f8ae	0.5155133
39	0x3d4de97f	0.050271507
40	0xbdd02c5c	-0.10164711
41	0x3e3ac2ef	0.18238424
42	0x3f31f932	0.69520867
43	0x3e81bbcc	0.2533859
44	0x3ce96d6c	0.02849456
45	0xbecf163c	-0.4044665
46	0x3c12ee35	0.008967926
47	0x3ddcc3b0	0.10779512
48	0x3e3fc5f9	0.18727864
49	0xbf544939	-0.8292423
50	0xbedd4d14	-0.43222868
51	0x3e6b63de	0.22987315
52	0x3edda417	0.43289253
53	0xbeafa941	-0.34308818
54	0x3ecff408	0.4061587
55	0xbf44c897	-0.76868576
56	0x3f446189	0.76711327
57	0x3d900718	0.07032603
58	0xbe9e814b	-0.30958018
59	0x3e9e6ca7	0.3094227
60	0xbe4bdf21	-0.19909336
61	0xbef32b32	-0.47493893
62	0xbf153148	-0.5827832
63	0x3e6bd601	0.23030855
64	0x3e6c2533	0.23061065
65	0xbd8a6aaa	-0.06758626
66	0xbe42759a	-0.18990174
67	0x3df7596c	0.12077603
68	0xbe656d53	-0.22404985
69	0x3e4bbe0a	0.19896713
70	0xbe664038	-0.22485435
71	0x3ea811e8	0.3282616
72	0x3f0cf5d6	0.55062616
73	0x3f17453f	0.59090036
74	0x3cd6d88d	0.026226306
75	0x3f19052c	0.59773517
76	0xbebe8150	-0.37208033
77	0x3ed86916	0.42267674
78	0xbe28719f	-0.16449593
79	0xbcca1cbe	-0.024671908
80	0x3f53244e	0.8247727
81	0x3ebbe563	0.36698446
82	0x3f0bfa8f	0.546792
83	0x3dfffb9c	0.124991626
84	0xbdd4a64b	-0.1038328
85	0x3d8d80ac	0.06909308
86	0xbee13284	-0.43983853
87	0xbf176c2a	-0.5914942
88	0xbe786f60	-0.24261236
89	0xbe8f2253	-0.27955875
90	0x3dbb962f	0.091595046
91	0xbf0d07c0	-0.5508995
92	0x3d9f642c	0.07782778
93	0x3e12afe1	0.14324905
94	0xbe50b102	-0.20380023
95	0xbf4d40b8	-0.8017688
96	0x3e817feb	0.25292906
97	0x3e83f767	0.2577469
98	0xbd95651a	-0.07294674
99	0xbe644b5f	-0.22294377
100	0x3e8c65db	0.2742146
101	0x3d939ebc	0.072080106
102	0xbe264e56	-0.1624082
103	0x3f087e63	0.5331785
104	0x3db88642	0.09009983
105	0x3ee73049	0.45154026
106	0xbe34ad56	-0.17644247
107	0x3dd9d1c5	0.106357135
108	0xbf2d4713	-0.67686576
109	0x3f382eb0	0.7194624
110	0x3f9be349	1.2178737
111	0x3d87346c	0.066017956
112	0xbec3852c	-0.3818754
113	0x3eb41326	0.3517086
114	0xbe60dde2	-0.21959642
115	0xbf305361	-0.68877226
116	0x3f3d9082	0.74048626
117	0xbe20dd50	-0.15709424
118	0x3e2f1b1f	0.1710019
119	0x3d906f85	0.07052521
120	0x3c7fcdf1	0.015613065
121	0x3e0ffa7b	0.14060394
122	0x3ee20b75	0.44149366
123	0x3ecc6567	0.39921114
124	0xbe4ab59e	-0.19795844
125	0x3dddfcd5	0.108392395
126	0xbe6a5a36	-0.22885975
127	0x3e25f2b6	0.16205868
128	0xbf015e92	-0.5053493
129	0x3e14bc55	0.14524968
130	0x3da45fd4	0.0802609
131	0x3f5391fc	0.8264463
132	0x3ed7f7e2	0.42181307
133	0xbdb5820a	-0.088626936
134	0xbe162c95	-0.14665444
135	0x3f2c9d1a	0.6742722
136	0xbebf7ce0	-0.3739996
137	0x3ded16fa	0.11576648
138	0x3eda2f92	0.42614418
139	0x3de22c1e	0.11043571
140	0xbda00623	-0.078136705
141	0x3e6993f2	0.22810343
142	0xbf039e84	-0.5141375
143	0xbee056eb	-0.43816313
144	0x3ec791b5	0.38978353
145	0x3f12675d	0.5718897
146	0xbd7c55b1	-0.06160516
147	0x3e15be9c	0.14623493
148	0xbf170f9e	-0.59008205
149	0x3f5567c5	0.83361465
150	0x3ec163dc	0.377715
151	0xbdfa7fe6	-0.12231426
152	0xbdc33bfc	-0.095329255
153	0x3c27e8d4	0.010248382
154	0xbf091da5	-0.5356086
155	0x3e29414d	0.16528817
156	0x3eaec0fd	0.34131613
157	0xbe7a2274	-0.24427205
158	0x3e511d0f	0.20421241
159	0xbbdd32d7	-0.0067504453
160	0x3ed85751	0.42254117
161	0x3ede4c01	0.4341736
162	0xbe459578	-0.19295299
163	0x3f37c4bb	0.7178456
164	0xbdd346ae	-0.103162155
165	0x3daaac01	0.083335884
166	0xbe8f42b1	-0.2798057
167	0x3dfd81f2	0.12378301
168	0xbea73ba6	-0.32662696
169	0x3f2e4d44	0.6808665
170	0x3e984a19	0.29744032
171	0xbd119651	-0.035543744
172	0x3f9749b2	1.1819365
173	0xbe86b831	-0.26312402
174	0xbea98466	-0.33108824
175	0x3f15b761	0.5848294
176	0xbdf19441	-0.11795855
177	0x3ed3a819	0.41339186
178	0x3e6d89e5	0.23197134
179	0xbe22d049	-0.15899767
180	0x3dac6dd2	0.08419384
181	0xbed6244e	-0.41824573
182	0xbed3b2bd	-0.41347304
183	0x3f25bbff	0.64739984
184	0xbd82531b	-0.06363507
185	0x3ebbc0df	0.36670586
186	0x3eee9a54	0.46602118
187	0x3f07c613	0.5303661
188	0xbe1fde20	-0.15612078
189	0x3e397c69	0.18113865
190	0xbdd445af	-0.103648536
191	0xbe8112c0	-0.25209618
192	0x3ee08af6	0.4385602
193	0xbd7de692	-0.061987467
194	0xbf822ed7	-1.0170544
195	0xbe68efeb	-0.22747771
196	0xbf09b51e	-0.5379199
197	0xbd4ebe57	-0.05047449
198	0x3e4d4f60	0.2004981
199	0x3ebfe9ef	0.37483165
200	0xbdc98e23	-0.098415636
201	0x3e1ec5e1	0.15505172
202	0xbebee0f3	-0.37280998
203	0x3ea39e43	0.31956682
204	0xbd32aa3d	-0.043619383
205	0xbed68493	-0.4189802
206	0xbee5c20d	-0.44874611
207	0xbeb51a4a	-0.3537162
208	0xbe8d2503	-0.275673
209	0x3db53a99	0.08849067
210	0x3f1d7e8d	0.61521226
211	0x3ee97946	0.45600337
212	0x3e220439	0.15821923
213	0xbe01ecf2	-0.12688044
214	0x3dab11ab	0.08352979
215	0x3f3c4744	0.7354624
216	0x3b67b4a8	0.0035355482
217	0x3f2fc0ab	0.68653363
218	0xbe81883b	-0.25299248
219	0xbb73ad50	-0.003718216
220	0x3e369109	0.17828764
221	0xbd7004b8	-0.05859825
222	0x3e530336	0.20606694
223	0x3e9499e7	0.29023668
224	0xbe963380	-0.29336166
225	0x3e03fe7f	0.12890051
226	0x3e8237e3	0.25433263
227	0xbe22be14	-0.15892822
228	0x3d6b7cf5	0.057492215
229	0xbf39d250	-0.72586536
230	0x3e0eed8c	0.13957804
231	0xbc880ab9	-0.016606675
232	0xbeb37051	-0.35046628
233	0x3d03493c	0.032052264
234	0x3e9b94df	0.30387017
235	0xbdfb655b	-0.122751914
236	0xbf2cc450	-0.6748705
237	0xbecb6471	-0.39725068
238	0x3f0bc8d5	0.5460332
239	0x3edd6978	0.4324453
240	0x3d36accb	0.044598382
241	0xbeb29de5	-0.3488609
242	0xbde8aa36	-0.1136059
243	0xbebb67ea	-0.36602718
244	0x3e6841da	0.2268137
245	0x3ec41673	0.38298377
246	0xbc74a552	-0.014931994
247	0xbeafbeac	-0.3432516
248	0x3e580004	0.21093756
249	0x3e02fa60	0.12790823
250	0xbe2d8efd	-0.16949077
251	0x3d741bc1	0.05959678
252	0x3e93cc6d	0.28866902
253	0xbe19725b	-0.1498503
254	0x3ec1b38d	0.378323
255	0x3ed6974d	0.41912308

network_body._body_endoder.seq_layers.0.bias f4 [128]
0	0x00000000	0.0
1	0x00000000	0.0
2	0x00000000	0.0
3	0x00000000	0.0
4	0x00000000	0.0
5	0x00000000	0.0
6	0x00000000	0.0
7	0x00000000	0.0
8	0x00000000	0.0
9	0x00000000	0.0
10	0x00000000	0.0
11	0x00000000	0.0
12	0x00000000	0.0
13	0x00000000	0.0
14	0x00000000	0.0
15	0x00000000	0.0
16	0x00000000	0.0
17	0x00000000	0.0
18	0x00000000	0.0
19	0x00000000	0.0
20	0x00000000	0.0
21	0x00000000	0.0
22	0x00000000	0.0
23	0x00000000	0.0
24	0x00000000	0.0
25	0x00000000	0.0
26	0x00000000	0.0
27	0x00000000	0.0
28	0x00000000	0.0
29	0x00000000	0.0
30	0x00000000	0.0
31	0x00000000	0.0
32	0x00000000	0.0
33	0x00000000	0.0
34	0x00000000	0.0
35	0x00000000	0.0
36	0x00000000	0.0
37	0x00000000	0.0
38	0x00000000	0.0
39	0x00000000	0.0
40	0x00000000	0.0
41	0x00000000	0.0
42	0x00000000	0.0
43	0x00000000	0.0
44	0x00000000	0.0
45	0x00000000	0.0
46	0x00000000	0.0
47	0x00000000	0.0
48	0x00000000	0.0
49	0x00000000	0.0
50	0x00000000	0.0
51	0x00000000	0.0
52	0x00000000	0.0
53	0x00000000	0.0
54	0x00000000	0.0
55	0x00000000	0.0
56	0x00000000	0.0
57	0x00000000	0.0
58	0x00000000	0.0
59	0x00000000	0.0
60	0x00000000	0.0
61	0x00000000	0.0
62	0x00000000	0.0
63	0x00000000	0.0
64	0x00000000	0.0
65	0x00000000	0.0
66	0x00000000	0.0
67	0x00000000	0.0
68	0x00000000	0.0
69	0x00000000	0.0
70	0x00000000	0.0
71	0x00000000	0.0
72	0x00000000	0.0
73	0x00000000	0.0
74	0x00000000	0.0
75	0x00000000	0.0
76	0x00000000	0.0
77	0x00000000	0.0
78	0x00000000	0.0
79	0x00000000	0.0
80	0x00000000	0.0
81	0x00000000	0.0
82	0x00000000	0.0
83	0x00000000	0.0
84	0x00000000	0.0
85	0x00000000	0.0
86	0x00000000	0.0
87	0x00000000	0.0
88	0x00000000	0.0
89	0x00000000	0.0
90	0x00000000	0.0
91	0x00000000	0.0
92	0x00000000	0.0
93	0x00000000	0.0
94	0x00000000	0.0
95	0x00000000	0.0
96	0x00000000	0.0
97	0x00000000	0.0
98	0x00000000	0.0
99	0x00000000	0.0
100	0x00000000	0.0
101	0x00000000	0.0
102	0x00000000	0.0
103	0x00000000	0.0
104	0x00000000	0.0
105	0x00000000	0.0
106	0x00000000	0.0
107	0x00000000	0.0
108	0x00000000	0.0
109	0x00000000	0.0
110	0x00000000	0.0
111	0x00000000	0.0
112	0x00000000	0.0
113	0x00000000	0.0
114	0x00000000	0.0
115	0x00000000	0.0
116	0x00000000	0.0
117	0x00000000	0.0
118	0x00000000	0.0
119	0x00000000	0.0
120	0x00000000	0.0
121	0x00000000	0.0
122	0x00000000	0.0
123	0x00000000	0.0
124	0x00000000	0.0
125	0x00000000	0.0
126	0x00000000	0.0
127	0x00000000	0.0
