results/ppo/Player Behaviour/Player Behaviour-960.onnx (onnx, 76819 bytes, 10 tensors)

discrete_action_output_shape f4 [1, 2]
000000 00 00 40 40 00 00 00 40
       3.0 2.0

network_body._body_endoder.seq_layers.0.weight f4 [128, 6]
000000 3a bd d7 3e 80 41 30 3d 43 69 02 be 08 8a 98 be
       0.42136556 0.043031216 -0.12735467 -0.2979281
000010 46 cc 4e bf 12 af d1 3e 1c 39 ed 3c 89 dd 36 3f
       -0.80780447 0.4095388 0.028957896 0.71431786
000020 05 6a 2d 3e 98 a3 4a 3e e8 a9 2b 3e 85 ad 43 3c
       0.16934974 0.19788969 0.16764033 0.011943226
000030 cc dd 84 3e 76 7e 84 3e 9b b0 0c 3f f8 62 a1 3e
       0.25950468 0.25877732 0.5495698 0.3152082
000040 72 4c 8f bd 13 ac f3 3c a1 78 dc 3e a9 21 85 be
       -0.06997003 0.029745137 0.43060783 -0.26002243
000050 c6 43 8f bd c4 ba 64 bd 0e 98 6a 3c a1 8a 46 bf
       -0.06995349 -0.055842176 0.014318479 -0.7755528
000060 fa 43 8b 3d 40 c1 b1 be fb 73 41 3e 59 98 01 bf
       0.06800075 -0.3471775 0.188919 -0.5062309
000070 59 b2 3a 3e 6f 6c 9d bd 1b 97 87 be 87 2e 6d be
       0.18232097 -0.07686698 -0.26482472 -0.2316228
000080 4d 76 8e 3e 1c 42 65 3f 67 91 8b be 00 ea e0 bd
       0.2782463 0.89554 -0.2725937 -0.10982132
000090 f8 3a 21 bd 93 b0 b8 bd e1 ff 47 3e 3d 40 25 3f
       -0.039362878 -0.09018054 0.19531204 0.64551145
0000a0 36 de c4 3e fa cf 18 bf cd 44 03 3f a8 5b 60 bf
       0.38450783 -0.5969235 0.51276857 -0.87639856
0000b0 fa 02 d3 be 5c ab 3c 3e 08 72 89 be d3 4f 2b bd
       -0.41213208 0.18424743 -0.2684481 -0.041824173
0000c0 f5 fc be be 3b 34 27 bf bc 9e 45 be fc db 09 bf
       -0.37302366 -0.6531407 -0.19298834 -0.53851295
0000d0 46 c0 a2 3d d6 c0 d6 bd a8 a1 91 bd ce c2 33 bd
       0.079468295 -0.10485999 -0.071109116 -0.043886952
0000e0 5e da 62 3e 72 a8 6e 3f d7 e6 09 3f 6e 86 15 3f
       0.22153613 0.9322578 0.5386786 0.5840825
0000f0 e0 5e 03 be bc 39 de 3c 98 93 87 bd 93 b9 83 3e
       -0.1282916 0.02712714 -0.06619948 0.2572752
000100 e2 7f e6 3d 4a 9b 07 bf 73 6d 07 bf aa 87 22 bf
       0.112548605 -0.5297133 -0.5290138 -0.63488257
000110 bb 7d 90 3d 8a 97 38 be cf 6b 08 bf f9 ae 46 3d
       0.07055231 -0.18026558 -0.532895 0.04850671
000120 93 79 e9 3e 41 8a 2d 3f 16 3e 1d 3f 5d db b6 bd
       0.45600566 0.67789084 0.6142286 -0.08928559
000130 66 16 c5 3f 26 b9 81 3d a1 a9 12 bf c2 f4 e8 bd
       1.539746 0.063341424 -0.57290083 -0.11374809
000140 bc 9e d6 be 6d f9 52 bd 39 4e fb be 35 6d e8 bd
       -0.4191798 -0.051507402 -0.49083117 -0.113489546
000150 7e 15 3c bf de 0d e7 3d fd bb 15 3d a3 08 86 3e
       -0.73470294 0.11281942 0.036556233 0.26178464
000160 ba fc 83 3e b9 15 3c bf fb 52 19 3e 7e e4 b4 3e
       0.25778753 -0.73470646 0.14973061 0.35330576
000170 93 e7 1d 3f 3d 01 88 3d f5 7a a7 3e cf 58 d3 be
       0.6168148 0.06640861 0.32710996 -0.41278693
000180 bf 3b 81 3e bd 18 22 3f cc a7 06 be 8f a1 2e 3f
       0.25240895 0.63319 -0.13149947 0.6821527
000190 dc f4 92 3e 9b cb 50 3e 5f 49 c7 3e ad 77 80 3e
       0.28702438 0.2039017 0.38923165 0.25091305
0001a0 ea 7d 50 bf 50 df 4c 3e e4 ca 1e be 64 a6 67 bd
       -0.8144213 0.20007062 -0.15507084 -0.056555167
0001b0 d2 84 20 3f 34 46 87 bb 31 4b f9 be 1e c4 de be
       0.6270267 -0.004128242 -0.4869018 -0.43509
0001c0 9d 4b 24 3f 1a 7c 7b be 88 b9 1a 3f ad a4 0f bf
       0.64177877 -0.2455906 0.6043935 -0.5611065
0001d0 55 ae a1 be bd 02 3e be 1e 4c f7 bd b2 b0 83 3e
       -0.31578317 -0.18555732 -0.12075065 0.25720745
0001e0 75 73 e2 3e ab 0e 14 bf 4e c6 19 bf 7e a8 5b 3d
       0.44228712 -0.5783488 -0.60068214 0.053627484
0001f0 29 ab 82 3e 52 78 90 3d a0 fe 5e be 5e 7b a4 be
       0.2552121 0.07054199 -0.21776819 -0.32125372
000200 b7 25 ea 3d b1 6b c9 3e 97 00 ca be 90 e2 f1 be
       0.11432975 0.39339975 -0.39453575 -0.47243166
000210 90 82 98 be b1 cb cf be 12 e8 e9 be eb ca 4f bd
       -0.2978711 -0.40585092 -0.45684868 -0.050730627
000220 7b 13 84 be bc 82 95 be 34 6c b7 be c9 ae 29 3e
       -0.25796112 -0.29201305 -0.3582474 0.16570581
000230 68 18 85 be 6d 39 9f be 51 67 09 3f 16 60 54 3e
       -0.25995183 -0.310985 0.53673273 0.20739779
000240 c9 20 ce 3d da cc 8a bf e3 56 07 3e c3 01 11 be
       0.10064847 -1.0843766 0.13216738 -0.14160828
000250 cf 9f 3f bb 3a 6e e2 3c 81 3a 1f be 0b 99 fb 3d
       -0.002923954 0.02764045 -0.15549661 0.1228505
000260 14 c8 b3 be ca cf e1 3e fc ef 99 bd 1a 6b d2 bd
       -0.35113585 0.44103843 -0.075164765 -0.10274334
000270 7c b6 7a be 29 04 24 be 84 83 40 3f 4b 20 4b 3f
       -0.24483675 -0.16017212 0.75200677 0.7934615
000280 a0 e1 34 bf 6e 8f b0 be 5f 1a 10 3e bb e5 73 3e
       -0.70656776 -0.34484428 0.1407256 0.23818104
000290 60 3c 28 3c dd bc 70 bf 4c ff a6 3e 05 b1 07 3c
       0.010268301 -0.9403818 0.3261665 0.008281951
0002a0 0e 6d 4b 3e b1 55 a9 3f 00 4a 3c bf e4 72 eb bd
       0.1986582 1.3229276 -0.73550415 -0.11496523
0002b0 f8 be 83 bd b0 61 35 3f 77 5b d3 3e 30 e9 10 3c
       -0.06432909 0.70852184 0.4128072 0.008844659
0002c0 a7 c1 44 3d e5 8c d9 bc 83 d6 8a 3e f8 7c f0 3e
       0.048036244 -0.026556442 0.27116784 0.46970344
0002d0 3d 10 d9 3e d2 60 84 3d c2 e2 9a be 9f 7d bd 3e
       0.423952 0.064637795 -0.30251127 0.37009904
0002e0 32 2f 19 3f a2 79 98 3d af 0f ea bc 9b e6 ab be
       0.5983764 0.074450746 -0.028571932 -0.33574376
0002f0 3e 1b 6a be 03 08 c8 bd e4 87 36 3f ed 85 ba bd
       -0.22861955 -0.09767153 0.713011 -0.091075756
000300 ac 4a 35 3f 15 e4 e4 3e dc 00 05 be 4a 8e dd 3e
       0.70817065 0.44705263 -0.12988609 0.4327262
000310 e3 0c 90 3e 65 e0 3d 3e 40 9c a6 be 3a 6f 87 3e
       0.28134832 0.18542631 -0.32541084 0.26452047
000320 4a 48 08 bf 67 c2 15 3e 3e e9 9a 3d ec e5 fd be
       -0.53235304 0.1462494 0.07564019 -0.4958948
000330 96 89 df be 81 3a 18 be 06 b8 33 bd 59 6c a4 3d
       -0.43659657 -0.14866067 -0.04387667 0.08028478
000340 e7 6c bc be 82 60 8a 3e a9 e5 97 3e ba 78 12 be
       -0.36801836 0.27026755 0.29667404 -0.14303866
000350 28 ca 12 3e 65 cf 34 bf 5d 87 bb bd 87 31 87 3d
       0.14334929 -0.7062896 -0.09156678 0.066012435
000360 93 5b ad 3e d2 84 d0 bb e4 7b 6d be cd 07 c6 3e
       0.33858928 -0.0063634897 -0.23191792 0.38677827
000370 5d c2 f2 bd 3d e3 86 3e 63 04 24 bf a5 9f ef be
       -0.11853478 0.26345244 -0.64069194 -0.46801487
000380 e0 df 95 be 4a c1 6c be 85 81 4e be d4 c1 59 be
       -0.29272366 -0.23120609 -0.20166595 -0.21265346
000390 66 7e 15 3f ea 4b db 3d a0 89 e4 3d 8d c9 2d 3e
       0.58395994 0.10707839 0.111590624 0.16971417
0003a0 b0 fb 4b 3e c6 28 b3 be dc 30 38 be 5f 79 cc 3e
       0.1992023 -0.34992045 -0.17987388 0.3993635
0003b0 34 68 93 be 4d 21 b7 3e 04 b8 7b 3e 6f 73 78 be
       -0.28790438 0.35767594 0.24581915 -0.24262784
0003c0 c4 c7 c3 3c 1a a8 60 3e ae ef 95 bd 52 5b 70 bb
       0.023898967 0.21939126 -0.07321106 -0.0036675525
0003d0 cd 2c 44 3e 4f 42 69 bf 62 07 8a 3e e4 ec 03 3f
       0.19157715 -0.91116804 0.26958758 0.5153334
0003e0 18 ad d8 be 3b 8b 5d 3d 46 0d 5b bf 35 fd 3f be
       -0.4231956 0.05408786 -0.8556713 -0.18748935
0003f0 25 e3 12 be 2f 30 e0 bd 1f 1d 0a 3d 50 be f9 be
       -0.14344461 -0.1094669 0.03371918 -0.4877801

network_body._body_endoder.seq_layers.0.bias f4 [128]
000000 00 00 00 00 00 00 00 00 00 00 00 00 00 00 00 00
       0.0 0.0 0.0 0.0
000010 00 00 00 00 00 00 00 00 00 00 00 00 00 00 00 00
       0.0 0.0 0.0 0.0
000020 00 00 00 00 00 00 00 00 00 00 00 00 00 00 00 00
       0.0 0.0 0.0 0.0
000030 00 00 00 00 00 00 00 00 00 00 00 00 00 00 00 00
       0.0 0.0 0.0 0.0
000040 00 00 00 00 00 00 00 00 00 00 00 00 00 00 00 00
       0.0 0.0 0.0 0.0
000050 00 00 00 00 00 00 00 00 00 00 00 00 00 00 00 00
       0.0 0.0 0.0 0.0
000060 00 00 00 00 00 00 00 00 00 00 00 00 00 00 00 00
       0.0 0.0 0.0 0.0
000070 00 00 00 00 00 00 00 00 00 00 00 00 00 00 00 00
       0.0 0.0 0.0 0.0
000080 00 00 00 00 00 00 00 00 00 00 00 00 00 00 00 00
       0.0 0.0 0.0 0.0
000090 00 00 00 00 00 00 00 00 00 00 00 00 00 00 00 00
       0.0 0.0 0.0 0.0
0000a0 00 00 00 00 00 00 00 00 00 00 00 00 00 00 00 00
       0.0 0.0 0.0 0.0
0000b0 00 00 00 00 00 00 00 00 00 00 00 00 00 00 00 00
       0.0 0.0 0.0 0.0
0000c0 00 00 00 00 00 00 00 00 00 00 00 00 00 00 00 00
       0.0 0.0 0.0 0.0
0000d0 00 00 00 00 00 00 00 00 00 00 00 00 00 00 00 00
       0.0 0.0 0.0 0.0
0000e0 00 00 00 00 00 00 00 00 00 00 00 00 00 00 00 00
       0.0 0.0 0.0 0.0
0000f0 00 00 00 00 00 00 00 00 00 00 00 00 00 00 00 00
       0.0 0.0 0.0 0.0
000100 00 00 00 00 00 00 00 00 00 00 00 00 00 00 00 00
       0.0 0.0 0.0 0.0
000110 00 00 00 00 00 00 00 00 00 00 00 00 00 00 00 00
       0.0 0.0 0.0 0.0
000120 00 00 00 00 00 00 00 00 00 00 00 00 00 00 00 00
       0.0 0.0 0.0 0.0
000130 00 00 00 00 00 00 00 00 00 00 00 00 00 00 00 00
       0.0 0.0 0.0 0.0
000140 00 00 00 00 00 00 00 00 00 00 00 00 00 00 00 00
       0.0 0.0 0.0 0.0
000150 00 00 00 00 00 00 00 00 00 00 00 00 00 00 00 00
       0.0 0.0 0.0 0.0
000160 00 00 00 00 00 00 00 00 00 00 00 00 00 00 00 00
       0.0 0.0 0.0 0.0
000170 00 00 00 00 00 00 00 00 00 00 00 00 00 00 00 00
       0.0 0.0 0.0 0.0
000180 00 00 00 00 00 00 00 00 00 00 00 00 00 00 00 00
       0.0 0.0 0.0 0.0
000190 00 00 00 00 00 00 00 00 00 00 00 00 00 00 00 00
       0.0 0.0 0.0 0.0
0001a0 00 00 00 00 00 00 00 00 00 00 00 00 00 00 00 00
       0.0 0.0 0.0 0.0
0001b0 00 00 00 00 00 00 00 00 00 00 00 00 00 00 00 00
       0.0 0.0 0.0 0.0
0001c0 00 00 00 00 00 00 00 00 00 00 00 00 00 00 00 00
       0.0 0.0 0.0 0.0
0001d0 00 00 00 00 00 00 00 00 00 00 00 00 00 00 00 00
       0.0 0.0 0.0 0.0
0001e0 00 00 00 00 00 00 00 00 00 00 00 00 00 00 00 00
       0.0 0.0 0.0 0.0
0001f0 00 00 00 00 00 00 00 00 00 00 00 00 00 00 00 00
       0.0 0.0 0.0 0.0

network_body._body_endoder.seq_layers.2.weight f4 [128, 128]
000000 24 c6 9f bd ea 7e b1 bd 43 62 32 b9 71 eb d8 3c
       -0.07801464 -0.08666785 -0.00017012008 0.026479455
000010 5f f6 04 3d c1 12 9c bb 2c de 24 bd 5d 93 0b bc
       0.03246152 -0.004762978 -0.040250942 -0.008519021
000020 e9 0f 48 bc a3 fd a3 bc 08 46 bb bc 68 4b d0 bd
       -0.0122108245 -0.020018404 -0.022860542 -0.101706326
000030 86 f1 6b 3d 31 a0 4c 3d 4b 50 db 3c e2 cc 6c be
       0.05760338 0.049957458 0.026771685 -0.23125032
000040 23 4a 34 3d 02 51 9e 3d 83 47 0b 3d 03 8c 6c 3a
       0.044016015 0.07730295 0.034003746 0.0009023549
000050 9e 4b 16 be 30 ef 9e 3d c3 ea 31 bd 12 2f 0a be
       -0.14677283 0.07760465 -0.043436777 -0.13494518
000060 f7 c8 90 bc 96 18 ac 3d af 52 d5 3c 1c 38 48 bd
       -0.017673953 0.08403127 0.026040403 -0.048881635
000070 eb e9 19 3d a9 2b 07 bd 35 ac c6 3c a9 0a d6 bd
       0.037576597 -0.033000622 0.024252037 -0.10451252
000080 93 38 a4 bd c9 cc ca bd a5 89 11 3d 94 f9 da bd
       -0.08018603 -0.09902341 0.03553166 -0.106921345
000090 a4 fc ad bc 7d 57 b9 3d f2 c2 43 3d c5 15 25 be
       -0.021238633 0.0904989 0.047793336 -0.16121586
0000a0 45 5d c2 3d 4d f9 53 bd 54 cb 0f be b7 51 a7 bc
       0.09490446 -0.051751424 -0.14042407 -0.020424707
0000b0 aa 5f 38 3b 9c e6 25 3d d9 2c ba bd 73 cb 00 3e
       0.0028133192 0.04050313 -0.09090585 0.1257761
0000c0 99 eb 71 3c 95 de 69 3d b7 e3 18 3e 92 ac 02 3d
       0.0147656435 0.057097036 0.14930616 0.031902857
0000d0 b5 c7 f6 bd 38 a5 ce bd 6d 13 3a bd c4 bd a1 bc
       -0.1204981 -0.10090107 -0.045428682 -0.019743808
0000e0 a2 40 88 bc 78 a7 81 3d a7 75 d6 3c ca 17 ab bc
       -0.016632382 0.0633077 0.026179148 -0.020885367
0000f0 d2 e6 93 bd e5 80 9b 3c 0d 77 57 3d f6 48 c1 bd
       -0.0722176 0.01898236 0.05260377 -0.09437744
000100 10 b0 d4 bc 32 fd 67 3d dd 94 98 3d ba 98 68 3d
       -0.02596286 0.05663795 0.074502684 0.056786276
000110 24 fd e4 bc 19 18 18 be f2 57 ed bc 1d 46 85 3d
       -0.027952738 -0.14852943 -0.0289726 0.06507514
000120 ae ca df ba 7b 73 d1 3d 6d 41 4b be a5 46 5f 3d
       -0.0017073953 0.10227104 -0.19849177 0.05451073
000130 79 9f f3 3d 21 f6 94 3c 36 d0 ae bd 53 ac 8a 3d
       0.11895651 0.01818377 -0.08535807 0.067711495
000140 17 85 46 bc 71 58 a9 3d d9 b8 80 be d6 0e 43 be
       -0.012116692 0.08268822 -0.25141028 -0.19048628
000150 b4 2c 3a 3d b8 c0 4b 3d 03 27 4d 3c d2 fa 02 3c
       0.04545279 0.049744338 0.012521508 0.007994371
000160 5b 07 d7 bd 92 cb 1b be 9b af af bd b5 8a 26 3d
       -0.1049945 -0.15214375 -0.08578416 0.040659625
000170 cb d6 2f 3e 24 d9 2a ba 90 98 40 bc c9 a5 66 bc
       0.17171781 -0.0006517342 -0.011755124 -0.014077612
000180 a7 3f bf 3c 68 4b 9a bc 23 89 09 3d 2f 3d bb bd
       0.023345781 -0.018834785 0.03357805 -0.09142529
000190 af fe 03 3d be 6a cf 3d 97 8e 8d 3d 21 c7 41 bd
       0.032225307 0.10127781 0.069119625 -0.047309045
0001a0 fd 44 88 bc 72 91 9c 3d 8d 05 ba bc fd 6e f7 bc
       -0.016634459 0.07644929 -0.022707725 -0.03020429
0001b0 7c e8 83 be 0b 81 f4 bb c0 88 27 3e 05 87 97 bd
       -0.2576331 -0.007461672 0.1636076 -0.073988
0001c0 c5 e0 72 bd ac c2 3c bd 4c 7e a4 3d 1a 30 27 3d
       -0.05929639 -0.04608409 0.08031902 0.040817358
0001d0 3a c8 08 bc 5f 24 8d bc d5 89 0d 3e f4 92 a0 3d
       -0.008348519 -0.017229257 0.1382211 0.07840529
0001e0 2b 6a 52 3e 17 e1 04 bc e5 94 25 3e ea 8d b2 3d
       0.20548312 -0.008110306 0.1617008 0.08718474
0001f0 e1 ee 48 3d 7b fa 4e 3d 75 86 1c be 04 ef 18 be
       0.049055938 0.050531846 -0.15285666 -0.14934927
000200 e2 66 14 3d be 39 5a 3e fd 28 29 bd f3 b7 80 3b
       0.03623093 0.2131109 -0.041298855 0.0039281785
000210 1e 31 b4 3d bf 02 35 3d 79 f9 16 3d 98 2e 15 be
       0.08798431 0.044192072 0.03685901 -0.14568555
000220 2b 31 1a 3d 2f a9 cf 3d f4 b4 62 3d 2b 0b f1 3d
       0.037644546 0.10139691 0.05534835 0.11769708
000230 e4 cd 18 be b7 52 65 bc 6e a6 07 3e 56 26 16 3d
       -0.14922291 -0.013996772 0.13247082 0.036657654
000240 55 57 49 3e 53 e1 61 bc da df b2 3c 95 e6 1a be
       0.19662221 -0.013786632 0.021835256 -0.15127023
000250 21 5d 04 3e 62 08 69 3d 5b fe d2 3d 49 92 ee bc
       0.12926151 0.05689276 0.10302421 -0.029122489
000260 39 4f 4a bc 48 46 a2 bd f7 95 a5 bd 8c 6c 39 3d
       -0.01234799 -0.07923561 -0.08085244 0.045269534
000270 20 fe 1e bb 6e 6c e3 3d bf 1b c6 3d 4d db a0 bd
       -0.0024260357 0.11104666 0.09673261 -0.07854328
000280 f3 81 fa 3d 31 e1 59 3d 10 33 25 3d c8 59 98 bd
       0.12231817 0.053193275 0.0403319 -0.074389994
000290 89 72 76 3e dc 65 09 bd 96 da 2e 3e e3 e7 c8 bd
       0.24067129 -0.033544406 0.17075571 -0.09809854
0002a0 3d 42 c4 3c b6 3e 25 3d c2 ed 61 bc 82 8a 21 3d
       0.023957366 0.04034301 -0.013789596 0.039438732
0002b0 ba 71 3f 3c 51 d7 bd bc 1e 9a 7d bd a3 ff 0e 3d
       0.011684829 -0.02317396 -0.061914556 0.034911763
0002c0 47 4a c6 3c a2 41 0b 3d d4 9d 1c bd cd b2 2f 3d
       0.02420534 0.03399814 -0.038236454 0.042895127
0002d0 23 4e f7 bc e6 6d dd bd 73 49 de 3c 02 86 29 bd
       -0.030188626 -0.10811977 0.027134633 -0.041387565
0002e0 5a a0 94 bd d6 fd 0e 3d 70 f4 b2 3d fd 68 2b 3d
       -0.07257147 0.034910046 0.08738029 0.04184817
0002f0 5a 75 e3 3d 1d 47 4c bd 28 07 ab bd 11 7d 14 3d
       0.111063674 -0.049872506 -0.08350974 0.036252085
000300 df e8 ae bd 0b 1e d8 bd 20 06 0f bd c6 08 61 bd
       -0.085405104 -0.10552605 -0.03491795 -0.054940008
000310 6d ce bd bc 30 9b 4a 3e 2a 04 01 3e 60 14 fa bd
       -0.02316972 0.19785762 0.12599245 -0.122109175
000320 23 56 b0 3d 59 cf 10 3d fd da 2b be 54 62 4f bd
       0.08610179 0.035353992 -0.16782756 -0.050630882
000330 5c 97 a9 bc 1e 97 4d 39 05 d8 c8 3d d0 ab 08 3e
       -0.020702057 0.00019606619 0.098068275 0.13346791
000340 15 52 fb bc f6 9a b7 bc e1 a4 ec bd b3 b2 04 bd
       -0.030678788 -0.022412758 -0.11554886 -0.032396983
000350 78 fc 37 bd 98 f2 f2 bc e2 0b b8 3d 1d 72 45 3c
       -0.044918507 -0.029656693 0.089866415 0.0120511325
000360 f5 18 43 3e 72 80 c7 3d 42 7c 18 3d bb 36 f9 3c
       0.19052489 0.09741296 0.037227876 0.030421605
000370 3c 77 8e 3c fd 6a a3 bc 70 9a 18 3e ae 0c f9 3c
       0.01739084 -0.019948477 0.14902663 0.030401554
000380 d4 c6 9e bc 02 5a 28 bd e5 5f f2 bd 8d 47 37 3d
       -0.019381918 -0.041101463 -0.11834697 0.04474597
000390 0a ca 15 bd 78 11 16 be c2 5d 5e bd ce fb 17 bb
       -0.036569633 -0.14655101 -0.054288633 -0.0023190859
0003a0 7a 5b 14 bd f7 f9 07 bd 02 0d ed 3d 44 d6 2e bc
       -0.03622005 -0.03319737 0.11574747 -0.010671202
0003b0 26 c1 b1 3d 06 06 e7 3c a3 69 d5 3d 82 6e ba bd
       0.08679418 0.028201114 0.10420539 -0.09103109
0003c0 5a 0c ac 3c ae af 4f 3d 74 66 c6 bd 23 ce ad 3c
       0.021001983 0.05070465 -0.0968751 0.021216458
0003d0 2b 5f 1d bd 40 a0 9c 3d cd d5 89 3c 0f 45 dc bd
       -0.038420837 0.07647753 0.016825581 -0.107553594
0003e0 43 3b 8a 3c 13 24 68 3b 33 4a 9f 3c 5d 96 88 3d
       0.016873961 0.0035421893 0.01944456 0.066693045
0003f0 ec a5 08 3e 23 10 94 bd 01 9b 34 bd d1 87 85 bc
       0.13344544 -0.0722964 -0.044093136 -0.016300114

network_body._body_endoder.seq_layers.2.bias f4 [128]
000000 00 00 00 00 00 00 00 00 00 00 00 00 00 00 00 00
       0.0 0.0 0.0 0.0
000010 00 00 00 00 00 00 00 00 00 00 00 00 00 00 00 00
       0.0 0.0 0.0 0.0
000020 00 00 00 00 00 00 00 00 00 00 00 00 00 00 00 00
       0.0 0.0 0.0 0.0
000030 00 00 00 00 00 00 00 00 00 00 00 00 00 00 00 00
       0.0 0.0 0.0 0.0
000040 00 00 00 00 00 00 00 00 00 00 00 00 00 00 00 00
       0.0 0.0 0.0 0.0
000050 00 00 00 00 00 00 00 00 00 00 00 00 00 00 00 00
       0.0 0.0 0.0 0.0
000060 00 00 00 00 00 00 00 00 00 00 00 00 00 00 00 00
       0.0 0.0 0.0 0.0
000070 00 00 00 00 00 00 00 00 00 00 00 00 00 00 00 00
       0.0 0.0 0.0 0.0
000080 00 00 00 00 00 00 00 00 00 00 00 00 00 00 00 00
       0.0 0.0 0.0 0.0
000090 00 00 00 00 00 00 00 00 00 00 00 00 00 00 00 00
       0.0 0.0 0.0 0.0
0000a0 00 00 00 00 00 00 00 00 00 00 00 00 00 00 00 00
       0.0 0.0 0.0 0.0
0000b0 00 00 00 00 00 00 00 00 00 00 00 00 00 00 00 00
       0.0 0.0 0.0 0.0
0000c0 00 00 00 00 00 00 00 00 00 00 00 00 00 00 00 00
       0.0 0.0 0.0 0.0
0000d0 00 00 00 00 00 00 00 00 00 00 00 00 00 00 00 00
       0.0 0.0 0.0 0.0
0000e0 00 00 00 00 00 00 00 00 00 00 00 00 00 00 00 00
       0.0 0.0 0.0 0.0
0000f0 00 00 00 00 00 00 00 00 00 00 00 00 00 00 00 00
       0.0 0.0 0.0 0.0
000100 00 00 00 00 00 00 00 00 00 00 00 00 00 00 00 00
       0.0 0.0 0.0 0.0
000110 00 00 00 00 00 00 00 00 00 00 00 00 00 00 00 00
       0.0 0.0 0.0 0.0
000120 00 00 00 00 00 00 00 00 00 00 00 00 00 00 00 00
       0.0 0.0 0.0 0.0
000130 00 00 00 00 00 00 00 00 00 00 00 00 00 00 00 00
       0.0 0.0 0.0 0.0
000140 00 00 00 00 00 00 00 00 00 00 00 00 00 00 00 00
       0.0 0.0 0.0 0.0
000150 00 00 00 00 00 00 00 00 00 00 00 00 00 00 00 00
       0.0 0.0 0.0 0.0
000160 00 00 00 00 00 00 00 00 00 00 00 00 00 00 00 00
       0.0 0.0 0.0 0.0
000170 00 00 00 00 00 00 00 00 00 00 00 00 00 00 00 00
       0.0 0.0 0.0 0.0
000180 00 00 00 00 00 00 00 00 00 00 00 00 00 00 00 00
       0.0 0.0 0.0 0.0
000190 00 00 00 00 00 00 00 00 00 00 00 00 00 00 00 00
       0.0 0.0 0.0 0.0
0001a0 00 00 00 00 00 00 00 00 00 00 00 00 00 00 00 00
       0.0 0.0 0.0 0.0
0001b0 00 00 00 00 00 00 00 00 00 00 00 00 00 00 00 00
       0.0 0.0 0.0 0.0
0001c0 00 00 00 00 00 00 00 00 00 00 00 00 00 00 00 00
       0.0 0.0 0.0 0.0
0001d0 00 00 00 00 00 00 00 00 00 00 00 00 00 00 00 00
       0.0 0.0 0.0 0.0
0001e0 00 00 00 00 00 00 00 00 00 00 00 00 00 00 00 00
       0.0 0.0 0.0 0.0
0001f0 00 00 00 00 00 00 00 00 00 00 00 00 00 00 00 00
       0.0 0.0 0.0 0.0

action_model._continuous_distribution.mu.weight f4 [1, 128]
000000 d7 69 76 bb ee fd 91 bc 0c c9 02 bc 63 4a 8a 3b
       -0.0037599707 -0.017821278 -0.007982504 0.0042202934
000010 3b a8 8f bc 3b d0 48 3b fd d5 d6 3b 67 25 da b8
       -0.017536273 0.0030641693 0.006556271 -0.00010402017
000020 00 72 c3 3c 5d b0 72 bc 2b 6b e0 3c a9 01 40 3c
       0.02385807 -0.014812556 0.027394852 0.011719146
000030 20 f8 f0 3c d5 68 4f 3b ff 1f ef bc 73 04 1d 3c
       0.02941519 0.0031648178 -0.029190062 0.00958358
000040 d8 44 d1 bc c5 22 cf 3c ff a4 21 3b ed 80 58 b9
       -0.025545523 0.025285134 0.0024664996 -0.00020647394
000050 5c 8c 96 bb a7 1a a8 3c 2b 30 a1 bc 42 12 2c bc
       -0.004594369 0.020520521 -0.019676289 -0.0105024
000060 28 a6 8e bc 2f 70 23 3c 23 18 9d 3b 5b b4 d3 3a
       -0.017413214 0.009975477 0.004794137 0.0016151773
000070 ac 53 a6 3b a5 83 32 3c db d3 25 3c 95 e7 73 bc
       0.0050758924 0.010895644 0.010121311 -0.014886756
000080 5d 9f 55 3b fe 71 8f 3b 4c 3c 00 b9 ca 82 81 bb
       0.0032596209 0.0043776026 -0.00012229494 -0.003952359
000090 d7 17 17 bb 9a 70 1e 3d df 68 8b 3c 5f 63 72 3b
       -0.002305498 0.038681604 0.01701778 0.00369855
0000a0 29 04 ca bc dd cc aa 3c e5 f2 e4 3b a7 06 20 3c
       -0.024660187 0.02084964 0.006986963 0.009767211
0000b0 cf 54 be bb 61 92 b5 bc 72 14 e9 bb 0d d8 df 3c
       -0.00580845 -0.022164525 -0.007113033 0.0273247
0000c0 e2 97 0a bc a2 31 e1 3b bf 5a 11 3c 9e 53 9a bc
       -0.008459063 0.006872372 0.008871733 -0.0188387
0000d0 e9 19 4a 3c 97 d0 7a bc b8 2f 78 3c 7f b4 3a bc
       0.012335279 -0.015308521 0.015148096 -0.011395573
0000e0 05 98 89 bc e1 41 81 3c 8b 57 91 3c 67 2b 91 3b
       -0.016796121 0.015778484 0.017741939 0.004430223
0000f0 13 32 b6 3b 58 e9 a8 3c f9 ac 0e bc b0 2f 7f 3c
       0.0055601685 0.02061908 -0.008708232 0.015575334
000100 d5 69 81 3c 35 0d 95 b8 f4 da 37 bc 1a 2b 7d 3b
       0.015797535 -7.107334e-05 -0.011221636 0.0038630427
000110 f7 5d 0c 3c 23 13 81 3c d9 ba 81 bc 0d 81 59 3a
       0.008567325 0.015756195 -0.015836166 0.0008297123
000120 fc 1a 08 3d a2 f3 fa 3c 87 87 27 3d d3 26 67 3c
       0.03322886 0.030633751 0.040900733 0.0141083775
000130 ef 50 ad 3c 46 0e 01 bd 5b 83 4a 3c d0 b4 13 3c
       0.021156756 -0.031507753 0.012360419 0.009015277
000140 2f 84 1f bb 88 d4 01 3c 35 8e fe bb e7 77 ba bb
       -0.0024340262 0.007924207 -0.0077684172 -0.005690563
000150 9f 4b 0e 3b 73 3d ae 3c 71 36 a7 3c 82 d2 50 bb
       0.0021712554 0.021269536 0.020411702 -0.0031863754
000160 b9 53 40 3c 13 c3 2d 3b 89 72 1d 3c 58 99 d9 bc
       0.011738711 0.0026513978 0.009609827 -0.026562378
000170 b3 36 37 bc 07 dc f6 bb fe 8d 36 bc 87 9e 1f bc
       -0.011182475 -0.0075335535 -0.011142252 -0.009742386
000180 0b 1f 35 bb b3 4d 1b b9 b7 df 91 3b e0 61 37 bc
       -0.0027636911 -0.00014810897 0.0044517177 -0.011192769
000190 32 d3 9b 3c 04 3d 17 3c 27 71 07 bb 6b d7 0d bd
       0.019021604 0.009230856 -0.002066681 -0.034629267
0001a0 70 d8 ff bb 70 37 76 ba 87 d4 55 3c ef 4a 7c 3c
       -0.007807784 -0.0009392416 0.013051159 0.015398725
0001b0 59 4f 9e bc 07 4d e9 bb b8 c1 cd bb 7a f9 f7 3b
       -0.019324945 -0.007119778 -0.0062791966 0.0075675817
0001c0 9c c0 18 bc 87 56 48 3a 5a 38 23 bc 69 e5 11 bc
       -0.009323265 0.0007642288 -0.009962166 -0.008904793
0001d0 d1 29 a2 3c b3 60 1a 3a a7 fb be bb 23 d8 93 3c
       0.01979533 0.0005889043 -0.005828339 0.018047398
0001e0 65 75 12 3c f2 37 c0 3c cb 59 55 3c 68 5b 56 bb
       0.008939122 0.023464177 0.013021897 -0.003270829
0001f0 a7 86 b1 3b a8 30 b7 3c 25 91 0f bb 87 76 2c 3c
       0.005417663 0.022362068 -0.0021906581 0.010526306

action_model._discrete_distribution.branches.0.weight f4 [3, 128]
000000 23 6e b3 3c b5 28 71 bc eb 1a f9 bb c0 fb ce ba
       0.021903103 -0.014719178 -0.007602086 -0.001579158
000010 a0 73 fc bb ed 46 91 3b af ef 38 bc 8d dc 27 3a
       -0.0077042133 0.004433504 -0.011287614 0.0006403409
000020 90 ea de bb ca 4b 14 bc 97 b0 6e 3c e5 75 2e bb
       -0.0068028644 -0.009051273 0.0145684695 -0.0026620564
000030 c3 c5 97 bb 99 3b 4c ba 97 31 df 3b b5 3e f3 3b
       -0.0046317293 -0.0007790863 0.0068113315 0.0074232467
000040 b7 7b e6 3a 26 e2 28 bc 23 8d 75 3a 1c 6f b3 bb
       0.0017584477 -0.010307824 0.00093670393 -0.0054758918
000050 f7 e8 a0 bb 18 fd 3d bc 63 1c 36 3a 76 fe 15 3b
       -0.004910584 -0.011595987 0.0006946979 0.0022887266
000060 cd 29 66 3a f9 d1 0d bb ea ef 55 3c 12 d6 34 bc
       0.00087800325 -0.0021640046 0.013057688 -0.011037366
000070 a3 ee 60 3b c0 12 5e 3c fa 51 12 bc 56 fd 9b bb
       0.0034321926 0.013554275 -0.008930678 -0.0047604246
000080 ef 28 0c 3c d3 60 8c bb b0 96 1a 3c a7 a9 41 bb
       0.008554681 -0.0042840033 0.009435341 -0.0029550584
000090 fd 8f ac bc 0a 51 a5 bb a9 24 93 bb 06 8d 05 bb
       -0.021064753 -0.005045061 -0.004490454 -0.0020378246
0000a0 11 ad c8 ba 36 ef b4 3b de 79 86 3c 0c 49 0c 3c
       -0.0015310367 0.00552168 0.016415533 0.008562338
0000b0 38 cf ad ba 93 d0 eb 3a f7 75 a5 ba bf ad b0 39
       -0.0013260609 0.0017991237 -0.0012623657 0.00033698787
0000c0 50 4f 4f 3c 4f c9 a8 3b cb 1c 05 3a e8 4a c2 bb
       0.012653187 0.005150951 0.0005077838 -0.0059293397
0000d0 68 93 d0 3b 38 39 4d 3c 37 02 5a 3c 75 ff cc 3b
       0.0063652284 0.012525849 0.013306192 0.006256039
0000e0 c7 4a 8b bb 35 79 d6 ba 43 29 c0 3b b0 a8 fc 3a
       -0.0042508575 -0.0016363027 0.005864294 0.0019276347
0000f0 bf e2 a0 3c 0d 11 a1 3c ab fb 88 3b af a3 d8 ba
       0.019639371 0.01966145 0.004180392 -0.0016528274
000100 ac bc c7 bc 02 06 43 bc b1 a4 2a 3a 12 5f db bb
       -0.024381958 -0.011903288 0.0006509526 -0.006694683
000110 35 e4 28 bc df 1e 8f 3c 82 48 54 3c ee ee 37 3c
       -0.010308315 0.017470775 0.01295674 0.011226399
000120 aa 9b 1d bc 22 f1 c4 bb 77 9c ef 3b df 3d e5 bb
       -0.009619633 -0.0060101906 0.0073123532 -0.006995901
000130 55 98 05 bb 3c 51 3e ba c7 e3 41 3c 14 81 bd 3b
       -0.0020384986 -0.00072600297 0.0118340915 0.0057832096
000140 62 37 fa bb e5 36 d7 bb 2b b6 64 3a b6 2a 15 3c
       -0.0076359967 -0.0065678232 0.0008724655 0.009104421
000150 e3 e3 ce bc 1e 4b a1 bc b8 b9 41 3c 4a 91 c6 bb
       -0.02525515 -0.019689139 0.011824064 -0.0060598003
000160 da d8 a8 3b 42 9a f0 bb 0b 42 1d bc 18 01 ab bb
       0.005152804 -0.0073426077 -0.009598265 -0.0052186362
000170 ef bb a5 b9 07 8d b5 ba a7 ff 1e 3c 1d 95 09 bc
       -0.00031611274 -0.0013851234 0.009704507 -0.008397368
000180 ce f1 8e bb 41 45 bf bc f1 db 46 bc 1b a2 34 bb
       -0.0043623215 -0.023348453 -0.012137399 -0.0027562443
000190 03 72 03 bc 7b 63 01 bc 49 e7 4a 3a b3 24 92 3b
       -0.008022788 -0.007897253 0.00077401527 0.0044599413
0001a0 cf d9 d3 bb 7b fd e0 ba b0 52 f7 3a 21 28 06 bb
       -0.006465174 -0.0017165387 0.0018869247 -0.0020470696
0001b0 c8 d2 ce 3b 0d 79 7f 3c e4 9f 19 3a 4b 44 28 bc
       0.006311748 0.015592826 0.00058603124 -0.010270189
0001c0 03 2b 2f bb a1 de 39 3b 5a 3b d9 3b 5b b7 a1 bb
       -0.0026728518 0.0028361457 0.0066293897 -0.0049351878
0001d0 a7 eb 81 3b bf 19 e6 3b 73 d5 f6 3c 7d 56 0d bc
       0.0039648595 0.007022112 0.030131077 -0.008626577
0001e0 c5 ce 1c 3b 0c 24 9b 3b 27 2d ae 3a 86 66 0b 3c
       0.0023926955 0.0047345217 0.0013288603 0.00850833
0001f0 88 f8 7b bb f8 b1 81 3c 1a a6 3f bb f5 31 ee b8
       -0.0038447697 0.015831932 -0.0029243291 -0.000113580296
000200 7b 5b 0a bb c9 30 35 3c ec 75 89 bc ba b7 fa bb
       -0.0021111656 0.011058995 -0.016779862 -0.0076512964
000210 30 03 a3 3b f9 6d 91 bc 2b 51 3f bc 0c 49 8a 3b
       0.004974745 -0.017752634 -0.011677067 0.0042201336
000220 b2 9c d8 bb 65 91 4f 3c 0a 44 05 3c 17 06 82 3c
       -0.0066104764 0.012668942 0.008133898 0.015872044
000230 9f a0 6d 3b 3b b8 73 bb a2 5b cc bb 01 26 3d 39
       0.0036259068 -0.0037188667 -0.0062365094 0.00018038602
000240 25 26 52 3b 40 91 d7 bb 9b 9b 89 3a 60 5a f2 39
       0.0032066193 -0.0065785944 0.0010498645 0.00046225172
000250 fb b5 b6 3b f7 ca a4 3b f9 2d 29 3c 15 26 f7 b8
       0.005575893 0.005029078 0.010325902 -0.00011784971
000260 a0 de 37 3b 77 9c 32 3c eb 66 0d 3c 8b 62 45 3b
       0.0028056279 0.010901562 0.008630495 0.003011855
000270 88 13 84 3b c2 74 29 bb b3 d3 81 bb 17 d8 25 3b
       0.0040306486 -0.0025856947 -0.003962004 0.0025305802
000280 48 29 e8 bb 73 5a ff bb 7d c2 dc bb 6b 12 af bb
       -0.0070849992 -0.007792765 -0.006737052 -0.0053427718
000290 7c 69 86 3b 2e 1b 11 bb 20 3e 77 bb bf 9a 27 3c
       0.00410193 -0.0022141444 -0.0037726238 0.010229765
0002a0 dd c0 64 3c 87 db 7c ba 4c 13 b9 b9 c2 5c d2 3b
       0.013961998 -0.0009645749 -0.00035300327 0.006419749
0002b0 e9 53 27 bb eb c8 b3 bb 1b 9e 2d 3b 5b ad 4e 3c
       -0.0025532192 -0.005486598 0.0026491943 0.012614573
0002c0 2c 75 04 bc d3 8e 80 3c 1d e4 5c 3b cb ee c0 bb
       -0.008084577 0.015693104 0.0033705302 -0.0058878413
0002d0 af 39 b7 3a 63 97 c9 3b 84 8f b5 3a c7 60 02 3c
       0.0013978983 0.00615208 0.0013851975 0.007957644
0002e0 60 ec 9b ba eb e8 20 bb 46 17 4b bb c8 0d 6d 3c
       -0.0011896007 -0.0024552892 -0.0030989214 0.014468618
0002f0 dc 4a b4 3b ae 86 a8 3c 8b 0b 44 bc 97 b8 39 3c
       0.005502088 0.020572033 -0.011965643 0.011335514
000300 65 2f d8 bb f3 e9 e7 39 d9 c3 a8 ba 43 2a 3d bc
       -0.0065974467 0.0004423406 -0.001287575 -0.0115457205
000310 2c 82 85 ba d8 0e e8 3a e1 f3 9a 3b b4 74 a6 3b
       -0.0010185889 0.0017704619 0.0047287797 0.00507983
000320 e8 04 e5 3b a0 47 81 bb 65 f9 db bc 3b bd e4 3b
       0.0069891103 -0.003945306 -0.026852319 0.006980566
000330 6a 95 39 bc 6a 16 13 bc 6b 1a c5 3a 4e 42 1b 3c
       -0.011327127 -0.008977512 0.001503778 0.0094762575
000340 3e 72 88 3c 6f ae 9e 3b 11 a7 96 ba 47 0f 62 bb
       0.016656037 0.0048425714 -0.0011493881 -0.003449397
000350 3f 3f ec bb a3 9a 22 3c 76 90 08 3c c3 d6 8f 3c
       -0.007209688 0.009924564 0.008335223 0.017558461
000360 4f f1 8c ba 00 bf ed bb c2 a9 4b bc 27 cf 3d 3c
       -0.0010753068 -0.007255435 -0.01243061 0.0115850335
000370 2b db 3b 3c 7a 07 50 bc 78 e7 50 3c 52 70 17 3c
       0.011465828 -0.012697095 0.012750499 0.009243088
000380 ad 27 28 bc bb 49 4e bc ed 2c e7 3b 6e 6d 85 bc
       -0.010263366 -0.012590821 0.007054916 -0.016287532
000390 6e 61 cb ba 7d a6 a5 bc 86 e7 ae bb d8 a7 2c 39
       -0.0015516707 -0.02022099 -0.0053376583 0.00016465725
0003a0 8d 5e e8 3a 05 30 f4 3b d2 3a 76 bc 37 0f c1 3a
       0.0017728374 0.0074520134 -0.015028672 0.0014729266
0003b0 15 d9 6d bc 7c 69 a3 bb f3 76 7e 3c 99 33 05 bc
       -0.014517088 -0.00498694 0.015531289 -0.008129978
0003c0 d9 cd 96 3b b8 b3 b1 b8 8b 07 61 ba 2c 5d a1 3b
       0.0046021757 -8.473493e-05 -0.0008584193 0.004924437
0003d0 7b 51 1e 3c fc d9 a4 3b 24 a4 a6 bb 50 9e 19 bc
       0.009662981 0.0050308686 -0.005085485 -0.009376124
0003e0 c4 4e 95 bc 54 11 0f 3b 84 33 3c 3c b7 9c c9 bb
       -0.018226035 0.0021830397 0.011486892 -0.006152715
0003f0 6a b4 b5 bb da 99 60 3c d3 3b 39 bb 11 5b 0f 3c
       -0.0055451887 0.013708556 -0.0028264418 0.008749739

action_model._discrete_distribution.branches.0.bias f4 [3]
000000 00 00 00 00 00 00 00 00 00 00 00 00
       0.0 0.0 0.0

action_model._discrete_distribution.branches.1.weight f4 [2, 128]
000000 bc b2 95 bb 0c 44 9d bb 4e 7d 1a 3c 0b 63 46 3c
       -0.004568426 -0.0047993716 0.009429289 0.012108575
000010 ef be 07 3a d6 ce 39 3c c3 ef 3e bc 0b c8 82 3b
       0.00051782926 0.011340817 -0.011653843 0.003991132
000020 ab 45 f7 3c ce 57 2b bb 75 1c ae 3b d1 32 c4 ba
       0.030184587 -0.0026144865 0.005313451 -0.0014968758
000030 23 35 38 bb c3 61 98 39 85 d1 cf bb 08 d7 00 bc
       -0.0028107844 0.00029064537 -0.0063421153 -0.007863767
000040 e2 9e b7 3a f5 ea 71 bb e3 c0 b6 3b db e1 30 3a
       0.0014009143 -0.0036913727 0.005577193 0.0006747522
000050 03 9c e8 3b f0 ec 7a 3c 59 69 8f bc 3f fc 31 3c
       0.007098676 0.015315279 -0.017506288 0.010863363
000060 1e 64 25 3c 03 1a 79 3c 87 47 4f 3b 70 7f c6 3b
       0.010094671 0.015203956 0.0031628327 0.006057672
000070 bd b0 2e bb ac 25 a3 3c a1 42 0f bc f3 2c 76 39
       -0.0026655637 0.019915424 -0.008743913 0.00023477133
000080 d0 29 10 3c ae 53 c8 ba eb 39 26 bb a5 84 7d ba
       0.008799031 -0.0015283728 -0.0025364112 -0.00096709497
000090 68 bb 00 3c 9b 4e 40 3c 97 47 12 bc c2 49 57 3b
       0.007857181 0.011737491 -0.008928201 0.003285036
0000a0 0d 28 7e bb 9d db f8 bb a8 7d 15 3b 35 d6 f5 3a
       -0.0038781196 -0.0075945393 0.0022810493 0.0018755855
0000b0 90 94 99 3b 0f 17 c8 3a d5 c7 75 bb 6f ff 28 3b
       0.0046868995 0.0015265661 -0.0037503142 0.0025787016
0000c0 80 04 00 3c cb 11 3d bc 57 cf 07 3c 2b 07 0f 3c
       0.007813573 -0.011539887 0.00828918 0.008729736
0000d0 67 21 f9 bb 27 11 6c bc 87 0b 45 bb 97 f3 2a 3c
       -0.007602859 -0.014408386 -0.0030066685 0.010434053
0000e0 72 21 89 ba 73 46 b2 bc b2 83 e8 bb 90 f3 9e bb
       -0.0010462238 -0.021762108 -0.0070957774 -0.0048508123
0000f0 e3 f6 d4 bb 2b 79 6b 3b 51 9a 88 3c 92 49 56 3c
       -0.0064991578 0.0035930376 0.016675146 0.013079064
000100 4d ab e6 3a 6b ed 16 bb 03 a3 ca ba 17 93 c0 3a
       0.0017598659 -0.0023029696 -0.0015459958 0.0014692274
000110 7a c0 6d 39 e7 a4 b9 bb 31 5b be ba 50 bd bd bb
       0.00022673784 -0.00566541 -0.0014523027 -0.00579039
000120 22 8f a5 3a 83 98 11 bc 37 fe 2d bb 02 dd fd 3b
       0.0012631158 -0.008886459 -0.002654923 0.0077472934
000130 76 94 90 ba 78 f3 ce 3b ed ce ac bb c2 d8 64 3b
       -0.0011030573 0.006315645 -0.005273691 0.0034919237
000140 27 33 42 38 ae 93 12 3c ad 2d 72 bc 2c 6c 27 bb
       4.6300844e-05 0.008946342 -0.014781398 -0.0025546653
000150 44 d6 a0 3b 38 47 6d bb 97 7c 08 3c e3 de 30 3c
       0.004908355 -0.003620578 0.008330486 0.010795328
000160 e4 9d 42 3c 17 9a a6 39 95 bb 1a 3c 41 cf bb 3b
       0.011878464 0.00031776793 0.009444137 0.0057314937
000170 0c 68 18 bc 3b 73 52 bb cb 21 d3 3c 15 d9 8e 3b
       -0.00930215 -0.003211214 0.02577295 0.0043593743
000180 e4 2b 87 bc fb a1 a7 3b 9f 29 8b 3c 90 ee 74 3c
       -0.01650042 0.005115745 0.01698762 0.014949456
000190 3f 75 f0 bb 87 01 f5 bb 7d 92 70 3b 40 c8 c2 bb
       -0.0073381956 -0.0074769887 0.0036708408 -0.005944282
0001a0 62 0a ab bb 62 ae e8 3b 1a e8 39 bc 21 ad 0a 3b
       -0.0052197436 0.007100866 -0.011346841 0.0021160322
0001b0 23 9e 21 3b d8 17 a4 bc 4a 63 56 bb e5 c6 9b 38
       0.0024660907 -0.0200309 -0.003271299 7.428023e-05
0001c0 e0 af d2 3b ab 4a 4a 3c a0 f9 e6 3b 55 c6 0e bc
       0.0064296573 0.012346904 0.0070488006 -0.008714278
0001d0 0a d8 17 bc e7 7d ba 3a a8 45 6b 3c c0 cf f4 3b
       -0.009267816 0.0014228196 0.014359869 0.007471055
0001e0 23 9f 9d 3b a8 98 e6 3b 97 d5 60 3c 4e 46 92 3b
       0.0048102303 0.007037241 0.013722799 0.0044639474
0001f0 d8 3a bf bb ab 84 26 bc aa 08 a0 3b 4f d9 82 bb
       -0.005835872 -0.010163466 0.0048838453 -0.0039931904
000200 8c 25 24 bc c5 7e 19 3b 87 7e b8 bc e5 ee 4f 3c
       -0.0100187175 0.0023421508 -0.02252127 0.012691234
000210 8e 15 8a bc 09 a5 36 bb c3 37 b5 3a 43 8c 08 3b
       -0.016855981 -0.0027869365 0.0013825822 0.0020835556
000220 6b 62 e1 ba 76 8d 30 3c 3e f8 a9 3c 95 b4 fc 3a
       -0.0017195469 0.010775914 0.020748254 0.0019279892
000230 08 fc db bb d3 1e b6 3b ef 9a c9 ba 53 98 6a bc
       -0.006713394 0.0055578738 -0.0015381257 -0.0143185435
000240 80 92 29 3c 06 86 8a bb 5b 6e 11 bc 2f f4 2c ba
       0.01034987 -0.0042274026 -0.008876408 -0.00065976655
000250 4a 14 9e 3b 05 19 5c 3c 67 31 1c bc da 4e 0f bb
       0.004824196 0.0134336995 -0.009533263 -0.0021867068
000260 4d 17 7c 3c 02 cf 3a bc 68 b5 73 bb ca 52 54 3b
       0.015386415 -0.011401894 -0.0037186984 0.003239798
000270 f7 5e de 3a 1b 52 63 3a 72 d1 90 ba cb 72 e0 3b
       0.0016965558 0.00086715975 -0.0011048748 0.006849622
000280 b3 f5 1c 3c ed a8 70 3c 9c 90 2e 3c 47 f4 81 bb
       0.009580064 0.014688713 0.010654595 -0.0039658877
000290 75 9e fb bb 74 e3 27 3b ad 21 c7 bb 5b 03 b4 3b
       -0.0076788017 0.002561775 -0.0060770125 0.005493564
0002a0 76 de 04 3c 96 44 ba bb 80 64 48 3c 87 ee 1c 3c
       0.008109679 -0.0056844456 0.012230992 0.009578354
0002b0 28 c8 71 bc 5f 60 d2 bb d0 6a 45 3c 23 32 98 bb
       -0.014757194 -0.0064201797 0.012049392 -0.0046446486
0002c0 9d a9 8b bb bb 80 bd 3b a0 0f 91 bb 3a 4d dd 39
       -0.004262163 0.005783168 -0.0044269115 0.00042209943
0002d0 3b 12 19 3c 8b 51 83 ba fa e5 c2 bb 30 ee 71 3c
       0.009342725 -0.0010018809 -0.0059478255 0.014766261
0002e0 57 36 b4 3a 2f 39 c2 3b e5 c5 6f bb 97 6d 5e 39
       0.0013749105 0.005927227 -0.003658646 0.00021212395
0002f0 58 b2 b7 ba 32 57 36 bb 8b e1 64 bb 55 8f f5 ba
       -0.0014014943 -0.0027822969 -0.0034924473 -0.0018734733
000300 6b 8b 04 bb cc 42 39 bc 79 1e 18 bb d7 2f d5 ba
       -0.00202247 -0.0113074295 -0.0023211522 -0.0016264868
000310 43 dd 23 3c df 8e 97 3b b8 6f cb ba 22 3b 3e 3a
       0.010001483 0.004625186 -0.0015520966 0.0007256736
000320 4f c2 9f 3a dc b7 8b bc 5f e9 4b bb 66 2f 1c bc
       0.0012188646 -0.017055444 -0.0031114442 -0.009532785
000330 08 f7 4b 39 0a 28 19 3c 09 26 8d 3c da fe 14 3b
       0.00019451615 0.009347925 0.01723005 0.0022734911
000340 08 a6 41 bb 1f 13 54 3c aa b8 fa bb af f0 80 3c
       -0.0029548425 0.012944012 -0.007651408 0.015739767
000350 5f 64 0c bc dd 8c 21 bc e5 f0 e0 3b 88 6c ed 3a
       -0.008568852 -0.009860245 0.0068646544 0.001811401
000360 9b d6 a1 3b 83 0b 19 bc 57 54 90 bb 77 24 17 b9
       0.004938913 -0.0093411235 -0.0044045853 -0.00014414066
000370 e6 41 27 bc 2c e1 b3 3b ad 44 07 bb 03 52 58 bb
       -0.0102085825 0.005489489 -0.00206403 -0.0033007867
000380 d6 9e 06 bc 7a b2 6f bc 83 86 10 bc 2c 38 8a ba
       -0.00821658 -0.0146299545 -0.008821133 -0.0010545305
000390 c7 75 13 bb 38 59 6d bc c2 ae 60 3b 44 35 bb bb
       -0.002250062 -0.014486603 0.0034283851 -0.005713137
0003a0 ef e5 3c ba 12 c2 4e bb 2e 57 1d 3c 38 cd 59 bc
       -0.00072058936 -0.003154878 0.009603305 -0.013293557
0003b0 24 32 17 3c 9b b9 10 bb 28 03 77 3c 3b 4f 43 3c
       0.009228263 -0.0022083286 0.015076436 0.0119207455
0003c0 f2 32 1f 3c d7 e5 ae bb 90 69 db 3b 6a f1 b8 bb
       0.009716736 -0.0053374576 0.0066959336 -0.005644013
0003d0 5e 33 05 bc e6 c4 ba bb 7c de 17 bc 27 fb 5b ba
       -0.008129923 -0.0056997417 -0.009269353 -0.00083916116
0003e0 3f 24 db bc 43 ca 0e bc db ff 53 3a 68 fa 12 bb
       -0.026750682 -0.008715215 0.00080871367 -0.0022427086
0003f0 3c 4f 37 bc 2f 1b 34 3b ef 8f e3 bb 88 51 a6 3c
       -0.011188325 0.0027482023 -0.0069446485 0.020302549

action_model._discrete_distribution.branches.1.bias f4 [2]
000000 00 00 00 00 00 00 00 00
       0.0 0.0
