results/ppo/Player Behaviour/Player Behaviour-1408.pt (torch, 153007 bytes, 15 tensors)

discrete_act_size_vector f4 [1, 2]
00000000: 0000 4040 0000 0040
3.0 2.0

network_body._body_endoder.seq_layers.0.weight f4 [128, 6]
00000000: cc5e 03be 1a92 063f 97f2 0f3f 32e7 c9be
00000010: b7e2 ce3d 319e ab3e cae6 9dbd 5aa7 043c
00000020: 4b07 2ebf 58f8 b4be dc46 053f 7f42 85be
00000030: 4cb3 e93e b29e 873e bb8c 3c3f db78 923e
00000040: 5d83 163e 995b d13d 40d0 05be 5cca 823e
00000050: 4190 2b3e 411b 893f 6e75 403e a449 e53e
00000060: b77e 91be 174c 2fbe 1bbf e4be a2e3 0c3f
00000070: d925 923e 3322 a1be 8f79 5fbf 5222 d83d
00000080: cbb6 fd3e e664 e1be 3d5a 1bbf 42c6 25bd
00000090: 9359 133e 124d 9d3d 8664 523e 50d4 cd3d
000000a0: f9cc 78be 675b b4be e448 473f c608 283e
000000b0: d313 f0be 7a2e bfbd 5305 7c3f 0db4 88bb
000000c0: cf56 74bf 9b0d 35be 2574 09bc c59c fcbe
000000d0: b1e7 28be 633b f9be 8e3c a2be 51e2 a23e
000000e0: 78be 17bf cad7 553f dcda 14bd 3f47 11be
000000f0: b379 fabe 0d19 513f 452e 98bd 6fe9 6cbe
00000100: 4038 3f3e 8db7 333f 46e0 4cbe 53e6 283f
00000110: 5d8f 0abf 1ff8 8ebe f0d1 acbd 1bf4 7ebe
00000120: 7707 94be 040d 2a3f 5683 7b3e 28e6 2a3d
00000130: 1799 25be 32e4 173d c221 bb3e 56ee 21bf
00000140: 35a8 d33d 502e cb3e 21f5 08bf 66c8 00be
00000150: 8d5c 3abf 9cba 3a3f f07e b1be 8d66 4bbe
00000160: 835a ecbe 462f edbe 137e 5dbd cf0c 183b
00000170: c11b 3ebe 0fe1 94be 4869 4abe b529 a33e
00000180: fe39 d03d bd12 1e3e e074 da3d 6b2d 3d3f
00000190: 6c18 8abe 16d5 2e3d e566 8f3a 8f21 35be
000001a0: 2db4 4a3f 7ba6 fe3c 2cab 273e ad49 edbc
000001b0: 11bd 823e b076 13bf 6f2d d1be ef37 10be
000001c0: 1b8a f6bd 64a1 ccbb a3e2 7d3e 7cff bc3e
000001d0: a127 2d3e a951 003f 48ca f13e 4d4b a93e
000001e0: f53c 27be ba93 f53e 6825 d6be 21aa 73bf
000001f0: 52b5 2ebe 9fbf 29bf c460 09bf 97ff 813c
00000200: 5385 77bd c3e8 983e b76f 083e c1f6 333f
00000210: 494c ae3c fed9 e4bc 1bae f13e 23e0 d8be
00000220: 0a9b 68bd 8e08 f23c 4535 c9be a13d af3c
00000230: 8249 59bf 8f25 26be 3cda f2be 1688 6ebf
00000240: 6d6a d13d 084d 8b3e bd01 3bbe fb8a 31be
00000250: bc03 b63e 36ff 73bf bfa6 44be 4173 1abf
00000260: 4a65 e03e dd6c c23d 391b 22bf 3f63 203f
00000270: eb6c a23e 89da 8f3e da3e 783f bbb8 abbd
00000280: b965 cbbe c55b 53bf 9637 36bd ac88 693e
00000290: 2ea7 a93e f6dd 7cbd 5874 8d3e cddb 363f
000002a0: 6fa5 ec3e 44ad 13be dc0b fdbe c63a 33bd
000002b0: f95b df3d 50e1 ee3d b7de 8c3e 676c 9b3c
000002c0: c644 083e 21d5 a6be 0ab3 2e3f 0d24 633f
000002d0: 5d39 a13e 01fd 63bd b012 8abe d2e1 6dbe
000002e0: 536f 363e 06c7 8c3e 2f29 c43e dc91 05bf
000002f0: 3683 3bbf 4dd9 35be 8f66 4dbd 7b4a 3f3f
00000300: fb38 04bf 37cd 1e3e 9151 1f3e 3272 9b3d
00000310: 599c a9be 9f02 13bf c1f8 87be 44c7 58bd
00000320: 59d1 b83e 0dca 0d3d 2db1 12bd 87a3 bdbe
00000330: 02e2 013f b444 68bc e40d 2bbf be65 52bf
00000340: 24ee eabe ad28 893e f373 333e 8ebf 85be
00000350: 93e4 393e f21b 6ebe 640e f43d 8464 283f
00000360: d00e 723f 8905 42be a905 a03e 18f2 ee3e
00000370: 5508 e1be 9e86 d93e f723 33be 32e6 c83b
00000380: 80d7 cc3d f82f e6bd 8aee a7be 0338 0bbf
00000390: e44a 2ebe 356a 24be 3c30 a7bb 81c2 b93c
000003a0: d7f5 e3be e1c6 98be f3cb 3b3f ac38 9bbd
000003b0: 785f 3d3f d191 3fbd 4e82 2fbf bf46 07bf
000003c0: 61d5 33bf f8f7 813e e125 643d b1ed b7be
000003d0: 27bb 2bbe 2534 1a3f 1993 643d 53d2 a8be
000003e0: eb73 f83e 276d 96bc 6217 b53d b0c4 56bc
000003f0: 660c 7a3e 1d6f 8e3e 2757 9e3e 83dd 703b
-0.12829131 0.52566683 0.5622954 -0.394342 0.10101836 0.33519128 -0.07710035 0.00809654
-0.6797988 -0.3534572 0.5206125 -0.26027295 0.45644605 0.26488262 0.7365224 0.2860783
0.14698549 0.10222549 -0.13067722 0.25545013 0.16754247 1.0711442 0.18794796 0.44782746
-0.28416988 -0.1711887 -0.44677052 0.5503484 0.285445 -0.31471404 -0.8729486 0.10553421
0.49553522 -0.44022292 -0.6068457 -0.040472277 0.14389639 0.076807156 0.20546159 0.10050261
-0.24296941 -0.35225984 0.778456 0.16409597 -0.46890125 -0.093350366 0.98445624 -0.0041718544
-0.9544496 -0.17680971 -0.008389507 -0.49338356 -0.16494633 -0.4867812 -0.31686825 0.3181329
-0.5927501 0.8353239 -0.036341533 -0.14187334 -0.48920974 0.8167885 -0.074307 -0.23135923
0.18673801 0.7020195 -0.20007429 0.65976447 -0.54125005 -0.27923676 -0.0843848 -0.24897806
-0.28911945 0.6642611 0.2456182 0.0417234 -0.1617168 0.03708286 0.36549193 -0.63254297
0.10334817 0.3968377 -0.5349904 -0.12576446 -0.7279747 0.72940993 -0.34667158 -0.19863339
-0.46162805 -0.4632513 -0.054075312 0.0023200994 -0.18565275 -0.29077956 -0.19766724 0.31867757
0.10167311 0.15436836 0.106668234 0.7389743 -0.26971757 0.042683683 0.0010940699 -0.17688583
0.79181176 0.031085243 0.1637389 -0.028965795 0.2553487 -0.5760298 -0.40854976 -0.14083837
-0.1203806 -0.006244825 0.24793486 0.3691367 0.16909648 0.50124604 0.4722464 0.33065262
-0.16331847 0.4796427 -0.41825414 -0.9518147 -0.17061356 -0.66308016 -0.5366328 0.015868945
-0.060429882 0.29865083 0.13323866 0.7029839 0.02127661 -0.027935978 0.47203144 -0.42358503
-0.05678848 0.029545095 -0.39298454 0.021391692 -0.8487779 -0.16225265 -0.47432125 -0.931764
0.10225377 0.27207208 -0.18262382 -0.17338173 0.35549724 -0.95311296 -0.19204234 -0.60332114
0.43827277 0.0949342 -0.6332279 0.6265144 0.31723723 0.28096417 0.96970904 -0.08384844
-0.39726046 -0.82561904 -0.044486605 0.22806042 0.3313536 -0.061735116 0.27627826 0.7142914
0.46219966 -0.14421564 -0.4942311 -0.043757223 0.10906214 0.11664069 0.27513668 0.018972589
0.13307485 -0.3258448 0.6824194 0.88726884 0.31489077 -0.055661205 -0.26967382 -0.23230675
0.17815904 0.27495593 0.3831267 -0.5217569 -0.73247087 -0.17758675 -0.050146636 0.74723023
-0.51649445 0.15507971 0.15558459 0.075901404 -0.33127096 -0.57425874 -0.26556972 -0.05292441
0.3609722 0.03461652 -0.0358135 -0.37038824 0.50735486 -0.014176536 -0.6681807 -0.82186496
-0.45884812 0.26788846 0.175247 -0.26122707 0.181536 -0.23252848 0.11916807 0.65778375
0.9455385 -0.18947424 0.31254318 0.46669078 -0.4395167 0.42485517 -0.17494188 0.006130957
0.10002041 -0.11239618 -0.32799178 -0.5438234 -0.17020756 -0.1605614 -0.0051021855 0.022675755
-0.44523498 -0.29839233 0.73358077 -0.07579169 0.739738 -0.04676992 -0.68558204 -0.52842325
-0.70247465 0.25384498 0.055700187 -0.35923532 -0.16770612 0.60235816 0.055804346 -0.32972965
0.48525938 -0.018362595 0.088423505 -0.013108417 0.24418792 0.27819148 0.30925867 0.0036753125

network_body._body_endoder.seq_layers.0.bias f4 [128]
00000000: 0000 0000 0000 0000 0000 0000 0000 0000
00000010: 0000 0000 0000 0000 0000 0000 0000 0000
00000020: 0000 0000 0000 0000 0000 0000 0000 0000
00000030: 0000 0000 0000 0000 0000 0000 0000 0000
00000040: 0000 0000 0000 0000 0000 0000 0000 0000
00000050: 0000 0000 0000 0000 0000 0000 0000 0000
00000060: 0000 0000 0000 0000 0000 0000 0000 0000
00000070: 0000 0000 0000 0000 0000 0000 0000 0000
00000080: 0000 0000 0000 0000 0000 0000 0000 0000
00000090: 0000 0000 0000 0000 0000 0000 0000 0000
000000a0: 0000 0000 0000 0000 0000 0000 0000 0000
000000b0: 0000 0000 0000 0000 0000 0000 0000 0000
000000c0: 0000 0000 0000 0000 0000 0000 0000 0000
000000d0: 0000 0000 0000 0000 0000 0000 0000 0000
000000e0: 0000 0000 0000 0000 0000 0000 0000 0000
000000f0: 0000 0000 0000 0000 0000 0000 0000 0000
00000100: 0000 0000 0000 0000 0000 0000 0000 0000
00000110: 0000 0000 0000 0000 0000 0000 0000 0000
00000120: 0000 0000 0000 0000 0000 0000 0000 0000
00000130: 0000 0000 0000 0000 0000 0000 0000 0000
00000140: 0000 0000 0000 0000 0000 0000 0000 0000
00000150: 0000 0000 0000 0000 0000 0000 0000 0000
00000160: 0000 0000 0000 0000 0000 0000 0000 0000
00000170: 0000 0000 0000 0000 0000 0000 0000 0000
00000180: 0000 0000 0000 0000 0000 0000 0000 0000
00000190: 0000 0000 0000 0000 0000 0000 0000 0000
000001a0: 0000 0000 0000 0000 0000 0000 0000 0000
000001b0: 0000 0000 0000 0000 0000 0000 0000 0000
000001c0: 0000 0000 0000 0000 0000 0000 0000 0000
000001d0: 0000 0000 0000 0000 0000 0000 0000 0000
000001e0: 0000 0000 0000 0000 0000 0000 0000 0000
000001f0: 0000 0000 0000 0000 0000 0000 0000 0000
0.0 0.0 0.0 0.0 0.0 0.0 0.0 0.0
0.0 0.0 0.0 0.0 0.0 0.0 0.0 0.0
0.0 0.0 0.0 0.0 0.0 0.0 0.0 0.0
0.0 0.0 0.0 0.0 0.0 0.0 0.0 0.0
0.0 0.0 0.0 0.0 0.0 0.0 0.0 0.0
0.0 0.0 0.0 0.0 0.0 0.0 0.0 0.0
0.0 0.0 0.0 0.0 0.0 0.0 0.0 0.0
0.0 0.0 0.0 0.0 0.0 0.0 0.0 0.0
0.0 0.0 0.0 0.0 0.0 0.0 0.0 0.0
0.0 0.0 0.0 0.0 0.0 0.0 0.0 0.0
0.0 0.0 0.0 0.0 0.0 0.0 0.0 0.0
0.0 0.0 0.0 0.0 0.0 0.0 0.0 0.0
0.0 0.0 0.0 0.0 0.0 0.0 0.0 0.0
0.0 0.0 0.0 0.0 0.0 0.0 0.0 0.0
0.0 0.0 0.0 0.0 0.0 0.0 0.0 0.0
0.0 0.0 0.0 0.0 0.0 0.0 0.0 0.0

network_body._body_endoder.seq_layers.2.weight f4 [128, 128]
00000000: ccba 06bd c709 cd3b b205 2cbd 2068 b33d
00000010: 831b 4bbd a6e7 a93d e322 193e c7a7 2abc
00000020: 2573 8bbd af72 5bbd 8212 8f3d 7e29 a73d
00000030: 41c7 323e eff6 c03d ed68 4a3e cc86 263c
00000040: 14e4 e7bd 2dc9 b1bb 0af2 853d 8aae 75be
00000050: 0f37 0d3e 196c 143c a255 263d 6fa5 dfbc
00000060: f794 10be 92a6 be3d cb4f 9dbd 36ce 14bd
00000070: d899 4c3d c6e0 babd 3f63 0abe e5d3 643c
00000080: 8e39 c13c 3a5d 41bd f3c4 4abe b534 c63c
00000090: d8d8 b5bd d9e0 70bd c531 babd b8dc 4fbb
000000a0: a10b b83d 84df afbd 234a 753e 1f80 113d
000000b0: ca9f 91bc d418 0cbd 58d6 9c3c f0bf a53d
000000c0: 821f 6e3c c8e1 c1bd 87e5 e43d e8d6 b1bc
000000d0: d15b d6bc 8944 81bd da1a b53b 1c27 333d
000000e0: b8d2 40bb f4dc 92ba b725 f63d 6045 19be
000000f0: 5f2a fa3c 69fa 633d 62f0 c63d b12d f7bc
00000100: 8cb5 da3c 65b9 353d 9a4a 913c 9e1d e8bc
00000110: aec2 c73c adf2 5ebc cc69 7cbd 38fe 263b
00000120: ea04 b4bd 51ed cbbd 55f8 f63d 7411 d5bb
00000130: abc7 76ba d619 483e 6c75 043e 1321 efbd
00000140: 78e7 ccbd 325c 7bbe f436 0bbe a45e a93c
00000150: 8134 9e3c bdd1 723d a01d 7b3c eab0 3a3e
00000160: 660d ebbd 8279 43bd aa6c c03a 4e91 b63a
00000170: c334 763d 8477 f23d 50f1 b8bd 2d73 a23d
00000180: 60f6 233d 9e69 44bd 2f07 ff3d 0acc 3dbe
00000190: cbcb b0bc ab17 0c3e a6fb 4e3d e8b4 22be
000001a0: c410 c93d c6e5 4f3d 6ea8 21be b196 05be
000001b0: d8da 443e 5e8a e6bc f932 2a3c 44f3 7e3d
000001c0: 0010 cfbd fb93 563c 9165 9fbd 2520 56bd
000001d0: 54e6 753c 7395 ddbd f65b 4c3d f07b 17be
000001e0: f9b5 6e3d 2a75 b23d 1a9d c0bc 8340 593d
000001f0: f0dd 663d 35a8 c23d d0c8 973d 0133 acbd
00000200: 3f90 1bbe 8f4f 70bb 0440 f33c 1475 553d
00000210: 79be 21be 181f 2a3e d12b b63d e3cb 8b3c
00000220: 56fe 9fbd 93a0 dbba 4f9b 74bc de6d a03d
00000230: def9 a0bc 6717 bfbc 94ca 43bd 2bf6 00be
00000240: c023 0ebb 7042 6bbd 40aa a4bd b7e8 15be
00000250: 9665 16be 5cd0 bd3d ff68 d6bd accc a9bd
00000260: bfc4 0e3d 47d3 803d 8854 98bd bef0 a8bc
00000270: 902a 85bd 9552 8cbd 2d60 c03d 950a 5abd
00000280: 4689 0bbd cb9f dd3d fe76 0a3e 81f3 8a3e
00000290: 7d3f b53d fab7 cbbb 2336 593d 6be7 88bd
000002a0: e06d 863a 7904 4b3d 0fb3 a8bb e436 bc3d
000002b0: 5ea0 5cbe 9553 c4bd ebe4 f93d 46d8 dbbd
000002c0: 2aa0 36be d07b 91bc f1df d8bc 301a babd
000002d0: 4e2d 34bd eb80 193c ad6e 30be afbf 28bd
000002e0: bb8d dc3d ae3f ba3d 09e8 83bd d5c3 01be
000002f0: 3109 4c3d 8b30 a8bc d287 16be d824 91bd
00000300: 8ed1 313d 3eac bc3d 45f9 5c3e 24a5 8abe
00000310: 4ba1 d3bc 97ed c2bd ea3b c7bc e5c1 a2bc
00000320: 1cee 07be da41 063e 504b b93d b5fa a53d
00000330: cdb1 05bc 1719 f43d cf98 193e 6761 163d
00000340: c245 88bc 9bc4 34bd 1414 8cbd 058f fb3d
00000350: c1ec 013d b4e1 69bd aeaf 6f3c e13f 30be
00000360: 6cc0 df3c abca aebb d6ea 06be 2e9e 5d3e
00000370: 0a15 0cbd a54a 36bd 169a 3dbb d1d0 70bd
00000380: f3c0 1ebd b7b6 cc3c 40d0 b6bd 0536 213d
00000390: 80a1 a73d b957 70bd e90c 8b3d 4618 c53d
000003a0: ae79 d93b ba00 9e3b 1851 81bd ce31 eb3d
000003b0: 3800 9dbc 2be4 983b 28b3 dbbb 7ccf 0cbe
000003c0: 6b01 443c 65cd ba3d 1a96 8f3d 0552 8f3a
000003d0: d21b cdbd 7274 8abc 74ac 2d3e d918 0cbd
000003e0: d4bc 413d ab50 4f3d 5c4e 2d3d 9f63 883d
000003f0: 7bb1 033e b60d 433d d0ed 6d3e ff24 b63d
-0.032892987 0.006257269 -0.04199762 0.08760095 -0.049586784 0.082961366 0.14954714 -0.010415978
-0.068090715 -0.053576168 0.06985952 0.08162211 0.17458822 0.09422099 0.19766589 0.010163974
-0.11322799 -0.0054255934 0.06540306 -0.23992363 0.13790534 0.009058976 0.04060901 -0.027300565
-0.14119326 0.093091145 -0.07681235 -0.03632947 0.049951404 -0.091249034 -0.13514422 0.013966535
0.023587015 -0.04720805 -0.19801693 0.024195055 -0.0887925 -0.05880818 -0.09091524 -0.0031717252
0.08986593 -0.08587554 0.23954062 0.035522576 -0.017776389 -0.034203365 0.019145176 0.0809325
0.014533879 -0.094668925 0.11176591 -0.02170892 -0.026166828 -0.063119 0.0055268826 0.04373847
-0.0029422473 -0.0011204765 0.12018912 -0.1496787 0.030537782 0.05565873 0.09713818 -0.030173155
0.026697896 0.04436626 0.017735768 -0.028334435 0.024384823 -0.013607663 -0.061624333 0.0025481116
-0.0879 -0.09957374 0.12059084 -0.0065023247 -0.0009413908 0.19541106 0.12935418 -0.1167623
-0.10005087 -0.24546888 -0.13595182 0.020675011 0.019312145 0.059282053 0.015326887 0.1823155
-0.11477165 -0.0477233 0.0014680822 0.0013928802 0.06010891 0.11839202 -0.09030402 0.07932124
0.040029883 -0.047952287 0.12452542 -0.18534866 -0.021581551 0.13680904 0.05053296 -0.15889323
0.09817651 0.05075624 -0.15786907 -0.13045765 0.19224107 -0.02814215 0.010388129 0.062243715
-0.10110474 0.013096805 -0.07783044 -0.05227675 0.015008528 -0.10819521 0.04989239 -0.14793372
0.05827901 0.087137535 -0.023512412 0.05304004 0.056364 0.09504739 0.07411349 -0.08408166
-0.15191744 -0.0036668514 0.029693611 0.052113608 -0.15795316 0.16613424 0.08895076 0.017064994
-0.078121826 -0.0016756229 -0.014929607 0.078334555 -0.019650396 -0.023326589 -0.047800615 -0.12593906
-0.002168879 -0.057436407 -0.08040285 -0.14639555 -0.1468719 0.09268257 -0.10469245 -0.08290991
0.0348556 0.06290298 -0.07437998 -0.020622607 -0.06502259 -0.06851689 0.09393344 -0.053232748
-0.03406646 0.10821494 0.13521954 0.27138904 0.0885 -0.006217 0.053030144 -0.066847645
0.0010256134 0.049564812 -0.0051482986 0.09190157 -0.2154555 -0.095862545 0.12201866 -0.1073461
-0.17834535 -0.017759234 -0.026473971 -0.09087026 -0.04398852 0.009369115 -0.1722972 -0.04119843
0.107692204 0.09094177 -0.064407416 -0.1267236 0.049813453 -0.02053096 -0.14700249 -0.070871055
0.043412738 0.0921254 0.21579464 -0.27079117 -0.025833746 -0.09517973 -0.024320561 -0.019867847
-0.13274425 0.13111058 0.09047568 0.08104459 -0.008160067 0.11918848 0.14999698 0.036713984
-0.016634826 -0.04413281 -0.06839767 0.12283138 0.031719927 -0.057100013 0.014629288 -0.17211868
0.027313434 -0.0053342185 -0.1317552 0.21642372 -0.034199752 -0.04450478 -0.0028930954 -0.058792893
-0.03875823 0.024989469 -0.08926439 0.039358158 0.081851006 -0.05867741 0.06789572 0.096237704
0.00663682 0.004821864 -0.063142955 0.11484109 -0.019165143 0.0046658716 -0.0067047067 -0.13751024
0.011963229 0.09121207 0.070110515 0.0010934478 -0.10015072 -0.016901229 0.16960317 -0.034203384
0.04729922 0.05061404 0.042311057 0.06659626 0.12860672 0.047620498 0.2323525 0.08893775

network_body._body_endoder.seq_layers.2.bias f4 [128]
00000000: 0000 0000 0000 0000 0000 0000 0000 0000
00000010: 0000 0000 0000 0000 0000 0000 0000 0000
00000020: 0000 0000 0000 0000 0000 0000 0000 0000
00000030: 0000 0000 0000 0000 0000 0000 0000 0000
00000040: 0000 0000 0000 0000 0000 0000 0000 0000
00000050: 0000 0000 0000 0000 0000 0000 0000 0000
00000060: 0000 0000 0000 0000 0000 0000 0000 0000
00000070: 0000 0000 0000 0000 0000 0000 0000 0000
00000080: 0000 0000 0000 0000 0000 0000 0000 0000
00000090: 0000 0000 0000 0000 0000 0000 0000 0000
000000a0: 0000 0000 0000 0000 0000 0000 0000 0000
000000b0: 0000 0000 0000 0000 0000 0000 0000 0000
000000c0: 0000 0000 0000 0000 0000 0000 0000 0000
000000d0: 0000 0000 0000 0000 0000 0000 0000 0000
000000e0: 0000 0000 0000 0000 0000 0000 0000 0000
000000f0: 0000 0000 0000 0000 0000 0000 0000 0000
00000100: 0000 0000 0000 0000 0000 0000 0000 0000
00000110: 0000 0000 0000 0000 0000 0000 0000 0000
00000120: 0000 0000 0000 0000 0000 0000 0000 0000
00000130: 0000 0000 0000 0000 0000 0000 0000 0000
00000140: 0000 0000 0000 0000 0000 0000 0000 0000
00000150: 0000 0000 0000 0000 0000 0000 0000 0000
00000160: 0000 0000 0000 0000 0000 0000 0000 0000
00000170: 0000 0000 0000 0000 0000 0000 0000 0000
00000180: 0000 0000 0000 0000 0000 0000 0000 0000
00000190: 0000 0000 0000 0000 0000 0000 0000 0000
000001a0: 0000 0000 0000 0000 0000 0000 0000 0000
000001b0: 0000 0000 0000 0000 0000 0000 0000 0000
000001c0: 0000 0000 0000 0000 0000 0000 0000 0000
000001d0: 0000 0000 0000 0000 0000 0000 0000 0000
000001e0: 0000 0000 0000 0000 0000 0000 0000 0000
000001f0: 0000 0000 0000 0000 0000 0000 0000 0000
0.0 0.0 0.0 0.0 0.0 0.0 0.0 0.0
0.0 0.0 0.0 0.0 0.0 0.0 0.0 0.0
0.0 0.0 0.0 0.0 0.0 0.0 0.0 0.0
0.0 0.0 0.0 0.0 0.0 0.0 0.0 0.0
0.0 0.0 0.0 0.0 0.0 0.0 0.0 0.0
0.0 0.0 0.0 0.0 0.0 0.0 0.0 0.0
0.0 0.0 0.0 0.0 0.0 0.0 0.0 0.0
0.0 0.0 0.0 0.0 0.0 0.0 0.0 0.0
0.0 0.0 0.0 0.0 0.0 0.0 0.0 0.0
0.0 0.0 0.0 0.0 0.0 0.0 0.0 0.0
0.0 0.0 0.0 0.0 0.0 0.0 0.0 0.0
0.0 0.0 0.0 0.0 0.0 0.0 0.0 0.0
0.0 0.0 0.0 0.0 0.0 0.0 0.0 0.0
0.0 0.0 0.0 0.0 0.0 0.0 0.0 0.0
0.0 0.0 0.0 0.0 0.0 0.0 0.0 0.0
0.0 0.0 0.0 0.0 0.0 0.0 0.0 0.0

action_model._continuous_distribution.mu.weight f4 [1, 128]
00000000: 43f5 81bc 8803 7ebc bb34 da38 75c1 f53b
00000010: 7b31 a3bc 7725 563c b6d5 9fbc 4055 74bb
00000020: efc5 ad3c 50ec 7739 48fb 05b8 f6bc bbbb
00000030: ff77 8cba b5f2 bdb9 fb09 ef3b e77d c93c
00000040: f883 daba 5761 cdbb d744 69bb 95e2 173c
00000050: 7295 43bd 03d1 9d3c 3f03 f33b 6eca 973c
00000060: 7b63 433c 4daf fdbc eac3 eabc e0bb 503a
00000070: 84e1 b6bc 1368 2cbc 1019 84bc 8832 f33c
00000080: bf9f f13b f060 843c 9d5d a03c ea39 0d3c
00000090: 8709 debc 4cee 043d 2307 d03c d705 a33c
000000a0: 85b5 353c ecde c7ba 9e80 c73c ddf9 fabc
000000b0: e5d2 29bb 577d 073a cb06 d7bc bb10 8d3c
000000c0: 5fd4 d9bc 9fc5 163c c580 15bd 45b3 8f3c
000000d0: f8dc 503c e294 e03c b73d d33c 0c4a 21bb
000000e0: 17b1 0ebb 2f2b 613c 9568 7c3c da70 d3bb
000000f0: 209c c43b f697 b73c f0cb f739 5379 4639
00000100: 5a06 563a cbf3 b3bb ec46 263c 0788 1dbd
00000110: 1439 b83b 8c37 04bd 220b dd3a c746 df3c
00000120: 4dbe d7bb ca6f b13b 6d10 cf38 9d7f fa3c
00000130: e5d6 ac3c 0559 7b3c cbd3 5b3c 48eb 563c
00000140: 8379 47bc 036d e63c e423 143b a9f6 a03c
00000150: d45c 1bbc 764f 32bc c552 acbc 5355 c23a
00000160: b387 a2bc 2792 2dba eab6 f13c d589 86ba
00000170: 4698 123d b76d 6d3c 3e5e 343b 6abf d53c
00000180: c6a3 3c3c af3f fdbc fabe f13a a7b9 303d
00000190: 0783 55bc 98cf f0bc 302f d13b 4025 8d3c
000001a0: 125a b9bc 2842 90bb d710 3f3a a84d 5fbb
000001b0: cf1b f73a db6d 0d39 123f e2bc eceb 26bc
000001c0: 9ae8 5fba 990f 89bb e178 03bd 4f02 5d3c
000001d0: 2233 273c 127f 7f3c c39f 12bc 9334 2d3d
000001e0: b1fa abba 800e d6b8 0650 39bc dfa2 1a3d
000001f0: bc8f be3b 2766 473c d16b ac3c d5e8 b53b
-0.01586402 -0.015503772 0.00010404872 0.0074998685 -0.019921055 0.013070456 -0.019511085 -0.0037282258
0.021212546 0.00023643789 -3.1943695e-05 -0.005729313 -0.0010716914 -0.0003622972 0.007294891 0.024596168
-0.001667141 -0.0062677073 -0.003559401 0.00927033 -0.047749944 0.019264704 0.0074161584 0.018529143
0.011925573 -0.030967379 -0.028657872 0.0007962566 -0.022324331 -0.01052286 -0.016125232 0.029687181
0.0073737795 0.016159505 0.019575888 0.008619765 -0.027104152 0.03245382 0.025394028 0.019900246
0.011090641 -0.0015248931 0.024353322 -0.030636722 -0.0025913056 0.00051685184 -0.026248356 0.017219892
-0.026590524 0.00920239 -0.036499757 0.017541537 0.012747996 0.027414743 0.025786264 -0.0024610786
-0.0021773034 0.013743206 0.015405794 -0.006452662 0.006000057 0.022411328 0.00047263457 0.00018927948
0.00081643986 -0.005491709 0.010148745 -0.038459804 0.0056220386 -0.032279536 0.001686428 0.027255429
-0.006583965 0.0054149376 9.873589e-05 0.030578429 0.021098563 0.015341048 0.013417195 0.013117619
-0.012174967 0.028128153 0.00226044 0.019648867 -0.009482581 -0.010883203 -0.021035561 0.0014826454
-0.019840097 -0.00066212047 0.029506166 -0.0010264466 0.03578975 0.01449149 0.0027521993 0.02609225
0.011513656 -0.030914156 0.0018443756 0.043145802 -0.013031728 -0.029395863 0.006383799 0.017229676
-0.022625957 -0.0044024177 0.0007288581 -0.0034073386 0.0018852892 0.00013487732 -0.027617965 -0.010188084
-0.0008541435 -0.0041827676 -0.0320977 0.01348932 0.010205062 0.015594261 -0.008949223 0.042286467
-0.0013120977 -0.00010207016 -0.011310583 0.037752982 0.0058154743 0.012170351 0.021047505 0.0055514374

action_model._discrete_distribution.branches.0.weight f4 [3, 128]
00000000: daa8 633c 218d a1bb 3ba3 0fbc 461e 15bc
00000010: 7bd8 003c 17ac 39ba cfd3 173c c14d 003c
00000020: 414b 9439 371c 0c3b dbaf 733c d3dd 2fbc
00000030: 2b19 c5bb 2308 26bc b3bd 163b 172d f5bb
00000040: 1817 733c e344 72bb c74d 9dbb 520f 18bc
00000050: 7344 35bb 257d d83a 18b3 ceba 5857 bb3b
00000060: 00ba 30bb f5ec 443b d2d0 ba3a 1d08 5b3c
00000070: 0f3c 99bb 5d45 813b e32b 6d3b f1d3 a63c
00000080: 3acc 52bb 93f1 2fbb ef79 ce3a 08b4 b13b
00000090: b30b 62ba 6ab9 763c 802c 4abb 70c8 4a3c
000000a0: 07db 0c3c 0733 8e3b 3dba 3f3c 1be3 d6bb
000000b0: 071c a23b bedb 1d3c 2488 0d3c 2440 063c
000000c0: 9e08 3ebc 286a 693c 67a3 15bb d6eb a4ba
000000d0: 534f d1b8 b633 09bb 670d 49bc 0973 99bb
000000e0: b668 45ba 184a cebb b03c 753b ea13 45bb
000000f0: b36f 5c3b f8a5 513c 6715 bdbb 69b0 0fbc
00000100: 47af 8ebb 066a 05bc f77c 47bc 5684 1ab9
00000110: 22c1 4b3c 65d6 0e3b ade5 653c 5d7c e5ba
00000120: 782f 9aba 9c8e 1c3c c762 85bc 3d89 513c
00000130: c8b8 7fba 8a74 c3ba 375c 43bc 4fcf b4bb
00000140: d9af 923c fe47 803c b49d 9ebb d933 2d3c
00000150: ed80 79bc d007 aa3b f330 b8bb 7e49 c93b
00000160: a0c9 103c aa47 d3bb fd9d 3ebb 88ab 0e3c
00000170: 3634 3cbc 9873 8e3b 83bc bbba 6512 1e3a
00000180: 1a0a d2bb 443e 4a3c 0021 ad39 282a 73bb
00000190: 8719 69bc 2708 20bc af11 2cbb dcf7 a43b
000001a0: 8f01 ceba a065 4abb b7b2 3fbc d329 93bb
000001b0: 1e14 bfbb d597 e0ba 31e4 ba3b d34f 50bc
000001c0: 8b4d f43b 7fd2 993a fd44 20bb dfe1 0ebb
000001d0: 7372 a9bb b3a0 b4bb 424b 93bc 54e2 443c
000001e0: f415 4b3b c8eb 09bb 7fdc abbb 18b3 12bc
000001f0: 055b 623c 1bbf 643b 1a13 f83b 2502 033c
00000200: 2323 09ba 980e 02bc 7c52 a43b b100 2a3b
00000210: c168 19bc 2094 54ba e85f 053c 7fd2 943c
00000220: cbc2 a93a 43bf 533b dd8d e33a 10e2 77bb
00000230: 26b0 403b 9b97 8dbc 073b d43b dfff 93bb
00000240: 6b2c 203c e356 04bc 562e 23bc 13b4 63bc
00000250: 787f 0a3b 9776 12bc 30b1 293b 1ac0 a2bb
00000260: 24b3 bfb9 cfcf e03b 29ea 813b 6807 e93b
00000270: ea92 643c 1df1 f3bb 387f efb9 e4e5 9c3a
00000280: df59 f9bb 539d b63b 30db 2e3c 9f95 323c
00000290: 0f51 bf3b 4a42 32bc 9fda 083b 835e f4bb
000002a0: 2289 5e38 d25d 7dba 574d c63a 47b8 27bb
000002b0: 1d6e b53a 305d 9fbb 5c9a 37bb 83eb 563b
000002c0: 5bb6 86bb ff81 5bba 2fd8 1aba 3b8f 7ebb
000002d0: 9e71 8d3b 9300 9d3b b76f e33b 6920 173c
000002e0: 40f3 00bc 7490 403b 1bde b4bb 05cb 7d3b
000002f0: f207 edbb 54e7 403c 5598 ebbb 0b72 953c
00000300: cd0e d1ba efa7 adbb dda1 51b9 7b97 f83b
00000310: 8580 a9bb 6764 86bc cfff de3b 3695 ae3c
00000320: b9b0 973b 962d a0bc 12de 033b 0fa5 8c38
00000330: 73b1 45bc 4296 023a 8760 70ba df8a 89bc
00000340: 30c1 2fbc b17d 91bb f6d3 3b3c ddbb a2bb
00000350: fbf1 e53b d42e b03b cc3f 983b 50f1 12bc
00000360: 53c8 09bc 579a d1bb 32fd 34bc cf72 59bc
00000370: 91a0 af3c 0f50 353c 254b f63b af07 52bc
00000380: 8fde f2bb 9c18 84bb ca68 37ba ac0f 933b
00000390: b3c5 4a3c 0c13 b4ba 522a aa3b 9afd 0dba
000003a0: aae6 113c 63f3 573b 655a 5a3a d5cf d83b
000003b0: 6f63 a43a 0926 253c 25c1 0c3c 23bd 6d3b
000003c0: a84c 09bc 3351 6d3a 13f1 d03b 1151 083c
000003d0: ebb4 b03b 6007 b23b 6b32 9fb7 03e2 933b
000003e0: db6b da3b 2763 82bb 4b22 333c b960 0c3b
000003f0: 323e 7bbb df0c 15bc 7331 5f3b 5faf 693c
0.013895238 -0.004930154 -0.0087669445 -0.009101456 0.007864113 -0.00070828333 0.009266808 0.007831038
0.00028284828 0.0021379122 0.01487347 -0.010734039 -0.006014963 -0.010133776 0.0023001253 -0.007482182
0.014837049 -0.003696733 -0.0048005315 -0.009280996 -0.0027659207 0.0016516788 -0.0015769927 0.0057171993
-0.0026966333 0.0030048464 0.0014252907 0.013368634 -0.004676349 0.0039450363 0.0036189489 0.020364733
-0.0032165186 -0.002684687 0.0015752892 0.0054230727 -0.0008622959 0.015058855 -0.0030849278 0.01237689
0.008597142 0.004339579 0.0117021175 -0.006557835 0.004947189 0.00963491 0.0086384155 0.008194003
-0.011598734 0.014246501 -0.002283299 -0.0012582492 -9.980672e-05 -0.0020935363 -0.012271262 -0.0046829027
-0.0007530557 -0.0062954538 0.0037420206 -0.0030071684 0.0033635914 0.012795918 -0.0057703736 -0.008770087
-0.004354391 -0.008142954 -0.01217579 -0.00014735883 0.012436183 0.002179527 0.01403181 -0.0017508377
-0.0011763414 0.009555485 -0.016282452 0.012789068 -0.00097550126 -0.0014912051 -0.011923841 -0.005517877
0.017906116 0.015659329 -0.004840577 0.0105714435 -0.015228492 0.0051889196 -0.0056210696 0.006142794
0.008837134 -0.006447752 -0.0029085868 0.008707888 -0.011487057 0.004347276 -0.0014323149 0.00060299627
-0.0064098956 0.012343947 0.00033021718 -0.0037103985 -0.014227278 -0.009767569 -0.0026255657 0.00503443
-0.0015717017 -0.0030883327 -0.011700324 -0.00449107 -0.0058312556 -0.0017135093 0.005703472 -0.012714344
0.007455533 0.0011735706 -0.0024455183 -0.002180211 -0.005171114 -0.005512321 -0.017980222 0.012016851
0.0030988427 -0.0021045078 -0.005244791 -0.008953832 0.013815646 0.0034903947 0.0075706365 0.007996117
-0.0005231371 -0.00793805 0.0050147157 0.0025940354 -0.009363354 -0.00081092305 0.008140542 0.018166779
0.001295173 0.0032310046 0.0017361004 -0.0037823953 0.0029401868 -0.017284205 0.006476763 -0.004516586
0.009776215 -0.008077356 -0.009959778 -0.0138979135 0.0021133106 -0.008939407 0.0025892965 -0.004966748
-0.0003656383 0.00686071 0.0039646816 0.0071114786 0.013951043 -0.0074445144 -0.00045680418 0.0011970368
-0.0076095904 0.0055729537 0.010672376 0.01089993 0.0058385204 -0.010880062 0.0020882261 -0.0074575557
5.305664e-05 -0.00096651644 0.001512925 -0.0025592016 0.001384202 -0.0048634037 -0.002801559 0.0032794185
-0.004111094 -0.0008373558 -0.00059068477 -0.0038842696 0.0043165227 0.004791328 0.0069408077 0.009224036
-0.007870495 0.0029382976 -0.005519641 0.0038725745 -0.007233613 0.011773903 -0.0071897903 0.018242856
-0.0015949846 -0.0052995603 -0.00019992092 0.0075864173 -0.0051727914 -0.016405297 0.006805397 0.021311384
0.0046292213 -0.019552987 0.0020121378 6.706465e-05 -0.012066233 0.00049814966 -0.0009169657 -0.016789852
-0.010727212 -0.0044400324 0.01146411 -0.0049662427 0.0070173717 0.005376676 0.004646277 -0.008968666
-0.008409577 -0.0063965726 -0.011046695 -0.013272001 0.021438869 0.011066451 0.007516282 -0.012819215
-0.007411785 -0.004031254 -0.0006996511 0.004487952 0.012376237 -0.0013738587 0.0051930333 -0.0005416513
0.008905092 0.0032951466 0.000832951 0.0066165724 0.001254184 0.010079869 0.008590971 0.0036276064
-0.008380093 0.0009052932 0.0063763945 0.008320109 0.005392661 0.005433008 -1.8977755e-05 0.0045130267
0.0066656894 -0.003979105 0.010933469 0.0021419956 -0.0038336632 -0.009097307 0.0034056574 0.014263003

action_model._discrete_distribution.branches.0.bias f4 [3]
00000000: 0000 0000 0000 0000 0000 0000
0.0 0.0 0.0

action_model._discrete_distribution.branches.1.weight f4 [2, 128]
00000000: 0bce 1c3c 5fd5 5dbc b55d c23b f336 ef3a
00000010: 36ba 8cbb a384 4a3b 7e10 cb3b 215b 9a3b
00000020: b3cd 89bb bf38 cdbb 03d7 923c c542 6cba
00000030: 5b7c 253c 05bc 923a 0df3 1938 3db1 80bb
00000040: ef64 83ba 8381 9dbc 334e 40bc d920 133b
00000050: 2ae1 6fbb a9ee 14bc cd57 d13a 409c 6c3c
00000060: 97cd a43b 068b 993c 9581 d0bb 2702 e83a
00000070: 33d9 033b 8cbc 843b 5fb0 803c 449b 08bc
00000080: 4a31 a23b bda2 fb3a ff7c 543b 9c1e babb
00000090: de40 8e3c 60ab 7e3c 5617 1ebc d20f fb3b
000000a0: ff1e 2abc f57d edbb 7b21 04bc e36e 6db9
000000b0: 63a9 853c 5820 7abb 6311 18bc 33fb 2fbb
000000c0: 4652 b33b a97f 133b d640 2d3a 2da4 38bb
000000d0: be1d 18bc 1c73 9fbb 029d 423c 539a 453b
000000e0: 632a f5bb 124b 893b dce2 ab3c 845d 053c
000000f0: b26c c1ba 4ea9 0a3c 9afb eaba 6550 debb
00000100: 2dd6 d1b7 8924 94bc 2af2 81b9 e310 c93b
00000110: 3f06 cdba 919b 383b 6df7 68bb 2b02 f23a
00000120: 8fa3 38bc 7433 103b 9aa6 fc3b 1764 febb
00000130: cf16 833b 0078 663c b065 97bc 5b81 7ebc
00000140: 498d 80bc 6be3 a43b c8ff b73b 5efd 14bc
00000150: 8789 0dbb e3a8 08bc a866 eeba c8c2 5c3c
00000160: 572c 6a3c 1899 dfb8 bf44 de3b 2706 1fbc
00000170: 58ae 013c 4c33 a439 acb8 36bb 1fb0 5bbb
00000180: 5303 15bb 2dbb 57bb 8370 b93a a797 ae3b
00000190: a298 083a 434b 153c f192 073c 952f 5bbb
000001a0: e848 58bb 43a1 c53b 68d1 493c b713 c73a
000001b0: 6fc1 6bbb bf68 cfbb cb55 94bb 8665 26bb
000001c0: 645a 00bc 2ee0 2dbb 4392 87bc 862a 0dbc
000001d0: 8f8c d63b a1a0 14bc 629b 813b b82c 08bc
000001e0: a778 7cbb 5be3 8abc 16e6 07bb d780 9a3a
000001f0: 4ad1 64bb bf00 b538 95ae 51bb fb05 a13b
00000200: 95be 4a3c 7eec 91bb 3c55 c43b 6bd3 e0bb
00000210: 5878 28bb 9225 d3bb b3bd ebbb bc3c 9a3a
00000220: 8641 2c3c 65bd b93b 4304 51bb 1238 57bc
00000230: ac22 98bb c664 2f3c f30f f23b a53f e93b
00000240: 10e1 723b 10b5 d7bb a494 bb3b 2395 413c
00000250: 1328 6cbb 22d8 6fbc 7f90 52bc 3dd7 ccbb
00000260: 277e 233b 5d69 523c a3ac 2ebc f782 90bb
00000270: 5a28 06bc bdc8 613c 8721 373c ea46 fc3b
00000280: 5d66 0bbc 15f8 613b 6dfc 5bbb 62ff 9d3a
00000290: 71ca 2f3b eb29 893b 8cd7 16bb c70e 9f3b
000002a0: ef95 683b 8dd7 0fbb b749 6b3b 9ba8 813c
000002b0: aa16 863b a0a8 033c 90fb c93a d233 563c
000002c0: 39d0 ad3b 5104 183c b6cd 8f3a 6853 5dbc
000002d0: e6bd 95bc 3e4f 83bb abbb cebb 7b1f 18bc
000002e0: 8063 34bb 5b07 1bbb 0bfd ef3b 9fe5 343b
000002f0: fd93 0d3c 4e82 97bb 6211 9c3c e73e d3bc
00000300: f395 193c c099 6e3c d901 893c d4b1 90bb
00000310: efd4 033c fd67 2cbb f85b 903c ea00 40bb
00000320: 8b6f 833b c543 f63b 202f f6bb d362 6cbc
00000330: cb44 85bc af2d cc3b ce6a 8a38 3aea 9abc
00000340: df5d 2d3c efda ed3b 5eb9 0c3c 36d9 893c
00000350: 53c6 eebb d032 62bb 878b 0dbc 4f84 29bc
00000360: 52de f5bc 9a46 4d3b 5fe7 893b 4370 613b
00000370: a737 bfba ad0c 2e3c 03e6 52bc 6d35 63bc
00000380: f718 37bc da48 493c e22f b4bb b64f 023b
00000390: c223 92bc 3d8d 06bc a738 fa3a 0a8d b93b
000003a0: 18fa 643c c667 26bb d29e 763c 5303 5a3c
000003b0: df06 533c 7ba4 9e3b 2c9b 933a 03ec 25bb
000003c0: f196 b4bb 371e 42bc c70b a7b9 55d1 6bba
000003d0: 9525 fb3b 2f49 463b f8f0 cd3a 7d1b 12bc
000003e0: 6a6d d8bb 3ce5 a63c b321 1ebb ca47 2b3c
000003f0: a73c a5bb 179e 8e3b d8f0 0cba 0885 d1ba
0.009570609 -0.013539641 0.005931581 0.0018250629 -0.004294659 0.0030901812 0.0061970344 0.0047105704
-0.0042054295 -0.006262868 0.017924791 -0.0009012635 0.010100449 0.001119495 3.67044e-05 -0.0039273784
-0.0010024587 -0.019226795 -0.011737394 0.0022449999 -0.0036602714 -0.009090104 0.0015971601 0.01444155
0.005029391 0.01874305 -0.0063631036 0.0017700837 0.0020118474 0.004050797 0.0157091 -0.008337799
0.0049497234 0.001919828 0.0032423136 -0.0056799185 0.017364915 0.015543789 -0.009649118 0.007661798
-0.010383367 -0.0072476813 -0.008064623 -0.0002264339 0.016316121 -0.003816625 -0.009281489 -0.0026852607
0.0054724542 0.0022506511 0.00066090876 -0.0028174028 -0.009284435 -0.004866017 0.011878254 0.00301518
-0.0074818595 0.0041898573 0.020982198 0.008139972 -0.0014757125 0.008463217 -0.0017927766 -0.006784486
-2.5014475e-05 -0.018083828 -0.00024785224 0.0061360463 -0.001564212 0.0028168897 -0.0035547868 0.0018463781
-0.011269464 0.0022003325 0.00771029 -0.0077633965 0.0040005217 0.014066696 -0.018481106 -0.01553377
-0.01569237 0.005031993 0.0056152083 -0.009093611 -0.0021596865 -0.008341047 -0.0018188553 0.013474174
0.014292798 -0.000106619846 0.0067830975 -0.009706057 0.007915102 0.00031318737 -0.002788107 -0.0033521724
-0.0022737577 -0.0032917962 0.0014147911 0.005328137 0.00052107323 0.009112182 0.00827478 -0.003344511
-0.003300244 0.006031187 0.012317993 0.0015188371 -0.003597345 -0.0063296254 -0.004526829 -0.0025390103
-0.007834051 -0.0026531327 -0.016549235 -0.008616095 0.0065475176 -0.0090715 0.0039552907 -0.008311443
-0.0038524063 -0.016954115 -0.0020736507 0.0011787665 -0.0034914785 8.6308915e-05 -0.0031994928 0.004914043
0.01237454 -0.004453241 0.005991606 -0.0068611405 -0.0025706496 -0.0064436877 -0.007194245 0.0011767368
0.010513669 0.0056683295 -0.003189341 -0.013135927 -0.004642805 0.010705179 0.007387155 0.0071181827
0.0037060417 -0.0065828636 0.0057245065 0.011815342 -0.0036034628 -0.014638932 -0.012851833 -0.0062512443
0.0024947019 0.012842503 -0.010661277 -0.0044101435 -0.0081883315 0.01378077 0.011177427 0.0076988833
-0.008508292 0.0034480144 -0.0033567206 0.001205426 0.0026823545 0.004185905 -0.002301666 0.0048540565
0.0035489758 -0.0021948547 0.0035902092 0.015827468 0.0040920572 0.008035809 0.0015410054 0.013073878
0.005304363 0.009278373 0.0010971341 -0.013508655 -0.018279027 -0.004007249 -0.006308993 -0.009284849
-0.0027525127 -0.0023655507 0.0073238662 0.0027602685 0.00864124 -0.004623688 0.019051258 -0.02578683
0.00937413 0.014563024 0.016724514 -0.00441573 0.008046373 -0.00263071 0.01762198 -0.002929742
0.0040110997 0.007515403 -0.007512942 -0.014427858 -0.016268155 0.006231032 6.600247e-05 -0.018910516
0.010581463 0.007258765 0.008589117 0.016827207 -0.0072868257 -0.003451515 -0.008639223 -0.010346486
-0.030013237 0.00313226 0.00420849 0.0034399189 -0.0014588729 0.010623139 -0.012872222 -0.013867718
-0.011175386 0.012285436 -0.005498872 0.0019883937 -0.017839316 -0.008212385 0.001909037 0.005662565
0.013975643 -0.0025391444 0.015052514 0.013306457 0.012880056 0.004841385 0.0011261455 -0.0025317676
-0.0055111577 -0.011848024 -0.00031861497 -0.00089957315 0.0076643922 0.0030256023 0.0015712073 -0.0089176865
-0.00660484 0.02037298 -0.0024128973 0.010454128 -0.0050426307 0.004352342 -0.00053764647 -0.0015985081

action_model._discrete_distribution.branches.1.bias f4 [2]
00000000: 0000 0000 0000 0000
0.0 0.0

network_body._body_endoder.seq_layers.0.weight f4 [128, 6]
00000000: 87f6 a2be 9b4c eabd bc15 a8bd 6a90 753e
00000010: 2715 d9be 12ba 4c3f 50d3 cd3d 9c8a cfbb
00000020: 1124 4f3f 1c11 6f3e 4fe7 57be 15ec 153f
00000030: a605 9bbe 9638 07bf 2f79 b5bd ad8f 24be
00000040: ea92 873e 0a19 f83e 019b 933e 0ad8 ed3e
00000050: 6a28 3b3e ec3b 82be 7474 993c 386f 4f3e
00000060: d731 3a3e 3700 cd3e b65f ccbd 20c1 21be
00000070: a812 bdbe 5d56 f43e 0c68 1dbf 0073 803f
00000080: 17bd 06bf 1773 76be 3616 b3be 015a bdbd
00000090: ddfe df3d 582e 32bf ee56 aabd 85c3 383e
000000a0: 7df3 dfbe e29d 8dbd c0c4 91be afdf 8ebf
000000b0: 23f8 dc3d e1e1 b93d 9b35 aebe 5b12 87be
000000c0: b324 98be cae4 8dbe 9d10 3e3d 1266 873e
000000d0: d539 0b3f 4857 993e cdb5 0f3e 36e9 7e3e
000000e0: 857b 75be bb6b c13d 83a9 f9be 5e03 39bf
000000f0: c401 893f 66d7 debb 393e 203f d465 e3be
00000100: b513 5f3e 13b6 3b3e 451f c03e 7012 82be
00000110: ae10 893e d1ca 2abf cb23 d13d 2949 90bc
00000120: 03b1 b83d 489b ddbe 9642 f0bd f9f7 abbe
00000130: cede 16bf 90c2 2c3e 5b84 aa3d b17a d23e
00000140: 80ad 4c3e 319a 2a3e d694 8a3e 72c5 063f
00000150: 22b1 a83e f6fd bcbd e794 9e3d f5dc 6ebe
00000160: d6e4 b3bd aa52 e0be 640d c2bd fa89 babe
00000170: b92b 13be 729b 833e f900 aa3d 23a4 333f
00000180: 5cb8 9abe efa4 7d3e 6c23 a43e 4e54 86be
00000190: 29ec 293f ac51 f1be 7562 0fbf c14d 5bbd
000001a0: d5e1 333f bde4 2cbc c177 21be 46ac 19bd
000001b0: 0c8f c83e 0b12 0b3f 6839 f6be c2ea d3bd
000001c0: b774 a33e 8fb5 26be 4e65 813e 5882 293d
000001d0: 130b b83e b6a9 5fbd 0371 393e 3506 10bf
000001e0: 18a7 1ebf 892f 38be 61cd 733e 57dc 073f
000001f0: 3d25 7c3e 5876 d3be 27a7 d7be c3d8 89be
00000200: 542a 13bf 7ad4 a1be 9eff 8f3e a875 21bd
00000210: c5ba 443f c1bb b6be 2324 4cbf 87c1 a03e
00000220: fb65 8a3e cb7a 05bf 57dd 9ebd b710 23bd
00000230: f1df 32be e944 e03e 6343 efbe 09ee cabe
00000240: db5e 00bf 0065 863f 0ef8 14be 2c36 24be
00000250: b0ce bb3e e54e 18be 4827 943e 1ca5 0e3f
00000260: d410 353f 8f4f 163f a144 ba3e 37bb 2fbf
00000270: be2f 863d 79a6 753c e57e a13e 2724 fabd
00000280: 34b9 503e 7479 933e eb95 e43e 4b70 e0be
00000290: 4551 e83e b03a a93d 895a 033d 3b15 3bbd
000002a0: 2028 e43d ad62 76bc bc09 0cbf 2aa8 6c3f
000002b0: 0baa 12be edc7 dd3c 64ec 273b 084e 0e3f
000002c0: 0ac3 b4bd f8e9 26bf 9622 aebe e2d9 0dbf
000002d0: bf5a b03c 5709 1c3e 4202 33be b4db 44be
000002e0: f42f 40bf 3ba5 4b3e a89f 163e 3abc 0bbc
000002f0: ec01 613e b1b0 b53e 6403 7abd c633 373e
00000300: 6fd8 243f 7b17 693e 39cb 4abd d979 08bf
00000310: 567b e13c d6bc b7be 07f2 903e 31d5 113e
00000320: db38 b73e 3c9a ad3e fa69 b23e 77e4 d23c
00000330: 09c5 573e f8bd 36be 2cbd 86bc e3ef 783e
00000340: 8b62 33bf 76b7 86be b1f8 adbe 3573 09bf
00000350: aced 8cbe 6306 1b3f 9bc8 e6be e0bb 13bf
00000360: 0a1f 8abe 1c66 48be a72a 14bf d2c4 fdbe
00000370: 61ed afbe 9084 173e e11c f63e 1231 0ebf
00000380: 990b 2fbe 4c81 97be d1cc 6abd 141e b13c
00000390: 1039 183d 3e11 ffbe 365a b1bd 5860 95be
000003a0: 6fac 0ebf 4a32 083f 1488 d7bd b6a1 673d
000003b0: f25b f0be 4f46 083d 3cb3 923e b01a 12bf
000003c0: 3e71 45be f42d 283e 00b6 0e3d d4a2 36bc
000003d0: 2178 fcbe 942a cf3e dd1b 50be ebc2 3cbf
000003e0: bb47 16bb f2b4 bc3e 3f1f 873e 2fdc 803e
000003f0: dcbb 20bf 6676 76bd 04f9 01bf 6c64 163f
-0.3182871 -0.114403926 -0.082072705 0.23980871 -0.4239895 0.7997142 0.1005007 -0.006333662
0.8091441 0.2334637 -0.21084331 0.5856336 -0.30277747 -0.5282072 -0.088610046 -0.16070433
0.26479274 0.48456603 0.28829196 0.46453887 0.18277135 -0.25436342 0.018732287 0.2025727
0.18183075 0.40039226 -0.09979193 -0.15796328 -0.36928296 0.4772214 -0.6148689 1.0035095
-0.5263228 -0.24067341 -0.34977883 -0.092456825 0.10937283 -0.69601965 -0.08317362 0.18043335
-0.43740454 -0.069148794 -0.2847042 -1.1162013 0.10789516 0.09076286 -0.34025273 -0.26381192
-0.297155 -0.27713615 0.046402562 0.2644506 0.5438512 0.29949403 0.14034195 0.2489365
-0.239729 0.09444376 -0.4876214 -0.7227076 1.0703664 -0.00680058 0.62594944 -0.44413626
0.21784861 0.18331175 0.37523857 -0.25404692 0.26770538 -0.66715723 0.10211905 -0.01761301
0.09018137 -0.43282533 -0.1173145 -0.33587626 -0.5893372 0.16871095 0.08326026 0.4110923
0.1998806 0.16660382 0.27066678 0.5264503 0.32947642 -0.09228127 0.077432446 -0.23326476
-0.08783881 -0.43813068 -0.0947521 -0.36433393 -0.14372148 0.25704533 0.08300967 0.7017233
-0.3021878 0.24769948 0.32058275 -0.26236194 0.66375977 -0.47132623 -0.5600961 -0.05354095
0.7026647 -0.010552582 -0.15768339 -0.03751781 0.39171636 0.54324406 -0.48090672 -0.10347511
0.31924984 -0.16280197 0.25272602 0.04138407 0.3594595 -0.05460521 0.18109517 -0.5625947
-0.61973715 -0.17986883 0.23808815 0.53070587 0.2462358 -0.41301227 -0.42119715 -0.2692319
-0.5748646 -0.3160742 0.28124708 -0.039418846 0.7684749 -0.3569012 -0.7974264 0.3139765
0.2703093 -0.5214049 -0.07757061 -0.039810862 -0.1746824 0.43802574 -0.467311 -0.3963473
-0.5014474 1.0499573 -0.1454775 -0.1603629 0.36681128 -0.14873846 0.2893622 0.55720687
0.707288 0.58715147 0.36380485 -0.6864504 0.06552075 0.014993303 0.31542125 -0.12213927
0.2038315 0.288036 0.44645628 -0.43835673 0.45374504 0.08263147 0.032068763 -0.045674544
0.11140466 -0.015038175 -0.54702353 0.924441 -0.14322679 0.027072871 0.0025623078 0.55587816
-0.08826263 -0.6520076 -0.34010762 -0.5541059 0.021527646 0.15237938 -0.1748133 -0.19224435
-0.7507317 0.19887249 0.14709342 -0.008528763 0.2197339 0.35486367 -0.06103839 0.17890844
0.6439275 0.22762863 -0.049510214 -0.53310925 0.027524631 -0.35886258 0.28309652 0.14241482
0.35785565 0.33906734 0.3484648 0.025743706 0.21071257 -0.17845905 -0.016447626 0.2431026
-0.7007224 -0.26311845 -0.339788 -0.53691417 -0.2752508 0.6055662 -0.45074925 -0.5770855
-0.26976806 -0.19570202 -0.5787758 -0.49564224 -0.34360793 0.14796662 0.48068908 -0.55543625
-0.17094268 -0.29590833 -0.057324234 0.021620788 0.037163794 -0.49817842 -0.086597845 -0.29175067
-0.5573186 0.53201735 -0.10524002 0.056550704 -0.4694515 0.033270177 0.2865237 -0.5707197
-0.1928148 0.1642378 0.034841537 -0.01114722 -0.493104 0.40462172 -0.20323129 -0.7373492
-0.0022930938 0.368568 0.26391026 0.25167987 -0.6278665 -0.060171507 -0.5077059 0.5874698

network_body._body_endoder.seq_layers.0.bias f4 [128]
00000000: 0000 0000 0000 0000 0000 0000 0000 0000
00000010: 0000 0000 0000 0000 0000 0000 0000 0000
00000020: 0000 0000 0000 0000 0000 0000 0000 0000
00000030: 0000 0000 0000 0000 0000 0000 0000 0000
00000040: 0000 0000 0000 0000 0000 0000 0000 0000
00000050: 0000 0000 0000 0000 0000 0000 0000 0000
00000060: 0000 0000 0000 0000 0000 0000 0000 0000
00000070: 0000 0000 0000 0000 0000 0000 0000 0000
00000080: 0000 0000 0000 0000 0000 0000 0000 0000
00000090: 0000 0000 0000 0000 0000 0000 0000 0000
000000a0: 0000 0000 0000 0000 0000 0000 0000 0000
000000b0: 0000 0000 0000 0000 0000 0000 0000 0000
000000c0: 0000 0000 0000 0000 0000 0000 0000 0000
000000d0: 0000 0000 0000 0000 0000 0000 0000 0000
000000e0: 0000 0000 0000 0000 0000 0000 0000 0000
000000f0: 0000 0000 0000 0000 0000 0000 0000 0000
00000100: 0000 0000 0000 0000 0000 0000 0000 0000
00000110: 0000 0000 0000 0000 0000 0000 0000 0000
00000120: 0000 0000 0000 0000 0000 0000 0000 0000
00000130: 0000 0000 0000 0000 0000 0000 0000 0000
00000140: 0000 0000 0000 0000 0000 0000 0000 0000
00000150: 0000 0000 0000 0000 0000 0000 0000 0000
00000160: 0000 0000 0000 0000 0000 0000 0000 0000
00000170: 0000 0000 0000 0000 0000 0000 0000 0000
00000180: 0000 0000 0000 0000 0000 0000 0000 0000
00000190: 0000 0000 0000 0000 0000 0000 0000 0000
000001a0: 0000 0000 0000 0000 0000 0000 0000 0000
000001b0: 0000 0000 0000 0000 0000 0000 0000 0000
000001c0: 0000 0000 0000 0000 0000 0000 0000 0000
000001d0: 0000 0000 0000 0000 0000 0000 0000 0000
000001e0: 0000 0000 0000 0000 0000 0000 0000 0000
000001f0: 0000 0000 0000 0000 0000 0000 0000 0000
0.0 0.0 0.0 0.0 0.0 0.0 0.0 0.0
0.0 0.0 0.0 0.0 0.0 0.0 0.0 0.0
0.0 0.0 0.0 0.0 0.0 0.0 0.0 0.0
0.0 0.0 0.0 0.0 0.0 0.0 0.0 0.0
0.0 0.0 0.0 0.0 0.0 0.0 0.0 0.0
0.0 0.0 0.0 0.0 0.0 0.0 0.0 0.0
0.0 0.0 0.0 0.0 0.0 0.0 0.0 0.0
0.0 0.0 0.0 0.0 0.0 0.0 0.0 0.0
0.0 0.0 0.0 0.0 0.0 0.0 0.0 0.0
0.0 0.0 0.0 0.0 0.0 0.0 0.0 0.0
0.0 0.0 0.0 0.0 0.0 0.0 0.0 0.0
0.0 0.0 0.0 0.0 0.0 0.0 0.0 0.0
0.0 0.0 0.0 0.0 0.0 0.0 0.0 0.0
0.0 0.0 0.0 0.0 0.0 0.0 0.0 0.0
0.0 0.0 0.0 0.0 0.0 0.0 0.0 0.0
0.0 0.0 0.0 0.0 0.0 0.0 0.0 0.0

network_body._body_endoder.seq_layers.2.weight f4 [128, 128]
00000000: 36f0 df3d 855c 593e 0e20 97bd cd59 27bd
00000010: f30f dcbd 5db0 a53d da9a abbd a8ac e0bb
00000020: 0947 2d3d 3aa9 a2bd cd8c a0bd e90e b73c
00000030: 6bf5 173d 3148 bd3d 5042 00bc 0bdf aabd
00000040: 1a73 1fbd 1013 213e a4ac 75bd b310 713c
00000050: 68c3 15bd 98d5 353d 6a14 76be 78c6 dabb
00000060: e50f 9d3a b8a4 fe3c a163 093e 0fa8 86bd
00000070: 7627 bdbd 55fb d0bd 13c5 f8bd 9ea7 473d
00000080: 8685 afbc 6cbd f2bd 35d2 fbbd e397 af3d
00000090: 7cec 98bd 05ab df3d 5bd0 38be f282 a93d
000000a0: 3ee1 2dbe 64a2 a53d 6bc7 403b f3bb 19bd
000000b0: 771d 09be 20fe e7bd e7a6 9dbc 41a4 babd
000000c0: 3ecf b93d 923e 86be 556a cb3d 37d7 343d
000000d0: 86f3 45be 8196 803d eb5b 10bd 153d 633d
000000e0: e99d 6a3c 9c83 1b3d a894 f1bd a254 123e
000000f0: 2fc8 f6bc 8c05 0f3b 99c7 f43d df94 1bbd
00000100: 66dd b33d c792 8f3b 591e 43be b9e5 9ebc
00000110: 6a09 5dbc 4438 16be 5d65 723b 8b97 f3bc
00000120: 704a 21bd 2521 5fbd e64f d33c 61c2 66bd
00000130: d777 cc3d d889 1a3c 089d febc b0b5 28bc
00000140: d272 0fbe 845e 8b3d c24d b3bd 25d5 40bd
00000150: 43ca 903d e308 2f3d e7c4 8d3d b3a6 403d
00000160: a723 e03d b953 003e 6b12 79bd f835 cf3c
00000170: 993e a23d 3395 963d 554a 3d3e 4fd6 93bc
00000180: 6e91 233d 2faf 013d 19e5 473d f4fd 09bd
00000190: 80bb e7bd d47d edbc a9c8 323d 429d d7bc
000001a0: 61e2 a5bd 47f8 dabb a0a2 1fbc 9743 babd
000001b0: 40a6 533d f42f 183d e263 43bd 6387 683e
000001c0: 57c8 d43b 8b82 833d 0979 87bc 83cb 853b
000001d0: 5c5a c2bc ba37 87bd 5929 ab3b 53b4 d5bd
000001e0: f891 7ebd 6b1d 243e be45 9dbd 8b8f 523d
000001f0: 9045 fc3d 2e20 ae3c 6e2d 8bbd 52e0 983d
00000200: 1bcc 08bd e73e 1abd 29ff 5d3c bd47 933c
00000210: 9982 0bbd 8bc2 4abd 6f1d fc3d e66c 41bd
00000220: d5f1 8839 5b6f 413e 3f98 953d d320 07bc
00000230: a99b a6bd 5b7d 45be 9082 9abd af90 ec3d
00000240: 9613 c23b 157e 04bc b2e7 073e 7c3c dcb9
00000250: 62b5 ed3b b954 6dbc fa28 ab3c 257f 20be
00000260: 0c27 fc3d 2802 b2bd 70e2 a23d 68fc 2fbd
00000270: aa57 863d e1d1 633e d57a 8fbb 678f 8abd
00000280: 98bc 81bd e2b0 21bc 70a5 103d 6da5 4e3d
00000290: 1185 f9bd 3373 a03d 7581 a1bd 7800 073e
000002a0: 9615 c5bc f15d cebd 125a dbbd 305d 2c3e
000002b0: 5284 fc3c 1f1d ce3c 82dd ff3d c916 54bd
000002c0: 5bb6 08be deb1 ec3b 69bb 14be e2fa c93c
000002d0: 80a8 19be c0d1 723d 5548 063e 67a2 d93b
000002e0: 2d83 943d 624f 43bc 5dbc 91bb 510f 68bd
000002f0: eef5 0a3e ef75 d63c e31c dabc 36f5 c93c
00000300: 8923 3bbd 413d 803d a862 c5bd e682 29be
00000310: 1f00 a8bd 3dc4 09bd 3ded 723d 26a8 763d
00000320: 5ce5 a63d 7993 18bd cf5b 613d 293f 073d
00000330: 5bb5 14be 087a 0bbd ae5d 5b3e 6c08 063e
00000340: cf5b 7cbd 1650 b23d 6288 203e fb49 c6bd
00000350: 3f3e ebbc bbfb 9fbd 6671 0e3e 32d8 58bd
00000360: 54e7 0bbb 91eb 21bd 2559 35bd d481 b9bd
00000370: 546b 2fbd 329e 93bc 73a2 a5bc 1f00 863c
00000380: 9c99 d43d 87a3 0b3c f594 8bbd f538 613d
00000390: f115 18be 45ad abbd 0ca3 5dbe 8cc2 0dbe
000003a0: 6f34 41be c142 ca3b 717f bbbc 1e29 f63c
000003b0: 34d1 75bd 7447 ffbc 5c6d 813d e19f cfbd
000003c0: d215 813d e342 45bb 8580 c63d 4b93 9f3d
000003d0: ba0b 9f3d 0b9b 983d 8852 233d 30fd 8c3c
000003e0: 6e63 d5bc 7698 643d 60be 09be fb9b a2bc
000003f0: db35 38bd 53b1 f0bb 8f70 963d 9d73 b5bd
0.109344885 0.212267 -0.07379161 -0.040857125 -0.107452296 0.08090279 -0.08379145 -0.0068565197
0.042304073 -0.07942434 -0.078393556 0.022345977 0.037099283 0.09242285 -0.00782831 -0.08343323
-0.03892813 0.15729928 -0.059979096 0.014713454 -0.036563307 0.044393152 -0.24031225 -0.0066764913
0.0011982886 0.031084403 0.13416912 -0.065750234 -0.09236042 -0.10204188 -0.12146964 0.048743837
-0.021425974 -0.118525356 -0.12295953 0.08573892 -0.07466981 0.10921291 -0.18048231 0.08276929
-0.16980454 0.08087614 0.0029415737 -0.037532758 -0.13390146 -0.11327767 -0.019244624 -0.0911336
0.090727314 -0.26219612 0.099323906 0.044150557 -0.19331178 0.06278706 -0.03524391 0.055478174
0.014319875 0.03796731 -0.11795932 0.14290097 -0.030124752 0.0021823375 0.11952133 -0.03798377
0.08782463 0.004381511 -0.19054545 -0.01939665 -0.013491014 -0.14669901 0.0036986687 -0.029735347
-0.03937763 -0.05447497 0.025794934 -0.056337718 0.09983795 0.009432279 -0.031080738 -0.010297224
-0.14008644 0.06805137 -0.087550655 -0.04707827 0.07069828 0.042733084 0.06922322 0.047033977
0.109443 0.12531938 -0.06080858 0.025294289 0.07922096 0.07352676 0.18485387 -0.018046526
0.039933614 0.03166121 0.04880247 -0.033689454 -0.1131506 -0.028990664 0.043648396 -0.026320104
-0.08099819 -0.006682429 -0.009743363 -0.09094923 0.05167222 0.037155107 -0.047702678 0.22707896
0.006493609 0.064213835 -0.016537206 0.0040830984 -0.023724727 -0.06602426 0.005223435 -0.10434785
-0.062150925 0.16026847 -0.07679318 0.051406424 0.123179555 0.021255579 -0.067957744 0.07464661
-0.033397775 -0.037657645 0.013549604 0.017978543 -0.034060095 -0.049501937 0.123103015 -0.047222994
0.0002612012 0.18890135 0.07304429 -0.008247572 -0.081351586 -0.192861 -0.07544434 0.11551034
0.005922745 -0.008086701 0.13271978 -0.00042006734 0.0072542885 -0.0144855315 0.020893563 -0.15673502
0.12312135 -0.086918175 0.07953346 -0.042965323 0.06559689 0.22248031 -0.0043786564 -0.06765633
-0.063347995 -0.009868832 0.035314023 0.05045073 -0.121835835 0.078344725 -0.0788602 0.13183773
-0.024058145 -0.10076512 -0.10710539 0.16832423 0.030824814 0.02516037 0.12493421 -0.051779542
-0.13350813 0.007223352 -0.14524616 0.024655763 -0.15005684 0.059282064 0.1311353 0.0066416743
0.07251582 -0.011920782 -0.0044475035 -0.056655232 0.13570377 0.026179282 -0.026625102 0.024653058
-0.045688186 0.06261683 -0.09637958 -0.1655384 -0.08203148 -0.033634413 0.05930828 0.060218953
0.081492156 -0.037250016 0.055019196 0.03301922 -0.14522307 -0.034051925 0.21422455 0.1308915
-0.061610993 0.087066814 0.15677026 -0.096820794 -0.028716205 -0.07811686 0.13910446 -0.052940555
-0.00213476 -0.039531294 -0.044274468 -0.09057966 -0.042826965 -0.01801977 -0.020219063 0.01635748
0.10380861 0.008522875 -0.06815521 0.05498596 -0.1485212 -0.08382658 -0.21644229 -0.13843745
-0.18867658 0.0061725085 -0.022887917 0.030048903 -0.060013965 -0.031162001 0.06319687 -0.10137916
0.0630299 -0.0030099682 0.09692482 0.07791766 0.077659085 0.07451447 0.03987363 0.017210573
-0.026048388 0.05580946 -0.13451529 -0.019849768 -0.044973236 -0.0073453574 0.073456876 -0.08859942

network_body._body_endoder.seq_layers.2.bias f4 [128]
00000000: 0000 0000 0000 0000 0000 0000 0000 0000
00000010: 0000 0000 0000 0000 0000 0000 0000 0000
00000020: 0000 0000 0000 0000 0000 0000 0000 0000
00000030: 0000 0000 0000 0000 0000 0000 0000 0000
00000040: 0000 0000 0000 0000 0000 0000 0000 0000
00000050: 0000 0000 0000 0000 0000 0000 0000 0000
00000060: 0000 0000 0000 0000 0000 0000 0000 0000
00000070: 0000 0000 0000 0000 0000 0000 0000 0000
00000080: 0000 0000 0000 0000 0000 0000 0000 0000
00000090: 0000 0000 0000 0000 0000 0000 0000 0000
000000a0: 0000 0000 0000 0000 0000 0000 0000 0000
000000b0: 0000 0000 0000 0000 0000 0000 0000 0000
000000c0: 0000 0000 0000 0000 0000 0000 0000 0000
000000d0: 0000 0000 0000 0000 0000 0000 0000 0000
000000e0: 0000 0000 0000 0000 0000 0000 0000 0000
000000f0: 0000 0000 0000 0000 0000 0000 0000 0000
00000100: 0000 0000 0000 0000 0000 0000 0000 0000
00000110: 0000 0000 0000 0000 0000 0000 0000 0000
00000120: 0000 0000 0000 0000 0000 0000 0000 0000
00000130: 0000 0000 0000 0000 0000 0000 0000 0000
00000140: 0000 0000 0000 0000 0000 0000 0000 0000
00000150: 0000 0000 0000 0000 0000 0000 0000 0000
00000160: 0000 0000 0000 0000 0000 0000 0000 0000
00000170: 0000 0000 0000 0000 0000 0000 0000 0000
00000180: 0000 0000 0000 0000 0000 0000 0000 0000
00000190: 0000 0000 0000 0000 0000 0000 0000 0000
000001a0: 0000 0000 0000 0000 0000 0000 0000 0000
000001b0: 0000 0000 0000 0000 0000 0000 0000 0000
000001c0: 0000 0000 0000 0000 0000 0000 0000 0000
000001d0: 0000 0000 0000 0000 0000 0000 0000 0000
000001e0: 0000 0000 0000 0000 0000 0000 0000 0000
000001f0: 0000 0000 0000 0000 0000 0000 0000 0000
0.0 0.0 0.0 0.0 0.0 0.0 0.0 0.0
0.0 0.0 0.0 0.0 0.0 0.0 0.0 0.0
0.0 0.0 0.0 0.0 0.0 0.0 0.0 0.0
0.0 0.0 0.0 0.0 0.0 0.0 0.0 0.0
0.0 0.0 0.0 0.0 0.0 0.0 0.0 0.0
0.0 0.0 0.0 0.0 0.0 0.0 0.0 0.0
0.0 0.0 0.0 0.0 0.0 0.0 0.0 0.0
0.0 0.0 0.0 0.0 0.0 0.0 0.0 0.0
0.0 0.0 0.0 0.0 0.0 0.0 0.0 0.0
0.0 0.0 0.0 0.0 0.0 0.0 0.0 0.0
0.0 0.0 0.0 0.0 0.0 0.0 0.0 0.0
0.0 0.0 0.0 0.0 0.0 0.0 0.0 0.0
0.0 0.0 0.0 0.0 0.0 0.0 0.0 0.0
0.0 0.0 0.0 0.0 0.0 0.0 0.0 0.0
0.0 0.0 0.0 0.0 0.0 0.0 0.0 0.0
0.0 0.0 0.0 0.0 0.0 0.0 0.0 0.0
