results/ppo/Player Behaviour/Player Behaviour-256.onnx (onnx, 76307 bytes, 10 tensors)

discrete_action_output_shape f4 [1, 2]
3.0 2.0
00000000: 0000 4040 0000 0040

network_body._body_endoder.seq_layers.0.weight f4 [128, 5]
-0.800616 -0.25655687 0.045862865 0.27731785 -0.72642237 -0.50623584 0.010714524 0.99594575
0.25901434 -0.049739473 -0.16618398 0.72743046 -0.2035146 -0.89691323 0.94651634 0.33522147
-0.39338705 -0.79178286 -0.90010744 0.25395432 0.41171277 -0.28695244 -0.18836571 -0.19210313
-0.57135224 -0.6233748 0.054631438 -0.78281355 0.42304796 -0.04467267 0.08809876 0.5080258
0.261826 -0.17312706 0.10004216 -0.19642662 0.26610547 -0.0991416 0.32765794 0.060498547
0.63096946 -0.47665474 -0.74868834 -0.55218756 0.3570593 0.72894895 -0.3943894 0.6517855
-0.8230935 -0.008390831 -0.6139982 0.25128907 -0.7419635 0.024555327 -0.05603708 0.10190357
0.61621493 0.2044371 0.95858914 0.14057466 0.14651132 -0.8298603 -0.97513914 0.16400583
0.21933715 0.39860874 0.39749956 0.076673046 0.13254362 -0.4818213 -0.2582217 -0.6860131
0.45447555 0.7534462 0.48635405 0.6489127 0.0765767 -0.29022858 -0.026762228 -0.23946749
-0.617328 0.237734 0.33447826 -0.22687055 0.18429337 0.55012053 0.060615562 0.5776787
-0.56601405 0.3862158 0.3570753 0.27169254 0.18144569 0.39022133 -0.579943 0.14437203
0.1396603 -0.51534456 -0.1672087 0.51478803 0.3527684 1.0394274 -0.10944219 0.09652631
-0.047975603 0.22054039 -0.8555247 -0.6399132 0.9557726 -0.09462237 -0.0062626144 -0.3724899
-0.104452915 0.74631673 -0.337777 0.48455518 -0.5118704 -0.16918808 0.049384087 0.43881655
-0.12904547 -0.5812386 -0.09734246 0.3019579 0.45553997 0.6761369 -0.15176614 -0.06558881
-0.052498598 0.3290076 -0.29113814 -0.38780147 -0.43612108 0.2934648 0.25486463 -0.019613644
-0.08042158 0.7474088 -0.8211457 -0.38558283 -0.04386918 0.85207784 -0.11682484 0.16563758
-0.039311472 -0.34157968 -0.28444242 0.085061245 -0.36029428 -0.49083918 0.37536883 -0.08072514
-0.37826243 -0.05339284 0.5620076 0.4819691 -0.16164969 0.63852936 0.25590956 -0.7357953
-0.06922346 0.13963172 -0.31821808 -0.06299929 -0.46367753 -0.71617013 0.8956908 0.34983665
0.27464938 -0.31403944 -0.36316583 0.025490405 0.0054397886 -0.24404742 0.74255323 0.3936356
0.2862158 0.024130883 0.44421273 0.87793005 -0.5382681 -0.12178028 0.3887977 0.35521403
-0.2269932 0.3031187 -0.47272685 0.78105855 -0.04921378 0.69626397 0.13908711 0.18715666
-0.35958084 -0.0036975413 1.095892 -0.022245366 -0.6560186 -0.17678483 -1.0255363 -0.65269154
0.7695312 0.38935176 -0.29559588 0.30073786 -0.042467117 -0.33840296 0.26549372 -0.17956246
-0.5098145 -0.43593493 -0.44482875 0.17333959 -0.68194383 -0.020047389 -0.18229963 0.93209946
-0.45310003 0.0908202 0.23282045 -0.6068712 0.8528744 0.16028486 0.2607632 0.06604505
0.17864247 0.24855426 0.3419155 0.6188041 -0.35413212 0.25897643 0.47595915 -0.6285247
-0.291727 -0.46849346 1.2192737 -0.11326155 -0.41239738 0.15286732 -0.09524284 0.419333
-0.1821665 1.0033705 0.075805426 -0.76595056 -0.40902966 0.02121015 -0.0705722 -0.3186472
-0.43868893 -0.75624835 0.19119565 -0.74322355 0.011229513 0.02317464 -0.2453607 0.26957175
00000000: 2cf5 4cbf 6c5b 83be b3da 3b3d 9bfc 8d3e
00000010: d1f6 39bf ac98 01bf f98b 2f3c 4df6 7e3f
00000020: 879d 843e 9ebb 4bbd 222c 2abe e238 3a3f
00000030: 2266 50be 1b9c 65bf e54e 723f 26a2 ab3e
00000040: 076a c9be 48b2 4abf 716d 66bf 4d06 823e
00000050: 04cc d23e 6eeb 92be f1e2 40be afb6 44be
00000060: 2444 12bf 7e95 1fbf 37c5 5f3d 7866 48bf
00000070: be99 d83e b1fa 36bd 1f6d b43d fb0d 023f
00000080: 0f0e 863e 3848 31be e7e2 cc3d 0f24 49be
00000090: fa3e 883e c00a cbbd c8c2 a73e 53cd 773d
000000a0: 3787 213f 170c f4be 0aaa 3fbf 2a5c 0dbf
000000b0: 7ad0 b63e 669c 3a3f 68ed c9be 6adb 263f
000000c0: 41b6 52bf b279 09bc fc2e 1dbf f6a8 803e
000000d0: 52f1 3dbf 4128 c93c 2387 65bd d2b2 d03d
000000e0: 43c0 1d3f f657 513e 1966 753f cef2 0f3e
000000f0: 1007 163e ba71 54bf b8a2 79bf 25f1 273e
00000100: eb99 603e 7216 cc3e 1085 cb3e c206 9d3d
00000110: 84b9 073e 48b1 f6be a235 84be 8e9e 2fbf
00000120: 05b1 e83e dae1 403f 6603 f93e 251f 263f
00000130: 3fd4 9c3d d798 94be 763c dbbc f736 75be
00000140: 3509 1ebf 8b70 733e bc40 ab3e c150 68be
00000150: 67b7 3c3e b3d4 0c3f 0648 783d c0e2 133f
00000160: 4ce6 10bf 14be c53e 93d2 b63e 491b 8b3e
00000170: e6cc 393e 17cb c73e 2577 14bf 43d6 133e
00000180: 1c03 0f3e 9fed 03bf c238 2bbe 26c9 033f
00000190: 0f9e b43e f50b 853f 3a23 e0bd 96af c53d
000001a0: 1182 44bd 57d5 613e ab03 5bbf 5ad1 23bf
000001b0: 83ad 743f 60c9 c1bd 9e36 cdbb ffb6 bebe
000001c0: 69eb d5bd 9d0e 3f3f 1bf1 acbe 9e17 f83e
000001d0: f009 03bf a43f 2dbe f846 4a3d 90ac e03e
000001e0: 7f24 04be 0ecc 14bf 7c5b c7bd 3a9a 9a3e
000001f0: 893c e93e 4f17 2d3f 9568 1bbe 6d53 86bd
00000200: c508 57bd af73 a83e 0f10 95be ea8d c6be
00000210: 434b dfbe 0541 963e 9e7d 823e cbac a0bc
00000220: 12b4 a4bd 2f56 3f3f 9b36 52bf 1d6b c5be
00000230: 2bb0 33bd c621 5a3f dd41 efbd e69c 293e
00000240: 1105 21bd 88e3 aebe 70a2 91be 9734 ae3d
00000250: 7e78 b8be 464f fbbe 5830 c03e 3953 a5bd
00000260: 9dab c1be 73b2 5abd bbdf 0f3f a7c4 f63e
00000270: 7f87 25be a976 233f 9406 833e 155d 3cbf
00000280: 08c5 8dbd 9efb 0e3e 7bed a2be c605 81bd
00000290: 2467 edbe ed56 37bf fe4b 653f ca1d b33e
000002a0: d89e 8c3e c7c9 a0be dff0 b9be 41d1 d03c
000002b0: 4140 b23b 91e7 79be f817 3e3f 9b8a c93e
000002c0: e18a 923e 21ae c53c da6f e33e 06c0 603f
000002d0: f0cb 09bf f067 f9bd 7e10 c73e 9dde b53e
000002e0: e870 68be 6032 9b3e 4109 f2be 74f3 473f
000002f0: 6394 49bd 5b3e 323f da6c 0e3e ffa5 3f3e
00000300: fb1a b8be 7352 72bb 3046 8c3f ea3b b6bc
00000310: d6f0 27bf 1507 35be c644 83bf cb16 27bf
00000320: ffff 443f 1d59 c73e 5858 97be 50fa 993e
00000330: 00f2 2dbd 2743 adbe cbee 873e 39df 37be
00000340: 3483 02bf dd32 dfbe 98c0 e3be ef7f 313e
00000350: df93 2ebf 6c3a a4bc c1ac 3abe 129e 6e3f
00000360: bafc e7be f1ff b93d 7c68 6e3e e95b 1bbf
00000370: fa55 5a3f b721 243e c182 853e a142 873d
00000380: 0dee 363e 0285 7e3e 8c0f af3e f269 1e3f
00000390: ce50 b5be 8f98 843e ebb0 f33e ffe6 20bf
000003a0: 3e5d 95be 60de efbe 2911 9c3f acf5 e7bd
000003b0: c025 d3be 4089 1c3e ae0e c3bd d1b2 d63e
000003c0: db89 3abe 726e 803f e03f 9b3d 5615 44bf
000003d0: 566c d1be e9c0 ad3c 2888 90bd ba25 a3be
000003e0: d69b e0be 7e99 41bf cbc8 433e e643 3ebf
000003f0: fefb 373c bed8 bd3c d63f 7bbe 4f05 8a3e

network_body._body_endoder.seq_layers.0.bias f4 [128]
0.0 0.0 0.0 0.0 0.0 0.0 0.0 0.0
0.0 0.0 0.0 0.0 0.0 0.0 0.0 0.0
0.0 0.0 0.0 0.0 0.0 0.0 0.0 0.0
0.0 0.0 0.0 0.0 0.0 0.0 0.0 0.0
0.0 0.0 0.0 0.0 0.0 0.0 0.0 0.0
0.0 0.0 0.0 0.0 0.0 0.0 0.0 0.0
0.0 0.0 0.0 0.0 0.0 0.0 0.0 0.0
0.0 0.0 0.0 0.0 0.0 0.0 0.0 0.0
0.0 0.0 0.0 0.0 0.0 0.0 0.0 0.0
0.0 0.0 0.0 0.0 0.0 0.0 0.0 0.0
0.0 0.0 0.0 0.0 0.0 0.0 0.0 0.0
0.0 0.0 0.0 0.0 0.0 0.0 0.0 0.0
0.0 0.0 0.0 0.0 0.0 0.0 0.0 0.0
0.0 0.0 0.0 0.0 0.0 0.0 0.0 0.0
0.0 0.0 0.0 0.0 0.0 0.0 0.0 0.0
0.0 0.0 0.0 0.0 0.0 0.0 0.0 0.0
00000000: 0000 0000 0000 0000 0000 0000 0000 0000
00000010: 0000 0000 0000 0000 0000 0000 0000 0000
00000020: 0000 0000 0000 0000 0000 0000 0000 0000
00000030: 0000 0000 0000 0000 0000 0000 0000 0000
00000040: 0000 0000 0000 0000 0000 0000 0000 0000
00000050: 0000 0000 0000 0000 0000 0000 0000 0000
00000060: 0000 0000 0000 0000 0000 0000 0000 0000
00000070: 0000 0000 0000 0000 0000 0000 0000 0000
00000080: 0000 0000 0000 0000 0000 0000 0000 0000
00000090: 0000 0000 0000 0000 0000 0000 0000 0000
000000a0: 0000 0000 0000 0000 0000 0000 0000 0000
000000b0: 0000 0000 0000 0000 0000 0000 0000 0000
000000c0: 0000 0000 0000 0000 0000 0000 0000 0000
000000d0: 0000 0000 0000 0000 0000 0000 0000 0000
000000e0: 0000 0000 0000 0000 0000 0000 0000 0000
000000f0: 0000 0000 0000 0000 0000 0000 0000 0000
00000100: 0000 0000 0000 0000 0000 0000 0000 0000
00000110: 0000 0000 0000 0000 0000 0000 0000 0000
00000120: 0000 0000 0000 0000 0000 0000 0000 0000
00000130: 0000 0000 0000 0000 0000 0000 0000 0000
00000140: 0000 0000 0000 0000 0000 0000 0000 0000
00000150: 0000 0000 0000 0000 0000 0000 0000 0000
00000160: 0000 0000 0000 0000 0000 0000 0000 0000
00000170: 0000 0000 0000 0000 0000 0000 0000 0000
00000180: 0000 0000 0000 0000 0000 0000 0000 0000
00000190: 0000 0000 0000 0000 0000 0000 0000 0000
000001a0: 0000 0000 0000 0000 0000 0000 0000 0000
000001b0: 0000 0000 0000 0000 0000 0000 0000 0000
000001c0: 0000 0000 0000 0000 0000 0000 0000 0000
000001d0: 0000 0000 0000 0000 0000 0000 0000 0000
000001e0: 0000 0000 0000 0000 0000 0000 0000 0000
000001f0: 0000 0000 0000 0000 0000 0000 0000 0000

network_body._body_endoder.seq_layers.2.weight f4 [128, 128]
-0.02542319 0.053132232 0.083666526 0.1618616 -0.00264185 -0.02071792 0.0825103 -0.03436884
-0.07507449 0.06844053 0.09701481 0.053119905 -0.09126257 0.026546445 0.10961022 0.02946312
-0.08070392 -0.18912053 -0.07820767 -0.12497786 0.043031067 0.06375477 0.010395997 -0.025995964
0.049164567 0.30292356 -0.01996627 0.09486391 -0.01377685 0.083942406 0.02195953 -0.039666455
-0.060184903 0.106854506 -0.17260917 0.032919742 -0.019195108 -0.013386862 -0.28684518 0.14541394
-0.13874456 -0.20221986 0.22028568 -0.036645815 0.020113034 0.07007477 0.1005639 0.095223345
0.01103741 0.043463435 -0.056537643 0.13610615 0.1332567 -0.0026747505 -0.024376199 0.0962397
-0.13553846 0.06591323 -0.07226034 -0.0059442855 -0.04320009 0.040781822 0.10270953 -0.06822909
0.087697394 0.11462575 0.07172344 0.051165 -0.08274251 -0.067782894 0.039910227 -0.03823773
0.09502672 -0.11698298 -0.028299646 -0.14283209 -0.06750957 -0.18787518 -0.12187342 -0.056634527
-0.039476022 -0.033917904 -0.04465001 0.17487237 0.020552147 -0.13619381 0.023585495 -0.22455029
0.15514612 0.05350992 0.034457028 -0.11682224 -0.10634642 -0.070023604 0.044535782 0.16097419
0.0136491135 -0.08444182 -0.039851684 -0.14754087 0.035225723 -0.081221834 0.116761595 -0.018122496
0.10864898 -0.060950227 -0.028948389 -0.0387304 0.2436834 0.01811522 -0.03320604 -0.12557736
-0.05646095 0.04458076 0.1395138 -0.1843903 -0.020639503 0.006294675 0.03848386 -0.029380687
-0.058156982 0.11120344 0.1217712 0.017723411 0.06780733 0.0110371 -0.16626494 -0.22527368
-0.06005539 -0.066437766 -0.06576459 0.034797907 -0.11391886 -0.07453419 -0.06391744 -0.061087184
0.04512824 0.10117827 0.05296121 0.12701614 0.05178924 0.14425011 0.13768487 -0.05727533
0.11013132 -0.0075128204 -0.037069906 0.03658255 -0.021427706 -0.13492621 0.038646884 0.20472172
0.17692332 -0.032774795 0.030971138 -0.04120707 0.18204199 0.049495187 0.033146683 0.07070125
-0.09771652 -0.15819678 -0.057230204 -0.027862739 -0.02565902 0.016208233 0.072402745 0.05266074
-0.065471224 -0.06634407 -0.0031769339 -0.119301766 0.054601625 -0.0070546702 0.06893976 0.25973588
-0.064177044 -0.009964153 0.00327873 0.08323985 -0.109333605 -0.015495644 -0.122224666 0.010884732
0.051131412 -0.01962236 -0.062457953 -0.03524532 0.122086756 0.13213988 0.04151532 0.073012814
-0.05362734 -0.060272627 -0.10789749 0.07427927 0.018735448 -0.036214035 -0.070884205 -0.022885764
0.105053075 0.13260438 0.0075694327 0.11400305 -0.0034878945 -0.061843112 0.09939012 -0.14858675
0.013787643 -0.082975596 -0.11335355 -0.07031038 0.06385067 0.095991924 -0.14045866 0.023168884
0.17033222 -0.12100163 -0.04052753 -0.03027299 -0.018703759 -0.03768565 0.1438065 0.14496693
0.09526113 -0.014210564 -0.061405692 -0.010839956 0.042691246 -0.16257337 0.008063858 -0.23229071
-0.014499117 0.010405519 -0.051104233 0.11806244 -0.09777678 -0.21442573 0.18191849 0.18122654
-0.0047936407 -0.1916613 -0.008020829 0.0332198 -0.12379525 -0.06874355 -0.058142614 -0.037584353
0.09030657 -0.0572691 -0.032127555 0.038537353 0.06519957 -0.011947983 -0.028596913 0.020301573
00000000: 4b44 d0bc 2fa1 593d 5b59 ab3d 0cbf 253e
00000010: e322 2dbb a1b8 a9bc 29fb a83d 57c6 0cbd
00000020: a7c0 99bd 8c2a 8c3d b3af c63d 4294 593d
00000030: dfe7 babd ee77 d93c 537b e03d a45c f13c
00000040: 1948 a5bd d0a8 41be 582b a0bd 64f4 ffbd
00000050: 5841 303d dc91 823d f953 2a3c 7df5 d4bc
00000060: c960 493d cc18 9b3e 4e90 a3bc 0248 c23d
00000070: 4cb8 61bc ffe9 ab3d 79e4 b33c 4b79 22bd
00000080: 7284 76bd 89d6 da3d 75c0 30be dad6 063d
00000090: 0f3f 9dbc 9254 5bbc 5fdd 92be 64e7 143e
000000a0: 0e13 0ebe b912 4fbe 9292 613e ec19 16bd
000000b0: 17c4 a43c 5c83 8f3d 72f4 cd3d 7504 c33d
000000c0: 41d6 343c b706 323d 0494 67bd 695f 0b3e
000000d0: 7274 083e de4a 2fbb 98b0 c7bc 5219 c53d
000000e0: 98ca 0abe 84fd 863d 3bfd 93bd 48c8 c2bb
000000f0: 94f2 30bd d70a 273d 6059 d23d b1bb 8bbd
00000100: b19a b33d e8c0 ea3d bde3 923d 6492 513d
00000110: e874 a9bd c2d1 8abd e878 233d 2a9f 1cbd
00000120: 5e9d c23d c694 efbd a9d4 e7bc 9342 12be
00000130: 7542 8abd 5a62 40be c698 f9bd 9bf9 67bd
00000140: 9cb1 21bd 80ed 0abd eee2 36bd be11 333e
00000150: fa5c a83c 6476 0bbe 5e36 c13c 83f0 65be
00000160: a0de 1e3e 382d 5b3d d022 0d3d 8040 efbd
00000170: 27cc d9bd 8968 8fbd 276b 363d 6bd6 243e
00000180: 88a0 5f3c d5ef acbd 853b 23bd f414 17be
00000190: d948 103d a257 a6bd b420 ef3d a175 94bc
000001a0: 5b83 de3d f2a6 79bd 2c25 edbc c5a3 1ebd
000001b0: 2488 793e 5f66 943c 0e03 08bd 5a97 00be
000001c0: 9943 67bd 519a 363d b5dc 0e3e d0d0 3cbe
000001d0: 2d14 a9bc 9043 ce3b 41a1 1d3d c4af f0bc
000001e0: 0436 6ebd a1be e33d 2e63 f93d b030 913c
000001f0: 92de 8a3d f4d4 343c 5b41 2abe 25ae 66be
00000200: a4fc 75bd 8610 88bd 96af 86bd 4088 0e3d
00000210: 4b4e e9bd 62a5 98bd 26e7 82bd 8e36 7abd
00000220: 64d8 383d 8e36 cf3d dbed 583d 8510 023e
00000230: f420 543d 4db6 133e 43fd 0c3e 8999 6abd
00000240: 888c e13d 1b2e f6bb 9dd6 17bd 95d7 153d
00000250: 2889 afbc 192a 0abe 324c 1e3d 92a2 513e
00000260: 632b 353e dd3e 06bd 2fb7 fd3c bfc8 28bd
00000270: 3769 3a3e 77bb 4a3d d1c4 073d d1cb 903d
00000280: 991f c8bd 56fe 21be 386a 6abd 6640 e4bc
00000290: dd32 d2bc 21c7 843c e447 943d cab2 573d
000002a0: c715 86bd 66df 87bd 1b34 50bb 7c54 f4bd
000002b0: f4a5 5f3d dd2a e7bb 4a30 8d3d 1afc 843e
000002c0: 416f 83bd b040 23bc f6df 563b a879 aa3d
000002d0: 4cea dfbd 71e1 7dbc ed50 fabd e055 323c
000002e0: 2c6f 513d 12bf a0bc e9d3 7fbd 665d 10bd
000002f0: 9f08 fa3d ad4f 073e f80b 2a3d be87 953d
00000300: 57a8 5bbd 6ee0 76bd 5cf9 dcbd bb1f 983d
00000310: 157b 993c 2b55 14bd bd2b 91bd ed7a bbbc
00000320: 1126 d73d 71c9 073e 0109 f83b 6e7a e93d
00000330: 2995 64bb 344f 7dbd 0c8d cb3d 2027 18be
00000340: 91e5 613c 1cef a9bd e825 e8bd e3fe 8fbd
00000350: 24c4 823d 6a97 c43d 65d4 0fbe accc bd3c
00000360: 926b 2e3e b4cf f7bd 3200 26bd 10ff f7bc
00000370: a038 99bc 455c 1abd 0342 133e 3672 143e
00000380: 4418 c33d 6dd3 68bc 8984 7bbd 129a 31bc
00000390: 04dd 2e3d a279 26be 461e 043c 9edd 6dbe
000003a0: b48d 6dbc e97b 2a3c ac52 51bd b8ca f13d
000003b0: 313f c8bd 6b92 5bbe d748 3a3e 7393 393e
000003c0: f913 9dbb dc42 44be cc69 03bc 7c11 083d
000003d0: 5d88 fdbd 6bc9 8cbd f326 6ebd 0df2 19bd
000003e0: a7f2 b83d 0193 6abd 2f98 03bd 58d9 1d3d
000003f0: 5a87 853d 79c1 43bc 1344 eabc 7c4f a63c

network_body._body_endoder.seq_layers.2.bias f4 [128]
0.0 0.0 0.0 0.0 0.0 0.0 0.0 0.0
0.0 0.0 0.0 0.0 0.0 0.0 0.0 0.0
0.0 0.0 0.0 0.0 0.0 0.0 0.0 0.0
0.0 0.0 0.0 0.0 0.0 0.0 0.0 0.0
0.0 0.0 0.0 0.0 0.0 0.0 0.0 0.0
0.0 0.0 0.0 0.0 0.0 0.0 0.0 0.0
0.0 0.0 0.0 0.0 0.0 0.0 0.0 0.0
0.0 0.0 0.0 0.0 0.0 0.0 0.0 0.0
0.0 0.0 0.0 0.0 0.0 0.0 0.0 0.0
0.0 0.0 0.0 0.0 0.0 0.0 0.0 0.0
0.0 0.0 0.0 0.0 0.0 0.0 0.0 0.0
0.0 0.0 0.0 0.0 0.0 0.0 0.0 0.0
0.0 0.0 0.0 0.0 0.0 0.0 0.0 0.0
0.0 0.0 0.0 0.0 0.0 0.0 0.0 0.0
0.0 0.0 0.0 0.0 0.0 0.0 0.0 0.0
0.0 0.0 0.0 0.0 0.0 0.0 0.0 0.0
00000000: 0000 0000 0000 0000 0000 0000 0000 0000
00000010: 0000 0000 0000 0000 0000 0000 0000 0000
00000020: 0000 0000 0000 0000 0000 0000 0000 0000
00000030: 0000 0000 0000 0000 0000 0000 0000 0000
00000040: 0000 0000 0000 0000 0000 0000 0000 0000
00000050: 0000 0000 0000 0000 0000 0000 0000 0000
00000060: 0000 0000 0000 0000 0000 0000 0000 0000
00000070: 0000 0000 0000 0000 0000 0000 0000 0000
00000080: 0000 0000 0000 0000 0000 0000 0000 0000
00000090: 0000 0000 0000 0000 0000 0000 0000 0000
000000a0: 0000 0000 0000 0000 0000 0000 0000 0000
000000b0: 0000 0000 0000 0000 0000 0000 0000 0000
000000c0: 0000 0000 0000 0000 0000 0000 0000 0000
000000d0: 0000 0000 0000 0000 0000 0000 0000 0000
000000e0: 0000 0000 0000 0000 0000 0000 0000 0000
000000f0: 0000 0000 0000 0000 0000 0000 0000 0000
00000100: 0000 0000 0000 0000 0000 0000 0000 0000
00000110: 0000 0000 0000 0000 0000 0000 0000 0000
00000120: 0000 0000 0000 0000 0000 0000 0000 0000
00000130: 0000 0000 0000 0000 0000 0000 0000 0000
00000140: 0000 0000 0000 0000 0000 0000 0000 0000
00000150: 0000 0000 0000 0000 0000 0000 0000 0000
00000160: 0000 0000 0000 0000 0000 0000 0000 0000
00000170: 0000 0000 0000 0000 0000 0000 0000 0000
00000180: 0000 0000 0000 0000 0000 0000 0000 0000
00000190: 0000 0000 0000 0000 0000 0000 0000 0000
000001a0: 0000 0000 0000 0000 0000 0000 0000 0000
000001b0: 0000 0000 0000 0000 0000 0000 0000 0000
000001c0: 0000 0000 0000 0000 0000 0000 0000 0000
000001d0: 0000 0000 0000 0000 0000 0000 0000 0000
000001e0: 0000 0000 0000 0000 0000 0000 0000 0000
000001f0: 0000 0000 0000 0000 0000 0000 0000 0000

action_model._continuous_distribution.mu.weight f4 [1, 128]
-0.013605848 -0.021939902 0.021679271 -0.009143672 -0.008528698 0.0031857514 0.0021700922 0.03260531
0.011897772 -0.030252907 -0.023824576 -0.013323568 -0.010380746 -0.012032598 -0.021689981 0.024139203
0.0042073536 0.02020347 -0.01050585 0.016033038 -0.02674815 0.016508082 -0.002542556 0.004482465
0.013500146 0.022506863 -0.0020171579 -0.0060654758 0.020189306 -0.021146355 -0.004044834 -0.0047921143
0.0002450995 0.005452079 -0.0030348445 -0.0029907238 0.017892852 -0.033922605 -0.019733986 0.032439683
-0.016265439 0.008440913 -0.0006738202 0.005680969 -0.014267318 -0.012771464 0.02081216 -0.0126449885
-0.0012279903 0.004437161 -0.0020963522 0.025502125 0.00036635384 0.0037605667 0.023164304 -0.01910708
0.008809167 0.014672925 0.0047412715 -0.009651626 0.015698314 0.010394694 0.014331768 0.041464042
-0.047535 -0.0056858994 0.030646538 0.03878404 -0.0032481642 0.0144329695 0.016299222 0.031048922
0.027803047 0.025068954 0.019472681 0.022945594 0.019305734 -0.002673067 -0.015360432 0.015335527
-0.031207833 0.017092286 -0.0017332722 0.009469216 0.010988675 -0.0017376175 0.00701006 -0.0024325962
-0.008935398 0.034916442 -0.0038445124 -0.01929017 0.024144638 -0.010110564 -0.013283207 -0.00030689625
0.016056584 -0.0053403177 0.02299477 -0.027242158 0.009883769 -0.0071683265 0.004481055 0.008357579
0.019787205 0.0050157956 -0.009509796 -0.0040436154 0.03970272 -0.02926868 -0.006331522 -0.008736623
0.007910971 -0.008751522 -0.018159052 0.0030833296 -0.0043610465 0.0041092956 0.010905419 0.03040654
0.02192206 -0.010153605 -0.0142633645 -0.01575708 0.009590037 -0.0007369621 0.018283485 0.0076873377
00000000: 10eb 5ebc 4fbb b3bc ba98 b13c 57cf 15bc
00000010: f4bb 0bbc 0ac8 503b 1b38 0e3b 258d 053d
00000020: dfee 423c f2d4 f7bc c22b c3bc 184b 5abc
00000030: 0114 2abc 6024 45bc 30af b1bc 94bf c53c
00000040: d7dd 893b bf81 a53c bb20 2cbc b857 833c
00000050: f01e dbbc f53b 873c 03a1 26bb a4e1 923b
00000060: b72f 5d3c 5060 b83c 4b32 04bb e6c0 c6bb
00000070: 0b64 a53c 1f3b adbc 878a 84bb 2b07 9dbb
00000080: b380 8039 5ba7 b23b 3ee4 46bb 0500 44bb
00000090: 0894 923c 6ef2 0abd 2ba9 a1bc 79df 043d
000000a0: 193f 85bc c14b 0a3c 4fa3 30ba 6c27 ba3b
000000b0: 78c1 69bc 673f 51bc 437e aa3c ed2c 4fbc
000000c0: 84f4 a0ba 9b65 913b f462 09bb d5e9 d03c
000000d0: 2e13 c039 d773 763b 11c3 bd3c 7386 9cbc
000000e0: 5354 103c b566 703c ab5c 9b3b db21 1ebc
000000f0: c099 803c 824e 2a3c cbcf 6a3c 33d6 293d
00000100: 0fb4 42bd c850 babb 730e fb3c 03dc 1e3d
00000110: 27df 54bb 4378 6c3c f285 853c 4f5a fe3c
00000120: 37c3 e33c 685d cd3c 2c85 9f3c 66f8 bb3c
00000130: 0f27 9e3c 9f2e 2fbb 52aa 7bbc dd41 7b3c
00000140: 92a7 ffbc 1f05 8c3c f72e e3ba c524 1b3c
00000150: d809 343c c5c0 e3ba a5b4 e53b 316c 1fbb
00000160: c765 12bc 8b04 0f3d 37f4 7bbb 6b06 9ebc
00000170: faca c53c c7a6 25bc cfa1 59bc ebe6 a0b9
00000180: 1989 833c d5fd aebb 875f bc3c f22a dfbc
00000190: 88ef 213c 48e4 eabb d0d5 923b 3aee 083c
000001a0: c718 a23c 8b5b a43b face 1bbc 4e80 84bb
000001b0: 529f 223d dfc4 efbc a878 cfbb 0e24 0fbc
000001c0: 049d 013c 8b62 0fbc 4bc2 94bc b011 4a3b
000001d0: 1ce7 8ebb 45a7 863b a4ac 323c 2317 f93c
000001e0: e495 b33c 4e5b 26bc e3b0 69bc fe14 81bc
000001f0: 881f 1d3c b030 41ba 3fc7 953c 10e6 fb3b

action_model._discrete_distribution.branches.0.weight f4 [3, 128]
0.0013641649 -0.00089759676 0.004338596 -0.011301461 0.008469017 -0.002781311 -0.0029055148 0.0036853482
0.013445218 0.0036190741 -0.0066679874 0.004073687 -0.00810404 0.002815219 -0.0017700248 0.012756057
-0.008626881 0.009224942 0.0007508476 0.00038397228 -0.00460925 0.0044123186 -0.007969524 -0.013951338
-0.0010430696 -0.00222077 0.0046203616 -0.015749298 -0.008886392 0.005885786 -0.00525198 0.0021890984
-0.017763158 0.0025642132 0.005217153 -0.003437149 0.005138495 0.00776098 0.005410196 0.013232991
0.011092273 -0.0060788365 -0.008011145 -0.0115171615 0.0034633358 -0.011084394 0.0027600094 0.0077000805
-0.016696347 0.007626602 0.013279098 -0.001825102 0.0025770017 0.0018682951 0.006197798 0.01059586
-0.016582249 0.007953627 -0.003791453 0.0027961575 0.012515361 -0.00092120346 0.0013051957 -0.010746246
0.00048701614 0.013272444 -0.0042443736 -0.010066389 0.022446483 -0.0010637135 0.007791932 0.00051387976
0.0037537918 -0.0008913207 0.0023974578 0.0060684495 -0.002246814 -0.008488966 -0.021835992 0.0018500915
-0.00630982 0.009314434 -0.012603113 0.010523997 0.008327907 0.0067186705 0.007368428 0.002321751
0.0018210252 -0.0015104883 -0.004212826 0.0019172424 0.018481238 -0.0017014871 -0.0020191614 -0.013784818
-0.0061083552 0.0030776488 0.008599051 -0.0097271595 0.0035918008 0.0044546 -0.0048495033 0.0029254637
-0.0071680374 0.009897305 -0.012699107 -0.010090073 -0.0024443897 -0.018826934 0.013148916 0.00044523677
-0.0012774281 -0.002836361 -0.017335935 -0.0059685702 0.0020894846 0.0069469325 0.00051072455 0.0028926514
7.791998e-05 -2.0547517e-05 -0.013943954 0.005917535 -0.018074553 0.011186413 0.0039585936 0.01288032
0.0031652376 0.005061838 0.012372064 -0.0061027273 0.0035934353 -0.008593975 -0.007025379 -0.008527493
-0.010722705 0.0029757775 0.01443952 -0.01106382 0.0031893558 -0.0077922973 -0.0017084418 -0.011228408
0.0069236965 -0.008964571 0.00037338282 0.0019064135 -0.014821506 0.011747106 -0.009344032 -0.009461795
-0.011045903 -0.0036160466 -0.017716823 -0.0008738704 -0.0023875458 0.013664468 -0.008175009 1.1898881e-05
0.003316084 0.008604801 0.016137984 -0.0017560201 0.011791121 -0.011318859 -0.0035560396 -0.016772417
-0.0013974289 0.003440447 0.0013973676 -0.011459607 0.005291713 0.0006064821 -0.002898468 -0.0054070833
0.0041009067 -0.011936615 -0.00623896 0.0039609387 -0.008955247 0.0062253936 -0.0051906044 0.0035949952
-0.0027239777 -0.013520794 0.012045495 0.009855728 -0.0070293224 -0.0054779653 -0.014884755 0.0065092444
0.0031952732 -0.0059997323 0.012452575 0.0077087716 -0.009200192 -0.018012723 0.005410603 -0.006302492
0.016054457 -0.02411548 0.00749194 -0.008334934 -0.0058966125 0.008006857 0.009778201 0.008601446
-0.0055248365 0.0031712092 -0.0013220261 -0.015043192 0.009801717 -0.006164209 -0.0063620606 -0.005334238
0.0028036016 0.008962 -0.0019220834 -0.0002436121 0.026867658 -0.01018145 -0.007390166 0.00059772853
0.0063147726 -0.009232956 0.0016061005 0.006589549 0.0048780455 -0.004153875 -0.00992635 -0.010313359
-0.0071263122 0.0028850238 -0.0057038465 0.0071227276 0.004861544 0.004627175 -0.016641466 -0.0033898738
-0.013695749 -0.0008417194 0.0066941767 0.008812362 0.0022873774 0.013029707 -0.011857166 0.006047331
-0.0011737805 0.0038554259 0.0034865625 -0.0005619479 -0.0011854953 0.008394548 0.018109528 -0.0050965114
00000000: c7cd b23a b34c 6bba c82a 8e3b c329 39bc
00000010: a2c1 0a3c a846 36bb 736a 3ebb e285 713b
00000020: 5549 5c3c fd2d 6d3b 227f dabb 907c 853b
00000030: cfc6 04bc 8a7f 383b 2d00 e8ba c8fe 503c
00000040: c357 0dbc 3624 173c 88d4 443a e34f c939
00000050: 3109 97bb 3695 903b 9b92 02bc 2794 64bc
00000060: 9cb7 88ba 578a 11bb 6766 973b ac04 81bc
00000070: 3b98 11bc 8ddd c03b cd18 acbb fa76 0f3b
00000080: 0b84 91bc 5c0c 283b a7f4 aa3b cb41 61bb
00000090: d260 a83b d24f fe3b 0348 b13b 30cf 583c
000000a0: 5dbc 353c fa30 c7bb 2d41 03bc 7ab2 3cbc
000000b0: 22f9 623b 519b 35bc 46e1 343b f550 fc3b
000000c0: c7c6 88bc 93e8 f93b 9390 593c 4338 efba
000000d0: eae2 283b 95e1 f43a e616 cb3b 429a 2d3c
000000e0: 7fd7 87bc ee4f 023c 077a 78bb bd3f 373b
000000f0: 3b0d 4d3c eb7c 71ba 1a13 ab3a 0611 30bc
00000100: 3356 ff39 aa74 593c 6314 8bbb 7fed 24bc
00000110: b0e1 b73c 4d6c 8bba 7753 ff3b e3b5 063a
00000120: 2d02 763b 85a7 69ba ab1e 1d3b d8d9 c63b
00000130: 493f 13bb 4e15 0bbc 65e1 b2bc c57e f23a
00000140: 9bc2 cebb 919b 183c 4a7d 4ebc d86c 2c3c
00000150: c671 083c 4b28 dc3b db72 f13b 8528 183b
00000160: 77af ee3a 94fb c5ba bf0b 8abb fb4b fb3a
00000170: f765 973c 6f04 dfba e853 04bb b8d9 61bc
00000180: 9928 c8bb 61b2 493b 09e3 0c3c aa5e 1fbc
00000190: 6b64 6b3b e5f7 913b 95e8 9ebb 23b9 3f3b
000001a0: dbe1 eabb 4e28 223c ea0f 50bc d550 25bc
000001b0: 0e32 20bb f13a 9abc 8d6e 573c ab6e e939
000001c0: 606f a7ba 3ee2 39bb 1704 8ebc ff93 c3bb
000001d0: bcef 083b 18a3 e33b 25e2 053a a392 3d3b
000001e0: f968 a338 755d acb7 2f75 64bc e2e7 c13b
000001f0: 1611 94bc 3747 373c 17b7 813b fa07 533c
00000200: e06f 4f3b c6dd a53b 33b4 4a3c 63f9 c7bb
00000210: d77f 6b3b becd 0cbc 2735 e6bb e6b6 0bbc
00000220: 49ae 2fbc 4305 433b bd93 6c3c 0645 35bc
00000230: 8304 513b 8756 ffbb cbed dfba 5bf7 37bc
00000240: 2de0 e23b 23e0 12bc 98c2 c339 9fe0 f93a
00000250: e7d5 72bc ef76 403c b617 19bc a505 1bbc
00000260: e0f9 34bc 32fb 6cbb df22 91bc 7314 65ba
00000270: 5f78 1cbb efe0 5f3c 79f0 05bc 4ea1 4737
00000280: a852 593b 27fb 0c3c ce33 843c 422a e6ba
00000290: 8c2f 413c bc72 39bc 720c 69bb 4f66 89bc
000002a0: ef29 b7ba 1f79 613b e027 b73a 13c1 3bbc
000002b0: 1b66 ad3b 53fc 1e3a 39f4 3dbb e72d b1bb
000002c0: e660 863b cb91 43bc 3170 ccbb c3ca 813b
000002d0: 07b9 12bc 63fe cb3b f215 aabb 039a 6b3b
000002e0: c384 32bb 5286 5dbc 785a 453c eb79 213c
000002f0: 3b56 e6bb 8180 b3bb 30df 73bc 804b d53b
00000300: ca67 513b 6799 c4bb e305 4c3c dd99 fc3b
00000310: 67bc 16bc 6b8f 93bc 6d4b b13b 2385 cebb
00000320: a384 833c d48d c5bc f37e f53b 3f8f 08bc
00000330: 5f38 c1bb 312f 033c bf34 203c 14ed 0c3c
00000340: b009 b5bb 10d4 4f3b d647 adba b877 76bc
00000350: 6197 203c 22fd c9bb d578 d0bb d5ca aebb
00000360: a1bc 373b 5ad5 123c 6bee fbba 2072 7fb9
00000370: 9019 dc3c 19d0 26bc 3529 f2bb e2b0 1c3a
00000380: 27ec ce3b d345 17bc ca83 d23a 25ed d73b
00000390: 03d8 9f3b 3b1d 88bb 21a2 22bc 5df9 28bc
000003a0: d783 e9bb ab12 3d3b 55e7 babb c565 e93b
000003b0: 964d 9f3b 8f9f 973b af53 88bc a528 5ebb
000003c0: 2364 60bc d5a6 5cba d35a db3b ba61 103c
000003d0: d3e7 153b 8d7a 553c 8f44 42bc b028 c63b
000003e0: 8ad9 99ba 50ab 7c3b d07e 643b af4f 13ba
000003f0: 9f62 9bba 4989 093c 6f5a 943c a300 a7bb

action_model._discrete_distribution.branches.0.bias f4 [3]
0.0 0.0 0.0
00000000: 0000 0000 0000 0000 0000 0000

action_model._discrete_distribution.branches.1.weight f4 [2, 128]
0.002248916 -0.016820507 0.006979531 -0.014922874 0.01105656 -0.009872736 -0.0033793624 0.015325635
0.005231963 0.0064357496 -0.010321836 -0.0042213704 -0.005159985 -0.0058499435 -0.003629498 0.00055788446
-0.004371096 -0.0015146629 -0.00043938393 -0.022955455 -0.0037086953 -0.0054460256 -0.0073437104 -0.0045711217
-0.0007313832 0.0082995845 0.0030275173 -0.024740454 -0.0004220237 0.017294966 -0.014612275 -0.008130944
0.0034414164 0.006586214 0.019799285 0.007904977 -0.01144839 -0.0080912225 -0.004899656 0.0045069563
-0.007114158 0.0065051015 -0.0007313671 0.017175121 -0.0036456347 -0.011833846 -0.002147735 -0.00087411975
0.0038364038 -0.009858176 -0.0008362381 0.0053574927 0.013255599 -0.012240413 -0.010596431 -0.011503724
0.010416461 0.0037126937 -0.0027503388 0.002703496 -0.015771966 0.0056254095 0.006867984 -0.0017049983
0.0115415845 0.00016491087 0.0150491465 -0.0007415458 0.009947783 -0.0049768463 -0.00068719214 -0.0163071
0.011077854 -0.009231591 -0.008284519 0.00026515158 -0.011162898 0.00456223 -0.0016593166 -0.0013815784
0.0012741027 -0.0073489547 0.010635665 -0.006805034 -0.004527084 -0.019088043 0.014214563 -0.016032377
-0.0018728722 0.025795838 -0.005510471 0.00043077322 -0.0038190489 0.013607338 -0.011567846 -0.016677275
-0.0038324774 0.006658348 0.015820256 -0.006604628 0.0103401635 -0.004068188 -0.008858895 -0.012970271
0.014590268 0.003150003 0.01222658 -0.0054746284 0.014998399 -0.0011608991 0.013034746 0.011298815
-0.0043392396 0.01506231 0.003217925 -0.0008170657 0.0011963592 0.012245261 0.00067071983 -0.00046603262
0.0020851493 0.008843202 0.0069844346 0.010965957 -0.012390117 0.009491564 0.007677426 -0.0019374285
-0.0017544164 0.001246541 0.020774743 -0.009031853 -0.009886013 0.0019494671 -0.0051765325 0.008731085
0.0066648624 0.0045107165 0.009753565 -0.00025334777 -0.010141224 -0.0031649128 -0.007418132 0.011335788
-0.0011414884 -0.00027003928 -0.00040435264 0.003099734 0.015017894 -0.000821602 -0.006268628 -0.010526689
0.0045709754 -0.012250054 0.012879451 0.0032262772 0.0046875975 -0.0011851738 -0.0024550362 0.005260877
-0.008149132 -0.018694328 -0.014735605 -0.0019836526 -0.0051369057 -0.013215988 0.0040531405 0.010968292
-0.009611059 0.0055031697 -0.004866997 -0.0007118807 -0.0006483867 0.0011126697 -0.00012418821 -0.013921708
-0.0071877823 0.0009209009 0.0077252123 7.733975e-05 0.020436706 0.009048632 -0.0028383036 0.008194218
-0.0077209957 -0.0012497375 0.011271014 -0.0008476463 0.0012684332 -0.004704871 0.0119539825 -0.005906101
0.0029520432 0.0012342962 0.0103260325 -0.005555918 0.00239665 0.021560667 -0.0055749007 -0.0037032743
-0.0011586787 -0.009585974 -0.019809125 -0.0051255776 0.001246536 0.0038528442 -0.010361719 -0.0036929192
0.0061483723 -0.011023468 -0.0072745853 0.008624345 0.008183681 -0.0004518694 0.016049901 -0.0007291338
0.009191425 0.0026685786 -0.0034400702 -0.007050817 -0.006448882 -0.0033318915 -0.013487736 -0.0011853455
-0.015007782 -0.0036314898 -0.011420074 0.004272393 -0.0021911508 0.0011682336 -0.011027354 0.005739413
-0.009441549 0.010389799 0.004838038 0.0055976207 0.019059155 -0.0055510416 0.0031171066 -0.011687075
-0.0003590633 0.0013719094 -0.019316828 -0.0018595252 0.004879699 -0.009360153 -0.0054334933 -0.005759722
0.0027150053 -0.009223695 0.01040502 -0.012035658 -0.022220682 -0.01452631 0.0054774648 0.0026050035
00000000: 8d62 133b 29cb 89bc 8db4 e43b 127f 74bc
00000010: 9326 353c 42c1 21bc 4b78 5dbb 5f18 7b3c
00000020: e370 ab3b fbe2 d23b eb1c 29bc 6c53 8abb
00000030: 1715 a9bb e2b0 bfbb dfdc 6dbb fe3e 123a
00000040: 693b 8fbb a787 c6ba 1d5d e6b9 140d bcbc
00000050: 950d 73bb 9374 b2bb 82a3 f0bb 59c9 95bb
00000060: 4cba 3fba fbfa 073c 5069 463b 7eac cabc
00000070: 1043 ddb9 2cae 8d3c 5368 6fbc a737 05bc
00000080: 6389 613b 2bd1 d73b 1c32 a23c e083 013c
00000090: 0792 3bbc 0c91 04bc 4b8d a0bb 17af 933b
000000a0: e21d e9bb bf28 d53b 37b9 3fba d7b2 8c3c
000000b0: 9aeb 6ebb bfe2 41bc 04c1 0cbb 2f25 65ba
000000c0: 2d6c 7b3b 3084 21bc fd36 5bba e88d af3b
000000d0: 032e 593c 038c 48bc a79c 2dbc 1e7a 3cbc
000000e0: cea9 2a3c aa50 733b 073f 34bb 232d 313b
000000f0: 3634 81bc 5b55 b83b d30c e13b 407a dfba
00000100: ea18 3d3c edeb 2c39 b290 763c 4c64 42ba
00000110: 07fc 223c d014 a3bb af24 34ba 7896 85bc
00000120: e37f 353c 1940 17bc cbbb 07bc 0b04 8b39
00000130: 96e4 36bc c27e 953b 6d7d d9ba 1416 b5ba
00000140: cbff a63a 80cf f0bb 3641 2e3c c3fc debb
00000150: ef57 94bb 875e 9cbc 33e4 683c 5556 83bc
00000160: 2a7b f5ba cb51 d33c 2e91 b4bb 67d9 e139
00000170: 0249 7abb 50f1 5e3c 1087 3dbc c89e 88bc
00000180: 4d2a 7bbb 452e da3b 7b99 813c a36b d8bb
00000190: ca69 293c 6f4e 85bb e624 11bc 4281 54bc
000001a0: 050c 6f3c 4870 4e3b fe51 483c 8364 b3bb
000001b0: d8bb 753c 4f29 98ba b08f 553c aa1e 393c
000001c0: 2e30 8ebb e8c7 763c d3e3 523b 5a30 56ba
000001d0: 27cf 9c3a 59a0 483c 3fd3 2f3a d755 f4b9
000001e0: 00a7 083b 14e3 103c afdd e43b 8faa 333c
000001f0: ebff 4abc 8182 1b3c eb92 fb3b 50f1 fdba
00000200: 72f4 e5ba fa62 a33a cb2f aa3c 56fa 13bc
00000210: f2f8 21bc 4385 ff3a e79f a9bb d30c 0f3c
00000220: eb64 da3b a2ce 933b 6bcd 1f3c c3d3 84b9
00000230: 6027 26bc 6d6a 4fbb cd13 f3bb beb9 393c
00000240: ff9d 95ba 0f94 8db9 4bff d3b9 e824 4b3b
00000250: 9d0d 763c c760 57ba 1069 cdbb 2278 2cbc
00000260: 1fc8 953b 73b4 48bc 5504 533c f36f 533b
00000270: 6b9a 993b d557 9bba ace4 20bb 6f63 ac3b
00000280: f083 05bc d924 99bc 9b6d 71bc 2b00 02bb
00000290: 7d53 a8bb df87 58bc 35d0 843b 5ab4 333c
000002a0: b477 1dbc ef53 b43b 547b 9fbb 819d 3aba
000002b0: 7ff8 29ba 00d7 913a 8538 02b9 e017 64bc
000002c0: 7d87 ebbb 9d68 713a c723 fd3b 7631 a238
000002d0: e16a a73c b740 143c d502 3abb 0b41 063c
000002e0: 6800 fdbb 3bce a3ba 0faa 383c 9534 5eba
000002f0: 8e41 a63a 522b 9abb a3da 433c f787 c1bb
00000300: 1177 413b 1cc8 a13a 852e 293c 6b0e b6bb
00000310: 1d11 1d3b ff9f b03c a8ad b6bb a2b2 72bb
00000320: cede 97ba 7d0e 1dbc bf46 a2bc 76f4 a7bb
00000330: cf62 a33a 0080 7c3b 33c4 29bc e704 72bb
00000340: 4978 c93b c79b 34bc a55f eebb 204d 0d3c
00000350: d914 063c e2e8 ecb9 157b 833c 5723 3fba
00000360: a197 163c 52e3 2e3b cd72 61bb 8a0a e7bb
00000370: 2551 d3bb dd5b 5abb aafb 5cbc 985d 9bba
00000380: 33e3 75bc 4afe 6dbb 431b 3bbc 6eff 8b3b
00000390: 6999 0fbb 6a1f 993a 13ac 34bc b011 bc3b
000003a0: bab0 1abc fa39 2a3c 6788 9e3b 3f6c b73b
000003b0: f221 9c3c 83e5 b5bb 5f48 4c3b 257b 3fbc
000003c0: a940 bcb9 a4d1 b33a 533e 9ebc 50bb f3ba
000003d0: e2e5 9f3b 545b 19bc 720b b2bb 0dbc bcbb
000003e0: 3bee 313b fb1e 17bc d179 2a3c 3531 45bc
000003f0: 2608 b6bc c3ff 6dbc 4e7c b33b b5b8 2a3b

action_model._discrete_distribution.branches.1.bias f4 [2]
0.0 0.0
00000000: 0000 0000 0000 0000
