results/ppo/Player Behaviour/Player Behaviour-1792.onnx (onnx, 76307 bytes, 10 tensors)

discrete_action_output_shape f4 [1, 2]
3.0 2.0
00000000: 0000 4040 0000 0040

network_body._body_endoder.seq_layers.0.weight f4 [128, 5]
-0.6689951 0.27775356 -0.17801243 0.31250626 -0.32260785 0.2610194 -0.8009728 0.5009964
-0.6445517 0.46159476 0.38921365 0.04126114 0.6805603 -0.8365799 0.394719 -0.2098031
-0.5836001 -0.48852107 -0.17088659 -0.36600322 -0.07510682 0.2673002 0.75941026 0.047956083
-0.2199811 -0.17647438 -0.065012746 -0.6036419 -0.17489827 -0.3869805 0.065086216 0.1205173
-0.25811395 0.40677696 0.6194911 0.5319131 -0.43723866 0.3002402 0.523139 -0.771541
-0.010665223 0.12984432 -0.06675852 0.79085827 0.11488723 -0.3742017 -0.40400088 -0.3251243
-0.15618552 -0.2125627 -0.5056794 0.10647695 0.1661793 0.8640596 0.77959484 0.17754197
-0.8970845 0.6576488 0.39954102 -0.17838883 0.18088593 0.15075573 -0.45520985 0.19413029
-0.40426078 0.6922184 0.33317202 -0.070551835 0.0438047 -0.6246406 -0.58521914 -0.020199055
-0.11275159 0.42956358 -0.049230725 -0.25432554 -0.016180746 -0.14177951 0.18922846 0.29659995
0.4826052 -0.35914057 -0.68737894 -0.23318766 -0.29298896 0.058162875 0.36131215 0.6020195
0.04449324 0.5245591 0.32339257 0.57507336 -0.14295697 0.22534439 0.019036908 -0.29596856
-0.2286868 -0.33796275 0.49189878 0.34858292 -0.6281834 -0.94270355 0.5009222 -0.07147922
0.4714503 -0.15156297 -0.3971039 -0.31935313 0.56304276 -0.3328157 -0.3562855 0.48480687
-0.06343265 0.86228305 -0.619151 0.106173664 -0.1690091 -0.69499075 0.6142746 -0.008202755
0.010955246 0.38991198 0.2903296 0.18650177 0.7320025 -0.70396256 0.82089114 -0.13087596
-0.2138592 -0.85398096 0.056134365 -0.19492994 0.0036721437 -0.49462178 0.18546759 0.93048644
-0.0733216 -0.34180188 -0.6073856 0.39457667 0.5274997 0.04974126 -0.384755 -0.04710226
0.096679755 0.086480744 -0.3396567 0.067483544 -0.16348174 0.26956898 -0.20517093 0.06987327
-0.8635069 -0.32746863 0.1912491 0.050355002 0.061325103 -0.5441081 -1.0285975 0.7765755
-0.20966111 0.7439257 -0.465854 0.36556146 0.48302418 0.5193919 0.19977558 0.071429506
-0.30057973 -0.5891011 -0.8931263 -0.065581284 0.8798479 -0.36268842 -0.3617419 -0.06923833
0.21726844 -1.0691067 0.22930025 0.66939765 0.31083077 -0.43391865 -0.19347087 0.20612825
0.31967673 -0.5708486 0.3426682 0.45208925 -0.35227102 0.69001514 0.20991133 0.9039128
0.19316202 0.04614187 0.3133093 -0.060652107 0.6386657 0.2076535 0.51523256 0.08398799
0.32093346 -1.1393355 -0.4180354 -0.26208347 0.10695882 0.22858337 0.27537698 -0.6446627
-0.031737093 -0.6080001 1.0946381 -0.19279557 0.15488207 0.20728938 -0.23612949 0.7469322
-0.6339744 0.43007445 -0.6169624 -0.31974554 0.66754234 0.12078367 -0.65315676 -0.3675538
0.024622748 0.15906519 0.55347353 -0.4985175 0.97033685 -0.35459098 0.1593426 0.9184145
-0.3529653 -0.03380497 0.9079224 -0.42398965 0.113619395 -0.05766051 0.09106503 0.23067383
0.059650566 -0.1472336 -0.13268307 -0.58529174 0.28761715 -0.6922825 -0.38991114 0.2144383
0.5534244 -0.27408978 0.16787587 0.5134041 -0.42806792 -0.6241071 -0.079783 -0.17807278
00000000: 4343 2bbf b735 8e3e e448 36be d200 a03e
00000010: db2c a5be 56a4 853e 8e0c 4dbf 4d41 003f
00000020: 5701 25bf 2656 ec3e 0347 c73e 7101 293d
00000030: 3339 2e3f 1a2a 56bf 9c18 ca3e a0d6 56be
00000040: d166 15bf 6f1f fabe e5fc 2ebe c664 bbbe
00000050: 9bd1 99bd 92db 883e b668 423f 996d 443d
00000060: ba42 61be b3b5 34be 6725 85bd 4788 1abf
00000070: 8818 33be 4f22 c6be ec4b 853d c6d1 f63d
00000080: 8327 84be 1245 d03e f896 1e3f 752b 083f
00000090: bfdd dfbe 15b9 993e 70ec 053f b683 45bf
000000a0: 30bd 2ebc e9f5 043e b1b8 88bd b075 4a3f
000000b0: ff49 eb3d 5d97 bfbe 34d9 cebe b176 a6be
000000c0: 19ef 1fbe 09aa 59be 3574 01bf 9610 da3d
000000d0: e82a 2a3e 0333 5d3f 8793 473f 90cd 353e
000000e0: 54a7 65bf ac5b 283f a490 cc3e 90ab 36be
000000f0: 293a 393e b65f 1a3e 4411 e9be 17ca 463e
00000100: 45fb cebe 3a35 313f 8695 aa3e 7b7d 90bd
00000110: 8f6c 333d 72e8 1fbf ecd0 15bf 7d78 a5bc
00000120: 4eea e6bd c2ef db3e 28a6 49bd f536 82be
00000130: 7c8d 84bc a62e 11be 1bc5 413e f3db 973e
00000140: 0718 f73e 46e1 b7be 11f8 2fbf bfc8 6ebe
00000150: a602 96be 323c 6e3d e8fd b83e f31d 1a3f
00000160: 8b3e 363d 8149 063f b693 a53e 0238 133f
00000170: 5063 12be aec0 663e 4af3 9b3c 3189 97be
00000180: df2c 6abe 7409 adbe 28da fb3e 7679 b23e
00000190: a1d0 20bf 0555 71bf 703c 003f b363 92bd
000001a0: ef61 f13e 5333 1bbe 3451 cbbe 4182 a3be
000001b0: 9223 103f d266 aabe 0e6b b6be 9b38 f83e
000001c0: fae8 81bd 95be 5c3f ae80 1ebf 9471 d93d
000001d0: b910 2dbe eaea 31bf 1a41 1d3f d964 06bc
000001e0: a27d 333c 8ba2 c73e 15a6 943e 52fa 3e3e
000001f0: 8464 3b3f e436 34bf ec25 523f 5904 06be
00000200: e8fd 5abe 7f9e 5abf 26ed 653d b79b 47be
00000210: 59a8 703b 113f fdbe 37eb 3d3e 5c34 6e3f
00000220: a329 96bd a800 afbe 9f7d 1bbf f405 ca3e
00000230: 380a 073f 7ebd 4b3d 9bfe c4be 4dee 40bd
00000240: 0900 c63d d11c b13d 7ce7 adbe d034 8a3d
00000250: c267 27be f204 8a3e 5418 52be b819 8f3d
00000260: ca0e 5dbf f8a9 a7be ced6 433e 0c41 4e3d
00000270: 0830 7b3d ab4a 0bbf 15a9 83bf a7cd 463f
00000280: 67b1 56be ea71 3e3f 6a84 eebe df2a bb3e
00000290: f24e f73e def6 043f f891 4c3e a249 923d
000002a0: 96e5 99be 54cf 16bf eda3 64bf 7b4f 86bd
000002b0: b63d 613f 4cb2 b9be 3c36 b9be d3cc 8dbd
000002c0: 9e7b 5e3e 7dd8 88bf afcd 6a3e a55d 2b3f
000002d0: 3625 9f3e 962a debe 3a1d 46be 4913 533e
000002e0: abac a33e 2223 12bf 3572 af3e 3e78 e73e
000002f0: de5c b4be d5a4 303f fff2 563e d466 673f
00000300: 44cc 453e 42ff 3c3d 146a a03e 586e 78bd
00000310: 987f 233f 1ea3 543e 48e6 033f e501 ac3d
00000320: 6451 a43e bfd5 91bf bc08 d6be ce2f 86be
00000330: 3a0d db3d c211 6a3e 36fe 8c3e 9d08 25bf
00000340: c1fe 01bd e5a5 1bbf 1a1d 8c3f 346c 45be
00000350: 6899 1e3e ab43 543e eecb 71be f336 3f3f
00000360: 254c 22bf b832 dc3e 3ff1 1dbf b0b5 a3be
00000370: 0ee4 2a3f 6e5d f73d 4835 27bf 0330 bcbe
00000380: a5b5 c93c fce1 223e 71b0 0d3f b03d ffbe
00000390: ff67 783f f38c b5be b52a 233e 361d 6b3f
000003a0: deb7 b4be 1577 0abd 9a6d 683f 2c15 d9be
000003b0: 49b1 e83d 6d2d 6cbd 4d80 ba3d c335 6c3e
000003c0: 2754 743d 68c4 16be 12de 07be aed5 15bf
000003d0: 8e42 933e 6d39 31bf 6fa2 c7be b795 5b3e
000003e0: 39ad 0d3f 7f55 8cbe a7e7 2b3e 736e 033f
000003f0: b82b dbbe 7cc5 1fbf 4565 a3bd b658 36be

network_body._body_endoder.seq_layers.0.bias f4 [128]
0.0 0.0 0.0 0.0 0.0 0.0 0.0 0.0
0.0 0.0 0.0 0.0 0.0 0.0 0.0 0.0
0.0 0.0 0.0 0.0 0.0 0.0 0.0 0.0
0.0 0.0 0.0 0.0 0.0 0.0 0.0 0.0
0.0 0.0 0.0 0.0 0.0 0.0 0.0 0.0
0.0 0.0 0.0 0.0 0.0 0.0 0.0 0.0
0.0 0.0 0.0 0.0 0.0 0.0 0.0 0.0
0.0 0.0 0.0 0.0 0.0 0.0 0.0 0.0
0.0 0.0 0.0 0.0 0.0 0.0 0.0 0.0
0.0 0.0 0.0 0.0 0.0 0.0 0.0 0.0
0.0 0.0 0.0 0.0 0.0 0.0 0.0 0.0
0.0 0.0 0.0 0.0 0.0 0.0 0.0 0.0
0.0 0.0 0.0 0.0 0.0 0.0 0.0 0.0
0.0 0.0 0.0 0.0 0.0 0.0 0.0 0.0
0.0 0.0 0.0 0.0 0.0 0.0 0.0 0.0
0.0 0.0 0.0 0.0 0.0 0.0 0.0 0.0
00000000: 0000 0000 0000 0000 0000 0000 0000 0000
00000010: 0000 0000 0000 0000 0000 0000 0000 0000
00000020: 0000 0000 0000 0000 0000 0000 0000 0000
00000030: 0000 0000 0000 0000 0000 0000 0000 0000
00000040: 0000 0000 0000 0000 0000 0000 0000 0000
00000050: 0000 0000 0000 0000 0000 0000 0000 0000
00000060: 0000 0000 0000 0000 0000 0000 0000 0000
00000070: 0000 0000 0000 0000 0000 0000 0000 0000
00000080: 0000 0000 0000 0000 0000 0000 0000 0000
00000090: 0000 0000 0000 0000 0000 0000 0000 0000
000000a0: 0000 0000 0000 0000 0000 0000 0000 0000
000000b0: 0000 0000 0000 0000 0000 0000 0000 0000
000000c0: 0000 0000 0000 0000 0000 0000 0000 0000
000000d0: 0000 0000 0000 0000 0000 0000 0000 0000
000000e0: 0000 0000 0000 0000 0000 0000 0000 0000
000000f0: 0000 0000 0000 0000 0000 0000 0000 0000
00000100: 0000 0000 0000 0000 0000 0000 0000 0000
00000110: 0000 0000 0000 0000 0000 0000 0000 0000
00000120: 0000 0000 0000 0000 0000 0000 0000 0000
00000130: 0000 0000 0000 0000 0000 0000 0000 0000
00000140: 0000 0000 0000 0000 0000 0000 0000 0000
00000150: 0000 0000 0000 0000 0000 0000 0000 0000
00000160: 0000 0000 0000 0000 0000 0000 0000 0000
00000170: 0000 0000 0000 0000 0000 0000 0000 0000
00000180: 0000 0000 0000 0000 0000 0000 0000 0000
00000190: 0000 0000 0000 0000 0000 0000 0000 0000
000001a0: 0000 0000 0000 0000 0000 0000 0000 0000
000001b0: 0000 0000 0000 0000 0000 0000 0000 0000
000001c0: 0000 0000 0000 0000 0000 0000 0000 0000
000001d0: 0000 0000 0000 0000 0000 0000 0000 0000
000001e0: 0000 0000 0000 0000 0000 0000 0000 0000
000001f0: 0000 0000 0000 0000 0000 0000 0000 0000

network_body._body_endoder.seq_layers.2.weight f4 [128, 128]
0.07440191 -0.14129157 0.020902045 0.14684758 -0.002416417 0.059251904 0.0071458835 0.123305015
5.7957204e-06 0.09905302 0.012486712 -0.04550102 -0.09859081 0.13741316 -0.031441357 -0.06922447
0.12180532 0.029937312 0.005922443 -0.20628911 -0.1422871 0.011906705 -0.05575911 0.001851448
-0.16635244 0.003152192 0.1440859 0.03927627 0.08510089 -0.049444444 0.18078652 0.084012784
-0.085137315 0.0056297895 0.005398414 -0.07695272 0.0840686 0.013739714 -0.045497622 -0.118435204
-0.10066622 0.021033244 -0.0888282 0.03376268 0.096147865 0.1111335 -0.13161437 0.09754498
0.09331427 -0.043827947 0.097225286 0.050385892 0.035039984 -0.08662583 0.012048487 0.08187358
0.02724736 0.05676987 -0.11225393 0.09668339 0.02138538 -0.10827417 0.012380593 0.06407366
0.12544684 0.17299636 -0.06477944 0.024567908 0.0032102168 0.07294935 -0.15400922 0.08655326
0.095646225 -0.08705521 -0.00786199 -0.087384515 -0.05939496 0.086239144 -0.015074624 0.08211911
-0.0955249 -0.06496036 -0.020636866 -0.10429234 0.08722117 -0.035883807 0.20068182 0.16194594
-0.12363514 -0.11378127 -0.039011408 -0.038452003 -0.10492442 0.020135606 0.08798767 0.09272616
-0.07792491 -0.08766869 0.0206569 0.12015368 -0.1619404 0.09924391 -0.050492894 -0.19070439
0.019805152 -0.06564299 -0.0142129585 -0.10566954 -0.06547094 0.04037302 -0.112927705 -0.112144835
-0.13004 -0.074455366 0.06943324 -0.099373065 0.038979463 -0.039886102 -0.023837592 0.0014457473
-0.007611724 0.009061086 0.058422796 0.15455678 0.05792391 0.024831887 -0.055088937 -0.09166965
-0.010406461 -0.12221805 -0.025130507 -0.078836784 0.042799447 -0.051637795 -0.124168746 0.006205856
0.11114435 -0.09157283 0.07161837 -0.034721654 0.044136126 0.04205423 0.05056132 -0.08150978
0.016708713 0.10572987 -0.012862572 -0.037965428 0.0066427547 0.124814026 -0.035467897 0.13775486
0.039501093 0.008297008 -0.013467431 -0.038992424 0.095130876 0.108602 0.024610372 -0.0064426144
-0.03664807 0.16281494 -0.0009186052 0.037060264 -0.015342734 -0.04238312 -0.072004974 -0.023218596
-0.08192676 0.00078481983 -0.051413313 -0.10603875 0.14681213 -0.16188514 -0.025845803 -0.0126032615
0.07867323 0.069479935 -0.2488366 -0.15432204 0.06376973 -0.104453735 0.020147955 -0.19655587
-0.023720006 0.026472893 0.03563589 -0.061361168 0.067035735 -0.038554035 0.122088894 -0.12335659
0.09339877 -0.16950727 -0.019202275 0.10677695 0.13615097 -0.047631875 0.11553122 -0.020942189
-0.16152075 0.036212128 -0.00013458863 0.007140445 0.03231936 0.1395061 -0.008424565 -0.03336823
0.04071817 0.0023085766 -0.021012384 -0.0731117 -0.026719574 -0.022865064 0.006143244 -0.13523225
-0.032649666 0.0034686576 0.10951766 -0.082695216 -0.12883177 -0.04909315 0.15863474 -0.00088535435
-0.012696518 -0.04217983 0.107960865 -0.026303971 -0.0037505545 -0.05232506 -0.08820704 -0.040548027
0.114809275 -0.072896995 -0.013568224 0.12024349 0.016402667 -0.0044059213 -0.027015468 0.042432692
-0.023728317 0.058226325 -0.025810042 0.17642355 0.045856945 -0.0020104842 0.100655295 -0.044858776
0.043992635 0.029260773 -0.04288707 0.114436194 -0.07650751 -0.058525212 -0.08700405 0.019534597
00000000: 0760 983d bdae 10be c43a ab3c 365f 163e
00000010: c05c 1ebb 20b2 723d 0428 ea3b 5787 fc3d
00000020: dc78 c236 4fdc ca3d 1195 4c3c 475f 3abd
00000030: fbe9 c9bd 09b6 0c3e a7c8 00bd 8fc5 8dbd
00000040: 1175 f93d 183f f53c 0d11 c23b 743d 53be
00000050: b6b3 11be 5714 433c aa63 64bd 49ac f23a
00000060: 4b58 2abe 0295 4e3b 418b 133e 27e0 203d
00000070: 6049 ae3d 4286 4abd 1a20 393e e50e ac3d
00000080: 795c aebd 197a b83b 2ee5 b03b 6399 9dbd
00000090: 282c ac3d 8a1c 613c b75b 3abd 288e f2bd
000000a0: 172a cebd e94d ac3c 8feb b5bd bc4a 0a3d
000000b0: 2ce9 c43d f699 e33d ebc5 06be aac5 c73d
000000c0: 8d1b bf3d ef84 33bd 0d1e c73d 7061 4e3d
000000d0: 1686 0f3d e268 b1bd 0467 453c 56ad a73d
000000e0: db35 df3c 8687 683d 63e5 e5bd f101 c63d
000000f0: 6430 af3c d9be ddbd f9d7 4a3c 0d39 833d
00000100: 2375 003e f525 313e 15ab 84bd a342 c93c
00000110: 8062 523b 7866 953d 98b4 1dbe d642 b13d
00000120: 2be2 c33d 004a b2bd 93cf 00bc a7f6 b2bd
00000130: 2148 73bd 269e b03d 8efb 76bc 102e a83d
00000140: 8fa2 c3bd f009 85bd a50e a9bc 3997 d5bd
00000150: 03a1 b23d e6fa 12bd 897f 4d3e 28d5 253e
00000160: 6c34 fdbd 2806 e9bd 6dca 1fbd d97f 1dbd
00000170: 9de2 d6bd 6df3 a43c e132 b43d 37e7 bd3d
00000180: 1897 9fbd a48b b3bd a938 a93c 2213 f63d
00000190: b4d3 25be 6440 cb3d a3d1 4ebd 0348 43be
000001a0: 6a3e a23c d56f 86bd 78dd 68bc 4669 d8bd
000001b0: a115 86bd 2e5e 253d a446 e7bd 31ac e5bd
000001c0: 3529 05be 0e7c 98bd 0433 8e3d 1b84 cbbd
000001d0: eea8 1f3d 9c5f 23bd 0e47 c3bc 3b7f bd3a
000001e0: c56b f9bb f374 143c be4c 6f3d 2244 1e3e
000001f0: 9f41 6d3d 3e6c cb3c f0a4 61bd 4cbd bbbd
00000200: dc7f 2abc 754d fabd 7ede cdbc 2e75 a1bd
00000210: 794e 2f3d 2782 53bd 2f4c febd 7e5a cb3b
00000220: a69f e33d 898a bbbd a7ac 923d 4b38 0ebd
00000230: 15c8 343d 0e41 2c3d 6319 4f3d 99ee a6bd
00000240: b6e0 883c e788 d83d 8abd 52bc a381 1bbd
00000250: 77ab d93b 7f9e ff3d c946 11bd 9c0f 0d3e
00000260: e6cb 213d 2df0 073c 80a6 5cbc 85b6 1fbd
00000270: fad3 c23d ba6a de3d b19b c93c 911c d3bb
00000280: 491c 16bd f6b8 263e 8dce 70ba 81cc 173d
00000290: 1760 7bbc ec99 2dbd 5877 93bd ed34 bebc
000002a0: 38c9 a7bd 5ebc 4d3a c496 52bd d82a d9bd
000002b0: eb55 163e 38c5 25be 94ba d3bc e97d 4ebc
000002c0: 6e1f a13d 7f4b 8e3d 06cf 7ebe 9906 1ebe
000002d0: b499 823d d7eb d5bd 530d a53c f145 49be
000002e0: 7550 c2bc aedd d83c f0f6 113d d955 7bbd
000002f0: 084a 893d d6ea 1dbd be09 fa3d 61a2 fcbd
00000300: db47 bf3d 5093 2dbe 174e 9dbc e0ad da3d
00000310: 296b 0b3e a419 43bd a29b ec3d f48e abbc
00000320: b265 25be 2b53 143d 5c20 0db9 65fa e93b
00000330: 4e61 043d b0da 0e3e 3007 0abc 20ad 08bd
00000340: 19c8 263d 7d4b 173b 2a22 acbc 96bb 95bd
00000350: 02e3 dabc 844f bbbc 444d c93b 537a 0abe
00000360: a8bb 05bd 6b52 633b cc4a e03d 1c5c a9bd
00000370: 7aec 03be e615 49bd 2571 223e 2017 68ba
00000380: 0e05 50bc c2c4 2cbd 961a dd3d 6d7b d7bc
00000390: ddcb 75bb cd52 56bd e5a5 b4bd b015 26bd
000003a0: 2021 eb3d 054b 95bd 424d 5ebc 3842 f63d
000003b0: e35e 863c 8c5f 90bb 8b4f ddbc e7cd 2d3d
000003c0: e361 c2bc ba7e 6e3d 956f d3bc 60a8 343e
000003d0: 7ed4 3b3d 54c2 03bb 5d24 ce3d d6bd 37bd
000003e0: 9f31 343d 4ab4 ef3c 5aaa 2fbd 865d ea3d
000003f0: f8af 9cbd 22b8 6fbd 2e2f b2bd 0507 a03c

network_body._body_endoder.seq_layers.2.bias f4 [128]
0.0 0.0 0.0 0.0 0.0 0.0 0.0 0.0
0.0 0.0 0.0 0.0 0.0 0.0 0.0 0.0
0.0 0.0 0.0 0.0 0.0 0.0 0.0 0.0
0.0 0.0 0.0 0.0 0.0 0.0 0.0 0.0
0.0 0.0 0.0 0.0 0.0 0.0 0.0 0.0
0.0 0.0 0.0 0.0 0.0 0.0 0.0 0.0
0.0 0.0 0.0 0.0 0.0 0.0 0.0 0.0
0.0 0.0 0.0 0.0 0.0 0.0 0.0 0.0
0.0 0.0 0.0 0.0 0.0 0.0 0.0 0.0
0.0 0.0 0.0 0.0 0.0 0.0 0.0 0.0
0.0 0.0 0.0 0.0 0.0 0.0 0.0 0.0
0.0 0.0 0.0 0.0 0.0 0.0 0.0 0.0
0.0 0.0 0.0 0.0 0.0 0.0 0.0 0.0
0.0 0.0 0.0 0.0 0.0 0.0 0.0 0.0
0.0 0.0 0.0 0.0 0.0 0.0 0.0 0.0
0.0 0.0 0.0 0.0 0.0 0.0 0.0 0.0
00000000: 0000 0000 0000 0000 0000 0000 0000 0000
00000010: 0000 0000 0000 0000 0000 0000 0000 0000
00000020: 0000 0000 0000 0000 0000 0000 0000 0000
00000030: 0000 0000 0000 0000 0000 0000 0000 0000
00000040: 0000 0000 0000 0000 0000 0000 0000 0000
00000050: 0000 0000 0000 0000 0000 0000 0000 0000
00000060: 0000 0000 0000 0000 0000 0000 0000 0000
00000070: 0000 0000 0000 0000 0000 0000 0000 0000
00000080: 0000 0000 0000 0000 0000 0000 0000 0000
00000090: 0000 0000 0000 0000 0000 0000 0000 0000
000000a0: 0000 0000 0000 0000 0000 0000 0000 0000
000000b0: 0000 0000 0000 0000 0000 0000 0000 0000
000000c0: 0000 0000 0000 0000 0000 0000 0000 0000
000000d0: 0000 0000 0000 0000 0000 0000 0000 0000
000000e0: 0000 0000 0000 0000 0000 0000 0000 0000
000000f0: 0000 0000 0000 0000 0000 0000 0000 0000
00000100: 0000 0000 0000 0000 0000 0000 0000 0000
00000110: 0000 0000 0000 0000 0000 0000 0000 0000
00000120: 0000 0000 0000 0000 0000 0000 0000 0000
00000130: 0000 0000 0000 0000 0000 0000 0000 0000
00000140: 0000 0000 0000 0000 0000 0000 0000 0000
00000150: 0000 0000 0000 0000 0000 0000 0000 0000
00000160: 0000 0000 0000 0000 0000 0000 0000 0000
00000170: 0000 0000 0000 0000 0000 0000 0000 0000
00000180: 0000 0000 0000 0000 0000 0000 0000 0000
00000190: 0000 0000 0000 0000 0000 0000 0000 0000
000001a0: 0000 0000 0000 0000 0000 0000 0000 0000
000001b0: 0000 0000 0000 0000 0000 0000 0000 0000
000001c0: 0000 0000 0000 0000 0000 0000 0000 0000
000001d0: 0000 0000 0000 0000 0000 0000 0000 0000
000001e0: 0000 0000 0000 0000 0000 0000 0000 0000
000001f0: 0000 0000 0000 0000 0000 0000 0000 0000

action_model._continuous_distribution.mu.weight f4 [1, 128]
0.004016962 -0.019783452 -0.006650419 -0.020999435 0.025432918 -0.012710712 0.012721061 -9.238281e-05
0.00046767775 -0.0068289265 0.008020827 -0.021985458 0.0070833242 0.0029693006 0.04564631 -0.017675348
0.03263832 -0.028313354 0.008064557 -0.0044935537 0.0026158262 -0.012973222 -0.012124544 -0.0076627764
-0.00034561843 -0.0090613905 -0.00840891 0.00803818 0.0056143156 0.015366279 -0.008643 -0.0014708729
-0.024837367 0.0024920932 -0.012931447 0.026167909 0.0123058185 -0.016895972 -0.008319851 -0.029243056
-0.009602658 -0.021991247 0.005835092 0.0059438916 0.011305367 -0.009282828 0.0009396113 0.0015613018
-0.0014490895 -0.027539575 0.016829392 0.026208848 -0.011763941 0.0001175092 -0.004913038 -0.007006382
0.014481514 0.021222513 -0.0041048373 -0.008202984 0.008542058 0.011114435 -0.009423676 -0.012268601
-0.00878341 -0.002681282 -0.027513197 -0.03351776 0.040431466 0.004348836 -0.013864154 0.019130824
-0.007082616 -0.027224774 0.013613041 -0.00676275 -0.007946036 -0.04331484 0.028924588 0.0050669163
-0.019925106 -0.015333423 0.008533964 0.003573602 -0.0029715723 0.043789744 -0.0014665802 -0.017459834
0.02584259 0.016967779 -0.01046319 0.0066657783 -0.00962004 -0.030039063 -0.0169952 -0.006516484
-0.013510245 0.03012131 -0.0014012206 -0.0005709 0.018324902 0.01695469 0.0018065324 0.03326867
-0.017765103 -0.029605761 -0.0037212446 0.022506556 -0.008695175 0.015823377 -0.00060717773 0.024944445
-0.0031927337 0.01598846 -0.004479272 -0.017581824 -0.009203271 0.005764449 -0.021017516 0.016704408
0.01179424 -0.015892299 0.011119462 -0.0073446953 0.01968598 -0.0025752198 0.013490031 0.035912767
00000000: b8a0 833b e810 a2bc c2eb d9bb 0207 acbc
00000010: b258 d03c 9740 50bc ff6b 503c a5bd c1b8
00000020: a532 f539 30c5 dfbb c969 033c d91a b4bc
00000030: 3b1b e83b 9998 423b a0f7 3a3d e4cb 90bc
00000040: c2af 053d 68f1 e7bc 3421 043c a93e 93bb
00000050: 486e 2b3b a38d 54bc 06a6 46bc 0718 fbbb
00000060: 1f34 b5b9 3a76 14bc 86c5 09bc 92b2 033c
00000070: 4bf8 b73b d8c2 7b3c 5f9b 0dbc 4eca c0ba
00000080: bc77 cbbc 6352 233b 6bde 53bc 155e d63c
00000090: 589e 493c 6c69 8abc fc4f 08bc 228f efbc
000000a0: 7854 1dbc fd26 b4bc 4d34 bf3b fac4 c23b
000000b0: 253a 393c 0117 18bc 3f50 763a 98a4 cc3a
000000c0: 60ef bdba ad9a e1bc cbdd 893c f0b3 d63c
000000d0: 8bbd 40bc 456f f638 8dfd a0bb cb95 e5bb
000000e0: df43 6d3c d6da ad3c df81 86bb cf65 06bc
000000f0: fdf3 0b3c 5219 363c c365 1abc 3e02 49bc
00000100: 4be8 0fbc 73b8 2fbb 5b63 e1bc eb49 09bd
00000110: 779b 253d ae80 8e3b 7a26 63bc 3fb8 9c3c
00000120: 4a15 e8bb 7d06 dfbc 3b09 5f3c 0f9a ddbb
00000130: 1730 02bc e76a 31bd 42f3 ec3c 6008 a63b
00000140: fa39 a3bc 0a39 7bbc 0ad2 0b3c 1833 6a3b
00000150: b6be 42bb e05c 333d 443a c0ba ed07 8fbc
00000160: d7b3 d33c 0300 8b3c cd6d 2bbc 9a6c da3b
00000170: 5f9d 1dbc 7b14 f6bc 8539 8bbc 3b88 d5bb
00000180: 135a 5dbc f7c0 f63c 29a9 b7ba 73a8 15ba
00000190: 1b1e 963c 90e4 8a3c 2bc9 ec3a bb44 083d
000001a0: 1f88 91bc c887 f2bc 20e0 73bb ab5f b83c
000001b0: 3576 0ebc 07a0 813c 022b 1fba 4b58 cc3c
000001c0: 2f3d 51bb 3bfa 823c dbc6 92bb c207 90bc
000001d0: 51c9 16bc b4e3 bc3b ed2c acbc afd7 883c
000001e0: a13c 413c 9130 82bc 672e 363c c5ab f0bb
000001f0: 7e44 a13c 05c5 28bb 4a05 5d3c 4419 133d

action_model._discrete_distribution.branches.0.weight f4 [3, 128]
0.007004756 -0.0004939536 0.0057976376 -0.0021819004 0.0011182509 0.006034917 -0.012603789 0.003556347
-0.00808103 0.016413445 0.0017830543 -0.011075876 0.003915129 0.0022238612 -0.0025441782 -0.0090412125
0.009235826 -0.0038101326 -0.002695001 0.0054901256 -0.015892697 -0.010019669 -0.004727864 -0.00065380963
-0.00011893457 0.01815142 -0.008017833 -0.0045970385 0.010383199 0.011726667 -0.009843464 -0.0083670635
-0.0025945066 -0.0028534033 0.006508199 -0.003807364 0.007276495 -0.005265933 0.0053566126 0.013463075
-0.0016257191 0.004179175 0.004021374 0.0040012724 0.000102165206 -0.016895847 -0.0034159364 0.012032553
-0.009591114 0.003272793 -0.0072894753 0.013600158 0.012099554 0.0086409645 0.0022157042 0.0007105152
-0.006096042 0.020037297 0.0011582914 0.0049647517 0.0009788089 -0.0047977753 -0.00379816 -0.0067232214
0.010503899 -0.0020902322 -0.010042497 0.011732976 0.001321597 -0.019588867 -0.0018603966 0.002553545
-0.0150105385 0.011619554 -0.008200517 0.005698387 -0.0042470978 0.0065340176 -0.014505878 0.008250192
-0.0050288183 -0.0066104433 -0.0004763138 0.0062782043 0.0059765424 0.011984806 0.0054851626 0.0031505253
-0.004276449 0.0014559613 0.0057325433 0.012757531 0.003863681 -0.0030540368 0.002303123 0.0041172495
-0.004254052 0.004176903 0.0075422325 0.013470992 -0.0034425918 0.0036339157 0.00962367 0.007233396
-0.001076056 0.0022953383 0.00029042104 0.01367725 0.0007474836 -0.00037882774 -0.0008417012 -0.0054020374
0.0076285484 0.0061515127 0.0012559928 0.010937116 -0.0027666108 -0.0003249859 -0.0037867525 -0.015995478
-0.0048318454 0.00425559 -0.0074225212 0.007509599 -0.011196449 0.0049429927 -0.0061595016 -0.010426658
0.0034192302 -0.008008297 -0.0037601606 0.0035902483 0.0012569173 0.005290764 -0.0010064506 -0.003571352
-0.0055701896 0.0005357247 0.011262466 0.010946469 0.0021943692 0.00193801 -0.016795004 -0.011060103
-0.020227974 -0.009487095 0.007923943 -0.0145099005 -0.0067495233 0.005322822 -0.0006466554 0.0013151312
-0.0012438131 0.0037161913 0.005870746 -0.0029011106 0.011433924 -0.0117552895 -0.008495211 0.011459007
-0.013627452 0.010216964 0.005872066 -0.0025858383 0.006286302 0.004805372 0.0042033754 0.003813342
0.007909617 -0.010582662 -0.010928938 -0.0022000542 0.01172875 0.0024491863 0.011536534 -0.002583894
0.0026261534 0.016244011 0.0020926117 -0.014733891 -0.004137369 -0.0023439531 0.00042532562 -0.012182864
-0.011168204 0.0064736563 0.0038593006 -0.016536348 0.0049577286 -0.008231894 -0.009147009 -0.008301999
0.021285182 -0.008464417 -0.017462052 -0.0033882062 0.001794604 -0.0039713914 0.0032812047 0.0013840034
0.005459765 -0.007224151 0.008801884 0.023891648 0.0031670153 -0.003522044 0.0030249339 -0.008775512
0.003926355 -0.0034839709 0.0060378904 0.004716953 0.003833542 -0.00020327594 -0.0051644724 0.014819142
-0.0022036112 -0.0053268992 -0.0039109685 -0.009830137 -0.007356872 -0.014956481 -0.001377199 0.014652334
-0.006279646 -0.0016159619 -0.0029787794 -0.01266222 0.0073527507 0.0025395534 0.0056900326 -0.010577973
0.0021796029 -0.012766293 -0.00058086606 -0.006018685 0.0035577917 0.011279623 0.0092273215 0.00030562008
-0.0037197757 0.024192913 -0.0016446885 -0.0025883184 0.008014067 0.0014429106 0.0050384947 0.0098693045
0.008052222 0.0016638704 -0.013125894 0.001083428 -0.0025117598 -0.0027043705 0.0012870731 -0.02259647
00000000: 2788 e53b aa7c 01ba 1cfa bd3b 37fe 0ebb
00000010: 4692 923a 8ec0 c53b 1f80 4ebc 9a11 693b
00000020: 4c66 04bc 7d75 863c 60b5 e93a 9777 35bc
00000030: 7c4a 803b 33be 113b 3abc 26bb 9821 14bc
00000040: dd51 173c 6bb3 79bb 9d9e 30bb 83e6 b33b
00000050: 6731 82bc 8a29 24bc 33ec 9abb 6c64 2bba
00000060: 836c f9b8 49b2 943c 3b5d 03bc c1a2 96bb
00000070: 4b1e 2a3c 3521 403c 7b46 21bc 0216 09bc
00000080: 9908 2abb 2a00 3bbb bb42 d53b f884 79bb
00000090: aa6f ee3b d98d acbb 8686 af3b 3b94 5c3c
000000a0: 1516 d5ba 76f1 883b bbc5 833b 1b1d 833b
000000b0: 8741 d638 2969 8abc e7dd 5fbb 2f24 453c
000000c0: 0c24 1dbc 5b7c 563b 8ddc eebb 32d3 5e3c
000000d0: 353d 463c d592 0d3c 5935 113b de41 3a3a
000000e0: 4fc1 c7bb 4225 a43c cfd1 973a 5baf a23b
000000f0: 604b 803a a836 9dbb 8dea 78bb 784e dcbb
00000100: 8c18 2c3c 47fc 08bb 4989 24bc ab3b 403c
00000110: 7039 ad3a d578 a0bc 8dd8 f3ba 6059 273b
00000120: c3ee 75bc f15f 3e3c 765b 06bc 89b9 ba3b
00000130: 3d2b 8bbb 501b d63b 10aa 6dbc d02b 073c
00000140: c9c8 a4bb 6b9c d8bb c2b9 f9b9 65b9 cd3b
00000150: dfd6 c33b eb5b 443c e1bc b33b 0b79 4e3b
00000160: 7421 8cbb f4d5 be3a 0fd8 bb3b f704 513c
00000170: d035 7d3b 3c26 48bb feef 163b fee9 863b
00000180: 9365 8bbb 67de 883b d524 f73b 70b5 5c3c
00000190: 1b9d 61bb fd26 6e3b 99ac 1d3c 2006 ed3b
000001a0: 730a 8dba 636d 163b a743 9839 8b16 603c
000001b0: c6f2 433a 669d c6b9 9da5 5cba 9303 b1bb
000001c0: e7f8 f93b a192 c93b 20a0 a43a 9731 333c
000001d0: 0750 35bb de62 aab9 2a2b 78bb f308 83bc
000001e0: 7554 9ebb 7a72 8b3b 9f38 f3bb 1513 f63b
000001f0: 5071 37bc d4f8 a13b a5d5 c9bb 93d4 2abc
00000200: 2a15 603b 3b35 03bc 076d 76bb 5f4a 6b3b
00000210: 25bf a43a 255e ad3b e1ea 83ba 580d 6abb
00000220: 2386 b6bb e06f 0c3a 3586 383c d258 333c
00000230: 68cf 0f3b d304 fe3a ad95 89bc 6f35 35bc
00000240: 23b5 a5bc c36f 1bbc 6dd3 013c efba 6dbc
00000250: 1b2b ddbb 116b ae3b 4f84 29ba 7b60 ac3a
00000260: 7107 a3ba 588b 733b 635f c03b 8f20 3ebb
00000270: 5a55 3b3c 4299 40bc 7f2f 0bbc 8fbe 3b3c
00000280: ad45 5fbc 0e65 273c 766a c03b 2b77 29bb
00000290: 53fd cd3b 6276 9d3b 78bc 893b 43e9 793b
000002a0: 5797 013c e762 2dbc 4a0f 33bc c92e 10bb
000002b0: f129 403c 8782 203b bb03 3d3c 8c56 29bb
000002c0: 8b1b 2c3b 2912 853c 3324 093b 6b66 71bc
000002d0: c492 87bb 029d 19bb 3dfe de39 a39a 47bc
000002e0: d8fa 36bc f720 d43b 52ec 7c3b 3c77 87bc
000002f0: 7174 a23b 11df 06bc 56dd 15bc 1c05 08bc
00000300: 435e ae3c 57ae 0abc 940c 8fbc ab0c 5ebb
00000310: eb38 eb3a 7222 82bb 7b09 573b 7367 b53a
00000320: d4e7 b23b 92b8 ecbb c735 103c 6bb8 c33c
00000330: b38d 4f3b 18d2 66bb f83d 463b 2ac7 0fbc
00000340: a7a8 803b 5553 64bb 7fd9 c53b ab90 9a3b
00000350: 2a3c 7b3b 7826 55b9 bc3a a9bb fdcb 723c
00000360: 766a 10bb 458d aebb 9527 80bb 950e 21bc
00000370: ea11 f1bb 070c 75bc 2183 b4ba 5810 703c
00000380: 7dc5 cdbb afce d3ba a037 43bb 3375 4fbc
00000390: 58ef f03b a36e 263b 7473 ba3b 3c4f 2dbc
000003a0: abd7 0e3b b729 51bc 4345 18ba 6438 c5bb
000003b0: d729 693b 2bce 383c 312e 173c a23b a039
000003c0: 7bc7 73bb 3730 c63c 9792 d7ba c7a0 29bb
000003d0: 6f4d 033c 0c20 bd3a f519 a53b ddb2 213c
000003e0: 78ed 033c 3a16 da3a fd0d 57bc d001 8e3a
000003f0: 569c 24bb cf3b 31bb 02b3 a83a 3b1c b9bc

action_model._discrete_distribution.branches.0.bias f4 [3]
0.0 0.0 0.0
00000000: 0000 0000 0000 0000 0000 0000

action_model._discrete_distribution.branches.1.weight f4 [2, 128]
-0.00048475005 0.009463996 -0.0036105216 0.010034236 -0.010923259 -0.00049370015 0.0016739898 -0.007956107
-0.0038617419 0.012160665 -0.0065344954 -0.0048436145 0.008070661 0.01563201 0.013669132 -0.0021609121
0.0049768696 -0.0023083661 0.0089642815 0.0059713735 -0.002445296 0.0064729634 -0.00085665594 -0.0018437827
-0.0073498795 -0.0007038782 0.008794957 -0.0058512813 -0.0010466463 0.0072246827 -0.002310625 0.0074337237
0.00738903 -0.0052929716 -0.00972719 0.0145774605 -0.020223632 -0.00411356 0.0036368668 0.004108313
-0.0009201268 -0.005871363 -0.010002295 0.004332399 -0.008518603 0.005471667 -0.0026416157 0.005151728
0.0105129145 -0.010118208 0.007647507 -0.0028628528 -0.0034636352 0.0063183145 0.004786801 0.001141386
0.032015197 0.0009651148 0.0006190873 -0.006384668 0.011786908 0.0010805139 0.008498523 0.0040023713
-0.004997658 0.004081081 0.0090088565 0.0054812124 -0.004070352 -0.0015177625 -0.005581288 -0.0050362847
-0.0063747764 0.0039005901 -0.0066873403 -0.007417751 0.006463963 -0.00760162 -0.00791245 0.00089448143
0.0046177576 0.004329039 -0.003677271 0.015007414 0.012561532 -0.00714592 -0.0020458081 0.020621976
0.0120053 -0.007731953 -0.004820192 -0.013404732 0.0029857876 -3.649122e-05 -0.021371948 0.009823296
-0.0090938425 0.004936295 0.008206209 0.004532536 -0.011440038 -0.008208222 -0.002024368 -0.0058283913
0.0016211619 -0.00069739734 -0.0004262123 -0.007147688 -0.00636172 0.003917999 0.0033020284 0.02137906
-0.0079431515 0.007765759 0.0034186186 0.0026198959 0.009437622 0.002665392 0.009947778 0.008967082
-0.009353901 -0.00853021 -0.005299442 0.006270361 0.0011164615 -0.001020539 0.008872014 0.008435173
-0.00084985077 0.0035599265 0.013862671 0.009641569 0.0067988024 0.0032797342 0.011156487 -0.008000684
0.0052546416 -0.02230313 0.015352293 0.009625752 -0.0070539652 0.0068358197 -0.00081993575 -0.01038748
0.0022966308 0.0031917305 0.008665085 0.012440503 -0.004837671 0.009668623 -0.002276461 -0.013455679
0.008877096 -0.005589415 -0.010565615 0.0025323208 0.008666174 -0.0060069566 -0.01025856 0.008870992
-0.0047512096 0.010333455 0.0008932228 0.003791171 0.0009023024 0.0022013965 0.01151552 0.0026295697
-0.016154349 0.013482869 -0.008351103 0.0030268112 -0.014404808 -0.0043342574 0.008141553 -0.00565792
0.012471586 -0.007249812 0.01034316 0.011429988 0.007219454 -0.0012282461 0.0025022577 -0.011615867
-0.0071473145 -0.0070786118 0.013556011 0.00037902858 -0.01764778 -0.000986054 0.018582104 -0.009018964
0.01796544 -0.0031439413 0.0010080029 -0.0013680479 0.006971688 -0.00064093986 -0.004096925 -0.010013787
0.012536426 0.006265405 0.0021948142 -0.006587115 -0.011416088 0.0051274044 0.008249363 0.00023741092
-0.013075096 0.005204112 -0.002641158 0.0003038302 -0.005001593 -0.0022590847 0.0067699077 0.016578665
0.009323422 -0.01636149 -0.00011198847 0.007877363 -0.0024187965 0.0046579787 -0.011632729 0.0022210046
0.008074818 -0.00031369305 -0.0022673965 -8.819302e-05 0.007879266 -0.006858866 0.004283603 0.005374308
-0.008290018 0.010198911 0.0065422184 -0.008436237 -0.0073506655 -0.0034221967 0.012414011 0.005451362
0.0023237562 0.010265416 -0.008769701 -0.016716657 -0.013669751 0.006091047 0.0111351805 0.029149193
-0.015341619 0.004492655 -0.010119833 -0.009393181 -0.00033673338 -0.0015997047 0.0065861805 0.00047619067
00000000: 0d26 feb9 e00e 1b3c 809e 6cbb a366 243c
00000010: 78f7 32bc a86b 01ba c769 db3a 555a 02bc
00000020: 4715 7dbb 873d 473c 521f d6bb 2fb7 9ebb
00000030: ce3a 043c b30e 803c 7ff4 5f3c 179e 0dbb
00000040: 0215 a33b f547 17bb ecde 123c 83ab c33b
00000050: 4241 20bb 271b d43b 3591 60ba 15ab f1ba
00000060: 42d7 f0bb 7784 38ba b918 103c 1bbc bfbb
00000070: 9f2f 89ba 08bd ec3b db6d 17bb 9896 f33b
00000080: ad1f f23b aa70 adbb cb5e 1fbc 4dd6 6e3c
00000090: 08ac a5bc 0bcb 86bb 8058 6e3b 079f 863b
000000a0: aa34 71ba 9064 c0bb aae0 23bc ccf6 8d3b
000000b0: 9c91 0bbc ab4b b33b f51e 2dbb d4cf a83b
000000c0: 5c3e 2c3c d7c6 25bc f097 fa3b b39e 3bbb
000000d0: 28fe 62bb dd09 cf3b 99da 9c3b 8f9a 953a
000000e0: 5e22 033d c2ff 7c3a 3f4a 223a 7a36 d1bb
000000f0: e01d 413c 08a0 8d3a 643d 0b3c 5326 833b
00000100: 65c3 a3bb 97ba 853b e299 133c be9b b33b
00000110: 9660 85bb a9ef c6ba 3de3 b6bb 6b07 a5bb
00000120: 80e3 d0bb 0ba1 7f3b 7a21 dbbb 9b10 f3bb
00000130: a7cf d33b 0317 f9bb 38a3 01bc a27b 6a3a
00000140: 8f50 973b 9cda 8d3b 5ffe 70bb a8e1 753c
00000150: e2ce 4d3c 5228 eabb f712 06bb 6bef a83c
00000160: e1b1 443c 535c fdbb b4f2 9dbb 859f 5bbc
00000170: 34ad 433b 260e 19b8 3914 afbc e4f1 203c
00000180: 57fe 14bc a5c0 a13b 5673 063c ab85 943b
00000190: ff6e 3bbc c77b 06bc 42ab 04bb 17fc bebb
000001a0: 2b7d d43a 8bd1 36ba 3f75 dfb9 2737 eabb
000001b0: fa75 d0bb 8f62 803b d866 583b 2323 af3c
000001c0: fe23 02bc e877 fe3b e70a 603b 8fb2 2b3b
000001d0: 41a0 1a3c dbad 2e3b 01fc 223c abea 123c
000001e0: 1b41 19bc 4bc2 0bbc f1a6 adbb 9a77 cd3b
000001f0: 3b56 923a 9bc3 85ba ec5b 113c ae33 0a3c
00000200: 85c8 5eba a84d 693b 4220 633c acf7 1d3c
00000210: 7dc8 de3b cff0 563b b3c9 363c 4d15 03bc
00000220: 212f ac3b 0eb5 b6bc 2f88 7b3c 55b5 1d3c
00000230: f324 e7bb 03ff df3b f5f0 56ba 4030 2abc
00000240: 1283 163b 5a2c 513b 00f8 0d3c 40d3 4b3c
00000250: 5385 9ebb 2569 1e3c ae30 15bb 3575 5cbc
00000260: 3d71 113c 6927 b7bb 671b 2dbc 4bf5 253b
00000270: 91fc 0d3c 01d6 c4bb 8513 28bc a357 113c
00000280: 09b0 9bbb a74d 293c 2b27 6a3a 4b75 783b
00000290: 7d88 6c3a 4e45 103b 97ab 3c3c dc54 2c3b
000002a0: 2056 84bc 40e7 5c3c 11d3 08bc 775d 463b
000002b0: 2502 6cbc 6306 8ebb 2664 053c 1366 b9bb
000002c0: 9f55 4c3c d58f edbb 5b76 293c d844 3b3c
000002d0: 2b91 ec3b 1afd a0ba ebfc 233b 7a50 3ebc
000002e0: 0534 eabb b3f3 e7bb 081a 5e3c 5bb8 c639
000002f0: 1492 90bc 7b3e 81ba 7f39 983c 47c4 13bc
00000300: 422c 933c 950a 4ebb f71e 843a 1250 b3ba
00000310: c272 e43b bf04 28ba 7f3f 86bb de10 24bc
00000320: 9565 4d3c 074e cd3b dfd6 0f3b bad8 d7bb
00000330: 8b0a 3bbc c903 a83b 5628 073c 82f1 7839
00000340: ed38 56bc 4187 aa3b 4717 2dbb 664b 9f39
00000350: 67e4 a3bb 270d 14bb 1ad6 dd3b fbcf 873c
00000360: 44c1 183c 8808 86bc 5adb eab8 0e10 013c
00000370: ac84 1ebb f5a1 983b 3497 3ebc 468e 113b
00000380: 3e4c 043c 2b77 a4b9 9a98 14bb 44f4 b8b8
00000390: 0918 013c 57c0 e0bb 775d 8c3b f71a b03b
000003a0: dbd2 07bc 5519 273c 1b60 d63b 2538 0abc
000003b0: dadd f0bb ef46 60bb 2364 4b3c 57a1 b23b
000003c0: 294a 183b 4630 283c cbae 0fbc 5ff1 88bc
000003d0: 17f7 5fbc 6897 c73b 5570 363c 4aca ee3c
000003e0: 6a5b 7bbc 1f37 933b a8cd 25bc dbe5 19bc
000003f0: 978b b0b9 2fad d1ba e3d0 d73b 3ba9 f939

action_model._discrete_distribution.branches.1.bias f4 [2]
0.0 0.0
00000000: 0000 0000 0000 0000
