results/ppo/Player Behaviour/Player Behaviour-384.pt (torch, 153007 bytes, 15 tensors)

discrete_act_size_vector f4 [1, 2]
000000 00 00 40 40 00 00 00 40
       3.0 2.0

network_body._body_endoder.seq_layers.0.weight f4 [128, 6]
000000 ee 18 4a bf b0 72 23 3e d1 17 d2 be 44 73 9e 3e
       -0.7894429 0.15961719 -0.41033795 0.30947316
000010 3d 4d 2b bf d4 8c 74 3e 6d d4 b9 ba ad 6b 9d be
       -0.6691473 0.23881847 -0.0014177688 -0.30746213
000020 92 4c ac 3c 80 03 c5 be e1 7e 3d 3e 2a 4a b2 3d
       0.021032605 -0.38479233 0.18505432 0.08705552
000030 83 32 40 3c ba 39 98 be 0f e1 a1 be e7 3f 1b 3f
       0.011730793 -0.29731542 -0.3161702 0.6064438
000040 ef 5c 48 be ab 29 3a 3d ce bb c1 bd ad 5a 88 bd
       -0.19566701 0.045449894 -0.09459649 -0.0665792
000050 8f 50 52 bf 77 4d b5 be e2 3b 6c 3d 64 e6 24 bf
       -0.8215417 -0.35410663 0.057674296 -0.6441405
000060 6c a5 60 3f d3 c8 5b be e4 76 61 3e 42 de d3 3d
       0.87752414 -0.21463327 0.2201801 0.10345127
000070 6d 9d a4 3c 08 f0 29 bf 10 91 bf 3e 7b c4 8e be
       0.020094598 -0.66381884 0.3741536 -0.27884278
000080 79 5d 91 be 8b cb 43 3e 71 35 6b bf 11 11 1b be
       -0.28391626 0.19120614 -0.9187842 -0.15143229
000090 a0 cf a6 be 1b 81 98 be a2 b6 42 bf db 6d ee 3e
       -0.3258028 -0.29786 -0.76059926 0.46568188
0000a0 86 28 01 3e 56 90 9c 3e 46 fc f1 be 82 88 8f be
       0.12613115 0.3057887 -0.47262782 -0.28033835
0000b0 17 38 08 be 9a f9 2f bf 3a bd 02 3f e5 b7 39 3f
       -0.13302647 -0.68740237 0.51069987 0.72546226
0000c0 58 05 a2 3e ce a7 9a 3e a4 ac a9 3c 31 bf a2 3e
       0.31644702 0.3020615 0.020712204 0.31786492
0000d0 16 7b 0c 3f ad bc 34 be 86 73 03 3e b6 52 29 3e
       0.54875314 -0.17650099 0.12837037 0.16535458
0000e0 f1 b1 c4 3c 66 d0 74 bf 35 d7 f6 3c c2 3a bc be
       0.02401063 -0.9563049 0.030131916 -0.3676358
0000f0 6a 23 9f 3e c9 9a 39 3f ab cb 3a 3f 79 f2 ab 3d
       0.31081706 0.7250181 0.7296702 0.08395857
000100 f7 40 36 be 7a b9 bb be c3 12 8b bd 50 0f 0d 3f
       -0.1779822 -0.36664945 -0.06790688 0.5510149
000110 c4 44 13 bf df 59 6b be dd 53 98 3e d6 2a 02 be
       -0.57526803 -0.22983502 0.29751483 -0.12711653
000120 22 8e 36 be df 66 a4 bd b6 84 bd 3e 09 be bd be
       -0.17827657 -0.080274336 0.37015313 -0.37059048
000130 48 2a 28 bf d4 52 80 bd bf 46 f7 3e 69 91 b0 bc
       -0.65689516 -0.06265798 0.48296162 -0.021553712
000140 ea 0c 0e 3e e0 60 3b 3f f3 bb 04 bf 83 e7 8e 3e
       0.13872114 0.73194695 -0.5184929 0.27911004
000150 f8 46 b1 be f0 34 2c bd ed 88 27 3e 1c 22 07 3f
       -0.34624457 -0.042042673 0.16360827 0.5278642
000160 e2 2b 25 bf 81 20 99 be db b8 25 3f 52 0b d1 bd
       -0.64520085 -0.2990761 0.6473519 -0.10207237
000170 e5 80 6c 3e 10 bb bc 3e f8 68 1c bf f8 04 cb be
       0.23096044 0.36861467 -0.6109767 -0.39652228
000180 7c c4 c6 3e 70 72 69 be 71 ae 70 3e 7f bc 0a 3f
       0.3882178 -0.2279756 0.23504044 0.5419387
000190 c6 57 2f be 92 f8 40 be 81 d7 c7 be 9c 47 82 3e
       -0.17123327 -0.18844822 -0.39031604 0.2544526
0001a0 62 81 c9 be 5c 4a a3 3d 10 8a 32 bc 3a 47 74 3e
       -0.39356524 0.07973167 -0.0108971745 0.23855296
0001b0 9c c4 ae be e5 16 cf 3e e7 68 fa 3d bc 33 15 3e
       -0.34134376 0.40447155 0.1222704 0.14570516
0001c0 c9 c6 b6 3d 08 8d 6a 3f da da 3c bf 2e d9 5e 3e
       0.08924634 0.91621447 -0.7377144 0.21762535
0001d0 5e 95 8b bf 88 25 80 bf 67 15 45 3e 6c 5e 9b bc
       -1.0904958 -1.0011454 0.19246446 -0.018965922
0001e0 a0 7d ef 3d 97 c5 a0 bd f3 07 b8 3c 9c 10 5e 3e
       0.11693883 -0.07850187 0.022464728 0.21686023
0001f0 d9 e2 c4 be 3c 6c e1 3e 67 dd 18 be bd b9 a7 3d
       -0.3845432 0.4402789 -0.14928208 0.08189724
000200 0d 9d c4 be b7 66 55 be 11 e2 d5 be 45 6b 23 bf
       -0.3840107 -0.20839964 -0.41774037 -0.63835555
000210 bf 9d 55 3d 10 30 c0 bc 84 b6 40 bf 56 4b db 3e
       0.05215239 -0.023460418 -0.75278497 0.42830914
000220 b6 29 80 3f 04 d8 eb 3e d6 fb d9 be e3 7e 80 bf
       1.0012729 0.46063244 -0.42574948 -1.0038723
000230 5d c0 23 3e 1b 6f 94 be 82 73 76 3e 4c 0b 0d 3f
       0.1599135 -0.28991017 0.240675 0.5509536
000240 8f 26 43 be ae ed be bc 55 c0 46 bf 0f 31 24 3d
       -0.19057678 -0.023306694 -0.77637225 0.04008585
000250 71 1e 7f be 42 60 c4 bd 6b 84 9c 3e 1b df 8e be
       -0.24913956 -0.09588672 0.30569777 -0.2790459
000260 d2 ee a8 3e 4c 7e 84 bd 27 3f dd be e9 c1 9b be
       0.32994705 -0.06469402 -0.43212244 -0.3042138
000270 f1 88 cd be 82 50 31 be 52 91 e5 be 6f d9 9c 3e
       -0.4014354 -0.17315868 -0.44837433 0.3063464
000280 a8 c4 b4 3e 49 19 d7 3d d8 8e dd be 9a bd 9d be
       0.35306287 0.1050287 -0.43273044 -0.30808717
000290 0b c5 5d 3f fd 59 3c 3f 82 b6 e8 be 8e 7a 32 3e
       0.8662879 0.7357481 -0.45451742 0.17429563
0002a0 c6 f3 f9 3e ae 16 02 bf 8c e0 b7 3e 94 a1 ba be
       0.48818797 -0.50815856 0.35913503 -0.364514
0002b0 98 43 df 3d 8f e5 29 be 4a 0d ea bd 4a dc 69 3e
       0.10901564 -0.16591476 -0.11428316 0.2283794
0002c0 d8 cc fb 3c 7d 97 c0 3d 8e 79 62 3f 0f 4c a2 3e
       0.030737326 0.09403894 0.8846673 0.31698653
0002d0 b0 4b 87 3e b2 2f bb bd 8b 1d 06 be 2c f1 ce 3e
       0.26424932 -0.091399565 -0.13097207 0.40418375
0002e0 4a bc 29 3f d1 b1 65 3e c0 92 c1 3e 14 41 2e bf
       0.6630293 0.22431113 0.37807274 -0.6806805
0002f0 50 9d cf 3e f2 0e 3d 3f 70 a2 e4 be ae 88 6f 3f
       0.40549707 0.7385093 -0.4465518 0.9356793
000300 04 88 1a bf 18 58 78 3e 11 38 12 bf 94 b7 b2 3d
       -0.60363793 0.24252355 -0.571168 0.08726421
000310 c3 0e 4f bb 91 fd 8b 3e 54 b9 49 3e c5 55 1a 3f
       -0.0031594492 0.27341893 0.19699603 0.60287124
000320 ab 0d 2d 3c ee 89 5e bd 1f 4d 98 3e 49 64 40 3d
       0.010562341 -0.05433076 0.2974634 0.04697064
000330 78 62 11 bf ce 5c e2 be d8 16 6b bb 7e 2f 47 3f
       -0.56790876 -0.4421143 -0.003587177 0.7780684
000340 e1 98 fa 3e 9e 6d 49 3e 0b e6 64 bf 67 49 90 be
       0.48944762 0.19670722 -0.8941352 -0.28181002
000350 c2 63 c3 3e 47 28 76 3e 59 7d 9f bd f6 23 53 3f
       0.38162047 0.24038802 -0.0778758 0.8247675
000360 72 c0 1f 3f ad e3 c1 38 ba 15 a8 be e2 96 10 3e
       0.62403023 9.245365e-05 -0.32829076 0.14120057
000370 96 66 11 3f 06 b9 18 bf 23 62 fc 3e dc 5f 88 3e
       0.5679716 -0.59657323 0.49293622 0.26635635
000380 5f d0 07 3e a0 26 83 3e 46 e8 91 be d3 79 af be
       0.13263081 0.25615406 -0.28497523 -0.34272632
000390 ee 73 62 bf 1e 51 ad 3e d0 a6 de 3e 7f 40 95 be
       -0.88458145 0.3385095 0.43486643 -0.2915077
0003a0 78 3d 3c 3f c8 5d 4a be f4 4f 12 be cb 22 84 bf
       0.73531294 -0.19762337 -0.14288312 -1.0323118
0003b0 93 0c 02 bf e6 d2 25 3e 89 06 dc 3e 5c dc 32 3f
       -0.50800437 0.16193733 0.42973736 0.6986749
0003c0 69 0f 9f 3d 9c f6 66 be ed ce db be 8c f2 78 bd
       0.07766611 -0.22555012 -0.4293131 -0.060778186
0003d0 6b ae e8 3c 1a 11 e8 be 01 8a a7 3e 27 a8 03 3d
       0.028403481 -0.45325547 0.32722476 0.032142784
0003e0 ab 7f 8f bd 38 33 df be 8b 60 a4 be cb 28 79 3e
       -0.070067726 -0.43593764 -0.32104906 0.24331968
0003f0 1b 9b b2 be f7 34 e2 be 17 5f 08 3f 77 de bc be
       -0.3488396 -0.44181034 0.53270096 -0.36888477

network_body._body_endoder.seq_layers.0.bias f4 [128]
000000 00 00 00 00 00 00 00 00 00 00 00 00 00 00 00 00
       0.0 0.0 0.0 0.0
000010 00 00 00 00 00 00 00 00 00 00 00 00 00 00 00 00
       0.0 0.0 0.0 0.0
000020 00 00 00 00 00 00 00 00 00 00 00 00 00 00 00 00
       0.0 0.0 0.0 0.0
000030 00 00 00 00 00 00 00 00 00 00 00 00 00 00 00 00
       0.0 0.0 0.0 0.0
000040 00 00 00 00 00 00 00 00 00 00 00 00 00 00 00 00
       0.0 0.0 0.0 0.0
000050 00 00 00 00 00 00 00 00 00 00 00 00 00 00 00 00
       0.0 0.0 0.0 0.0
000060 00 00 00 00 00 00 00 00 00 00 00 00 00 00 00 00
       0.0 0.0 0.0 0.0
000070 00 00 00 00 00 00 00 00 00 00 00 00 00 00 00 00
       0.0 0.0 0.0 0.0
000080 00 00 00 00 00 00 00 00 00 00 00 00 00 00 00 00
       0.0 0.0 0.0 0.0
000090 00 00 00 00 00 00 00 00 00 00 00 00 00 00 00 00
       0.0 0.0 0.0 0.0
0000a0 00 00 00 00 00 00 00 00 00 00 00 00 00 00 00 00
       0.0 0.0 0.0 0.0
0000b0 00 00 00 00 00 00 00 00 00 00 00 00 00 00 00 00
       0.0 0.0 0.0 0.0
0000c0 00 00 00 00 00 00 00 00 00 00 00 00 00 00 00 00
       0.0 0.0 0.0 0.0
0000d0 00 00 00 00 00 00 00 00 00 00 00 00 00 00 00 00
       0.0 0.0 0.0 0.0
0000e0 00 00 00 00 00 00 00 00 00 00 00 00 00 00 00 00
       0.0 0.0 0.0 0.0
0000f0 00 00 00 00 00 00 00 00 00 00 00 00 00 00 00 00
       0.0 0.0 0.0 0.0
000100 00 00 00 00 00 00 00 00 00 00 00 00 00 00 00 00
       0.0 0.0 0.0 0.0
000110 00 00 00 00 00 00 00 00 00 00 00 00 00 00 00 00
       0.0 0.0 0.0 0.0
000120 00 00 00 00 00 00 00 00 00 00 00 00 00 00 00 00
       0.0 0.0 0.0 0.0
000130 00 00 00 00 00 00 00 00 00 00 00 00 00 00 00 00
       0.0 0.0 0.0 0.0
000140 00 00 00 00 00 00 00 00 00 00 00 00 00 00 00 00
       0.0 0.0 0.0 0.0
000150 00 00 00 00 00 00 00 00 00 00 00 00 00 00 00 00
       0.0 0.0 0.0 0.0
000160 00 00 00 00 00 00 00 00 00 00 00 00 00 00 00 00
       0.0 0.0 0.0 0.0
000170 00 00 00 00 00 00 00 00 00 00 00 00 00 00 00 00
       0.0 0.0 0.0 0.0
000180 00 00 00 00 00 00 00 00 00 00 00 00 00 00 00 00
       0.0 0.0 0.0 0.0
000190 00 00 00 00 00 00 00 00 00 00 00 00 00 00 00 00
       0.0 0.0 0.0 0.0
0001a0 00 00 00 00 00 00 00 00 00 00 00 00 00 00 00 00
       0.0 0.0 0.0 0.0
0001b0 00 00 00 00 00 00 00 00 00 00 00 00 00 00 00 00
       0.0 0.0 0.0 0.0
0001c0 00 00 00 00 00 00 00 00 00 00 00 00 00 00 00 00
       0.0 0.0 0.0 0.0
0001d0 00 00 00 00 00 00 00 00 00 00 00 00 00 00 00 00
       0.0 0.0 0.0 0.0
0001e0 00 00 00 00 00 00 00 00 00 00 00 00 00 00 00 00
       0.0 0.0 0.0 0.0
0001f0 00 00 00 00 00 00 00 00 00 00 00 00 00 00 00 00
       0.0 0.0 0.0 0.0

network_body._body_endoder.seq_layers.2.weight f4 [128, 128]
000000 ed a8 24 3d 9b cc 66 3d 58 bf 0e be 7d 26 8c 3d
       0.040200163 0.05634747 -0.1394018 0.068432786
000010 e4 89 db 3d 83 8c cd bc e0 24 5e bd ce b3 df 3b
       0.1071966 -0.025091415 -0.054234385 0.0068268543
000020 b8 15 25 be 01 f3 40 bd cf 7d d6 bc 78 2c d5 3c
       -0.16121566 -0.047106747 -0.026183037 0.02602218
000030 bb bc 57 3d 57 c5 8f bd cb 7c a2 3d 70 a3 01 3a
       0.05267022 -0.070200615 0.079339586 0.00049453136
000040 c5 3c ef bc dd ae 97 bd 0d a5 e4 bd 28 f7 dd 3d
       -0.029203782 -0.074063994 -0.111642934 0.10838157
000050 3e ca 8f b9 55 89 49 bd c0 3f 04 be 92 92 82 bd
       -0.00027425768 -0.049203236 -0.12914944 -0.06375612
000060 54 ef 2d bd c7 8c f9 3d a5 86 7d 3d b5 88 fc bc
       -0.04246457 0.12185054 0.061895985 -0.030826906
000070 4c 45 39 3d 40 95 ab 3d ed 0f 87 bd cd fd ef 3c
       0.045232102 0.083780766 -0.065948345 0.029295826
000080 d8 3e 5e 3c 03 70 95 3d ec b6 c1 bd 5a 91 94 bd
       0.013564788 0.07296755 -0.09458718 -0.07254286
000090 a2 26 2d 3d eb 00 2b 3c 13 90 36 3c bc 51 25 3d
       0.04227317 0.010437231 0.011142748 0.04036115
0000a0 08 70 a8 bc 6c aa 20 bb ff cb c9 3d 0d a5 59 bd
       -0.020561233 -0.0024515642 0.09853362 -0.05313592
0000b0 70 cb 8d bc 16 9f 53 bd 2a 06 91 3d 7c ff ec bd
       -0.01730892 -0.051665388 0.07081254 -0.11572167
0000c0 5d 6f 09 be 09 77 84 3d ce 9d 96 b9 68 8f 2d bc
       -0.13421388 0.06468017 -0.00028727803 -0.010593273
0000d0 ff a7 1f be 27 eb 0d 3e 94 c9 1d bd 8e 10 16 3c
       -0.15591429 0.13859235 -0.038522318 0.00915922
0000e0 5c 67 3e 39 d6 40 8f 3d 4f dc 86 3c 03 1d 0c bd
       0.00018158316 0.06994788 0.016462473 -0.034207355
0000f0 cb b3 35 bd 27 8f 7b 3d 3f cb 88 bc 93 bb dc 3b
       -0.044360917 0.061415818 -0.016698478 0.006736228
000100 93 27 09 bd ef 1a a8 bd ef 45 65 bd ce e5 82 bc
       -0.033485007 -0.08208262 -0.055974897 -0.01597872
000110 10 1c 46 3d e2 74 1c bd d4 1f ef 3c ff 3c 87 bd
       0.048366606 -0.038197406 0.029189982 -0.06603431
000120 cf 2b cf bd 0f 29 c4 bd b1 32 5e 3e 3b 79 a5 3d
       -0.10115778 -0.09578144 0.21699025 0.080797635
000130 d1 f7 93 3d 57 3e a3 3d a3 c9 b0 bc 0d 62 63 3c
       0.072250016 0.07970875 -0.021580523 0.013878358
000140 7f 61 25 3d ec 7b 3a be ba 26 ae bc 41 0a 0f 3d
       0.040376183 -0.18211335 -0.0212587 0.03492189
000150 3b 71 75 bd fe 36 c5 bb 0b a5 e3 bd 13 79 48 3c
       -0.059922438 -0.0060185185 -0.11115464 0.012235898
000160 9e 88 3b 3e 80 b9 1e 3d 3e 9f 6c bd be ab 23 3e
       0.18313834 0.038751125 -0.057769053 0.15983483
000170 22 3c 50 3b 1c 31 c8 3c 38 28 02 3e e3 e0 c9 bc
       0.0031774123 0.02443748 0.12710655 -0.024643367
000180 10 7c 43 3e 24 93 f9 3b ba 71 8c 3b 77 12 e9 3d
       0.19090295 0.0076164175 0.004286018 0.11380475
000190 71 70 5a bd c6 fa ba 3c 7f df 32 be ff af a9 bb
       -0.05332989 0.022824656 -0.1746807 -0.005178451
0001a0 81 21 46 3e 08 f3 75 3d 16 a1 2b bd f0 4b 1a 3e
       0.19348718 0.060046226 -0.04190167 0.1506803
0001b0 20 e0 8b 3d 7c ac a6 3d fd 12 04 3e de a8 0e 3d
       0.06829858 0.081383675 0.12897868 0.034829013
0001c0 96 df 8e 3d 8e c8 be bd e0 32 a5 bc dd d7 a8 3c
       0.069762394 -0.093155965 -0.02016586 0.020610744
0001d0 29 60 4e bd 9d a9 9a bd 29 39 d0 3d 36 05 4c 3d
       -0.050384674 -0.075518824 0.101671524 0.049809657
0001e0 1c be 2f 3d 4f bc 32 bd 85 7b 42 bc 86 81 90 bc
       0.04290591 -0.043636616 -0.01187027 -0.017639887
0001f0 77 e1 6e 3d b9 1e 58 bc 6f f5 e4 3d c7 c2 31 3d
       0.05832049 -0.013190919 0.11179625 0.043398645
000200 36 79 d0 3d 45 6d c7 bd 49 63 09 3d 75 78 06 3e
       0.10179369 -0.097376384 0.03354195 0.13131888
000210 a5 80 2b be 72 ad df bc ee e6 3f be 57 62 ce bd
       -0.16748293 -0.027304385 -0.18740436 -0.100773506
000220 7b 5d da bd 24 63 e8 3c 84 81 c7 bc 0b 53 ea 3d
       -0.10662361 0.028367586 -0.02435375 0.114416204
000230 f0 5f 80 3d 5c 62 a5 bc d0 35 2a bd ae fc 06 be
       0.062682986 -0.020188503 -0.041555226 -0.13182327
000240 b4 21 dd bd bd c7 47 bd 54 84 99 bc 36 18 08 3e
       -0.10797444 -0.04877447 -0.018739857 0.13290486
000250 6e ce 5d bd 69 40 9c bd b3 c5 27 bd 64 a0 49 3d
       -0.054151945 -0.07629473 -0.040960025 0.049225226
000260 8b 19 85 be 8f 85 04 3e db c3 0d 3e 22 52 c8 bd
       -0.2599605 0.12941574 0.13844244 -0.097812906
000270 eb e0 1b 3c 9d 21 88 3c 3d b2 ff bd 9a c6 9a 3d
       0.009514074 0.01661759 -0.12485168 0.075574115
000280 47 96 5c bc 96 6d 72 3d 8b b0 e0 3d 6d d1 88 3d
       -0.013463563 0.05918654 0.10971173 0.0668057
000290 4e d3 06 3d 2e 15 02 3e a0 17 1b 3d fe db 5a be
       0.03291636 0.12703392 0.037864327 -0.21372983
0002a0 c7 4c ea 3a 38 54 65 bb ee 83 a4 3b f5 ad 55 3d
       0.0017875665 -0.0034992825 0.00502061 0.05216785
0002b0 69 c7 b1 bd e3 69 16 3b 17 b7 f6 bc aa 4e 41 3c
       -0.086806126 0.0022951297 -0.0301166 0.01179854
0002c0 37 71 f8 3c 37 37 4f 3d 2f 84 80 bd 02 c4 8e bd
       0.030327423 0.050589766 -0.06275212 -0.06970979
0002d0 b9 3c 1c 3e 40 b3 86 3d e9 2d 21 bd be 29 60 3c
       0.15257539 0.06577158 -0.039350424 0.013681827
0002e0 8c fe ed bc 76 82 b1 3d 9a 9e 17 bd bf 7d ac 3d
       -0.029052041 0.086674616 -0.03701649 0.08422422
0002f0 e5 1a 52 bd 87 93 09 bc 31 ba 4a be b3 05 92 3d
       -0.05129518 -0.00839699 -0.19797589 0.07129993
000300 9e 78 32 bd 9d 81 78 3d 01 0f cb bc 3f ce 8b 3c
       -0.04357206 0.060670484 -0.024787428 0.01706612
000310 3e 70 66 bd 8d d5 11 3d 3f 0a a3 bc 6e 77 df bd
       -0.056259386 0.03560405 -0.019902347 -0.10911451
000320 82 f4 ac bc 46 a4 71 3d d6 8e d0 bd 4d 07 82 3d
       -0.021112684 0.058994554 -0.10183494 0.06349049
000330 79 f2 8a 3c 80 43 57 bc e4 e1 b5 bd e8 cc 92 3d
       0.016961323 -0.013138652 -0.08880976 0.07167989
000340 f5 eb 9b 3c e8 9d 54 3d fe 6b be 3b fc 6a 8f ba
       0.019033412 0.051908404 0.0058112135 -0.0010941918
000350 4a 02 be bd e6 41 e1 3b 4b d2 83 3d 2d 24 d4 3c
       -0.0927778 0.006874311 0.064365946 0.025896156
000360 6f c1 55 3d 6d 6d 96 bc fa 77 aa 3d 40 44 58 3c
       0.052186426 -0.018362725 0.08323665 0.013199866
000370 f5 e5 42 be fa 37 0e 3d 8e 23 1e bd b6 e7 cc bd
       -0.19033034 0.034721352 -0.038608126 -0.10005133
000380 4a 6c 2f 3e d3 9c 39 3e 11 3e b2 39 c0 73 ed 3d
       0.17131153 0.1812623 0.0003399705 0.11594343
000390 b0 70 a7 3c 25 e5 ea bc f1 26 32 be 43 e4 f0 bd
       0.020439476 -0.028673718 -0.17397667 -0.117622875
0003a0 27 3d da bc c0 9d ec bd b3 7b 4d bc 9e e1 aa 3d
       -0.026640488 -0.11553526 -0.012541699 0.08343814
0003b0 0a 2f d1 bd 07 c8 59 3d 94 0f 93 3d 88 ca 9f 3d
       -0.1021405 0.053169277 0.07180706 0.07802302
0003c0 12 c0 95 bc 2a 51 86 3d 86 db 46 bd 75 3e 09 bd
       -0.018280063 0.065584496 -0.048549198 -0.03350683
0003d0 88 93 f9 bd 9c da 08 3d b3 43 39 3e ad ab 7c 3b
       -0.121863425 0.033411607 0.18092231 0.0038554475
0003e0 0d 94 96 3d d9 34 c5 bd 69 bc 49 bd 79 76 26 bd
       0.07352457 -0.096292205 -0.049251948 -0.040640328
0003f0 1e 2f 39 3d 5b 17 7d b9 af de 80 bb bb 49 5a 3e
       0.04521095 -0.00024136661 -0.003932796 0.21317188

network_body._body_endoder.seq_layers.2.bias f4 [128]
000000 00 00 00 00 00 00 00 00 00 00 00 00 00 00 00 00
       0.0 0.0 0.0 0.0
000010 00 00 00 00 00 00 00 00 00 00 00 00 00 00 00 00
       0.0 0.0 0.0 0.0
000020 00 00 00 00 00 00 00 00 00 00 00 00 00 00 00 00
       0.0 0.0 0.0 0.0
000030 00 00 00 00 00 00 00 00 00 00 00 00 00 00 00 00
       0.0 0.0 0.0 0.0
000040 00 00 00 00 00 00 00 00 00 00 00 00 00 00 00 00
       0.0 0.0 0.0 0.0
000050 00 00 00 00 00 00 00 00 00 00 00 00 00 00 00 00
       0.0 0.0 0.0 0.0
000060 00 00 00 00 00 00 00 00 00 00 00 00 00 00 00 00
       0.0 0.0 0.0 0.0
000070 00 00 00 00 00 00 00 00 00 00 00 00 00 00 00 00
       0.0 0.0 0.0 0.0
000080 00 00 00 00 00 00 00 00 00 00 00 00 00 00 00 00
       0.0 0.0 0.0 0.0
000090 00 00 00 00 00 00 00 00 00 00 00 00 00 00 00 00
       0.0 0.0 0.0 0.0
0000a0 00 00 00 00 00 00 00 00 00 00 00 00 00 00 00 00
       0.0 0.0 0.0 0.0
0000b0 00 00 00 00 00 00 00 00 00 00 00 00 00 00 00 00
       0.0 0.0 0.0 0.0
0000c0 00 00 00 00 00 00 00 00 00 00 00 00 00 00 00 00
       0.0 0.0 0.0 0.0
0000d0 00 00 00 00 00 00 00 00 00 00 00 00 00 00 00 00
       0.0 0.0 0.0 0.0
0000e0 00 00 00 00 00 00 00 00 00 00 00 00 00 00 00 00
       0.0 0.0 0.0 0.0
0000f0 00 00 00 00 00 00 00 00 00 00 00 00 00 00 00 00
       0.0 0.0 0.0 0.0
000100 00 00 00 00 00 00 00 00 00 00 00 00 00 00 00 00
       0.0 0.0 0.0 0.0
000110 00 00 00 00 00 00 00 00 00 00 00 00 00 00 00 00
       0.0 0.0 0.0 0.0
000120 00 00 00 00 00 00 00 00 00 00 00 00 00 00 00 00
       0.0 0.0 0.0 0.0
000130 00 00 00 00 00 00 00 00 00 00 00 00 00 00 00 00
       0.0 0.0 0.0 0.0
000140 00 00 00 00 00 00 00 00 00 00 00 00 00 00 00 00
       0.0 0.0 0.0 0.0
000150 00 00 00 00 00 00 00 00 00 00 00 00 00 00 00 00
       0.0 0.0 0.0 0.0
000160 00 00 00 00 00 00 00 00 00 00 00 00 00 00 00 00
       0.0 0.0 0.0 0.0
000170 00 00 00 00 00 00 00 00 00 00 00 00 00 00 00 00
       0.0 0.0 0.0 0.0
000180 00 00 00 00 00 00 00 00 00 00 00 00 00 00 00 00
       0.0 0.0 0.0 0.0
000190 00 00 00 00 00 00 00 00 00 00 00 00 00 00 00 00
       0.0 0.0 0.0 0.0
0001a0 00 00 00 00 00 00 00 00 00 00 00 00 00 00 00 00
       0.0 0.0 0.0 0.0
0001b0 00 00 00 00 00 00 00 00 00 00 00 00 00 00 00 00
       0.0 0.0 0.0 0.0
0001c0 00 00 00 00 00 00 00 00 00 00 00 00 00 00 00 00
       0.0 0.0 0.0 0.0
0001d0 00 00 00 00 00 00 00 00 00 00 00 00 00 00 00 00
       0.0 0.0 0.0 0.0
0001e0 00 00 00 00 00 00 00 00 00 00 00 00 00 00 00 00
       0.0 0.0 0.0 0.0
0001f0 00 00 00 00 00 00 00 00 00 00 00 00 00 00 00 00
       0.0 0.0 0.0 0.0

action_model._continuous_distribution.mu.weight f4 [1, 128]
000000 29 43 31 bb 1d d1 72 bb b8 41 e9 3c f6 29 c1 bb
       -0.0027048087 -0.003705091 0.02847372 -0.0058948947
000010 cb bb b9 3a 9b ed f0 bb bb 0a 1e 3d 74 5d 86 3c
       0.0014170347 -0.0073525435 0.038584452 0.016401984
000020 d3 8a 9a 3c db 48 81 3c c4 83 08 3d 4f e9 30 bc
       0.018865025 0.01578181 0.033328786 -0.010797813
000030 15 47 73 bc 97 b4 1e bc 32 66 a4 3b b3 51 42 3c
       -0.01484849 -0.009686611 0.0050170654 0.011860299
000040 27 7d 70 bb fb bc 39 3c 2d 98 dd 3c 5f 0e c9 3c
       -0.003669569 0.01133656 0.027050102 0.024542985
000050 6a e0 10 3d a6 32 28 bd 2f 87 cf 3b 3f d6 f5 bb
       0.035370268 -0.041063927 0.006333254 -0.0075023468
000060 ff 41 e3 3b 05 ce 80 bb 3c 24 bb bb 25 49 07 bc
       0.0069353576 -0.0039308094 -0.0057111066 -0.008257185
000070 42 8c d4 3c fa da 74 3d 30 32 aa 3c ab ff 04 3a
       0.025945786 0.059779145 0.020775884 0.0005073498
000080 06 3a 8d 3c 07 ee bd 39 38 48 0b 3c 80 9b 57 bd
       0.017239582 0.00036226233 0.008501105 -0.05263853
000090 4d be 8f 3c 78 3e 49 3c fb 2f ec bc ab 2c 18 3c
       0.017546797 0.01228296 -0.028831473 0.009287993
0000a0 b6 23 ad bc 84 09 b0 3c 2e 1c 04 3c ac c0 46 bc
       -0.021135192 0.021488912 0.008063359 -0.0121308975
0000b0 1c de 81 3c 5a 1d 6e bb e3 54 78 bc 57 85 ea bc
       0.01585298 -0.0036333413 -0.015156957 -0.028628035
0000c0 bf de 20 3c 98 d7 a2 bc 43 14 99 bc 7d 87 0b bd
       0.009818732 -0.019878194 -0.01868642 -0.03406476
0000d0 8e 49 2a bd 2a 42 f8 3c c6 d8 10 3d c3 dd bd bb
       -0.041574053 0.030304987 0.03536298 -0.0057942583
0000e0 12 19 7c bc df 48 ef 3c 6b dd 56 3c 78 da 86 bb
       -0.015386837 0.029209552 0.013114314 -0.004115399
0000f0 1f 32 f3 bb db 92 97 3b ff c3 ce 3c ff 5b 2b 39
       -0.0074217464 0.004625661 0.025239943 0.00016342102
000100 de 4a bd 3b 38 1a ad 3c b1 a7 13 3d 19 0a 9b 3c
       0.005776747 0.021130666 0.036048595 0.018925713
000110 3b 6d e0 bc 87 e0 49 3d c7 57 c8 3b b0 2d 07 bd
       -0.027395835 0.04928639 0.0061139795 -0.033002555
000120 07 31 0d bc 62 c6 2b bc 6b 6a 81 bc cd 06 51 3c
       -0.008617646 -0.01048431 -0.015797814 0.012757969
000130 31 70 97 39 75 e1 fa bb 15 19 32 bc 28 33 9c 3c
       0.00028884553 -0.007656271 -0.010870238 0.019067362
000140 97 a7 b2 bc bb c8 22 bd 62 9f a1 bc cb 0e f9 bb
       -0.021808429 -0.039742213 -0.01972932 -0.0076006404
000150 19 39 b5 bc 3d ae dd bc 39 12 9d bb 45 e4 c9 3c
       -0.022121953 -0.027060622 -0.004793432 0.02464498
000160 1e 62 c0 3c 53 2c 0a bd d7 b5 b5 3c 60 a5 24 3b
       0.023484286 -0.033733677 0.022181435 0.0025122985
000170 33 8f 23 bc 0a e1 f5 bc 37 ef 2d 3c b7 3c 3a 3c
       -0.009982872 -0.030014534 0.010616115 0.011367015
000180 5d bb 64 3a 3b 91 6a 3d cb 45 06 3d 01 8a 10 bc
       0.0008725429 0.05726741 0.032781404 -0.008821965
000190 8b 4a d7 3b d8 9e e5 bc 42 9c fe 3b 23 78 a2 3a
       0.0065701655 -0.028029844 0.007770092 0.0012395423
0001a0 4d 75 d1 3c 8c 99 06 bd bb 45 16 3d 1a c2 b7 bb
       0.025568629 -0.032861277 0.036687594 -0.0056078555
0001b0 8f 61 48 3c ac 7d 48 bc cd 50 5e bc ad 46 80 bc
       0.012230291 -0.012236994 -0.013569069 -0.0156587
0001c0 ba 89 f0 3b c5 ae f4 3b 16 c9 84 3a 07 9f af bc
       0.007340637 0.007467123 0.0010130729 -0.021438135
0001d0 4a c3 79 3b 53 65 8a 3c 55 79 18 ba 45 f3 13 bc
       0.0038110786 0.016894018 -0.000581642 -0.009030168
0001e0 ea 24 31 3d 63 b5 2a bc 1f 43 8d 3a 01 cb 21 bc
       0.043248095 -0.0104192225 0.001077745 -0.00987506
0001f0 22 18 28 bc ef e2 7e bc 30 24 9d bc b0 2a f4 3b
       -0.01025966 -0.015557035 -0.019182295 0.007451378

action_model._discrete_distribution.branches.0.weight f4 [3, 128]
000000 da 9f 00 bc 7f c8 e0 b7 5f 4d 9b ba 9b bb 9f bc
       -0.007850612 -2.6796244e-05 -0.001184862 -0.019498637
000010 c8 4b d1 3a 9b 92 3e 3c ab 4c cf 3b 87 5e 3c 3b
       0.0015968019 0.011631633 0.006326278 0.0028742866
000020 4f a9 0c bc 2f 74 a7 ba 8a 91 5a bc 0f 61 3d 3c
       -0.008585288 -0.0012775714 -0.013340363 0.011558785
000030 43 b0 d0 3b a7 38 aa bc af 17 12 bc 95 f8 01 bb
       0.0063686683 -0.020778967 -0.008916779 -0.0019832004
000040 ff 67 0b 3c e6 87 95 3a 4b 76 3d 3c 4d 67 59 3c
       0.008508681 0.0011408299 0.011563848 0.013269258
000050 90 86 80 bb 52 15 c4 bb 8e 92 23 3b f2 93 9f 3c
       -0.003922291 -0.005983987 0.002495918 0.019479726
000060 33 b2 8b 3c 68 02 67 bb bf 3d eb 3b 87 88 1f 3c
       0.017052745 -0.0035249237 0.0071789916 0.0097371405
000070 d8 a2 b2 3c 97 ba 5c 3c b9 ba 3c bc b0 b0 db bb
       0.021806166 0.013472221 -0.0115191275 -0.0067044124
000080 ba 89 6b bb a7 25 10 3b c7 f4 83 3c 52 32 0a 3b
       -0.0035940246 0.0021995099 0.01610793 0.0021087122
000090 b9 5a 0f bb 17 e0 9a bc 18 0d 10 3c 68 44 ce 3a
       -0.0021874143 -0.018905682 0.008792184 0.0015736939
0000a0 88 2b 5c 3b ba 7b 82 3a 6d 3b 44 3c c4 98 3a bb
       0.0033595283 0.0009955086 0.011977059 -0.0028472403
0000b0 43 7e 3e bb ea ae 24 3c 6b 40 5d ba 76 69 81 3c
       -0.0029066957 0.010051468 -0.000844008 0.015797358
0000c0 4d 0f 67 3c e1 b4 3f 3c e7 77 a3 3c af c7 9c 3a
       0.014102769 0.01170084 0.019954635 0.0011961366
0000d0 e9 92 88 bb 8d 55 a0 bb 6a 07 ec 3a 45 fd d6 3b
       -0.0041679037 -0.004893011 0.0018007581 0.006560954
0000e0 c0 67 7f bb e4 1d b3 bb 1b 9b 8a bb b5 39 f9 3a
       -0.0038971752 -0.0054662097 -0.004229916 0.001901439
0000f0 33 f8 b0 3c 8b 1b c5 bb e1 21 82 3b a4 da 4b 3b
       0.021602726 -0.0060152463 0.003971324 0.0031105662
000100 3b 0c 13 bb fc 4e 2a bc 99 c6 0f bc 1e 64 4c 3a
       -0.002243771 -0.010394808 -0.008775377 0.0007796901
000110 74 38 34 3c ad 4b ea bb 2f 8f cf 3b d0 ec 27 3c
       0.010999788 -0.0071501345 0.0063342075 0.010249332
000120 af 60 f5 bb 17 67 43 3c 05 e4 4f 3c 6e fa 1e bc
       -0.007488332 0.011926434 0.012688641 -0.009703262
000130 dc 23 0f 3b ce 42 a9 3b b8 09 9a 3a e5 a1 6f 3b
       0.0021841442 0.0051654344 0.0011752164 0.0036565003
000140 68 5b 67 3b 06 24 94 3c 36 09 9f 3b a5 89 7c bb
       0.0035302285 0.018083584 0.004853393 -0.003853419
000150 e0 25 c4 3b 64 d8 4a 3c 33 6d dc 3b b7 16 b3 b9
       0.0059859604 0.012380693 0.0067268847 -0.00034158464
000160 31 51 4c 3b 33 4d f7 3b 88 2c 4a b9 0c f5 95 3b
       0.0031176324 0.0075470447 -0.0001928081 0.004576331
000170 6b 32 b6 3b d0 1a 81 3c 68 d8 9a bc 34 a5 a8 bc
       0.0055602095 0.015759856 -0.018902019 -0.020586587
000180 4d 15 d4 3a ee df 2d 3c 4c f3 c5 bb 9f b8 e9 3a
       0.0016180665 0.010612471 -0.006040966 0.0017831511
000190 b2 a3 69 bb 83 70 ba 3a ea 64 34 bc fc ff 96 bb
       -0.0035650549 0.0014224205 -0.011010388 -0.0046081524
0001a0 6f c7 eb 3b 1a ed 17 bc 2f 99 e9 bb 4c 50 29 bc
       0.007195405 -0.009272838 -0.0071288566 -0.010334086
0001b0 2e f9 a3 b9 73 a3 da bb b6 7d 1f bc ac 0d 15 3c
       -0.00031275436 -0.0066723167 -0.009734562 0.009097498
0001c0 c7 43 37 bb 00 20 60 3c f6 fa 31 3c bb 0d e6 3b
       -0.0027963982 0.013679504 0.010863056 0.00702068
0001d0 d9 fb a9 bb 48 8a 21 35 d0 01 1b 3c 9a d4 16 3a
       -0.0051874933 6.01784e-07 0.009460881 0.0005753726
0001e0 ca 33 3f 3c e8 fc c7 ba 91 b7 45 ba 4a 4d 63 3c
       0.011670062 -0.0015257867 -0.0007542307 0.013873408
0001f0 ad 3c 1e bc 9f b0 30 bc 97 c4 42 bb 3f 52 3d 3c
       -0.009658021 -0.010784297 -0.0029719227 0.0115552535
000200 1c e1 8e bb cb 01 18 bc bf c9 6a 3c c4 72 38 39
       -0.004360331 -0.009277771 0.014330327 0.00017590361
000210 33 67 91 bb 72 43 9a bb 05 40 55 bc 34 10 0c 3c
       -0.004437351 -0.004707747 -0.013015752 0.008548785
000220 74 0a 85 3b 5c 83 83 ba af 0c f4 bb 63 0f a5 bc
       0.004060084 -0.0010033655 -0.007447801 -0.020148939
000230 98 4e 47 bc 85 30 5d 3c 27 7d e5 3b 4a 7e 74 bb
       -0.012164734 0.0135003375 0.0070034447 -0.003730672
000240 c0 d5 0a ba 80 eb 51 3c 60 ff 22 3c 71 a1 8f bb
       -0.00052961335 0.012812495 0.009948581 -0.004383259
000250 af d6 2a 3c 98 d5 22 3c 1d eb 01 bc d2 ad 8f 3b
       0.010427161 0.00993862 -0.0079295905 0.0043847347
000260 15 45 22 bc 58 32 79 3b b6 28 8b bc 6b ce 13 3a
       -0.009904166 0.0038024392 -0.016987186 0.00056383637
000270 7d 21 5a 3b 0c f0 34 ba 73 4e 83 3c fd 4b a9 ba
       0.003328412 -0.0006902225 0.016028618 -0.0012916323
000280 2b 92 66 3c 67 eb 09 bc 7d 8f 21 bc f9 b6 91 bb
       0.014072935 -0.008417941 -0.00986087 -0.004446861
000290 95 67 6d 3c 34 b8 13 bb 46 93 3f bb 22 00 af ba
       0.014490028 -0.0022540214 -0.002923207 -0.001335148
0002a0 e0 b0 ee 3a 68 53 26 bc b2 a0 5e bc 4d 9a dc bb
       0.0018210672 -0.010151722 -0.013588117 -0.0067322613
0002b0 6b 1f 09 3a 8f 58 8a bc 0b db 1a 3c a6 54 1c 3b
       0.0005230817 -0.016887931 0.009451638 0.0023854165
0002c0 1d fb 67 bb c1 1e 01 ba d2 7c af bc 12 eb 71 3b
       -0.0035397478 -0.0004925542 -0.021421824 0.0036913794
0002d0 1b 27 0f bc 63 bf b9 bb 48 53 ec 3b 0b d4 f8 bb
       -0.008737351 -0.005668567 0.0072120763 -0.007593637
0002e0 83 da 21 3b 87 1f 0f bc 63 62 90 bb 48 2a cd 39
       0.0024696894 -0.008735544 -0.00440626 0.0003913215
0002f0 37 1b 9d 3b fe cb 94 bc 82 4b 22 3b 2d 41 98 3a
       0.004794504 -0.018163677 0.0024764244 0.0011616104
000300 f7 35 78 bb 6f 24 f4 3b 2a 6f e4 ba e8 06 10 3c
       -0.0037873962 0.0074506323 -0.0017428149 0.008790709
000310 20 df 54 bc 87 95 98 bb 3e f0 2d 3c a7 55 c8 3b
       -0.01299265 -0.004656497 0.01061636 0.006113726
000320 2c b2 0f 3c 8d 13 6f 3c a9 95 a4 3c 07 46 85 3b
       0.008770507 0.014592064 0.020090895 0.004067186
000330 ab ad 8e bc 39 b6 2b 3c b3 1a 86 b9 e8 e5 fd bb
       -0.017416796 0.010480457 -0.00025578364 -0.007748354
000340 ef 8d 83 3c 6b 74 f4 3b a8 e6 43 bc 3f 85 33 bb
       0.01605889 0.007460167 -0.011956848 -0.0027392653
000350 15 26 a0 bb b7 57 d6 bb 1f 4f 4c bc 4f fd cd 3b
       -0.004887352 -0.006541218 -0.012470036 0.0062863003
000360 54 4c 06 3c 9b 23 0b 3c cf 1c af 3b db 4e bc b9
       0.008196909 0.008492376 0.0053440104 -0.00035916906
000370 bd 4e 1a bc 17 57 94 3a ab c4 35 bb b2 e0 18 bc
       -0.009418187 0.0011317459 -0.0027735631 -0.009330915
000380 5a b2 99 3c e5 f5 ea bb 38 c7 ed 3b 13 04 29 3b
       0.018761802 -0.007170426 0.0072564147 0.0025789782
000390 22 c6 d2 3b aa dd 22 3c 5f 40 13 3a f3 9c 0c bc
       0.0064323107 0.009940544 0.0005617197 -0.0085823415
0003a0 cb c4 ea 3a 87 67 05 3b a7 f9 a0 3b e6 2e 18 bb
       0.0017911432 0.0020355897 0.0049125734 -0.0023221313
0003b0 c8 52 87 bc d3 b2 c3 b9 b8 28 da bb 0d bb f8 bb
       -0.016518965 -0.00037326533 -0.006657686 -0.0075906576
0003c0 07 47 0d 3b ed 13 cd 3b 02 84 a8 bb 7f a5 9e 3b
       0.0021557228 0.006258479 -0.0051426897 0.004841506
0003d0 33 98 b1 3b 63 11 55 bc fe a8 80 3b 6b 19 ff 3a
       0.005419755 -0.013004634 0.0039263954 0.0019462531
0003e0 c1 84 88 bb 5d 0b 99 3a fd 15 66 3c fe 11 2c bc
       -0.004166216 0.001167636 0.014043328 -0.010502337
0003f0 ac 3e 2e bb 03 a5 94 3b 01 08 16 bc 8b fa 63 3b
       -0.0026587648 0.0045362725 -0.009157182 0.0034786786

action_model._discrete_distribution.branches.0.bias f4 [3]
000000 00 00 00 00 00 00 00 00 00 00 00 00
       0.0 0.0 0.0

action_model._discrete_distribution.branches.1.weight f4 [2, 128]
000000 b4 3e 8b bc 4a 12 02 3b 7f cb 13 bc 45 c7 d2 3a
       -0.016997673 0.0019847327 -0.009020685 0.0016081115
000010 68 64 1c bc 09 7d c8 3b 85 ee dd 3b 7c b4 95 bc
       -0.009545423 0.006118421 0.0067728185 -0.018274538
000020 06 63 8b bb 4a 52 32 3c e3 10 02 bc c3 25 cb 3b
       -0.004253748 0.010883877 -0.007938596 0.00619957
000030 3b 75 9a bb 05 46 58 bc 5a 9f 9f 3a cb 76 aa bb
       -0.004713682 -0.013200288 0.0012178228 -0.0052021495
000040 f3 27 41 3c a7 e4 43 bc bf 9b 8e 3c 77 36 42 bb
       0.01178931 -0.01195637 0.01740825 -0.0029634514
000050 4f 9a 54 3b d2 7e fc bb 63 a1 d7 bb 6e ca 33 3a
       0.0032440608 -0.007705548 -0.006580518 0.00068584725
000060 09 ef 41 bc c2 5f 18 bc 9a 0f 6c 3a 32 68 4f ba
       -0.011836776 -0.009300174 0.00090050104 -0.00079119497
000070 28 ee 8d bb 8d f4 ec 3b da ed 19 3c b7 ff 71 3b
       -0.004331369 0.007231301 0.009395087 0.00369261
000080 30 6f 83 3b 0f 6b 88 3c d3 1a 66 3b 79 22 1e bb
       0.0040110573 0.016652612 0.0035111203 -0.0024129434
000090 5a 18 52 bc b9 0c 0e 3c 2b 6f eb 35 59 5f 96 bb
       -0.012823189 0.0086700255 1.7541219e-06 -0.004589003
0000a0 df 1c 77 3b a0 dd 5c ba 32 b6 77 3b af 2f 7c 3b
       0.0037706417 -0.00084253587 0.0037797806 0.003848057
0000b0 0f 1f 0f bb 55 2e 4d ba 0f f8 7d b9 36 b0 1b bc
       -0.002183858 -0.00078270334 -0.00024220369 -0.009502461
0000c0 92 24 d6 ba 45 21 4a bc 0a f5 74 3b 82 96 9c bb
       -0.0016337803 -0.012337034 0.00373775 -0.004778684
0000d0 bd e2 e3 3a bc 94 21 3c 8f e6 63 bb 70 d3 d5 ba
       0.0017386299 0.009862121 -0.0034774875 -0.0016313624
0000e0 e3 b9 00 bb 02 70 ad bb 59 78 8a 3b c2 5f e0 3b
       -0.0019642047 -0.0052928934 0.0042257723 0.0068473527
0000f0 55 01 15 3b 4d 30 1f 3c 14 b5 88 3b 24 c3 31 3c
       0.002273639 0.009716106 0.004171977 0.010849748
000100 79 d0 25 bc 73 af ff 3b e7 ef 6c b9 b8 0d c3 bb
       -0.010120505 0.0078028976 -0.00022596084 -0.005952563
000110 bd cd 0e bc f3 9f 76 b9 40 2d 57 3b bf a1 09 3b
       -0.008716044 -0.00023519974 0.0032833368 0.002100095
000120 3c f1 48 3c c8 c1 d8 3b 12 d9 7b bb 95 51 35 bb
       0.012264546 0.0066148974 -0.0038428945 -0.0027667035
000130 59 f3 2b bc 9d 5f 4f bb 9f ee 85 3a 73 1a 42 bc
       -0.01049503 -0.0031642683 0.0010218209 -0.011847126
000140 f6 5c 31 3c 19 f4 2a 3c bb c7 ca bb 22 1b fb bb
       0.010825386 0.010434174 -0.0061883605 -0.0076631466
000150 cb 5a e5 bb 3a 36 f9 ba d7 bd af ba 33 3a 47 bb
       -0.0069993488 -0.0019013353 -0.0013408017 -0.003039968
000160 4b bf 6a 3c b3 a5 a1 3a b7 7a 03 bb 6b 3d 1a 3c
       0.014327834 0.0012332707 -0.0020062157 0.009414057
000170 f3 b8 a2 3c 6b e4 17 bb af 28 5f bb 31 95 30 3c
       0.019863581 -0.002317692 -0.003405135 0.0107777575
000180 3f 58 08 3b 26 02 3f 3c 47 7e 29 3b a0 39 1f 3b
       0.0020804552 0.011658227 0.002586262 0.0024295822
000190 07 67 2b 3c 97 1c 5f bb 45 3e 8f bc 33 cf a6 3c
       0.010461575 -0.003404414 -0.017485747 0.020362472
0001a0 0a 5b 62 3b f7 7c 58 bc 3b 3a c8 ba 8c 9b 8b bb
       0.0034539127 -0.013213388 -0.0015276143 -0.004260486
0001b0 d7 29 91 3b 40 53 87 3b 73 96 56 3b 44 17 42 3b
       0.0044300365 0.004129797 0.0032743483 0.0029615918
0001c0 25 ac de bb 05 12 89 3b 57 a1 88 ba ab 53 9b bb
       -0.0067954236 0.0041830563 -0.001042406 -0.0047401986
0001d0 9a 9f f0 3b 74 ca 29 3c a7 a7 2c 3b d1 61 b5 3a
       0.0073432447 0.01036321 0.0026345046 0.0013838356
0001e0 70 26 2e bc b3 56 2a 3a d1 0a 97 3a 1f 92 ca bb
       -0.010629281 0.00064979045 0.0011523609 -0.00618197
0001f0 9f db b1 b9 17 45 f4 3b 6b 37 01 bc a0 a5 a2 bc
       -0.000339237 0.007454525 -0.007886748 -0.019854367
000200 87 cc b2 3b 1f c9 8c 3c fc 9a 95 bb 6b 48 3c bc
       0.0054565105 0.017185746 -0.0045655947 -0.011491875
000210 3e 21 89 bc c2 dd 82 3b cb f8 89 3b 35 d2 e8 3b
       -0.016739484 0.0039937207 0.0042105666 0.0071051368
000220 8d 1d 32 3b ee c8 09 bc 37 b9 6e 3c 79 2b bb 3a
       0.0027178258 -0.008409722 0.014570526 0.0014279924
000230 aa b4 6a bb 49 da 38 3c 75 c2 c7 3a c0 ad 9a bc
       -0.003581325 0.011282512 0.0015240448 -0.018881679
000240 83 4e 00 bc 13 b4 99 bc cc 2a 9a bb 0a d1 62 3c
       -0.007831219 -0.018762624 -0.004704809 0.013843784
000250 64 0a 43 3b 5a 36 8b bc 3e 27 12 3a 1f 16 95 ba
       0.0029760832 -0.01699369 0.00055753055 -0.001137439
000260 77 83 33 bb f9 b5 18 3c 8e a2 bc 3b c5 ef 7c bb
       -0.0027391592 0.009320729 0.0057566827 -0.0038595062
000270 43 a3 7b 3b d3 5e 28 3b df 4f 61 bc 17 e3 e7 ba
       0.0038396872 0.0025691285 -0.013751953 -0.0017691579
000280 a0 09 f1 bb 4b 25 96 bb f5 f0 b9 bb dd dc e0 bb
       -0.0073558837 -0.0045820824 -0.0056744763 -0.0068622665
000290 83 7d 23 bc 2d b0 85 bc 8f e8 36 3c 9f 9b d9 bb
       -0.009978655 -0.016319359 0.011163845 -0.006640866
0002a0 a8 d1 d3 3b 80 7d 37 bc ed e0 95 3c ad c9 d8 bb
       0.006464202 -0.011199355 0.01829573 -0.0066158385
0002b0 27 95 1a ba 17 1c 82 3c c5 66 49 3c f7 80 73 bb
       -0.0005896859 0.015882535 0.012292569 -0.0037155726
0002c0 d3 ff 86 3b f8 2c 90 bb 20 16 c7 3a 75 12 d1 3a
       0.004119852 -0.004399892 0.0015189089 0.0015950935
0002d0 de c3 a4 3b 95 d9 91 3c e3 bf 8a 3c 65 8e d7 38
       0.005028232 0.017803947 0.016937202 0.00010278522
0002e0 5c 9e a0 3b 9f 6f 1a 3c 97 34 20 bc 06 f7 af bb
       0.0049016904 0.009426027 -0.009778163 -0.0053700237
0002f0 98 75 d5 bb 8f 8f 1f 3c 02 70 4a 3c 7b 0a 63 3b
       -0.0065142624 0.009738817 0.012355806 0.0034643698
000300 57 28 d2 bb 38 71 f5 3b 73 0e 34 bc a0 d9 77 3b
       -0.0064135003 0.0074903034 -0.010989773 0.0037818924
000310 32 4e aa bb 2f 56 bd 3b bf 46 14 3c c0 b5 d8 ba
       -0.00519731 0.005778096 0.00905007 -0.0016533658
000320 2d f1 95 ba 45 c3 b3 b9 f1 27 06 3c 5d 52 51 3b
       -0.0011439674 -0.00034287028 0.008188234 0.0031939961
000330 82 a4 38 bc b5 6d 32 3b 73 67 9e bb 03 26 0f bb
       -0.0112696905 0.0027226035 -0.0048341095 -0.0021842725
000340 ef 9f 98 ba eb 4c f3 bb 87 fd ca 3a a1 cc 06 bc
       -0.0011644344 -0.007424941 0.0015486934 -0.008227498
000350 5d db 63 39 bd 70 e5 3b a4 12 a1 bb 31 53 1b 37
       0.00021730126 0.007001965 -0.004915552 9.258089e-06
000360 0f 71 80 bc f1 e0 0d 3b 38 83 e9 3b 2a 57 de bb
       -0.01567891 0.0021648968 0.007126238 -0.006785293
000370 88 11 ea 37 53 13 33 3b da 6c 84 3b 72 e0 59 bc
       2.7903137e-05 0.002732475 0.0040412964 -0.013298141
000380 8a ce 4f 3c df 0d 49 3b a2 17 20 bc 42 c9 db bb
       0.01268352 0.0030678434 -0.0097712595 -0.0067073414
000390 2e 62 c3 3b c9 5f 20 bc af 6f 57 bc fd de e1 bb
       0.0059626317 -0.009788462 -0.013149186 -0.0068930374
0003a0 c5 6b 70 b9 73 45 07 bc 7f 3d 18 bc 69 ab 04 bb
       -0.00022928331 -0.008256304 -0.009292006 -0.002024377
0003b0 07 83 ff 3b d9 93 88 bc 9f e0 6f 3b 9b 8d 5e 3c
       0.007797602 -0.016672062 0.003660239 0.013583566
0003c0 e5 2b 62 3b 9b 19 13 bb 23 28 80 bc 92 99 dc 3b
       0.0034511026 -0.0022445682 -0.015644139 0.006732174
0003d0 ab 8c a0 bb 78 73 7a 3c 3f b3 07 3c 6d d5 4b 3a
       -0.0048995814 0.015286319 0.008282482 0.00077756384
0003e0 68 2a fe 3a b1 53 8b 3b cf 56 48 bc e3 76 22 3c
       0.00193913 0.00425192 -0.012227728 0.00991604
0003f0 e0 84 b3 bb af 5b eb ba 44 44 a6 bb 00 24 0c bb
       -0.0054784864 -0.0017956401 -0.005074056 -0.0021383762

action_model._discrete_distribution.branches.1.bias f4 [2]
000000 00 00 00 00 00 00 00 00
       0.0 0.0

network_body._body_endoder.seq_layers.0.weight f4 [128, 6]
000000 53 3e 68 be 81 4f 13 be fc 40 09 bf 43 5d 21 3f
       -0.22680025 -0.14385797 -0.53614783 0.6303293
000010 b7 b5 f9 bd f6 87 1b bf a5 c0 4e 3f b8 10 52 3e
       -0.121928625 -0.60754335 0.807627 0.2051419
000020 75 59 c8 be 5c 94 30 3f eb 24 43 3d 11 9c e2 3e
       -0.3913075 0.6897638 0.04764263 0.44259694
000030 6e c3 b7 bd 4e 8c 6f bd e3 6c 76 3e 44 d4 14 3f
       -0.08972822 -0.058483414 0.24064974 0.5813639
000040 ca da 52 be a3 b5 34 3f b5 8f 93 be b5 12 44 3f
       -0.20591274 0.70589656 -0.28820577 0.76591045
000050 c2 e8 ba bd f8 39 3f bd df 33 09 3f 38 4e ed be
       -0.09126426 -0.046686143 0.53594774 -0.4634874
000060 0b b6 90 3e 6b da 0b bf c5 ce 13 bd d6 d4 1e be
       0.28263888 -0.54630154 -0.036085863 -0.15510878
000070 1a b7 0f 3d 58 bf ef 3e 06 4d 13 be 04 a3 4b 3c
       0.03508673 0.4682567 -0.14384851 0.012429003
000080 c8 a0 88 3e 05 80 01 3f 9d 56 14 3d 9a a4 3d be
       0.26685166 0.5058597 0.036215413 -0.18519822
000090 9a 1a b6 3e 2b 41 1a bf 04 fc 0d 3f cb 37 4f 3c
       0.3556717 -0.6025569 0.5546267 0.012647579
0000a0 33 ea 1d 3e 0f 18 af 3e 53 47 78 be b3 90 07 be
       0.15421371 0.34198043 -0.24245958 -0.13238792
0000b0 b8 a3 bc 3e 7b fa bc 3e 9b 5f 0b bd 76 d4 05 bf
       0.36843657 0.3690985 -0.034026723 -0.52277315
0000c0 e1 75 a0 3e 8d 31 9e 3e af 54 5c 3d 6a 2b c5 be
       0.31339934 0.3089718 0.053791698 -0.38509685
0000d0 0c 85 66 3e 5d ce 28 3e e1 8a 32 3f 26 7b bc 3e
       0.22511691 0.16484971 0.6974316 0.36812705
0000e0 2f 37 3f 3e 89 be 8e 3e f9 3e 7f bf 23 63 05 be
       0.18673395 0.27879742 -0.99705464 -0.13026099
0000f0 48 da 65 3d a5 29 63 be 36 e3 61 3e 89 fc df 3c
       0.056116372 -0.22183855 0.2205933 0.027342098
000100 80 22 0c 3f df e1 09 bf 48 61 46 3e cb 7b d2 be
       0.5474014 -0.53860277 0.19373047 -0.41110072
000110 2c 4f c4 3e f4 a5 21 bf e8 41 70 be 60 a6 af be
       0.38341653 -0.6314385 -0.23462641 -0.34306622
000120 e0 22 1a 3e 83 8b 44 bd 62 2c 0b bd ca 03 74 3f
       0.15052366 -0.04798461 -0.033977874 0.9531828
000130 9e fd 57 bf ca 42 0a bf 10 eb 1f 3d 33 17 b5 3e
       -0.84371364 -0.5400816 0.039042532 0.35369262
000140 3a 18 6e 3e ea 11 4f be 3f e2 d7 be d8 35 79 be
       0.23251429 -0.20221677 -0.421648 -0.24336946
000150 e5 eb cc be 79 83 d5 b9 75 09 ca 3e 71 66 bb 3c
       -0.40023723 -0.0004072448 0.3946034 0.022875996
000160 07 28 3f bf 52 ab b5 be 90 cc 1f be 93 d2 52 3e
       -0.7467045 -0.3548227 -0.15605378 0.2058814
000170 17 23 8e bd 0a 31 4f be 2e ee 13 3f 37 ee df be
       -0.069402866 -0.2023355 0.5778531 -0.4373643
000180 91 b0 46 be 68 a0 ac bd 47 84 65 be 77 69 a6 3e
       -0.19403292 -0.084290326 -0.22413741 0.32502338
000190 f0 31 d3 bc 04 9a 29 3e 9c 72 d9 3e fb e2 22 3e
       -0.025780648 0.16562659 0.42470253 0.15906899
0001a0 14 32 02 3f bd 24 a0 3e c1 31 f9 be 2e 0e 80 bd
       0.50857663 0.3127803 -0.48670772 -0.062527046
0001b0 4b c6 0e bd 39 6d a0 3e ba af c6 3d b9 32 23 be
       -0.034857076 0.3133333 0.09701486 -0.15937318
0001c0 71 8a 69 3e 13 f1 19 bf 96 85 ad 3d 91 c0 b5 3e
       0.22806717 -0.60133475 0.08472745 0.3549848
0001d0 cb 9d 8d 3e b0 34 ce 3e 72 ae ce bc b9 28 17 3f
       0.2765945 0.40274572 -0.025229666 0.5904651
0001e0 0e 37 ed be 94 1e fc 3e 63 43 10 be fa 32 56 3d
       -0.46331066 0.4924208 -0.14088206 0.05229471
0001f0 34 d3 12 3f f3 66 06 3f a9 1b eb 3c 98 78 1f bf
       0.5735352 0.5250084 0.028699713 -0.62293386
000200 6a 3c 60 be e1 af d9 3e 45 18 8d bd 2b 8c 4d be
       -0.21898046 0.42516997 -0.06889395 -0.20073001
000210 33 f6 0b be 0c 13 b0 be 16 18 03 bf 05 c9 8e 3e
       -0.13668136 -0.34389532 -0.5120863 0.2788774
000220 5d 4d 50 bf 1f e6 ac be b4 02 9a be c2 11 05 be
       -0.81368047 -0.33769318 -0.30080187 -0.12995055
000230 d2 82 ab 3d 38 f3 52 3e c8 0c 7b bc 3b 6b 89 3e
       0.08374561 0.20600593 -0.0153228715 0.26839623
000240 81 e5 91 3e 24 66 9c 3d d5 0c ba 3e 18 f3 71 3e
       0.2849541 0.07636669 0.36337915 0.23627889
000250 6c 7c 04 3f a7 77 ee bd fa 16 62 bf 4b fc 1a 3f
       0.5175235 -0.116439156 -0.8831631 0.6054122
000260 8d 76 cd 3e d1 21 a3 be d2 fd 47 bd e8 dc a8 3e
       0.4012951 -0.31861737 -0.048826046 0.32981038
000270 c4 65 57 3e 11 76 0e 3f fe 74 81 3d 6e 82 56 3e
       0.21034914 0.55648905 0.063211426 0.20948192
000280 27 27 33 be 86 c8 14 bf 6c 8d 50 bf c9 1b 96 3e
       -0.17495404 -0.58118474 -0.8146579 0.29318073
000290 b3 12 da 3d 06 18 1d be 8a 20 84 bd cb 7b 7c 3e
       0.10648098 -0.15341195 -0.06451519 0.24656598
0002a0 d1 d1 fa 3e 63 b2 04 bf c7 0d e0 3e d2 f8 30 bd
       0.48988202 -0.51834697 0.4376051 -0.043206044
0002b0 16 87 f2 3e db fb 0a 3f 66 47 bc 3e 68 86 e3 bd
       0.47368687 0.5429055 0.36773223 -0.1110962
0002c0 a6 95 0d 3d b5 84 e9 bd 41 9c 8b 3c b3 c6 02 3f
       0.034566544 -0.11402265 0.017042281 0.5108444
0002d0 41 93 b6 be e2 4a ff 3e a9 f4 79 3e 9f 37 e1 be
       -0.3565922 0.4986182 0.24409737 -0.43987748
0002e0 2f fb fc be f4 aa e9 be 02 59 be 3e 55 9d 98 3e
       -0.49410388 -0.4563824 0.37177283 0.29807535
0002f0 c1 52 07 3f 66 e1 4c bf c3 5d 6e bd 5a 85 00 bf
       0.5286065 -0.8003143 -0.058194887 -0.5020348
000300 53 91 03 3f 58 aa 22 bd 6f 2d c3 be a0 e4 c7 3e
       0.5139362 -0.039713234 -0.381206 0.39041615
000310 d5 02 b0 3e 9d 9b 98 3e dc 32 d9 be 96 a8 1d 3e
       0.3437716 0.29806224 -0.42421615 0.15396342
000320 8a ef 28 3d fc de 0e be 38 30 ca 3e 26 75 9f 3d
       0.041244067 -0.1395225 0.39489913 0.07786016
000330 e0 66 4d be 48 71 18 bd f1 5c 36 3e 2b 40 c1 3e
       -0.20058775 -0.03721741 0.17808892 0.3774427
000340 2a 77 09 bf 01 25 85 3e 0d c6 10 bf b6 c3 10 3d
       -0.53697455 0.26004794 -0.565522 0.035342894
000350 3b ae 33 3d 67 7b d8 3e 70 f5 08 3e 5d 06 9d 3e
       0.04386733 0.4228165 0.13374877 0.30668917
000360 6f f1 6b bf d1 44 5b 3e 74 a9 08 be 5c 7d f6 3e
       -0.92165273 0.2141297 -0.13345891 0.48142517
000370 2e 8d aa 3e f4 a0 eb 3e 43 84 4d 3e 6e 58 d0 3e
       0.33310837 0.46021235 0.20069985 0.40692466
000380 24 ab 85 be dc 76 c6 3e 3a 29 95 3e e0 79 df 3e
       -0.26107132 0.38762558 0.29133016 0.4364767
000390 89 49 02 bf df dc 88 3e f6 bb 39 be 7d 42 a6 3e
       -0.50893456 0.2673101 -0.18138108 0.32472602
0003a0 74 88 82 bd 6a 2c c9 3e 6a fc 12 be fd 23 55 bd
       -0.063736826 0.39291698 -0.14354101 -0.052036274
0003b0 e2 8e 16 3f 94 4e 07 3f 88 e6 cd be 5b c9 88 bd
       0.5881177 0.52854276 -0.40214944 -0.066790305
0003c0 09 a0 e1 3d da 1f c0 3e 39 1d 52 be a6 e8 21 be
       0.110168524 0.375243 -0.2051896 -0.15811405
0003d0 fa f5 21 be 0e 42 dd 3e 6a 47 a4 3d ce 55 65 3e
       -0.15816489 0.43214458 0.08021434 0.22396013
0003e0 d4 60 f1 be 11 66 45 be fd be 26 bf ea 3f 55 3e
       -0.47144186 -0.19277216 -0.65135175 0.20825163
0003f0 3c a4 80 be f1 dc f8 be 15 60 79 bd b3 e3 7b bd
       -0.251253 -0.48606065 -0.060882647 -0.061496448

network_body._body_endoder.seq_layers.0.bias f4 [128]
000000 00 00 00 00 00 00 00 00 00 00 00 00 00 00 00 00
       0.0 0.0 0.0 0.0
000010 00 00 00 00 00 00 00 00 00 00 00 00 00 00 00 00
       0.0 0.0 0.0 0.0
000020 00 00 00 00 00 00 00 00 00 00 00 00 00 00 00 00
       0.0 0.0 0.0 0.0
000030 00 00 00 00 00 00 00 00 00 00 00 00 00 00 00 00
       0.0 0.0 0.0 0.0
000040 00 00 00 00 00 00 00 00 00 00 00 00 00 00 00 00
       0.0 0.0 0.0 0.0
000050 00 00 00 00 00 00 00 00 00 00 00 00 00 00 00 00
       0.0 0.0 0.0 0.0
000060 00 00 00 00 00 00 00 00 00 00 00 00 00 00 00 00
       0.0 0.0 0.0 0.0
000070 00 00 00 00 00 00 00 00 00 00 00 00 00 00 00 00
       0.0 0.0 0.0 0.0
000080 00 00 00 00 00 00 00 00 00 00 00 00 00 00 00 00
       0.0 0.0 0.0 0.0
000090 00 00 00 00 00 00 00 00 00 00 00 00 00 00 00 00
       0.0 0.0 0.0 0.0
0000a0 00 00 00 00 00 00 00 00 00 00 00 00 00 00 00 00
       0.0 0.0 0.0 0.0
0000b0 00 00 00 00 00 00 00 00 00 00 00 00 00 00 00 00
       0.0 0.0 0.0 0.0
0000c0 00 00 00 00 00 00 00 00 00 00 00 00 00 00 00 00
       0.0 0.0 0.0 0.0
0000d0 00 00 00 00 00 00 00 00 00 00 00 00 00 00 00 00
       0.0 0.0 0.0 0.0
0000e0 00 00 00 00 00 00 00 00 00 00 00 00 00 00 00 00
       0.0 0.0 0.0 0.0
0000f0 00 00 00 00 00 00 00 00 00 00 00 00 00 00 00 00
       0.0 0.0 0.0 0.0
000100 00 00 00 00 00 00 00 00 00 00 00 00 00 00 00 00
       0.0 0.0 0.0 0.0
000110 00 00 00 00 00 00 00 00 00 00 00 00 00 00 00 00
       0.0 0.0 0.0 0.0
000120 00 00 00 00 00 00 00 00 00 00 00 00 00 00 00 00
       0.0 0.0 0.0 0.0
000130 00 00 00 00 00 00 00 00 00 00 00 00 00 00 00 00
       0.0 0.0 0.0 0.0
000140 00 00 00 00 00 00 00 00 00 00 00 00 00 00 00 00
       0.0 0.0 0.0 0.0
000150 00 00 00 00 00 00 00 00 00 00 00 00 00 00 00 00
       0.0 0.0 0.0 0.0
000160 00 00 00 00 00 00 00 00 00 00 00 00 00 00 00 00
       0.0 0.0 0.0 0.0
000170 00 00 00 00 00 00 00 00 00 00 00 00 00 00 00 00
       0.0 0.0 0.0 0.0
000180 00 00 00 00 00 00 00 00 00 00 00 00 00 00 00 00
       0.0 0.0 0.0 0.0
000190 00 00 00 00 00 00 00 00 00 00 00 00 00 00 00 00
       0.0 0.0 0.0 0.0
0001a0 00 00 00 00 00 00 00 00 00 00 00 00 00 00 00 00
       0.0 0.0 0.0 0.0
0001b0 00 00 00 00 00 00 00 00 00 00 00 00 00 00 00 00
       0.0 0.0 0.0 0.0
0001c0 00 00 00 00 00 00 00 00 00 00 00 00 00 00 00 00
       0.0 0.0 0.0 0.0
0001d0 00 00 00 00 00 00 00 00 00 00 00 00 00 00 00 00
       0.0 0.0 0.0 0.0
0001e0 00 00 00 00 00 00 00 00 00 00 00 00 00 00 00 00
       0.0 0.0 0.0 0.0
0001f0 00 00 00 00 00 00 00 00 00 00 00 00 00 00 00 00
       0.0 0.0 0.0 0.0
