results/ppo/Player Behaviour/Player Behaviour-768.pt (torch, 151983 bytes, 15 tensors)

discrete_act_size_vector f4 [1, 2]
0	0x40400000	3.0
1	0x40000000	2.0

network_body._body_endoder.seq_layers.0.weight f4 [128, 5]
0	0xbd819862	-0.06327893
1	0x3f3539a6	0.7079109
2	0x3e87a75d	0.26494876
3	0x3dcf3d8d	0.10119162
4	0xbee7aad0	-0.45247507
5	0x3eb11c5e	0.34591955
6	0x3e888a88	0.2666819
7	0x3e15085e	0.14553973
8	0x3f0e1ae5	0.5550979
9	0xbe21d0b4	-0.1580227
10	0x3f102772	0.5631019
11	0x3f4b641c	0.7944963
12	0x3da4dd9d	0.08050082
13	0x3ce5b51a	0.028040458
14	0x3ebd0b2d	0.3692259
15	0xbe5af79c	-0.21383518
16	0x3d6d6548	0.057957917
17	0x3e8b7d8f	0.2724423
18	0x3cb4e361	0.022081079
19	0xbf3c2d7f	-0.7350692
20	0xbeb743b9	-0.35793856
21	0x3f2e049e	0.67975795
22	0xbd70200a	-0.058624305
23	0xbf248c11	-0.64276224
24	0x3ec054ef	0.375648
25	0xbe6308d2	-0.22171333
26	0x3f350b63	0.707205
27	0x3e1a90a2	0.15094236
28	0x3ea4bc9a	0.32175142
29	0xbe258ede	-0.16167781
30	0xbe88261a	-0.2659157
31	0xbf1f6ae3	-0.6227247
32	0xbe8e5504	-0.27799237
33	0xbe25aed5	-0.16179974
34	0xbea795d1	-0.32731488
35	0xbee51677	-0.44743702
36	0x3e28757f	0.16451071
37	0xbf2095ca	-0.6272856
38	0x3eb56646	0.3542959
39	0x3e0cefee	0.13763401
40	0x3e265950	0.16245008
41	0xbe076226	-0.13221034
42	0x3f032fcb	0.512448
43	0x3f2e50f8	0.680923
44	0x3d4c35c1	0.04985595
45	0x3e318150	0.17334485
46	0xbef0ca96	-0.4702956
47	0x3e084e56	0.13311133
48	0x3f04ed9d	0.5192507
49	0xbedf3374	-0.43593943
50	0x3f0e9086	0.55689275
51	0x3c29292b	0.010324757
52	0xbf46d267	-0.776648
53	0xbea42ab1	-0.3206382
54	0xbd986104	-0.07440379
55	0xbf1dfa37	-0.6170992
56	0xbd8a46e4	-0.067518026
57	0xbe568273	-0.209482
58	0xbe81b6cd	-0.25334778
59	0xbeb26289	-0.348408
60	0xbe7dd81e	-0.24789473
61	0xbe4e2bd7	-0.20133911
62	0x3ed1e2dc	0.40993392
63	0x3e6f98f3	0.23398189
64	0xbf476380	-0.778862
65	0xbe894821	-0.26812842
66	0x3e56f24d	0.20990868
67	0xbf162653	-0.5865223
68	0xbf58000d	-0.8437508
69	0xbf1ccddb	-0.6125161
70	0xbedf7166	-0.43641204
71	0xbeceeada	-0.40413553
72	0xbef0c9c1	-0.47028926
73	0xbd420c37	-0.04737493
74	0x3ea98437	0.33108684
75	0x3ec5339d	0.3851594
76	0x3e8dc822	0.27691752
77	0x3e40f86f	0.1884477
78	0x3ee5e5aa	0.44901782
79	0x3edb639a	0.42849427
80	0xbe485c6f	-0.1956651
81	0x3e4c4771	0.19949128
82	0xbe8d9e88	-0.27660012
83	0x3e9175ae	0.28410095
84	0xbf305527	-0.6887993
85	0xbe44d295	-0.19220956
86	0xbea8378a	-0.32854873
87	0x3ef98782	0.48736197
88	0x3dde48de	0.10853742
89	0xbeabcfa0	-0.33556843
90	0x3e1af3f1	0.15132119
91	0x3cf0b24a	0.02938189
92	0x3f22bba0	0.63567543
93	0xbf4d6b86	-0.8024219
94	0xbedf8d1d	-0.43662348
95	0x3da3846d	0.079842426
96	0x3b3699de	0.0027862708
97	0xbecb38de	-0.39691824
98	0xbdea1fde	-0.114318594
99	0x3e6711bb	0.22565357
100	0x3e83e601	0.25761417
101	0x3e4c94ff	0.19978712
102	0x3e9b14f4	0.30289423
103	0xbea083b6	-0.31350487
104	0xbedc8f98	-0.43078303
105	0xbeb06660	-0.34453106
106	0xbec08b47	-0.3760626
107	0xbd520a57	-0.051279392
108	0x3f60e2a0	0.878458
109	0x3f08cec5	0.53440505
110	0x3d972db9	0.07381768
111	0xbbb91131	-0.0056478013
112	0x3f63a998	0.88930655
113	0x3e1027a8	0.14077628
114	0x3e313575	0.17305548
115	0x3f0e593f	0.5560493
116	0xbe136a48	-0.14396012
117	0x3e8e1925	0.2775356
118	0x3e2ad930	0.16684413
119	0xbf20477e	-0.6260909
120	0xbd6f0fbe	-0.058364622
121	0xbeb5426d	-0.3540224
122	0x3f40bc9b	0.7528779
123	0x3f24016d	0.64064676
124	0xbdf04050	-0.11731017
125	0xbe583887	-0.21115313
126	0x3f06267a	0.5240246
127	0xbebb08ff	-0.365303
128	0xbeaf3bb4	-0.34225237
129	0xbe242c98	-0.16032636
130	0x3f46fa85	0.7772601
131	0xbe3e4330	-0.18580317
132	0xbedd1f5c	-0.43187988
133	0x3f5434ad	0.82892877
134	0xbf008018	-0.50195456
135	0xbecb27d1	-0.39678815
136	0xbd1a8e4a	-0.037733354
137	0xbdad865c	-0.08472893
138	0xbd265a29	-0.040613327
139	0xbdfb3bd0	-0.12267268
140	0x3e43f5db	0.19136755
141	0xbdc954b4	-0.09830609
142	0xbe0f126a	-0.13971868
143	0xbef8350f	-0.4847798
144	0xbe866b46	-0.26253718
145	0xbe61bf87	-0.22045718
146	0xbe1db3b1	-0.15400578
147	0x3f2e4eef	0.68089193
148	0xbd535150	-0.051591218
149	0x3f138d39	0.57637364
150	0xbf16030f	-0.5859842
151	0x3ecd5574	0.40104258
152	0xbf6e007c	-0.9296949
153	0xbedc491c	-0.43024528
154	0xbd8e3f1f	-0.06945633
155	0xbd7f815d	-0.06237923
156	0xbe1bb185	-0.15204437
157	0x3ecd61f3	0.40113792
158	0x3d4df9fc	0.05028723
159	0x3ec7121e	0.3888101
160	0x3e8c55e2	0.27409273
161	0xbc449e65	-0.012000655
162	0xbe929496	-0.28628987
163	0x3ee23be9	0.44186333
164	0xbe52f88d	-0.20602627
165	0x3d465106	0.048417114
166	0x3e63dcfc	0.22252268
167	0xbe8ce03c	-0.27514827
168	0xbeece0a0	-0.46265125
169	0x3eeb9036	0.46008462
170	0x3a8372f4	0.0010028766
171	0x3e2937a6	0.16525134
172	0xbe330f75	-0.17486365
173	0xbed05f1b	-0.4069756
174	0xbe7be90f	-0.24600624
175	0x3e994092	0.29932076
176	0x3f8da3e2	1.1065638
177	0xbea71d8c	-0.3263973
178	0xbe75a868	-0.23990023
179	0xbf4ada8d	-0.7923973
180	0xbeaab959	-0.33344534
181	0xbee93326	-0.45546836
182	0xbdfaabc1	-0.12239791
183	0x3f544c88	0.8292928
184	0x3ed75efd	0.42064658
185	0xbd24c57a	-0.04022739
186	0xbeb0939f	-0.34487626
187	0xbeaef438	-0.341707
188	0x3dc96d7e	0.09835337
189	0x3e559eb8	0.20861328
190	0xbe127a24	-0.14304405
191	0xbd0882cc	-0.033327863
192	0xbf4d664a	-0.80234206
193	0xbf0a8bd0	-0.54119587
194	0x3f39e7a4	0.7261908
195	0xbe8a75c6	-0.2704298
196	0x3e95f832	0.2929092
197	0x3ec8fbed	0.39254704
198	0x3d9b57ec	0.07585129
199	0xbf0647f8	-0.52453566
200	0xbee8e527	-0.4548733
201	0x3bac3279	0.0052550402
202	0x3e23ebdf	0.16007946
203	0xbc7b6b31	-0.015345381
204	0xbe91067a	-0.28325254
205	0x3e5221bc	0.20520681
206	0xbe92856a	-0.28617412
207	0x3eb240cc	0.3481506
208	0x3f077c87	0.5292439
209	0x3dc0b8ed	0.09410272
210	0x3f84ecaf	1.038473
211	0xbe9e49f9	-0.30915812
212	0x3ee3018f	0.44337127
213	0x3e08f56d	0.13374873
214	0xbdc31173	-0.095248125
215	0x3f20494f	0.6261186
216	0x3e2c88a4	0.16849
217	0xbf04851f	-0.51765627
218	0x3e0bfe68	0.13671267
219	0xbf365c38	-0.71234465
220	0xbec17f6d	-0.3779253
221	0x3e4126f4	0.18862516
222	0x3d18fc02	0.03734971
223	0x3ea5e666	0.32402343
224	0x3f3ef6d3	0.74595374
225	0x3eee0b44	0.4649297
226	0xbd84ffac	-0.06494078
227	0xbe61f465	-0.22065885
228	0xbeccae7a	-0.39976865
229	0xbeaa8b0e	-0.33309215
230	0x3e9c354f	0.3050942
231	0x3f2a78cc	0.6659057
232	0xbee0a6cc	-0.43877256
233	0xbf1285fc	-0.57235694
234	0x3e6bc458	0.23024118
235	0x3f20d206	0.6282047
236	0xbec3ef12	-0.38268334
237	0x3f89766f	1.0739268
238	0xbeb9b1ca	-0.36268455
239	0xbf2681ff	-0.6504211
240	0xbf324488	-0.6963582
241	0xbd1532d2	-0.03642542
242	0xbd9ebce5	-0.077508725
243	0xbedb60f0	-0.42847395
244	0x3f0bf91a	0.54676974
245	0x3eebfd31	0.46091607
246	0xbf239d4c	-0.6391189
247	0x3ee9bcf6	0.45651978
248	0x3f90701c	1.1284213
249	0x3e73a4b1	0.23793294
250	0x3e39df54	0.18151599
251	0x3e6add34	0.22935945
252	0xbdcf8601	-0.10132981
253	0x3ee5a08e	0.44849056
254	0xbf2e5df3	-0.68112105
255	0x3e715d96	0.23570856

network_body._body_endoder.seq_layers.0.bias f4 [128]
0	0x00000000	0.0
1	0x00000000	0.0
2	0x00000000	0.0
3	0x00000000	0.0
4	0x00000000	0.0
5	0x00000000	0.0
6	0x00000000	0.0
7	0x00000000	0.0
8	0x00000000	0.0
9	0x00000000	0.0
10	0x00000000	0.0
11	0x00000000	0.0
12	0x00000000	0.0
13	0x00000000	0.0
14	0x00000000	0.0
15	0x00000000	0.0
16	0x00000000	0.0
17	0x00000000	0.0
18	0x00000000	0.0
19	0x00000000	0.0
20	0x00000000	0.0
21	0x00000000	0.0
22	0x00000000	0.0
23	0x00000000	0.0
24	0x00000000	0.0
25	0x00000000	0.0
26	0x00000000	0.0
27	0x00000000	0.0
28	0x00000000	0.0
29	0x00000000	0.0
30	0x00000000	0.0
31	0x00000000	0.0
32	0x00000000	0.0
33	0x00000000	0.0
34	0x00000000	0.0
35	0x00000000	0.0
36	0x00000000	0.0
37	0x00000000	0.0
38	0x00000000	0.0
39	0x00000000	0.0
40	0x00000000	0.0
41	0x00000000	0.0
42	0x00000000	0.0
43	0x00000000	0.0
44	0x00000000	0.0
45	0x00000000	0.0
46	0x00000000	0.0
47	0x00000000	0.0
48	0x00000000	0.0
49	0x00000000	0.0
50	0x00000000	0.0
51	0x00000000	0.0
52	0x00000000	0.0
53	0x00000000	0.0
54	0x00000000	0.0
55	0x00000000	0.0
56	0x00000000	0.0
57	0x00000000	0.0
58	0x00000000	0.0
59	0x00000000	0.0
60	0x00000000	0.0
61	0x00000000	0.0
62	0x00000000	0.0
63	0x00000000	0.0
64	0x00000000	0.0
65	0x00000000	0.0
66	0x00000000	0.0
67	0x00000000	0.0
68	0x00000000	0.0
69	0x00000000	0.0
70	0x00000000	0.0
71	0x00000000	0.0
72	0x00000000	0.0
73	0x00000000	0.0
74	0x00000000	0.0
75	0x00000000	0.0
76	0x00000000	0.0
77	0x00000000	0.0
78	0x00000000	0.0
79	0x00000000	0.0
80	0x00000000	0.0
81	0x00000000	0.0
82	0x00000000	0.0
83	0x00000000	0.0
84	0x00000000	0.0
85	0x00000000	0.0
86	0x00000000	0.0
87	0x00000000	0.0
88	0x00000000	0.0
89	0x00000000	0.0
90	0x00000000	0.0
91	0x00000000	0.0
92	0x00000000	0.0
93	0x00000000	0.0
94	0x00000000	0.0
95	0x00000000	0.0
96	0x00000000	0.0
97	0x00000000	0.0
98	0x00000000	0.0
99	0x00000000	0.0
100	0x00000000	0.0
101	0x00000000	0.0
102	0x00000000	0.0
103	0x00000000	0.0
104	0x00000000	0.0
105	0x00000000	0.0
106	0x00000000	0.0
107	0x00000000	0.0
108	0x00000000	0.0
109	0x00000000	0.0
110	0x00000000	0.0
111	0x00000000	0.0
112	0x00000000	0.0
113	0x00000000	0.0
114	0x00000000	0.0
115	0x00000000	0.0
116	0x00000000	0.0
117	0x00000000	0.0
118	0x00000000	0.0
119	0x00000000	0.0
120	0x00000000	0.0
121	0x00000000	0.0
122	0x00000000	0.0
123	0x00000000	0.0
124	0x00000000	0.0
125	0x00000000	0.0
126	0x00000000	0.0
127	0x00000000	0.0

network_body._body_endoder.seq_layers.2.weight f4 [128, 128]
0	0x3e311470	0.17292953
1	0xbe00b962	-0.12570718
2	0xbcc63623	-0.024195736
3	0x3de14f61	0.110014684
4	0x3cd1524b	0.025551936
5	0x38cd0992	9.776944e-05
6	0x3d8c632d	0.06854854
7	0xbc8668be	-0.016407367
8	0x3e121925	0.14267404
9	0xbda53764	-0.080672055
10	0xbdba717e	-0.09103678
11	0x3d804b20	0.06264329
12	0xbdb35a32	-0.08757438
13	0xbd14cccf	-0.036328133
14	0x3e2e307b	0.17010681
15	0xbe02ab03	-0.12760548
16	0x3c9bf870	0.019039363
17	0x3e15ad75	0.1461695
18	0x3e4456cd	0.19173737
19	0x3dbea19d	0.09308169
20	0xbc866083	-0.016403442
21	0xbc32c064	-0.010910127
22	0xbb529da9	-0.003213743
23	0xbd837ef3	-0.06420698
24	0x3b13a7f7	0.0022530535
25	0xbd42d42e	-0.04756563
26	0xbd7de68f	-0.061987456
27	0x3cc4fb0b	0.024045488
28	0xbd759548	-0.05995682
29	0xbc8a79fa	-0.016903866
30	0x3e238ae4	0.15970951
31	0xbdab71ad	-0.08371291
32	0xbc9631bf	-0.018334268
33	0x3cc23c36	0.023710351
34	0xbceb9067	-0.02875538
35	0xbe0ec865	-0.13943632
36	0x3bf23d7c	0.0073925834
37	0xbd3d47bb	-0.046210986
38	0xbda2890a	-0.079362944
39	0xbde4a829	-0.111648865
40	0xbd3225fe	-0.043493263
41	0xbd1d667e	-0.038427822
42	0xbe120356	-0.14259085
43	0xbcc4f67b	-0.024043312
44	0x3c72572c	0.014791291
45	0x3c96cd0c	0.01840832
46	0xbca8506b	-0.020546159
47	0x3d437d8f	0.047727164
48	0xbb951381	-0.004549444
49	0xbe0aa53d	-0.13539596
50	0xbdf051bf	-0.11734342
51	0xbe3f2af0	-0.18668723
52	0x3d105534	0.035237506
53	0x3dae98c6	0.08525233
54	0x3c90eb79	0.017690407
55	0xbcf84189	-0.030304687
56	0xbd0dbbd2	-0.034602948
57	0x3e2690f4	0.16266233
58	0xbdd2b58f	-0.10288536
59	0xbcaf8232	-0.021424387
60	0xba9469d2	-0.0011323041
61	0xbb9d934e	-0.00480882
62	0xbd169de4	-0.03677167
63	0x3e04661e	0.1292958
64	0xbd1fe949	-0.039040837
65	0xbde83814	-0.11338821
66	0x3cf30f1f	0.029670296
67	0xbdfbc173	-0.12292757
68	0xbcfcb315	-0.030847112
69	0xbe4280d8	-0.18994462
70	0x3d7176d5	0.058951218
71	0xbbed8b7c	-0.007249294
72	0xbd9264a5	-0.07148103
73	0xbc0757f4	-0.008260716
74	0xbe10ceb5	-0.14141352
75	0xbd66769c	-0.05626546
76	0xbc5cbad7	-0.01347228
77	0x3d864a90	0.065571904
78	0xbd263922	-0.04058183
79	0x3dd534d6	0.10410468
80	0x3d73736a	0.05943624
81	0x3dda20a4	0.10650757
82	0xbd64ae04	-0.055830017
83	0x3d327427	0.043567803
84	0x3ddb5481	0.10709477
85	0x3d486f95	0.048934538
86	0x3e607293	0.21918707
87	0xbc115b75	-0.008871903
88	0x3c67eac3	0.014155093
89	0x3d5ed271	0.05439991
90	0xbd02efa7	-0.03196683
91	0xbd2bb1a5	-0.041917462
92	0xbdfcb1de	-0.12338613
93	0x3e53fc02	0.20701602
94	0xbd1e0a97	-0.038584318
95	0xbd208dbe	-0.039197676
96	0x3d06de4b	0.03292684
97	0x3e3def41	0.185483
98	0x3d7c08c6	0.061531805
99	0xbdbc9dbe	-0.092097744
100	0xbcaad441	-0.020853164
101	0xbd0a281e	-0.033729665
102	0x3d387f4c	0.045043275
103	0x3e16fea6	0.14745578
104	0x3da11606	0.07865529
105	0x3d244f4c	0.040114686
106	0x3df4003a	0.11914106
107	0xbda9adf0	-0.08285129
108	0xbdd358ef	-0.10319697
109	0xbe276628	-0.16347563
110	0xbdd0d9c3	-0.10197785
111	0x3ddaa060	0.1067512
112	0xbdfff242	-0.12497379
113	0x3cff7a80	0.031186342
114	0x3dd85656	0.10563342
115	0x3dc78915	0.09742943
116	0xbd39bb6e	-0.045344763
117	0xbc000256	-0.007813057
118	0x3d40af7e	0.047042362
119	0x3d740ba2	0.059581406
120	0xbde9da80	-0.11418629
121	0x3d3d7d56	0.046262108
122	0x3ca8e6aa	0.020617802
123	0x3e0c3abf	0.13694285
124	0xbd6fadb7	-0.058515277
125	0xbd860d0d	-0.06545458
126	0xbd323f20	-0.043517232
127	0x3d667670	0.056265295
128	0xbde977fd	-0.11399839
129	0x3cecfa03	0.028927809
130	0xbd3b4394	-0.045718744
131	0xbdcbb472	-0.099465266
132	0x3e18954a	0.149007
133	0xbd8c57a6	-0.06852655
134	0xbd2c69c9	-0.042093072
135	0x3cecd791	0.028911384
136	0xbd3b8778	-0.04578349
137	0xbd24d84e	-0.040245347
138	0xbb3893e0	-0.0028164312
139	0xbc773f4b	-0.015090774
140	0xbe114142	-0.1418505
141	0x3d238c0c	0.03992848
142	0xbccf9bc5	-0.025342831
143	0xbda41ced	-0.0801333
144	0x3df703fa	0.12061305
145	0x3dcab8eb	0.098985516
146	0x3cf3852e	0.029726591
147	0xb9056f4d	-0.00012725331
148	0xbdef4c7e	-0.116845116
149	0xbcdb4b5b	-0.02676933
150	0xbdaa7fa0	-0.08325124
151	0xbd0d3a20	-0.03447926
152	0xbd2ea5b4	-0.042638496
153	0xb9544e5c	-0.00020247087
154	0xbcbf6d3d	-0.023367519
155	0x3d9b9322	0.07596423
156	0xbb5985c3	-0.00331913
157	0x3d523f9d	0.051330198
158	0x3e1f08d2	0.15530708
159	0x3da0955a	0.078409865
160	0xbdd92c37	-0.106041364
161	0x3d856855	0.065140404
162	0x3b71a302	0.0036870842
163	0xba8897ee	-0.0010421255
164	0xbd047ae1	-0.03234375
165	0x3dbfc2a4	0.09363297
166	0xbcf59d82	-0.029982332
167	0x3ca61d86	0.02027775
168	0xbd4f9227	-0.05067649
169	0xbdc51154	-0.09622446
170	0xbdaa5409	-0.0831681
171	0xbc0406a7	-0.008058227
172	0xbd8b008d	-0.067872144
173	0x3db6b3b3	0.08920994
174	0x3de7fff7	0.11328118
175	0xbdb16e4f	-0.08663618
176	0xbc39e43a	-0.011345917
177	0xbe2378e8	-0.15964091
178	0x3d327e5f	0.043577548
179	0xbd95626f	-0.07294165
180	0xbd39fd5b	-0.045407634
181	0xbd92cb1b	-0.071676455
182	0xbe243d64	-0.16039044
183	0x3d934f8a	0.07192905
184	0x3d4481b2	0.04797525
185	0x3d719e0f	0.058988627
186	0x3c7fe734	0.015619088
187	0xbd3b12cd	-0.045672227
188	0xbdcec6e3	-0.100965284
189	0x3defafc9	0.1170345
190	0x3d072e31	0.033003036
191	0x3bc8e295	0.0061305263
192	0xbd136611	-0.03598601
193	0x3d56a3c2	0.052402265
194	0xbc7402b6	-0.014893224
195	0xbdbb4d60	-0.091456175
196	0x3db22639	0.08698697
197	0x3d8b556e	0.06803404
198	0xbcdb4699	-0.026767062
199	0xbe35fe86	-0.17772874
200	0xbd838c16	-0.06423204
201	0x3d7feb25	0.06248011
202	0x3d9af115	0.07565514
203	0xbc6f2037	-0.014595083
204	0x3c9b51b7	0.018959863
205	0x3d6a90c4	0.057266966
206	0xbd223956	-0.03960546
207	0xbd573fc9	-0.052551065
208	0xbbc01a5a	-0.0058625164
209	0xbd682845	-0.05667903
210	0xbe42d801	-0.19027711
211	0xbd6ef0b2	-0.058335014
212	0x3ca81acb	0.020520588
213	0xbcf00853	-0.029300844
214	0x3dd89ded	0.10576997
215	0xbe1f2780	-0.15542412
216	0xbd9ccb75	-0.07655994
217	0x3db2dd5f	0.087336294
218	0xbd80b113	-0.06283774
219	0x3d508bc8	0.050914556
220	0xbd2c3d26	-0.042050503
221	0xbd1665eb	-0.03671829
222	0xbe77283c	-0.24136442
223	0x3cf62284	0.030045755
224	0x3d32b6b1	0.04363126
225	0xbd26cedb	-0.040724616
226	0x3e11881e	0.14212081
227	0xbcf55eba	-0.029952396
228	0x3cd6223b	0.02613937
229	0xbc8e053d	-0.017336482
230	0xbde33785	-0.11094574
231	0x3d588a11	0.052866045
232	0x3e2dd622	0.16976216
233	0xb847cf5c	-4.7638416e-05
234	0xbd07c9c4	-0.033151403
235	0xbd3b0d15	-0.045666773
236	0xbd958b32	-0.0730194
237	0xbd309da8	-0.043119103
238	0xbc43afd9	-0.011943781
239	0x3d04b607	0.032400157
240	0xbd2541f9	-0.04034612
241	0x3d683f69	0.056701098
242	0x3d0be674	0.034155324
243	0xbd2e53d8	-0.04256043
244	0x3ddea872	0.10871972
245	0xbd6528c8	-0.055947095
246	0xbd5fa39e	-0.054599397
247	0xbe1e4824	-0.15457207
248	0xbd75d652	-0.060018845
249	0xbc6f32d8	-0.014599524
250	0x3a0cc071	0.0005369252
251	0xbe082f38	-0.13299263
252	0x3cb5df97	0.022201343
253	0xbc953987	-0.018215908
254	0x3dc7f203	0.09762957
255	0xbb7b5ccc	-0.0038354872

network_body._body_endoder.seq_layers.2.bias f4 [128]
0	0x00000000	0.0
1	0x00000000	0.0
2	0x00000000	0.0
3	0x00000000	0.0
4	0x00000000	0.0
5	0x00000000	0.0
6	0x00000000	0.0
7	0x00000000	0.0
8	0x00000000	0.0
9	0x00000000	0.0
10	0x00000000	0.0
11	0x00000000	0.0
12	0x00000000	0.0
13	0x00000000	0.0
14	0x00000000	0.0
15	0x00000000	0.0
16	0x00000000	0.0
17	0x00000000	0.0
18	0x00000000	0.0
19	0x00000000	0.0
20	0x00000000	0.0
21	0x00000000	0.0
22	0x00000000	0.0
23	0x00000000	0.0
24	0x00000000	0.0
25	0x00000000	0.0
26	0x00000000	0.0
27	0x00000000	0.0
28	0x00000000	0.0
29	0x00000000	0.0
30	0x00000000	0.0
31	0x00000000	0.0
32	0x00000000	0.0
33	0x00000000	0.0
34	0x00000000	0.0
35	0x00000000	0.0
36	0x00000000	0.0
37	0x00000000	0.0
38	0x00000000	0.0
39	0x00000000	0.0
40	0x00000000	0.0
41	0x00000000	0.0
42	0x00000000	0.0
43	0x00000000	0.0
44	0x00000000	0.0
45	0x00000000	0.0
46	0x00000000	0.0
47	0x00000000	0.0
48	0x00000000	0.0
49	0x00000000	0.0
50	0x00000000	0.0
51	0x00000000	0.0
52	0x00000000	0.0
53	0x00000000	0.0
54	0x00000000	0.0
55	0x00000000	0.0
56	0x00000000	0.0
57	0x00000000	0.0
58	0x00000000	0.0
59	0x00000000	0.0
60	0x00000000	0.0
61	0x00000000	0.0
62	0x00000000	0.0
63	0x00000000	0.0
64	0x00000000	0.0
65	0x00000000	0.0
66	0x00000000	0.0
67	0x00000000	0.0
68	0x00000000	0.0
69	0x00000000	0.0
70	0x00000000	0.0
71	0x00000000	0.0
72	0x00000000	0.0
73	0x00000000	0.0
74	0x00000000	0.0
75	0x00000000	0.0
76	0x00000000	0.0
77	0x00000000	0.0
78	0x00000000	0.0
79	0x00000000	0.0
80	0x00000000	0.0
81	0x00000000	0.0
82	0x00000000	0.0
83	0x00000000	0.0
84	0x00000000	0.0
85	0x00000000	0.0
86	0x00000000	0.0
87	0x00000000	0.0
88	0x00000000	0.0
89	0x00000000	0.0
90	0x00000000	0.0
91	0x00000000	0.0
92	0x00000000	0.0
93	0x00000000	0.0
94	0x00000000	0.0
95	0x00000000	0.0
96	0x00000000	0.0
97	0x00000000	0.0
98	0x00000000	0.0
99	0x00000000	0.0
100	0x00000000	0.0
101	0x00000000	0.0
102	0x00000000	0.0
103	0x00000000	0.0
104	0x00000000	0.0
105	0x00000000	0.0
106	0x00000000	0.0
107	0x00000000	0.0
108	0x00000000	0.0
109	0x00000000	0.0
110	0x00000000	0.0
111	0x00000000	0.0
112	0x00000000	0.0
113	0x00000000	0.0
114	0x00000000	0.0
115	0x00000000	0.0
116	0x00000000	0.0
117	0x00000000	0.0
118	0x00000000	0.0
119	0x00000000	0.0
120	0x00000000	0.0
121	0x00000000	0.0
122	0x00000000	0.0
123	0x00000000	0.0
124	0x00000000	0.0
125	0x00000000	0.0
126	0x00000000	0.0
127	0x00000000	0.0

action_model._continuous_distribution.mu.weight f4 [1, 128]
0	0xbc3c5d63	-0.0114968745
1	0xbb274ffb	-0.002552985
2	0x3cb14dfa	0.021643627
3	0x3bf0acdd	0.0073448257
4	0x3d0988b3	0.033577632
5	0x398e6a21	0.00027163423
6	0xbc86c8aa	-0.016453106
7	0xbce3bb7a	-0.027799357
8	0x3d7eefc8	0.062240392
9	0xbcdf6732	-0.027270887
10	0x3b045bb1	0.0020196254
11	0x3c7c2588	0.0153898075
12	0x3ca1e38a	0.01976182
13	0xbc2603db	-0.010132755
14	0xbb942454	-0.004520932
15	0x3c957e16	0.018248599
16	0xbc3895ab	-0.011266152
17	0xbc843873	-0.016140198
18	0xbcb11397	-0.021615786
19	0x3d028098	0.031860918
20	0xbc1306eb	-0.008973817
21	0x3b891e39	0.004184511
22	0xbce9af75	-0.028526047
23	0xb994b8a2	-0.00028366322
24	0x3bb534f5	0.0055299946
25	0xbc3bd776	-0.011464944
26	0xbc38ce7b	-0.0112796975
27	0x3c9a56ab	0.018840155
28	0x3c4dcdf7	0.012561313
29	0xbbab53a7	-0.005228478
30	0xba09a9cd	-0.00052514375
31	0x3cecccf0	0.028906316
32	0x3cc8db99	0.024518775
33	0x3c10b865	0.008833026
34	0x3ab9db5b	0.0014179753
35	0x3c838886	0.01605631
36	0x3cb80a94	0.022465982
37	0xbcaced53	-0.021109259
38	0x3c9ed111	0.0193868
39	0xbd0c023c	-0.03418182
40	0xbc263ef5	-0.010146846
41	0x3c33aeb5	0.010966946
42	0x3d0b5383	0.03401519
43	0xbc1fe293	-0.009758609
44	0x38f835fb	0.00011835616
45	0xbbdc950d	-0.0067316354
46	0x3ab3b870	0.0013711583
47	0xbc2219d9	-0.009893858
48	0x3c9ddcdf	0.019270359
49	0xbad9133b	-0.0016561517
50	0x3cb8d335	0.022561649
51	0x3cc5c496	0.024141591
52	0xbd109252	-0.035295792
53	0x3adc4510	0.001680525
54	0x3c56d1d5	0.013111551
55	0x3b710167	0.0036774518
56	0x3d0b171c	0.033957586
57	0xbcb6b299	-0.022301959
58	0x3a340f8f	0.00068687735
59	0xbc980656	-0.018557709
60	0x3c9a5176	0.018837672
61	0xbba8d8b3	-0.0051527857
62	0xbc33d7df	-0.010976761
63	0x3b83eed5	0.0040262737
64	0xbc80352d	-0.015650356
65	0xbc25440e	-0.010087026
66	0xbb8d1555	-0.0043055215
67	0xbc4afae7	-0.012388921
68	0x3a91c5e4	0.0011121598
69	0xbc935935	-0.017986873
70	0xbc93084d	-0.017948294
71	0xbc10943c	-0.008824404
72	0x3a02280d	0.00049650745
73	0x3b7d64aa	0.0038664737
74	0x3aafd8eb	0.0013416087
75	0x3ccd9b28	0.025098398
76	0xbc7af013	-0.015316027
77	0xbc15ed73	-0.009150851
78	0x3d08538f	0.033282813
79	0x3c296910	0.01033999
80	0x3b5f9ebd	0.0034121715
81	0xbcc51151	-0.024056109
82	0xbce8d59f	-0.028422175
83	0x3bc6fbc8	0.006072495
84	0xbc434eef	-0.011920675
85	0xbd34e989	-0.04416803
86	0xbd3e4020	-0.046447873
87	0x3c0ac39f	0.008469491
88	0xbc145930	-0.009054467
89	0xbc74777a	-0.014921064
90	0x3b777b3b	0.003776266
91	0xbc4c64ca	-0.012475202
92	0xbcb87e83	-0.022521263
93	0x3c699047	0.01425559
94	0x3bfa6b6b	0.0076421998
95	0xbce0e66d	-0.027453626
96	0x3d124ab2	0.035715766
97	0x3c663f1f	0.014053135
98	0x3c2719cc	0.010199022
99	0xb988f827	-0.0002612483
100	0x3ba9ef9d	0.005186035
101	0x3a898f51	0.0010494982
102	0x3ca14444	0.019685872
103	0x3c851f8a	0.01625039
104	0x3c44893f	0.011995613
105	0xbcb4c4d9	-0.02206652
106	0x3baa0b0f	0.0051893066
107	0xbc6327ca	-0.013864467
108	0xbbb40274	-0.0054934565
109	0xbc47a3cb	-0.012185047
110	0xbbedf8aa	-0.007262309
111	0x3cd03c1a	0.025419284
112	0xbcd16518	-0.0255609
113	0xbae47b5d	-0.0017431785
114	0x3c115e92	0.008872645
115	0xbccc26e3	-0.024920886
116	0xbc54a760	-0.012979358
117	0x3c899bc5	0.01679791
118	0x3c062629	0.008187809
119	0x3bf0b018	0.0073452108
120	0xbba7c47b	-0.005119858
121	0x3b8d6808	0.00431538
122	0xbb1b7c44	-0.002372519
123	0x3984bdcc	0.00025318412
124	0x3cc8621a	0.024460841
125	0xbb17728e	-0.0023109051
126	0x3c662a92	0.0140482355
127	0xba1359ab	-0.00056209665

action_model._discrete_distribution.branches.0.weight f4 [3, 128]
0	0x3c017b2e	0.0079029035
1	0x3c0f2b99	0.008738422
2	0xbbf70aa3	-0.00753911
3	0x3bed3c88	0.007239882
4	0xbc0c2e6e	-0.008555992
5	0xbbe0e03b	-0.006862668
6	0x3a9f6f84	0.0012163972
7	0x3ba84419	0.005135071
8	0xbb16d7ae	-0.0023016739
9	0xbb9960ab	-0.004680713
10	0xbba7d9ac	-0.005122384
11	0x3bb98fbf	0.005662888
12	0xbbdd9775	-0.00676244
13	0x3bcdebb3	0.006284201
14	0xbc7f535d	-0.01558384
15	0xbc3731b7	-0.011181287
16	0x3c41886d	0.011812312
17	0x3b326928	0.0027223323
18	0xbb72a302	-0.003702343
19	0xbbb6f240	-0.0055830777
20	0xbbcea8eb	-0.0063067577
21	0x3ba17db7	0.0049283165
22	0x3c294a7f	0.010332703
23	0x3b19ac20	0.0023448542
24	0x3a0b1d1a	0.00053067657
25	0x3bcba104	0.006214263
26	0x3bce8660	0.00630264
27	0xbc009287	-0.007847435
28	0xbc4e1210	-0.012577549
29	0x3c432cb9	0.011912518
30	0xbbf1b415	-0.007376204
31	0xbc27488b	-0.010210167
32	0xbcbaa132	-0.022781942
33	0x3af521ad	0.0018702053
34	0x3c7e48eb	0.015520315
35	0xbc4fcd6a	-0.012683252
36	0x3c304a35	0.01075988
37	0x3a09ef12	0.00052617595
38	0xbc2704ad	-0.010193986
39	0x39ac62c5	0.00032879986
40	0x3bac6483	0.0052610054
41	0xbb986247	-0.0046503874
42	0x3ba211a2	0.0049459497
43	0xbad4f27a	-0.001624658
44	0x3c8ef3a7	0.017450167
45	0x3c5bdf75	0.0134199755
46	0x3b88fcf1	0.0041805436
47	0xbc157cce	-0.009123994
48	0x3a88fbb3	0.0010450989
49	0xbb9cd067	-0.0047855857
50	0xbbc009f3	-0.005860561
51	0x39cbb7df	0.00038856172
52	0x3c0722b3	0.008248019
53	0xbbb191cd	-0.005418992
54	0xbb14feb3	-0.002273482
55	0x3be84af5	0.0070890137
56	0x3ca6e897	0.02037458
57	0x3a5ba025	0.00083780504
58	0xba9ad3e2	-0.0011812414
59	0x3ba9d7ca	0.0051831948
60	0x3a13ab92	0.0005633171
61	0x3c353f25	0.011062418
62	0x3b0c613f	0.0021420268
63	0xbc464253	-0.012100774
64	0x3c15195b	0.0091002835
65	0xbc4e5d02	-0.012595417
66	0x3b6a5a3a	0.0035759346
67	0xbc17b6e7	-0.009259916
68	0x3c2562db	0.01009437
69	0x3b09c489	0.0021021685
70	0x39ab88a6	0.00032717473
71	0xbb83bb25	-0.004020112
72	0x3c575d5b	0.013144816
73	0xbcbeb85e	-0.023281273
74	0x3c47163f	0.0121513
75	0x3bd6e70d	0.006558305
76	0xbc4d6e0d	-0.012538445
77	0xbc5173c2	-0.0127839465
78	0x3b18eec7	0.0023335682
79	0xbc4e439b	-0.012589361
80	0xbbdab492	-0.0066743577
81	0xbb2fb1cf	-0.0026808863
82	0x3c0ed2db	0.008717264
83	0xbc129088	-0.008945592
84	0x3c94df63	0.018172925
85	0x3ba1d2cf	0.0049384604
86	0x3b92411d	0.0044633285
87	0xbb18f947	-0.002334194
88	0x3be7adb8	0.0070702694
89	0x3b133803	0.0022463806
90	0xb8d84ef2	-0.00010314387
91	0xb9aae5cc	-0.0003259614
92	0x3b934125	0.00449385
93	0xbb551573	-0.0032514005
94	0xb9a91ea1	-0.00032257012
95	0xbbdcdfb0	-0.006740533
96	0x3b1173e8	0.002219433
97	0x3c476503	0.012170079
98	0xbc938064	-0.018005557
99	0xbb1b164d	-0.0023664415
100	0x3c344f53	0.0110052405
101	0xbbe05415	-0.006845961
102	0x3bddb00b	0.0067653707
103	0xbc297f33	-0.010345268
104	0xb8bcbb6c	-8.9994486e-05
105	0xbb97da2f	-0.004634164
106	0xbbb54f7b	-0.0055331565
107	0xba486630	-0.00076446217
108	0x3b47eba2	0.0030505438
109	0x3ad6967b	0.0016371751
110	0x3c6b8835	0.014375736
111	0xbc083eed	-0.008315784
112	0x3ad68f43	0.00163696
113	0x3b677a43	0.0035320676
114	0x3b2fa552	0.002680142
115	0x3c0c51a1	0.008564384
116	0xbc13a554	-0.009011585
117	0x3c3e19b2	0.011602806
118	0xbbb6dd5b	-0.005580587
119	0x3ba98ada	0.005174023
120	0x3c60e4aa	0.013726393
121	0x3b95cf08	0.004571799
122	0x3c05f2ad	0.008175534
123	0xbc2a4b30	-0.010393903
124	0xbbe2754b	-0.006910955
125	0x3c502b0f	0.0127055785
126	0xb9cdb373	-0.00039234347
127	0x3b1a3869	0.0023532158
128	0xba7e4847	-0.0009700101
129	0x3cfe49ef	0.031041114
130	0xbc836a3d	-0.01604187
131	0x3be4cef5	0.006982679
132	0x3bb13a30	0.005408548
133	0x3b5aa44b	0.0033362086
134	0xbc107277	-0.008816353
135	0x3c987317	0.018609567
136	0xbbb2fa42	-0.005461962
137	0x3b0e16e2	0.002168112
138	0x3c109926	0.008825576
139	0x3cc25c04	0.023725517
140	0xbb2c7df3	-0.0026320189
141	0x3b0ee4db	0.002180389
142	0xbae319ca	-0.0017326411
143	0x3c802317	0.015641732
144	0xbc0dab62	-0.008646818
145	0xbc7889a2	-0.015169533
146	0xbc02acb4	-0.007975746
147	0xbb0d42bf	-0.0021554676
148	0xbb86eae7	-0.004117358
149	0x3bf8f373	0.007597381
150	0xbbab4ce3	-0.0052276715
151	0x3c2205b3	0.009889054
152	0x3be92aa8	0.0071156807
153	0x3c102e76	0.00880014
154	0xbb44cc11	-0.003002886
155	0xbbaf4c2c	-0.0053496566
156	0xbc01caf7	-0.007921926
157	0x3c8db373	0.017297482
158	0x39d698ed	0.000409312
159	0x3c6935f2	0.014234053
160	0xbc6b9adf	-0.014380186
161	0x3b8473af	0.004042111
162	0x399990a8	0.0002929021
163	0xbc09b6ff	-0.008405446
164	0xbafcbdfd	-0.0019282695
165	0x3be78fff	0.007066726
166	0x3be7ab0b	0.0070699505
167	0x3c05a0ab	0.008155982
168	0xbbbf1466	-0.005831289
169	0x3a460f17	0.0007555349
170	0x3c1c8041	0.0095520625
171	0x3bc55a47	0.006022725
172	0xbc3c929f	-0.011509567
173	0xbbbf61f4	-0.0058405343
174	0x3c8aef92	0.01695994
175	0xbb3d3ad2	-0.002887417
176	0xbbc79e80	-0.0060918927
177	0xbbf1af97	-0.0073756683
178	0x3c0e502a	0.008686105
179	0xba1b4b0e	-0.0005923965
180	0xbbc39892	-0.0059691155
181	0x3c737d4f	0.014861419
182	0x3c411bb2	0.011786388
183	0x3b3e2818	0.0029015597
184	0xbbcbdabf	-0.006221145
185	0xbbbc31b4	-0.0057432298
186	0xbb8b447e	-0.0042501083
187	0x3c4eff58	0.012634121
188	0x3c257ecd	0.010101032
189	0x3c86107c	0.016365282
190	0xbbcd4bb8	-0.00626513
191	0x3bd63c73	0.006537968
192	0xbb64a045	-0.0034885567
193	0x3adb6e7b	0.00167413
194	0x3ba036f8	0.0048893653
195	0xbbb13304	-0.005407693
196	0x3b04950b	0.0020230438
197	0xb8888430	-6.509607e-05
198	0x3c51f22b	0.012814085
199	0xbb42c430	-0.0029718988
200	0x3a6e7257	0.00090960175
201	0xbaf3bd97	-0.0018595931
202	0x3b1a0ea1	0.0023507255
203	0x3aab4b7a	0.0013068758
204	0xbc992f74	-0.018699385
205	0xbb9c1e37	-0.004764344
206	0xbb14596c	-0.0022636307
207	0xbb4b9945	-0.0031066698
208	0x3b92f355	0.004484574
209	0x3c4238eb	0.011854391
210	0xbbdb707b	-0.0066967583
211	0xb9086bef	-0.00013010179
212	0x3be22c6b	0.0069022677
213	0x3c5db7fa	0.013532633
214	0x3c69e4a0	0.0142757
215	0x3a4bee17	0.00077793136
216	0x3b2ce2d3	0.0026380315
217	0xbbd55be7	-0.0065111998
218	0xbb1e285a	-0.0024132938
219	0xbcb75751	-0.022380503
220	0xbc2ae702	-0.010431053
221	0xbc4a1637	-0.012334398
222	0x3b507952	0.0031810594
223	0x3bb2d3b0	0.005457364
224	0xbc59caca	-0.013292978
225	0xbaae815b	-0.0013313697
226	0xbacc52a3	-0.0015588593
227	0xbacede22	-0.0015782753
228	0xbc399b09	-0.011328467
229	0x3ba413c3	0.0050072386
230	0xbb46e2f5	-0.003034768
231	0xbbbe431a	-0.005806339
232	0x3c27ba98	0.0102373585
233	0x3be483ba	0.006973711
234	0x3b21af7f	0.0024671254
235	0x3b189ec0	0.0023287982
236	0x3c7c44e5	0.015397285
237	0xbc26a953	-0.010172206
238	0xbc617395	-0.013760467
239	0xbb9bc955	-0.0047542253
240	0xbbb440f5	-0.0055009075
241	0xba8b1a13	-0.0010612629
242	0x3aaa9c60	0.0013016574
243	0x3c5f550a	0.013631115
244	0xbbc1427a	-0.005897817
245	0x3aa58828	0.0012629079
246	0xbc343397	-0.010998628
247	0xbbfa47aa	-0.0076379376
248	0x3c032388	0.008004077
249	0x3ca1b3b9	0.019739019
250	0xbc00fefc	-0.007873293
251	0x3c28ea0b	0.010309706
252	0x3b21dc96	0.002469813
253	0x3bb8a2fc	0.0056346636
254	0x3be202af	0.0068972926
255	0x3ba48971	0.005021267

action_model._discrete_distribution.branches.0.bias f4 [3]
0	0x00000000	0.0
1	0x00000000	0.0
2	0x00000000	0.0

action_model._discrete_distribution.branches.1.weight f4 [2, 128]
0	0xbb2d8b8b	-0.002648088
1	0x3bef2c0d	0.0072989524
2	0x3c88de94	0.016707696
3	0xbc30acf9	-0.010783427
4	0x3c273c5c	0.010207262
5	0xbbc32e45	-0.0059564435
6	0xbbb8f9a1	-0.0056449925
7	0x3a27fc43	0.00064081344
8	0xbb267109	-0.0025396964
9	0x3afa6d38	0.0019106036
10	0x3c8bac8f	0.017050056
11	0x3c411fe3	0.011787388
12	0x3ad833eb	0.0016494965
13	0xbb98eb19	-0.0046666977
14	0x3b78cdb0	0.0037964396
15	0x3abd4504	0.0014440124
16	0xbc66a0d2	-0.0140764285
17	0xbbea28c0	-0.007145971
18	0x3a6b4cb5	0.0008975969
19	0xbc068e87	-0.008212692
20	0xbba735e0	-0.005102858
21	0xbc6b7dff	-0.0143733015
22	0x3c42668f	0.011865272
23	0x3ca37280	0.019952059
24	0xbb32d1ef	-0.0027285775
25	0x39e94003	0.00044488916
26	0xbb8268c6	-0.003979775
27	0xba2d13aa	-0.00066023564
28	0xbcdbfd22	-0.026854102
29	0xbb2ed4cb	-0.0026677127
30	0xbacbe268	-0.0015555145
31	0x3c0a5990	0.008444205
32	0xbb1a993f	-0.0023589877
33	0x3b3a9493	0.0028469905
34	0x3ab4b597	0.0013787028
35	0xbb5ec2b2	-0.003399056
36	0x3ae14778	0.0017187437
37	0xba154b9b	-0.0005695165
38	0x3a6e9d30	0.0009102402
39	0x3a9fe3cf	0.001219863
40	0xbaa75488	-0.0012766281
41	0xbc45e1ff	-0.012077807
42	0xbc4c6e9d	-0.012477544
43	0xbbdaf86a	-0.0066824453
44	0x3ccc8e7f	0.024970291
45	0xbb406247	-0.0029355453
46	0xbc672f3f	-0.014110385
47	0xbac470e3	-0.0014987256
48	0x3b111819	0.0022139607
49	0xbc936c01	-0.017995836
50	0x3bdec9e7	0.006798971
51	0x3b9b81c1	0.0047456925
52	0x3bc2ed1b	0.0059486753
53	0xbc088ec0	-0.0083348155
54	0xbbb20847	-0.0054331156
55	0xbac96e9a	-0.0015368045
56	0xbba77766	-0.005110669
57	0xbbb53312	-0.0055297697
58	0xb852cb4b	-5.0257233e-05
59	0x39f91b47	0.00047513304
60	0x3b9ace28	0.004724283
61	0xbbbd25bb	-0.00577232
62	0xbbe94540	-0.007118851
63	0x3b84c516	0.004051815
64	0x3bacc38d	0.005272335
65	0xbc09d482	-0.008412482
66	0x3c204f0a	0.009784469
67	0xbc239200	-0.00998354
68	0x3be24c07	0.006906036
69	0x3bc6b9fc	0.0060646515
70	0xbc97153e	-0.018442746
71	0x3c10de44	0.008842055
72	0x3bec827f	0.007217705
73	0xbc8613ed	-0.016366923
74	0xbc825395	-0.015908996
75	0x3c11a582	0.008889558
76	0xbb57c057	-0.003292104
77	0x3bc5d652	0.006037512
78	0x3b856656	0.0040710373
79	0xb919300b	-0.00014609114
80	0xbc91b338	-0.017785653
81	0xbaf60f00	-0.0018772781
82	0x3c0166b9	0.007898026
83	0x3ac4595c	0.0014980244
84	0xbca5bd5f	-0.0202319
85	0xba931c24	-0.0011223597
86	0xbba7c2dd	-0.005119665
87	0x3b760c7f	0.003754407
88	0x3bfe6087	0.007762972
89	0xbaeb8a77	-0.0017970343
90	0xbc496cf8	-0.012294047
91	0xbb62cdd7	-0.0034607553
92	0x3bca0d38	0.0061661266
93	0xbb034fef	-0.0020036658
94	0x3b53d187	0.0032320933
95	0xbb968123	-0.004593031
96	0xbbba465b	-0.0056846566
97	0x3c591942	0.013250651
98	0xbb38bb15	-0.0028187681
99	0x3b6fe3b0	0.0036604218
100	0xbbc60a8c	-0.0060437378
101	0x3b14f15e	0.0022726874
102	0x3b00306e	0.0019560116
103	0x3c0dced7	0.0086552715
104	0x3c1adea2	0.009452494
105	0x3c2533ab	0.010083119
106	0x3af7957a	0.0018889152
107	0xbb73b190	-0.0037184693
108	0x3c937707	0.018001093
109	0x3af3ef2b	0.0018610706
110	0x3c4facea	0.012675503
111	0xbb9d2b03	-0.004796387
112	0xba8034ef	-0.00097814
113	0x3b3dd637	0.0028966793
114	0x3a668a47	0.00087944086
115	0x3bd6a02f	0.006549857
116	0xbc2505e9	-0.01007221
117	0xbb210fe1	-0.0024576115
118	0x3afdc367	0.0019360603
119	0x3c01706b	0.007900338
120	0x3bb368ce	0.00547514
121	0xbc195aab	-0.009359996
122	0x3c713f63	0.014724585
123	0xbb41bb3e	-0.0029561068
124	0x3ba7b7fb	0.0051183677
125	0xbb855c7b	-0.0040698624
126	0xbb62c5fa	-0.0034602867
127	0x3b8a1df5	0.004214997
128	0xbb55fc8a	-0.0032651746
129	0xbbbde768	-0.005795408
130	0x3c0a652a	0.008446971
131	0xbbf5670d	-0.0074890913
132	0xbb8a5c04	-0.004222395
133	0xbacb5d6c	-0.0015515513
134	0x3c6cc548	0.014451332
135	0x3c0220a6	0.007942354
136	0x3ada413d	0.0016651523
137	0xbaa38977	-0.0012476881
138	0xbc1b4f18	-0.009479307
139	0xbc3a2835	-0.011362125
140	0x3c3aa974	0.01139294
141	0x3c86c8a7	0.0164531
142	0x3a88ed2b	0.0010446658
143	0x3aac9fb7	0.0013170157
144	0x3c83d70b	0.016093751
145	0x3c5e1dd3	0.013556915
146	0xbb926f85	-0.0044688606
147	0xbb306457	-0.0026915276
148	0xbc455690	-0.012044564
149	0x3ba831e3	0.0051329
150	0x3b86f8f0	0.004119031
151	0x3cb92c2a	0.022604067
152	0xbc8f2fe5	-0.017478893
153	0x3a98f172	0.0011668636
154	0x3c0c9aab	0.008581798
155	0xbb676be3	-0.0035312108
156	0xbc52ec8b	-0.012873779
157	0xbbb76d7f	-0.0055977697
158	0x3b119cfe	0.0022218819
159	0x3b9ca62a	0.0047805505
160	0xbbdfbf08	-0.0068281926
161	0xbc180560	-0.009278625
162	0xbc6a91eb	-0.014317016
163	0xbbda709b	-0.0066662556
164	0xb9da56a2	-0.00041644747
165	0x3b647cfa	0.003486453
166	0x3b1538c1	0.0022769424
167	0x3cbf5764	0.0233571
168	0xbc2b9d70	-0.010474548
169	0x3a322760	0.00067960285
170	0x3ac4f2d7	0.0015025985
171	0xbbd22563	-0.0064131483
172	0xba5213f7	-0.0008013839
173	0x3b315219	0.002705699
174	0x3b793a37	0.0038029084
175	0x3c8fcd04	0.017553814
176	0xbb6373c3	-0.003470645
177	0xbc1406bb	-0.009034808
178	0x3c09ba43	0.008406225
179	0x3c6b6672	0.014367687
180	0x3c0f19f2	0.008734213
181	0x3c4e434f	0.01258929
182	0xbbba927f	-0.005693733
183	0xbba94030	-0.0051651224
184	0x3b77a78a	0.003778907
185	0x3c083493	0.008313316
186	0xbb843ab6	-0.004035319
187	0x3bc65ea4	0.0060537625
188	0xbc5983af	-0.013276025
189	0xba0d6287	-0.0005393405
190	0xbc034ddc	-0.008014169
191	0xbc409186	-0.0117534455
192	0x3c5726f7	0.013131849
193	0x3c9547b1	0.018222662
194	0x3b7130b7	0.0036802718
195	0x3b5de60b	0.003385904
196	0x3c82a6dd	0.015948707
197	0x39cf1c2a	0.000395031
198	0xbc2fc035	-0.010726978
199	0x3b44cb25	0.003002831
200	0x3b8120f3	0.0039406954
201	0x3c11c7e7	0.008897758
202	0xbbcd0053	-0.006256142
203	0x3c825fbe	0.015914794
204	0xbc913ad1	-0.017728241
205	0xba070719	-0.0005150899
206	0x3c8e2a21	0.017354073
207	0x3c1bfc87	0.009520656
208	0x3bb91425	0.0056481534
209	0xba997ab5	-0.0011709543
210	0xbc9a9b75	-0.018872956
211	0xbc8fc723	-0.01755101
212	0x3c4b82f6	0.01242136
213	0xbc1ecd2a	-0.00969247
214	0x3bff4985	0.0077907466
215	0x3bf51bff	0.007480144
216	0xbb8d1954	-0.004305998
217	0x39f26b3b	0.0004623773
218	0x3b8883fb	0.004166124
219	0xbc6316f2	-0.013860451
220	0xbca7d5ab	-0.020487627
221	0x3c2be183	0.010490778
222	0x3c015e61	0.007896037
223	0x3c80af8f	0.015708713
224	0xbc9e0620	-0.01929003
225	0xbbe5419a	-0.0069963457
226	0xbc21edee	-0.009883387
227	0x39b7d934	0.0003506631
228	0x3c6d2392	0.014473813
229	0x3c4b8bbf	0.012423455
230	0x3c438eb7	0.011935881
231	0xbb236873	-0.0024934083
232	0xb9f4a7e3	-0.00046664392
233	0x3c629dc0	0.013831556
234	0x3b8aef97	0.004239987
235	0x3b617425	0.0034401503
236	0x3a039ea7	0.00050208945
237	0x3b6276c5	0.0034555655
238	0x3a643525	0.0008705429
239	0x3c832049	0.016006606
240	0xbb894e6f	-0.004190258
241	0x3b557d12	0.0032575768
242	0xbbf87df2	-0.007583373
243	0xb9ba164a	-0.0003549329
244	0xbc17b93d	-0.009260473
245	0x3c06c641	0.008225978
246	0x3b3c80c1	0.0028763267
247	0xbacb4751	-0.0015508925
248	0xbb958e27	-0.004564065
249	0xbc005085	-0.007831697
250	0x3bf5e9bf	0.0075046713
251	0xbc486f0b	-0.012233506
252	0x3c0d6318	0.008629583
253	0xbbdfa385	-0.006824913
254	0xbb40dce4	-0.0029428536
255	0xbc6cf577	-0.01446282

action_model._discrete_distribution.branches.1.bias f4 [2]
0	0x00000000	0.0
1	0x00000000	0.0

network_body._body_endoder.seq_layers.0.weight f4 [128, 5]
0	0x3e34c15a	0.17651883
1	0x3e84d725	0.25945392
2	0xbf2c84e9	-0.67390305
3	0x3eca14ec	0.39469087
4	0x3ebfb305	0.3744127
5	0xbf5f8c2b	-0.87323254
6	0x3e9e9c1a	0.3097847
7	0xbe4528c5	-0.19253834
8	0x3e0d2d16	0.1378673
9	0xbe2efaa5	-0.17087801
10	0xbe0c44e5	-0.13698156
11	0xbf3a9201	-0.72879034
12	0xbf32178a	-0.6956717
13	0x3e42a14e	0.19006845
14	0x3d68519c	0.056718454
15	0x3ee3f3f7	0.44522068
16	0x3eb96dd6	0.3621661
17	0x3f45378d	0.7703789
18	0x3ec4b1e1	0.3841696
19	0xbf223fc6	-0.6337856
20	0xbf921c75	-1.1414934
21	0xbf149d94	-0.58052945
22	0xbeb8f805	-0.36126724
23	0xbd96ca32	-0.073627844
24	0xbec10b67	-0.37704012
25	0x3f182f07	0.5944676
26	0x3daebbdf	0.08531927
27	0x3de9e263	0.11420133
28	0x3e86f129	0.26355866
29	0x3dd11ae5	0.10210208
30	0x3e7e390d	0.2482645
31	0xbe9ce179	-0.30640772
32	0x3ecc95cb	0.39958033
33	0xbe89c90e	-0.26911205
34	0xbf883ec6	-1.0644157
35	0xbdaa3045	-0.08309988
36	0x3e1f6141	0.15564443
37	0x3dc9b991	0.09849847
38	0xbf180699	-0.5938507
39	0x3eb79f25	0.35863605
40	0xbe0aceb1	-0.13555409
41	0xbea6005c	-0.3242215
42	0x3d8b845f	0.06812357
43	0xbed96dd1	-0.42466596
44	0xbea9d6d8	-0.33171725
45	0xbf7cf950	-0.9881792
46	0x3ef588d7	0.47955963
47	0x3ea54aa0	0.32283497
48	0xbcd36bd5	-0.025808254
49	0x3ec83a9f	0.39107224
50	0x3e36caaa	0.17850748
51	0x3e1a273b	0.15054028
52	0x3e6875ea	0.2270123
53	0xbddcbc78	-0.10778135
54	0xbf17d2dc	-0.5930612
55	0x3f391ba0	0.7230778
56	0x3f59d6b4	0.85093236
57	0xbdb063d6	-0.08612792
58	0x3e326406	0.17420968
59	0x3d146637	0.036230292
60	0x3ed4ef9d	0.4158906
61	0xbf03d722	-0.5150014
62	0x3ec082dd	0.3759984
63	0x3c41f055	0.011837085
64	0xbf139ae6	-0.5765823
65	0xbf1a4760	-0.6026516
66	0xbf238931	-0.6388121
67	0xbf077f1f	-0.52928346
68	0x3d331b4e	0.04372721
69	0x3d40a50c	0.0470324
70	0x3d9ac08b	0.07556256
71	0xbe966995	-0.29377428
72	0xbe19f153	-0.15033464
73	0xbf595956	-0.8490194
74	0xbf0666eb	-0.5250079
75	0x3edf053b	0.43558678
76	0xbefcbab6	-0.493612
77	0x3edd4666	0.43217772
78	0x3db4345d	0.0879905
79	0xbf9cb662	-1.2243159
80	0x3f68877d	0.9083174
81	0xbeb0ee43	-0.3455678
82	0xbd5e68a5	-0.054299016
83	0xbf4a2502	-0.7896272
84	0xbe530d4a	-0.20610538
85	0x3eb08d45	0.3448278
86	0x3f51026c	0.8164432
87	0xbd9d6d33	-0.07686844
88	0xbf12fd07	-0.5741734
89	0x3e614e4a	0.22002521
90	0xbf01f9d9	-0.5077186
91	0x3da14d6f	0.078760974
92	0xbe9b35be	-0.3031444
93	0xbf945e17	-1.1591214
94	0x3f653ccd	0.895459
95	0x3eff839e	0.49905103
96	0x3e9fe4d7	0.31229278
97	0xbdb9377c	-0.09043786
98	0x3f409dc6	0.75240743
99	0xbf0d1e80	-0.55124664
100	0xbf2a064e	-0.6641587
101	0xbe856e14	-0.26060545
102	0x3ec7a547	0.38993284
103	0xbea123a5	-0.31472507
104	0xbf3f9394	-0.7483456
105	0x3eaca9ac	0.337232
106	0xbf11a540	-0.56892776
107	0xbf21454b	-0.6299636
108	0xbf33c494	-0.7022183
109	0x3f8ab693	1.0836967
110	0xbdf128c4	-0.117753536
111	0x3d310361	0.043216113
112	0xbe44e77a	-0.19228926
113	0x3faf4fad	1.369619
114	0xbe0b9b6a	-0.13633505
115	0x3ea9ba4a	0.3314994
116	0x3ea0439a	0.31301576
117	0xbea68ee5	-0.32530895
118	0xbe3c809d	-0.18408437
119	0x3efa4d7f	0.4888725
120	0x3f2339c2	0.63760006
121	0x3e085d83	0.13316922
122	0x3d6185e2	0.05505932
123	0x3e3fc7fe	0.18728635
124	0x3c253023	0.0100822775
125	0xbf3e724f	-0.7439317
126	0xbee82c72	-0.4534641
127	0xbf1ba685	-0.60800964
128	0xbf474c4e	-0.77850807
129	0x3f24d141	0.64381796
130	0x3ec1d4a0	0.37857533
131	0xbd995e70	-0.07488716
132	0xbeef9fcd	-0.46801606
133	0xbe260d01	-0.16215898
134	0xbe8aab63	-0.27083883
135	0xbdd535bd	-0.104106404
136	0x3e208394	0.15675193
137	0xbc170f2a	-0.009219924
138	0x3bf4f469	0.007475425
139	0xbf6c5282	-0.92313397
140	0xbe49dc16	-0.19712862
141	0x3efe339a	0.49648744
142	0xbd5abdfb	-0.053403836
143	0x3eea78eb	0.45795378
144	0xbe931478	-0.28726554
145	0x3f33dfaa	0.7026316
146	0x3ed307b0	0.41216803
147	0xbe7ca5d9	-0.24672641
148	0xbbda9864	-0.0066709984
149	0xbdf57ff6	-0.11987297
150	0xbe671551	-0.22566725
151	0xbf5593da	-0.8342873
152	0x3efc49f9	0.49275187
153	0x3ead889e	0.33893293
154	0x3e08a832	0.13345411
155	0x3dd07bf4	0.10179892
156	0x3f058ab4	0.5216477
157	0x3e363bd8	0.17796266
158	0x3e468f46	0.19390592
159	0x3de3fbea	0.11132033
160	0xbe2ab936	-0.16672215
161	0xbd9353df	-0.071937315
162	0xbf422845	-0.75842696
163	0xbec5a13c	-0.38599575
164	0x3db680cc	0.08911285
165	0xbe8fe016	-0.28100652
166	0x3f522a8f	0.8209619
167	0x3ce09c79	0.027418362
168	0xbe80225a	-0.25026208
169	0x3ee176e9	0.44036034
170	0x3e885754	0.26629126
171	0x3e6b973a	0.23006907
172	0xbe5d2711	-0.21596934
173	0xbebcf6bc	-0.36906993
174	0x3f3962ab	0.7241618
175	0xbdb54984	-0.088519126
176	0xbe272928	-0.16324294
177	0xbf23055f	-0.6368007
178	0x3e0bf7f1	0.13668801
179	0x3f12417b	0.57131165
180	0xbef4b979	-0.47797754
181	0x3ea98fae	0.3311743
182	0x3d9d4fd7	0.07681244
183	0x3f78bfc3	0.97167605
184	0xbec1fcc0	-0.37888145
185	0x3f0739dd	0.5282267
186	0x3e5ef53d	0.21773238
187	0xbd37d550	-0.044881165
188	0x3dd211eb	0.10257324
189	0x3f8f7ab3	1.120932
190	0xbf1edafa	-0.6205288
191	0xbe1875e2	-0.14888719
192	0x3ea5a1e7	0.32350084
193	0x3ee7afbf	0.4525127
194	0xbd4bc650	-0.049749672
195	0x3f5841df	0.8447551
196	0xbe02045d	-0.12696977
197	0x3f0915b2	0.5354873
198	0x3f4b4aaf	0.79410833
199	0x3e4d8a55	0.200723
200	0x3ec22afa	0.37923414
201	0x3f03aeda	0.5143868
202	0xbd187d06	-0.037228607
203	0xbebea6be	-0.3723659
204	0x3cd404b8	0.025881156
205	0xbeabbf6e	-0.33544487
206	0xbc9eb661	-0.019374074
207	0xbef25be8	-0.47335744
208	0xbf1ee079	-0.6206127
209	0x3d8e03b2	0.069342986
210	0xbe438804	-0.19094855
211	0xbf6d3861	-0.9266415
212	0xbe585a2f	-0.21128152
213	0x3ed22380	0.4104271
214	0x3e7efa23	0.24900107
215	0x3ed5a1d5	0.4172503
216	0x3f165b1a	0.5873276
217	0xbe69747c	-0.22798342
218	0xbeb22c45	-0.347994
219	0x3e0ec43e	0.13942048
220	0x3eb24bd4	0.34823477
221	0x3f136d26	0.5758842
222	0x3d278981	0.04090262
223	0xbebbdde9	-0.36692742
224	0xbeed6163	-0.46363363
225	0xbd825d88	-0.06365496
226	0x3f0fd698	0.5618682
227	0xbea8acae	-0.32944244
228	0xbcae788a	-0.021297712
229	0xbf3ba736	-0.7330202
230	0xbeca4ded	-0.39512578
231	0xbf296f98	-0.66185904
232	0xbeb97f5c	-0.3622998
233	0x3eb75007	0.35803244
234	0xbeb112a3	-0.3458453
235	0xbe1b4ce6	-0.15166053
236	0xbdb2c097	-0.0872814
237	0x3f18d704	0.5970309
238	0xbea03a8a	-0.31294662
239	0x3dda4d44	0.106592685
240	0x3e5c04c1	0.21486188
241	0x3e2d50d5	0.16925366
242	0xbe4ee09d	-0.2020287
243	0xbf127d8a	-0.5722281
244	0xbf00a376	-0.5024942
245	0xbedee7d1	-0.43536237
246	0xbf152b05	-0.5826877
247	0x3f28b648	0.6590314
248	0xbf122f76	-0.5710367
249	0x3dc825cc	0.09772834
250	0xbef854e3	-0.48502263
251	0xbd3b7df6	-0.045774423
252	0xbed47c1c	-0.41500938
253	0x3eef29fc	0.4671172
254	0xbe37734c	-0.17915076
255	0xbec31d1c	-0.38108146

network_body._body_endoder.seq_layers.0.bias f4 [128]
0	0x00000000	0.0
1	0x00000000	0.0
2	0x00000000	0.0
3	0x00000000	0.0
4	0x00000000	0.0
5	0x00000000	0.0
6	0x00000000	0.0
7	0x00000000	0.0
8	0x00000000	0.0
9	0x00000000	0.0
10	0x00000000	0.0
11	0x00000000	0.0
12	0x00000000	0.0
13	0x00000000	0.0
14	0x00000000	0.0
15	0x00000000	0.0
16	0x00000000	0.0
17	0x00000000	0.0
18	0x00000000	0.0
19	0x00000000	0.0
20	0x00000000	0.0
21	0x00000000	0.0
22	0x00000000	0.0
23	0x00000000	0.0
24	0x00000000	0.0
25	0x00000000	0.0
26	0x00000000	0.0
27	0x00000000	0.0
28	0x00000000	0.0
29	0x00000000	0.0
30	0x00000000	0.0
31	0x00000000	0.0
32	0x00000000	0.0
33	0x00000000	0.0
34	0x00000000	0.0
35	0x00000000	0.0
36	0x00000000	0.0
37	0x00000000	0.0
38	0x00000000	0.0
39	0x00000000	0.0
40	0x00000000	0.0
41	0x00000000	0.0
42	0x00000000	0.0
43	0x00000000	0.0
44	0x00000000	0.0
45	0x00000000	0.0
46	0x00000000	0.0
47	0x00000000	0.0
48	0x00000000	0.0
49	0x00000000	0.0
50	0x00000000	0.0
51	0x00000000	0.0
52	0x00000000	0.0
53	0x00000000	0.0
54	0x00000000	0.0
55	0x00000000	0.0
56	0x00000000	0.0
57	0x00000000	0.0
58	0x00000000	0.0
59	0x00000000	0.0
60	0x00000000	0.0
61	0x00000000	0.0
62	0x00000000	0.0
63	0x00000000	0.0
64	0x00000000	0.0
65	0x00000000	0.0
66	0x00000000	0.0
67	0x00000000	0.0
68	0x00000000	0.0
69	0x00000000	0.0
70	0x00000000	0.0
71	0x00000000	0.0
72	0x00000000	0.0
73	0x00000000	0.0
74	0x00000000	0.0
75	0x00000000	0.0
76	0x00000000	0.0
77	0x00000000	0.0
78	0x00000000	0.0
79	0x00000000	0.0
80	0x00000000	0.0
81	0x00000000	0.0
82	0x00000000	0.0
83	0x00000000	0.0
84	0x00000000	0.0
85	0x00000000	0.0
86	0x00000000	0.0
87	0x00000000	0.0
88	0x00000000	0.0
89	0x00000000	0.0
90	0x00000000	0.0
91	0x00000000	0.0
92	0x00000000	0.0
93	0x00000000	0.0
94	0x00000000	0.0
95	0x00000000	0.0
96	0x00000000	0.0
97	0x00000000	0.0
98	0x00000000	0.0
99	0x00000000	0.0
100	0x00000000	0.0
101	0x00000000	0.0
102	0x00000000	0.0
103	0x00000000	0.0
104	0x00000000	0.0
105	0x00000000	0.0
106	0x00000000	0.0
107	0x00000000	0.0
108	0x00000000	0.0
109	0x00000000	0.0
110	0x00000000	0.0
111	0x00000000	0.0
112	0x00000000	0.0
113	0x00000000	0.0
114	0x00000000	0.0
115	0x00000000	0.0
116	0x00000000	0.0
117	0x00000000	0.0
118	0x00000000	0.0
119	0x00000000	0.0
120	0x00000000	0.0
121	0x00000000	0.0
122	0x00000000	0.0
123	0x00000000	0.0
124	0x00000000	0.0
125	0x00000000	0.0
126	0x00000000	0.0
127	0x00000000	0.0
