results/ppo/Player Behaviour/Player Behaviour-361.onnx (onnx, 76307 bytes, 10 tensors)

discrete_action_output_shape f4 [1, 2]
0	0x40400000	3.0
1	0x40000000	2.0

network_body._body_endoder.seq_layers.0.weight f4 [128, 5]
0	0xbf021b59	-0.5082298
1	0xbeed6ac6	-0.46370524
2	0x3f1d3c51	0.6142016
3	0x3eacacd3	0.33725604
4	0x3ec904f1	0.39261582
5	0xbe289a4c	-0.1646511
6	0xbf78b8c7	-0.9715695
7	0x3e1e3f7d	0.15453906
8	0x3f056a0d	0.52114946
9	0xbe4ef6db	-0.20211355
10	0xbedb903a	-0.42883474
11	0x3e7c49ce	0.24637529
12	0xbd8d820a	-0.069095686
13	0x3ead4029	0.33838013
14	0xbde5cce5	-0.11220721
15	0x3ebb35b1	0.365644
16	0x3d879605	0.06620411
17	0x3ede7558	0.434489
18	0xbd2f43bb	-0.042789202
19	0xbd48984f	-0.048973378
20	0x3e9d7ca7	0.30759165
21	0x3e8b9ab4	0.27266467
22	0x3ed7ad92	0.4212461
23	0x3e702780	0.23452568
24	0x3edc5b76	0.4303853
25	0xbe8e65c1	-0.27812007
26	0xbf94b221	-1.1616861
27	0x3efaedf1	0.4900966
28	0xbecd8b0a	-0.4014514
29	0xbe5e3beb	-0.21702544
30	0xbe5cf949	-0.2157947
31	0x3dbd5c69	0.092461415
32	0x3e40e37f	0.18836783
33	0xbe214797	-0.15749966
34	0xbede95ba	-0.43473607
35	0x3f40c98f	0.75307554
36	0x3e1a3acf	0.15061496
37	0x3f86fa7e	1.0545194
38	0x3ef18ec4	0.47179234
39	0xbd90d109	-0.0707112
40	0xbe074025	-0.13208063
41	0xbddef953	-0.108873986
42	0x3eaa37ac	0.332456
43	0x3dbc4e7f	0.091946594
44	0x3f07bfc0	0.5302696
45	0xbd749ed4	-0.059721783
46	0xbeb4dec7	-0.35326216
47	0x3e5f40a1	0.21801998
48	0xbf3b4268	-0.731482
49	0x3f8da92f	1.1067256
50	0xbe5addeb	-0.21373717
51	0x3f2a250c	0.6646278
52	0xbca1a6be	-0.01973283
53	0xbf5385d5	-0.82626086
54	0xbf47a31d	-0.77983266
55	0x3e48d6a7	0.19613133
56	0xbd2331aa	-0.039842285
57	0x3ea9c177	0.33155414
58	0x3f604a1c	0.8761308
59	0x3e3a73fd	0.18208309
60	0x3f8589b5	1.043265
61	0xbf0a2d52	-0.53975403
62	0x3e844fbf	0.2584209
63	0x3e97dcac	0.29660547
64	0x3ee628bc	0.44952953
65	0xbf2b3db7	-0.66891044
66	0xbf7608ef	-0.9610738
67	0xbdaf5c70	-0.08562553
68	0x3d9acbac	0.075583786
69	0xbee31346	-0.44350642
70	0xbf17d88c	-0.593148
71	0xbf613ab7	-0.87980217
72	0x3f30fe57	0.6913809
73	0x3f1bba8f	0.6083154
74	0x3be8704e	0.007093466
75	0xbe817d0a	-0.2529071
76	0x3e071f32	0.13195494
77	0xbe6c0fe5	-0.23052938
78	0x3f3d92c2	0.7405206
79	0xbeef455f	-0.46732613
80	0x3ebbc9f0	0.36677504
81	0xbd475f45	-0.04867484
82	0x3f6b667c	0.91953254
83	0xbe305bea	-0.17222562
84	0xbcb165ce	-0.02165499
85	0x3d91e1c2	0.07123138
86	0x3ebdda18	0.37080455
87	0xbf403d57	-0.750936
88	0xbe25c074	-0.16186696
89	0x3dd1f493	0.10251727
90	0x3f00e3af	0.5034742
91	0xbe5172a3	-0.20453887
92	0x3da8e3e9	0.082465954
93	0xbf25d660	-0.64780235
94	0xbeaa8367	-0.33303377
95	0xbf93cc87	-1.1546792
96	0x3ee8c01d	0.4545907
97	0xbee492c7	-0.44643232
98	0xbe690c13	-0.22758512
99	0x3f5a46df	0.8526439
100	0x3df92248	0.12164742
101	0x3f079b7e	0.5297164
102	0xbf5e57e4	-0.8685286
103	0x3fb2a221	1.3955728
104	0x3f0d657a	0.55232966
105	0x3e10142b	0.14070193
106	0xbf427c14	-0.7597058
107	0xbfa75cb9	-1.3075172
108	0xbe9542b6	-0.2915246
109	0x3e004b28	0.1252867
110	0xbe81ce54	-0.25352728
111	0x3adf99bb	0.0017059365
112	0x3e70823c	0.2348718
113	0x3ea76c61	0.32699874
114	0x3eaa0e10	0.33213854
115	0x3ef0f20c	0.47059667
116	0x3f08c8d1	0.5343142
117	0x3ea514d7	0.32242462
118	0xbef834fd	-0.48477927
119	0x3d979707	0.07401853
120	0xbddd70d1	-0.10812534
121	0xbe524d95	-0.20537408
122	0xbec0a3ed	-0.37625065
123	0x3ea4fe3d	0.32225218
124	0xbd2c8aef	-0.042124685
125	0x3edcf1b5	0.43153158
126	0x3f1059a8	0.56386805
127	0x3de1a6de	0.110181555
128	0xbe8cda96	-0.27510518
129	0x3ed55739	0.41668108
130	0x3d4e8338	0.05041811
131	0x3e025084	0.12726027
132	0xbddfda18	-0.1093027
133	0xbeb8f32c	-0.36123025
134	0x3e241aa1	0.16025783
135	0xbf3a038f	-0.7266168
136	0xbb931323	-0.0044883653
137	0x3e54521e	0.2073445
138	0x3f360a0a	0.7110907
139	0x3d8479d3	0.064685486
140	0x3e7f2412	0.24916103
141	0xbebae6d3	-0.3650423
142	0x3deb9809	0.11503608
143	0x3d97e0ca	0.07415922
144	0xbe569445	-0.20954998
145	0x3d753137	0.059861388
146	0xbe5dced9	-0.21660937
147	0xbe86c270	-0.2632022
148	0xbeb75a9b	-0.35811314
149	0xbf324fc8	-0.69652987
150	0x3eae217e	0.34009928
151	0xbdc43d08	-0.09581953
152	0x3f087d02	0.53315747
153	0x3d2bdfbb	0.041961413
154	0xbe4819dc	-0.19541115
155	0xbe32552a	-0.174153
156	0x3e0e3772	0.13888338
157	0x3dbf0879	0.09327788
158	0xbdd86f0b	-0.10568055
159	0x3fb0ee82	1.3822787
160	0x3df7539b	0.12076493
161	0xbe2b238b	-0.16712777
162	0xbe57f20e	-0.2108843
163	0xbf29c367	-0.66313785
164	0x3f06d7f7	0.52673286
165	0xbeb189b9	-0.34675387
166	0x3e813c3b	0.25241265
167	0xbedf569e	-0.4362077
168	0xbdca9423	-0.09891536
169	0x3d66b4e4	0.056324854
170	0x3ed37084	0.4129678
171	0xbe6b47f3	-0.22976665
172	0xbec1cd35	-0.37851873
173	0x3ebdd37c	0.37075412
174	0x3c4946af	0.012284919
175	0xbddef59d	-0.10886691
176	0x3e3ed080	0.18634224
177	0x3f06ea6d	0.52701455
178	0x3efd55e1	0.49479583
179	0xbe8a9884	-0.27069485
180	0xbe49308e	-0.19647428
181	0xbe899288	-0.26869607
182	0xbee77c74	-0.45212138
183	0x3f1c3a8d	0.6102684
184	0x3ee516fa	0.44744092
185	0xbe8911ba	-0.26771337
186	0xbea143f6	-0.31497163
187	0x3e96c7f5	0.2944943
188	0x3ed4f97b	0.41596588
189	0x3f40cccc	0.75312495
190	0xbeef2bad	-0.4671301
191	0x3e2d0569	0.16896595
192	0xbdfe03f4	-0.12403098
193	0xbd0f593d	-0.034997214
194	0xbe20f676	-0.15719017
195	0xbf0e8f66	-0.5568756
196	0x3e79737d	0.24360462
197	0xbe8c36a7	-0.27385446
198	0x3f097f7a	0.5371014
199	0xbf011b59	-0.50432354
200	0xbf586190	-0.8452387
201	0x3dd08906	0.10182385
202	0xbe8c4197	-0.2739379
203	0x3eb37746	0.35051936
204	0x3ed008b9	0.40631655
205	0x3cb6f015	0.022331277
206	0x3e7c2295	0.24622567
207	0x3c992c1f	0.018697796
208	0x3ecd7fa8	0.40136456
209	0xbe8b2408	-0.27175927
210	0xbf5bd8f9	-0.8587795
211	0xbef59300	-0.47963715
212	0x3f436dd0	0.76339436
213	0x3dc40547	0.09571319
214	0xbe5f349b	-0.21797411
215	0xbea25703	-0.3170701
216	0xbe98ed12	-0.2986837
217	0x3ec1f7cf	0.37884375
218	0xbf22dead	-0.63621026
219	0x3f271eb5	0.6528123
220	0xbef8d332	-0.4859863
221	0x3e270511	0.16310526
222	0x3d0a36e0	0.03374374
223	0xbe450ca2	-0.192431
224	0xbe250770	-0.16116118
225	0xbdb200dd	-0.08691571
226	0x3e9d21be	0.30689806
227	0x3e2c1783	0.16805844
228	0x3e9e8fa9	0.3096898
229	0x3d0fd8e5	0.035118956
230	0x3e7d076e	0.24709865
231	0x3cdcce4d	0.02695384
232	0xbedb8ff9	-0.4288328
233	0x3ee56387	0.44802496
234	0x3eff180b	0.4982303
235	0x3ed4be8c	0.41551626
236	0xbed952f1	-0.42446092
237	0xbe17a156	-0.14807639
238	0x3e2a0b64	0.16605908
239	0xbf13ccfa	-0.57734644
240	0x3f2436ed	0.6414631
241	0x3dac3cef	0.0841006
242	0x3f350efb	0.70725983
243	0xbec57335	-0.38564458
244	0xbe150806	-0.14553842
245	0x3f9334c2	1.1500475
246	0x3f3c50bf	0.7356071
247	0x3f051f1d	0.520006
248	0x3f7ccdc1	0.98751456
249	0x3d496624	0.049169675
250	0xbe86911d	-0.26282588
251	0x3ccc600d	0.024948144
252	0xbeded9de	-0.43525594
253	0xbeaa623f	-0.3327808
254	0x3ddb24e8	0.10700399
255	0xbc9f2fdf	-0.019432006

network_body._body_endoder.seq_layers.0.bias f4 [128]
0	0x00000000	0.0
1	0x00000000	0.0
2	0x00000000	0.0
3	0x00000000	0.0
4	0x00000000	0.0
5	0x00000000	0.0
6	0x00000000	0.0
7	0x00000000	0.0
8	0x00000000	0.0
9	0x00000000	0.0
10	0x00000000	0.0
11	0x00000000	0.0
12	0x00000000	0.0
13	0x00000000	0.0
14	0x00000000	0.0
15	0x00000000	0.0
16	0x00000000	0.0
17	0x00000000	0.0
18	0x00000000	0.0
19	0x00000000	0.0
20	0x00000000	0.0
21	0x00000000	0.0
22	0x00000000	0.0
23	0x00000000	0.0
24	0x00000000	0.0
25	0x00000000	0.0
26	0x00000000	0.0
27	0x00000000	0.0
28	0x00000000	0.0
29	0x00000000	0.0
30	0x00000000	0.0
31	0x00000000	0.0
32	0x00000000	0.0
33	0x00000000	0.0
34	0x00000000	0.0
35	0x00000000	0.0
36	0x00000000	0.0
37	0x00000000	0.0
38	0x00000000	0.0
39	0x00000000	0.0
40	0x00000000	0.0
41	0x00000000	0.0
42	0x00000000	0.0
43	0x00000000	0.0
44	0x00000000	0.0
45	0x00000000	0.0
46	0x00000000	0.0
47	0x00000000	0.0
48	0x00000000	0.0
49	0x00000000	0.0
50	0x00000000	0.0
51	0x00000000	0.0
52	0x00000000	0.0
53	0x00000000	0.0
54	0x00000000	0.0
55	0x00000000	0.0
56	0x00000000	0.0
57	0x00000000	0.0
58	0x00000000	0.0
59	0x00000000	0.0
60	0x00000000	0.0
61	0x00000000	0.0
62	0x00000000	0.0
63	0x00000000	0.0
64	0x00000000	0.0
65	0x00000000	0.0
66	0x00000000	0.0
67	0x00000000	0.0
68	0x00000000	0.0
69	0x00000000	0.0
70	0x00000000	0.0
71	0x00000000	0.0
72	0x00000000	0.0
73	0x00000000	0.0
74	0x00000000	0.0
75	0x00000000	0.0
76	0x00000000	0.0
77	0x00000000	0.0
78	0x00000000	0.0
79	0x00000000	0.0
80	0x00000000	0.0
81	0x00000000	0.0
82	0x00000000	0.0
83	0x00000000	0.0
84	0x00000000	0.0
85	0x00000000	0.0
86	0x00000000	0.0
87	0x00000000	0.0
88	0x00000000	0.0
89	0x00000000	0.0
90	0x00000000	0.0
91	0x00000000	0.0
92	0x00000000	0.0
93	0x00000000	0.0
94	0x00000000	0.0
95	0x00000000	0.0
96	0x00000000	0.0
97	0x00000000	0.0
98	0x00000000	0.0
99	0x00000000	0.0
100	0x00000000	0.0
101	0x00000000	0.0
102	0x00000000	0.0
103	0x00000000	0.0
104	0x00000000	0.0
105	0x00000000	0.0
106	0x00000000	0.0
107	0x00000000	0.0
108	0x00000000	0.0
109	0x00000000	0.0
110	0x00000000	0.0
111	0x00000000	0.0
112	0x00000000	0.0
113	0x00000000	0.0
114	0x00000000	0.0
115	0x00000000	0.0
116	0x00000000	0.0
117	0x00000000	0.0
118	0x00000000	0.0
119	0x00000000	0.0
120	0x00000000	0.0
121	0x00000000	0.0
122	0x00000000	0.0
123	0x00000000	0.0
124	0x00000000	0.0
125	0x00000000	0.0
126	0x00000000	0.0
127	0x00000000	0.0

network_body._body_endoder.seq_layers.2.weight f4 [128, 128]
0	0x3d59e7f1	0.053199712
1	0xbe200144	-0.15625483
2	0x3d78e776	0.060767613
3	0xbddb9975	-0.10722629
4	0xbda93c4c	-0.08263454
5	0x3d309eaf	0.043120082
6	0xbe1ce633	-0.15322189
7	0xbb1fb522	-0.0024369438
8	0x3c8001c9	0.015625851
9	0xbca45212	-0.020058665
10	0x3de14cf7	0.11001008
11	0x3dcacf0d	0.09902773
12	0x3cb7fc84	0.022459276
13	0xbcce2bba	-0.025167335
14	0xbd393309	-0.045214687
15	0xbdabd6ef	-0.08390605
16	0xbd2e7e5c	-0.042600974
17	0x3e044519	0.12916984
18	0xbd61bc13	-0.055111002
19	0xbc86bce6	-0.016447496
20	0x3de36e25	0.11104993
21	0xbdc3ac6d	-0.09554372
22	0xbc16dd1a	-0.009207988
23	0x3a01cc66	0.0004951417
24	0xbbc605c7	-0.006043169
25	0x3e2f17e5	0.17098959
26	0xbd8fd3a0	-0.07022786
27	0xbd9f4c05	-0.077781714
28	0x3c13a7e9	0.009012201
29	0xbc2a12f8	-0.010380499
30	0xbc433e64	-0.011916731
31	0x3e1e703a	0.15472499
32	0x3da8daa1	0.08244825
33	0x3d73c511	0.05951411
34	0x3d44b54f	0.04802447
35	0xbd958ba3	-0.07302024
36	0x3be7870a	0.0070656585
37	0xbcef9baf	-0.02924904
38	0x3e43db96	0.19126734
39	0x3dfebac2	0.12437965
40	0xbdd07033	-0.1017765
41	0xbd2cb2cc	-0.0421627
42	0x3d92a0d4	0.07159582
43	0xbd6d82cc	-0.057986066
44	0xbde69bc6	-0.1126018
45	0x3d291172	0.041276403
46	0xbe08464b	-0.13308065
47	0x3d1c55d3	0.038167786
48	0xbd6b1be5	-0.05739965
49	0x3e11f237	0.14252554
50	0x3e087d04	0.1332894
51	0xbcbb8354	-0.02288977
52	0xbdb134d4	-0.08652654
53	0xbd9dd0c8	-0.077058375
54	0x3dd92300	0.10602379
55	0xbc8752b6	-0.016518932
56	0xbcbbf001	-0.022941591
57	0xbd4f39a7	-0.05059209
58	0x3db224ee	0.0869845
59	0x3ce504aa	0.027956326
60	0xbdd6e215	-0.104923405
61	0x3cc2a666	0.023760986
62	0xbdd9a2fb	-0.10626789
63	0xbd44a597	-0.04800948
64	0xbdd5e028	-0.10443145
65	0xbddc276d	-0.10749707
66	0xbe5060f4	-0.20349485
67	0x3e3ce377	0.18446146
68	0xbb67d2b8	-0.00353734
69	0xbd37b583	-0.044850837
70	0x3d6425fc	0.055700287
71	0xbdefc3f2	-0.117072955
72	0x3d5e87d0	0.05432874
73	0x3d6b85c3	0.057500612
74	0x3d13c2af	0.036074337
75	0xbd8d5c31	-0.0690235
76	0x3d95c74e	0.07313405
77	0xbbc68ff9	-0.0060596433
78	0x3d1439f3	0.036188077
79	0xbdab8e90	-0.08376801
80	0x3dbd1093	0.09231677
81	0xbc5b20cd	-0.01337452
82	0x3e63c02a	0.22241274
83	0x3d344188	0.044007808
84	0xbdd5a944	-0.104326755
85	0x3d63ec13	0.05564506
86	0xbcc1b444	-0.023645528
87	0xbe391caa	-0.1807734
88	0x3dc8c833	0.0980381
89	0xbc7c6bf8	-0.015406601
90	0xbcb7d1ac	-0.022438847
91	0x3c1ab951	0.009443597
92	0x3dc231d6	0.09482162
93	0x3d00a4d4	0.031407192
94	0x3dfc5312	0.12320532
95	0x3bc13f98	0.0058974735
96	0x3e373088	0.17889607
97	0xbe743a42	-0.23850349
98	0x3c8f6711	0.0175052
99	0x3d75b2bc	0.059984908
100	0xbd0a4556	-0.03375753
101	0xba8759c9	-0.0010326441
102	0x3c136ff2	0.008998858
103	0x3c84efaa	0.016227562
104	0xbe1aff88	-0.1513654
105	0x3d2b3feb	0.041809004
106	0x3d017c36	0.031612597
107	0x3dd48b94	0.10378185
108	0x3dbe80cb	0.09301909
109	0xbc9f2070	-0.019424647
110	0xbe5d00de	-0.21582362
111	0xbd0a5096	-0.03376826
112	0xbe23042a	-0.15919557
113	0xbcc1bd85	-0.02364994
114	0xbda5d480	-0.08097172
115	0x3dbd2382	0.09235288
116	0xbbfbff7c	-0.007690368
117	0xbe1e7a18	-0.15476263
118	0xbd536b31	-0.051615898
119	0xbd823c65	-0.063591756
120	0x3d91c13e	0.07116936
121	0x3d9492dd	0.072545744
122	0xb9cb1f72	-0.00038742606
123	0xbdbc11b1	-0.09183062
124	0xbdccdfbf	-0.10003614
125	0xbdcb94d0	-0.09940493
126	0x3cfdd2ee	0.030984368
127	0xbd62a978	-0.0553374
128	0x3cd6ff73	0.026244855
129	0x3d4d2501	0.050084118
130	0x3c7edd8e	0.015555752
131	0x3b375998	0.0027976986
132	0xbdc0f248	-0.094212115
133	0x3c9d7d91	0.019224914
134	0x3c865cdb	0.016401699
135	0x3cdac7a7	0.02670653
136	0xbc8e2661	-0.017352285
137	0x3e133fd8	0.14379823
138	0xbddd5cf8	-0.10808748
139	0xbdba8bb9	-0.09108681
140	0x3dece330	0.1156677
141	0x3c4743ba	0.012162143
142	0x3dab98fe	0.0837879
143	0x3de1a43a	0.11017652
144	0x3e24d19e	0.16095588
145	0xbd7b85fe	-0.06140708
146	0x3d6cc6d4	0.057806805
147	0x3e08bac6	0.13352498
148	0x3defc6d7	0.117078476
149	0xbced2785	-0.028949508
150	0xbe2a0b0a	-0.16605774
151	0xbe190f45	-0.14947231
152	0x3d8f8051	0.07006896
153	0x3dc4ee43	0.09615757
154	0xbe139566	-0.1441246
155	0x3d0a7b95	0.033809263
156	0x3da2cedd	0.07949612
157	0x3dd697d8	0.10478181
158	0xbdf94430	-0.12171209
159	0xbb849e93	-0.004047224
160	0x3c2c88a4	0.010530625
161	0x3d61a62e	0.055090122
162	0x3acec8a2	0.0015776346
163	0xbdf8e7ac	-0.12153563
164	0x3bdf1d98	0.006808948
165	0x3cac3cae	0.021025028
166	0x3c68d33a	0.014210517
167	0x3da9c19e	0.08288883
168	0x3d9d6c4d	0.07686672
169	0xbddfef14	-0.109342724
170	0xbc627ade	-0.013823239
171	0xbd182501	-0.037144665
172	0xbc0d33fa	-0.008618349
173	0x3d5c9012	0.053848334
174	0x3d19b5c4	0.03752686
175	0xbd1544c2	-0.036442526
176	0x3d0355c8	0.03206423
177	0xbde07f69	-0.109618016
178	0xbdd6a3d7	-0.10480469
179	0xbd8dfa42	-0.069324985
180	0x3d87b0a6	0.0662549
181	0xbdaee0ff	-0.08539008
182	0x3d86ead8	0.06587762
183	0xbd476980	-0.048684597
184	0x3dcafcc3	0.09911492
185	0x3df49481	0.11942387
186	0x3d28f539	0.041249488
187	0x3e03ab52	0.12858322
188	0xbdf861cc	-0.12128028
189	0x3c842fa6	0.016136002
190	0x3d96f025	0.07370023
191	0xbe2169e0	-0.15763044
192	0x3da57f5c	0.080809325
193	0x3d62595f	0.055261012
194	0xbddf99eb	-0.109180294
195	0x3d7b7d0d	0.061398555
196	0x3c6d7219	0.014492535
197	0x3d23790f	0.039910372
198	0xbdb13c7f	-0.08654117
199	0xbdc6a4ed	-0.09699426
200	0x3d46a1fe	0.04849433
201	0x3cc25e8c	0.023726724
202	0x3d13e43d	0.036106337
203	0xbda38230	-0.07983816
204	0xbc40417e	-0.011734365
205	0xbdbc8aad	-0.09206138
206	0xbdf0c390	-0.117560506
207	0x3deb0bf1	0.11476887
208	0x3d41aa68	0.047281653
209	0xbbeecc5e	-0.007287546
210	0xbd36c4ae	-0.044621162
211	0x3cfb64cf	0.030687718
212	0xbc97afb4	-0.018516399
213	0x3e18c50e	0.1491892
214	0x3bb95ae1	0.0056565856
215	0x3e3c18a0	0.18368769
216	0x3cf95a54	0.03043858
217	0xbe0796d9	-0.13241138
218	0xbd56b1dd	-0.052415717
219	0x3abbe068	0.0014333846
220	0xbccbf238	-0.024895772
221	0xbc589190	-0.013218299
222	0xbc3dcd28	-0.011584558
223	0x3c9c6769	0.019092279
224	0x3e407384	0.18794066
225	0xbe2f0368	-0.17091143
226	0xbd6d8f71	-0.057998125
227	0xbdf7d3e9	-0.121009655
228	0xbdcaf257	-0.09909504
229	0x3ca822b0	0.020524353
230	0xbda2bab8	-0.0794577
231	0x3db3d4fb	0.08780857
232	0xbe13b05c	-0.14422745
233	0xbda386af	-0.07984673
234	0xbd473f86	-0.048644565
235	0xbdbf4b82	-0.09340574
236	0xbe16c8aa	-0.14724985
237	0xbc500614	-0.012696762
238	0x3d7dc680	0.061956882
239	0xbb9b8f9d	-0.0047473446
240	0xbd540327	-0.05176082
241	0x3cd884bb	0.026430478
242	0xbd0a2bf7	-0.033733334
243	0x3d31a165	0.04336681
244	0xbd04901a	-0.03236399
245	0x3dc7e00c	0.097595304
246	0xbde3affb	-0.1111755
247	0x3c931a54	0.01795689
248	0x3da4fa82	0.08055593
249	0x3e0d5e0b	0.13805406
250	0x3d25dd7c	0.040494427
251	0x3d785a7c	0.060633168
252	0x3e05b2c5	0.13056476
253	0x3d5c0dac	0.053723976
254	0x3d042f66	0.032271765
255	0x3d2b4823	0.04181684

network_body._body_endoder.seq_layers.2.bias f4 [128]
0	0x00000000	0.0
1	0x00000000	0.0
2	0x00000000	0.0
3	0x00000000	0.0
4	0x00000000	0.0
5	0x00000000	0.0
6	0x00000000	0.0
7	0x00000000	0.0
8	0x00000000	0.0
9	0x00000000	0.0
10	0x00000000	0.0
11	0x00000000	0.0
12	0x00000000	0.0
13	0x00000000	0.0
14	0x00000000	0.0
15	0x00000000	0.0
16	0x00000000	0.0
17	0x00000000	0.0
18	0x00000000	0.0
19	0x00000000	0.0
20	0x00000000	0.0
21	0x00000000	0.0
22	0x00000000	0.0
23	0x00000000	0.0
24	0x00000000	0.0
25	0x00000000	0.0
26	0x00000000	0.0
27	0x00000000	0.0
28	0x00000000	0.0
29	0x00000000	0.0
30	0x00000000	0.0
31	0x00000000	0.0
32	0x00000000	0.0
33	0x00000000	0.0
34	0x00000000	0.0
35	0x00000000	0.0
36	0x00000000	0.0
37	0x00000000	0.0
38	0x00000000	0.0
39	0x00000000	0.0
40	0x00000000	0.0
41	0x00000000	0.0
42	0x00000000	0.0
43	0x00000000	0.0
44	0x00000000	0.0
45	0x00000000	0.0
46	0x00000000	0.0
47	0x00000000	0.0
48	0x00000000	0.0
49	0x00000000	0.0
50	0x00000000	0.0
51	0x00000000	0.0
52	0x00000000	0.0
53	0x00000000	0.0
54	0x00000000	0.0
55	0x00000000	0.0
56	0x00000000	0.0
57	0x00000000	0.0
58	0x00000000	0.0
59	0x00000000	0.0
60	0x00000000	0.0
61	0x00000000	0.0
62	0x00000000	0.0
63	0x00000000	0.0
64	0x00000000	0.0
65	0x00000000	0.0
66	0x00000000	0.0
67	0x00000000	0.0
68	0x00000000	0.0
69	0x00000000	0.0
70	0x00000000	0.0
71	0x00000000	0.0
72	0x00000000	0.0
73	0x00000000	0.0
74	0x00000000	0.0
75	0x00000000	0.0
76	0x00000000	0.0
77	0x00000000	0.0
78	0x00000000	0.0
79	0x00000000	0.0
80	0x00000000	0.0
81	0x00000000	0.0
82	0x00000000	0.0
83	0x00000000	0.0
84	0x00000000	0.0
85	0x00000000	0.0
86	0x00000000	0.0
87	0x00000000	0.0
88	0x00000000	0.0
89	0x00000000	0.0
90	0x00000000	0.0
91	0x00000000	0.0
92	0x00000000	0.0
93	0x00000000	0.0
94	0x00000000	0.0
95	0x00000000	0.0
96	0x00000000	0.0
97	0x00000000	0.0
98	0x00000000	0.0
99	0x00000000	0.0
100	0x00000000	0.0
101	0x00000000	0.0
102	0x00000000	0.0
103	0x00000000	0.0
104	0x00000000	0.0
105	0x00000000	0.0
106	0x00000000	0.0
107	0x00000000	0.0
108	0x00000000	0.0
109	0x00000000	0.0
110	0x00000000	0.0
111	0x00000000	0.0
112	0x00000000	0.0
113	0x00000000	0.0
114	0x00000000	0.0
115	0x00000000	0.0
116	0x00000000	0.0
117	0x00000000	0.0
118	0x00000000	0.0
119	0x00000000	0.0
120	0x00000000	0.0
121	0x00000000	0.0
122	0x00000000	0.0
123	0x00000000	0.0
124	0x00000000	0.0
125	0x00000000	0.0
126	0x00000000	0.0
127	0x00000000	0.0

action_model._continuous_distribution.mu.weight f4 [1, 128]
0	0x3c87ec66	0.016592216
1	0x3c57f9e3	0.013182136
2	0xbbf3ab18	-0.0074361674
3	0x3bc9ca2d	0.0061581344
4	0xbb7070d2	-0.003668834
5	0xbc9ef6b0	-0.01940474
6	0xbca37eb3	-0.019957876
7	0x3c3173f6	0.01083087
8	0xbd1933bf	-0.037402865
9	0xbc0fd43f	-0.008778631
10	0xbc9ce58c	-0.019152425
11	0xb7799bca	-1.4877829e-05
12	0xbce3a05b	-0.027786424
13	0xbc9f167b	-0.0194199
14	0x3b49fbbc	0.0030820211
15	0xbced85ab	-0.028994402
16	0x3ac53da4	0.0015048278
17	0xbab00687	-0.001342968
18	0xbc76816b	-0.015045504
19	0xbd388f08	-0.04505828
20	0x3be36290	0.00693924
21	0x3cc96864	0.02458591
22	0x3c46e2d7	0.012139044
23	0xbd1484b7	-0.03625938
24	0xbbd8da63	-0.0066178306
25	0x3ccf6c48	0.025320187
26	0x3baeccc3	0.005334468
27	0xbb4c0f35	-0.0031136994
28	0x3c33ad67	0.010966635
29	0xbb81486f	-0.0039454023
30	0x3c6367c3	0.013879719
31	0xbbaed9c9	-0.0053360206
32	0x3bf916cb	0.007601594
33	0xbb8d9389	-0.004320566
34	0x3ad3727a	0.0016132139
35	0x3c9374cb	0.018000027
36	0xbd237302	-0.039904602
37	0x3c916cb3	0.017752027
38	0xb6c2ca3c	-5.8051937e-06
39	0xbcd4d617	-0.025980992
40	0xbcc93d92	-0.024565492
41	0x3c2df34e	0.01061709
42	0x3c6e99fa	0.014563078
43	0xbc13d6f3	-0.009023416
44	0x3cc2d816	0.023784678
45	0x3c451935	0.012029936
46	0xba97f8ef	-0.0011594574
47	0x3cf4a66b	0.02986451
48	0xb9c64b20	-0.00037821475
49	0xbcb57054	-0.022148289
50	0xbc9f9e27	-0.019484593
51	0x3c34fb82	0.011046292
52	0x3bacc128	0.0052720495
53	0x3890ec19	6.910432e-05
54	0xbcbb6e1b	-0.02287965
55	0xbd0c4427	-0.034244683
56	0x3b492172	0.00306901
57	0xbc1a15bf	-0.009404599
58	0xbc2ea586	-0.010659581
59	0xbb9fd39c	-0.0048775207
60	0xbca2923b	-0.019845119
61	0x3c014826	0.007890737
62	0x3c500727	0.012697018
63	0x38a53de3	7.8793404e-05
64	0x3ac65db4	0.0015134127
65	0x3b9c80e7	0.0047761085
66	0xbc39c72e	-0.011338992
67	0xbc1b4037	-0.009475759
68	0x3c8d0b1f	0.017217217
69	0xbcc158e5	-0.023601959
70	0xbcd2e17a	-0.025742281
71	0x3c7ceb4b	0.015436958
72	0x3ba500f6	0.005035515
73	0x3b5a3380	0.0033294857
74	0xbb24c7a8	-0.0025143418
75	0x3ca492b3	0.020089483
76	0x3cc614b7	0.0241798
77	0xbc60656d	-0.013696057
78	0x3b691d92	0.0035570604
79	0xbc6f8bed	-0.014620763
80	0x3cb1db5c	0.021711044
81	0x3c3398b3	0.010961699
82	0xbb59674f	-0.003317315
83	0x3cc0a883	0.023517853
84	0xbc73b292	-0.014874117
85	0x3c454100	0.012039423
86	0x3cb4c828	0.022068098
87	0x3c83d337	0.016091926
88	0x3d1a1454	0.037617043
89	0x3c1c5d08	0.009543665
90	0x3c367d07	0.011138207
91	0xbca24ae4	-0.019811101
92	0xbd078048	-0.033081323
93	0x3c10f024	0.0088463165
94	0xbce653d8	-0.028116152
95	0x3ce6cd28	0.028173998
96	0x3c58c3c5	0.013230269
97	0x3ccbdcea	0.024885613
98	0xbb8184c8	-0.0039525963
99	0xba99fb88	-0.0011747936
100	0xbbdd7fc2	-0.0067596147
101	0x3b80bb58	0.003928583
102	0xbbfee45f	-0.007778689
103	0xbcf9a443	-0.030473834
104	0x3c27b1da	0.010235274
105	0x3b8e57f2	0.00434398
106	0xbd029762	-0.03188265
107	0x3badd26b	0.005304625
108	0xbbf9d8a5	-0.007624703
109	0xbb400f5e	-0.0029306035
110	0x3d22a1f7	0.039705243
111	0xbc98a680	-0.01863408
112	0xbc792677	-0.015206925
113	0x3b189273	0.002328065
114	0xbc3b1a2c	-0.011419814
115	0x3cab9a75	0.020947674
116	0x3d22c00a	0.039733924
117	0x3c04e4d9	0.008111202
118	0xbc94d8b4	-0.018169738
119	0x3bb06d4e	0.005384124
120	0x3c4b67e2	0.012414904
121	0x3ccf3615	0.025294343
122	0x3b20db61	0.0024544823
123	0xbc2426ef	-0.010019048
124	0x3c069ef1	0.0082166055
125	0xbc08fed8	-0.008361541
126	0xbc74e6ea	-0.014947632
127	0x3c86682f	0.0164071

action_model._discrete_distribution.branches.0.weight f4 [3, 128]
0	0xbc1adaeb	-0.009451608
1	0xbbad8870	-0.0052958056
2	0x3c07be77	0.008285156
3	0xbc85a627	-0.01631458
4	0xbb486aff	-0.0030581353
5	0xbb7de795	-0.003874277
6	0xbc5c649b	-0.013451721
7	0xbbf08cc7	-0.0073410007
8	0x3a89550f	0.001047762
9	0x3a2094db	0.0006125697
10	0xbbfde1b8	-0.007747855
11	0xb8f05c8a	-0.000114613285
12	0x3c3bd857	0.011465154
13	0xbb9bb769	-0.004752089
14	0xbbaaf810	-0.0052175596
15	0x3c0fdec5	0.00878114
16	0xbb3dd793	-0.0028967604
17	0x3b517ae7	0.0031964125
18	0xbc5c6cb3	-0.01345365
19	0x3c96c9be	0.018406745
20	0xba86c170	-0.0010281038
21	0xbc2db433	-0.010602045
22	0x3c9166c3	0.017749196
23	0xba9ba0e8	-0.0011873515
24	0x398b8cc7	0.00026617033
25	0xbbd6fbf2	-0.006560796
26	0x3bd02308	0.0063518323
27	0x3bf808ca	0.007569407
28	0x3bf07c65	0.0073390477
29	0x3c550c5f	0.013003438
30	0x3c5f4b27	0.013628758
31	0x3c71c22f	0.01475577
32	0xbbf7cabd	-0.00756201
33	0x3c60b442	0.013714852
34	0x3baa91a0	0.005205348
35	0x3b5e0ee3	0.0033883385
36	0x39ea0a02	0.00044639414
37	0x3b90b8c3	0.0044165566
38	0x3c36df64	0.011161659
39	0x3b8d5de5	0.0043141716
40	0x3bdd20b0	0.0067482814
41	0xbbc332f5	-0.0059570023
42	0x3bb847f0	0.00562381
43	0x3b9a9cb3	0.004718387
44	0xbba323df	-0.0049786414
45	0xbbace9e2	-0.0052769044
46	0x3c971f65	0.018447587
47	0x3b3c82d5	0.0028764505
48	0x3c9bcc97	0.019018454
49	0xbc0729b0	-0.008249685
50	0x3c2d93e3	0.010594341
51	0x3ba66c54	0.0050788317
52	0x3c57de4a	0.013175556
53	0xbc014ea7	-0.007892287
54	0x3a207917	0.00061215594
55	0xbbcc31e9	-0.0062315357
56	0xb9ebc7dd	-0.00044971603
57	0x3b903385	0.004400673
58	0x3b80f736	0.00393572
59	0xbbf33f55	-0.0074233213
60	0x3a8922bd	0.0010462623
61	0xbc87e3ad	-0.016588056
62	0x3bbfff37	0.0058592814
63	0xba5e0cea	-0.0008470552
64	0xbb98fdfe	-0.00466895
65	0x3c42a6dd	0.011880604
66	0x3c5bcf65	0.013416146
67	0x3bdecdaf	0.0067994217
68	0x3b6b8e70	0.0035943054
69	0xbc626ec2	-0.013820352
70	0xbc008dbd	-0.007846293
71	0x3b8413bb	0.0040306724
72	0xbaa3a1ee	-0.0012484172
73	0xbc3bfd88	-0.011474021
74	0xbc2ddd22	-0.010611804
75	0xbc7da9cf	-0.01548238
76	0x3a5571ba	0.0008142252
77	0xbb37e5ba	-0.0028060512
78	0xbb81b7a8	-0.003958661
79	0x3a7a3bb5	0.000954564
80	0x3bafd589	0.0053660315
81	0xbb00bc59	-0.0019643514
82	0xbc9612d3	-0.018319523
83	0x3bb2683c	0.0054445546
84	0xbbaf6d5c	-0.005353613
85	0xbb69a1ba	-0.0035649375
86	0x3b96905f	0.004594847
87	0x3bd0216b	0.00635164
88	0xbc370049	-0.011169502
89	0x3c6e1e62	0.014533611
90	0xbb0c5389	-0.0021412096
91	0xbc00ddbf	-0.007865368
92	0xbbec4012	-0.007209786
93	0x3c626482	0.013817908
94	0xbbfb1c4f	-0.0076632868
95	0x3b399e71	0.0028323198
96	0xbaf8ebb3	-0.0018991142
97	0x3b4a7d76	0.0030897534
98	0x3b2519cd	0.002519238
99	0xbb9c9a6f	-0.004779152
100	0xbbd679b5	-0.0065452703
101	0xbb67f5c0	-0.003539428
102	0x3c4fa9c3	0.012674752
103	0xbbe96b2a	-0.0071233707
104	0x3c8ab328	0.016931131
105	0xbc8f9483	-0.01752687
106	0x3a80242b	0.0009776404
107	0xbb93823b	-0.0045016087
108	0x3c03714f	0.00802262
109	0xbab44aab	-0.0013755163
110	0x3bdcb680	0.006735623
111	0xbca9c6bd	-0.020724649
112	0x3b9f60a6	0.0048638163
113	0x3c0ab3a5	0.008465682
114	0xb9234091	-0.00015568944
115	0x3bfebcbd	0.007773964
116	0xbbde85f2	-0.00679087
117	0x3a3eb920	0.00072755106
118	0xbbf7cc50	-0.0075621977
119	0x3c08e59b	0.008355523
120	0xbc1a1dfe	-0.009406565
121	0x3c0e5b4b	0.008688758
122	0x3bb3ea88	0.005490605
123	0x3bbd96c3	0.0057857945
124	0xbb5fbf7f	-0.003414124
125	0x3a0c8b37	0.0005361321
126	0xbc67068d	-0.014100683
127	0xbc0976cc	-0.00839014
128	0xbb75e69f	-0.0037521494
129	0xbb8308b4	-0.00399884
130	0xbca881ab	-0.020569643
131	0xbc4d7c07	-0.012541777
132	0x3b0c4aae	0.0021406817
133	0x3c1d2d90	0.0095933825
134	0xbc8c95b3	-0.017161226
135	0x389ffd07	7.628841e-05
136	0xb95ecd6b	-0.00021248094
137	0x3bf54012	0.0074844444
138	0xbc02ffab	-0.007995526
139	0x3c7e8c3b	0.015536363
140	0x3bcdc4d0	0.0062795654
141	0x3b91e514	0.004452357
142	0xbc43b0ff	-0.011944055
143	0x3ac239cb	0.0014818249
144	0xbb25bd8b	-0.0025289978
145	0xbc71b0b0	-0.014751598
146	0x3c8fbadf	0.017545162
147	0xbb62fd1a	-0.0034635724
148	0x3b51171b	0.003190464
149	0xbb52bb73	-0.0032155185
150	0x3bc3fa3b	0.0059807575
151	0xbc1daf5e	-0.00962433
152	0xbc4b4d2c	-0.012408536
153	0xbc412618	-0.011788867
154	0x3c5960b7	0.0132676875
155	0xbb233351	-0.0024902413
156	0x3c4324b6	0.011910608
157	0x3b9f7353	0.0048660426
158	0xbad7bdc2	-0.001645975
159	0x3b319233	0.0027095198
160	0xbbcbb41b	-0.0062165386
161	0x3c11d7eb	0.0089015765
162	0xbbc1621d	-0.0059015886
163	0x3babe803	0.005246164
164	0xbc16bcc3	-0.009200278
165	0x3c71dcfa	0.014762158
166	0xba8e6cf7	-0.0010866214
167	0xbb8a8ed7	-0.0042284536
168	0x3b0fc37a	0.0021936581
169	0x3a9ea7b4	0.0012104423
170	0xba7d66da	-0.000966651
171	0xbb6eedcf	-0.0036457663
172	0x3c90d77b	0.017680874
173	0x3b0fc17b	0.0021935392
174	0x3b9f7dd5	0.0048672953
175	0x3b012ae0	0.0019709393
176	0x3bcfdc18	0.006343376
177	0x3bd98c2d	0.0066390247
178	0x3bb5a45d	0.0055432753
179	0xbc081ec1	-0.008308114
180	0xbb388f07	-0.0028161423
181	0x3a96f30b	0.0011516524
182	0xbb38233a	-0.0028097169
183	0x3bb29177	0.0054494697
184	0xbb8567d3	-0.0040712147
185	0xbc189f7e	-0.00931537
186	0x3bd5e212	0.006527194
187	0x3c12551d	0.008931425
188	0xbc619a6a	-0.013769725
189	0xbcad4435	-0.021150688
190	0xbc2ea327	-0.010659016
191	0xbb4ef51a	-0.0031579197
192	0xbaea3b32	-0.0017870425
193	0x3b54f3b7	0.0032493898
194	0xba931e90	-0.0011224318
195	0xbcb32a9b	-0.021870902
196	0xbb65037d	-0.0034944706
197	0xbc1dbc5b	-0.009627427
198	0x3bc6e58a	0.0060698437
199	0xbbfdb8a8	-0.00774296
200	0xbca4d40c	-0.020120643
201	0x3c7ec757	0.015550456
202	0xbbf3dd5a	-0.0074421586
203	0xbbb338c0	-0.0054694116
204	0x3becc6df	0.0072258557
205	0x3c0f5528	0.00874833
206	0xbbc2bc83	-0.0059428825
207	0xbc605908	-0.013693102
208	0xbc0a1be0	-0.0084294975
209	0x3c4aec29	0.0123854065
210	0x3c8fb03f	0.017540095
211	0xbbbc08fd	-0.005738376
212	0x3a940266	0.0011292219
213	0x3a9ff1bf	0.0012202783
214	0x3c70f203	0.014706138
215	0xbbed99a2	-0.0072509805
216	0x3ae2e9e8	0.0017312141
217	0x3b032d07	0.0020015852
218	0xbc135630	-0.008992717
219	0xbb8c1bae	-0.0042757606
220	0xbb314460	-0.0027048811
221	0x3c35ef40	0.011104405
222	0x3c3b6e1f	0.011439829
223	0xbac2d524	-0.0014864546
224	0xbc11222e	-0.008858247
225	0xbcaeeabd	-0.021352166
226	0x3a18392f	0.0005806861
227	0xbb81fbbd	-0.003966777
228	0xbc46a495	-0.0121242
229	0x3b451ff2	0.0030078855
230	0xbb4d5fad	-0.0031337545
231	0x3af167eb	0.0018417811
232	0x3aae6003	0.001330376
233	0xbae397f8	-0.0017364016
234	0x3c6d275f	0.014474719
235	0x3b81fc87	0.003966871
236	0xb77a5bc0	-1.4922523e-05
237	0x3ba123a1	0.0049175774
238	0xbc38086d	-0.011232478
239	0x3c3d813a	0.011566455
240	0xbb4b1c44	-0.003099219
241	0xbae22ca0	-0.0017255731
242	0xbc2b3f46	-0.010452097
243	0xba7ac555	-0.0009566148
244	0xbc4ff7fa	-0.0126934
245	0xbbdfe367	-0.0068325284
246	0xbca605f7	-0.020266516
247	0xbcb40363	-0.021974271
248	0xbbf72fcd	-0.00754354
249	0x37bb4049	2.2322072e-05
250	0x3bd8dfc2	0.006618471
251	0xbb9d7ac7	-0.004805896
252	0x3b9594a7	0.00456484
253	0x3acc9bbf	0.0015610381
254	0x3bdff12b	0.0068341694
255	0x3c8cfde3	0.017210906

action_model._discrete_distribution.branches.0.bias f4 [3]
0	0x00000000	0.0
1	0x00000000	0.0
2	0x00000000	0.0

action_model._discrete_distribution.branches.1.weight f4 [2, 128]
0	0xbaf27085	-0.0018496668
1	0xbb87f65f	-0.004149243
2	0x3c08f256	0.008358559
3	0xba68e87d	-0.0008884741
4	0x3b09e763	0.0021042458
5	0x3bec5258	0.0072119646
6	0xbba2b70b	-0.004965668
7	0xbbff7f9d	-0.007797195
8	0xbbce1f25	-0.006290334
9	0xbbd237f0	-0.0064153597
10	0xb97f50e2	-0.00024348826
11	0x3c96cff0	0.0184097
12	0xba828299	-0.0009957134
13	0x3a531445	0.00080520316
14	0x3be5673b	0.0070008314
15	0x3b4a3164	0.0030852193
16	0xbc26da91	-0.010183946
17	0x3c4919fb	0.012274261
18	0x3b036932	0.0020051715
19	0xbaa05443	-0.0012232143
20	0xb8fa1c38	-0.00011926185
21	0x3bf1dbc0	0.0073809326
22	0x3be784ff	0.007065415
23	0x3c554c1b	0.013018633
24	0x3b90c51f	0.00441803
25	0xbc2052e8	-0.009785391
26	0xbc1398ff	-0.009008645
27	0xba40b430	-0.0007351069
28	0x3c81a972	0.015827868
29	0x3c83842f	0.016054241
30	0x3b231e6a	0.0024889954
31	0xbb7a3217	-0.0038176829
32	0x3bca767f	0.0061786766
33	0x3bd5e858	0.0065279417
34	0xbc01f1a0	-0.007931143
35	0xbc66fd18	-0.014098428
36	0xbc4c7437	-0.01247888
37	0xbb219a47	-0.0024658607
38	0xbbbe6585	-0.005810442
39	0x3c9c75ae	0.019099083
40	0x3bd41ebb	0.00647339
41	0xbc373948	-0.0111830905
42	0x378c8cd4	1.6754879e-05
43	0x3c1d49c4	0.009600107
44	0xbc12e635	-0.008966018
45	0xbbc23dfd	-0.0059277997
46	0xbc11a677	-0.008889786
47	0x3a28a91b	0.000643389
48	0xbc447219	-0.011990094
49	0x3b97ac3b	0.004628686
50	0x3b491525	0.003068277
51	0xbc3a158d	-0.011357677
52	0x3c4cce1f	0.012500315
53	0xbb22001e	-0.0024719308
54	0x3b40cce1	0.0029418992
55	0x3c074a0b	0.008257399
56	0x3b8847b7	0.0041589397
57	0x3c0497af	0.008092805
58	0xbbf9c272	-0.0076220566
59	0xbbaca267	-0.0052683833
60	0xbc0f1b3e	-0.008734522
61	0xbaefc19f	-0.0018291957
62	0x3c283ffb	0.01026916
63	0xbb782ddd	-0.0037869134
64	0xbbfb9728	-0.0076779313
65	0xbb91c041	-0.0044479673
66	0xbb8d7497	-0.004316877
67	0xbbfaf852	-0.0076589966
68	0x3bc6144b	0.0060448996
69	0xbbf2565d	-0.007395549
70	0x3ae91f18	0.0017785756
71	0xbb171e0d	-0.0023058683
72	0x3b56ce6b	0.0032776843
73	0xbaa7f5bc	-0.0012814323
74	0xbbe6ecb3	-0.0070472597
75	0x382572c3	3.9445946e-05
76	0x3b46cb03	0.0030333407
77	0xbc0adaa3	-0.008474979
78	0x3c3716db	0.011174883
79	0x3b1c488f	0.002384696
80	0x3b349358	0.0027553644
81	0xbc5fa8ba	-0.013651067
82	0x3bc83938	0.0061103366
83	0xbaa5f7b4	-0.0012662322
84	0x3c1afe1f	0.009460001
85	0x3ba49846	0.005023035
86	0xbb99b120	-0.0046903044
87	0xbc142048	-0.0090409
88	0xbb8f2fc5	-0.0043697082
89	0x3ca0319f	0.019554911
90	0x3b89aa51	0.0042012115
91	0xbb04c2df	-0.0020257754
92	0x3c48da7d	0.012259123
93	0xba038edf	-0.0005018543
94	0xbb983cfa	-0.004645941
95	0x3b67d06d	0.0035372034
96	0x3c040dad	0.008059901
97	0xbaf34f6b	-0.0018563097
98	0xbc09949c	-0.008397248
99	0x3c38f6de	0.0112893265
100	0x3b9f1d20	0.004855767
101	0x3c2d3f6d	0.010574204
102	0xbbfb1b73	-0.0076631843
103	0x3afdd135	0.0019364717
104	0x3c30721f	0.010769396
105	0x3cb29e08	0.02180387
106	0x3ba48244	0.0050204117
107	0xbc7b1990	-0.015325919
108	0x3b9a5e39	0.0047109392
109	0x3cd9a893	0.02656964
110	0xbc22d5b4	-0.009938646
111	0xb8d43668	-0.00010119082
112	0xbcb666ae	-0.022265758
113	0xbb76a2e3	-0.003763371
114	0x3bfd005a	0.007720989
115	0xbb845df5	-0.004039521
116	0xbb1fca07	-0.0024381892
117	0xbc2e65c3	-0.010644379
118	0x3ab26f3b	0.0013613472
119	0xba270903	-0.0006371887
120	0x3c0ff78c	0.008787047
121	0xbbd9886a	-0.0066385763
122	0x3bf66e3d	0.0075204656
123	0x3bfd699d	0.0077335373
124	0x3ac73fe8	0.0015201541
125	0xba0335d5	-0.0005005275
126	0x3c270fd2	0.010196643
127	0x3c401444	0.011723582
128	0x3c63fd27	0.013915337
129	0xbc3bf766	-0.011472559
130	0x3c37b667	0.011212922
131	0x3bc96459	0.0061459956
132	0x3a81c43a	0.0009900399
133	0x3c0e401f	0.00868228
134	0xbabd49b0	-0.0014441516
135	0x3ccf45da	0.025301863
136	0xbbf449f5	-0.0074551054
137	0xbca8b19c	-0.020592503
138	0xbc08a16c	-0.008339267
139	0x3c667562	0.014066072
140	0xbcada35f	-0.021196065
141	0x3c5d1b97	0.013495347
142	0xbc535e87	-0.012900955
143	0x3c669045	0.0140724825
144	0xbb9fa126	-0.0048715053
145	0x3b9e3700	0.004828334
146	0x3c2ff3b3	0.010739255
147	0xbbb504ba	-0.005524245
148	0xbc3421e7	-0.010994411
149	0xbc67b25d	-0.014141646
150	0x3c4bd623	0.012441191
151	0x3b53aa92	0.0032297713
152	0x3c6d35cb	0.014478157
153	0x3c1f5b2a	0.009726325
154	0x3c197315	0.009365817
155	0x3bcdc40b	0.0062794737
156	0xbc41087c	-0.011781808
157	0xbba936cc	-0.005164003
158	0xbc946c46	-0.018118035
159	0xbc7a86c2	-0.015290918
160	0x3a2cefdd	0.0006597022
161	0x3bfba067	0.0076790336
162	0x3bf1ded8	0.0073813014
163	0x3c3956ce	0.0113122
164	0xbaa627ca	-0.0012676653
165	0x3c3e15f3	0.011601913
166	0x3b0620e7	0.0020466389
167	0xbbc3a05a	-0.005970043
168	0x3c4ae08b	0.012382637
169	0xbc11727d	-0.008877394
170	0x3ab20976	0.0013583142
171	0x3bfb6805	0.007672312
172	0xba7a21bd	-0.00095417706
173	0x3aabef23	0.0013117533
174	0x3b9c2293	0.0047648638
175	0xbb2a2a35	-0.0025965099
176	0x3c102d6b	0.008799891
177	0xbc8b06cf	-0.01697102
178	0x3beb859d	0.007187559
179	0xbc4dd787	-0.012563593
180	0x3c5d4ee2	0.013507577
181	0x3bb35e24	0.005473869
182	0xbc817130	-0.015801042
183	0x3bfdd6fb	0.007746575
184	0xbc71fc80	-0.014769673
185	0xba07352b	-0.0005157764
186	0xba9eaabd	-0.0012105327
187	0xbc65a5d8	-0.014016591
188	0xbadce802	-0.0016853812
189	0x3b494c02	0.003071547
190	0xb9a82bae	-0.00032076
191	0xba5baf45	-0.0008380304
192	0x3b8b8c33	0.0042586564
193	0x3b1cef1e	0.0023946236
194	0xbbe7e217	-0.0070765126
195	0x3b544980	0.0032392442
196	0xbb0241ae	-0.0019875574
197	0x3a404c92	0.00073356286
198	0xbabc410a	-0.0014362645
199	0xbc91b05b	-0.017784288
200	0x3b009877	0.0019622126
201	0x3c501a33	0.012701559
202	0xbba47924	-0.005019324
203	0x3c5fc17b	0.013656969
204	0xbb7e2fb0	-0.0038785748
205	0x3bc9d4c2	0.006159396
206	0xbb4b40f3	-0.0031014055
207	0xbc25e18b	-0.010124574
208	0x3c0291ae	0.007969303
209	0xbc1c3d01	-0.009536029
210	0x3c74ff6a	0.014953474
211	0xbc40704d	-0.011745525
212	0x3b5ff202	0.0034171348
213	0xbc18b4f3	-0.009320485
214	0x3bc942bd	0.006141989
215	0xbb9411d1	-0.0045187254
216	0x3a209328	0.00061254436
217	0xbc900717	-0.017581506
218	0x3bdc45c3	0.0067221834
219	0x3c723ee3	0.014785501
220	0xbba4260b	-0.005009418
221	0x3b65b1b8	0.0035048556
222	0x3a36737f	0.0006959959
223	0xbc519175	-0.012791027
224	0xbbc0df34	-0.005885983
225	0x3b3d1fdd	0.0028858103
226	0x3b0468d3	0.0020204082
227	0x3c2eb938	0.010664277
228	0xbb57729d	-0.0032874711
229	0xbc3c6a09	-0.01149989
230	0x3a8bcf1c	0.0010666582
231	0xbc7665a3	-0.0150388805
232	0xbc553cca	-0.0130149815
233	0xbc0aa157	-0.008461318
234	0x3b16520e	0.0022937092
235	0x3b94062b	0.004517337
236	0x3a654ec2	0.00087473926
237	0xbb4d1cb8	-0.0031297635
238	0xbbbd73ff	-0.00578165
239	0xbb3255f3	-0.0027211874
240	0xbc05c503	-0.008164647
241	0x3ba4b160	0.0050260276
242	0xbbcaf0b7	-0.006193246
243	0x3b02ca67	0.0019957067
244	0xbb390c81	-0.0028236213
245	0xbb1d4132	-0.0023995158
246	0x3a796e0a	0.0009514993
247	0x3c4f6035	0.012657215
248	0xb9976959	-0.00028879454
249	0xbbd8cc28	-0.006616134
250	0x3c0f186b	0.008733849
251	0xbbcd1e1b	-0.0062596924
252	0x3b5b5105	0.003346504
253	0x3c8b4d2e	0.017004576
254	0xbc166f83	-0.00918186
255	0xbb44a454	-0.0030005174

action_model._discrete_distribution.branches.1.bias f4 [2]
0	0x00000000	0.0
1	0x00000000	0.0
