results/ppo/Player Behaviour/Player Behaviour-960.onnx (onnx, 76643 bytes, 11 tensors)

discrete_action_output_shape f4 [1, 3]
3.0 2.0 2.0
00000000: 0000 4040 0000 0040 0000 0040

network_body._body_endoder.seq_layers.0.weight f4 [128, 5]
0.27592388 -0.056256257 -0.19603263 0.23232482 0.3625178 -0.068109006 0.17355043 -0.41192153
0.46548232 0.44095883 0.01712452 0.1394604 0.54034173 -0.3292202 -0.3679758 0.07358558
-0.27943888 -0.25481987 -0.44774795 -0.6489884 0.2892221 0.4018313 0.7406185 0.043606434
0.3231277 0.2711074 0.3106689 0.5770816 -0.00861799 0.536485 -0.8687097 -0.21012183
-0.007387037 0.0985536 -0.00052280317 0.10296222 -0.21319404 -0.30621672 -0.4630351 0.73524207
0.07291263 -0.5096975 0.12290565 0.41215673 -0.15121585 0.39160955 0.34331483 0.40356568
-0.63741904 0.35660213 -0.3735233 -0.46738636 0.050852694 0.51010764 -0.15457568 -0.19206616
-0.24164659 0.24704689 0.36011544 -0.46089202 -0.77970314 -0.24874981 1.1892564 -0.45944127
0.32186154 -0.50871265 -0.4061699 0.10645678 0.02080925 -0.8941504 -0.2298326 -0.37398553
-0.19184797 -0.41829762 -0.06822943 -0.7433887 0.4891343 0.03402996 0.05038447 -0.24117188
-0.28306746 -0.105799206 -0.6302199 -0.0010055281 0.22997907 0.37313747 0.56355333 0.59231925
0.12492571 -0.33741814 -0.27586132 -0.010694685 -0.020288602 -0.07091608 -0.36761773 0.3763357
-0.21495825 0.12877773 0.742266 -0.67680436 0.55137026 0.42203975 0.0112007335 -0.019666374
-0.2884647 -0.5170852 -0.89990735 0.043500315 0.20016114 0.6355025 -0.7114461 0.76080525
-0.0017937975 0.64855194 -0.78079563 1.3235648 0.029702738 0.23744439 -0.54997045 0.60097075
-0.8154954 -0.618535 0.0879466 -0.74867654 -0.07912428 0.02107239 -0.45055252 -0.21313637
0.46158284 0.047138333 -0.13951004 -0.32636386 -0.8849054 0.44862726 0.031721786 0.7824959
0.18551333 0.21677728 0.18364076 0.013083147 0.28427312 0.28347635 0.60202354 0.34529325
-0.076648325 0.032584164 0.4717072 -0.2848403 -0.076630205 -0.06117204 0.015685108 -0.8495755
0.07449108 -0.3803139 0.20695038 -0.55454814 0.1997226 -0.08420355 -0.29010093 -0.25373006
0.30480355 0.98101485 -0.2986114 -0.12030323 -0.04311987 -0.09878783 0.2139536 0.7071223
0.42120722 -0.65389687 0.56170976 -0.96004647 -0.45146805 0.20183294 -0.29407015 -0.045816086
-0.4086269 -0.71547973 -0.21140812 -0.58991134 0.08705315 -0.11486836 -0.07789613 -0.048075747
0.24268065 1.0212371 0.5900928 0.6398303 -0.14053641 0.02971629 -0.072517894 0.28183085
0.123290814 -0.5802718 -0.5795056 -0.695479 0.077286184 -0.19747104 -0.5837572 0.053136438
0.49952915 0.74259216 0.6728537 -0.09780745 1.6867071 0.06938705 -0.6275814 -0.124604784
-0.45918843 -0.05642353 -0.5376786 -0.124321565 -0.80482674 0.123587474 0.040045347 0.28677067
0.28239205 -0.8048306 0.16402166 0.38702706 0.6756867 0.072746985 0.358331 -0.45218542
0.27650014 0.6936248 -0.14405045 0.7472608 0.31441945 0.2233631 0.4263819 0.27486148
-0.8921538 0.21916637 -0.16987158 -0.06195308 0.68687326 -0.0045222626 -0.5333742 -0.4766172
0.7030334 -0.26903102 0.6620798 -0.61466134 -0.3459231 -0.20326784 -0.1322757 0.28175664
0.48450124 -0.6335494 -0.65801424 0.05874596 0.27957085 0.07727488 -0.23855309 -0.3519158
00000000: e545 8d3e f66c 66bd c7bc 48be 8fe6 6d3e
00000010: ef9b b93e bc7c 8bbd 34b7 313e 61e7 d2be
00000020: b353 ee3e 5bc5 e13e b948 8c3c b5ce 0e3e
00000030: d653 0a3f 8d8f a8be 5367 bcbe 09b4 963d
00000040: 9d12 8fbe c077 82be 383f e5be 1b24 26bf
00000050: eb14 943e d5bc cd3e 2d99 3d3f a99c 323d
00000060: fe70 a53e 97ce 8a3e fe0f 9f3e 9fbb 133f
00000070: 7832 0dbc 1557 093f c263 5ebf 2d2a 57be
00000080: f50e f2bb 78d6 c93d ba0c 09ba dbdd d23d
00000090: 8a4f 5abe 70c8 9cbe f012 edbe d338 3c3f
000000a0: 3853 953d 897b 02bf f5b5 fb3d 3506 d33e
000000b0: 54d8 1abe 0c81 c83e f6c6 af3e 29a0 ce3e
000000c0: e52d 23bf 8e94 b63e 723e bfbe 444d efbe
000000d0: ea4a 503d 6a96 023f 1649 1ebe feac 44be
000000e0: 3472 77be dcf9 7c3e 0d61 b83e 0afa ebbe
000000f0: a09a 47bf 45b8 7ebe 8e39 983f e33b ebbe
00000100: 09cb a43e fe3a 02bf 80f5 cfbe 0306 da3d
00000110: 2978 aa3c 0ae7 64bf 3d59 6bbe 087b bfbe
00000120: cb73 44be 1b2b d6be dfbb 8bbd b94e 3ebf
00000130: d06f fa3e 0063 0b3d f25f 4e3d c3f5 76be
00000140: 38ee 90be 41ad d8bd 1756 21bf edcb 83ba
00000150: a27f 6b3e e00b bf3e 0845 103f 3ca2 173f
00000160: 0dd9 ff3d 12c2 acbe b23d 8dbe c338 2fbc
00000170: 4834 a6bc 733c 91bd 6438 bcbe 13af c03e
00000180: 041e 5cbe 4fde 033e 2505 3e3f 0d43 2dbf
00000190: 9a26 0d3f 9815 d83e 4883 373c 601b a1bc
000001a0: a5b1 93be b25f 04bf 5460 66bf 632d 323d
000001b0: 0bf7 4c3e 4bb0 223f 5521 36bf 22c4 423f
000001c0: db1d ebba 8007 263f 39e2 47bf 926a a93f
000001d0: 2853 f33c 9f24 733e ddca 0cbf 38d9 193f
000001e0: 4ec4 50bf 4f58 1ebf 591d b43d 44a9 3fbf
000001f0: e90b a2bd 01a0 ac3c d2ae e6be 6c40 5abe
00000200: 9654 ec3e 2014 413d b8db 0ebe 2a19 a7be
00000210: 2989 62bf 79b2 e53e b4ee 013d a751 483f
00000220: 35f7 3d3e ddfa 5d3e 530c 3c3e b25a 563c
00000230: 3f8c 913e d023 913e 371e 1a3f 47ca b03e
00000240: ccf9 9cbd f976 053d 9b83 f13e 96d6 91be
00000250: 4cf0 9cbd 888f 7abd 0e7e 803c c87d 59bf
00000260: c88e 983d 81b8 c2be cdea 533e def6 0dbf
00000270: 1584 4c3e e972 acbd 1c88 94be e8e8 81be
00000280: 360f 9c3e ca23 7b3f 98e3 98be 8a61 f6bd
00000290: 769e 30bd 4651 cabd a716 5b3e f805 353f
000002a0: 79a8 d73e c965 27bf 36cc 0f3f 9bc5 75bf
000002b0: d226 e7be 4bad 4e3e 5d90 96be a6a9 3bbd
000002c0: 8c37 d1be ae29 37bf 5f7b 58be 6e04 17bf
000002d0: ec48 b23d 1a40 ebbd 0288 9fbd 13eb 44bd
000002e0: 4781 783e e6b7 823f 5210 173f ebcb 233f
000002f0: c7e8 0fbe 946f f33c 4384 94bd 224c 903e
00000300: e57f fc3d b18c 14bf 7b5a 14bf e90a 32bf
00000310: 3848 9e3d d935 4abe 1d71 15bf 98a5 593d
00000320: 49c2 ff3e 851a 3e3f 2440 2c3f 464f c8bd
00000330: 05e6 d73f cc1a 8e3d 2da9 20bf cb30 ffbd
00000340: bf1a ebbe 5c1c 67bd 4ea5 09bf 4e9c febd
00000350: 2009 4ebf 6e1b fd3d 9706 243d 9bd3 923e
00000360: b195 903e 6109 4ebf 4bf5 273e 6928 c63e
00000370: cef9 2c3f 5ffc 943d 2977 b73e d984 e7be
00000380: 6d91 8d3e 6591 313f f681 13be 7c4c 3f3f
00000390: 96fb a03e 4cb9 643e ba4e da3e a5ba 8c3e
000003a0: 3164 64bf 266d 603e d1f2 2dbe 83c2 7dbd
000003b0: edd6 2f3f 7d2f 94bb 368b 08bf 2b07 f4be
000003c0: fff9 333f 6fbe 89be 107e 293f 725a 1dbf
000003d0: d51c b1be 7225 50be 4873 07be 6842 903e
000003e0: 8c10 f83e 4b30 22bf 9f73 28bf 9b9f 703d
000003f0: e923 8f3e 4b42 9e3d 4347 74be 4f2e b4be

network_body._body_endoder.seq_layers.0.bias f4 [128]
0.0 0.0 0.0 0.0 0.0 0.0 0.0 0.0
0.0 0.0 0.0 0.0 0.0 0.0 0.0 0.0
0.0 0.0 0.0 0.0 0.0 0.0 0.0 0.0
0.0 0.0 0.0 0.0 0.0 0.0 0.0 0.0
0.0 0.0 0.0 0.0 0.0 0.0 0.0 0.0
0.0 0.0 0.0 0.0 0.0 0.0 0.0 0.0
0.0 0.0 0.0 0.0 0.0 0.0 0.0 0.0
0.0 0.0 0.0 0.0 0.0 0.0 0.0 0.0
0.0 0.0 0.0 0.0 0.0 0.0 0.0 0.0
0.0 0.0 0.0 0.0 0.0 0.0 0.0 0.0
0.0 0.0 0.0 0.0 0.0 0.0 0.0 0.0
0.0 0.0 0.0 0.0 0.0 0.0 0.0 0.0
0.0 0.0 0.0 0.0 0.0 0.0 0.0 0.0
0.0 0.0 0.0 0.0 0.0 0.0 0.0 0.0
0.0 0.0 0.0 0.0 0.0 0.0 0.0 0.0
0.0 0.0 0.0 0.0 0.0 0.0 0.0 0.0
00000000: 0000 0000 0000 0000 0000 0000 0000 0000
00000010: 0000 0000 0000 0000 0000 0000 0000 0000
00000020: 0000 0000 0000 0000 0000 0000 0000 0000
00000030: 0000 0000 0000 0000 0000 0000 0000 0000
00000040: 0000 0000 0000 0000 0000 0000 0000 0000
00000050: 0000 0000 0000 0000 0000 0000 0000 0000
00000060: 0000 0000 0000 0000 0000 0000 0000 0000
00000070: 0000 0000 0000 0000 0000 0000 0000 0000
00000080: 0000 0000 0000 0000 0000 0000 0000 0000
00000090: 0000 0000 0000 0000 0000 0000 0000 0000
000000a0: 0000 0000 0000 0000 0000 0000 0000 0000
000000b0: 0000 0000 0000 0000 0000 0000 0000 0000
000000c0: 0000 0000 0000 0000 0000 0000 0000 0000
000000d0: 0000 0000 0000 0000 0000 0000 0000 0000
000000e0: 0000 0000 0000 0000 0000 0000 0000 0000
000000f0: 0000 0000 0000 0000 0000 0000 0000 0000
00000100: 0000 0000 0000 0000 0000 0000 0000 0000
00000110: 0000 0000 0000 0000 0000 0000 0000 0000
00000120: 0000 0000 0000 0000 0000 0000 0000 0000
00000130: 0000 0000 0000 0000 0000 0000 0000 0000
00000140: 0000 0000 0000 0000 0000 0000 0000 0000
00000150: 0000 0000 0000 0000 0000 0000 0000 0000
00000160: 0000 0000 0000 0000 0000 0000 0000 0000
00000170: 0000 0000 0000 0000 0000 0000 0000 0000
00000180: 0000 0000 0000 0000 0000 0000 0000 0000
00000190: 0000 0000 0000 0000 0000 0000 0000 0000
000001a0: 0000 0000 0000 0000 0000 0000 0000 0000
000001b0: 0000 0000 0000 0000 0000 0000 0000 0000
000001c0: 0000 0000 0000 0000 0000 0000 0000 0000
000001d0: 0000 0000 0000 0000 0000 0000 0000 0000
000001e0: 0000 0000 0000 0000 0000 0000 0000 0000
000001f0: 0000 0000 0000 0000 0000 0000 0000 0000

network_body._body_endoder.seq_layers.2.weight f4 [128, 128]
0.07497004 -0.005970306 0.13003947 0.026980435 -0.0094253365 0.085334025 -0.06141958 0.14848702
0.027184285 -0.08618419 0.07464303 -0.023847098 0.049709305 0.13017924 -0.112230554 0.00049431407
0.021828353 -0.21881884 -0.0817997 -0.2590137 0.020217804 0.021119393 -0.085389234 0.08492932
0.008902047 -0.1055056 0.14627104 0.041648768 0.030003496 -0.030191343 0.13838278 -0.21748641
-0.06706402 -0.017722245 0.083912544 0.15511435 -0.05101436 0.049571626 -0.07221532 0.048833292
0.0743954 0.08357718 -0.05003068 0.114769846 -0.12264739 -0.10909786 -0.07395572 -0.08016607
0.113401756 -0.08668119 -0.10566882 -0.017426979 -0.16151498 -0.09620894 0.044095356 0.039433397
-0.038303893 -0.05831851 -0.011043351 -0.07145373 0.08308224 0.019486059 -0.064111 -0.046274647
0.015204263 -0.068567954 0.10061475 0.03873147 0.022219334 0.005906384 -0.0053260247 0.1282396
0.03429386 0.098257914 -0.14319418 0.022616223 0.09065932 0.05501327 -0.031861696 -0.0693841
0.050026633 0.03752058 0.007547192 -0.0031497234 -0.011016194 -0.09486616 0.022779167 0.03676154
-0.015600833 0.028628238 0.09446241 0.077702604 0.052417614 0.09813903 0.12900789 -0.06764393
0.07009133 0.019350661 -0.1583061 0.0068935356 -0.09525789 -0.12631588 -0.005808266 0.012996147
0.03867744 -0.0071677715 -0.09803938 -0.16465732 -0.047896996 -0.1189828 0.027310364 0.09347174
-0.026841965 -0.03957736 -0.0837538 -0.036279105 0.092823766 0.13508095 -0.055478122 -0.011231255
0.03344772 -0.034890585 0.05139555 0.08513052 -0.05632137 -0.09327809 -0.13991424 0.06517295
-0.03956399 0.20990711 -0.034694057 -0.0036975741 0.108440064 -0.14229172 0.09422301 -0.21812823
0.28668568 0.091822766 0.120569274 -0.10975656 -0.109358385 -0.03556195 -0.043925233 -0.09095381
-0.02489536 -0.14441077 0.054864813 -0.07464194 0.25730124 0.15929724 0.101889886 0.2395361
0.022796048 0.0032202967 -0.021116486 -0.14638461 0.021223389 0.04358677 -0.058073193 0.02181455
0.029542295 -0.036139823 -0.006231393 -0.026881028 -0.08340965 0.16386734 0.010066431 0.0033396767
0.02792405 -0.04548894 0.13031505 -0.101551116 -0.115168825 0.08491495 -0.045941338 -0.064907126
-0.065478705 0.048782643 0.0573113 0.076409966 -0.060119998 0.09738455 0.091827266 0.015261128
0.0025578071 -0.0034390744 0.06769874 0.09411762 -0.052235153 0.066914245 -0.016106786 0.0036103362
-0.08328906 0.04575578 0.08344188 -0.018526336 -0.10119757 0.046866342 0.057800755 -0.115217574
0.022529405 -0.0053150654 -0.08168681 -0.07634675 -0.039732363 0.009230496 -0.017310143 0.07077627
0.05022173 0.0019008134 0.04047938 0.043755148 -0.16592233 -0.0017307618 -0.08393479 0.03952038
0.02724448 0.010316548 -0.14368214 0.15033254 0.05148454 -0.0052172495 0.008443122 0.15247075
0.08059297 0.053029805 -0.18248037 -0.008248033 0.013471033 0.1517914 0.03913644 0.06181096
0.03512323 -0.046675507 -0.03864011 0.017361786 0.105940945 0.041961294 -0.14224553 0.04289919
0.0083727995 0.061217833 0.04962442 0.038142927 0.008864347 0.092175946 0.0032025815 -0.16543673
0.020035667 -0.11733496 0.095506825 0.046343394 0.005318335 0.079667166 0.208633 0.09381114
00000000: e489 993d 8fa2 c3bb 1129 053e 1306 dd3c
00000010: ba6c 1abc 9bc3 ae3d 1993 7bbd fb0c 183e
00000020: 94b1 de3c 5681 b0bd 72de 983d fd5a c3bc
00000030: fc9b 4b3d b54d 053e 22d9 e5bd db94 013a
00000040: 60d1 b23c 0c12 60be 9a86 a7bd 729d 84be
00000050: cf9f a53c 9402 ad3c 8de0 aebd 6cef ad3d
00000060: e4d9 113c 5213 d8bd 13c8 153e e697 2a3d
00000070: e4c9 f53c d653 f7bc 37b4 0d3e c2b4 5ebe
00000080: dc58 89bd 3e2e 91bc 57da ab3d 4cd6 1e3e
00000090: 6ff4 50bd 9e0b 4b3d a0e5 93bd 6b05 483d
000000a0: 9e5c 983d 832a ab3d f8ec 4cbd 740c eb3d
000000b0: 8e2e fbbd b36e dfbd 1976 97bd 1c2e a4bd
000000c0: 2e3f e83d e885 b1bd e568 d8bd 06c3 8ebc
000000d0: 2f64 25be 3109 c5bd 559d 343d ea84 213d
000000e0: 8be4 1cbd 64df 6ebd 2cef 34bc 5556 92bd
000000f0: 0527 aa3d 3aa1 9f3c a14c 83bd 7c8a 3dbd
00000100: 4d1b 793c 5b6d 8cbd 1b0f ce3d e4a4 1e3d
00000110: 5205 b63c 578a c13b ef85 aebb 3e51 033e
00000120: b877 0c3d 723b c93d 7fa1 12be a845 b93c
00000130: 98ab b93d 9855 613d 6981 02bd 4019 8ebd
00000140: bae8 4c3d 2eaf 193d 6f4e f73b 976b 4ebb
00000150: 447d 34bc 3049 c2bd 609b ba3c 4593 163d
00000160: a39a 7fbc c485 ea3c 8275 c13d 8b22 9f3d
00000170: dab3 563d 1efd c83d a51a 043e e788 8abd
00000180: 0b8c 8f3d 4785 9e3c ff1a 22be 2be3 e13b
00000190: 9216 c3bd f358 01be 4453 bebb cbed 543c
000001a0: 3c6c 1e3d a0df eabb dfc8 c8bd ee9b 28be
000001b0: a42f 44bd 41ad f3bd fcb9 df3c 1d6e bf3d
000001c0: aee3 dbbc df1b 22bd 1d87 abbd 6699 14bd
000001d0: 631a be3d a952 0a3e 073d 63bd 4c03 38bc
000001e0: 7a00 093d 6ee9 0ebd 2484 523d e958 ae3d
000001f0: 3db1 66bd 9508 bfbd ae45 0fbe 6579 853d
00000200: da0d 22bd e4f1 563e 5b1b 0ebd 0053 72bb
00000210: d315 de3d ecb4 11be fef7 c03d 025d 5fbe
00000220: 77c8 923e 930d bc3d 06ed f63d 0cc8 e0bd
00000230: 4af7 dfbd 68a9 11bd f2ea 33bd fe45 babd
00000240: 5bf1 cbbc 6be0 13be edb9 603d e0dd 98bd
00000250: fdbc 833e d11e 233e a5ab d03d f448 753e
00000260: c7be ba3c 9d0b 533b 7bfc acbc d9e5 15be
00000270: acdc ad3c 0a88 323d 28de 6dbd 6db4 b23c
00000280: af02 f23c 5a07 14bd b730 ccbb 9a35 dcbc
00000290: aed2 aabd d7cc 273e aced 243c 7ade 5a3b
000002a0: fac0 e43c 9c52 3abd 4f71 053e 08fa cfbd
000002b0: a2dd ebbd e4e7 ad3d fc2c 3cbd 07ee 84bd
000002c0: b319 86bd 4fd0 473d 41bf 6a3d d47c 9c3d
000002d0: 6340 76bd 8d71 c73d ef0f bc3d cf09 7a3c
000002e0: e2a0 273b 1862 61bb a3a5 8a3d bdc0 c03d
000002f0: 87f4 55bd 560a 893d 61f2 83bc 649b 6c3b
00000300: 7493 aabd 6a6a 3b3d 94e3 aa3d 8bc4 97bc
00000310: ac40 cfbd ecf6 3f3d 7cc0 6c3d 31f7 ebbd
00000320: 968f b83c 002a aebb 6a4b a7bd af5b 9cbd
00000330: 67be 22bd 823b 173c 00ce 8dbc 26f3 903d
00000340: 4db5 4d3d b724 f93a b5cd 253d 9938 333d
00000350: 8be7 29be bbda e2ba 01e6 abbd 1fe0 213d
00000360: d12f df3c bd06 293c 6921 13be c6f0 193e
00000370: 74e1 523d 76f5 aabb 0555 0a3c 4b21 1c3e
00000380: ed0d a53d c835 593d 22dc 3abe c222 07bc
00000390: 9cb5 5c3c 346f 1b3e 884d 203d 7d2d 7d3d
000003a0: 60dd 0f3d d12e 3fbd 1845 1ebd 4e3a 8e3c
000003b0: 91f7 d83d 9bdf 2b3d d0a8 11be 10b7 2f3d
000003c0: 112e 093c 8dbf 7a3d fa42 4b3d c23b 1c3d
000003d0: c43b 113c bec6 bc3d 67e2 513b 3f68 29be
000003e0: d721 a43c 504d f0bd 1599 c33d 92d2 3d3d
000003f0: 6d45 ae3b 8a28 a33d e4a3 553e 0e20 c03d

network_body._body_endoder.seq_layers.2.bias f4 [128]
0.0 0.0 0.0 0.0 0.0 0.0 0.0 0.0
0.0 0.0 0.0 0.0 0.0 0.0 0.0 0.0
0.0 0.0 0.0 0.0 0.0 0.0 0.0 0.0
0.0 0.0 0.0 0.0 0.0 0.0 0.0 0.0
0.0 0.0 0.0 0.0 0.0 0.0 0.0 0.0
0.0 0.0 0.0 0.0 0.0 0.0 0.0 0.0
0.0 0.0 0.0 0.0 0.0 0.0 0.0 0.0
0.0 0.0 0.0 0.0 0.0 0.0 0.0 0.0
0.0 0.0 0.0 0.0 0.0 0.0 0.0 0.0
0.0 0.0 0.0 0.0 0.0 0.0 0.0 0.0
0.0 0.0 0.0 0.0 0.0 0.0 0.0 0.0
0.0 0.0 0.0 0.0 0.0 0.0 0.0 0.0
0.0 0.0 0.0 0.0 0.0 0.0 0.0 0.0
0.0 0.0 0.0 0.0 0.0 0.0 0.0 0.0
0.0 0.0 0.0 0.0 0.0 0.0 0.0 0.0
0.0 0.0 0.0 0.0 0.0 0.0 0.0 0.0
00000000: 0000 0000 0000 0000 0000 0000 0000 0000
00000010: 0000 0000 0000 0000 0000 0000 0000 0000
00000020: 0000 0000 0000 0000 0000 0000 0000 0000
00000030: 0000 0000 0000 0000 0000 0000 0000 0000
00000040: 0000 0000 0000 0000 0000 0000 0000 0000
00000050: 0000 0000 0000 0000 0000 0000 0000 0000
00000060: 0000 0000 0000 0000 0000 0000 0000 0000
00000070: 0000 0000 0000 0000 0000 0000 0000 0000
00000080: 0000 0000 0000 0000 0000 0000 0000 0000
00000090: 0000 0000 0000 0000 0000 0000 0000 0000
000000a0: 0000 0000 0000 0000 0000 0000 0000 0000
000000b0: 0000 0000 0000 0000 0000 0000 0000 0000
000000c0: 0000 0000 0000 0000 0000 0000 0000 0000
000000d0: 0000 0000 0000 0000 0000 0000 0000 0000
000000e0: 0000 0000 0000 0000 0000 0000 0000 0000
000000f0: 0000 0000 0000 0000 0000 0000 0000 0000
00000100: 0000 0000 0000 0000 0000 0000 0000 0000
00000110: 0000 0000 0000 0000 0000 0000 0000 0000
00000120: 0000 0000 0000 0000 0000 0000 0000 0000
00000130: 0000 0000 0000 0000 0000 0000 0000 0000
00000140: 0000 0000 0000 0000 0000 0000 0000 0000
00000150: 0000 0000 0000 0000 0000 0000 0000 0000
00000160: 0000 0000 0000 0000 0000 0000 0000 0000
00000170: 0000 0000 0000 0000 0000 0000 0000 0000
00000180: 0000 0000 0000 0000 0000 0000 0000 0000
00000190: 0000 0000 0000 0000 0000 0000 0000 0000
000001a0: 0000 0000 0000 0000 0000 0000 0000 0000
000001b0: 0000 0000 0000 0000 0000 0000 0000 0000
000001c0: 0000 0000 0000 0000 0000 0000 0000 0000
000001d0: 0000 0000 0000 0000 0000 0000 0000 0000
000001e0: 0000 0000 0000 0000 0000 0000 0000 0000
000001f0: 0000 0000 0000 0000 0000 0000 0000 0000

action_model._discrete_distribution.branches.0.weight f4 [3, 128]
-0.003991252 0.0021101467 -0.008768137 0.0015320847 0.0032781356 -5.2010084e-05 0.0014722231 -0.0042265705
0.013697426 0.005859573 0.014707595 0.0015824089 -0.014595031 0.00479179 -0.0069320747 -0.011375845
0.0012332498 -0.00010323697 -0.0022971844 0.010260261 -0.009838144 -0.0052512 -0.008223089 -0.0030879874
0.0023970685 0.0008075886 0.0025379462 0.005447822 0.0050606555 -0.007443378 -0.008584664 -0.00031644906
-6.114747e-05 -0.0019761794 -0.001152749 0.019340802 0.00850889 0.001849275 -0.013815433 -0.004438666
0.0034934815 0.0048836055 -0.002904225 -0.011082263 -0.0035565165 0.01366235 0.0062764883 0.0043049897
0.0044358666 -0.00941935 0.0061676395 -0.0076542604 0.007574048 -0.0056977863 0.009970362 0.0009605152
0.0088709695 0.0022151114 0.0027800843 0.01030954 -0.004354116 0.007787667 -0.008750155 -0.00556496
-0.005610818 0.0019315213 0.0042836624 0.007878098 -0.007918083 0.00041485616 0.001536098 0.0052839224
0.020450367 0.0070541888 0.010578378 -0.015753876 0.0061802096 0.0045076385 0.005341177 0.004136113
-0.0038842086 -0.0028452815 0.0010856277 0.010634768 0.010205851 -0.0015931877 0.0057203583 0.0028709727
0.0048049134 -0.013281189 -0.0055912375 -0.0037667768 -0.005571126 -0.004871193 0.00437703 2.6076455e-05
0.0022258589 -0.0055963844 0.009510802 0.004615428 -0.0010333405 -0.017314633 0.0013453662 -0.012181918
0.0065255794 0.0076993625 -0.009662473 -0.003559889 -0.0031395983 0.0037837909 0.0135708 -0.007306054
-0.004981083 -0.0044523966 0.009897665 0.00029445215 -0.0029141696 0.009023699 0.0016045234 0.006622904
0.0065109483 -0.0016354145 0.0027088316 0.011181034 -0.0010953291 0.005263153 -0.008467741 0.000107819294
0.013286583 -0.02825934 -0.00390306 0.0023791478 -0.006976989 -0.0105783725 0.0032712799 -0.005967054
0.006255789 -0.019574884 -0.013151 -0.00837946 0.0005558211 -0.016757933 -0.0038714737 0.006090192
-0.004950522 0.0044771475 0.0021369224 0.005259943 0.0003918809 -0.020506041 -0.0013610303 0.009016678
0.011268335 0.012757689 -0.0072060586 0.006618276 0.006227811 0.011983295 0.0137823615 0.0024501095
0.008250226 0.00057074096 0.0066242726 0.017220994 -0.0036612712 0.004437934 0.006610212 0.0013213732
-0.013580411 0.0012696048 -0.0039453004 -0.0034908622 -0.0027975177 -0.009720552 -0.0019944115 -0.00942108
0.005460571 0.00070993276 -0.004113778 0.0062507973 0.017043 0.009522103 0.012268579 0.012623831
-0.0032756124 0.0036355015 -0.00020510748 0.00031080385 -0.01548361 -0.0063027167 0.005508115 0.002992645
-0.010323872 0.0020327563 0.00932294 0.0011915051 0.0015988238 -0.005542029 -0.0033920773 0.0045830235
0.019963907 0.0033747375 -0.006580067 0.010036929 -0.019749356 -0.017257703 0.0008483086 0.012803596
-0.0011192466 0.0039316737 -0.0073124445 -0.0027506966 -0.010274522 -0.0052390336 -0.0032246166 0.006281788
0.012403045 -0.005670536 -0.005842721 0.00599266 0.005812264 -0.0093161 0.012603672 -0.0036456052
-0.0075186095 -0.014962834 -0.018165605 0.010302707 -0.0018442972 -0.0034987282 -0.0077445195 0.0015608916
-0.0018610901 -0.010065794 0.017273566 -0.0021720873 -0.004661473 0.0056163683 -0.011045788 0.0051555433
-0.020697456 0.0004472072 0.013742502 0.0017914411 0.009705659 -0.0036194518 0.003524672 0.0018521224
-0.015470671 0.0015592402 -0.00025143556 -0.0107718585 0.022878936 0.00062458473 -0.0032158922 0.0016487718
00000000: 0cc9 82bb 634a 0a3b 3ba8 0fbc 3bd0 c83a
00000010: fdd5 563b 6725 5ab8 9cf7 c03a 0b7f 8abb
00000020: 2b6b 603c a901 c03b 20f8 703c d568 cf3a
00000030: ff1f 6fbc 7304 9d3b 7526 e3bb c161 3abc
00000040: ffa4 a13a ed80 d8b8 5c8c 16bb a71a 283c
00000050: 2b30 21bc 4212 acbb 23ba 06bc d55f 4abb
00000060: 2318 1d3b 5bb4 533a ac53 263b a583 b23b
00000070: dbd3 a53b 95e7 f3bb b1a6 0cbc 13e9 a5b9
00000080: 4c3c 80b8 ca82 01bb d717 97ba 9a70 9e3c
00000090: df68 0b3c 5f63 f23a 205a 62bc 3b72 91bb
000000a0: e5f2 643b a706 a03b cf54 3ebb 6192 35bc
000000b0: 7214 69bb 0dd8 5f3c 00ab cd3b df10 8d3b
000000c0: bf5a 913b 9e53 1abc e919 ca3b 97d0 fabb
000000d0: b82f f83b 7fb4 babb bb5a 233c 15cb 7b3a
000000e0: 8b57 113c 672b 113b 1332 363b 58e9 283c
000000f0: f9ac 8ebb b02f ff3b cf5c 0fbc 455a b6bb
00000100: f4da b7bb 1a2b fd3a f75d 8c3b 2313 013c
00000110: d9ba 01bc 0d81 d939 e556 c93a c124 ad3b
00000120: 8787 a73c d326 e73b ef50 2d3c 460e 81bc
00000130: 5b83 ca3b d0b4 933b 0a05 af3b 3b88 873b
00000140: 358e 7ebb e777 3abb 9f4b 8e3a 733d 2e3c
00000150: 7136 273c 82d2 d0ba d871 bb3b ee26 3c3b
00000160: 8972 9d3b 5899 59bc b336 b7bb 07dc 76bb
00000170: fe8d b6bb 879e 9fbb 306d 8f3b c3be da37
00000180: b7df 113b e061 b7bb 32d3 1b3c 043d 973b
00000190: 2771 87ba 6bd7 8dbc 0057 b03a ab96 47bc
000001a0: 87d4 d53b ef4a fc3b 594f 1ebc 074d 69bb
000001b0: b8c1 4dbb 7af9 773b 1058 5e3c 9f67 efbb
000001c0: 5a38 a3bb 69e5 91bb d129 223c b360 9a39
000001d0: a7fb 3ebb 23d8 133c df4e d23a f204 d93b
000001e0: cb59 d53b 685b d6ba a786 313b a830 373c
000001f0: 2591 8fba 8776 ac3b 48bc 0abc 0b1d e238
00000200: f8af 593c 2280 e7bc 7bca 7fbb 7aeb 1b3b
00000210: 3a9f e4bb e950 2dbc f862 563b 4787 c3bb
00000220: 5dfd cc3b 825b a0bc 4b77 57bc 014a 09bc
00000230: 86b4 113a ef47 89bc 8db8 7dbb 3c90 c73b
00000240: fd37 a2bb 09b5 923b 9c0b 0c3b 9a5b ac3b
00000250: 5d75 cd39 49fc a7bc 9964 b2ba b0ba 133c
00000260: d39e 383c a005 513c cd20 ecbb 1fde d83b
00000270: aa12 cc3b 9555 443c 6acf 613c 0492 203b
00000280: f52b 073c c79d 153a 6d10 d93b 0b13 8d3c
00000290: f0f1 6fbb 176c 913b 7a9a d83b ed31 ad3a
000002a0: 5f80 5ebc de68 a63a 9447 81bb f3c6 64bb
000002b0: 8f56 37bb f342 1fbc acb4 02bb e05a 1abc
000002c0: 97ee b23b c81a 3a3a dfcc 86bb 7dd3 cc3b
000002d0: c39d 8b3c 9802 1c3c 2602 493c 2fd4 4e3c
000002e0: a8ab 56bb 9841 6e3b 1f12 57b9 63f3 a239
000002f0: f8ae 7dbc 0587 cebb 6b7d b43b 4020 443b
00000300: 7525 29bc fe37 053b 3fbf 183c 472c 9c3a
00000310: a08f d13a e999 b5bb 9d4d 5ebb 302d 963b
00000320: 598b a33c b32a 5d3b 9a9d d7bb ee71 243c
00000330: 67c9 a1bc 0760 8dbc 0761 5e3a 2dc6 513c
00000340: afb3 92ba 45d5 803b 3b9d efbb 0845 34bb
00000350: 7856 28bc 33ac abbb 1754 53bb 75d7 cd3b
00000360: 2436 4b3c e7cf b9bb 4c74 bfbb 135e c43b
00000370: ce74 be3b 8ea2 18bc a27f 4e3c 1beb 6ebb
00000380: ab5e f6bb ad26 75bc 09d0 94bc afcc 283c
00000390: 58bc f1ba eb4a 65bb bdc5 fdbb d596 cc3a
000003a0: d2ef f3ba 00eb 24bc 4b81 8d3c 9459 0ebb
000003b0: 45bf 98bb 8309 b83b 65f9 34bc d5ef a83b
000003c0: b68d a9bc 2277 ea39 3b28 613c cace ea3a
000003d0: 7c04 1f3c 5334 6dbb 2ffe 663b eac2 f23a
000003e0: b278 7dbc 6b5f cc3a 1cd3 83b9 737c 30bc
000003f0: 9b6c bb3c 2cbb 233a b8c1 52bb 9a1b d83a

action_model._discrete_distribution.branches.0.bias f4 [3]
0.0 0.0 0.0
00000000: 0000 0000 0000 0000 0000 0000

action_model._discrete_distribution.branches.1.weight f4 [2, 128]
0.011058995 -0.016779862 -0.0076512964 0.004974745 -0.017752634 -0.011677067 0.0042201336 0.010596901
0.012668942 0.008133898 0.015872044 0.0036259068 -0.0037188667 -0.0062365094 0.00018038602 0.008731782
-0.0065785944 0.0010498645 0.00046225172 0.005575893 0.005029078 0.010325902 -0.00011784971 0.0011290134
0.010901562 0.008630495 0.003011855 0.0040306486 -0.0025856947 -0.003962004 0.0025305802 -0.0042081177
-0.007792765 -0.006737052 -0.0053427718 0.00410193 -0.0022141444 -0.0037726238 0.010229765 -0.004514887
-0.0009645749 -0.00035300327 0.006419749 -0.0025532192 -0.005486598 0.0026491943 0.012614573 0.0064006187
0.015693104 0.0033705302 -0.0058878413 0.0013978983 0.00615208 0.0013851975 0.007957644 -0.010152631
-0.0024552892 -0.0030989214 0.014468618 0.005502088 0.020572033 -0.011965643 0.011335514 0.0035593403
0.0004423406 -0.001287575 -0.0115457205 -0.0010185889 0.0017704619 0.0047287797 0.00507983 0.004182624
-0.003945306 -0.026852319 0.006980566 -0.011327127 -0.008977512 0.001503778 0.0094762575 -0.0074027847
0.0048425714 -0.0011493881 -0.003449397 -0.007209688 0.009924564 0.008335223 0.017558461 -0.026749332
-0.007255435 -0.01243061 0.0115850335 0.011465828 -0.012697095 0.012750499 0.009243088 -9.426911e-05
-0.012590821 0.007054916 -0.016287532 -0.0015516707 -0.02022099 -0.0053376583 0.00016465725 0.007933533
0.0074520134 -0.015028672 0.0014729266 -0.014517088 -0.00498694 0.015531289 -0.008129978 -0.0060893074
-8.473493e-05 -0.0008584193 0.004924437 0.009662981 0.0050308686 -0.005085485 -0.009376124 -0.012907489
0.0021830397 0.011486892 -0.006152715 -0.0055451887 0.013708556 -0.0028264418 0.008749739 -0.008762185
-0.010911141 -0.0002292801 -0.0065577053 0.001998453 0.010040403 0.00866413 0.004123811 -0.0024187136
0.0019471267 -0.0030361318 0.009959696 -0.005071379 0.003246141 0.002395124 0.002036958 -0.007452143
0.010735377 -0.004776683 -0.007682003 -0.019062262 -0.018125316 0.0064579025 0.0024515288 0.010320514
-0.007905223 0.01202171 0.018994808 0.007825465 0.00760233 0.009283753 -0.008925232 0.0056850794
-0.015202502 0.0025887364 0.00053625123 -0.012888096 0.0090880515 0.0042383173 0.010830796 0.0029134718
-0.017990006 0.0044665057 0.00777781 0.001635547 0.006093106 0.0031270366 0.0025315795 0.00026301196
0.013482998 -0.015395339 0.006984429 0.015098283 0.0020487434 0.002499111 0.004502797 0.009456921
-0.012629419 -0.006983697 0.00040627806 0.0029459763 0.00395744 -0.0079542585 0.004913861 -0.008530977
-0.0036593152 0.003640399 0.0013565039 -0.029555226 0.010064374 0.0044339625 -0.003087262 0.00447091
-0.0014295628 0.0016480939 -0.0066710184 -0.007043939 -0.00043265565 -0.00065234426 -0.00076848106 0.0047522364
0.015242668 -0.00998036 -0.013268736 -0.010427254 -0.004671685 -0.02260532 -0.0078826565 -0.0075993575
-0.002178488 -0.0067612617 -0.0076867924 0.022449218 0.00719985 0.013503109 0.0076253205 0.00345999
0.012432477 0.010452087 -0.01165822 0.0018726448 -0.00051299797 -0.0066407793 -0.012586403 0.002972098
0.004566718 0.00537683 -0.009334231 -0.009371461 -0.0038329985 0.0034618143 -0.0012450598 -0.004111371
1.7159524e-05 0.004360107 -0.006615137 -0.007753499 0.0017783877 -0.008534441 -0.00821938 -0.016299823
-0.00043009405 0.0053072865 -0.008081425 4.0209954e-05 -0.0017629724 -0.0011967465 0.0123506095 -0.011335904
00000000: c930 353c ec75 89bc bab7 fabb 3003 a33b
00000010: f96d 91bc 2b51 3fbc 0c49 8a3b a09e 2d3c
00000020: 6591 4f3c 0a44 053c 1706 823c 9fa0 6d3b
00000030: 3bb8 73bb a25b ccbb 0126 3d39 c00f 0f3c
00000040: 4091 d7bb 9b9b 893a 605a f239 fbb5 b63b
00000050: f7ca a43b f92d 293c 1526 f7b8 67fb 933a
00000060: 779c 323c eb66 0d3c 8b62 453b 8813 843b
00000070: c274 29bb b3d3 81bb 17d8 253b 40e4 89bb
00000080: 735a ffbb 7dc2 dcbb 6b12 afbb 7c69 863b
00000090: 2e1b 11bb 203e 77bb bf9a 273c 9ef1 93bb
000000a0: 87db 7cba 4c13 b9b9 c25c d23b e953 27bb
000000b0: ebc8 b3bb 1b9e 2d3b 5bad 4e3c 48bc d13b
000000c0: d38e 803c 1de4 5c3b cbee c0bb af39 b73a
000000d0: 6397 c93b 848f b53a c760 023c 3957 26bc
000000e0: ebe8 20bb 4617 4bbb c80d 6d3c dc4a b43b
000000f0: ae86 a83c 8b0b 44bc 97b8 393c d243 693b
00000100: f3e9 e739 d9c3 a8ba 432a 3dbc 2c82 85ba
00000110: d80e e83a e1f3 9a3b b474 a63b 650e 893b
00000120: a047 81bb 65f9 dbbc 3bbd e43b 6a95 39bc
00000130: 6a16 13bc 6b1a c53a 4e42 1b3c 0f93 f2bb
00000140: 6fae 9e3b 11a7 96ba 470f 62bb 3f3f ecbb
00000150: a39a 223c 7690 083c c3d6 8f3c 6a21 dbbc
00000160: 00bf edbb c2a9 4bbc 27cf 3d3c 2bdb 3b3c
00000170: 7a07 50bc 78e7 503c 5270 173c 58b2 c5b8
00000180: bb49 4ebc ed2c e73b 6e6d 85bc 6e61 cbba
00000190: 7da6 a5bc 86e7 aebb d8a7 2c39 a6fb 013c
000001a0: 0530 f43b d23a 76bc 370f c13a 15d9 6dbc
000001b0: 7c69 a3bb f376 7e3c 9933 05bc d088 c7bb
000001c0: b8b3 b1b8 8b07 61ba 2c5d a13b 7b51 1e3c
000001d0: fcd9 a43b 24a4 a6bb 509e 19bc ef79 53bc
000001e0: 5411 0f3b 8433 3c3c b79c c9bb 6ab4 b5bb
000001f0: da99 603c d33b 39bb 115b 0f3c 458f 0fbc
00000200: a4c4 32bc e86a 70b9 05e2 d6bb 7af8 023b
00000210: 8180 243c fff3 0d3c 0921 873b 4883 1ebb
00000220: bb36 ff3a d7f9 46bb fe2d 233c cf2d a6bb
00000230: 35bd 543b 83f7 1c3b 7c7e 053b 1b31 f4bb
00000240: 6fe3 2f3c b985 9cbb 50b9 fbbb 7628 9cbc
00000250: 8b7b 94bc d09c d33b d4a9 203b 6017 293c
00000260: e984 01bc b5f6 443c 009b 9b3c 6136 003c
00000270: f71c f93b e21a 183c 233b 12bc e749 ba3b
00000280: ea13 79bc caa7 293b 3693 0c3a 9828 53bc
00000290: 0de6 143c 95e1 8a3b a773 313c f2ef 3e3b
000002a0: c75f 93bc c45b 923b 00dd fe3b da5f d63a
000002b0: aea8 c73b f8ee 4c3b dbe8 253b dee4 8939
000002c0: cbe7 5c3c bb3c 7cbc a3dd e43b ca5e 773c
000002d0: 3644 063b 20c8 233b 338c 933b 34f1 1a3c
000002e0: 9feb 4ebc 7fd7 e4bb b801 d539 4811 413b
000002f0: 6aad 813b 9452 02bc 7404 a13b 83c5 0bbc
00000300: 1fd1 6fbb c393 6e3b b8cc b13a cd1d f2bc
00000310: 0be5 243c c64a 913b a953 4abb b680 923b
00000320: 2b60 bbba db04 d83a 8f98 dabb d8d0 e6bb
00000330: 0fd6 e2b9 1502 2bba e473 49ba a6b8 9b3b
00000340: 62bc 793c aa84 23bc 1d65 59bc 13d7 2abc
00000350: ef14 99bb cb2e b9bc 4226 01bc 0804 f9bb
00000360: f7c4 0ebb 938d ddbb 7de1 fbbb 6ce7 b73c
00000370: b8ec eb3b 253c 5d3c d3dd f93b 00c1 623b
00000380: 97b1 4b3c 3b3f 2b3c 1e02 3fbc 8873 f53a
00000390: b67a 06ba e59a d9bb 3337 4ebc 88c7 423b
000003a0: 68a4 953b 1f30 b03b 9aee 18bc c28a 19bc
000003b0: 0b33 7bbb 9bdf 623b 4631 a3ba aeb8 86bb
000003c0: ccf1 8f37 3adf 8e3b cbc3 d8bb 1011 febb
000003d0: ca18 e93a 0ad4 0bbc 94aa 06bc 3587 85bc
000003e0: 3f7e e1b9 bfe8 ad3b f467 04bc 1ca7 2838
000003f0: 8a13 e7ba 26dc 9cba 365a 4a3c 3aba 39bc

action_model._discrete_distribution.branches.1.bias f4 [2]
0.0 0.0
00000000: 0000 0000 0000 0000

action_model._discrete_distribution.branches.2.weight f4 [2, 128]
-0.0047993716 0.009429289 0.012108575 0.00051782926 0.011340817 -0.011653843 0.003991132 -0.007042949
-0.0026144865 0.005313451 -0.0014968758 -0.0028107844 0.00029064537 -0.0063421153 -0.007863767 0.0006394004
-0.0036913727 0.005577193 0.0006747522 0.007098676 0.015315279 -0.017506288 0.010863363 -0.006005553
0.015203956 0.0031628327 0.006057672 -0.0026655637 0.019915424 -0.008743913 0.00023477133 0.002092127
-0.0015283728 -0.0025364112 -0.00096709497 0.007857181 0.011737491 -0.008928201 0.003285036 -0.009717003
-0.0075945393 0.0022810493 0.0018755855 0.0046868995 0.0015265661 -0.0037503142 0.0025787016 0.018169133
-0.011539887 0.00828918 0.008729736 -0.007602859 -0.014408386 -0.0030066685 0.010434053 0.024118235
-0.021762108 -0.0070957774 -0.0048508123 -0.0064991578 0.0035930376 0.016675146 0.013079064 0.0045358227
-0.0023029696 -0.0015459958 0.0014692274 0.00022673784 -0.00566541 -0.0014523027 -0.00579039 -0.0033442457
-0.008886459 -0.002654923 0.0077472934 -0.0011030573 0.006315645 -0.005273691 0.0034919237 -0.0022624584
0.008946342 -0.014781398 -0.0025546653 0.004908355 -0.003620578 0.008330486 0.010795328 0.0040342542
0.00031776793 0.009444137 0.0057314937 -0.00930215 -0.003211214 0.02577295 0.0043593743 -0.005342839
0.005115745 0.01698762 0.014949456 -0.0073381956 -0.0074769887 0.0036708408 -0.005944282 -0.005862944
0.007100866 -0.011346841 0.0021160322 0.0024660907 -0.0200309 -0.003271299 7.428023e-05 0.009484901
0.012346904 0.0070488006 -0.008714278 -0.009267816 0.0014228196 0.014359869 0.007471055 -0.0040836507
0.007037241 0.013722799 0.0044639474 -0.005835872 -0.010163466 0.0048838453 -0.0039931904 0.00041629045
0.0023421508 -0.02252127 0.012691234 -0.016855981 -0.0027869365 0.0013825822 0.0020835556 0.008302762
0.010775914 0.020748254 0.0019279892 -0.006713394 0.0055578738 -0.0015381257 -0.0143185435 -0.006932508
-0.0042274026 -0.008876408 -0.00065976655 0.004824196 0.0134336995 -0.009533263 -0.0021867068 -0.0033976776
-0.011401894 -0.0037186984 0.003239798 0.0016965558 0.00086715975 -0.0011048748 0.006849622 -0.0038615223
0.014688713 0.010654595 -0.0039658877 -0.0076788017 0.002561775 -0.0060770125 0.005493564 0.0031289204
-0.0056844456 0.012230992 0.009578354 -0.014757194 -0.0064201797 0.012049392 -0.0046446486 0.0029554728
0.005783168 -0.0044269115 0.00042209943 0.009342725 -0.0010018809 -0.0059478255 0.014766261 0.009436291
0.005927227 -0.003658646 0.00021212395 -0.0014014943 -0.0027822969 -0.0034924473 -0.0018734733 0.002112825
-0.0113074295 -0.0023211522 -0.0016264868 0.010001483 0.004625186 -0.0015520966 0.0007256736 0.0033072222
-0.017055444 -0.0031114442 -0.009532785 0.00019451615 0.009347925 0.01723005 0.0022734911 0.008513643
0.012944012 -0.007651408 0.015739767 -0.008568852 -0.009860245 0.0068646544 0.001811401 -0.0048207925
-0.0093411235 -0.0044045853 -0.00014414066 -0.0102085825 0.005489489 -0.00206403 -0.0033007867 0.006379274
-0.0146299545 -0.008821133 -0.0010545305 -0.002250062 -0.014486603 0.0034283851 -0.005713137 0.010610226
-0.003154878 0.009603305 -0.013293557 0.009228263 -0.0022083286 0.015076436 0.0119207455 -0.00037381603
-0.0053374576 0.0066959336 -0.005644013 -0.008129923 -0.0056997417 -0.009269353 -0.00083916116 -0.002202291
-0.008715215 0.00080871367 -0.0022427086 -0.011188325 0.0027482023 -0.0069446485 0.020302549 0.015841184
00000000: 0c44 9dbb 4e7d 1a3c 0b63 463c efbe 073a
00000010: d6ce 393c c3ef 3ebc 0bc8 823b 8ac8 e6bb
00000020: ce57 2bbb 751c ae3b d132 c4ba 2335 38bb
00000030: c361 9839 85d1 cfbb 08d7 00bc 6f9d 273a
00000040: f5ea 71bb e3c0 b63b dbe1 303a 039c e83b
00000050: f0ec 7a3c 5969 8fbc 3ffc 313c 3bca c4bb
00000060: 031a 793c 8747 4f3b 707f c63b bdb0 2ebb
00000070: ac25 a33c a142 0fbc f32c 7639 111c 093b
00000080: ae53 c8ba eb39 26bb a584 7dba 68bb 003c
00000090: 9b4e 403c 9747 12bc c249 573b 1134 1fbc
000000a0: 9ddb f8bb a87d 153b 35d6 f53a 9094 993b
000000b0: 0f17 c83a d5c7 75bb 6fff 283b 6fd7 943c
000000c0: cb11 3dbc 57cf 073c 2b07 0f3c 6721 f9bb
000000d0: 2711 6cbc 870b 45bb 97f3 2a3c 9b93 c53c
000000e0: 7346 b2bc b283 e8bb 90f3 9ebb e3f6 d4bb
000000f0: 2b79 6b3b 519a 883c 9249 563c 3da1 943b
00000100: 6bed 16bb 03a3 caba 1793 c03a 7ac0 6d39
00000110: e7a4 b9bb 315b beba 50bd bdbb 222b 5bbb
00000120: 8398 11bc 37fe 2dbb 02dd fd3b 7694 90ba
00000130: 78f3 ce3b edce acbb c2d8 643b c145 14bb
00000140: ae93 123c ad2d 72bc 2c6c 27bb 44d6 a03b
00000150: 3847 6dbb 977c 083c e3de 303c c731 843b
00000160: 179a a639 95bb 1a3c 41cf bb3b 0c68 18bc
00000170: 3b73 52bb cb21 d33c 15d9 8e3b fb12 afbb
00000180: fba1 a73b 9f29 8b3c 90ee 743c 3f75 f0bb
00000190: 8701 f5bb 7d92 703b 40c8 c2bb f01d c0bb
000001a0: 62ae e83b 1ae8 39bc 21ad 0a3b 239e 213b
000001b0: d817 a4bc 4a63 56bb e5c6 9b38 8f66 1b3c
000001c0: ab4a 4a3c a0f9 e63b 55c6 0ebc 0ad8 17bc
000001d0: e77d ba3a a845 6b3c c0cf f43b 25d0 85bb
000001e0: a898 e63b 97d5 603c 4e46 923b d83a bfbb
000001f0: ab84 26bc aa08 a03b 4fd9 82bb 8f41 da39
00000200: c57e 193b 877e b8bc e5ee 4f3c 8e15 8abc
00000210: 09a5 36bb c337 b53a 438c 083b 4f08 083c
00000220: 768d 303c 3ef8 a93c 95b4 fc3a 08fc dbbb
00000230: d31e b63b ef9a c9ba 5398 6abc 182a e3bb
00000240: 0686 8abb 5b6e 11bc 2ff4 2cba 4a14 9e3b
00000250: 0519 5c3c 6731 1cbc da4e 0fbb 92ab 5ebb
00000260: 02cf 3abc 68b5 73bb ca52 543b f75e de3a
00000270: 1b52 633a 72d1 90ba cb72 e03b 9811 7dbb
00000280: eda8 703c 9c90 2e3c 47f4 81bb 759e fbbb
00000290: 74e3 273b ad21 c7bb 5b03 b43b 930e 4d3b
000002a0: 9644 babb 8064 483c 87ee 1c3c 28c8 71bc
000002b0: 5f60 d2bb d06a 453c 2332 98bb 9bb0 413b
000002c0: bb80 bd3b a00f 91bb 3a4d dd39 3b12 193c
000002d0: 8b51 83ba fae5 c2bb 30ee 713c ac9a 1a3c
000002e0: 2f39 c23b e5c5 6fbb 976d 5e39 58b2 b7ba
000002f0: 3257 36bb 8be1 64bb 558f f5ba 5277 0a3b
00000300: cc42 39bc 791e 18bb d72f d5ba 43dd 233c
00000310: df8e 973b b86f cbba 223b 3e3a fbbd 583b
00000320: dcb7 8bbc 5fe9 4bbb 662f 1cbc 08f7 4b39
00000330: 0a28 193c 0926 8d3c dafe 143b cf7c 0b3c
00000340: 1f13 543c aab8 fabb aff0 803c 5f64 0cbc
00000350: dd8c 21bc e5f0 e03b 886c ed3a bdf7 9dbb
00000360: 830b 19bc 5754 90bb 7724 17b9 e641 27bc
00000370: 2ce1 b33b ad44 07bb 0352 58bb 3b09 d13b
00000380: 7ab2 6fbc 8386 10bc 2c38 8aba c775 13bb
00000390: 3859 6dbc c2ae 603b 4435 bbbb 83d6 2d3c
000003a0: 12c2 4ebb 2e57 1d3c 38cd 59bc 2432 173c
000003b0: 9bb9 10bb 2803 773c 3b4f 433c bdfc c3b9
000003c0: d7e5 aebb 9069 db3b 6af1 b8bb 5e33 05bc
000003d0: e6c4 babb 7cde 17bc 27fb 5bba 5054 10bb
000003e0: 43ca 0ebc dbff 533a 68fa 12bb 3c4f 37bc
000003f0: 2f1b 343b ef8f e3bb 8851 a63c 5fc5 813c

action_model._discrete_distribution.branches.2.bias f4 [2]
0.0 0.0
00000000: 0000 0000 0000 0000
