results/ppo/Player Behaviour/Player Behaviour-512.onnx (onnx, 76823 bytes, 10 tensors)

discrete_action_output_shape f4 [1, 2]
3.0 3.0
00000000: 0000 4040 0000 4040

network_body._body_endoder.seq_layers.0.weight f4 [128, 5]
-0.5917388 0.22696686 -0.15244009 -0.2454319 -0.36139125 -0.18183538 0.25246552 -0.31337017
-0.3672183 0.6833454 -0.10571128 -0.022760652 -0.17383745 -0.43554822 -0.2666478 0.16857035
0.1327181 0.97321874 -0.2478922 0.24005821 0.7996941 0.17306858 0.49970865 -0.3065485
-0.113436945 0.19048545 0.52794033 0.43807673 0.44834262 0.19364564 0.6937099 0.40954357
-0.16610682 0.4859029 0.40291765 0.3453164 -0.21599557 -0.16579512 0.12024334 -0.52300406
0.3646827 0.8252965 0.21779127 0.8008427 -1.0915861 0.18195017 0.27542564 -0.59413135
-0.82420886 0.3335584 0.26008523 0.014762484 -0.22191809 0.056372702 0.26261526 0.1832921
0.5821928 -0.7997935 -0.25870293 -0.75137556 0.058302533 -0.06363813 -0.31792155 0.2362543
-0.21301293 -0.25140208 -0.36421424 -0.11176066 0.12793107 0.12973842 1.2790062 0.18617673
-0.16661668 -0.2261286 -0.27956712 -0.017698217 0.49021012 -0.18984498 -0.3772257 1.1771473
0.3114711 0.662541 0.17503777 0.07328391 0.13653706 0.054556876 -0.019701226 -0.7300782
0.36268154 0.73659766 0.08769029 -0.021007441 -0.009050096 0.094624326 0.4731018 0.4582948
-0.46625873 -0.12775093 0.24086349 0.6100067 -0.04167773 0.46946773 -0.13752435 0.4001638
-0.08257042 -0.14378235 -0.58010805 0.47642902 0.07337527 0.7578777 0.6105494 -0.2749161
-0.78894573 -0.29226542 0.27823338 -0.3649585 -0.4283714 0.18724951 -0.5826523 -0.06890777
0.23819911 0.022481535 0.26780248 0.4818568 -0.47008318 -0.17631076 -0.68518203 -0.4101281
-0.14222111 -0.54565996 -0.05983362 0.3956626 0.42593065 -0.25524917 0.7661746 -0.27838156
-0.6890642 0.13763903 0.6660977 -0.5026018 0.32483208 -0.06623242 0.30486095 -0.78207916
-0.14296468 -0.18270789 -0.6373716 0.92710423 -0.18864615 -0.20833205 -0.17369747 -0.28925374
-0.38569552 0.29801473 -0.15493403 0.12224127 -0.2657407 -0.06943407 -0.22264674 -0.56948614
-0.33978644 0.01873292 0.65119594 -0.3103304 0.12931225 -0.305345 -0.18283269 -0.76146805
-0.47415456 -0.49629208 0.12435738 0.17465061 -0.092765234 -0.83046734 0.31863403 0.4035545
-0.45287272 -0.24410631 -0.46788153 -0.8379479 -0.16000706 -0.09244388 -0.13436247 0.21949646
0.90094084 0.2918642 -0.14241442 -0.099345125 0.0897288 -0.71977234 0.23447861 0.032673072
-0.85431874 -0.25437912 0.675643 0.044180658 -0.5618174 -0.2583679 -0.08493164 -0.7267108
0.8749824 0.48516977 0.6846075 0.62730426 -0.7113804 -0.13300197 -0.7153654 0.6898855
-0.9957052 -0.18257204 -0.3926903 1.1389143 0.028418433 0.2683025 -0.4838409 0.20892441
-0.042619426 0.74113286 -0.01691826 -0.33275637 -0.064396165 0.12857874 -0.36619437 -0.82063633
0.07509194 -0.37458426 0.20868675 -0.56816983 0.7324123 -0.46755937 -0.24768588 1.0445418
0.19627388 -0.2844836 -0.2271796 0.25138807 0.26788497 -0.07518568 0.1728639 -0.12922
0.35361147 -0.2555802 0.28266013 -0.044413213 -0.8161729 0.5792305 -0.17687394 0.6418295
0.40210572 0.6322002 0.3461832 0.5296282 -0.05603857 -0.04420317 -0.030281514 1.3706027
00000000: 327c 17bf 006a 683e 4119 1cbe 8052 7bbe
00000010: 4608 b9be 0e33 3abe 2943 813e 0e72 a0be
00000020: 0904 bcbe b9ef 2e3f 287f d8bd 8c74 babc
00000030: 7202 32be 2d00 dfbe 0f86 88be b59d 2c3e
00000040: 41e7 073e dd24 793f 74d7 7dbe d2d1 753e
00000050: c1b8 4c3f e438 313e d0d9 ff3e edf3 9cbe
00000060: a151 e8bd 9e0e 433e 1927 073f 984b e03e
00000070: 2a8d e53e 0b4b 463e f996 313f b2af d13e
00000080: e817 2abe 44c8 f83e 394b ce3e 50cd b03e
00000090: f12d 5dbe 32c6 29be 2442 f63d 98e3 05bf
000000a0: b1b7 ba3e a246 533f ad04 5f3e 0704 4d3f
000000b0: 18b9 8bbf 2551 3a3e 9704 8d3e fe18 18bf
000000c0: 5aff 52bf 2bc8 aa3e e429 853e 58de 713c
000000d0: 7f3e 63be 10e7 663d 8275 863e edb0 3b3e
000000e0: 960a 153f 44bf 4cbf b674 84be 265a 40bf
000000f0: a3ce 6e3d b554 82bd 9dc6 a2be a6ec 713e
00000100: 1020 5abe c6b7 80be 4a7a babe c6e2 e4bd
00000110: 5d00 033e 26da 043e 7ab6 a33f 1da5 3e3e
00000120: 909d 2abe 418e 67be 6c23 8fbe dafb 90bc
00000130: d2fc fa3e b966 42be ba23 c1be c3ac 963f
00000140: 2479 9f3e 499c 293f 1a3d 333e e015 963d
00000150: 5fd0 0b3e 0877 5f3d 7764 a1bc 68e6 3abf
00000160: 65b1 b93e aa91 3c3f f796 b33d cc17 acbc
00000170: db46 14bc 66ca c13d 663a f23e 9ea5 ea3e
00000180: 77b9 eebe 24d1 02be eba4 763e 6629 1c3f
00000190: 44b6 2abd 135e f03e 2fd3 0cbe 45e2 cc3e
000001a0: ae1a a9bd ae3b 13be f681 14bf 81ee f33e
000001b0: c645 963d 4604 423f f74c 1c3f cec1 8cbe
000001c0: 59f8 49bf d0a3 95be 9b74 8e3e d7db babe
000001d0: 7f53 dbbe 56be 3f3e b328 15bf 841f 8dbd
000001e0: 78ea 733e 322b b83c 681d 893e efb5 f63e
000001f0: beae f0be cf8a 34be 1768 2fbf 4ffc d1be
00000200: 69a2 11be 5fb0 0bbf 1914 75bd 4a94 ca3e
00000210: 9513 da3e 05b0 82be 0524 443f 0788 8ebe
00000220: 8366 30bf 3ff1 0c3e 6185 2a3f 83aa 00bf
00000230: 6450 a63e dda4 87bd bc16 9c3e 5736 48bf
00000240: 5565 12be c717 3bbe c92a 23bf b456 6d3f
00000250: 752c 41be ff54 55be c0dd 31be 1119 94be
00000260: e279 c5be 6395 983e 07a7 1ebe a259 fa3d
00000270: 2a0f 88be 7333 8ebd 82fd 63be d8c9 11bf
00000280: 7df8 adbe c875 993c c7b4 263f a0e3 9ebe
00000290: 6e6a 043e 2e56 9cbe 7e38 3bbe 92ef 42bf
000002a0: 63c4 f2be ff19 febe 15af fe3d 9cd7 323e
000002b0: b3fb bdbd 8299 54bf 0024 a33e b29e ce3e
000002c0: efde e7be 01f7 79be 2b8e efbe c183 56bf
000002d0: e4d8 23be 3853 bdbd 5196 09be aec3 603e
000002e0: 0fa4 663f 396f 953e 16d5 11be 7575 cbbd
000002f0: bcc3 b73d 0043 38bf 291b 703e 33d4 053d
00000300: a2b4 5abf fb3d 82be f1f6 2c3f c7f6 343d
00000310: 44d3 0fbf cc48 84be a4f0 adbd b809 3abf
00000320: d9fe 5f3f 2c68 f83e 7042 2f3f 0397 203f
00000330: 071d 36bf ab31 08be 3022 37bf 569c 303f
00000340: 89e6 7ebf 2af4 3abe b40e c9be f2c7 913f
00000350: c6cd e83c f25e 893e ffb9 f7be 48f0 553e
00000360: b591 2ebd e2ba 3d3f 2a98 8abc 0b5f aabe
00000370: 23e2 83bd 25aa 033e d47d bbbe 3915 52bf
00000380: cec9 993d 82c9 bfbe fbb1 553e 9473 11bf
00000390: 5f7f 3b3f f163 efbe 5ea1 7dbe 8cb3 853f
000003a0: 05fc 483e d6a7 91be c5a1 68be f0b5 803e
000003b0: 3828 893e f3fa 99bd 3c03 313e 3f52 04be
000003c0: 900c b53e 68db 82be d4b8 903e a1ea 35bd
000003d0: b5f0 50bf 7348 143f 711e 35be f04e 243f
000003e0: cde0 cd3e dfd7 213f ed3e b13e b795 073f
000003f0: b388 65bd 620e 35bd f010 f8bc e96f af3f

network_body._body_endoder.seq_layers.0.bias f4 [128]
0.0 0.0 0.0 0.0 0.0 0.0 0.0 0.0
0.0 0.0 0.0 0.0 0.0 0.0 0.0 0.0
0.0 0.0 0.0 0.0 0.0 0.0 0.0 0.0
0.0 0.0 0.0 0.0 0.0 0.0 0.0 0.0
0.0 0.0 0.0 0.0 0.0 0.0 0.0 0.0
0.0 0.0 0.0 0.0 0.0 0.0 0.0 0.0
0.0 0.0 0.0 0.0 0.0 0.0 0.0 0.0
0.0 0.0 0.0 0.0 0.0 0.0 0.0 0.0
0.0 0.0 0.0 0.0 0.0 0.0 0.0 0.0
0.0 0.0 0.0 0.0 0.0 0.0 0.0 0.0
0.0 0.0 0.0 0.0 0.0 0.0 0.0 0.0
0.0 0.0 0.0 0.0 0.0 0.0 0.0 0.0
0.0 0.0 0.0 0.0 0.0 0.0 0.0 0.0
0.0 0.0 0.0 0.0 0.0 0.0 0.0 0.0
0.0 0.0 0.0 0.0 0.0 0.0 0.0 0.0
0.0 0.0 0.0 0.0 0.0 0.0 0.0 0.0
00000000: 0000 0000 0000 0000 0000 0000 0000 0000
00000010: 0000 0000 0000 0000 0000 0000 0000 0000
00000020: 0000 0000 0000 0000 0000 0000 0000 0000
00000030: 0000 0000 0000 0000 0000 0000 0000 0000
00000040: 0000 0000 0000 0000 0000 0000 0000 0000
00000050: 0000 0000 0000 0000 0000 0000 0000 0000
00000060: 0000 0000 0000 0000 0000 0000 0000 0000
00000070: 0000 0000 0000 0000 0000 0000 0000 0000
00000080: 0000 0000 0000 0000 0000 0000 0000 0000
00000090: 0000 0000 0000 0000 0000 0000 0000 0000
000000a0: 0000 0000 0000 0000 0000 0000 0000 0000
000000b0: 0000 0000 0000 0000 0000 0000 0000 0000
000000c0: 0000 0000 0000 0000 0000 0000 0000 0000
000000d0: 0000 0000 0000 0000 0000 0000 0000 0000
000000e0: 0000 0000 0000 0000 0000 0000 0000 0000
000000f0: 0000 0000 0000 0000 0000 0000 0000 0000
00000100: 0000 0000 0000 0000 0000 0000 0000 0000
00000110: 0000 0000 0000 0000 0000 0000 0000 0000
00000120: 0000 0000 0000 0000 0000 0000 0000 0000
00000130: 0000 0000 0000 0000 0000 0000 0000 0000
00000140: 0000 0000 0000 0000 0000 0000 0000 0000
00000150: 0000 0000 0000 0000 0000 0000 0000 0000
00000160: 0000 0000 0000 0000 0000 0000 0000 0000
00000170: 0000 0000 0000 0000 0000 0000 0000 0000
00000180: 0000 0000 0000 0000 0000 0000 0000 0000
00000190: 0000 0000 0000 0000 0000 0000 0000 0000
000001a0: 0000 0000 0000 0000 0000 0000 0000 0000
000001b0: 0000 0000 0000 0000 0000 0000 0000 0000
000001c0: 0000 0000 0000 0000 0000 0000 0000 0000
000001d0: 0000 0000 0000 0000 0000 0000 0000 0000
000001e0: 0000 0000 0000 0000 0000 0000 0000 0000
000001f0: 0000 0000 0000 0000 0000 0000 0000 0000

network_body._body_endoder.seq_layers.2.weight f4 [128, 128]
-0.038701948 0.077565916 -0.05494353 0.07744195 -0.017679933 -0.049952555 -0.048441548 0.003248714
-0.040292364 -0.039036233 0.042063046 -0.054271758 0.015226646 0.046507306 -0.008799789 0.026063766
-0.026162146 0.07871087 0.081281036 -0.09743017 0.04454622 0.10870187 -0.0011662532 -0.08201499
0.058362156 -0.0007845116 0.03689937 0.06533763 -0.020247282 -0.10703116 -0.055882104 0.092290126
0.1546491 -0.059915125 0.07901563 0.21710916 0.0702552 -0.111604646 -0.09152087 0.13223425
0.06373432 -0.07797906 -0.0072999974 -0.07082779 -0.042139396 0.034086704 -0.02042361 -0.06368819
0.05035661 -0.09813947 0.26768705 0.038773976 0.08057112 0.02421006 0.12964469 0.13452311
0.06317368 0.155387 -0.12786563 -0.02296332 -0.05330559 -0.023013962 0.053080644 0.019268421
0.123983845 0.014620094 -0.16657351 0.03892687 -0.00067880144 -0.04410566 -0.0070952987 0.17942183
0.008474987 -0.08610484 -0.008296572 0.090385675 0.04608848 -0.21528637 0.2036256 -0.04368697
-0.087239094 0.09192268 -0.025083113 0.009749152 -0.12760167 0.09537036 0.02734483 0.09327524
0.0629591 -0.18083465 -0.015647363 -0.061100677 0.1315082 0.04972564 0.0667359 -0.002658922
0.058970883 -0.050812777 -0.12879963 -0.09739184 0.19854622 -0.0024891868 0.016791942 -0.2368963
0.0101666385 0.01990937 -0.09056931 -0.013395765 -0.07043216 -0.018458614 -0.20487995 -0.038112666
0.13713543 0.05440628 0.2102807 0.005479866 0.0930936 0.023464436 0.123517774 -0.051294003
0.091467924 -0.11617431 -0.069421045 0.103092104 -0.09297421 0.09440637 0.11047867 0.010776651
0.027386634 -0.0012029757 0.02229564 0.21313702 0.08696047 0.05761475 0.19770712 0.07590431
0.064722545 0.05001526 -0.11876712 -0.0044679376 0.17780972 -0.06800525 0.0871143 -0.026977357
0.017368244 0.072458446 0.0014032429 0.009975931 0.11080127 0.07404885 -0.09277743 -0.10454196
0.10715624 0.06952997 -0.037191235 -0.03980509 0.042578865 0.100140065 0.13128558 0.020678371
0.07634178 -0.036331404 -0.064318694 -0.122247204 0.016459156 0.019360792 0.12195431 0.029667329
0.047138464 0.04606719 -0.03874173 0.058771092 -0.102818854 -0.10249614 0.11440606 -0.042967334
-0.1610782 -0.052209873 -0.019409148 0.0053676004 0.009174396 -0.05301987 0.040695604 0.007522339
0.08155532 -0.17204945 -0.063792616 -0.05435531 0.049515177 -0.14802636 0.03611126 0.032367025
0.054908875 0.0758769 -0.053782526 0.055617347 -0.18187618 0.022189418 -0.06434367 0.10448959
-0.043605473 0.08631374 0.13267735 0.039371736 -0.070093066 -0.06987174 0.02759568 0.007953407
0.15375847 0.10031688 0.083600104 0.11309821 0.011464975 -0.030435393 0.098806754 -0.034942396
0.04581538 -0.12337214 -0.0829754 0.083460435 0.18307094 -0.15664564 0.036957253 0.04912911
-0.007099903 0.056157317 -0.0149383545 -0.038240947 0.09636408 -0.12796186 -0.017599726 -0.061564274
0.09675283 0.041058194 0.08554589 0.06714441 0.061897747 0.2581175 0.10788101 -0.044521138
0.09896411 -0.013575619 -0.074080735 -0.06856594 0.05784921 0.08951212 -0.065445654 -0.08911233
-0.037737276 -0.043474574 0.13218132 0.04008356 0.03762903 0.11809563 -0.0033859925 -0.017663216
00000000: ef85 1ebd e1da 9e3d 780c 61bd e399 9e3d
00000010: 82d5 90bc 0d9b 4cbd a56a 46bd 60e8 543b
00000020: 9b09 25bd 75e4 1fbd 4d4a 2c3d 104c 5ebd
00000030: 2f79 793c 727e 3e3d fd2c 10bc ae83 d53c
00000040: ff51 d6bc 2a33 a13d ac76 a63d 7889 c7bd
00000050: 1976 363d 169f de3d f7dc 98ba 7af7 a7bd
00000060: 280d 6f3d afa7 4dba cb23 173d bccf 853d
00000070: a1dd a5bc 2733 dbbd a2e4 64bd 9b02 bd3d
00000080: 555c 1e3e 9069 75bd f2d2 a13d dd51 5e3e
00000090: f5e1 8f3d fa90 e4bd 4b6f bbbd 6a68 073e
000000a0: 2487 823d 7cb3 9fbd d134 efbb 290e 91bd
000000b0: 5c9a 2cbd 809e 0b3d 6a4f a7bc f46e 82bd
000000c0: bc42 4e3d 59fd c8bd 470e 893e 76d1 1e3d
000000d0: 7902 a53d 2d54 c63c 94c1 043e 6dc0 093e
000000e0: 3461 813d c51d 1f3e 35ef 02be 931d bcbc
000000f0: f656 5abd c787 bcbc 176b 593d cfd8 9d3c
00000100: 3eeb fd3d 1e89 6f3c 3f92 2abe c871 1f3d
00000110: 98f1 31ba 23a8 34bd ae7f e8bb 5bba 373e
00000120: acda 0a3c bc57 b0bd 58ee 07bc 201c b93d
00000130: 46c7 3c3d 0874 5cbe 3b83 503e 1cf1 32bd
00000140: 69aa b2bd f541 bc3d 1a7b cdbc e8ba 1f3c
00000150: 03aa 02be 8951 c33d 4402 e03c 1707 bf3d
00000160: b3f0 803d b82c 39be e62e 80bc b444 7abd
00000170: 16aa 063e 1dad 4b3d d5ac 883d 4f41 2ebb
00000180: 748b 713d 0f21 50bd 0de4 03be 5f75 c7bd
00000190: b34f 4b3e a021 23bb 418f 893c f294 72be
000001a0: f991 263c fa18 a33c 677c b9bd e979 5bbc
000001b0: bc3e 90bd 8536 97bc 0dcc 51be 071c 1cbd
000001c0: 3b6d 0c3e 1fd9 5e3d d353 573e 7390 b33b
000001d0: dba7 be3d 7d38 c03c e3f6 fc3d a919 52bd
000001e0: 8953 bb3d ccec edbd 9f2c 8ebd f421 d33d
000001f0: 4369 bebd 2058 c13d a442 e23d 8d90 303c
00000200: ef59 e03c 2bad 9dba 59a5 b63c 9740 5a3e
00000210: 5518 b23d 72fd 6b3d bc73 4a3e b873 9b3d
00000220: 418d 843d cddc 4c3d 2d3c f3bd c767 92bb
00000230: c013 363e 5646 8bbd fb68 b23d 9eff dcbc
00000240: d947 8e3c 1865 943d 05ed b73a 1672 233c
00000250: c7eb e23d eca6 973d 1802 bebd 181a d6bd
00000260: bb74 db3d bb65 8e3d d655 18bd a90a 23bd
00000270: 2d67 2e3d 3c16 cd3d ba6f 063e b065 a93c
00000280: 1459 9c3d 3dd0 14bd 85b9 83bd be5c fabd
00000290: 5ad5 863c 869a 9e3c 2ec3 f93d e608 f33c
000002a0: 4314 413d f3b0 3c3d a6af 1ebd f5b9 703d
000002b0: b192 d2bd 7fe9 d1bd b94d ea3d 84fe 2fbd
000002c0: aff1 24be 05da 55bd efff 9ebc b2e2 af3b
000002d0: 3550 163c 5d2b 59bd 6fb0 263d f47d f63b
000002e0: 7a06 a73d bb2d 30be b4a5 82bd aca3 5ebd
000002f0: 6dd0 4a3d 3994 17be 67e9 133d 4993 043d
00000300: 21e8 603d 5965 9b3d 114b 5cbd 04cf 633d
00000310: c03d 3abe 95c6 b53c 9dc6 83bd a3fe d53d
00000320: a79b 32bd 42c5 b03d 92dc 073e 4244 213d
00000330: f48c 8fbd ea18 8fbd 5610 e23c 024f 023c
00000340: dc72 1d3e f072 cd3d 8836 ab3d 09a0 e73d
00000350: 97d7 3b3c a553 f9bc 325b ca3d c21f 0fbd
00000360: e8a8 3b3d 88aa fcbd 02ef a9bd 4eed aa3d
00000370: f376 3b3e b767 20be 7d60 173d 9b3b 493d
00000380: 4ea6 e8bb 3705 663d 00c0 74bc 8aa2 1cbd
00000390: 885a c53d 6f08 03be 4d2d 90bc d22a 7cbd
000003a0: 5926 c63d a32c 283d af32 af3d 0283 893d
000003b0: 7e88 7d3d fa27 843e b8f0 dc3d cc5b 36bd
000003c0: b2ad ca3d 466c 5ebc a4b7 97bd 4d6c 8cbd
000003d0: 4bf3 6c3d 2152 b73d 5f08 86bd 8680 b6bd
000003e0: 6792 1abd 6512 32bd 8a5a 073e a92e 243d
000003f0: e620 1a3d 1fdc f13d 87e7 5dbb 73b2 90bc

network_body._body_endoder.seq_layers.2.bias f4 [128]
0.0 0.0 0.0 0.0 0.0 0.0 0.0 0.0
0.0 0.0 0.0 0.0 0.0 0.0 0.0 0.0
0.0 0.0 0.0 0.0 0.0 0.0 0.0 0.0
0.0 0.0 0.0 0.0 0.0 0.0 0.0 0.0
0.0 0.0 0.0 0.0 0.0 0.0 0.0 0.0
0.0 0.0 0.0 0.0 0.0 0.0 0.0 0.0
0.0 0.0 0.0 0.0 0.0 0.0 0.0 0.0
0.0 0.0 0.0 0.0 0.0 0.0 0.0 0.0
0.0 0.0 0.0 0.0 0.0 0.0 0.0 0.0
0.0 0.0 0.0 0.0 0.0 0.0 0.0 0.0
0.0 0.0 0.0 0.0 0.0 0.0 0.0 0.0
0.0 0.0 0.0 0.0 0.0 0.0 0.0 0.0
0.0 0.0 0.0 0.0 0.0 0.0 0.0 0.0
0.0 0.0 0.0 0.0 0.0 0.0 0.0 0.0
0.0 0.0 0.0 0.0 0.0 0.0 0.0 0.0
0.0 0.0 0.0 0.0 0.0 0.0 0.0 0.0
00000000: 0000 0000 0000 0000 0000 0000 0000 0000
00000010: 0000 0000 0000 0000 0000 0000 0000 0000
00000020: 0000 0000 0000 0000 0000 0000 0000 0000
00000030: 0000 0000 0000 0000 0000 0000 0000 0000
00000040: 0000 0000 0000 0000 0000 0000 0000 0000
00000050: 0000 0000 0000 0000 0000 0000 0000 0000
00000060: 0000 0000 0000 0000 0000 0000 0000 0000
00000070: 0000 0000 0000 0000 0000 0000 0000 0000
00000080: 0000 0000 0000 0000 0000 0000 0000 0000
00000090: 0000 0000 0000 0000 0000 0000 0000 0000
000000a0: 0000 0000 0000 0000 0000 0000 0000 0000
000000b0: 0000 0000 0000 0000 0000 0000 0000 0000
000000c0: 0000 0000 0000 0000 0000 0000 0000 0000
000000d0: 0000 0000 0000 0000 0000 0000 0000 0000
000000e0: 0000 0000 0000 0000 0000 0000 0000 0000
000000f0: 0000 0000 0000 0000 0000 0000 0000 0000
00000100: 0000 0000 0000 0000 0000 0000 0000 0000
00000110: 0000 0000 0000 0000 0000 0000 0000 0000
00000120: 0000 0000 0000 0000 0000 0000 0000 0000
00000130: 0000 0000 0000 0000 0000 0000 0000 0000
00000140: 0000 0000 0000 0000 0000 0000 0000 0000
00000150: 0000 0000 0000 0000 0000 0000 0000 0000
00000160: 0000 0000 0000 0000 0000 0000 0000 0000
00000170: 0000 0000 0000 0000 0000 0000 0000 0000
00000180: 0000 0000 0000 0000 0000 0000 0000 0000
00000190: 0000 0000 0000 0000 0000 0000 0000 0000
000001a0: 0000 0000 0000 0000 0000 0000 0000 0000
000001b0: 0000 0000 0000 0000 0000 0000 0000 0000
000001c0: 0000 0000 0000 0000 0000 0000 0000 0000
000001d0: 0000 0000 0000 0000 0000 0000 0000 0000
000001e0: 0000 0000 0000 0000 0000 0000 0000 0000
000001f0: 0000 0000 0000 0000 0000 0000 0000 0000

action_model._continuous_distribution.mu.weight f4 [1, 128]
0.011359708 0.007957798 -0.012938625 0.007329838 -0.018907689 -0.0034247737 -0.017091632 -0.008873588
-0.026318768 0.022585908 -0.009324495 -0.0100787645 0.011896784 0.011476259 -0.012908791 -0.0060048657
-0.006650527 -0.023109388 0.0035368074 -0.045199774 0.014899524 0.02448548 -0.03587622 0.016940167
-0.011069345 0.006409501 -0.006205767 0.0014844596 -0.02110718 0.0066756806 -0.0063078776 0.009653832
-0.0009682619 0.017289259 -0.00028335775 0.00955397 0.01234237 0.007923977 -0.026574153 0.028365066
0.032889456 -0.0041671866 0.020826487 -0.03397923 0.0044502746 0.01631797 0.020101538 -0.015194493
-0.017402954 -0.0005274958 -0.014068645 -0.022650737 0.0009796855 -0.0022034736 -0.028898299 -0.011208898
0.015980886 0.018110687 0.008382703 0.007735267 0.024599923 -0.027696202 0.02224913 0.015718205
0.000152622 0.014067568 0.032788463 0.012359825 -0.04062337 -0.029458662 0.043365136 -0.0042111278
0.003976927 0.01030137 -0.009693753 -0.004756785 -0.022089288 0.0026285853 -0.012164247 -0.008755704
0.0079907365 0.004067561 -0.021913936 -0.005271299 -0.015913792 -0.008766929 -0.023196407 0.025761425
-0.0009061852 -0.012646741 -0.0017707577 0.018980287 0.03224372 -0.009459331 -0.02535581 0.016274018
0.0101047 -0.009090196 0.023742497 0.0010043136 -0.0155671565 0.004315894 0.021717725 -0.012268705
0.02855402 -0.0010360191 0.011620514 0.016106158 -0.021185216 -0.011076078 0.011035721 0.024754433
-0.017318757 -0.013598192 -0.020099308 0.021955455 -0.014686032 0.011587998 0.04973642 0.036297947
-0.004053049 0.0017951656 -0.017726751 -0.00297478 -0.019733286 -0.01842948 0.035505686 0.008282163
00000000: 121e 3a3c 6d61 023c 87fc 53bc 232f f03b
00000010: 4ce4 9abc 2b72 60bb c003 8cbc 8762 11bc
00000020: 759a d7bc 1506 b93c c4c5 18bc 6721 25bc
00000030: bbea 423c eb06 3c3c 657f 53bc 77c4 c4bb
00000040: aaec d9bb e64f bdbc c8c9 673b 6623 39bd
00000050: 221d 743c c695 c83c f1f2 12bd 1bc6 8a3c
00000060: 335c 35bc cb06 d23b bf59 cbbb 3392 c23a
00000070: f7e8 acbc abbf da3b 50b2 cebb 1b2b 1e3c
00000080: f5d2 7dba 34a2 8d3c a28f 94b9 4188 1c3c
00000090: a737 4a3c 92d3 013c 0ab2 d9bc db5d e83c
000000a0: 18b7 063d e58c 88bb 4f9c aa3c ce2d 0bbd
000000b0: 9cd3 913b 43ad 853c fbab a43c 53f2 78bc
000000c0: a490 8ebc a547 0aba 2d80 66bc 0a8e b9bc
000000d0: ca68 803a 2768 10bb 20bc ecbc 87a5 37bc
000000e0: 59ea 823c dd5c 943c 9b57 093c 1f78 fd3b
000000f0: c785 c93c 25e3 e2bc cf43 b63c 77c3 803c
00000100: 2809 2039 a87b 663c 324d 063d dd80 4a3c
00000110: b164 26bd 4b53 f1bc a49f 313d 80fd 89bb
00000120: e250 823b 14c7 283c 8cd2 1ebc cede 9bbb
00000130: 98f4 b4bc 5844 2c3b 8d4c 47bc 1674 0fbc
00000140: 94eb 023c 2d49 853b db84 b3bc dcba acbb
00000150: a45d 82bc 2aa3 0fbc 6406 bebc a009 d33c
00000160: 0f8d 6dba 4734 4fbc c518 e8ba 8c7c 9b3c
00000170: fe11 043d 4ffb 1abc fdb6 cfbc 1751 853c
00000180: 2f8e 253c 0cef 14bc a07f c23c 2ca3 833a
00000190: 630d 7fbc 586c 8d3b 5fe9 b13c ae02 49bc
000001a0: 1fea e93c 08cb 87ba f863 3e3c 10f1 833c
000001b0: 9e8c adbc 7078 35bc 2bcf 343c cfc9 ca3c
000001c0: 11e0 8dbc f3ca 5ebc 4ea7 a4bc eddb b33c
000001d0: af9d 70bc 96db 3d3c 6bb8 4b3d 28ad 143d
000001e0: 70cf 84bb c34b eb3a b137 91bc 87f4 42bb
000001f0: b3a7 a1bc 6cf9 96bc 696e 113d e9b1 073c

action_model._discrete_distribution.branches.0.weight f4 [3, 128]
0.002540693 0.00942414 0.017184773 0.014150969 0.010784145 -0.019536076 0.010456816 0.0029934694
0.015136999 -0.0016878502 -0.0019509962 0.009931519 -0.0029774464 -0.0020119955 0.016395817 -0.0072336607
0.0035668095 -0.00851942 0.002561294 0.0038439042 -0.0046738717 -0.008146106 0.008851427 -0.00015143973
0.000112682406 0.016428506 -0.0047487235 0.016053537 -0.0075366045 -0.0076015415 0.002427233 0.007699687
0.008171368 0.010252355 0.006242608 -0.00060797937 -0.009033534 -0.009441122 0.009433341 -0.0059836
0.007500077 -0.0055994815 -0.023167333 0.0004268956 -0.00081156177 -0.012527819 -0.009430888 0.0010647908
0.0038827565 -0.006339843 0.0016252076 0.018841764 0.002905549 -0.011188745 -0.0052084075 0.0054193395
0.0019031739 -0.008621902 -0.012086654 -0.0049312836 0.00662956 0.009756066 0.0019676692 -0.008330206
0.0013032233 -0.005109537 -0.010279157 0.009390715 0.000754832 0.0034341917 0.0071137357 0.0063319826
-0.0055028163 0.0108418865 -0.011996934 0.0023870713 -0.012722942 -0.00790746 0.0017491184 -0.021496413
-0.0067880503 0.0072854473 -0.011854704 0.0007917466 0.0016485796 -0.0008573771 -0.0036527247 0.009324244
-0.003394829 0.011074736 -0.00744238 0.0009511276 -0.0062598595 0.002213773 -0.006977226 -0.010057693
0.012796736 0.009847115 -0.005348233 -0.015614766 -0.004306575 0.016671123 0.0035389364 0.0022057209
-0.0026151768 0.00021754266 0.0048131384 -0.002718426 0.005158379 -0.02280137 0.004061067 -0.0038362213
-0.008158914 0.0051813736 -0.00837377 0.013567246 0.0018485861 0.0007326843 0.014321657 0.012023736
0.0030205422 0.0020790703 -0.0017118426 -0.007962774 0.0103172455 -0.0033867732 0.013667464 0.002603356
0.01377787 0.012605252 -0.0033246295 0.0009468691 0.009935951 -0.004506467 0.0061084735 0.0075232917
5.6604213e-06 -0.004199398 -0.0030531741 -0.0015482976 0.017391484 -0.002621273 -0.0015274684 0.011936024
0.0034409692 0.009443791 0.0022464257 -0.0029937362 -5.542485e-05 0.003514085 -0.0030485892 -0.001125483
-0.0013598277 -0.010172147 -0.0077655287 -0.007354084 0.0003271268 0.0025814767 -0.00920688 0.0002919993
-0.0032850753 0.01174256 -0.010559152 0.004857843 0.0070204795 0.0012875547 0.012038693 -0.0062145228
-0.0015660158 0.0020446177 -0.0048750667 0.0023620725 -0.009364951 0.0027486102 -0.0070252814 0.00075017003
-0.0063847764 0.010483024 0.01119385 -0.005114131 -0.001795628 0.010003709 0.0100098355 -0.0018353671
0.011168697 0.009901064 -0.010600997 0.0015333703 -0.0047563645 -0.0025661918 -0.02351846 0.010314743
-0.005544187 0.00705508 0.013273618 -0.007499458 -0.0016190133 -0.0032476783 0.009504966 0.00079183653
0.0021353906 -0.013122029 -0.0027224135 0.0005645337 0.0072675594 -0.013661643 0.0035483495 0.0038803432
0.01520371 -0.006807532 -0.0031451278 -0.00028353508 0.022279194 -0.0047110007 0.007071676 -0.0030785934
-0.0035597836 -0.008656183 -0.0061160414 0.009458407 0.0030367803 -0.0028853496 0.010669305 -0.001945964
0.005816096 -0.0005478743 0.0055234074 0.019367162 0.011195018 0.01860969 0.0016067332 0.017622214
0.0055173533 0.0029930098 0.022419957 -0.009716297 0.01063397 -0.0001127574 -0.0019476889 -0.00012953037
-0.0056663514 -2.0615953e-07 -3.610122e-05 -0.009102005 0.005144505 0.008137594 0.009217269 0.010736893
0.0054869684 -0.010060453 -0.0062061683 -0.011309845 -0.001576015 0.0059584053 -0.022105826 0.006796922
00000000: c181 263b b567 1a3c 15c7 8c3c 77d9 673c
00000010: fcaf 303c 1f0a a0bc 1153 2b3c 152e 443b
00000020: 2d01 783c db3a ddba 92b8 ffba cfb7 223c
00000030: 4321 43bb afdb 03bb 8550 863c 5808 edbb
00000040: 22c1 693b 0a95 0bbc 62db 273b 03ea 7b3b
00000050: 4727 99bb 3f77 05bc 9305 113c cbcb 1eb9
00000060: e84f ec38 1395 863c 2e9b 9bbb b582 833c
00000070: 9ff5 f6bb 5a16 f9bb 3612 1f3b a84d fc3b
00000080: 34e1 053c 7ef9 273c cb8e cc3b ce60 1fba
00000090: 6301 14bc f0ae 1abc 4d8e 1a3c 1312 c4bb
000000a0: 35c3 f53b db7b b7bb 6bc9 bdbc f5d0 df39
000000b0: fdbe 54ba 7b41 4dbc 0384 1abc 7390 8b3a
000000c0: d875 7e3b 75be cfbb eb04 d53a 0b5a 9a3c
000000d0: 066b 3e3b ff50 37bc 4aab aabb b794 b13b
000000e0: eb73 f93a e142 0dbc 1a07 46bc 9b96 a1bb
000000f0: c83c d93b e8d7 1f3c 03f4 003b 6b7b 08bc
00000100: ebd0 aa3a e76d a7bb e969 28bc 83db 193c
00000110: ebdf 453a 2d10 613b 571a e93b 857c cf3b
00000120: f850 b4bb 2ba2 313c ca8e 44bc 6970 1c3b
00000130: e373 50bc 4b8e 01bc ad42 e53a 3f19 b0bc
00000140: 4b6e debb c3ba ee3b 3b3a 42bc 378d 4f3a
00000150: 2715 d83a 9ac1 60ba 8d62 6fbb b7c4 183c
00000160: c87b 5ebb cf72 353c 35df f3bb 1855 793a
00000170: 821f cdbb f314 113b 37a1 e4bb 06c9 24bc
00000180: 67a9 513c cb55 213c 3b40 afbb 13d5 7fbc
00000190: 2b1e 8dbb e191 883c 80ed 673b db8d 103b
000001a0: 6363 2bbb 2a1c 6439 88b7 9d3b 9f27 32bb
000001b0: 9f07 a93b f0c9 babc b312 853b 1d69 7bbb
000001c0: f7ac 05bc 83c8 a93b 2332 09bc 2749 5e3c
000001d0: 424c f23a 9c11 403a 62a5 6a3c 34ff 443c
000001e0: 4af4 453b 0341 083b e85f e0ba 4b76 02bc
000001f0: aa09 293c a0f4 5dbb 80ed 5f3c 119d 2a3b
00000200: 93bc 613c 4286 4e3c 07e2 59bb 4f37 783a
00000210: 66ca 223c fcaa 93bb 9729 c83b f285 f63b
00000220: a6ee bd36 1b9b 89bb c317 48bb 3ff0 caba
00000230: 9678 8e3c aac9 2bbb 5635 c8ba 508f 433c
00000240: e281 613b 21ba 1a3c c538 133b 8f32 44bb
00000250: fb77 68b8 904c 663b d7ca 47bb f184 93ba
00000260: 3f3c b2ba 14a9 26bc fa75 febb 87fa f0bb
00000270: 3782 ab39 fe2d 293b 74d8 16bc 7c17 9939
00000280: 6b4a 57bb de63 403c 4b00 2dbc 8a2e 9f3b
00000290: 0d0c e63b 2bc3 a83a f03d 453c 32a3 cbbb
000002a0: c542 cdba fefe 053b 06bf 9fbb 00cd 1a3b
000002b0: 746f 19bc 0722 343b 5534 e6bb 0fa7 443a
000002c0: 6337 d1bb fdc0 2b3c 6966 373c 7194 a7bb
000002d0: 475b ebba 99e6 233c 4b00 243c b390 f0ba
000002e0: e9fc 363c 1338 223c ceaf 2dbc 5ffb c83a
000002f0: 47db 9bbb 8e2d 28bb c9a9 c0bc 2bff 283c
00000300: 03ac b5bb 4d2e e73b 9779 593c 03be f5bb
00000310: 1235 d4ba 00d7 54bb b8ba 1b3c 4093 4f3a
00000320: e9f1 0b3b c7fd 56bc 856a 32bb 37fd 133a
00000330: b524 ee3b 15d5 5fbc 6d8b 683b 5b4d 7e3b
00000340: fb18 793c b811 dfbb 7d1e 4ebb 6fa7 94b9
00000350: db82 b63c bd5e 9abb 85b9 e73b 3ac2 49bb
00000360: 424b 69bb aad2 0dbc 1369 c8bb 6ff7 1a3c
00000370: b804 473b 2218 3dbb 4fce 2e3c b70f ffba
00000380: f394 be3b 399f 0fba b3fd b43b e2a7 9e3c
00000390: 4f6b 373c 5973 983c 0599 d23a 765c 903c
000003a0: eaca b43b 5f26 443b 0faa b73c 1a31 1fbc
000003b0: 1a3a 2e3c 2b78 ecb8 9849 ffba 8bd2 07b9
000003c0: cdac b9bb b35c 5db4 646b 17b8 9320 15bc
000003d0: 3c93 a83b 8b53 053c 0704 173c cbe9 2f3c
000003e0: 07cc b33b 99d4 24bc 1d5d cbbb ee4c 39bc
000003f0: 4a92 ceba ba3e c33b 4717 b5bc b7b8 de3b

action_model._discrete_distribution.branches.0.bias f4 [3]
0.0 0.0 0.0
00000000: 0000 0000 0000 0000 0000 0000

action_model._discrete_distribution.branches.1.weight f4 [3, 128]
-0.0061969077 0.011981572 -0.0094761755 -0.016806988 0.0070578763 0.0017409396 0.011541624 -0.0038737606
0.012958485 -0.0017842384 -0.0045165117 0.003300349 -0.0080143465 0.0048356913 0.008240559 -0.0066893674
0.00047680805 -0.005925979 -0.0039843675 -0.0023985736 0.0010383397 -0.014433003 0.006506629 0.0064006164
-6.143539e-05 0.00562951 0.0057791504 -0.016576974 -0.0050101127 -0.003120553 -0.006660723 0.0058178115
0.00030563187 -0.010534943 -0.009886667 0.0029694147 0.0038610906 0.008405687 -0.013086376 0.003124846
-0.00034573412 -0.001169434 -0.0005135249 0.0012880963 0.0004694731 -0.0067461594 0.0031996563 0.0054648453
0.0025218544 0.003910429 -0.0066894004 0.00438014 0.0008938581 0.0045406683 0.006480845 0.01105181
0.0028253822 -0.0036705837 0.0022471251 -0.011590193 0.007057683 0.012397571 0.008660368 -0.012889363
-0.008317307 -0.011211707 0.02163216 -0.008529845 0.005763992 -0.005753707 0.0033999134 -0.019907163
0.0018847188 0.015616675 -0.0028541936 0.0006921603 0.0049432646 0.0045898375 0.01045091 -0.01471693
-0.0051385867 -0.0037649942 0.00055100175 -0.0025288423 0.002010554 -0.0028308888 0.0035031196 -0.00552244
-0.015611916 -0.0086536445 0.0018146137 -0.008150626 0.019269522 -0.0006677769 0.0073532583 0.01311668
0.010568712 -0.0063980953 0.0045434367 -0.009900358 -0.00394074 0.00025141507 0.00891338 -0.0024305885
-0.0037193827 0.005909867 -0.0039426326 0.002907695 -0.008271059 0.015010324 -0.0021599715 -0.0029146476
-0.006483521 0.00013683096 -0.00437903 0.008802879 0.00080672774 0.0070471764 -0.012908394 0.0011315282
1.4315035e-05 -0.00397376 -0.010106271 0.00012841384 0.016006192 -0.010720619 0.016144186 0.0042689936
-0.0015968392 -0.005956729 0.0022913336 0.0069510783 -0.010624782 -0.0068624043 0.0062751556 0.009941483
0.0033548248 0.008486699 0.008104797 -0.0033293352 -0.006332808 -0.0057467013 -0.013675782 0.008972733
-0.0021920693 0.005597517 0.010086227 0.010910858 0.007620578 -0.003910057 -0.0023604517 0.012241133
0.019579846 -0.0047353585 -0.011331256 0.0025058042 0.012129512 -0.018398024 -0.010983403 0.0024322153
0.0023721147 -0.0017721104 0.0033120017 -0.007498366 0.0023434376 0.0076375427 -0.0008579058 0.005804689
-0.006134016 0.007901405 0.009776573 0.004622023 0.021641467 0.0063413754 -0.00016499753 0.008732938
-0.0018932823 -0.00057972 0.0036503624 -0.0098121585 0.003889481 0.014325239 -0.010336683 -0.0138918385
0.009708723 0.0208802 0.011703992 0.0041188053 0.0073517375 -0.003333787 0.0023996595 0.00069353916
-0.018692873 -0.0070856446 -0.00681142 -0.0017244021 0.006957666 -0.014963842 -0.00496932 -0.0011283733
0.012302226 -0.008998043 0.013287361 0.007391455 0.020130096 0.018523581 0.01863395 -0.00186642
-0.0008547189 0.0013186393 0.0042405915 0.0017738428 -0.0072581614 0.0035027724 -0.0048261373 -0.0046723057
-0.0077485503 0.0143077 -0.008826337 -0.0062410827 0.0004040297 0.01519601 0.012388573 -0.005256069
-0.0021987415 0.0061961333 -0.0010871092 -0.011593316 0.011598169 0.0007226108 0.001052875 -0.01810678
0.0068081454 0.002120698 -0.004812467 -0.010749863 -0.0031298846 0.015301885 -0.015287237 0.019860188
0.00020470706 -0.0059790644 -0.008903449 0.0012838264 -0.0097642625 0.0010038145 0.00728364 -0.0041650515
0.0027033112 -0.0045687705 0.005614353 0.010786084 0.018280854 -5.7540223e-05 -0.018869152 -0.0013881174
00000000: 6e0f cbbb 5b4e 443c f641 1bbc cfae 89bc
00000010: c245 e73b 3d30 e43a 1419 3d3c ebde 7dbb
00000020: d34f 543c 1bdd e9ba 3fff 93bb ab4a 583b
00000030: 9b4e 03bc b874 9e3b 6903 073c 7b32 dbbb
00000040: 18fc f939 b72e c2bb 4c8f 82bb 6331 1dbb
00000050: e618 883a 6778 6cbc 8f35 d53b 43bc d13b
00000060: e0d6 80b8 c177 b83b 075f bd3b 6fcc 87bc
00000070: df2b a4bb 3182 4cbb 3242 dabb 57a3 be3b
00000080: 373d a039 c19a 2cbc b0fb 21bc 839a 423b
00000090: 5a0a 7d3b 02b8 093c 3d68 56bc 37ca 4c3b
000000a0: a643 b5b9 b247 99ba 139e 06ba 57d5 a83a
000000b0: 9d23 f639 e30e ddbb 53b1 513b 7212 b33b
000000c0: b245 253b 0e23 803b c232 dbbb 4787 8f3b
000000d0: cd51 6a3a e3c9 943b 455d d43b a712 353c
000000e0: 0c2a 393b 2d8e 70bb 8144 133b cbe4 3dbc
000000f0: 2344 e73b 2e1f 4b3c 37e4 0d3c e82d 53bc
00000100: 5045 08bc 4fb1 37bc ed35 b13c c3c0 0bbc
00000110: dfdf bc3b 9889 bcbb 15d1 5e3b 5914 a3bc
00000120: ab08 f73a 15dd 7f3c 6c0d 3bbb 1772 353a
00000130: 1cfb a13b 5966 963b 4b3a 2b3c 471f 71bc
00000140: 9761 a8bb 1fbe 76bb 1a71 103a efba 25bb
00000150: 80c3 033b 6f86 39bb 9894 653b 96f5 b4bb
00000160: 1fc9 7fbc 04c8 0dbc 55d8 ed3a 348a 05bc
00000170: 1edb 9d3c c00d 2fba 9af3 f03b 58e7 563c
00000180: 6428 2d3c 1da7 d1bb 1ce1 943b 1c35 22bc
00000190: 5321 81bb 5cd0 8339 6d09 123c 824a 1fbb
000001a0: e3c0 73bb 8fa7 c13b 3331 81bb 078f 3e3b
000001b0: 5683 07bc dded 753c 4f8e 0dbb ac03 3fbb
000001c0: b773 d4bb 487a 0f39 f77d 8fbb f339 103c
000001d0: 957a 533a 00ec e63b bb7d 53bc c94f 943a
000001e0: 9b2a 7037 5136 82bb c694 25bc d4a6 0639
000001f0: 6b1f 833c 89a5 2fbc d040 843c eae2 8b3b
00000200: 084d d1ba aa30 c3bb 332a 163b dfc5 e33b
00000210: 9113 2ebc 05de e0bb d29f cd3b 9ae1 223c
00000220: 9fdc 5b3b cc0b 0b3c fcc9 043c fa30 5abb
00000230: 7283 cfbb d34e bcbb 6310 60bc 5f02 133c
00000240: d2a8 0fbb 606b b73b b440 253c 75c3 323c
00000250: 0bb6 f93b ef1f 80bb cfb1 1abb 088f 483c
00000260: ea65 a03c 112b 9bbb bba6 39bc 6b38 243b
00000270: dcba 463c 74b7 96bc bbf3 33bc cd65 1f3b
00000280: 7b75 1b3b 2846 e8ba 2b0e 593b dab4 f5bb
00000290: 5c94 193b 5a44 fa3b 15e5 60ba 4335 be3b
000002a0: dbff c8bb e574 013c eb2d 203c 5774 973b
000002b0: 7249 b13c 50cb cf3b 3003 2db9 9914 0f3c
000002c0: 0328 f8ba 5af8 17ba eb3a 6f3b 2dc3 20bc
000002d0: aae6 7e3b 68b4 6a3c 315b 29bc 989a 63bc
000002e0: 5611 1f3c f40c ab3c 1ac2 3f3c 0bf7 863b
000002f0: d8e6 f03b aa7b 5abb 9b43 1d3b a0ce 353a
00000300: cc21 99bc b22e e8bb 5532 dfbb 5505 e2ba
00000310: 22fd e33b e72a 75bc add5 a2bb ede5 93ba
00000320: 478f 493c 876c 13bc 3bb3 593c 0534 f23b
00000330: dfe7 a43c c4be 973c 3aa6 983c aaa2 f4ba
00000340: 370f 60ba 31d6 ac3a a9f4 8a3b 4a80 e83a
00000350: dfd5 edbb c58e 653b 9324 9ebb 241a 99bb
00000360: 8de7 fdbb d86a 6a3c 579c 10bc ff81 ccbb
00000370: f3d3 d339 aff8 783c 71f9 4a3c 1a3b acbb
00000380: c318 10bb ef08 cb3b 557d 8eba e4f1 3dbc
00000390: 3f06 3e3c 976d 3d3a 9f00 8a3a ab54 94bc
000003a0: dd16 df3b 69fb 0a3b e6b1 9dbb 3220 30bc
000003b0: c01e 4dbb c2b4 7a3c 5277 7abc d5b1 a23c
000003c0: a2a6 5639 07ec c3bb c6df 11bc 1146 a83a
000003d0: 49fa 1fbc 6d92 833a 9aab ee3b fc7a 88bb
000003e0: 092a 313b a0b5 95bb 9bf8 b73b 1eb8 303c
000003f0: bbc1 953c 5857 71b8 7b93 9abc 7ef1 b5ba

action_model._discrete_distribution.branches.1.bias f4 [3]
0.0 0.0 0.0
00000000: 0000 0000 0000 0000 0000 0000
