results/ppo/Player Behaviour/Player Behaviour-832.pt (torch, 153007 bytes, 15 tensors)

discrete_act_size_vector f4 [1, 2]
00000000: 0000 4040 0000 0040
3.0 2.0

network_body._body_endoder.seq_layers.0.weight f4 [128, 6]
00000000: 69e2 c63e 444d e3bd 3e92 e23e c4bf 043e
00000010: 43b1 35bf e710 333e fabd 02be 4073 153e
00000020: d0ef 82be 9741 2a3f ea12 193e b017 22be
00000030: fcc2 513e a45a fc3d a455 e23e 2c28 883e
00000040: 3142 253d 7768 933e 5034 933d a3fa ea3e
00000050: 55ad 263e 3309 0ebe b85b fc3d 92a1 e93e
00000060: 3b87 e33e cd80 16be 0af2 523e 9515 c3be
00000070: cd4e eabd cb4c 02bf f6a9 653d dad0 243f
00000080: 6a32 0bbe bc36 903c f5b7 03be e5a4 bcbe
00000090: 386f b6bd 4f30 513e 0801 8cbe eb4b e7be
000000a0: 2762 b2be 7a74 8ebc d216 33be da3f a43e
000000b0: 93a7 90be 681e 8b3e 4acd a53e 1e50 673c
000000c0: 209c 493e c0c4 913e d4b7 5d3d 7395 28be
000000d0: dd69 5d3f 5790 adbe 2175 1ebf a919 7abe
000000e0: 1c8d 93bd 2111 fa3e 4789 83be 0153 113c
000000f0: 3259 54be 74b7 fc3d b7dd e9bd 726e 313e
00000100: e5f4 8dbe 41a8 32bf 6218 a03e a574 74be
00000110: a356 8ebe ce16 9c3c 43d4 0e3f e0d0 6ebe
00000120: 9179 553f cc35 9cbd 65de 243e 508c 443e
00000130: 7bd7 153d 99d8 f13e 4393 dd3e 7e96 edbe
00000140: 205f e0be 1481 abbd 4641 98be d338 00bf
00000150: 59c8 62be 0066 78be a942 0ebe 1e89 51be
00000160: b863 55be 9f48 a53d 3e9a c4be 0d9c 803e
00000170: 3e3d 26bf 268f 343b 6f06 79bd 64a7 25bf
00000180: bc58 00be 6bbb 07bf 5204 01bf 7c7f 88be
00000190: 6939 4e3f 4022 bfbe a839 b83e a776 1fbc
000001a0: 3245 11bf 4e50 ccbd 7177 1d3f 0990 c8bd
000001b0: 8cb9 c4be bb1a ca3e 77e0 cebd 22ca 053f
000001c0: ed2b 763c e230 c4be 79d1 163e 92e9 113e
000001d0: 55a7 f6be 5613 6a3b ce2d 18bf a5d6 a23e
000001e0: 01ef a1be e96c 493f c64d 0bbd 8c67 b43e
000001f0: e7e5 cabe e108 053f ecae c7be 869c d9be
00000200: 75f6 9dbe e95a 06bf d14c 013f d722 1bbf
00000210: 75f9 fe3d e513 89bc ac3a c73e e480 1cbe
00000220: 56c7 3cbe 1bfd 09bf 497d 2bbe 3548 80be
00000230: 40bb d03e 98fd 103f 7e8c 82bf d5b3 653f
00000240: 8fc6 0d3e ff2e c0be a4d1 703e bca0 db3e
00000250: ea7a e4be 52aa 083f 9aea 3c3f a5b3 0dbd
00000260: 3425 cc3e 019f ba3e 24b4 ed3e 90a9 4a3c
00000270: 9085 263f 6a67 c7be 001f 18bf bc31 bdbd
00000280: 8d57 b63e ce9c 44be 1a56 6fbd 33dc 833e
00000290: e0c0 8e3e a79c b23d fc40 c3be a0b1 ba3e
000002a0: 92ce 99be 3d20 e6bd 9022 203e 3254 acbe
000002b0: 4bff d3be 9f0f 76be 2748 5bbc b2d7 0a3e
000002c0: 027c 8b3e 3256 a1bd 8720 a2bd d832 e03e
000002d0: bdd5 823f 7493 abbe 8705 f03d 577d 8d3d
000002e0: ddf4 533e 0258 1a3e c175 413e 750a 6dbe
000002f0: e95c 26be f78e f4bd c417 c03d 665d b33e
00000300: 7001 b53d 3304 e53e c825 903e b34e 4a3f
00000310: 8efe fb38 214e b0bd 95f0 e6bd a16f 593a
00000320: 81d6 023f f195 2c3e 8fdb 38bf 698b 66bd
00000330: c90a 44bd 7b68 7d3d 7c85 293f 2634 03bf
00000340: 2d7f 463e 52a4 b53e ebe7 073f 74a0 9b3e
00000350: a76b 1cbe f3c4 11be dc14 1dbe 894a 39bd
00000360: ca7a 743f 3db1 9f3e d4e2 47bc f688 223f
00000370: 9430 92bd b310 3d3f f460 133e e0fb 44bf
00000380: 46c2 29be e412 aebe 3d8d 6c3e 160b c93e
00000390: eee6 3bbe 6faf 33be f0fb 583f 0653 83bc
000003a0: c6d0 34bf f4ec 0a3f 9218 32bf d3cc 62bd
000003b0: 6df8 5b3e f441 493f b890 9c3d 371b 023f
000003c0: b816 58bf 52c3 553d fef7 f2be d451 66bd
000003d0: 9cd8 083f b415 3d3e 0868 733c 6968 523d
000003e0: 0df7 ea3d 4a97 5d3e 136b bdbe 4a77 08bf
000003f0: cf88 44bd 1aa5 e73d 029e 0dbe 2a21 123f
0.38844612 -0.110987216 0.442522 0.12963778 -0.70973605 0.17486916 -0.12767783 0.14594746
-0.25573587 0.6650633 0.14948621 -0.15829349 0.20484537 0.12321976 0.44205964 0.2659315
0.04034633 0.28790638 0.07187712 0.45894346 0.16277058 -0.13870697 0.123221815 0.4563108
0.4443911 -0.14697571 0.20600143 -0.38102403 -0.11440811 -0.50898427 0.05607029 0.6438118
-0.1359345 0.017604224 -0.12863143 -0.36844555 -0.08907932 0.20428585 -0.27344537 -0.45175108
-0.3484051 -0.017389525 -0.17489174 0.32079965 -0.2825285 0.27171636 0.32383186 0.0141182225
0.19688463 0.2847042 0.05413039 -0.1646326 0.8648966 -0.33899185 -0.61897475 -0.24423851
-0.07204649 0.48841193 -0.25690672 0.008869887 -0.2073715 0.123396784 -0.11419242 0.17327288
-0.27725902 -0.69787985 0.31268603 -0.23872621 -0.27800474 0.019053843 0.55792636 -0.23321867
0.8338862 -0.076274484 0.16100462 0.1919415 0.03658245 0.47235563 0.43276414 -0.4640388
-0.43822575 -0.08374229 -0.297373 -0.50086707 -0.22146739 -0.2425766 -0.13892616 -0.20462462
-0.20838821 0.08070492 -0.38398927 0.25119057 -0.649372 0.0027551143 -0.06079715 -0.6470854
-0.1253385 -0.5302035 -0.5039722 -0.26659763 0.8055635 -0.37330818 0.35981488 -0.009732879
-0.5674621 -0.099762544 0.6151038 -0.097930975 -0.3842281 0.3947352 -0.10101407 0.52261555
0.015025121 -0.38318545 0.14728345 0.14249256 -0.4817454 0.0035717092 -0.5944489 0.31804386
-0.31627658 0.7868181 -0.034009717 0.3523525 -0.39628527 0.51966673 -0.39000642 -0.4250223
-0.30852094 -0.5248247 0.5050784 -0.60600036 0.12449924 -0.01673312 0.3891195 -0.15283543
-0.18435416 -0.53901833 -0.16747011 -0.2505509 0.4076786 0.56636953 -1.0199125 0.89727527
0.13845275 -0.37535855 0.23517472 0.42896068 -0.44625026 0.5338489 0.73795474 -0.03459515
0.39872134 0.36449435 0.464265 0.012369528 0.6504755 -0.38946086 -0.594223 -0.09238002
0.3561367 -0.19200441 -0.058431722 0.25753936 0.27881527 0.08721285 -0.38135517 0.36463642
-0.30040413 -0.11236618 0.15638185 -0.33657986 -0.4140571 -0.24029396 -0.013383902 0.13558844
0.27243048 -0.078777686 -0.0791636 0.4378879 1.0221478 -0.33510935 0.11719804 0.06908672
0.20698877 0.15072635 0.18892576 -0.2314852 -0.1624638 -0.11941331 0.09379533 0.35032195
0.08838165 0.44729766 0.28153825 0.79026335 0.00012016027 -0.08608652 -0.11276356 0.0008294527
0.51108557 0.16854073 -0.7221002 -0.056285296 -0.047861848 0.06186722 0.66219306 -0.5125145
0.19384451 0.3547693 0.53088254 0.30395854 -0.15275441 -0.14235286 -0.15339988 -0.045237098
0.9549986 0.3118991 -0.012200076 0.63490236 -0.07138172 0.73853606 0.14392453 -0.7694683
-0.16578016 -0.33998787 0.23100753 0.3926627 -0.18349811 -0.17547391 0.84759426 -0.0160308
-0.70631063 0.5426781 -0.6956874 -0.055371117 0.21481486 0.7861626 0.076447904 0.50822777
-0.84409666 0.052188225 -0.47454828 -0.05623038 0.5345552 0.1846531 0.014856346 0.051369105
0.114729024 0.21639743 -0.36995754 -0.5330702 -0.047982033 0.113107875 -0.13829806 0.57081854

network_body._body_endoder.seq_layers.0.bias f4 [128]
00000000: 0000 0000 0000 0000 0000 0000 0000 0000
00000010: 0000 0000 0000 0000 0000 0000 0000 0000
00000020: 0000 0000 0000 0000 0000 0000 0000 0000
00000030: 0000 0000 0000 0000 0000 0000 0000 0000
00000040: 0000 0000 0000 0000 0000 0000 0000 0000
00000050: 0000 0000 0000 0000 0000 0000 0000 0000
00000060: 0000 0000 0000 0000 0000 0000 0000 0000
00000070: 0000 0000 0000 0000 0000 0000 0000 0000
00000080: 0000 0000 0000 0000 0000 0000 0000 0000
00000090: 0000 0000 0000 0000 0000 0000 0000 0000
000000a0: 0000 0000 0000 0000 0000 0000 0000 0000
000000b0: 0000 0000 0000 0000 0000 0000 0000 0000
000000c0: 0000 0000 0000 0000 0000 0000 0000 0000
000000d0: 0000 0000 0000 0000 0000 0000 0000 0000
000000e0: 0000 0000 0000 0000 0000 0000 0000 0000
000000f0: 0000 0000 0000 0000 0000 0000 0000 0000
00000100: 0000 0000 0000 0000 0000 0000 0000 0000
00000110: 0000 0000 0000 0000 0000 0000 0000 0000
00000120: 0000 0000 0000 0000 0000 0000 0000 0000
00000130: 0000 0000 0000 0000 0000 0000 0000 0000
00000140: 0000 0000 0000 0000 0000 0000 0000 0000
00000150: 0000 0000 0000 0000 0000 0000 0000 0000
00000160: 0000 0000 0000 0000 0000 0000 0000 0000
00000170: 0000 0000 0000 0000 0000 0000 0000 0000
00000180: 0000 0000 0000 0000 0000 0000 0000 0000
00000190: 0000 0000 0000 0000 0000 0000 0000 0000
000001a0: 0000 0000 0000 0000 0000 0000 0000 0000
000001b0: 0000 0000 0000 0000 0000 0000 0000 0000
000001c0: 0000 0000 0000 0000 0000 0000 0000 0000
000001d0: 0000 0000 0000 0000 0000 0000 0000 0000
000001e0: 0000 0000 0000 0000 0000 0000 0000 0000
000001f0: 0000 0000 0000 0000 0000 0000 0000 0000
0.0 0.0 0.0 0.0 0.0 0.0 0.0 0.0
0.0 0.0 0.0 0.0 0.0 0.0 0.0 0.0
0.0 0.0 0.0 0.0 0.0 0.0 0.0 0.0
0.0 0.0 0.0 0.0 0.0 0.0 0.0 0.0
0.0 0.0 0.0 0.0 0.0 0.0 0.0 0.0
0.0 0.0 0.0 0.0 0.0 0.0 0.0 0.0
0.0 0.0 0.0 0.0 0.0 0.0 0.0 0.0
0.0 0.0 0.0 0.0 0.0 0.0 0.0 0.0
0.0 0.0 0.0 0.0 0.0 0.0 0.0 0.0
0.0 0.0 0.0 0.0 0.0 0.0 0.0 0.0
0.0 0.0 0.0 0.0 0.0 0.0 0.0 0.0
0.0 0.0 0.0 0.0 0.0 0.0 0.0 0.0
0.0 0.0 0.0 0.0 0.0 0.0 0.0 0.0
0.0 0.0 0.0 0.0 0.0 0.0 0.0 0.0
0.0 0.0 0.0 0.0 0.0 0.0 0.0 0.0
0.0 0.0 0.0 0.0 0.0 0.0 0.0 0.0

network_body._body_endoder.seq_layers.2.weight f4 [128, 128]
00000000: d7b3 12be 25fd e7bd 2595 78bd bb3f 3dbc
00000010: ca4f 913c 2b3c c1bd 92e5 2c3e b23a 803d
00000020: 03e0 51be 1680 963c d129 513d fdff 18be
00000030: d024 dabd c7e0 ee3d 528a 373d d196 083e
00000040: 9a7b c1bd 6d77 53be 1b84 97bd d5d2 a4bd
00000050: ef1f 20bd 8f7d 51be 2030 85bd 8f03 4cbe
00000060: 53c2 7cbd 231f b1bd a4cf 853d f3fa 953d
00000070: 40bd 31bd 2bdc b7bc 1cef 25bb 0707 76bd
00000080: cb32 d33d e449 363d 654e 59bd d9ec 5bbc
00000090: 6f7c 373c 277e 4ebd d7e6 18bd dd54 9a3e
000000a0: 3834 02be 68e3 b8bc e46c 7dbc 6a9b 60be
000000b0: 3bbd 86bd 1b20 21bc aaad 6bbc f495 3b3c
000000c0: 6cd0 1bbd 08a2 70bc 4953 043d 8df7 fc3d
000000d0: b4a6 d3bc ba5d 18be c739 87bc ba2d 3c3c
000000e0: 787d 143e 7c42 3abd 6539 d93c 991b 26bd
000000f0: f857 4ebc e39a c6bd 4975 f2bd ddeb a83d
00000100: 128f e8bd 3d3c fdbd 9e9a 95bd 555e a3bd
00000110: bd51 9f3c 0c88 2a3e d8a0 16be 3705 2c3e
00000120: d505 0dbe 29b2 463e e4c6 cd3d ce99 eb3d
00000130: bb83 a1bc 2380 50be 2d17 0b3e 3e1f c73d
00000140: f775 03bb 1e75 283d 3b09 d03d af3c b6bd
00000150: c151 633b 76fd 153e caa3 803d 09f1 1fbd
00000160: e9d9 2dbe 53c9 d9bd 0fcc febd e6c8 933d
00000170: 81c0 09be 6bc1 ee3d fd95 d83d 755c 63bd
00000180: d263 983d 72fb 70bd 8f05 393d b07e 883d
00000190: 3a9d 1bbd be43 133d cc1e 72bd d25e 0b3b
000001a0: 0f57 bc3c 2405 adbd 20f0 693b 35c4 57bd
000001b0: 3dd0 aebd 5005 febd f4e8 cbbd 6de7 fcbd
000001c0: 9d51 473e 9d1e efbd 7714 103d 7243 373c
000001d0: 801e 943d c39d 02bd 596f 183d d6e9 5dbd
000001e0: 04c8 213e b764 3b3c 3b50 a43c bdb1 c83c
000001f0: 71d7 87bd d1fb 59bd 9336 26be d59b c63a
00000200: 60ab b73c adee ce3d 38ed fc3c 03b7 aa3d
00000210: 54b9 e23a 0b73 ad3d dbab 03bd 8983 e8bb
00000220: 6a36 b3bb 3c65 22bd f568 563d 69f3 debd
00000230: 15b7 f83d c114 263d 9f5c 49bd b6e1 8d3d
00000240: 53b6 fdbc f053 093e fafc c83d 9d54 f03d
00000250: 8b39 1bbd 337b fdbd 3bc3 fdbc 27df e1bd
00000260: e4e3 41bd 8a39 9d3d 7d95 4e3e 895d acbd
00000270: cef7 fc3c c3a7 a9bc 1067 13bd c83b 013e
00000280: 1637 c73b a69f 803b afad 26bd 16d6 55bd
00000290: cfee b33d 02d5 66bd 1d48 ac3b 02a9 44bd
000002a0: e31b f6bc 0ccb bfbc 634f 14bd a557 083e
000002b0: 7acb b8bc c366 943d 98b5 f1bc ae1f a4bd
000002c0: 2e3e a23d 0b15 35bd a971 b6bd 152d 903d
000002d0: c2bf ecbc 7b42 aabb b092 ea3c 0b73 5abe
000002e0: 3e31 72bd abaa d63d 3bed d6bd 853d 183e
000002f0: 8094 11be 263a a4bd 605d 91bd c814 423d
00000300: 6334 033d 70b8 a93d 514a d63d 34a1 f53d
00000310: 2842 313d 9a19 063d 71f1 7a3d 4532 033e
00000320: 9ff8 e2bd 0fd3 84bd 9103 16bc 9fa7 97bd
00000330: 6305 f1bd 15c3 03bd 149a b43d 56cc 2dbe
00000340: 9813 fe3b 5680 a0bc d84f afbd bd76 31be
00000350: 809c 89bd 3279 85bd b50c fc3c 2e02 1239
00000360: e8eb a8bd 8891 b13d d3cc c0bd 1c73 cb3d
00000370: f4bb 2ebd 25bc c2bd ac0a b83d dbb8 11be
00000380: 8298 483c de3b a7bd 6585 25be 97a4 2f3e
00000390: 39ca 063e 2e4c 59bc 7439 37ba 6d1e 553d
000003a0: cd98 2f3e bf25 c0bd 86ed c33b b6a3 ce3c
000003b0: 544c e33d f9f6 6e3d 32af 4dbd d47f bd3d
000003c0: ec84 823c 5c1b 44bd b059 3f3d 685b d4bb
000003d0: 950d 46bd fe1c 15be 459a 8f3d 96a7 f4bd
000003e0: bbe6 a33d 7251 d53d 10d5 6537 f584 b13d
000003f0: 9617 053e a3d9 80bd 469e 9ebc fa7e 3cbd
-0.14326416 -0.1132758 -0.06068911 -0.011550839 0.017738242 -0.09435304 0.16884449 0.06261195
-0.2049561 0.018371623 0.05106527 -0.14941402 -0.10651553 0.116639666 0.044809647 0.13338782
-0.09447403 -0.20651026 -0.07398244 -0.080480255 -0.039092954 -0.20458053 -0.0650332 -0.19923232
-0.06170876 -0.08648517 0.06533745 0.073232554 -0.043393373 -0.022443851 -0.0025319522 -0.060065296
0.10312422 0.04450406 -0.05305328 -0.013423168 0.011199101 -0.050413277 -0.03732952 0.3014287
-0.12715232 -0.022569373 -0.015467856 -0.21934286 -0.065790616 -0.009834315 -0.014384666 0.011449326
-0.038040563 -0.014687069 0.03230599 0.12351904 -0.025836326 -0.14879504 -0.016507043 0.011485511
0.14500988 -0.04547356 0.026516626 -0.040553663 -0.012594216 -0.09697511 -0.118387766 0.08248112
-0.113554135 -0.12365005 -0.073048815 -0.07976977 0.019448156 0.1665346 -0.14709795 0.16798864
-0.13771756 0.194039 0.10047701 0.11503945 -0.019716134 -0.2036138 0.1358306 0.09722756
-0.0020059326 0.041127317 0.101580106 -0.08898293 0.003468618 0.14647469 0.0628124 -0.03904823
-0.16977657 -0.10634103 -0.12441265 0.07216053 -0.1345234 0.11657985 0.10575483 -0.055508096
0.07440914 -0.058833547 0.045171317 0.06664789 -0.03799174 0.035953276 -0.0591114 0.0021266234
0.022990732 -0.08448246 0.0035696104 -0.052677352 -0.08535812 -0.12403357 -0.09956542 -0.123488285
0.19464727 -0.11675761 0.035175767 0.011185514 0.0723238 -0.031888735 0.037215564 -0.05417808
0.15798956 0.0114375865 0.020057788 0.024498815 -0.06632889 -0.053218666 -0.16231756 0.0015152643
0.022420585 0.101041175 0.030874833 0.08335688 0.0017297664 0.08469208 -0.032146316 -0.0070957583
-0.005469133 -0.039647326 0.05234619 -0.108862706 0.12144295 0.040547136 -0.049160596 0.069278166
-0.030970728 0.13410926 0.098138765 0.11734889 -0.037896674 -0.12377014 -0.030976882 -0.11028891
-0.047336474 0.0767699 0.20174213 -0.08416278 0.030879881 -0.020709878 -0.03598696 0.12620461
0.006079565 0.0039252816 -0.04069298 -0.05220612 0.087857835 -0.056355484 0.00525762 -0.04801274
-0.030042594 -0.02341225 -0.03620852 0.13314684 -0.022557963 0.07246163 -0.029505536 -0.08013855
0.07922016 -0.04420952 -0.08908398 0.07039849 -0.028900031 -0.0051959134 0.0286344 -0.21332948
-0.059128992 0.10481771 -0.10494467 0.14867218 -0.14216805 -0.080189034 -0.07097888 0.0473831
0.03203238 0.08287132 0.104633935 0.11993638 0.043275982 0.03273926 0.061265413 0.12812145
-0.11082577 -0.06485569 -0.009156124 -0.07405018 -0.117686056 -0.032168467 0.088184506 -0.16972479
0.0077538006 -0.019592445 -0.08560151 -0.17330451 -0.06719303 -0.06517257 0.030767778 0.00013924457
-0.082481205 0.08670336 -0.09414067 0.09934065 -0.042659715 -0.09508542 0.089864105 -0.14230673
0.012243392 -0.08165716 -0.16164167 0.1715263 0.1316308 -0.013262792 -0.0006989457 0.05203097
0.17148133 -0.093821995 0.0059792427 0.025224548 0.11098543 0.058341 -0.050215907 0.09252897
0.015932523 -0.047877654 0.046716392 -0.006480623 -0.048352797 -0.14561841 0.070118465 -0.11946027
0.08002993 0.10415925 1.3699071e-05 0.08667938 0.12997279 -0.06291511 -0.01936258 -0.04601953

network_body._body_endoder.seq_layers.2.bias f4 [128]
00000000: 0000 0000 0000 0000 0000 0000 0000 0000
00000010: 0000 0000 0000 0000 0000 0000 0000 0000
00000020: 0000 0000 0000 0000 0000 0000 0000 0000
00000030: 0000 0000 0000 0000 0000 0000 0000 0000
00000040: 0000 0000 0000 0000 0000 0000 0000 0000
00000050: 0000 0000 0000 0000 0000 0000 0000 0000
00000060: 0000 0000 0000 0000 0000 0000 0000 0000
00000070: 0000 0000 0000 0000 0000 0000 0000 0000
00000080: 0000 0000 0000 0000 0000 0000 0000 0000
00000090: 0000 0000 0000 0000 0000 0000 0000 0000
000000a0: 0000 0000 0000 0000 0000 0000 0000 0000
000000b0: 0000 0000 0000 0000 0000 0000 0000 0000
000000c0: 0000 0000 0000 0000 0000 0000 0000 0000
000000d0: 0000 0000 0000 0000 0000 0000 0000 0000
000000e0: 0000 0000 0000 0000 0000 0000 0000 0000
000000f0: 0000 0000 0000 0000 0000 0000 0000 0000
00000100: 0000 0000 0000 0000 0000 0000 0000 0000
00000110: 0000 0000 0000 0000 0000 0000 0000 0000
00000120: 0000 0000 0000 0000 0000 0000 0000 0000
00000130: 0000 0000 0000 0000 0000 0000 0000 0000
00000140: 0000 0000 0000 0000 0000 0000 0000 0000
00000150: 0000 0000 0000 0000 0000 0000 0000 0000
00000160: 0000 0000 0000 0000 0000 0000 0000 0000
00000170: 0000 0000 0000 0000 0000 0000 0000 0000
00000180: 0000 0000 0000 0000 0000 0000 0000 0000
00000190: 0000 0000 0000 0000 0000 0000 0000 0000
000001a0: 0000 0000 0000 0000 0000 0000 0000 0000
000001b0: 0000 0000 0000 0000 0000 0000 0000 0000
000001c0: 0000 0000 0000 0000 0000 0000 0000 0000
000001d0: 0000 0000 0000 0000 0000 0000 0000 0000
000001e0: 0000 0000 0000 0000 0000 0000 0000 0000
000001f0: 0000 0000 0000 0000 0000 0000 0000 0000
0.0 0.0 0.0 0.0 0.0 0.0 0.0 0.0
0.0 0.0 0.0 0.0 0.0 0.0 0.0 0.0
0.0 0.0 0.0 0.0 0.0 0.0 0.0 0.0
0.0 0.0 0.0 0.0 0.0 0.0 0.0 0.0
0.0 0.0 0.0 0.0 0.0 0.0 0.0 0.0
0.0 0.0 0.0 0.0 0.0 0.0 0.0 0.0
0.0 0.0 0.0 0.0 0.0 0.0 0.0 0.0
0.0 0.0 0.0 0.0 0.0 0.0 0.0 0.0
0.0 0.0 0.0 0.0 0.0 0.0 0.0 0.0
0.0 0.0 0.0 0.0 0.0 0.0 0.0 0.0
0.0 0.0 0.0 0.0 0.0 0.0 0.0 0.0
0.0 0.0 0.0 0.0 0.0 0.0 0.0 0.0
0.0 0.0 0.0 0.0 0.0 0.0 0.0 0.0
0.0 0.0 0.0 0.0 0.0 0.0 0.0 0.0
0.0 0.0 0.0 0.0 0.0 0.0 0.0 0.0
0.0 0.0 0.0 0.0 0.0 0.0 0.0 0.0

action_model._continuous_distribution.mu.weight f4 [1, 128]
00000000: 586b 7c3a f780 dabc dbb5 f8bc eebc 00bc
00000010: 37f6 ed3b fc30 443b 3d2a 14bd 7435 ab3c
00000020: 83e7 c33c e361 913b 2b66 e13c c74d b7bc
00000030: 33ed 02bc 4f11 bfbc e79c 153c 44a8 9f3b
00000040: b2a1 743a 5306 88bb d05b 023d a0f9 debb
00000050: 5d94 62bc 170d 50bc f734 7f3c 3acf 2fbc
00000060: 337c aebc 275f e03c ce5b bcbb c7f3 8dbb
00000070: bd29 903c 5368 45bc 6f6b 16bd d91e c9bb
00000080: f2ef 56bb 13de b3bb 7e8a 993c ff4e 1f3c
00000090: 5361 acbc 9f3e 8bbc 6d61 cd3b ed62 bdbb
000000a0: 3280 903c f977 b63b b17d 473b cdd4 fbbb
000000b0: 4701 cc3b 8f39 b7bb 7503 b33c afbd 90bc
000000c0: 5d73 a83c 1c36 003d 65df 283b 9762 893b
000000d0: 3555 5f3c 976e 263c 8d24 553c e9c7 883c
000000e0: 27c8 013d 2bc4 15bc d575 8e3c 5f60 42bc
000000f0: d8e4 f5bb f89d 82bb 4f1f f33b 6359 833b
00000100: 4168 29bb 6bf6 65bb 9ec7 abba 33cc c7bb
00000110: a320 fcbc b500 103c b0e4 243c 60a2 0fbb
00000120: eafd 403d b8a7 5bbc 27dc 023d 7361 9b3c
00000130: 4393 0f3c 4eed 3dbb 739e 2ebc a2d3 e0bb
00000140: 6a0c 833a b788 483b 1249 d23b 9b7c 403c
00000150: d5a4 d8bb 63bb b83a 2b95 bfbc e804 57ba
00000160: 1525 333b 0797 833c 646d 27bc ff7f 143c
00000170: e033 ff3b c310 753c 60b8 6ebc 96b0 113c
00000180: 9de9 c8bc e101 94bc e2cd 573c 8a25 073c
00000190: 3303 033c 3d15 d53b d5cc 75bc c0df fdbc
000001a0: 20e9 dabb 09fb 933b b344 4d3c 7228 b9bc
000001b0: ba07 dc3a df3a 8dbc 983d f0bc 4209 d7bc
000001c0: ef90 8f3c 5eb2 2b3c e30e 003c ff84 f9bb
000001d0: 21fc aa3b 80a0 a93b 6aeb 62bc f5bc d7bb
000001e0: fa51 823c dcf1 b5bb 969a 0ebc 7f28 063c
000001f0: 0b20 383c 438e 90bc 951c c83c d864 7a3c
0.00096290326 -0.026672823 -0.030360153 -0.007857544 0.007262017 0.0029936424 -0.036173094 0.020899512
0.023914104 0.004436718 0.027514538 -0.022375954 -0.007991123 -0.023323683 0.009131647 0.0048723537
0.0009331956 -0.0041511445 0.03182584 -0.00680466 -0.013829318 -0.012698433 0.015576593 -0.010730559
-0.021299457 0.027389122 -0.0057482487 -0.004332039 0.017598027 -0.012048799 -0.03672355 -0.0061377105
-0.0032796827 -0.00548912 0.018742796 0.009723424 -0.021042502 -0.016997634 0.0062677176 -0.005779615
0.017639253 0.005568501 0.0030439908 -0.00768528 0.006225738 -0.0055915783 0.021852234 -0.017668573
0.020562822 0.031301603 0.002576792 0.004192661 0.013631155 0.010158203 0.013009203 0.016696887
0.03168502 -0.009141008 0.017390171 -0.011863797 -0.007504087 -0.0039861165 0.0074195038 0.0040084585
-0.0025849494 -0.0035089504 -0.0013105755 -0.0060973405 -0.030777281 0.008789231 0.010064289 -0.0021916851
0.04711715 -0.0134066865 0.031948235 0.018967366 0.008763137 -0.0028980556 -0.010657894 -0.006861166
0.0009998207 0.0030599067 0.006417402 0.011748458 -0.0066114464 0.0014093932 -0.023386559 -0.000820233
0.0027335335 0.016063226 -0.010218952 0.00906372 0.0077881664 0.01495761 -0.014570326 0.008892199
-0.024525458 -0.018067302 0.013171645 0.008248696 0.007996368 0.006502776 -0.015002449 -0.030990481
-0.0066806227 0.0045160097 0.012528586 -0.022602294 0.0016786971 -0.017239986 -0.029326245 -0.026249532
0.017525164 0.010479538 0.007816049 -0.0076147313 0.0052180444 0.005176604 -0.013850072 -0.0065838047
0.01590823 -0.0055525135 -0.008703848 0.008188366 0.011238108 -0.01764596 0.024427691 0.015282832

action_model._discrete_distribution.branches.0.weight f4 [3, 128]
00000000: 9311 1fba a307 38bb 978b 273b a0da 5dbc
00000010: 533a 0ebc 8f95 d639 15d7 783b 03e1 123b
00000020: 5196 213b 515a 81bb e3c4 11bc ed4b 03bc
00000030: cd9b 5abc 4be0 903b f837 76bc 1db4 0cbc
00000040: 435a d0bb 66dd ac3c e231 d03b 48c9 ea3c
00000050: 97ea 2e3b cbfe ca3a 83c0 7fb9 fa56 3739
00000060: bf3e 3d3c ff88 8abc 0755 70bb 2ead 45bb
00000070: d4c2 8abb 267b be3b 9741 c3bb a39b f33b
00000080: 9fcf a7bb e3ca 7d3b d0e5 15ba a059 1fbc
00000090: d3fe 203c 939b 11bc dd10 48bb 5a94 1cbc
000000a0: 3a66 543b 4314 00bc 9712 26bb 25be fc3b
000000b0: 0f5f 513c 82f1 413a 1372 463a 3356 53ba
000000c0: a30c 863c 2560 a1b9 1b81 ffbb 4db2 26bc
000000d0: c7c4 8fbb 5def 113a e3d3 aeba 2ebf 923b
000000e0: 54dc a13b 078c aa3c ecfe 86bb 880a 7d3c
000000f0: 5641 03bb 3f8c 563b da5c 0ebc 53fc 74b8
00000100: f8cb 29bb 73a1 0f3c 4242 613c 9fa5 4abc
00000110: df93 ce3b 8e27 bebc 132e b0bb e73d 6a3b
00000120: 9664 05bc 74da 1abb 5d19 4c3c 174f 6f3c
00000130: 10c4 2f3c d9b1 13bc 4b90 343c dbba c93b
00000140: 684e f4bb 5f75 00ba a57e 2dba 273b 9bbb
00000150: bd89 5a3c f3a7 103c 4b17 9a39 972f adbb
00000160: 6214 ceb8 bf2e 5f3c 20c7 dbba 8590 263b
00000170: 04be 043b 2baf c93b 619d 03ba 3861 643c
00000180: 8584 02bb dd16 373b d76f 8dbb 0fc3 203c
00000190: 0381 5a3c 9443 453b 4bb6 6dbb cd15 353b
000001a0: 9d25 923b 8c2e 46bc 1b92 463b 8db6 a93c
000001b0: defa 893c 4a26 55bb d536 c6bb bffe f0ba
000001c0: 2e8f 99b9 b12f 153c b475 933a aa9a 22bc
000001d0: 7756 a9bb 50d4 afba c2ba 76bc 7dbe 3e3c
000001e0: 205c b2bb f759 f1ba f785 93bb a0f0 86bb
000001f0: 57b1 8ebb 4b7f 4dbb 9b32 c93c bcbe 023b
00000200: 24f7 93bb 1e3c 213c e2a8 fbbb 929f 12bc
00000210: 640d 0cbb 99b1 cabb 9c71 17bc 3dd7 92bb
00000220: 8fda 0b3c 684c 963a c08e 783b f3a0 0bba
00000230: 0fcb 3fbb afd1 433c 28fd 043c f443 08bc
00000240: 7a31 f73b 3aa4 733c 3dbc 443c f735 b03b
00000250: 7602 b0bb e21f 1f3c f029 6a3b 5d73 a23c
00000260: c7ba 5ebb 4134 2c3c 7fbc 193c 5798 26bc
00000270: edc6 77ba 104b 083c f36c 213c d3d2 a93b
00000280: 53c2 e0bb 47eb 273c 9975 01ba 53ed a2bb
00000290: 49ee 1c3c 6b51 6d3c b8f1 fdbc 7352 c9bb
000002a0: 8b97 1fbc 17c9 3a3c 640f 88ba ef11 18bc
000002b0: fbcc 3ebb d3b4 16bc f33d 00bc d373 a6bb
000002c0: 6a67 05b8 73f8 313c 2b8d 15bc 6b7f ff3a
000002d0: f700 2c3a 79ba bc3a 5f08 bab6 7bb4 0ebc
000002e0: 3c67 19bc cbd2 dcba 2354 19bc 0146 2f3c
000002f0: 0812 7b3b 3a07 78bc d6fe 2d3c 117d 04bc
00000300: 22f7 2c3c 9d1d 963b 23ef ecbb 078e b23b
00000310: d535 a0b9 78e3 d6bb b37c 62bb abe0 213c
00000320: 2ada e2b8 4a98 ed3b 6f11 4f39 c847 1f3c
00000330: e7c2 003c 123f 11ba 2d42 bcbb 291e 2c3c
00000340: 65cf d43c e635 08bb 32ca ee3b d01c 753b
00000350: eb15 a2bb 4fcb 263c 7d6a e2bb df55 043b
00000360: af55 0b3b 659e f53b 3f1a 25bb cfa6 15bc
00000370: fb5f 723b a73c d13b d812 e239 d3c8 1bbb
00000380: c5b2 1bbc 3d2c a13b 0b09 41bb c8c8 063c
00000390: fb71 3e3b e052 a9bb 737d 1a3b 7a8c 0e3c
000003a0: c8f0 903b a8b1 2a3c ff5b 083c 3d39 4d3c
000003b0: b004 733b 8707 853c 1b0a 4d3c ff95 82bb
000003c0: e153 adbb d2e4 fd3b 3daf 613b 730d 1dba
000003d0: 7fff 293c 06fa 9dbb 245d b13c 074f 06bc
000003e0: 2571 91bb d966 b7bb a3fe 25bb 2ff9 c3bb
000003f0: 172c 0bbc 654e ed3b 5201 7fbc 0e74 b63b
-0.00060679874 -0.0028080724 0.002556538 -0.013540894 -0.008680898 0.0004092869 0.0037969996 0.002241195
0.0024656246 -0.003947534 -0.008897039 -0.008013708 -0.01334281 0.004421269 -0.015027992 -0.008587864
-0.0063584163 0.021101665 0.0063536027 0.028660432 0.002669012 0.0015487311 -0.00024390411 0.00017484641
0.011550604 -0.016911028 -0.0036671774 -0.0030163038 -0.004234651 0.0058130203 -0.0059587467 0.007434325
-0.005121186 0.0038725666 -0.00057181437 -0.009725958 0.00982638 -0.008887189 -0.003052763 -0.009556854
0.0032409565 -0.007817331 -0.002534067 0.0077130967 0.012779011 0.0007398353 0.0007570099 -0.0008061856
0.016363448 -0.00030779946 -0.007797373 -0.010174346 -0.0043874714 0.0005566979 -0.0013338294 0.004478357
0.0049395952 0.020818723 -0.0041197445 0.015444405 -0.0020027957 0.0032737402 -0.00868913 -5.840913e-05
-0.0025908928 0.00876652 0.013748707 -0.012368589 0.0063042487 -0.02321222 -0.005376586 0.0035742463
-0.008141657 -0.0023628743 0.012457219 0.014606259 0.010727897 -0.00901457 0.01102073 0.006156308
-0.007455636 -0.0004900302 -0.0006618298 -0.004737276 0.013338503 0.008829105 0.00029390524 -0.005285214
-9.826642e-05 0.013621985 -0.0016767718 0.002541573 0.002025486 0.006154915 -0.00050207047 0.013939194
-0.0019915414 0.0027937212 -0.004316311 0.009812131 0.013336423 0.0030100094 -0.0036271985 0.0027631402
0.0044600503 -0.012096059 0.0030299488 0.02071693 0.016843256 -0.0032524043 -0.006049017 -0.0018386467
-0.0002928911 0.009105609 0.0011250288 -0.00992457 -0.005167778 -0.0013414714 -0.015059175 0.011642096
-0.005443111 -0.0018413652 -0.004502054 -0.00411804 -0.0043546367 -0.003135639 0.024560263 0.0019950112
-0.0045155454 0.009840993 -0.0076800445 -0.008949177 -0.0021370286 -0.006185722 -0.009243395 -0.004481225
0.008535995 0.0011466863 0.0037926883 -0.00053264125 -0.002926532 0.011951848 0.008116998 -0.008316983
0.00754374 0.014870698 0.01200777 0.005377527 -0.005371387 0.009712191 0.0035730563 0.0198304
-0.003398584 0.010510505 0.00938332 -0.010168157 -0.00094519445 0.008318678 0.009852636 0.005182603
-0.0068591028 0.010248966 -0.0004938483 -0.004972139 0.009578296 0.014484744 -0.03099905 -0.006143862
-0.0097407205 0.011400483 -0.0010380563 -0.009281619 -0.0029113877 -0.009198385 -0.00782727 -0.0050797253
-3.1805983e-05 0.010862458 -0.009127895 0.001949293 0.0006561423 0.0014398835 -5.5442065e-06 -0.008710022
-0.009362992 -0.0016847489 -0.009358439 0.010697843 0.0038310308 -0.015138442 0.01061984 -0.008086459
0.010556968 0.004581167 -0.0072306558 0.00544906 -0.00030557686 -0.006557878 -0.003455919 0.009880225
-0.00010817156 0.0072508203 0.00019747553 0.009721704 0.007858968 -0.0005540709 -0.0057451935 0.010505238
0.0259778 -0.002078408 0.007287287 0.0037401207 -0.0049464605 0.0101803085 -0.006909667 0.0020192785
0.0021260788 0.0074956887 -0.0025192646 -0.009134009 0.0036983478 0.006385404 0.0004312012 -0.0023770824
-0.009503071 0.0049186037 -0.0029454853 0.008226581 0.0029059637 -0.00516735 0.0023573309 0.008700484
0.0044232346 0.010418333 0.008322715 0.012525854 0.0037081651 0.01623894 0.012514616 -0.003985166
-0.00528954 0.007748225 0.0034436726 -0.0005991079 0.010375856 -0.004821065 0.021650858 -0.0081975525
-0.0044385367 -0.005596977 -0.0025328777 -0.0059806327 -0.008494399 0.0072420114 -0.01556428 0.005568034

action_model._discrete_distribution.branches.0.bias f4 [3]
00000000: 0000 0000 0000 0000 0000 0000
0.0 0.0 0.0

action_model._discrete_distribution.branches.1.weight f4 [2, 128]
00000000: 1299 b7bb 0578 1fbc ffcd 3fbc d383 3abc
00000010: da42 1cba d7e2 0bb9 5f48 b13b c77d 143c
00000020: f3aa 083c cf1d 3bbc f079 8fbb 688f 593b
00000030: 8546 6ebc a7d7 193c e5ae d7bb 2bb6 70bb
00000040: 6512 6c3c 5707 073a 7be5 67bc b6ac 11bc
00000050: 28c4 81bc 0d30 c13b 9f22 023c 2342 c73a
00000060: a516 de3a 3b4a 693c 46a1 2d3b 9f0a 093b
00000070: a621 b93b 19a5 423c e624 cbbb 8ba8 9f3c
00000080: 58fd 653c d39c 9bbb 1743 10bb 05ce 063c
00000090: 5d75 3f3b 75e6 183c e342 90ba 3f57 9a3c
000000a0: a946 97ba 7960 423a 172f a73b 0f58 e2ba
000000b0: 7706 733c e518 7dbc 67d0 b5bb be69 3c3c
000000c0: d392 75ba 4a6c 3b3b 9c77 c73b 58e2 e2ba
000000d0: d837 71bb 876d 4bbc 6496 89bc 7b34 ea3b
000000e0: 9307 9dba 2e54 37bb 5a02 633c 0f29 6fbb
000000f0: d8d0 16bb 7bda 0cbc cb20 a93c 72a8 0d3c
00000100: c41d 12bc ffb0 893c 1088 7d3c 0316 cebb
00000110: e17f 33bc 57eb f93b 3354 1cbb eb9d 5aba
00000120: 84c5 973b 22c2 53ba b257 e6bb 1e53 2cbb
00000130: fcb4 c4ba 4cc3 c23b e583 193c e810 19bc
00000140: 7f02 9b3b 81de 2fbc e88e 6fbb 6fc7 60bc
00000150: e132 193c c67d 143a dbb7 7dbb 16dd 9c3b
00000160: 139e b73b b34d 4cbc b346 2ebb fd2c ddba
00000170: 13f3 8d3c cb76 0abc 2a00 113a 4a7b c7bb
00000180: 5a2e 52ba 4f66 13bb cf43 703b 78eb 6abc
00000190: e56a 19bc 1300 9fba 6575 2fba a04d b2bb
000001a0: 8647 13bc 2814 693c 2d7d 09b8 8f3a 453c
000001b0: 30ea d8ba 721e d3b8 d688 bd3b f2fa 74bc
000001c0: 88e9 71bb 32fe 023b 8f43 7cbb 3b4c d739
000001d0: e37c 14bc 4756 16bc 10a2 41bc dfd1 633c
000001e0: 25f5 c53b e8de c4bb 0418 05bb 9cba 26bc
000001f0: 3302 3fbc 0d56 8ebc ca75 a83b af4a 1f3c
00000200: a613 93bb caf8 f1bb 063f 953b 7ddc 78bc
00000210: b286 acbc 1b27 c4bb 434d 853b 4f6a d4ba
00000220: 5865 3b3b f840 44bc dd05 7dbb 94f2 0a3b
00000230: 4705 bc3b 891a 26bc 77f6 833b e8a8 e7ba
00000240: 02a6 3ebc 5301 803b 395a b63b e6ea 383c
00000250: 97ee 743b e5b7 b1bb 908d d63a 55e5 51bc
00000260: 9495 2a3c 6a8a b43b d838 2ebc 936d e9ba
00000270: 7d4e 96ba bf4c 2b3c afe5 8aba 4080 e93a
00000280: f3cc 68bc 5d8f eb3b 9cff c4bb 99a9 9c3b
00000290: 2b41 f5bb 9b14 213c 2ae6 9aba 17f2 91bb
000002a0: ebf7 78ba a37b f6ba 3b61 69bc 07e0 163c
000002b0: 9b71 51bb db7d 64bb 4be0 f0bb da1c f2bb
000002c0: 9a66 a13b 18df cdba 92fd 033b 133a 3e3c
000002d0: 2b08 05bc e996 41bc ef24 e7bb 25b0 073c
000002e0: a21b e03b e7ca 6c3b d16d 263b 3cbd 26bc
000002f0: 804d 23bc b996 8cbb 1910 b33b cf16 7ebc
00000300: e707 42bc 1b4e b7bb 79b0 153b a2bc d439
00000310: 5080 57bc 1736 833c afe0 e43b 92b9 273b
00000320: 233c f43b 2053 603c 4007 59bc dff8 92b9
00000330: a0c0 64bb f004 293c 7036 71bb f21b bfbb
00000340: 7aaf adbc 8bd1 b8bc cb76 a9bc c190 9c3b
00000350: 948d 18bc 0719 38bc e3cf 0f3c 6ba1 4abc
00000360: edda e1ba a161 abbc c3b4 523b 12a1 d83b
00000370: a2d9 d63b f382 25bc abfa 80bb e3de 333c
00000380: 3344 983b f07c b33c 78b4 0cbc 3269 e93b
00000390: f872 993c 0616 0b3b 5926 c13c cbbb c93b
000003a0: e167 02bc ea96 da3a ed0a b8b9 5661 00bc
000003b0: b0ea 6f3a 4527 c23b 7bc4 efb9 b80c 5e3c
000003c0: 7be1 35bb fda4 653a cf58 3c3c 9a59 0abc
000003d0: 4f87 183b a76d 253b 88ed 4a3c e7c8 a9bb
000003e0: a3b0 09bb e7a7 17bc ec3b 8abb 6bf6 d338
000003f0: 02d5 4fbc 682a a9bc d79c 753b 27f6 0ebc
-0.005602964 -0.009733205 -0.011706828 -0.011383968 -0.00059608894 -0.00013340577 0.0054102386 0.009063191
0.008341539 -0.011420681 -0.0043785498 0.003319705 -0.01454318 0.009389794 -0.0065821283 -0.0036729674
0.0144086825 0.0005150935 -0.0141538335 -0.008891275 -0.015840605 0.0058956207 0.007942825 0.0015202205
0.0016944004 0.014238889 0.0026493832 0.0020910872 0.005649763 0.011880183 -0.006199467 0.019489547
0.014037453 -0.0047489195 -0.0022012645 0.00822783 0.002921424 0.009332289 -0.0011006262 0.01884043
-0.0011541444 0.0007414888 0.005102049 -0.0017268675 0.014833084 -0.01544783 -0.005548525 0.01149982
-0.0009367887 0.002859848 0.0060872566 -0.0017309887 -0.0036806967 -0.01241625 -0.016795345 0.0071473694
-0.0011980407 -0.002797376 0.013855541 -0.0036492979 -0.0023012664 -0.008597012 0.02064552 0.0086461175
-0.0089182295 0.016808031 0.015474334 -0.006289245 -0.010955782 0.0076269316 -0.0023853898 -0.00083395717
0.0046317 -0.0008077939 -0.007029497 -0.002629466 -0.0015007551 0.0059436914 0.009369825 -0.00934241
0.004730522 -0.010734201 -0.0036553685 -0.013719424 0.009350509 0.00056644937 -0.0038714323 0.0047870977
0.0056035607 -0.012469697 -0.0026592433 -0.001687437 0.01732782 -0.008451174 0.00055313355 -0.0060876952
-0.0008017771 -0.00224914 0.003666151 -0.014338367 -0.009363865 -0.001213076 -0.00066932134 -0.0054413825
-0.0089892205 0.014225997 -3.2779924e-05 0.012037887 -0.0016549286 -0.00010066935 0.0057841344 -0.014952408
-0.0036912877 0.0019987938 -0.0038492416 0.00041064792 -0.009062978 -0.009175844 -0.011818424 0.013905018
0.0060411864 -0.006008018 -0.0020308504 -0.010176327 -0.011658239 -0.017375017 0.0051409947 0.009722396
-0.0044884263 -0.0073843943 0.004554632 -0.015189287 -0.021060321 -0.005986107 0.004068048 -0.0016205999
0.002859434 -0.01197838 -0.003860823 0.0021201717 0.005737934 -0.010138162 0.0040271836 -0.0017674239
-0.011636259 0.003906408 0.0055649546 0.011286473 0.0037373656 -0.0054235333 0.0016369093 -0.012811025
0.010411639 0.0055096643 -0.01063367 -0.0017809145 -0.0011467483 0.010455309 -0.0010597015 0.0017814711
-0.01420902 0.007188721 -0.0060119163 0.00478096 -0.0074845753 0.009831573 -0.0011817862 -0.004453908
-0.0009497392 -0.0018805157 -0.014244373 0.009208686 -0.0031958583 -0.0034865055 -0.0073509566 -0.0073886933
0.004925561 -0.0015706746 0.0020140153 0.011610526 -0.008119623 -0.011815765 -0.0070539634 0.008281742
0.0068392316 0.0036131681 0.0025395046 -0.010176953 -0.009967208 -0.0042904285 0.0054645655 -0.015508368
-0.011842704 -0.0055940277 0.0022840782 0.00040576333 -0.013153151 0.016017003 0.006984792 0.0025592786
0.007453458 0.013691694 -0.013246357 -0.00028032713 -0.0034904853 0.010316119 -0.003680613 -0.0058321888
-0.021201838 -0.022560855 -0.020686528 0.004777998 -0.009311099 -0.011236436 0.008777591 -0.012367587
-0.0017231383 -0.020920577 0.00321512 0.006610998 0.0065567056 -0.0101020215 -0.003936132 0.010978433
0.004646802 0.02191016 -0.008587949 0.007123136 0.01873158 0.0021222844 0.023577856 0.00615642
-0.007959337 0.0016677056 -0.00035103355 -0.007835707 0.00091520976 0.0059250914 -0.00045732022 0.013552837
-0.0027752805 0.0008760242 0.011495783 -0.008444214 0.002327401 0.002524236 0.012385733 -0.00518142
-0.0021009825 -0.00925634 -0.004218569 0.00010107163 -0.012685062 -0.020650104 0.0037477517 -0.0087256795

action_model._discrete_distribution.branches.1.bias f4 [2]
00000000: 0000 0000 0000 0000
0.0 0.0

network_body._body_endoder.seq_layers.0.weight f4 [128, 6]
00000000: 0fd0 8b3e c555 65be a17c 233e 1d04 cc3e
00000010: 67b6 a23e 721f 85bd f72d 0b3e 77da abbe
00000020: 48af 2cbe e102 c9bb f6b8 9abe ee26 173e
00000030: aa84 be3e 596c 96be 9879 3dbd 8292 c1be
00000040: 0ea8 be3d 25ac a4bd 460c 0fbf 33e7 a8be
00000050: d5ff 433f d22b 50bd d55f 63bd 605d 5fbb
00000060: 03e3 4f3e 7c10 ab3e ea17 b43d bf09 3ebe
00000070: 286f 0bbe 1e19 be3e 5877 2e3e e72d e8bd
00000080: 813b 8a3e 5d25 00bf ea08 993f cb89 0a3f
00000090: 22d3 f23e 30d1 1a3f b736 19be f036 b93e
000000a0: c81d 723e 589c 8e3e cfb4 903e 1d93 1bbe
000000b0: 49e0 58bf 991d dbbd cdf5 a33c 10eb b6be
000000c0: e3cd 273f 68d5 8fbe 0155 eebe 049d c9bd
000000d0: 3032 cc3e e23f dc3e 4c99 033e fce5 f4be
000000e0: 6c2a da3d 5f59 9d3e ac9d 32bf 0343 20be
000000f0: 6cde 2c3f 267f 9e3e 11f7 11bf e3a5 513f
00000100: 6c56 223b 01d3 7a3e bcfc 33bd ba17 e73e
00000110: ab53 a83e cf9e cb3e 4e1a 77be f2af eabe
00000120: 6b34 d3be 4158 6c3e 508b 63be 39bf 8a3f
00000130: 99f5 a2bd a900 283f dfb2 1ebe 406c 563f
00000140: 2633 debe 795f 3a3f 9ea2 b13e 4c90 a9be
00000150: 97e3 093e 4817 5bbe 8af3 afbe 2dd6 96be
00000160: 98e1 ab3e 9962 313f 381b c73e 16cf 833e
00000170: 0c6d b63d 0b17 463e 20e3 c33e 8c20 883e
00000180: 62d8 0e3f ea2d f9be ac29 803c 6fbc d4bd
00000190: 4512 0bbf 02cc 82bd ea10 55bf c9f7 623d
000001a0: 328e 093e 7624 a0be 7aa3 b03e 6463 c3be
000001b0: 1d7d 53be 8a8a 813e f24a 8e3c 9027 2dbf
000001c0: 0e71 ddbd 9ea7 7d3d c017 1dbf f06a 953d
000001d0: 50dc b9bd bc8d cc3e 0d43 de3e 54eb 92bd
000001e0: 1bed 943e dec6 1dbf f0ab 6d3e d913 82be
000001f0: 2704 46be 8812 90bd 0689 9c3f 1a90 e63d
00000200: 6b89 c63e b07c 063e 4470 10bd 1049 93be
00000210: de76 e8b9 abe7 e03d 63e7 e2bd f628 15be
00000220: ee4f 963d 6c19 0d3d 1444 53bf 10b5 45bf
00000230: cbb6 0ebf adf2 f03e db39 92bd e9b6 24be
00000240: 6cc7 9c3e efab 1fbf 2216 dcbe 8b22 9dbe
00000250: 2b7e 0a3e 28c4 93be 7d01 133d 8f4c 3fbf
00000260: 353f 22be 220c d9be c5a8 41bd b766 823e
00000270: d253 acbe db55 473d 8978 793e 9098 9a3e
00000280: 3920 13be 1b86 d53e 00bb c53d ad72 89be
00000290: 3541 ea3d 68ab f73e 75c1 20bf 20de a63e
000002a0: 5620 c2be 6927 ab3e 744a dc3d fd27 b5bd
000002b0: ace4 913e 57d4 a6be 3f9a 17be 5782 e93e
000002c0: 7c96 42bd 0abf 12bf 6f4c ffbe 8547 723d
000002d0: 105e 3a3f 0148 f9be c50a 0b3e f1b2 a43e
000002e0: a3b6 063f e256 153f 8335 24be 1cd5 97be
000002f0: 8493 a43d 86a6 78bd 9488 a23e f954 05bf
00000300: 2c65 cf3d fd5c d0bd 0ae0 6dbe 709c 6abd
00000310: 0497 babe 8603 5fbe 0388 23bf 34de 643e
00000320: b210 413c fa07 e1be b720 6ebf 34b0 4a3f
00000330: b723 893e a616 6cbe 1c36 493f 63ad d33d
00000340: b224 09bc f512 64bf 9f11 1aba 579f 8fbc
00000350: 82b4 4cbe 28ec 473e 830c 83be 1783 18bf
00000360: 2ab6 46be 721f d5be 75cb 903e fd9c 7b3d
00000370: 2192 05bf 29f2 febd 0737 fa3e 767d 83be
00000380: a7dc 6bbe d161 a6be 954d 3cbf 4437 8abd
00000390: 4519 0c3c 81b1 f43e 7238 e0be 40b7 283f
000003a0: 36ed 12bf 59be 1bbe 57ff aebe 7c2f 4ebf
000003b0: d0b0 4bbe 0f64 d9be 3c1c 973e 7d1f 083f
000003c0: 4078 19be b41c c3bc b6f1 0a3f b023 18bf
000003d0: d037 6e3e 6220 26bf 14be 6fbd 8356 86be
000003e0: 42c1 3fbe 9394 073f 04cd 723c 02c9 f1bd
000003f0: aed7 d13e b758 94be f45a 06bc b667 25be
0.27307174 -0.22396 0.15965511 0.39846888 0.31779787 -0.06500138 0.13591753 -0.33565113
-0.1686374 -0.0061343764 -0.3021924 0.14760944 0.3721059 -0.29379538 -0.04625854 -0.3780709
0.09309398 -0.080406465 -0.558781 -0.3298889 0.76562244 -0.05082304 -0.055511314 -0.0034082755
0.20301442 0.33411014 0.08793624 -0.18558405 -0.13616621 0.37128538 0.17037714 -0.1133688
0.26998523 -0.5005701 1.1955845 0.54116505 0.47426707 0.60475445 -0.14962278 0.36174726
0.23644173 0.27853656 0.28262946 -0.15192838 -0.8471723 -0.10699005 0.020014668 -0.35726213
0.65548533 -0.28092504 -0.46549228 -0.098444015 0.3988204 0.4301749 0.12851447 -0.47831714
0.106526226 0.30732247 -0.6977184 -0.15650563 0.6752689 0.30956382 -0.5701762 0.8189375
0.002477075 0.24494554 -0.0439422 0.4513529 0.32876334 0.397696 -0.24131128 -0.4583736
-0.4125093 0.23080541 -0.22221112 1.0839607 -0.07957 0.6562601 -0.15497921 0.83758926
-0.43398398 0.7280193 0.3469438 -0.33117902 0.13465725 -0.213956 -0.34365493 -0.29460278
0.33570552 0.69291073 0.38887954 0.25743932 0.08907518 0.19344728 0.3825922 0.2658733
0.55798924 -0.48667842 0.01564487 -0.10387503 -0.5432475 -0.06386568 -0.83228934 0.055412088
0.1343315 -0.31277817 0.34499723 -0.38161767 -0.20653196 0.2530101 0.017369721 -0.6763849
-0.10812579 0.06192743 -0.61364365 0.07295787 -0.090752244 0.39951885 0.4341053 -0.071737915
0.29087147 -0.6163157 0.2321012 -0.25405768 -0.19337521 -0.070347846 1.2229316 0.11257954
0.38776717 0.13133502 -0.035263315 -0.2876668 -0.0004433905 0.10981687 -0.1107929 -0.14566407
0.07339464 0.034448072 -0.82525754 -0.77229404 -0.5574767 0.47060147 -0.07139941 -0.160854
0.30620897 -0.62371725 -0.42985636 -0.30690417 0.13524692 -0.28860593 0.03589009 -0.74726194
-0.15844424 -0.4239207 -0.04728009 0.2546899 -0.336577 0.048665863 0.24362387 0.3019452
-0.1436776 0.41703877 0.09654808 -0.26845303 0.114382185 0.4837296 -0.6279519 0.32591343
-0.37915295 0.33428505 0.10756388 -0.08845518 0.28494775 -0.32583877 -0.14804934 0.45607254
-0.047506794 -0.5732275 -0.49863002 0.059150238 0.7279978 -0.48687747 0.13578327 0.3216777
0.5262243 0.583357 -0.16036038 -0.29654777 0.08035949 -0.060705684 0.31744826 -0.52082783
0.10126719 -0.10173986 -0.23229995 -0.057278097 -0.3644334 -0.21778688 -0.6387941 0.22350389
0.011783766 -0.43951398 -0.9301867 0.79175115 0.2678506 -0.23055515 0.7859819 0.10335805
-0.008370565 -0.89091426 -0.00058772595 -0.017532034 -0.19990733 0.1952368 -0.25595483 -0.5957503
-0.19405428 -0.41625553 0.28280225 0.061429013 -0.521761 -0.12448532 0.48870108 -0.25681657
-0.23033391 -0.32496503 -0.7355588 -0.06748822 0.008550947 0.47791675 -0.43793064 0.6590462
-0.57393205 -0.1520933 -0.34179184 -0.80541205 -0.19891667 -0.4245915 0.2951373 0.5317305
-0.14987278 -0.023817398 0.5427507 -0.59429455 0.23263478 -0.6489316 -0.058530882 -0.26237878
-0.18726066 0.5296108 0.014819387 -0.11805917 0.40984863 -0.28973934 -0.008200396 -0.16152844

network_body._body_endoder.seq_layers.0.bias f4 [128]
00000000: 0000 0000 0000 0000 0000 0000 0000 0000
00000010: 0000 0000 0000 0000 0000 0000 0000 0000
00000020: 0000 0000 0000 0000 0000 0000 0000 0000
00000030: 0000 0000 0000 0000 0000 0000 0000 0000
00000040: 0000 0000 0000 0000 0000 0000 0000 0000
00000050: 0000 0000 0000 0000 0000 0000 0000 0000
00000060: 0000 0000 0000 0000 0000 0000 0000 0000
00000070: 0000 0000 0000 0000 0000 0000 0000 0000
00000080: 0000 0000 0000 0000 0000 0000 0000 0000
00000090: 0000 0000 0000 0000 0000 0000 0000 0000
000000a0: 0000 0000 0000 0000 0000 0000 0000 0000
000000b0: 0000 0000 0000 0000 0000 0000 0000 0000
000000c0: 0000 0000 0000 0000 0000 0000 0000 0000
000000d0: 0000 0000 0000 0000 0000 0000 0000 0000
000000e0: 0000 0000 0000 0000 0000 0000 0000 0000
000000f0: 0000 0000 0000 0000 0000 0000 0000 0000
00000100: 0000 0000 0000 0000 0000 0000 0000 0000
00000110: 0000 0000 0000 0000 0000 0000 0000 0000
00000120: 0000 0000 0000 0000 0000 0000 0000 0000
00000130: 0000 0000 0000 0000 0000 0000 0000 0000
00000140: 0000 0000 0000 0000 0000 0000 0000 0000
00000150: 0000 0000 0000 0000 0000 0000 0000 0000
00000160: 0000 0000 0000 0000 0000 0000 0000 0000
00000170: 0000 0000 0000 0000 0000 0000 0000 0000
00000180: 0000 0000 0000 0000 0000 0000 0000 0000
00000190: 0000 0000 0000 0000 0000 0000 0000 0000
000001a0: 0000 0000 0000 0000 0000 0000 0000 0000
000001b0: 0000 0000 0000 0000 0000 0000 0000 0000
000001c0: 0000 0000 0000 0000 0000 0000 0000 0000
000001d0: 0000 0000 0000 0000 0000 0000 0000 0000
000001e0: 0000 0000 0000 0000 0000 0000 0000 0000
000001f0: 0000 0000 0000 0000 0000 0000 0000 0000
0.0 0.0 0.0 0.0 0.0 0.0 0.0 0.0
0.0 0.0 0.0 0.0 0.0 0.0 0.0 0.0
0.0 0.0 0.0 0.0 0.0 0.0 0.0 0.0
0.0 0.0 0.0 0.0 0.0 0.0 0.0 0.0
0.0 0.0 0.0 0.0 0.0 0.0 0.0 0.0
0.0 0.0 0.0 0.0 0.0 0.0 0.0 0.0
0.0 0.0 0.0 0.0 0.0 0.0 0.0 0.0
0.0 0.0 0.0 0.0 0.0 0.0 0.0 0.0
0.0 0.0 0.0 0.0 0.0 0.0 0.0 0.0
0.0 0.0 0.0 0.0 0.0 0.0 0.0 0.0
0.0 0.0 0.0 0.0 0.0 0.0 0.0 0.0
0.0 0.0 0.0 0.0 0.0 0.0 0.0 0.0
0.0 0.0 0.0 0.0 0.0 0.0 0.0 0.0
0.0 0.0 0.0 0.0 0.0 0.0 0.0 0.0
0.0 0.0 0.0 0.0 0.0 0.0 0.0 0.0
0.0 0.0 0.0 0.0 0.0 0.0 0.0 0.0

network_body._body_endoder.seq_layers.2.weight f4 [128, 128]
00000000: 788e 723d 3c60 e23c 02cf 233e 5351 3abe
00000010: 0f21 84bd cf4f 923d accf 45be 4500 a53d
00000020: 1756 16be a1d5 af3d db23 8bbc 9075 e43c
00000030: 7741 1ebc f4c1 84bd ab78 19bd 0faf 0cbc
00000040: 14d4 88be 34aa a3bd 7d91 d2bd eb18 89bd
00000050: f4bb 14bd ac44 45bc 1d50 5bbd 9334 12bd
00000060: dfa5 713e 018e a33d 8451 323c 7499 b8bc
00000070: 3eec c23d 2542 c7bd 9de9 fe3d d18f 8bbb
00000080: 9850 afbd 1c2e acbd 36c2 dc3c 6225 163d
00000090: 37de b53d 721c b63d d294 e4bc d9a8 adbc
000000a0: 07d1 a6bd c372 87ba f622 673d b18d cb3c
000000b0: e215 0d3e 65ac a13d b64f ea3b 098d 8fbb
000000c0: 7a0e c7bc 9f47 443d 26a2 37ba 5b67 d63d
000000d0: 7cfc 43be 6081 693d 3d4f f3bc 4d8e f8bd
000000e0: 87cb 8d3d 0741 133c 0b17 ac3c b4f6 8b3d
000000f0: 9c09 fa3d cc02 0f3d f6be 983d 5892 503d
00000100: 759c 6bbd 2c23 403e 2b89 913d 90ca 0a3e
00000110: a349 46bd 6bbe 243e e4e3 eb3c 5cc3 c2bd
00000120: c0af bb3d f10d 7fbd d413 60bd f8b7 f13b
00000130: 2d0e 0d3e 3f7f a4bd 8311 db3c a511 21be
00000140: 1025 efbd 33e0 753c 3d0b 8fbd d7ef 703a
00000150: 49ec 96bd 89cb 1dbd 6522 1abd a9d0 a03c
00000160: 76f1 fd3d c4e2 253d 083e 4c3d a8b3 a53c
00000170: a3f3 3dbd 8043 14bd bb8d d03d 0cad 07be
00000180: 719b 8ebc 92de ec3d e7e3 33be 7c2f bfbd
00000190: c3ee bf3c aabc 163e adf7 813c bf60 91bd
000001a0: e3ab 85bd 495b 5abd 2eb0 df3d 8f85 0f3e
000001b0: d373 abbd 2ab6 0ebe c691 e1bd 3e79 a03b
000001c0: 956b 193c e9b1 4dbd 625f e13c 62c6 02bc
000001d0: ce4b 13be 3fd8 2f3d 6d4b 6e3d 1cec 16be
000001e0: e19d 5d3d ef08 bc3d a48d 983d 4251 32bc
000001f0: 7b89 023d e1d9 093d 60a0 bc3d 3d47 c53d
00000200: 0a64 14be 6507 a63d 8e14 113d c50b 0abe
00000210: 4592 bf3d 920d d8bd e66a dd3c 01e3 173d
00000220: fcc0 86bc 9d73 823d fdda 8f3d 1116 653e
00000230: 5811 673d 23d8 df3d 0598 1ebe 2ed0 9f3d
00000240: dc13 8a3d 9765 35bd ff5e 00be 8455 863c
00000250: cb4f f3bd 351c 0b3e f3c0 3dbd 4751 11bd
00000260: 5eda c73d 7e63 e13d 6953 6e3c a9c1 b9bd
00000270: 52ab 0f3e 5063 77bd a9e3 f7bc 9ff5 223e
00000280: 6b92 1dbe 1017 ddbd 13fb cd3c 4ce1 0a3d
00000290: 1c81 683d 501c de3d c2d7 033e c54b 5b3c
000002a0: 0a71 10be 89c5 fc3c d8b6 4cbe 8476 85bc
000002b0: 9e37 a1bd d64e 23be 0325 6cbc 3e9d 4e3d
000002c0: 266f 4c3c fcd8 d33b e96a 98bc 8786 b43d
000002d0: b949 4f3d 4e6b 91bd 78c6 b23c d6ae 0c3e
000002e0: 9836 79bc 5395 89bd 8cf6 54bd 602f cd3d
000002f0: dfa6 9ebd 79e9 de3d bac1 6bbd 40e8 30bd
00000300: 96fb aabd 6f97 e33d 76ae 203e bddd 933d
00000310: d32a 2fbc 70dd a9bc b5cd 8c3d 82c8 883d
00000320: 49d2 523a f481 abbd cef3 aebd 3d91 6f3c
00000330: 9018 503d dd5d cdbb 98b5 1ebe 25fc f7bd
00000340: 10cb 093e d729 6e3c cc68 0a3e 53b1 b93d
00000350: 17e5 c1ba d787 20bd b7e2 b63c d938 ecbd
00000360: 1b37 643d 2e13 20ba 90a5 a9bd 64a0 37be
00000370: 22b9 fbbc 0b69 0c3d eb39 4cbd c503 653d
00000380: 30eb f03c ce21 56bb ac12 59bc 2323 78bd
00000390: 3827 ae3c 35d2 153d b269 aebd ece4 cabd
000003a0: 7063 483d 503a c9bd 7a77 b4bb 1839 a33d
000003b0: 14bc 1b3e 01d8 b63d db75 f13d b518 d2bd
000003c0: adec 843d 742c f0bd 780d 11be 38db 37be
000003d0: e33b c9bc 8525 b03d 5bac b0bd 5a25 cf3d
000003e0: e260 a2bd 4019 593d e285 88bd 48b9 bbbd
000003f0: ad85 db3d cb1e 2bbd 4daa 56bb 2bfc 563d
0.0592179 0.027633779 0.15996936 -0.18195085 -0.06451618 0.071441285 -0.19317502 0.08056692
-0.14681278 0.08585668 -0.01698487 0.02788809 -0.009659163 -0.06482306 -0.037468594 -0.008586659
-0.26724303 -0.07991448 -0.10281656 -0.06694206 -0.03631206 -0.012040298 -0.0535432 -0.03569467
0.23598431 0.079860695 0.010883693 -0.02253411 0.09517716 -0.09729413 0.12446902 -0.0042590876
-0.08560294 -0.08407232 0.026948076 0.036656745 0.08880275 0.08892144 -0.027902994 -0.021198677
-0.081453376 -0.0010333884 0.056429826 0.024847837 0.13777879 0.0789421 0.0071506156 -0.0043808264
-0.024298895 0.047919866 -0.0007005058 0.10468932 -0.19139284 0.057008147 -0.02970087 -0.12136517
0.069235854 0.008987672 0.021007081 0.06834164 0.12208864 0.034914777 0.07458298 0.050920814
-0.057522256 0.18763417 0.07106241 0.13553834 -0.04841007 0.16088264 0.02879519 -0.09509918
0.09164381 -0.062269155 -0.05470641 0.007376667 0.13774939 -0.08032083 0.026741749 -0.15729387
-0.11676991 0.015007067 -0.069845654 0.00091910124 -0.073692866 -0.038524184 -0.037630457 0.019630747
0.12399571 0.040499464 0.049863845 0.020227268 -0.04637493 -0.036197186 0.10183283 -0.13249606
-0.017408105 0.115658894 -0.17567407 -0.09335229 0.02342928 0.14720407 0.015865171 -0.07098531
-0.065269254 -0.053309713 0.109222755 0.14015792 -0.08371701 -0.13936678 -0.11014132 0.0048972657
0.009364028 -0.050218496 0.027511302 -0.007981868 -0.14384386 0.042930838 0.0581774 -0.14738506
0.054105643 0.091813914 0.07448891 -0.010883631 0.031869393 0.03365505 0.092102766 0.09632728
-0.14491287 0.08106879 0.035419993 -0.13481052 0.093540706 -0.10549463 0.027028512 0.037081722
-0.016449444 0.06369708 0.070241906 0.22371699 0.056413025 0.10929897 -0.15487678 0.07803379
0.06742069 -0.044286337 -0.12536238 0.016398199 -0.11880454 0.13584979 -0.04632659 -0.035477903
0.09758447 0.11005305 0.014546254 -0.09070141 0.14030197 -0.060397446 -0.030259924 0.1591401
-0.15387885 -0.107954144 0.025144136 0.033906266 0.056763753 0.10845244 0.12875274 0.013384764
-0.14105621 0.03085591 -0.19991624 -0.016291864 -0.07871936 -0.15948042 -0.014413121 0.050442927
0.012477672 0.0064650755 -0.018605666 0.088147216 0.050607417 -0.07100545 0.021823153 0.1373857
-0.01521077 -0.067179345 -0.051992938 0.10018802 -0.07746672 0.10884375 -0.0575578 -0.04319024
-0.083487675 0.11112868 0.15691552 0.072200276 -0.010691362 -0.020735472 0.06875173 0.06678869
0.0008042199 -0.08374396 -0.08542596 0.01462203 0.050804675 -0.006267293 -0.1549896 -0.1210864
0.13456368 0.014536343 0.1351654 0.09067025 -0.0014793006 -0.039192047 0.022324903 -0.1153428
0.055716615 -0.00061063736 -0.08283532 -0.17932278 -0.030727927 0.034279864 -0.049859922 0.055911798
0.029409021 -0.0032673958 -0.013249081 -0.060580384 0.021258935 0.036577422 -0.085162535 -0.09906945
0.048922956 -0.09825575 -0.005507407 0.07969874 0.15208465 0.08927918 0.11790057 -0.10258619
0.06490455 -0.11727229 -0.14165294 -0.17954719 -0.024564689 0.08600906 -0.08626624 0.10114546
-0.07928635 0.053002596 -0.06666161 -0.09166199 0.10718856 -0.041777413 -0.0032755316 0.05248658

network_body._body_endoder.seq_layers.2.bias f4 [128]
00000000: 0000 0000 0000 0000 0000 0000 0000 0000
00000010: 0000 0000 0000 0000 0000 0000 0000 0000
00000020: 0000 0000 0000 0000 0000 0000 0000 0000
00000030: 0000 0000 0000 0000 0000 0000 0000 0000
00000040: 0000 0000 0000 0000 0000 0000 0000 0000
00000050: 0000 0000 0000 0000 0000 0000 0000 0000
00000060: 0000 0000 0000 0000 0000 0000 0000 0000
00000070: 0000 0000 0000 0000 0000 0000 0000 0000
00000080: 0000 0000 0000 0000 0000 0000 0000 0000
00000090: 0000 0000 0000 0000 0000 0000 0000 0000
000000a0: 0000 0000 0000 0000 0000 0000 0000 0000
000000b0: 0000 0000 0000 0000 0000 0000 0000 0000
000000c0: 0000 0000 0000 0000 0000 0000 0000 0000
000000d0: 0000 0000 0000 0000 0000 0000 0000 0000
000000e0: 0000 0000 0000 0000 0000 0000 0000 0000
000000f0: 0000 0000 0000 0000 0000 0000 0000 0000
00000100: 0000 0000 0000 0000 0000 0000 0000 0000
00000110: 0000 0000 0000 0000 0000 0000 0000 0000
00000120: 0000 0000 0000 0000 0000 0000 0000 0000
00000130: 0000 0000 0000 0000 0000 0000 0000 0000
00000140: 0000 0000 0000 0000 0000 0000 0000 0000
00000150: 0000 0000 0000 0000 0000 0000 0000 0000
00000160: 0000 0000 0000 0000 0000 0000 0000 0000
00000170: 0000 0000 0000 0000 0000 0000 0000 0000
00000180: 0000 0000 0000 0000 0000 0000 0000 0000
00000190: 0000 0000 0000 0000 0000 0000 0000 0000
000001a0: 0000 0000 0000 0000 0000 0000 0000 0000
000001b0: 0000 0000 0000 0000 0000 0000 0000 0000
000001c0: 0000 0000 0000 0000 0000 0000 0000 0000
000001d0: 0000 0000 0000 0000 0000 0000 0000 0000
000001e0: 0000 0000 0000 0000 0000 0000 0000 0000
000001f0: 0000 0000 0000 0000 0000 0000 0000 0000
0.0 0.0 0.0 0.0 0.0 0.0 0.0 0.0
0.0 0.0 0.0 0.0 0.0 0.0 0.0 0.0
0.0 0.0 0.0 0.0 0.0 0.0 0.0 0.0
0.0 0.0 0.0 0.0 0.0 0.0 0.0 0.0
0.0 0.0 0.0 0.0 0.0 0.0 0.0 0.0
0.0 0.0 0.0 0.0 0.0 0.0 0.0 0.0
0.0 0.0 0.0 0.0 0.0 0.0 0.0 0.0
0.0 0.0 0.0 0.0 0.0 0.0 0.0 0.0
0.0 0.0 0.0 0.0 0.0 0.0 0.0 0.0
0.0 0.0 0.0 0.0 0.0 0.0 0.0 0.0
0.0 0.0 0.0 0.0 0.0 0.0 0.0 0.0
0.0 0.0 0.0 0.0 0.0 0.0 0.0 0.0
0.0 0.0 0.0 0.0 0.0 0.0 0.0 0.0
0.0 0.0 0.0 0.0 0.0 0.0 0.0 0.0
0.0 0.0 0.0 0.0 0.0 0.0 0.0 0.0
0.0 0.0 0.0 0.0 0.0 0.0 0.0 0.0
