results/ppo/Player Behaviour/Player Behaviour-384.pt (torch, 153007 bytes, 15 tensors)

discrete_act_size_vector f4 [1, 2]
00000000: 0000 4040 0000 0040
3.0 2.0

network_body._body_endoder.seq_layers.0.weight f4 [128, 6]
00000000: d494 78be eab2 663e e3e7 78be 58f5 3abf
00000010: 1570 b93e ff6a 18bd 3689 a23d b208 0d3e
00000020: 4015 8d3e 4ce5 7c3e b146 86be 9a30 ed3e
00000030: be96 8abd 068a 60be c7f5 ad3d d4b6 0b3f
00000040: d1fd 6a3c bdde 433e 5266 a8be 4ffd a7be
00000050: 990b 25be 1c0b 573f 0707 a1be aa96 42be
00000060: 9f1c 3b3f a8f8 db3d e5e3 83bd c0c1 21bf
00000070: d67e 553e 1250 e83e 270f 41bf de2c 2d3f
00000080: 4549 0abe d2d7 9bbe 6089 95be 6d59 ccbe
00000090: 5044 00be 5d33 58bf 9072 06bd 3639 5cbe
000000a0: 5f66 08bf 4f77 90be b6a7 123f cfee c33d
000000b0: 9291 073e d325 e0be 3e54 83be 2f4c 513f
000000c0: 6c93 6b3e 6a10 0f3f fdd3 843e 214d 76be
000000d0: 9143 583d 08be a43e b3b8 52bd e606 13be
000000e0: e1d0 233e a232 9abb 1b23 8c3e d1d6 433f
000000f0: ee30 00bf 0c07 343e ab03 c13e 0eaf 2abd
00000100: a2eb 4bbe f99d 363e f57d 8fbd acbf 3f3e
00000110: 3fb3 8e3e bdd5 2e3d 8ce2 db3d a9ba 9e3e
00000120: b295 253f de6d b3bd cad3 29bf ae39 5f3e
00000130: 1419 e6be 1f8f 7ebd 2e93 77bf 58fb 3fbc
00000140: 6e79 543d a4bd 80be 4584 103f c984 1ebe
00000150: b409 08be e7b7 5b3f d0c7 293f 596f 0abf
00000160: 7b7f 8abf 66d3 5f3f 48ba 5c3e bdfb adbd
00000170: 9641 e43e b8c4 843d 9701 863e 2e6c 1cbf
00000180: 1911 bcbe b044 fd3e 05e1 e2be 7fd4 99be
00000190: 8af4 12bf 6630 14bf 6392 413e a6ae fd3d
000001a0: b5b9 34bf 3424 15bf 9512 fbbe 3142 b53e
000001b0: b7fa 2d3f 2cdd 4ebf ebb9 503e 9a3c 0bbe
000001c0: 6b6f eabe f249 f6bd dce3 52be cf61 87be
000001d0: 938b 9abc d18d 6fbf ff14 033f e3db 953d
000001e0: 7652 acbe 6254 c83c c139 02be fc88 a33e
000001f0: f546 483d 32e8 0fbf 9cc7 e83c 7170 d63e
00000200: 35ee 72be 0aaa 903d a246 77be 849f b93e
00000210: aae9 9f3e 33a2 fa3e a196 89be 0bd5 3abe
00000220: 79e7 20be 3247 b3be 2d72 593f 5019 14bf
00000230: dc83 383e a6d7 b13c 488b 9e3d 9e7d 9dbe
00000240: 957f 18bc f73f 133f 347f ef3e 1cac a2be
00000250: 6f2d cc3c b4e7 6ebf 64c0 20be 76e0 423e
00000260: 7e45 27bf f4e3 9dbe 9d9c 52bd 29d3 16ba
00000270: e7f0 7ebe 245a 40bf ab72 a43c a6ec 4dbc
00000280: 7b36 44bf 6dab e63d a78d 223e 185f 37be
00000290: 753c b43e c783 1f3e 6878 34bf 2d08 18bf
000002a0: 2242 29be 8a3f 34bf 6feb 82be 1654 363d
000002b0: b5d8 e13d 8fea cabd 5d47 2fbe 1b2f 423e
000002c0: c011 753e c5aa a7be 45ff fdbe 3b73 ddbc
000002d0: f419 713e 0898 eebe dc49 073e b020 9c3e
000002e0: 63c9 25bf e59a 44be e2c9 18be 219f 10be
000002f0: 5113 723d 0452 82be b94e 72be 5b88 76be
00000300: aa0b af3d 62ea 303f b28b 413f 8870 d0bd
00000310: 9e93 c13e 9b26 7dbe 0079 443d 297f 0fbf
00000320: 3923 b4bd d18e 3fbf bf89 ff3d 3230 323e
00000330: 4f41 0dbe 4be0 6bbe 8633 52bd 0ba1 053f
00000340: 2842 e2be 824f b0be 8640 c1bd d9f3 4bbe
00000350: 4ead 843c 4ae5 863f 3729 2d3e 72d5 1f3f
00000360: d20f c93e 60ed f0be 82ff 6cbd daed c13e
00000370: 59b0 1bbe 2fbf 6dbf 3f2d 08bf 942e ca3e
00000380: bb91 b0be 59a8 043e a905 fa3d 9a2e 86be
00000390: 2d16 183f bd98 80bd eecb f8bc f3c3 353f
000003a0: e6e4 fcbd 7db9 2bbf 382b abbe 1d36 a4be
000003b0: a0d6 6abe f024 1f3e e186 9abe b545 5b3e
000003c0: d490 8f3e baa3 c73d 3b2d a2be e347 84be
000003d0: 975c 98bd ac76 47be 00ef 06be d93d 53be
000003e0: 2598 d6bd 2e11 02bf 9aa2 bf3c 8475 553f
000003f0: 3ee4 bb3e eafa a0be dba7 dcbe 97ed 8fbe
-0.24275523 0.22529188 -0.24307208 -0.73030615 0.36218324 -0.037211414 0.07936327 0.13772848
0.27555275 0.24696845 -0.26225808 0.46326143 -0.06767033 -0.21927652 0.08494144 0.5457585
0.014342741 0.19127937 -0.32890564 -0.32810447 -0.16117705 0.84001327 -0.31450674 -0.19002786
0.7309055 0.10740787 -0.06439952 -0.63186264 0.20849165 0.4537359 -0.75413746 0.67646587
-0.13504513 -0.30438095 -0.2920637 -0.39911976 -0.12526059 -0.84453374 -0.0328241 -0.21506199
-0.53281206 -0.28216025 0.57287157 0.095670335 0.13239124 -0.43778858 -0.2565021 0.8175687
0.23005456 0.5588442 0.25942984 -0.2405286 0.05279881 0.32176232 -0.051445674 -0.143581
0.1599765 -0.004705743 0.27370533 0.7649966 -0.5007466 0.17580813 0.3769811 -0.04167085
-0.19914106 0.178337 -0.07006446 0.18725461 0.2787113 0.042684305 0.1073657 0.31001785
0.6468154 -0.0876119 -0.6633879 0.21799347 -0.44941008 -0.06214821 -0.96708953 -0.01171764
0.051873617 -0.25144684 0.5645183 -0.15480341 -0.13284951 0.8582749 0.66320515 -0.54076153
-1.0820154 0.87431943 0.21555436 -0.08495281 0.44581288 0.064828336 0.26173088 -0.6110257
-0.36731794 0.49466467 -0.443123 -0.30044934 -0.57404387 -0.5788635 0.18903498 0.12386827
-0.70595866 -0.58258367 -0.49037614 0.35402063 0.67960685 -0.8080623 0.20383422 -0.13597336
-0.4578813 -0.12025823 -0.20594734 -0.2644181 -0.018865382 -0.9357577 0.5120391 0.07317331
-0.33656663 0.0244543 -0.12717344 0.31940448 0.048895795 -0.56213677 0.028415494 0.4188266
-0.23723681 0.070636824 -0.24148038 0.36254513 0.3123296 0.48951873 -0.26872733 -0.18245332
-0.157133 -0.35015255 0.84939843 -0.57851124 0.1801905 0.021709275 0.077414095 -0.307599
-0.009307762 0.5751948 0.46776736 -0.31771934 0.024924008 -0.933223 -0.15698391 0.19030938
-0.6534041 -0.30837977 -0.05141889 -0.0005753511 -0.24896584 -0.75137544 0.02007421 -0.012568628
-0.7664563 0.112631656 0.15874349 -0.17907369 0.35202375 0.15577613 -0.70496225 -0.59387475
-0.16529134 -0.7040945 -0.25570247 0.044513784 0.11027662 -0.0990802 -0.17117067 0.18963282
0.23932552 -0.32747474 -0.49608818 -0.027032485 0.23545057 -0.46600366 0.13211769 0.3049369
-0.64760417 -0.19199713 -0.14920762 -0.14123203 0.059100453 -0.25453198 -0.23662843 -0.24075453
0.085471466 0.6910764 0.75603783 -0.10177714 0.37807935 -0.24721758 0.047966957 -0.56053406
-0.08795781 -0.74827296 0.12477445 0.17401198 -0.13794445 -0.2303478 -0.051318668 0.5219886
-0.44191098 -0.3443566 -0.09436135 -0.19917239 0.01619592 1.0538723 0.16910253 0.62435067
0.39269882 -0.47056103 -0.05786086 0.3787678 -0.1520399 -0.9286985 -0.5319404 0.3948866
-0.34486184 0.12954845 0.12208111 -0.2620743 0.5940884 -0.062791325 -0.030370679 0.7100212
-0.123483464 -0.6707991 -0.3343141 -0.32072535 -0.22933435 0.15541434 -0.3018103 0.2141331
0.28040183 0.09748025 -0.31675133 -0.25836095 -0.07439535 -0.19478863 -0.13177109 -0.20629062
-0.10478238 -0.50807464 0.023392964 0.8338244 0.36697572 -0.31441432 -0.43096814 -0.28110954

network_body._body_endoder.seq_layers.0.bias f4 [128]
00000000: 0000 0000 0000 0000 0000 0000 0000 0000
00000010: 0000 0000 0000 0000 0000 0000 0000 0000
00000020: 0000 0000 0000 0000 0000 0000 0000 0000
00000030: 0000 0000 0000 0000 0000 0000 0000 0000
00000040: 0000 0000 0000 0000 0000 0000 0000 0000
00000050: 0000 0000 0000 0000 0000 0000 0000 0000
00000060: 0000 0000 0000 0000 0000 0000 0000 0000
00000070: 0000 0000 0000 0000 0000 0000 0000 0000
00000080: 0000 0000 0000 0000 0000 0000 0000 0000
00000090: 0000 0000 0000 0000 0000 0000 0000 0000
000000a0: 0000 0000 0000 0000 0000 0000 0000 0000
000000b0: 0000 0000 0000 0000 0000 0000 0000 0000
000000c0: 0000 0000 0000 0000 0000 0000 0000 0000
000000d0: 0000 0000 0000 0000 0000 0000 0000 0000
000000e0: 0000 0000 0000 0000 0000 0000 0000 0000
000000f0: 0000 0000 0000 0000 0000 0000 0000 0000
00000100: 0000 0000 0000 0000 0000 0000 0000 0000
00000110: 0000 0000 0000 0000 0000 0000 0000 0000
00000120: 0000 0000 0000 0000 0000 0000 0000 0000
00000130: 0000 0000 0000 0000 0000 0000 0000 0000
00000140: 0000 0000 0000 0000 0000 0000 0000 0000
00000150: 0000 0000 0000 0000 0000 0000 0000 0000
00000160: 0000 0000 0000 0000 0000 0000 0000 0000
00000170: 0000 0000 0000 0000 0000 0000 0000 0000
00000180: 0000 0000 0000 0000 0000 0000 0000 0000
00000190: 0000 0000 0000 0000 0000 0000 0000 0000
000001a0: 0000 0000 0000 0000 0000 0000 0000 0000
000001b0: 0000 0000 0000 0000 0000 0000 0000 0000
000001c0: 0000 0000 0000 0000 0000 0000 0000 0000
000001d0: 0000 0000 0000 0000 0000 0000 0000 0000
000001e0: 0000 0000 0000 0000 0000 0000 0000 0000
000001f0: 0000 0000 0000 0000 0000 0000 0000 0000
0.0 0.0 0.0 0.0 0.0 0.0 0.0 0.0
0.0 0.0 0.0 0.0 0.0 0.0 0.0 0.0
0.0 0.0 0.0 0.0 0.0 0.0 0.0 0.0
0.0 0.0 0.0 0.0 0.0 0.0 0.0 0.0
0.0 0.0 0.0 0.0 0.0 0.0 0.0 0.0
0.0 0.0 0.0 0.0 0.0 0.0 0.0 0.0
0.0 0.0 0.0 0.0 0.0 0.0 0.0 0.0
0.0 0.0 0.0 0.0 0.0 0.0 0.0 0.0
0.0 0.0 0.0 0.0 0.0 0.0 0.0 0.0
0.0 0.0 0.0 0.0 0.0 0.0 0.0 0.0
0.0 0.0 0.0 0.0 0.0 0.0 0.0 0.0
0.0 0.0 0.0 0.0 0.0 0.0 0.0 0.0
0.0 0.0 0.0 0.0 0.0 0.0 0.0 0.0
0.0 0.0 0.0 0.0 0.0 0.0 0.0 0.0
0.0 0.0 0.0 0.0 0.0 0.0 0.0 0.0
0.0 0.0 0.0 0.0 0.0 0.0 0.0 0.0

network_body._body_endoder.seq_layers.2.weight f4 [128, 128]
00000000: 29e7 9c3b 67ba fa3b 9bc8 fdbd ab71 983c
00000010: a7d4 d5ba a2fa 183e d6d5 27be 447a 8e3d
00000020: 458c c53d aa1d b5bd d0a8 bb3b 488c d33c
00000030: a414 793d bb80 acbd a656 813d 3b92 463d
00000040: ef18 2e3c bd3e 9abd 092c f93d eb6f be3c
00000050: bdd3 5d3c 41ab fd3c aaab 323c 5707 42bd
00000060: fe99 453d 6aee d3bd 8e6b 91bd f8bf b3bd
00000070: b1c3 153d 8485 4cbc b1c7 a2bd 43ea bbba
00000080: 59a6 e23d 3440 4dbd 1751 6dbc d746 3a3c
00000090: 0f5d 7c3d 911c 973c e774 fdbd c2d5 f53c
000000a0: 0db1 dbbd eafc 84bd 55b9 0dbe a936 59bd
000000b0: 16cc e4bd 9e7e 153e 247b c43c 2281 413d
000000c0: 0f4d b83b e1d3 d0bd 1b2e f4bd 2bc0 4d3d
000000d0: e48d e33c 2ccd 2b3c ec45 99bd 6849 873d
000000e0: 5006 d8bd b3e8 4cbd d706 9b3c ead3 8abe
000000f0: 256c 523d 4905 ab3c 4228 a33c d044 1abe
00000100: 71cf 4d3e 928c a7bc 1f47 873b 582d 2bbe
00000110: 42bd 7c3d 56db 23be 9b96 e9bd fbfb 7e3c
00000120: 954c 0cbd c900 debc c86d 67bd 921d 46bd
00000130: af03 4ebd 44c2 47bd d5c1 f4bc 2c39 4d3e
00000140: e4f3 923d f04d 68bc d9da 26be c6d6 3c3e
00000150: 0a9e b23c 9527 02bd 8d7d 33be 30de 403c
00000160: dcec d1bc 89d9 703c 4ddb fe3d e588 ae3d
00000170: 06b2 ac3d 7a02 3e3c c57c d8bd 89e2 4dbe
00000180: 932e 60bd a151 843d 1bd9 a43d abd6 e43d
00000190: 23c5 a03c f8d3 c5bc ff32 56bd d6d8 bd36
000001a0: 640e 343c 2cfe a8bd e615 1ebd 68b9 643e
000001b0: 4f34 0ebe 1ea1 80bc 94c2 b33d 74eb 9b3c
000001c0: dccb 463d 8b57 4fbd 8716 883b ae59 b93d
000001d0: bf61 31bd 4134 2c3e a925 353d 45b0 92bd
000001e0: 9ea2 293e 8306 7fbc 0404 f0bc 5fed 013e
000001f0: abf3 a23c 926b 9fbd 1fe6 263c 9c4a 84bd
00000200: f7cc e6bc fe76 893c 90ba 283d f0be 853a
00000210: 2ff7 34bd eac1 2ebd 9073 f4bd 92ff c83d
00000220: 53b4 043d e5e6 86bb 713b 9fbd c0a2 633d
00000230: 6bf0 b63d 3f15 2e3b f2eb a6bc f225 a43c
00000240: eb46 1fbe 496f 09bd d165 a23d 80be 80bd
00000250: 77ff fb3d e9dc 37bc de53 e83d cc3a e63b
00000260: d196 23bd 3d78 00be a5ba 963d a626 4f3c
00000270: 547e 473d 52e6 2b3e f3ac f2bc 2957 3fbd
00000280: d67e 9abd dcb9 9abb e719 26bb a3f6 5a3d
00000290: 913d 8f3d 4e31 943d c1ed 32bd 707a 3e3d
000002a0: 78cc f2bc 720d 1cbd e3e4 95bd 7f45 8d3d
000002b0: 48af 90bc 0f26 f73c bcae 8dbd 47eb eb3c
000002c0: b88a 6a3d 6e65 ef3d eb30 7abd dee3 793d
000002d0: 019d 9abc 0056 d53c 16f2 fcbb 351f 3cbe
000002e0: bc3c 873d aacf 893c 4655 0fbe 8dbb 58be
000002f0: 59da 96bc 80d7 3fbc 2038 ab3d 4627 3e3d
00000300: 9c65 bd3d 3f09 c9bc 0dc6 333d fee0 623d
00000310: d8d4 7ebd 144e 33bd ad6c 3b3e a26d 02bd
00000320: 6521 273d 9078 adbc 6444 d93d aa0d 2fbe
00000330: 3f37 d1bd 24ac ca3d 79d5 c03d fbbb b9bd
00000340: 436f 8f3d 3dd1 a0bc 9334 153e 354c 2dbd
00000350: 55b7 8f3c 507f 203d 5680 2c3d ed51 0d3d
00000360: 056f 103d 3ffc a1bd 34ad 173d f7ac 163e
00000370: 208c e23d c484 94bd af5b 15be 3d1f cd3d
00000380: d906 6f3d e8f6 c8bd 1974 f9bc a25b 763d
00000390: c0fe eebc cff2 00be b1f0 c7bd 0579 eb3c
000003a0: 4031 b9bc 9da3 293d b8ba 353d 23e2 16bc
000003b0: 1207 c23d bd46 4fbc 217a b53c c404 ad3a
000003c0: a54a 1d3d e2e1 01be 74d9 9a3b 292d d93b
000003d0: edb4 3b3d 41ea d93c 1fa5 83bd d005 9d39
000003e0: 4852 9bbd dd12 fb3c 9bce 29be 71c2 9ebd
000003f0: 7e01 ba3c a7a5 f63d 7eb7 82bc ac1b 94bd
0.0047882986 0.0076516154 -0.12391778 0.018608889 -0.0016313986 0.14939359 -0.16390166 0.06956914
0.09645895 -0.088435486 0.005726911 0.025823727 0.0608107 -0.08422991 0.06315355 0.0484793
0.010626062 -0.07531498 0.12166602 0.023246726 0.013539252 0.03096545 0.010905186 -0.04737028
0.04824256 -0.10348208 -0.071005926 -0.087768495 0.03656358 -0.0124830045 -0.07948244 -0.0014336783
0.110668845 -0.050110057 -0.014484665 0.011369429 0.061612185 0.018446239 -0.12375813 0.030009154
-0.10727129 -0.06493552 -0.1384023 -0.053030644 -0.11171739 0.14599082 0.0239845 0.04724229
0.0056244205 -0.10196663 -0.119228564 0.050232094 0.02777762 0.0104859285 -0.0748404 0.06605798
-0.10548079 -0.050026607 0.01892416 -0.27114803 0.051372666 0.020876544 0.019916657 -0.15065312
0.20098664 -0.020452771 0.0041283513 -0.16716516 0.061703928 -0.16001639 -0.11405679 0.0155630065
-0.03425272 -0.027099984 -0.05650118 -0.048368044 -0.05029648 -0.04876925 -0.029877583 0.2004134
0.07175425 -0.014178738 -0.16294421 0.18441305 0.021803875 -0.03177603 -0.17528363 0.011771724
-0.025625639 0.014700302 0.12444172 0.08522204 0.08432393 0.01159727 -0.10570673 -0.20105948
-0.054731917 0.06460882 0.08049222 0.11173757 0.019625252 -0.024148926 -0.052294727 5.657882e-06
0.010989759 -0.082516044 -0.038595103 0.22336352 -0.13887142 -0.015701827 0.08777347 0.019033171
0.04853426 -0.050620597 0.004153076 0.09050308 -0.04330611 0.16816808 0.04422537 -0.07162527
0.1656594 -0.015565517 -0.02929879 0.12688206 0.01989158 -0.07784189 0.010186701 -0.06459543
-0.028173907 0.016780373 0.041193545 0.0010203999 -0.044181045 -0.0426654 -0.11936104 0.09814371
0.032398533 -0.0041168802 -0.077750094 0.055575132 0.08932575 0.0026562957 -0.02037618 0.020037625
-0.15554397 -0.033553395 0.07929576 -0.06286335 0.123045854 -0.011222103 0.113441214 0.007026052
-0.03993875 -0.12545867 0.07359818 0.012643492 0.04870446 0.16787079 -0.029623484 -0.04671398
-0.07543723 -0.004721863 -0.002534503 0.053457867 0.06994165 0.072359666 -0.04368377 0.046503484
-0.029638514 -0.03809876 -0.07319047 0.06898021 -0.017661706 0.030169515 -0.069180936 0.028798712
0.0572612 0.11689268 -0.061081808 0.061008327 -0.018873693 0.026041985 -0.0077192886 -0.1837128
0.06603381 0.016822655 -0.13997373 -0.21165295 -0.018414663 -0.011709094 0.08360314 0.046424173
0.09247896 -0.024540542 0.043890048 0.05539035 -0.062214702 -0.043775633 0.18303175 -0.031842835
0.040803332 -0.021175653 0.106087476 -0.17095056 -0.102156155 0.098961145 0.09415717 -0.090690576
0.07003643 -0.019631023 0.14570837 -0.042309005 0.017543474 0.039183915 0.04211458 0.03450196
0.035262126 -0.0790944 0.037030414 0.14714418 0.11061883 -0.072518855 -0.14585756 0.10015724
0.05835614 -0.09812719 -0.030450867 0.06014598 -0.029174209 -0.12592624 -0.09762705 0.02874423
-0.022606492 0.0414158 0.044367522 -0.009209189 0.09474005 -0.012651143 0.022152962 0.0013200273
0.038401265 -0.12683824 0.0047256295 0.006627698 0.04582684 0.026600959 -0.06427979 0.00029949704
-0.07584053 0.030648643 -0.1658272 -0.077519305 0.02270579 0.120433144 -0.015956637 -0.072318405

network_body._body_endoder.seq_layers.2.bias f4 [128]
00000000: 0000 0000 0000 0000 0000 0000 0000 0000
00000010: 0000 0000 0000 0000 0000 0000 0000 0000
00000020: 0000 0000 0000 0000 0000 0000 0000 0000
00000030: 0000 0000 0000 0000 0000 0000 0000 0000
00000040: 0000 0000 0000 0000 0000 0000 0000 0000
00000050: 0000 0000 0000 0000 0000 0000 0000 0000
00000060: 0000 0000 0000 0000 0000 0000 0000 0000
00000070: 0000 0000 0000 0000 0000 0000 0000 0000
00000080: 0000 0000 0000 0000 0000 0000 0000 0000
00000090: 0000 0000 0000 0000 0000 0000 0000 0000
000000a0: 0000 0000 0000 0000 0000 0000 0000 0000
000000b0: 0000 0000 0000 0000 0000 0000 0000 0000
000000c0: 0000 0000 0000 0000 0000 0000 0000 0000
000000d0: 0000 0000 0000 0000 0000 0000 0000 0000
000000e0: 0000 0000 0000 0000 0000 0000 0000 0000
000000f0: 0000 0000 0000 0000 0000 0000 0000 0000
00000100: 0000 0000 0000 0000 0000 0000 0000 0000
00000110: 0000 0000 0000 0000 0000 0000 0000 0000
00000120: 0000 0000 0000 0000 0000 0000 0000 0000
00000130: 0000 0000 0000 0000 0000 0000 0000 0000
00000140: 0000 0000 0000 0000 0000 0000 0000 0000
00000150: 0000 0000 0000 0000 0000 0000 0000 0000
00000160: 0000 0000 0000 0000 0000 0000 0000 0000
00000170: 0000 0000 0000 0000 0000 0000 0000 0000
00000180: 0000 0000 0000 0000 0000 0000 0000 0000
00000190: 0000 0000 0000 0000 0000 0000 0000 0000
000001a0: 0000 0000 0000 0000 0000 0000 0000 0000
000001b0: 0000 0000 0000 0000 0000 0000 0000 0000
000001c0: 0000 0000 0000 0000 0000 0000 0000 0000
000001d0: 0000 0000 0000 0000 0000 0000 0000 0000
000001e0: 0000 0000 0000 0000 0000 0000 0000 0000
000001f0: 0000 0000 0000 0000 0000 0000 0000 0000
0.0 0.0 0.0 0.0 0.0 0.0 0.0 0.0
0.0 0.0 0.0 0.0 0.0 0.0 0.0 0.0
0.0 0.0 0.0 0.0 0.0 0.0 0.0 0.0
0.0 0.0 0.0 0.0 0.0 0.0 0.0 0.0
0.0 0.0 0.0 0.0 0.0 0.0 0.0 0.0
0.0 0.0 0.0 0.0 0.0 0.0 0.0 0.0
0.0 0.0 0.0 0.0 0.0 0.0 0.0 0.0
0.0 0.0 0.0 0.0 0.0 0.0 0.0 0.0
0.0 0.0 0.0 0.0 0.0 0.0 0.0 0.0
0.0 0.0 0.0 0.0 0.0 0.0 0.0 0.0
0.0 0.0 0.0 0.0 0.0 0.0 0.0 0.0
0.0 0.0 0.0 0.0 0.0 0.0 0.0 0.0
0.0 0.0 0.0 0.0 0.0 0.0 0.0 0.0
0.0 0.0 0.0 0.0 0.0 0.0 0.0 0.0
0.0 0.0 0.0 0.0 0.0 0.0 0.0 0.0
0.0 0.0 0.0 0.0 0.0 0.0 0.0 0.0

action_model._continuous_distribution.mu.weight f4 [1, 128]
00000000: 909d eaba fbde 96bc 80bf 173d ff84 b0bc
00000010: 3f80 243c 40ed a3bb 12bb b03b 8b7c 0c3d
00000020: b878 aebc db4f 0e3b 5128 8d3b c22d 01bc
00000030: 2b04 67bb 2da2 60bc 8b68 3fbc 4570 7e3c
00000040: ca89 d9bc 1511 af3c 9dfc 4abc bff9 043d
00000050: 78ed d3bb 99c2 a73c 94bc acbc cb0c 433c
00000060: 2218 93bb 8594 8bbb fd53 5b3c 9860 08bc
00000070: 40e4 fdbb 6252 a63c 5fdf 353c 78da eaba
00000080: 97c0 eebc a05e 5ebc 9d89 e9b9 d5d8 973c
00000090: e543 d6bc 53cd dd3b b0df ddbc bc48 043b
000000a0: 7982 46bc 7ff8 503c b317 a53c 7097 76bc
000000b0: 8b8c 0e3a 5c91 b53c 4ba0 3bbc fe64 a53c
000000c0: f2b7 f33b 53e6 debc 4217 013d 3a15 96bb
000000d0: 3be3 bcba b027 053d 0701 523c 302e 4e3c
000000e0: a9e1 243d 0525 c13c 1cd4 193b d2e7 013d
000000f0: b219 fd3b 451a b0bc 4e36 3e3b 81e0 2c3c
00000100: eff6 203d c7ee cfbc 77ab eb3c 5da4 523c
00000110: a827 e0bc 6d83 e63c 873d 8e3b 5b1f c63b
00000120: 3267 983b bc9c 05bb ca81 16bc 97a3 98bc
00000130: 5889 e23c 04b8 36bc f357 67bb b556 8fbc
00000140: ec06 1c3a a39c 4dbc 24c8 2cb9 b576 86bb
00000150: eb9d e03c 8df5 513b 6f9b eb3b c8d3 213c
00000160: 51c6 0b3d 237a debb c239 d8bc e867 e83b
00000170: e3d3 69bc 9731 c2bc fdd1 f03b e0b3 bb3c
00000180: 9285 483c d42c 103b 1865 0a3d 8640 0f3b
00000190: 5963 9a3b 8bf9 7f3c 8d28 55bc cf15 0e3d
000001a0: ed44 dd3b 036e 1ebb a31e ccbc 56c7 04bd
000001b0: 143f 1ebc af49 37bc 18fc e53a 77ba 6f3b
000001c0: 43b0 533b 4f0c 6abc c87b d3bc 5368 8fba
000001d0: 7cb9 133c ca2c 89bc b2ab 78bc 8b2c 44bc
000001e0: 07c3 b9bc 576f 963c 72f3 c3bc afc9 fabb
000001f0: bdf9 babc 3deb 233c 6b35 ef3c 1ea2 80bc
-0.001789974 -0.018416872 0.037047863 -0.021547792 0.010040342 -0.0050026476 0.0053933943 0.03429846
-0.021297798 0.0021715078 0.0043077846 -0.007884445 -0.0035250287 -0.013710541 -0.01168264 0.015529697
-0.02655496 0.02137045 -0.012389329 0.03246474 -0.0064675175 0.020478534 -0.021086015 0.011904906
-0.004488961 -0.0042596483 0.013386724 -0.008323811 -0.007748157 0.020302955 0.011100619 -0.0017917892
-0.029144568 -0.013572365 -0.00044543753 0.01853601 -0.026155422 0.0067688613 -0.027084202 0.0020184955
-0.012116068 0.012754559 0.020152902 -0.015050754 0.00054378127 0.02216404 -0.011451791 0.020189758
0.0074376995 -0.027209437 0.03151632 -0.004580167 -0.0014410982 0.032508552 0.012817628 0.012584254
0.04025427 0.023577223 0.0023472374 0.03171522 0.0077240104 -0.021496901 0.0029024067 0.010551573
0.039297994 -0.025382413 0.028768284 0.01285657 -0.02736266 0.02813884 0.0043408307 0.0060462183
0.0046509737 -0.002038761 -0.009186218 -0.018632693 0.027653381 -0.011152271 -0.0035300225 -0.0174974
0.0005951959 -0.012549552 -0.00016477756 -0.0041035064 0.027419051 0.0032037229 0.00719016 0.009877153
0.034124676 -0.006789462 -0.026394729 0.0070924647 -0.014271709 -0.023705287 0.0073492513 0.02291292
0.012238877 0.0021999376 0.033787817 0.0021858527 0.00471155 0.0156234605 -0.013010156 0.034688767
0.0067526014 -0.0024174459 -0.024916952 -0.032416664 -0.009658594 -0.011187001 0.0017546443 0.0036579648
0.0032301105 -0.014285161 -0.02581586 -0.0010941125 0.009016391 -0.01674499 -0.015177654 -0.0119735105
-0.022676004 0.018363638 -0.023919795 -0.007653437 -0.022824163 0.010004816 0.029200276 -0.015702303

action_model._discrete_distribution.branches.0.weight f4 [3, 128]
00000000: 2b59 dc3b f7ab 25bc 6dea 7abb 7322 61bb
00000010: 8be1 8c3b 1d90 a1bb dfbe e73b 920e 9bbb
00000020: ee45 9bbb ab8d 5e3b 1cce 2237 86f7 843b
00000030: d975 163c 4622 aabb a72d d0bb bb4d 07bb
00000040: d937 a23b ab28 b13a cfd2 143c 2f12 79ba
00000050: 6fbb 8cbb ce04 c0bb 0f23 98bb 389e b53b
00000060: 7ccd 113c ae05 09bc 36a3 b43c 432f d93a
00000070: 8843 c63b e152 45bc 07e3 83bb c720 febb
00000080: ad08 743b f0c8 693b 6b4d 3abc c54d 863b
00000090: 5f0e 083c eaf4 ffb8 7564 903a 926a 203b
000000a0: ff25 5a3c 6387 40bb 2386 b03b 6f3f 393c
000000b0: afab 013c 9873 54bb 2363 0f3b e9af 87bc
000000c0: f711 b3ba a2e5 88bc aff8 003c 1cd8 963b
000000d0: 7055 ddbb eecc 19bc d7d8 e2bb 7b24 f2ba
000000e0: d17d aabc 06e6 95bb b41e 11bc ffef 23bc
000000f0: 3a5b f23b 4fca 8dbc 5a52 89bb 3dc1 86bc
00000100: 5519 4f3c ff62 a83a c5e2 04bc c771 343c
00000110: d347 2c3c e1ce af3b 289b 10bc 8180 9ebc
00000120: 5138 873c b796 1dbc 126d 52bc 435a 05bc
00000130: 4ebc b8b9 8799 9abb 3beb ee3b ec25 abbc
00000140: 87f6 723c 2b70 343c b221 7e3b 5f1e 79bc
00000150: 8ba5 f93a e209 633c 1bef 7fbc 2f19 823a
00000160: f70d 9fbc 8b8b fc3b 41da bebb 3693 31bc
00000170: 87ab ce3a fd76 4abc 601f 8b3c 9fd3 68ba
00000180: 0659 c9bb cd9b ea38 4ae5 fcbb a398 cd3b
00000190: 03c4 54bb 649d 0ebb 0b9e 393b ff0e ed3b
000001a0: 721c 2dbb 786a 9839 9766 f1bb 800c 213c
000001b0: 23ec 313c ffdd 9ebc c711 3e3c 252b d9ba
000001c0: b2d5 783a c2eb 6ebc 8090 523c 6db2 88bc
000001d0: 7717 36bb b2ec cabb be75 bc3c 571a 1fbc
000001e0: 8f30 773b 13b0 38bb 15c3 17bc 9e4f 09bc
000001f0: 728c 363b 0d92 893b 9b7d 18bc 5f90 b6ba
00000200: c4b4 23bc 6689 48bb d3e7 a0bb 4418 b1bb
00000210: dce4 093c c188 3d3b 8e75 87bc baf6 58bb
00000220: fb58 2d3c 6348 d33a 1978 b43a 065b 0439
00000230: 6468 2e3b 0315 efbb b76c 083c 670c 573c
00000240: 7261 243c d048 773b 1bf6 0b3c 4528 5cbc
00000250: 1e67 2eba 286a a8bb e3ac 1abc 9201 b03b
00000260: 3bda 183c 1e85 41bc 4f1a 4eb9 1b93 33bb
00000270: 71ea c6ba 99b9 a43b 99d8 41bb 73eb 493b
00000280: f80b efbb abf7 5ebc a8f9 3cbb e82c 1b3b
00000290: 05a5 d23a 8f30 de3c f786 5e3c e3b1 17bb
000002a0: d6e2 c43b 7f35 39bc 50f2 4e3c a0f8 6fbb
000002b0: 34d8 1ebc a3dd 0fbb df1e 2abb 334c 34bc
000002c0: bea2 c4bc cb1e 3fbc 89b2 30ba a759 6c3c
000002d0: 0ea6 35bc c355 8b3c 2556 c43b 535b b2bb
000002e0: af7a 283c 9ad1 7b3b a0d3 e53b b8f0 a73b
000002f0: 428f a93b 3376 19bc ddce 783c 0c53 b33a
00000300: e72f 8d39 87b5 10bb ff58 d1bb b8be 56bc
00000310: 4555 ae3b 83e7 563c 7b91 873a f101 a3ba
00000320: cd69 f93b daf8 6aba fec1 48bc 7aee 963b
00000330: ab51 a6bc b251 ebba 71d7 0a3b 1df0 85ba
00000340: dbeb 95bb 6d23 63bb add5 0abb 45a0 3abb
00000350: 37a1 883a f784 0ab9 ad55 5239 c7d9 e1bb
00000360: bbc1 18bc 167d 323c 0b91 20bb c82e 6b3a
00000370: a1c9 423b 65c6 0e3a 1f9d c5bb 4adc f738
00000380: 125f a3bb da8a 14bb a383 39bc cf6c 00bc
00000390: 9b8c 3b3c 53fb 92bb cbc9 d63b ad50 32b9
000003a0: 5799 053c 1741 d33b 2326 7a3c 2a14 8d3b
000003b0: bd34 12bc 3ba5 bfbb 901d c9bb c5c0 f43b
000003c0: 03f5 18bc 02fa c4ba eabe e2bb b98c 97bc
000003d0: 0055 c939 4136 06b9 92f0 643c 0f33 02bb
000003e0: 17ca 3bbc 386e 7c3b 9ec6 ab3c 08bd c63b
000003f0: dcf8 c7b9 ba83 533a c405 1bbc 258a 343b
0.006724497 -0.0101118 -0.0038286701 -0.0034352809 0.0042993478 -0.0049305097 0.007072314 -0.0047319615
-0.004738561 0.0033958952 9.703941e-06 0.0040578274 0.0091833705 -0.005192074 -0.0063530984 -0.0020645696
0.004950505 0.0013516148 0.009083464 -0.0009501306 -0.0042948048 -0.0058599478 -0.004642851 0.005542543
0.008899089 -0.008363171 0.022050481 0.0016569871 0.006050531 -0.012043686 -0.0040248665 -0.007755372
0.0037236616 0.0035672747 -0.011370997 0.0040986263 0.008304208 -0.00012204966 0.0011016267 0.0024477583
0.013314723 -0.0029377572 0.005387084 0.011306628 0.007914468 -0.0032417532 0.0021879158 -0.016563373
-0.001366197 -0.01671106 0.007871791 0.004603399 -0.0067545697 -0.009387238 -0.006922822 -0.0018474007
-0.020811947 -0.00457454 -0.008857418 -0.01000595 0.007396129 -0.017308382 -0.0041907253 -0.016449565
0.012640317 0.0012846886 -0.008110707 0.011013455 0.010515171 0.005365238 -0.008826055 -0.019348385
0.016506346 -0.009618453 -0.012843387 -0.008139196 -0.00035235513 -0.004718009 0.0072912253 -0.020892106
0.0148292845 0.011013071 0.0038777408 -0.015204995 0.0019046528 0.013857337 -0.015620972 0.0009925718
-0.019415839 0.0077070645 -0.0058243577 -0.0108383205 0.0015767672 -0.012357471 0.016982734 -0.00088816317
-0.0061446456 0.0001118701 -0.007717763 0.006274299 -0.0032465465 -0.0021761293 0.002832296 0.0072344537
-0.002641466 0.00029071025 -0.007366966 0.00982964 0.010859522 -0.019392965 0.011600918 -0.0016568644
0.00094922923 -0.014582576 0.012851834 -0.016686643 -0.0027784982 -0.006192767 0.023005363 -0.00971087
0.0037718152 -0.002818112 -0.00926282 -0.008380799 0.0027854708 0.004198319 -0.00930729 -0.0013928524
-0.009991828 -0.0030599474 -0.004910448 -0.005404504 0.008416381 0.0028920623 -0.016535547 -0.0033106045
0.010580297 0.0016119595 0.0013768702 0.0001262241 0.0026612515 -0.007296206 0.008326701 0.013125516
0.010032998 0.0037732609 0.008542563 -0.013437335 -0.0006652939 -0.005139608 -0.0094406335 0.005371281
0.009329374 -0.011811523 -0.00019655492 -0.0027400914 -0.001517607 0.005027008 -0.0029578565 0.0030810505
-0.007295128 -0.013608853 -0.002883533 0.002367789 0.0016070908 0.027122764 0.013581983 -0.00231468
0.0060084863 -0.011304258 0.012631014 -0.0036616698 -0.0096951015 -0.0021952174 -0.0025958342 -0.011004495
-0.024003383 -0.011665056 -0.0006740471 0.014425672 -0.011086954 0.017008668 0.0059917145 -0.0054430156
0.010283156 0.0038424493 0.007013753 0.0051251315 0.0051745484 -0.00936656 0.015186039 0.0013681366
0.00026929306 -0.0022080855 -0.006388783 -0.013106994 0.0053202235 0.01311672 0.0010343039 -0.0012436492
0.0076114894 -0.00089634734 -0.012253283 0.0046060653 -0.020302614 -0.0017953424 0.0021185542 -0.0010218654
-0.0045752353 -0.0034658567 -0.002118449 -0.0028476876 0.0010424022 -0.00013210239 0.00020059077 -0.006892416
-0.009323533 0.010894081 -0.0024500515 0.00089715095 0.002972223 0.0005446433 -0.006030693 0.0001181891
-0.0049856985 -0.002266577 -0.011322889 -0.007838442 0.011447097 -0.0044855266 0.0065548173 -0.00017005457
0.008154235 0.0064469683 0.015267882 0.0043053823 -0.008923707 -0.0058485544 -0.0061375573 0.007469269
-0.009335759 -0.0015028121 -0.0069197314 -0.018499719 0.00038401037 -0.00012799447 0.013973372 -0.001986686
-0.011461756 0.0038517844 0.020968731 0.0060650147 -0.00038141652 0.000806864 -0.009461824 0.002754816

action_model._discrete_distribution.branches.0.bias f4 [3]
00000000: 0000 0000 0000 0000 0000 0000
0.0 0.0 0.0

action_model._discrete_distribution.branches.1.weight f4 [2, 128]
00000000: 9ff2 d3bc eb95 39bb af21 adbb 7f80 613c
00000010: 6b2f 89bc d0e9 e1b9 3dc2 debb f98e 893b
00000020: 9f54 c4bb 1fa9 9cba d61b 873b 5b96 1abc
00000030: 774e 86bb fc31 c33a 5b8f 28bb 07d8 98ba
00000040: c421 3abc 5350 013b ef47 f7ba 726c 1b3b
00000050: 5241 653c df6d dabc 1703 973c 925d e9bb
00000060: 341f b93c 33ef ca3b fbea 6e3c 47aa 3bbb
00000070: fca5 833c 0fc0 10bc 4811 333c 9f14 023c
00000080: 533c f4b9 ef17 36bc d723 29bc 6047 693b
00000090: 5372 3abc 8b91 41bc b204 83bb 0c61 34bb
000000a0: aaf1 bb3c 7089 6cbb 1361 7fba 4db9 37bc
000000b0: 6bb2 a73c 17cb a9bb bb43 72bb fc5b 80bc
000000c0: dba6 253b e32c 4e3b af91 123c 4583 1bbb
000000d0: 87d0 0ebc d0d0 a4ba f03d a43a 553e f23b
000000e0: 1e45 9dbc fbc3 513b b2cf d63b 29a1 143b
000000f0: a443 1ebc dcf1 36ba 099a 823b 0743 fbb9
00000100: fe86 c4bb 7f7e 32bc 5093 333c bb65 133c
00000110: 75d9 12bc a3a2 96bb d76c ac39 a5b5 22bc
00000120: e34a 773c d2b9 a1bb 98cd 753a b536 dabb
00000130: 8079 1ebb ff26 b63b 3970 2fbb 7b8c 96bc
00000140: c831 71bb f176 0fbb 690f 9cbb 0c8a 133c
00000150: 020e fc3b c31e 3339 68dd 53bb 13a9 4b3c
00000160: b733 343c 30b7 7fbc 71ed 0d3c db2b 9539
00000170: 611d 41bc f70d 7a3b 5b7f 44bb 9b80 98bb
00000180: f030 c13b b377 f9ba 6399 49bb 7176 88bb
00000190: a3d8 9b39 17cc 8dbb 2700 a7bb fbb7 81bb
000001a0: e53e 223c c18d 0e3c 5331 81bc 58b1 993b
000001b0: 5694 19bc 6a14 623c ab59 b2bb 4ff5 6fbc
000001c0: 2795 b63b 7210 0b3c 0d28 ee3b 6bd9 5b3c
000001d0: ec89 903c d274 adba 9b37 a33a 7911 3ebc
000001e0: 218c c8bb 47b9 203c 1313 4e3b 0338 983b
000001f0: cdf8 9abc a086 7bbc 458e a2bb 8748 41bc
00000200: 5cbf 8fbc 5f4c b73b d250 c43c 2399 47bb
00000210: 4da9 e0ba 4046 363c bcad ccbb 55b2 573b
00000220: 532f 243c ab93 85bb 2bb2 913a b6b9 823c
00000230: 152e 623c 25b9 f1bb 451f a1b9 e07e d13b
00000240: 5758 b8bb f7a7 18bc 9da4 43bc 7023 d6bb
00000250: 89d9 ad3b b581 603c 7b74 183b 88ca febb
00000260: 92c3 fabb af74 68bb 472b c7bc 08cc 77bb
00000270: 3864 bfbb d317 bdb9 ebf3 19bc d593 98bb
00000280: dd66 a5ba 9bbc 58bc 9683 343c 3214 4f3b
00000290: 4f79 a23b 45f8 89bc 6d9a 6d3c 0a0d 78ba
000002a0: c8c8 2cbc 3aa4 173b 9f6f 943b f7cb 89bc
000002b0: f6a0 86b8 6004 d9bb 22bc 0fbb 20cd 783b
000002c0: fa6a 2dbc 114d a43a f22b a8bb fae3 943b
000002d0: 979d 303c d146 b73c 9bc4 413c 457c d8bb
000002e0: aea7 a5bb 2a23 db3b 938d 34bc 8bc0 da3b
000002f0: 72d5 f03b a265 203c b030 2b3c 5e1e 49bb
00000300: 77da a23b 883d f23a 11e1 c6b9 1e58 373b
00000310: 436a c6b9 029f 563b 08cf 5639 0ff0 83bc
00000320: 1847 d53a fbfa ff3b 93ad 12ba 0d38 e53b
00000330: 9bd2 543c 828f 2abc c904 18bc c6ac b9bb
00000340: 77df 043b 3b38 0abb aa9d 7c3b d5b3 19bc
00000350: 32ab 413c cb2d 3aba 1b34 143a 82bc 853b
00000360: bfba 57b9 2b80 743c 3929 0e3b 8ba6 073c
00000370: df4d ab3b 032e e2b9 955a cabb b232 4d3a
00000380: df50 f1bb 0fc2 15bc d28a a03b c033 17bc
00000390: 9f72 ba3a 0fce f8bb 09d6 99bb 008e d23b
000003a0: a0fb 543b ea90 06bb 3f44 45bc 204d 2ebc
000003b0: 0107 45bb 1305 0bbc 8fbe 6fbb 5483 ae3c
000003c0: fa8d 14b9 6459 97bb 3f33 0fbb 221b 83bb
000003d0: 1bde cb3b f890 ab3a 4f03 933c 4cc4 29bb
000003e0: b0a4 7abb cf3e 5fbc 7592 9d3a 9b94 dcba
000003f0: d4bc 943c cec5 42bb 42c6 123c b4be a4bb
-0.025872527 -0.0028318118 -0.0052835564 0.013763546 -0.016746243 -0.00043089548 -0.0067980574 0.004197952
-0.005991533 -0.0011952257 0.0041231913 -0.009435262 -0.004098709 0.0014892216 -0.0025720212 -0.0011661061
-0.011360589 0.0019731715 -0.0018866042 0.0023715761 0.013992624 -0.026663719 0.01843409 -0.00712175
0.022597887 0.0061930656 0.014582391 -0.0028635429 0.016070358 -0.008834853 0.010929413 0.007939487
-0.00046584252 -0.011114105 -0.010323486 0.0035595521 -0.011379796 -0.011814485 -0.0039983625 -0.0027523665
0.022942383 -0.0036092661 -0.0009741943 -0.011213613 0.020470819 -0.005181681 -0.003696664 -0.015668862
0.0025276456 0.003145986 0.0089458665 -0.0023729366 -0.008716709 -0.0012574438 0.0012530666 0.0073926845
-0.019197997 0.0032007683 0.006555521 0.0022679067 -0.0096596815 -0.0006978789 0.0039856476 -0.0004792439
-0.0059975376 -0.010894417 0.010960415 0.008996422 -0.008962979 -0.0045970245 0.00032887488 -0.009931003
0.015093538 -0.0049354816 0.0009376644 -0.0066593536 -0.0024181306 0.005558848 -0.002676977 -0.018377533
-0.0036803354 -0.0021890963 -0.004762579 0.009005081 0.0076920995 0.0001708223 -0.0032328013 0.012430447
0.010998658 -0.01560764 0.0086625675 0.0002845217 -0.01178679 0.0038155296 -0.0029983136 -0.004654003
0.0058957264 -0.0019032866 -0.0030761592 -0.00416451 0.0002972531 -0.004327308 -0.0050964537 -0.0039586998
0.009902691 0.008700789 -0.01577059 0.0046903305 -0.009373745 0.013798812 -0.005442818 -0.0146458885
0.0055719796 0.008487808 0.007267958 0.013418536 0.017643891 -0.0013233668 0.0012452485 -0.0116008455
-0.0061202203 0.009809799 0.0031444475 0.004645349 -0.018917466 -0.015351921 -0.0049608075 -0.011797077
-0.017547302 0.005593821 0.02396432 -0.0030456267 -0.0017140299 0.011125147 -0.0062462967 0.003291269
0.010021049 -0.0040764413 0.001111572 0.015957695 0.013804932 -0.0073768073 -0.0003073161 0.0063932985
-0.0056257653 -0.00931739 -0.011941102 -0.006534986 0.005305473 0.0137028 0.0023262787 -0.0077756085
-0.0076527083 -0.003546994 -0.024312628 -0.003781082 -0.0058408044 -0.0003606664 -0.0093965335 -0.004656295
-0.0012619157 -0.013228561 0.011017701 0.003159773 0.004958309 -0.016842017 0.01450215 -0.0009462392
-0.010545917 0.0023138658 0.004529908 -0.01682089 -6.419599e-05 -0.006622836 -0.0021932204 0.003796406
-0.010584587 0.0012535175 -0.005132192 0.0045437785 0.01077976 0.022372635 0.01182666 -0.006606611
-0.0050553894 0.0066875415 -0.011020082 0.006675785 0.0073496634 0.009789856 0.01044862 -0.0030688266
0.0049698907 0.0018481473 -0.0003793319 0.0027976106 -0.00037844674 0.0032748585 0.00020485756 -0.01610568
0.0016271798 0.0078119016 -0.00055953226 0.006995207 0.012989665 -0.0104101915 -0.009278485 -0.005666348
0.0020274797 -0.0021090645 0.0038546124 -0.009381254 0.011820601 -0.00071021606 0.0005653516 0.00408131
-0.00020573566 0.014923136 0.002169205 0.008279453 0.005227789 -0.0004314036 -0.006175349 0.00078276836
-0.007364377 -0.009140505 0.004899361 -0.009228647 0.0014224834 -0.0075929235 -0.0046947044 0.006425619
0.0032498613 -0.0020533153 -0.012040197 -0.010638505 -0.003006399 -0.0084850965 -0.0036582088 0.021302857
-0.0001416727 -0.0046188105 -0.0021850613 -0.004001037 0.0062215454 0.0013089469 0.017945914 -0.0025904356
-0.0038245134 -0.013625815 0.0012021797 -0.0016828956 0.018156447 -0.0029719952 0.008958401 -0.0050276164

action_model._discrete_distribution.branches.1.bias f4 [2]
00000000: 0000 0000 0000 0000
0.0 0.0

network_body._body_endoder.seq_layers.0.weight f4 [128, 6]
00000000: de79 dcbd 510f 16be 64bc f13e 1e2d b43e
00000010: 8f24 123e df8b 32bd 8a4c 253f 8d15 37bd
00000020: d339 2b3f df40 b3be d3c6 493e fc9c 1f3f
00000030: ca23 38bf 6037 bdbe ee22 f5bc d41f 153f
00000040: d4e7 c8be 7cf8 08be fdb5 acbe 0d1d d63e
00000050: 8a80 5e3e e01b 9cbd b022 453e e17c 0d3f
00000060: 4d80 053f bea3 41be 8ead bbbd 6c69 1bbd
00000070: 8b88 25be 4b94 d1be a12d e13e 9616 f73e
00000080: 7ec3 083e 4e22 f93d b912 8a3d 378c f2bd
00000090: 0e73 0bbf 41b1 8c3d 0be9 f0be 54ef 103f
000000a0: 0b42 953e 338b e73e 589a 4cbf b810 593f
000000b0: 8a7d 04bf e092 15be 9122 3d3f 7fd1 763e
000000c0: f820 8d3e 4dde d73e 971d 01be 55de 7cbf
000000d0: 51c0 cb38 2252 fcbd 4348 9fbf fc09 943e
000000e0: d97c b23e 793b 2b3d 962a 143f 860e 2dbd
000000f0: 94e1 58bd 0a81 21bf 186a 473e c7b3 873f
00000100: dbd2 b63e 54bd 263d 0f15 80bf 33c4 203f
00000110: dad1 5e3f 69e9 21be b57c 593f 25eb 9f3d
00000120: a962 0bbf a62a 8f3a b217 2ebe 213a 59bf
00000130: 69a6 e03d 7bcf 0fbf a30f 21bf bc13 f43e
00000140: 00f4 313e 0089 343e bcb4 263f 8bf7 1e3f
00000150: 57af 013f bfcc aabe 46b2 ff3c 88a4 edbe
00000160: a2ca f63e 9bd4 b1bd 759a 973e bca2 f3be
00000170: 909b ed3e 1185 873e 948a 20bf b00e b83d
00000180: 9655 98be 23db 1c3e faee de3e 3824 d6bd
00000190: b190 9c3e 1ac7 b0be 7c16 c73e 29d5 47bf
000001a0: 710c 84bb f456 d63e e9ce 533e 6d70 d3bd
000001b0: 6be6 093f a210 403f d0e2 87be 9315 e838
000001c0: e3be 7bbe 1644 473d a782 37bf 2759 03bf
000001d0: 1f45 babd 4e1e f0be e8a8 9b3e 935e 58be
000001e0: 7634 23bf 74e8 23bf 2f15 8d3e 95fe 4a3e
000001f0: 1670 943e 4904 0bbf 1c3b ef3d 9713 dd3e
00000200: 5067 d0bd 9751 6c3d 08d9 d33d d72c babe
00000210: 9baf 0c3f 901e 623f 3f60 153f 8d93 193c
00000220: 4cbe a83e ba83 abbe 721c 2bbe 5c1f b6be
00000230: 003e 8abd 1e3d 15bf 8ea9 873e ee01 4b3d
00000240: 157b 1f3e 40d9 85bf 7c1a 11be d423 eeba
00000250: ec8a 8dbe 4b9f 1c3f 8fd9 5b3e cbd4 16bc
00000260: ae39 86bf 846d bdbd 98cf 0abe f1b8 65be
00000270: d09b d6bc 26c1 6cbf 0987 a13e f8ea 7e3e
00000280: 525f b7be 5f98 c93e 5971 efbd aa0c 74bf
00000290: c1cf 07bf bdbc 033f f2bc 3f3f 2cad c23e
000002a0: abc0 1a3d 1219 633e c718 58be 5a7f 983c
000002b0: e913 9cbe 4002 053e 299f a3bd faf2 30bd
000002c0: 9cc2 65be 12b5 4cbe d382 b13c 4b3b 17be
000002d0: 197d 5dbe 47c7 7abd 7581 d3bc 95c9 88be
000002e0: 90fe 073d 97ad 0dbf d69e d8be 04ee b1bc
000002f0: 06df 5bbf d64a 42be 10aa 33bf fb50 b6be
00000300: 7207 4d3f 21c6 c4be 419c 37be 2cb8 383f
00000310: 0a0b 903d 1e8c 283e f263 dabd 0d2f 79bd
00000320: cc62 413d bf72 2d3f bdfd d63d 2b53 f2be
00000330: 088b 033f 56a5 383e 00f0 af3e 47bf 2f3e
00000340: 47e6 29be 88c5 a53e 98b9 663e 2000 0e3c
00000350: 37b8 09bf e6af 7b3e d255 803e df0e 0c3e
00000360: e57e 87be 5eca 3ebe 2f40 31bf a080 3e3f
00000370: de38 8a3e edee 153e 06e6 d23d 3d27 d13e
00000380: 0b3f 41be 394c 9e3e 5deb 1a3f e995 82be
00000390: 8ea3 f23d 827c 3dbe fd54 00bf a9f1 f5bd
000003a0: 7725 97be 2376 d2be 7d3c 4a3b 3b78 3e3e
000003b0: 1cc6 003f 8fbd 53be 58b9 2a3e 4d10 893e
000003c0: 6eaf 103e f81c 0e3f 1541 843e c61f ebbe
000003d0: 0715 0dbe 26dc e83e 9971 163f 3ec8 a8bd
000003e0: 5f7e 1b3e 3794 433d 2f77 71be bd7f 3d3e
000003f0: a209 d8be 5023 a13e 8edc 6ebe 0ce4 83be
-0.10765432 -0.1465428 0.47214043 0.35190672 0.14271758 -0.043590423 0.64569914 -0.044698287
0.6688511 -0.3501043 0.19704752 0.62348914 -0.7192961 -0.3695631 -0.029923882 0.5825169
-0.3923937 -0.1337604 -0.33732596 0.4181904 0.21728721 -0.07622504 0.19251513 0.55268675
0.52148896 -0.18910119 -0.09163962 -0.037942335 -0.16165368 -0.4093345 0.43980125 0.4825942
0.13355824 0.12164746 0.06741852 -0.1184315 -0.54472435 0.06869746 -0.47052798 0.56615186
0.2915195 0.45223388 -0.7992301 0.84791136 -0.5175406 -0.1460681 0.7388087 0.24103354
0.27564216 0.4216179 -0.12608944 -0.9877675 9.715616e-05 -0.12320353 -1.2443928 0.28913867
0.34860876 0.041804764 0.5787748 -0.04225018 -0.052949503 -0.63087523 0.19474065 1.0601739
0.35707745 0.0407079 -1.0006427 0.62799376 0.8703896 -0.15811695 0.8495591 0.07808522
-0.5444742 0.0010922744 -0.17001227 -0.8485432 0.1096924 -0.56175965 -0.62914485 0.47671306
0.17378235 0.17630386 0.6511953 0.6209647 0.5065817 -0.33359334 0.031212937 -0.4641459
0.48201472 -0.086831294 0.2961003 -0.47585094 0.46407747 0.2646871 -0.62711453 0.089871764
-0.29752797 0.15317969 0.435417 -0.10456127 0.3057914 -0.34526902 0.38884342 -0.7805963
-0.0040298034 0.41863215 0.20684399 -0.10324178 0.53867215 0.7502538 -0.26540232 0.000110666406
-0.24584536 0.048648916 -0.71683735 -0.5130791 -0.09095215 -0.4689812 0.30402303 -0.21129827
-0.63751924 -0.6402657 0.27555224 0.19823678 0.28991765 -0.54303414 0.11681196 0.43179008
-0.10175955 0.057694998 0.1034413 -0.36362335 0.5495545 0.88327885 0.58349985 0.009373558
0.32957685 -0.33498937 -0.1671007 -0.355708 -0.06750107 -0.5829638 0.26496547 0.049562387
0.15574296 -1.0456924 -0.14170259 -0.0018168637 -0.2764505 0.6118056 0.21469711 -0.009206007
-1.0486352 -0.09249404 -0.13555753 -0.22433831 -0.026197344 -0.9248222 0.31548336 0.24894321
-0.3581491 0.39374062 -0.11691541 -0.95331824 -0.5305138 0.51459867 0.7489768 0.38022745
0.0377814 0.22177532 -0.21103202 0.018615413 -0.3048394 0.1298914 -0.07989342 -0.04320047
-0.22437519 -0.19990948 0.021668827 -0.14768712 -0.21629752 -0.061225202 -0.025818566 -0.26716295
0.033201754 -0.55343 -0.42308682 -0.02171994 -0.8588718 -0.1897386 -0.7018137 -0.35608658
0.80089486 -0.3843241 -0.179307 0.72156024 0.070333555 0.164597 -0.10663594 -0.060835887
0.04721336 0.67753214 0.104976155 -0.47329077 0.5138402 0.1803182 0.34362793 0.1716281
-0.1659175 0.32377267 0.22531736 0.008667022 -0.53796715 0.24578819 0.25065476 0.13677548
-0.26464 -0.18631884 -0.6923856 0.74415016 0.2699651 0.14641924 0.1029778 0.4085025
-0.18871705 0.30917528 0.60515386 -0.25504997 0.11847602 -0.18504527 -0.5012968 -0.12008984
-0.2952077 -0.41105756 0.0030858808 0.18600552 0.5030229 -0.2067778 0.16672266 0.2677025
0.14129421 0.5551295 0.25830904 -0.4592268 -0.13777553 0.4548046 0.58767086 -0.08241318
0.15184925 0.04774877 -0.23580621 0.1850576 -0.4219485 0.31472254 -0.23326322 -0.25759923

network_body._body_endoder.seq_layers.0.bias f4 [128]
00000000: 0000 0000 0000 0000 0000 0000 0000 0000
00000010: 0000 0000 0000 0000 0000 0000 0000 0000
00000020: 0000 0000 0000 0000 0000 0000 0000 0000
00000030: 0000 0000 0000 0000 0000 0000 0000 0000
00000040: 0000 0000 0000 0000 0000 0000 0000 0000
00000050: 0000 0000 0000 0000 0000 0000 0000 0000
00000060: 0000 0000 0000 0000 0000 0000 0000 0000
00000070: 0000 0000 0000 0000 0000 0000 0000 0000
00000080: 0000 0000 0000 0000 0000 0000 0000 0000
00000090: 0000 0000 0000 0000 0000 0000 0000 0000
000000a0: 0000 0000 0000 0000 0000 0000 0000 0000
000000b0: 0000 0000 0000 0000 0000 0000 0000 0000
000000c0: 0000 0000 0000 0000 0000 0000 0000 0000
000000d0: 0000 0000 0000 0000 0000 0000 0000 0000
000000e0: 0000 0000 0000 0000 0000 0000 0000 0000
000000f0: 0000 0000 0000 0000 0000 0000 0000 0000
00000100: 0000 0000 0000 0000 0000 0000 0000 0000
00000110: 0000 0000 0000 0000 0000 0000 0000 0000
00000120: 0000 0000 0000 0000 0000 0000 0000 0000
00000130: 0000 0000 0000 0000 0000 0000 0000 0000
00000140: 0000 0000 0000 0000 0000 0000 0000 0000
00000150: 0000 0000 0000 0000 0000 0000 0000 0000
00000160: 0000 0000 0000 0000 0000 0000 0000 0000
00000170: 0000 0000 0000 0000 0000 0000 0000 0000
00000180: 0000 0000 0000 0000 0000 0000 0000 0000
00000190: 0000 0000 0000 0000 0000 0000 0000 0000
000001a0: 0000 0000 0000 0000 0000 0000 0000 0000
000001b0: 0000 0000 0000 0000 0000 0000 0000 0000
000001c0: 0000 0000 0000 0000 0000 0000 0000 0000
000001d0: 0000 0000 0000 0000 0000 0000 0000 0000
000001e0: 0000 0000 0000 0000 0000 0000 0000 0000
000001f0: 0000 0000 0000 0000 0000 0000 0000 0000
0.0 0.0 0.0 0.0 0.0 0.0 0.0 0.0
0.0 0.0 0.0 0.0 0.0 0.0 0.0 0.0
0.0 0.0 0.0 0.0 0.0 0.0 0.0 0.0
0.0 0.0 0.0 0.0 0.0 0.0 0.0 0.0
0.0 0.0 0.0 0.0 0.0 0.0 0.0 0.0
0.0 0.0 0.0 0.0 0.0 0.0 0.0 0.0
0.0 0.0 0.0 0.0 0.0 0.0 0.0 0.0
0.0 0.0 0.0 0.0 0.0 0.0 0.0 0.0
0.0 0.0 0.0 0.0 0.0 0.0 0.0 0.0
0.0 0.0 0.0 0.0 0.0 0.0 0.0 0.0
0.0 0.0 0.0 0.0 0.0 0.0 0.0 0.0
0.0 0.0 0.0 0.0 0.0 0.0 0.0 0.0
0.0 0.0 0.0 0.0 0.0 0.0 0.0 0.0
0.0 0.0 0.0 0.0 0.0 0.0 0.0 0.0
0.0 0.0 0.0 0.0 0.0 0.0 0.0 0.0
0.0 0.0 0.0 0.0 0.0 0.0 0.0 0.0

network_body._body_endoder.seq_layers.2.weight f4 [128, 128]
00000000: 3e83 023e bde8 933d f26a 2d3e ae2b 0fbd
00000010: c9a9 acbc b922 eebc eb5a bbbd 1585 d83d
00000020: 31f0 ecbd 1ad0 9a3a 4cda 143e c5ad a6bd
00000030: 8887 87bd e591 093e 541c b03c ebd9 10be
00000040: b4a7 95bd de06 bcbc c7e6 3e3d ba9c edbc
00000050: dcd0 163e b8b9 c93d c142 46bd 50b3 cfbd
00000060: ee6b ccbc 3315 20bd d1f0 1ebd b039 003d
00000070: 5dd2 a63d 14e6 4a3d 0fcb 563b ffcb 8fbd
00000080: 11d1 dbbc 1554 d03c 9862 3dbe d0d8 1fbe
00000090: 50cd 32ba 52bf f03d 32dd 0abc f6df eb3d
000000a0: e326 5ebd d9fe 8d3d 2492 0bbd d322 58bd
000000b0: 2447 c4bd 6c8d 003e 2574 4ebd ce51 4ebd
000000c0: d7fb 143e 25d2 02bd f134 d8ba f0b9 8fbd
000000d0: cfe7 17be 3435 993c 6434 0bbe 52f6 af3a
000000e0: 607d a2bc 4416 dbbd 6215 b3bd 2896 4dbd
000000f0: 86e9 e33d 0a44 2e3e 3f5a 8c3d 895c d33d
00000100: 4379 a6bd 4318 4a3d 7a8a 94bd 0477 03bc
00000110: c794 14bd 948e c13d 9a0a c9bb a10f 373e
00000120: 370f 05bd 8383 033e cefa be3d 1126 21bd
00000130: 72e7 3bbd db39 0b3d b320 6abd 7d79 2cbd
00000140: bcaa 50bd 18a4 3a3d 122e c8bb f878 153e
00000150: 2abd 6bbd ed76 193e b8d3 d1bd af1d 743e
00000160: daf2 0f3c f71b 35bb 56b0 d6bd d762 e23c
00000170: 7549 b3bc bf72 2dbd b8a9 63bd 1f42 523e
00000180: 8721 15be 234c a2bd 6c7b abbd 2ea2 df3c
00000190: 71e8 13be 5b44 9e3c 370c 0b3b 63b7 86bd
000001a0: be30 1fbe 87bd c7bc bcf1 873b 5b13 b83c
000001b0: 4977 9bbd 2dc5 5b3d 578b 7dba 2e07 433d
000001c0: 764b a6bc 0d65 5c3d c1f0 353e d97b 87bd
000001d0: 92d5 113e 5c37 f23d 6ff6 38be 4fe1 e4bd
000001e0: 724c 9f3c 83ee 0e3d 435e 86bc dd0d a7bd
000001f0: 634d 01bd 345d 2abe 553e e3bd 37e7 adbd
00000200: 006b 7cbd 1113 803c 1e7c 5b3c 72d4 993d
00000210: 1efc 3bbe cd6c 29bd 64ad b43c ee30 9dbc
00000220: 90ae e93b a7a3 2e3e a537 99bc 3d1a f1bd
00000230: 9939 d33d ac10 e1bc dcde d8bc 4a44 80bc
00000240: 18d9 773d 5beb 123e 2f4a 37be 3b5b 04bd
00000250: bbb4 ccbc d214 06be 2b4b ba3a 36a7 3d3c
00000260: d212 1cbe 85be 59bc 0777 c03c 6aed 57bd
00000270: 3830 873d ca00 0e3b 91f6 9a3d eed3 4d3e
00000280: 288f 1ebc 591f f93d 7c34 a43d 9f35 3dbe
00000290: 1c39 c73c 48dc a23d 0577 f6bc ee9e 27bd
000002a0: f75a fa3d 55c1 ddbd 9da3 603d 417f b0bd
000002b0: 3106 233d 9e26 70bd 5af4 923d 473d 07be
000002c0: 54f2 53bd d433 76bd 8113 fbbc 61da de3d
000002d0: 01f0 75bd df74 243d f1a5 81bc 4f9d 1d3e
000002e0: 2e66 eb3b 982b c0bd faff 2e3c f5e0 073c
000002f0: 3cf4 2c3d b453 39be cae6 3d3d 83ce 03bc
00000300: 6c33 a73d 626f 883c 108f 5e3e 8d2f 8d3d
00000310: b62c e8bc 77e7 abbd c01d 403e 3c0e 93bd
00000320: 9cdd 3dbd 0af9 b93c 7fd1 d73c 827c ba3d
00000330: d987 513d f74e d1bd 6cf7 14be a5a1 7d3d
00000340: 8dd0 893d e78a bcbd 40cb bfbd e909 f1bc
00000350: 744d 543d a7a5 053d 6fe2 04bd 202a 5bbc
00000360: 5565 60bd 99a9 9ebd 990a a7bd 3874 623e
00000370: 03bd 97bd 9985 25be b30d debd ad5d 4abd
00000380: d4d6 cd3d 2d8f efbd 0864 a0bb d0a1 8fbd
00000390: 5936 bc3d 3430 7b3c ef0e a6bd 86a2 b63b
000003a0: 6586 293e 4168 bdbb 2c01 32bc 3230 3bbd
000003b0: a009 4f3e 8758 d4bc d078 bf3c 4cdf 1d3d
000003c0: 4aaa 1c3e d9d5 c1bc 1ac1 d3bd af9e af3a
000003d0: e0e2 1abb a9fe 21be 2627 2cbd 001f 9f3d
000003e0: 2f18 8d3e 4947 1b3d d8cd 67be 3bf0 adbd
000003f0: f4bc 0bbd 06a9 21bb b84c 293e ac3b 24bd
0.12745377 0.07222126 0.16935328 -0.034953766 -0.021077054 -0.029069291 -0.091482006 0.105722584
-0.115692504 0.0011811287 0.14536399 -0.08138613 -0.066176474 0.1343456 0.021497883 -0.14145629
-0.073073775 -0.022952493 0.046606805 -0.029005397 0.14728111 0.09849876 -0.048403505 -0.10141623
-0.024953809 -0.039082717 -0.03880388 0.031305015 0.08145592 0.049535826 0.003277484 -0.07021331
-0.026833089 0.025430718 -0.18494642 -0.15610051 -0.0006820755 0.117552415 -0.008475589 0.115173265
-0.054236304 0.06933374 -0.034074917 -0.052767586 -0.095838815 0.12553948 -0.050403733 -0.050370984
0.14549194 -0.03193869 -0.001649527 -0.07017887 -0.14834522 0.018702127 -0.13594204 0.001342485
-0.019835174 -0.10697606 -0.08744313 -0.05019203 0.111285254 0.17018142 0.068531506 0.10320384
-0.081285976 0.049339544 -0.07252975 -0.008023981 -0.036274698 0.09451023 -0.006135297 0.17877056
-0.032485213 0.12843136 0.09325181 -0.039342944 -0.04587502 0.033990722 -0.05716009 -0.042108048
-0.050944075 0.04556665 -0.0061090076 0.14596927 -0.057553448 0.14986773 -0.1024546 0.23839448
0.008785928 -0.0027635077 -0.10482852 0.027635021 -0.021885613 -0.04234576 -0.05558178 0.20533036
-0.14563571 -0.07924678 -0.0837315 0.027299013 -0.14444138 0.019319704 0.0021216997 -0.06577947
-0.15545937 -0.024382366 0.00414869 0.022470167 -0.07591111 0.05365484 -0.00096719473 0.04761427
-0.020299654 0.053807307 0.17767622 -0.06615419 0.14241627 0.11826965 -0.18062757 -0.11175787
0.019445632 0.03489543 -0.01640237 -0.08156941 -0.031567942 -0.16637117 -0.11095873 -0.08491366
-0.06162548 0.015634092 0.013396291 0.07511224 -0.18357894 -0.041363526 0.022055335 -0.01918837
0.007131405 0.17054616 -0.018703291 -0.11772583 0.1031372 -0.02747377 -0.026473455 -0.015657563
0.06050977 0.14347593 -0.17899393 -0.032313567 -0.024988523 -0.1309388 0.0014213076 0.011575511
-0.15241554 -0.013290052 0.023494257 -0.05271665 0.06600994 0.002166795 0.0756656 0.20100376
-0.009677686 0.12164182 0.08017823 -0.18477486 0.024319224 0.079521716 -0.03008605 -0.04092305
0.122243814 -0.10827891 0.054843534 -0.08618022 0.039800826 -0.05863058 0.071755126 -0.13206969
-0.051744774 -0.06010802 -0.030648949 0.10881496 -0.06004334 0.04015052 -0.015826197 0.1539204
0.0071838116 -0.09383315 0.010681147 0.00829338 0.042225108 -0.18098336 0.046362676 -0.008044842
0.08164105 0.016654674 0.21734262 0.06893835 -0.028341632 -0.08393758 0.18761349 -0.07180449
-0.04635392 0.022701759 0.026345013 0.09105779 0.051154945 -0.102201395 -0.14547509 0.061921734
0.06729231 -0.09206181 -0.09364939 -0.02942367 0.051831678 0.03262868 -0.032442506 -0.013376743
-0.054784138 -0.07747192 -0.08156318 0.22114646 -0.07409098 -0.16164245 -0.10842457 -0.049405742
0.10050741 -0.116972305 -0.004894737 -0.07013285 0.091900535 0.015331317 -0.08108317 0.0055735735
0.16555174 -0.0057802503 -0.010864537 -0.04570026 0.20218515 -0.02592112 0.023373038 0.03854303
0.15299335 -0.02366154 -0.103395656 0.0013398732 -0.0023633763 -0.15819801 -0.042029522 0.07769585
0.27557513 0.03790978 -0.22637117 -0.08493086 -0.034115747 -0.0024667396 0.16533172 -0.04009597

network_body._body_endoder.seq_layers.2.bias f4 [128]
00000000: 0000 0000 0000 0000 0000 0000 0000 0000
00000010: 0000 0000 0000 0000 0000 0000 0000 0000
00000020: 0000 0000 0000 0000 0000 0000 0000 0000
00000030: 0000 0000 0000 0000 0000 0000 0000 0000
00000040: 0000 0000 0000 0000 0000 0000 0000 0000
00000050: 0000 0000 0000 0000 0000 0000 0000 0000
00000060: 0000 0000 0000 0000 0000 0000 0000 0000
00000070: 0000 0000 0000 0000 0000 0000 0000 0000
00000080: 0000 0000 0000 0000 0000 0000 0000 0000
00000090: 0000 0000 0000 0000 0000 0000 0000 0000
000000a0: 0000 0000 0000 0000 0000 0000 0000 0000
000000b0: 0000 0000 0000 0000 0000 0000 0000 0000
000000c0: 0000 0000 0000 0000 0000 0000 0000 0000
000000d0: 0000 0000 0000 0000 0000 0000 0000 0000
000000e0: 0000 0000 0000 0000 0000 0000 0000 0000
000000f0: 0000 0000 0000 0000 0000 0000 0000 0000
00000100: 0000 0000 0000 0000 0000 0000 0000 0000
00000110: 0000 0000 0000 0000 0000 0000 0000 0000
00000120: 0000 0000 0000 0000 0000 0000 0000 0000
00000130: 0000 0000 0000 0000 0000 0000 0000 0000
00000140: 0000 0000 0000 0000 0000 0000 0000 0000
00000150: 0000 0000 0000 0000 0000 0000 0000 0000
00000160: 0000 0000 0000 0000 0000 0000 0000 0000
00000170: 0000 0000 0000 0000 0000 0000 0000 0000
00000180: 0000 0000 0000 0000 0000 0000 0000 0000
00000190: 0000 0000 0000 0000 0000 0000 0000 0000
000001a0: 0000 0000 0000 0000 0000 0000 0000 0000
000001b0: 0000 0000 0000 0000 0000 0000 0000 0000
000001c0: 0000 0000 0000 0000 0000 0000 0000 0000
000001d0: 0000 0000 0000 0000 0000 0000 0000 0000
000001e0: 0000 0000 0000 0000 0000 0000 0000 0000
000001f0: 0000 0000 0000 0000 0000 0000 0000 0000
0.0 0.0 0.0 0.0 0.0 0.0 0.0 0.0
0.0 0.0 0.0 0.0 0.0 0.0 0.0 0.0
0.0 0.0 0.0 0.0 0.0 0.0 0.0 0.0
0.0 0.0 0.0 0.0 0.0 0.0 0.0 0.0
0.0 0.0 0.0 0.0 0.0 0.0 0.0 0.0
0.0 0.0 0.0 0.0 0.0 0.0 0.0 0.0
0.0 0.0 0.0 0.0 0.0 0.0 0.0 0.0
0.0 0.0 0.0 0.0 0.0 0.0 0.0 0.0
0.0 0.0 0.0 0.0 0.0 0.0 0.0 0.0
0.0 0.0 0.0 0.0 0.0 0.0 0.0 0.0
0.0 0.0 0.0 0.0 0.0 0.0 0.0 0.0
0.0 0.0 0.0 0.0 0.0 0.0 0.0 0.0
0.0 0.0 0.0 0.0 0.0 0.0 0.0 0.0
0.0 0.0 0.0 0.0 0.0 0.0 0.0 0.0
0.0 0.0 0.0 0.0 0.0 0.0 0.0 0.0
0.0 0.0 0.0 0.0 0.0 0.0 0.0 0.0
