results/ppo/Player Behaviour/Player Behaviour-256.onnx (onnx, 76819 bytes, 10 tensors)

discrete_action_output_shape f4 [1, 2]
000000 00 00 40 40 00 00 00 40
       3.0 2.0

network_body._body_endoder.seq_layers.0.weight f4 [128, 6]
000000 5e 58 e1 be 3c 19 d7 be 81 f6 9c 3d 1b fb db 3d
       -0.4401273 -0.4201144 0.076642044 0.10741254
000010 8c 2c 17 3e 71 d9 89 3e 89 35 69 3e fa ee 26 3e
       0.14763087 0.26923707 0.22774328 0.163021
000020 57 f9 6c be a6 76 eb 3e ef 11 ef 3a 80 06 a4 3e
       -0.2314199 0.4598896 0.0018239598 0.3203621
000030 32 e6 8b 3d 2b 9b e4 be 4a b5 61 be f4 7a 05 3f
       0.06831016 -0.44649634 -0.22041813 0.52140737
000040 65 a9 17 3f af 1b 13 3f 49 bd 7c be 08 50 3b 3e
       0.5924285 0.57464117 -0.24681582 0.18292248
000050 22 28 95 3e f7 33 25 3f 2b 2c c4 be f8 e7 56 3e
       0.2913218 0.6453242 -0.38314947 0.20986927
000060 54 f1 ab 3e 67 31 11 3f d3 34 59 3f 06 0b b1 be
       0.33582556 0.56716007 0.8484623 -0.34578723
000070 5b e3 79 bd fa e1 a2 be 28 55 3a 3d 06 c5 e4 be
       -0.06100784 -0.3181303 0.045491368 -0.44681567
000080 5e d4 a4 3e 9b 78 17 be 70 ce d3 be 77 6f 2a bf
       0.32193273 -0.14792101 -0.41368437 -0.6657633
000090 ab e7 17 3f 23 af 34 bd 7e 05 4e be 87 c9 dd 3c
       0.5933787 -0.044112336 -0.20119283 0.027073635
0000a0 17 13 ad 3d 7c 54 3f be d0 a5 6d bd 12 7e 5e be
       0.08450907 -0.18684572 -0.05801946 -0.2172778
0000b0 25 e2 27 bf 6c cf 96 be 1c a6 1d 3f 34 1e f0 3e
       -0.65579444 -0.29455125 0.6158159 0.46898043
0000c0 67 e9 52 be 58 14 33 3e a1 2b 00 3e c5 00 19 be
       -0.20596848 0.1748823 0.12516643 -0.149417
0000d0 e0 cf d0 bd 2b 90 5c 3f 1f 87 97 be d8 1e 01 3e
       -0.10195899 0.8615748 -0.29595277 0.12609422
0000e0 f6 ff 04 3f 1b 83 2c bf 6b 90 1a bf 91 91 d6 be
       0.51953065 -0.6738755 -0.60376614 -0.41907933
0000f0 15 b4 9e be e5 e4 fb bc 0b 9a 47 3f 67 ad c6 3d
       -0.30996767 -0.030748794 0.77969426 0.097010426
000100 52 c7 34 3e d5 dc 43 be ba 79 26 bc 77 6c c4 3d
       0.1765416 -0.1912721 -0.010160858 0.095910005
000110 91 83 e1 3d 58 62 f8 be f4 91 9d be ec 97 03 3d
       0.110114224 -0.4851253 -0.30775416 0.032127306
000120 ee 19 a2 3e e1 1d 24 bf c3 70 bd 3d 2f 4a 27 bf
       0.31660408 -0.6410809 0.09250023 -0.6534757
000130 bb ff 3e bf 7b 16 27 bd 43 e5 b2 3e 79 dd de bd
       -0.74608964 -0.040792923 0.34940538 -0.10882086
000140 ff 58 1f 3f f2 50 8c 3d 2e 6c 26 3d e6 00 85 3e
       0.6224517 0.068513766 0.040630512 0.25977248
000150 6b 70 7c bf e9 c9 ee 3e da fe 6e 3e 8c 98 a4 bd
       -0.98609036 0.4663842 0.23339406 -0.080369085
000160 b5 53 d5 be 2a 46 f7 bd 8a 7b b0 3c ad 8c 95 bd
       -0.41665426 -0.120739296 0.021543283 -0.073022224
000170 31 50 61 bf 7d a4 ab 3d 2b af f3 be eb 4c 28 bf
       -0.8801299 0.08380983 -0.4759458 -0.6574237
000180 a2 c9 1e 3f 80 12 95 3e c5 f5 86 3e 38 56 05 be
       0.6202642 0.29115677 0.26359382 -0.13021171
000190 89 a2 fc bd d4 df 6d 3e fd e5 36 3d 26 77 51 bf
       -0.123356886 0.23229915 0.044652928 -0.8182243
0001a0 ca a7 1b 3f b2 cc dc 3e 87 89 04 bf 1f ce 05 3e
       0.608029 0.4312492 -0.5177235 0.1306691
0001b0 ba 28 1e 3e bb bb c8 be 5e b3 e6 3e d2 e4 ea be
       0.15445223 -0.39205727 0.4505872 -0.458777
0001c0 84 e1 53 bf e7 63 63 be a6 81 8d 3e 3d e5 fb 3d
       -0.82765985 -0.22206078 0.27637976 0.12299583
0001d0 a4 d7 f5 3d 93 5a a5 be d0 b6 bc 3e b8 0b 96 be
       0.12004021 -0.32295665 0.36858225 -0.29305816
0001e0 01 42 5a 3f 56 ab ce be db 79 44 bb 94 43 0f bf
       0.85256964 -0.40365094 -0.0029979858 -0.5596249
0001f0 db 13 3c 3f cd 9a 23 be 2c ff 98 be f7 53 27 3f
       0.734678 -0.1597702 -0.2988218 0.65362495
000200 d1 57 00 3f 3c 30 84 be c3 f3 20 bf 65 3e 03 3f
       0.50134 -0.2581805 -0.6287195 0.5126708
000210 3a e0 02 be 2b 49 be be e0 cf 4c 3d 7d 36 9a be
       -0.12780848 -0.37165198 0.050002933 -0.30119696
000220 7d da 79 be 51 d8 a5 bd e3 c2 24 3d 8b 5f f2 3e
       -0.24399753 -0.080979 0.04022492 0.47338519
000230 08 04 64 bd b9 f8 1e bf 7e 17 13 be 27 fb 89 be
       -0.055667907 -0.6209827 -0.1436443 -0.26949427
000240 ec 44 2e 3f b9 bc 7e be bd f7 9b 3e 97 e3 4c bf
       0.68073916 -0.2487668 0.30462447 -0.80034775
000250 77 90 c7 3d a7 cb b4 be 16 06 d0 bd 2c 97 23 3f
       0.09744351 -0.35311624 -0.10157411 0.63902545
000260 3f db d0 3d d0 f6 ad 3e f1 d7 a5 3e ae 08 d0 3e
       0.10198068 0.33977365 0.32391313 0.40631622
000270 31 ff 73 3e 0c 7a bf 3e 74 7e a6 3d e5 62 17 3f
       0.23827817 0.37397802 0.08129588 0.59135276
000280 e2 7c c8 be e3 9f a9 bd e5 3c a7 be ed 68 0d bf
       -0.39157778 -0.08282449 -0.32663646 -0.5523823
000290 be c6 cf 3c 68 4e e8 be 09 41 1d 3f a0 4d 88 3e
       0.025363322 -0.4537232 0.6142736 0.26621723
0002a0 ba 07 df be c3 6a 05 be 5f 11 1d bf 0e 9a 3c 3e
       -0.43560582 -0.13029008 -0.6135463 0.18418142
0002b0 6e 68 db 3d f7 1c 65 bf 41 14 16 bd 48 95 1d bd
       0.10713278 -0.8949732 -0.03664041 -0.038472444
0002c0 8a 0e 06 be 36 74 45 bf df 82 e8 3e 19 7f eb bd
       -0.13091484 -0.7713045 0.45412347 -0.11498851
0002d0 db f4 51 3e 9d f8 31 bf 80 60 9c bd 5b c2 be 3e
       0.20503561 -0.6951998 -0.076355934 0.37257656
0002e0 f5 61 4e bd b1 2a 12 be 54 69 dd bd 10 bd 13 be
       -0.050386388 -0.14274098 -0.10811105 -0.1442759
0002f0 a4 71 81 3e a9 56 c4 3d 78 89 81 3e 67 0a f5 3e
       0.25282013 0.095868416 0.25300193 0.478595
000300 20 06 13 3f a3 dc fc 3e 33 8a 02 be 85 f5 cf 3d
       0.5743122 0.49387082 -0.12748031 0.10154251
000310 80 15 4b 3e 93 a1 c8 be 36 e8 54 3f bf 2f 07 bf
       0.1983242 -0.3918577 0.83166826 -0.5280723
000320 d5 e5 3c 3f 23 85 d7 be b9 19 06 be 01 ea 95 bf
       0.73788196 -0.42093763 -0.1309575 -1.1712037
000330 9e 37 96 3e 24 bd 7d be 0e 99 8e 3d 0a 41 a7 be
       0.29339308 -0.24779183 0.069627866 -0.32666808
000340 e6 66 94 3e 80 c5 61 3e 9e 71 5c be 46 be 5a 3e
       0.28984755 0.22047997 -0.21527717 0.21361646
000350 67 3b 94 be 8d 1f 0f 3f a1 95 f4 bd 63 0a 86 be
       -0.2895157 0.5590752 -0.11942602 -0.261798
000360 a6 67 9f 3e 71 91 31 3e b7 13 10 bf 95 d7 a3 3e
       0.31133765 0.17340638 -0.5628008 0.32000414
000370 37 29 f1 bc fd 6d ad 3e 18 f5 1f be a4 bf ed 3d
       -0.029438598 0.33872977 -0.1562084 0.11608818
000380 80 74 e8 be ca 90 19 3f db 7c 74 bd f1 e7 35 bf
       -0.45401382 0.59986556 -0.059689384 -0.7105704
000390 f9 30 01 3f 80 c8 06 3c 57 86 ff 3e 3c 34 00 3f
       0.5046535 0.008226514 0.4990718 0.50079703
0003a0 c5 96 f0 be e0 cf 3f be 6e 96 10 3f 4a 56 0c 3d
       -0.46990028 -0.18731642 0.5647954 0.03426198
0003b0 89 2f 15 3f 91 75 35 be 64 e9 d4 be 39 2c 7e be
       0.5827566 -0.1772063 -0.41584313 -0.24821557
0003c0 94 ec bf be 19 f9 5d 3f 07 05 37 3e 4a db ae be
       -0.37485182 0.8670822 0.17873012 -0.3415168
0003d0 53 44 f6 be 5e b1 24 be 97 2f 0e 3f c6 36 c2 bd
       -0.48099002 -0.16083285 0.55541366 -0.094831035
0003e0 0f 8f 74 3e 06 fc 38 3e c3 59 2b 3f fc 07 06 bf
       0.23882698 0.1806489 0.6693384 -0.52355933
0003f0 f4 2b 53 be 3b 7f b9 3c 46 21 cd bd 51 9e 52 3e
       -0.20622236 0.022643676 -0.10016112 0.20568205

network_body._body_endoder.seq_layers.0.bias f4 [128]
000000 00 00 00 00 00 00 00 00 00 00 00 00 00 00 00 00
       0.0 0.0 0.0 0.0
000010 00 00 00 00 00 00 00 00 00 00 00 00 00 00 00 00
       0.0 0.0 0.0 0.0
000020 00 00 00 00 00 00 00 00 00 00 00 00 00 00 00 00
       0.0 0.0 0.0 0.0
000030 00 00 00 00 00 00 00 00 00 00 00 00 00 00 00 00
       0.0 0.0 0.0 0.0
000040 00 00 00 00 00 00 00 00 00 00 00 00 00 00 00 00
       0.0 0.0 0.0 0.0
000050 00 00 00 00 00 00 00 00 00 00 00 00 00 00 00 00
       0.0 0.0 0.0 0.0
000060 00 00 00 00 00 00 00 00 00 00 00 00 00 00 00 00
       0.0 0.0 0.0 0.0
000070 00 00 00 00 00 00 00 00 00 00 00 00 00 00 00 00
       0.0 0.0 0.0 0.0
000080 00 00 00 00 00 00 00 00 00 00 00 00 00 00 00 00
       0.0 0.0 0.0 0.0
000090 00 00 00 00 00 00 00 00 00 00 00 00 00 00 00 00
       0.0 0.0 0.0 0.0
0000a0 00 00 00 00 00 00 00 00 00 00 00 00 00 00 00 00
       0.0 0.0 0.0 0.0
0000b0 00 00 00 00 00 00 00 00 00 00 00 00 00 00 00 00
       0.0 0.0 0.0 0.0
0000c0 00 00 00 00 00 00 00 00 00 00 00 00 00 00 00 00
       0.0 0.0 0.0 0.0
0000d0 00 00 00 00 00 00 00 00 00 00 00 00 00 00 00 00
       0.0 0.0 0.0 0.0
0000e0 00 00 00 00 00 00 00 00 00 00 00 00 00 00 00 00
       0.0 0.0 0.0 0.0
0000f0 00 00 00 00 00 00 00 00 00 00 00 00 00 00 00 00
       0.0 0.0 0.0 0.0
000100 00 00 00 00 00 00 00 00 00 00 00 00 00 00 00 00
       0.0 0.0 0.0 0.0
000110 00 00 00 00 00 00 00 00 00 00 00 00 00 00 00 00
       0.0 0.0 0.0 0.0
000120 00 00 00 00 00 00 00 00 00 00 00 00 00 00 00 00
       0.0 0.0 0.0 0.0
000130 00 00 00 00 00 00 00 00 00 00 00 00 00 00 00 00
       0.0 0.0 0.0 0.0
000140 00 00 00 00 00 00 00 00 00 00 00 00 00 00 00 00
       0.0 0.0 0.0 0.0
000150 00 00 00 00 00 00 00 00 00 00 00 00 00 00 00 00
       0.0 0.0 0.0 0.0
000160 00 00 00 00 00 00 00 00 00 00 00 00 00 00 00 00
       0.0 0.0 0.0 0.0
000170 00 00 00 00 00 00 00 00 00 00 00 00 00 00 00 00
       0.0 0.0 0.0 0.0
000180 00 00 00 00 00 00 00 00 00 00 00 00 00 00 00 00
       0.0 0.0 0.0 0.0
000190 00 00 00 00 00 00 00 00 00 00 00 00 00 00 00 00
       0.0 0.0 0.0 0.0
0001a0 00 00 00 00 00 00 00 00 00 00 00 00 00 00 00 00
       0.0 0.0 0.0 0.0
0001b0 00 00 00 00 00 00 00 00 00 00 00 00 00 00 00 00
       0.0 0.0 0.0 0.0
0001c0 00 00 00 00 00 00 00 00 00 00 00 00 00 00 00 00
       0.0 0.0 0.0 0.0
0001d0 00 00 00 00 00 00 00 00 00 00 00 00 00 00 00 00
       0.0 0.0 0.0 0.0
0001e0 00 00 00 00 00 00 00 00 00 00 00 00 00 00 00 00
       0.0 0.0 0.0 0.0
0001f0 00 00 00 00 00 00 00 00 00 00 00 00 00 00 00 00
       0.0 0.0 0.0 0.0

network_body._body_endoder.seq_layers.2.weight f4 [128, 128]
000000 8c e5 3d bc 0e 17 d9 bd df c3 82 bd d3 21 ff 3c
       -0.011590373 -0.106001005 -0.06385016 0.031144058
000010 9e 84 42 be 50 bc bb bd 82 31 2a bd 64 43 5c be
       -0.18995902 -0.09166777 -0.04155112 -0.21510082
000020 b3 c4 b8 bc 31 54 2c be a0 8f a4 3d 53 b1 e5 bd
       -0.022554731 -0.16828991 0.08035207 -0.112154625
000030 71 8f b2 bd c8 81 19 bc d0 3c 9c bd 26 64 2f 3d
       -0.087187655 -0.009369321 -0.076287866 0.04282012
000040 6a 44 87 bc f8 ee b2 bd 4b 17 a8 3d 76 06 9f 3d
       -0.016512115 -0.08736986 0.08207568 0.07764904
000050 eb c3 09 be 7b f3 06 be e8 00 b7 3c 6d 30 47 bd
       -0.13453643 -0.13178818 0.0223393 -0.048630167
000060 8d 10 2b be 8e a2 8a 3d 3e dc 83 bc 1f cc 9f bc
       -0.16705532 0.06769286 -0.01609623 -0.019506512
000070 64 27 0a be 07 83 dc 3c cc 51 f2 3c bf c0 d4 ba
       -0.13491589 0.026917947 0.02958002 -0.0016231759
000080 8b 42 33 3d 89 79 4e bd 38 62 65 bd af cb 18 be
       0.043764632 -0.050408874 -0.05600187 -0.14921449
000090 4a c3 81 bb 7d 28 21 3d 0f d3 45 3e ec 0e 36 bd
       -0.003960048 0.039345253 0.19318794 -0.044447824
0000a0 d0 de 7d bc 8f 25 cc 3d 7c c3 fc 3d 45 6e 5d 3d
       -0.015495017 0.09968101 0.12341973 0.05406024
0000b0 c9 cc a0 3d b5 ab ce 3d 95 bf 22 3e e9 0c 00 bc
       0.0785156 0.10091344 0.15893395 -0.007815578
0000c0 a0 0a 63 be 6e 4f c0 bc 83 77 2b be 57 53 39 bd
       -0.22172022 -0.023475375 -0.16744809 -0.045245495
0000d0 c5 e3 81 bd 0c 06 c3 bd 9c 10 87 3d 83 99 08 3e
       -0.06342272 -0.09522638 0.06594965 0.1333981
0000e0 a5 02 fe ba f6 cf d8 bd 50 82 64 bd 4b b1 0a bd
       -0.001937945 -0.105865404 -0.05578834 -0.033860486
0000f0 d4 19 d6 bb 46 a2 d8 3a d3 45 20 3d 82 cc 77 3d
       -0.0065338407 0.0016527853 0.03912909 0.06049777
000100 db 05 23 bb 1d 6f 3e 3c 1c 7e bd 3d e8 b3 a4 bc
       -0.0024875316 0.011623171 0.09252569 -0.020105317
000110 06 46 81 3c 30 79 bf bc b3 a6 b9 3c c5 ea 2b be
       0.01578046 -0.023373216 0.022662496 -0.16788776
000120 54 fe d4 bd 84 9a 4e 3c c5 8c 14 bd 9f ee 48 bd
       -0.10400072 0.012610082 -0.03626706 -0.04905569
000130 55 28 b1 3d 5d 5a c4 bd fb 69 c4 bc c5 65 6b bc
       0.08650271 -0.09587548 -0.023976317 -0.0143675255
000140 0b 2e ca 3b ca 18 7d 3e 6e 6d 50 bd 58 cb b7 bd
       0.0061700395 0.24716488 -0.05088561 -0.089743316
000150 dd 46 81 3d 2a 81 04 3d 07 02 5b bd 32 37 13 3e
       0.06312344 0.032349743 -0.05346873 0.14376524
000160 26 55 ae 3c f6 f1 82 3d aa 97 ce 3d 42 8a 10 bd
       0.021280836 0.06393807 0.100875214 -0.035288103
000170 25 59 a0 ba 13 a8 07 3d e0 87 5b 3c e5 cf 8a 3c
       -0.0012233598 0.033119272 0.013399094 0.016944835
000180 ff 0f a8 bd 33 70 b7 bd b6 b4 17 3d a5 b9 ad 3d
       -0.08206176 -0.08956947 0.037037574 0.084826745
000190 93 e2 90 bd 56 a9 97 3d 46 3e b6 3d d6 8e bf bd
       -0.070744656 0.07405345 0.088985965 -0.09353416
0001a0 8e ec e0 bd 94 58 d6 3d 7e 0b 16 3c b5 a8 83 3d
       -0.10982619 0.10466114 0.009158013 0.06428663
0001b0 ea 12 18 3d 06 36 df 3d b8 b8 43 3e f5 1a 8a bd
       0.037127413 0.10898976 0.19113433 -0.06743423
0001c0 00 bb f2 3c 11 46 b0 3c 0e 08 aa 3c 37 12 75 3d
       0.029630184 0.021517785 0.020755794 0.059831824
0001d0 8f 69 b8 bd 2d b5 bb 3d e1 84 87 be b7 e4 06 3d
       -0.09004509 0.09165416 -0.26468566 0.032932963
0001e0 e2 ce 80 bd ed 90 7b bd b3 a3 c7 bd 7d 57 6f bc
       -0.0628946 -0.06141751 -0.0974802 -0.014608261
0001f0 84 6b 65 bd f7 3e af bb f0 93 0d be 45 ac 96 3d
       -0.056010738 -0.005348082 -0.13825965 0.073570766
000200 f3 b7 6a 3d 49 16 e7 bc 1b de d4 bd 24 87 5b 3d
       0.057304334 -0.028208869 -0.10393926 0.053595677
000210 5f 5b 00 bd fd 2d 86 3c 7b f2 a6 3d 37 f2 0b 3e
       -0.03133714 0.01637935 0.08151718 0.13666616
000220 c6 b6 0e be 8a 8b 92 3d f2 45 e8 3c c3 6a 95 bc
       -0.1393691 0.07155521 0.028353665 -0.018239385
000230 9d f6 ed 3d 70 6b 04 bd 15 10 76 3c 95 4f 81 3e
       0.116193034 -0.032329023 0.015018483 0.2525603
000240 88 bb 2e 3d 89 0b b2 bd 97 fe 19 bd 25 ea 0f 3b
       0.042659312 -0.086936064 -0.03759631 0.002195963
000250 4f c6 c7 3d ea e3 c3 bc b9 68 35 bd c5 df 01 bd
       0.09754621 -0.023912389 -0.044289324 -0.031707544
000260 fa d0 ea bd c0 58 cf bc 7a d3 11 3d fd 0d e9 3d
       -0.1146564 -0.025310874 0.03560207 0.11379621
000270 f4 6d 90 bd b1 d4 a5 3d 19 23 2b bc d8 81 df 3d
       -0.07052222 0.08097208 -0.01044538 0.109134376
000280 97 fe a3 3d 42 0c 6f 3d a0 35 10 3e f9 42 1b bd
       0.080075435 0.0583613 0.14082956 -0.037905667
000290 29 f2 0a be 01 59 b1 bd d7 ca 9e bd 6b fa ff bc
       -0.1356894 -0.08659554 -0.077535324 -0.031247338
0002a0 ef 74 74 3d 93 62 16 bd 24 79 15 bc 01 f6 2f be
       0.05968183 -0.0367151 -0.00912312 -0.17183687
0002b0 4a 7a 6a bd c3 73 81 3d 0f 37 d9 bd 43 76 a1 3d
       -0.05724553 0.06320908 -0.10606205 0.07883885
0002c0 1b 5d 4c bd 4b fa 37 3d 83 4e 02 3e 1c 0c 77 3d
       -0.04989348 0.044916432 0.12725262 0.060314283
0002d0 24 83 1a bc 2b f5 9c bd 99 d6 ae 3d cd 75 42 bd
       -0.00943068 -0.076639496 0.08537025 -0.047475625
0002e0 e8 9e c7 bd d8 2c 8b 3d 82 f6 d9 3c e3 a5 35 bd
       -0.09747106 0.06795663 0.026606802 -0.044347655
0002f0 ff 05 a7 3d 03 d4 2b be 18 63 76 bd ea 05 40 3d
       0.081554405 -0.16780095 -0.060153097 0.04688064
000300 74 0b c1 bd c7 fa 13 3e 2b 3c d3 3c 04 66 a2 bd
       -0.09426013 0.14451133 0.025785526 -0.07929614
000310 cb f0 0d bd 7f cc 95 bd 9c ae be bd 76 e2 2d bd
       -0.034653466 -0.07314395 -0.09310648 -0.042452298
000320 8c 1a 08 3e e5 7a d2 3c 0a 8b 55 bd a9 d3 0b 3d
       0.13291377 0.025693366 -0.05213455 0.0341374
000330 56 5a e8 3d 2c f4 ae bd c9 8a c0 bc e7 d0 7e 3c
       0.11345355 -0.08542666 -0.023503678 0.015552736
000340 40 78 d5 3d 6d d8 4d 3e 98 e2 19 bd fd ca 4c 3e
       0.104233265 0.20102091 -0.037569612 0.19999309
000350 1b 60 00 bd 4f 59 42 bc 3e e7 9b 3c a4 a2 54 ba
       -0.031341653 -0.011862113 0.019031163 -0.00081113935
000360 c0 db ac bd 30 5d 5c 3e c2 9d 2f bd 99 f2 5c bc
       -0.084403515 0.21519923 -0.04287506 -0.013485574
000370 9b 50 be 3c 43 96 19 bb 40 ce 35 bd 28 e3 d6 bd
       0.023231795 -0.002343551 -0.04438615 -0.10492545
000380 56 e4 0d 3d b6 6e 85 3d ab 92 13 be 28 6a c0 bd
       0.034641586 0.06515257 -0.14411418 -0.09395248
000390 ed f2 8e 3d 4b 05 65 3c 9e e5 14 3d f1 cc 9c bd
       0.06979928 0.013978313 0.036351793 -0.07656277
0003a0 3a d0 a0 bd 34 20 f8 3d 39 79 a0 3c 40 cc 99 bd
       -0.07852216 0.12115517 0.019589053 -0.07509661
0003b0 68 d2 41 3d 1f 33 f6 3c 99 bb 47 3e a1 44 90 3d
       0.0473198 0.030053673 0.19505157 0.0704434
0003c0 94 74 e3 bd 53 c8 84 bd e3 57 11 bd ec 71 db 3c
       -0.1110622 -0.06483521 -0.035484206 0.02678772
0003d0 cd 83 46 3b 72 c6 ea 3d 28 5c 91 bc 07 3b 35 bd
       0.0030290962 0.11463632 -0.017744139 -0.044245746
0003e0 5b ef 21 bd cf 35 09 3e 03 64 b7 bd 15 76 15 3c
       -0.039534908 0.13399433 -0.089546226 0.009122391
0003f0 bb 2b 20 3e 27 d4 0b 3e 82 5c 3f be a3 c0 71 bc
       0.15641682 0.13655148 -0.18687633 -0.014755401

network_body._body_endoder.seq_layers.2.bias f4 [128]
000000 00 00 00 00 00 00 00 00 00 00 00 00 00 00 00 00
       0.0 0.0 0.0 0.0
000010 00 00 00 00 00 00 00 00 00 00 00 00 00 00 00 00
       0.0 0.0 0.0 0.0
000020 00 00 00 00 00 00 00 00 00 00 00 00 00 00 00 00
       0.0 0.0 0.0 0.0
000030 00 00 00 00 00 00 00 00 00 00 00 00 00 00 00 00
       0.0 0.0 0.0 0.0
000040 00 00 00 00 00 00 00 00 00 00 00 00 00 00 00 00
       0.0 0.0 0.0 0.0
000050 00 00 00 00 00 00 00 00 00 00 00 00 00 00 00 00
       0.0 0.0 0.0 0.0
000060 00 00 00 00 00 00 00 00 00 00 00 00 00 00 00 00
       0.0 0.0 0.0 0.0
000070 00 00 00 00 00 00 00 00 00 00 00 00 00 00 00 00
       0.0 0.0 0.0 0.0
000080 00 00 00 00 00 00 00 00 00 00 00 00 00 00 00 00
       0.0 0.0 0.0 0.0
000090 00 00 00 00 00 00 00 00 00 00 00 00 00 00 00 00
       0.0 0.0 0.0 0.0
0000a0 00 00 00 00 00 00 00 00 00 00 00 00 00 00 00 00
       0.0 0.0 0.0 0.0
0000b0 00 00 00 00 00 00 00 00 00 00 00 00 00 00 00 00
       0.0 0.0 0.0 0.0
0000c0 00 00 00 00 00 00 00 00 00 00 00 00 00 00 00 00
       0.0 0.0 0.0 0.0
0000d0 00 00 00 00 00 00 00 00 00 00 00 00 00 00 00 00
       0.0 0.0 0.0 0.0
0000e0 00 00 00 00 00 00 00 00 00 00 00 00 00 00 00 00
       0.0 0.0 0.0 0.0
0000f0 00 00 00 00 00 00 00 00 00 00 00 00 00 00 00 00
       0.0 0.0 0.0 0.0
000100 00 00 00 00 00 00 00 00 00 00 00 00 00 00 00 00
       0.0 0.0 0.0 0.0
000110 00 00 00 00 00 00 00 00 00 00 00 00 00 00 00 00
       0.0 0.0 0.0 0.0
000120 00 00 00 00 00 00 00 00 00 00 00 00 00 00 00 00
       0.0 0.0 0.0 0.0
000130 00 00 00 00 00 00 00 00 00 00 00 00 00 00 00 00
       0.0 0.0 0.0 0.0
000140 00 00 00 00 00 00 00 00 00 00 00 00 00 00 00 00
       0.0 0.0 0.0 0.0
000150 00 00 00 00 00 00 00 00 00 00 00 00 00 00 00 00
       0.0 0.0 0.0 0.0
000160 00 00 00 00 00 00 00 00 00 00 00 00 00 00 00 00
       0.0 0.0 0.0 0.0
000170 00 00 00 00 00 00 00 00 00 00 00 00 00 00 00 00
       0.0 0.0 0.0 0.0
000180 00 00 00 00 00 00 00 00 00 00 00 00 00 00 00 00
       0.0 0.0 0.0 0.0
000190 00 00 00 00 00 00 00 00 00 00 00 00 00 00 00 00
       0.0 0.0 0.0 0.0
0001a0 00 00 00 00 00 00 00 00 00 00 00 00 00 00 00 00
       0.0 0.0 0.0 0.0
0001b0 00 00 00 00 00 00 00 00 00 00 00 00 00 00 00 00
       0.0 0.0 0.0 0.0
0001c0 00 00 00 00 00 00 00 00 00 00 00 00 00 00 00 00
       0.0 0.0 0.0 0.0
0001d0 00 00 00 00 00 00 00 00 00 00 00 00 00 00 00 00
       0.0 0.0 0.0 0.0
0001e0 00 00 00 00 00 00 00 00 00 00 00 00 00 00 00 00
       0.0 0.0 0.0 0.0
0001f0 00 00 00 00 00 00 00 00 00 00 00 00 00 00 00 00
       0.0 0.0 0.0 0.0

action_model._continuous_distribution.mu.weight f4 [1, 128]
000000 24 8a 25 bc 48 5d 22 3c d3 0e d6 bb e7 d7 5f 3c
       -0.010103736 0.009909935 -0.006532529 0.013662315
000010 dc 39 10 bb 58 58 35 3c 47 6d b0 3b 0b 12 d7 3c
       -0.0022007143 0.011068426 0.0053841206 0.02625372
000020 23 75 37 3c 9b 74 12 bb 19 f2 9f 3a 24 40 18 bc
       0.011197361 -0.0022347334 0.0012202888 -0.009292636
000030 c7 c1 b7 3c bf b8 42 3c 4b 5e 16 bc 9d 6f 99 3b
       0.022431267 0.011884867 -0.009177755 0.004682495
000040 fa 8c 8e 3b 9b d6 42 bd cb d2 99 3b 05 2b 38 bc
       0.004350302 -0.047567945 0.004694318 -0.011240725
000050 45 31 75 3b 2b 77 20 3d aa c0 a1 bc bb 9d c0 3c
       0.00374134 0.039176147 -0.01974519 0.023512712
000060 31 da 29 3c de 52 44 bc e8 73 57 bc bf ee 53 bb
       0.010366962 -0.011982648 -0.013150193 -0.0032338349
000070 c7 0f 1c bc cb 2a 8b bb a3 64 13 3d 13 c5 91 3c
       -0.009525246 -0.0042470447 0.035984647 0.017794168
000080 5b 6d 1b bd a2 36 8a bc 93 0c 9f bb df 70 be bc
       -0.037946086 -0.016871754 -0.004853794 -0.02324718
000090 5a 80 60 bc 17 13 d1 3c 64 03 32 3b 0f 25 5d 3c
       -0.013702476 0.025521798 0.0027162666 0.013497605
0000a0 07 a7 12 bb f7 d5 aa 3c c3 f2 3d bc 5a 24 30 bc
       -0.0022377388 0.02085398 -0.011593523 -0.010750854
0000b0 a5 4b ae bc d3 13 36 bc 77 37 d1 bb 7a 20 a9 bc
       -0.021276304 -0.011113125 -0.0063847858 -0.020645369
0000c0 3f 7a 0d 39 9b 09 6b bb 39 dd 11 bd 2b 7f b6 bb
       0.00013492348 -0.003586388 -0.035611365 -0.005569359
0000d0 42 2a 4f 3b 88 19 96 bc 52 b7 70 3c 8a 71 5b bc
       0.003161088 -0.018322721 0.0146921445 -0.013393769
0000e0 33 56 93 3c d3 82 74 3c 4f 75 e9 bb 8c 5c 43 3b
       0.017985439 0.014923769 -0.00712458 0.00298098
0000f0 0d c8 dc 3c 8f 1c 10 3c 93 74 8e 3b 07 38 93 3c
       0.02695086 0.008795871 0.004347393 0.017971052
000100 5b 08 10 3c d8 71 7d bb 93 bb c4 bc db 8b c1 3b
       0.008791055 -0.0038672592 -0.024015224 0.0059065646
000110 e9 07 82 bb eb fa 18 bd 21 69 1a 3c c3 2e b8 bc
       -0.003968228 -0.03734867 0.009424479 -0.022483235
000120 2f 9b 92 3c a2 6d 1a bc 91 dc bc bc a7 d8 43 3b
       0.017896263 -0.009425553 -0.023054393 0.0029883774
000130 95 4e 77 3c 96 e8 2b bc 49 bf a0 bb da 8d bb bc
       0.015094419 -0.0104924645 -0.0049056155 -0.022894789
000140 3c 1b bc 3c 41 b5 bb 3c cb 14 0f 3b 3f bb 24 bc
       0.022962205 0.022913577 0.0021832462 -0.010054409
000150 91 a8 40 38 eb 98 e9 3b 83 15 43 bb d0 91 92 bb
       4.5933357e-05 0.007128825 -0.002976746 -0.0044729486
000160 8b 6d 01 3c d7 1d d5 bc 55 06 62 3c d3 05 cb 3c
       0.007899652 -0.026015205 0.013795455 0.02478305
000170 28 25 a6 bb aa 2a 72 bc 63 b1 17 bd 1a 63 6f bc
       -0.0050703473 -0.01478068 -0.037034404 -0.01461103
000180 2c ea 18 bb 2d 62 39 bc 33 84 48 bc 67 8b ee 3b
       -0.0023332937 -0.011314911 -0.01223855 0.0072798016
000190 b5 0a 33 3b c8 39 e1 3b ba 6d fa bc 02 a0 f2 3a
       0.0027319614 0.006873343 -0.0305699 0.0018510821
0001a0 48 41 ce 3b f0 de 57 bc 11 b3 c0 37 ff 16 00 bd
       0.006294403 -0.013175711 2.2971568e-05 -0.03127193
0001b0 6a 85 e5 3c ce ad 8a 3c 19 a6 8e bb db 62 14 3b
       0.028017718 0.01692858 -0.0043532965 0.002264193
0001c0 64 64 a5 3c ff 97 65 bc 6d 95 48 3c df 12 8a 3b
       0.020189472 -0.0140132895 0.012242657 0.0042136754
0001d0 91 90 47 3c 7d 95 35 bb 0f bf a1 bb ef 03 9e bb
       0.012180463 -0.002770751 -0.004936106 -0.0048222463
0001e0 1f d5 1f 3b 7b ae 01 3d 67 95 24 3c b6 6a 1d bc
       0.0024388505 0.03166054 0.010045386 -0.009607961
0001f0 3e 77 aa bb 38 1a ad 3b 87 b7 04 3d ec 9e 95 bc
       -0.005202203 0.0052826665 0.032401588 -0.018264256

action_model._discrete_distribution.branches.0.weight f4 [3, 128]
000000 cc 07 3e bc 13 75 52 bb 0b d7 cc 3b 35 d5 77 bc
       -0.011598539 -0.0032113239 0.006251221 -0.015126516
000010 b7 d6 a5 3a 50 ae 55 bb 44 77 9b 3a fb 1a 23 bc
       0.0012652491 -0.003260512 0.0011861105 -0.009955163
000020 c5 7f 58 3c 92 18 22 bb 9a 16 71 bb 03 fc 07 3c
       0.013214056 -0.0024733883 -0.0036787153 0.00829983
000030 f6 93 ae 3c e0 69 82 3b 03 93 7c bc 08 09 d8 bb
       0.021310788 0.0039799064 -0.01541591 -0.0065928735
000040 63 bd 32 3c a0 1a 22 bc 15 8e 1a 3b 13 34 a2 3c
       0.010909411 -0.009894043 0.0023583223 0.019800222
000050 a0 25 b1 3c d5 0e a6 3b 73 4b b2 3b d8 db 1f bc
       0.021624386 0.005067686 0.005441123 -0.009757005
000060 b1 e1 8c b9 d4 74 80 3a b5 70 ef 3a e3 03 4a bb
       -0.00026871034 0.0009800442 0.0018267842 -0.003082507
000070 ab e5 94 bb dd b2 d0 bb c0 28 01 bc cf fc 3e 3b
       -0.00454398 -0.0063689784 -0.007883251 0.0029142385
000080 37 d5 02 bb 6d a3 50 bc 55 3b e9 3b 73 1a 0c 3c
       -0.0019963512 -0.012734276 0.0071176686 0.008551228
000090 5b 58 af bb bf dd f5 3b 93 ee 3c b9 bc b4 ab 3b
       -0.005351109 0.007503241 -0.00018017953 0.005240051
0000a0 33 47 3b 3c fa 70 60 bc 7a 4c 4f 3b 5a bd 65 3c
       0.011430549 -0.013698811 0.0031631277 0.014022196
0000b0 b9 a3 b0 bc c1 40 89 bb 01 65 23 3b 1c ea a4 3b
       -0.021562444 -0.0041886275 0.002493203 0.005032791
0000c0 d7 1e c7 bb c7 c3 c9 3a a7 a8 c8 3b 55 25 45 bc
       -0.0060766744 0.0015393429 0.0061236206 -0.012032826
0000d0 fb d9 46 3b 43 f7 6d bc c2 dd de ba 47 e6 87 3c
       0.0030342329 -0.014524284 -0.0017003345 0.016589297
0000e0 61 41 13 3c ab 2e 27 bb fa 8a b3 bb 55 4d ec bb
       0.0089877555 -0.0025509994 -0.005479214 -0.007211367
0000f0 02 08 d4 bb dd 7d f4 3b 25 6a 5d 3c d2 3a b9 bb
       -0.006470681 0.007461293 0.013514076 -0.005652764
000100 2d 81 67 3c 15 95 01 bc d3 fa 9d bb 49 b1 15 3c
       0.014129919 -0.007909079 -0.0048211603 0.009136506
000110 f7 bb 8c 39 99 ab c1 3c bf 7b 3d bc 10 4e 9b bb
       0.00026842926 0.023641394 -0.011565148 -0.0047395304
000120 11 27 26 bc 9b c5 c3 3b bf ab 7a 3c e7 4e 5c 3c
       -0.01014115 0.005974484 0.0152997365 0.013446546
000130 c5 d2 10 bc 75 a9 db 3a 73 2e 4f 3c 68 bf 60 bc
       -0.008839314 0.0016758876 0.012645352 -0.01371751
000140 51 ef 3a ba 42 6f 6b 3b b1 81 20 bc 54 84 17 3c
       -0.0007130998 0.003592447 -0.009796546 0.009247858
000150 46 ee 16 3c 1a 67 9f bb 23 b1 8b 3c 9b 38 eb 3b
       0.009212082 -0.0048645856 0.017052239 0.0071783788
000160 59 bd 06 ba e6 c5 af bb 2c 56 21 bc 7b e5 46 bc
       -0.00051399093 -0.0053641675 -0.009847205 -0.012139673
000170 9a 35 12 bc 87 67 5b 3c 73 28 62 bc bd b9 18 3c
       -0.008923912 0.013391382 -0.013803589 0.009321627
000180 00 d1 d7 3b fd 26 86 3b 24 08 0a 3c 75 de 07 bc
       0.006586194 0.0040940032 0.008424792 -0.008292784
000190 4e 11 bf 3b 1f c5 87 3b c0 c0 bd ba d3 0f e3 3b
       0.0058309203 0.0041433717 -0.0014477 0.0069293766
0001a0 fb 61 99 bb 47 87 9e 3c 87 c5 cc bb b1 b0 03 3c
       -0.0046808696 0.019351615 -0.006249133 0.008037732
0001b0 08 4d 50 3c cb 3e c8 3b 15 8b 41 bc eb e7 70 bc
       0.012713678 0.006111001 -0.011812945 -0.014703731
0001c0 af bc 8a 3b 08 40 3a 3c d1 71 1d bc a3 4f c7 ba
       0.0042339186 0.011367805 -0.0096096555 -0.0015206229
0001d0 67 ff 53 bc 23 e8 8b 3c 5c 4f 8b 3c 8a de 4b bb
       -0.012939311 0.017078465 0.017005615 -0.0031107985
0001e0 f0 60 13 3c ab 02 a4 3b 55 f8 11 3b 42 bf 99 bb
       0.00899528 0.005005201 0.0022273262 -0.004691989
0001f0 6f 6f bf bc 39 4e 30 bc 5d 2c 33 3c 4f 90 b6 3b
       -0.023368565 -0.010760837 0.01093587 0.005571402
000200 b5 b5 31 bc 45 69 1d 3c 0e 22 2f bb fc 19 25 bc
       -0.010846545 0.009607618 -0.002672318 -0.010076996
000210 c7 1b 2b 3c d8 b6 c0 bb 61 14 39 3c ab 6c cd ba
       0.010443634 -0.0058811717 0.011296363 -0.0015672644
000220 ec ea 22 3b 57 a6 ab bc 93 14 4f bc d8 7d 7c bc
       0.0024859263 -0.02095334 -0.012639183 -0.015410863
000230 df 9f 68 3c 7e 66 9b 3c 77 90 c9 b9 43 81 9b b8
       0.0141982725 0.01896977 -0.00038445342 -7.415053e-05
000240 21 07 00 3c 3b 6d a8 bc 67 a7 3a bc 02 8c 2f 3a
       0.0078142 -0.020559898 -0.011392451 0.0006696583
000250 ee 57 02 3c a0 46 67 bc ed f9 cf ba f8 1d b0 bb
       0.007955534 -0.014115959 -0.001586733 -0.0053746663
000260 b3 3e 7f bb 0d 7e 99 3b a2 65 b0 3b 6a 7a aa bb
       -0.0038947284 0.004684216 0.0053832093 -0.005202581
000270 76 09 0c bc a3 4c a6 3c 00 f2 ec 3b 9d 0b 60 bb
       -0.008547178 0.020300215 0.007230997 -0.003418661
000280 48 71 95 bb 7e 9f 2d ba f8 a2 47 bb 18 20 5e ba
       -0.0045606233 -0.00066231925 -0.0030462127 -0.000847341
000290 43 23 05 bc 77 70 93 bb 7f 7f f0 bb 12 ad aa 3a
       -0.008126083 -0.004499491 -0.0073394175 0.001302155
0002a0 4e d7 43 3c e4 c6 25 bc f1 1b 2a bc 70 97 da bb
       0.011953188 -0.01011822 -0.010382638 -0.006670885
0002b0 57 19 d4 3b 75 02 11 bc cf 69 39 bc f5 96 65 bb
       0.0064727473 -0.008850683 -0.011316731 -0.0035032604
0002c0 db 38 35 3c b7 cd 98 bb 83 2b 50 bc 91 9d 14 3b
       0.011060919 -0.004663195 -0.0127056865 0.0022676925
0002d0 da b0 91 bc 85 00 e2 bb 62 0a cb bb eb a6 87 39
       -0.017784525 -0.0068970346 -0.006196306 0.0002587357
0002e0 07 d8 42 ba d4 21 ae 3c 13 02 29 3c d8 a4 5c bc
       -0.0007432703 0.021256365 0.010315436 -0.013467036
0002f0 a3 cb 6e bc a9 d7 35 3c db b7 1c 3b d0 fc dc 3b
       -0.014574918 0.011098781 0.0023913297 0.006744005
000300 cd c5 ae bc 85 23 3b 3c 67 5f 1d 3b 05 52 cf 3a
       -0.021334553 0.011422043 0.0024013163 0.001581729
000310 45 d5 33 3b df 80 12 bc 28 27 62 3b 45 d9 dc bb
       0.002744035 -0.008941858 0.0034508202 -0.0067397677
000320 63 68 fd b8 86 2c 35 3c 80 12 2e 3c 73 53 1c bb
       -0.00012083424 0.0110579785 0.010624528 -0.002385345
000330 e9 6e 1e 3c 60 41 2f 3a d8 4a 4e 3b a8 5a a2 bb
       0.009669998 0.0006685462 0.0031477716 -0.0049546547
000340 ef 5e 73 bb e5 97 b8 bc 4b 3b 35 3c ae eb 14 3c
       -0.0037135442 -0.022533366 0.0110615 0.009089394
000350 80 94 0f bc 93 f1 53 3b b1 42 3c bb 2d 06 1f bc
       -0.0087634325 0.0032340034 -0.0028726275 -0.009706062
000360 e1 b9 92 bc 50 ef dd 3b 4d 79 52 3c 5c e4 2c bb
       -0.0179109 0.006772913 0.012846303 -0.002638123
000370 4a 32 69 bb 2f 0b 6c bc d7 39 00 3a 84 47 8c bb
       -0.0035582953 -0.014406963 0.00048914313 -0.0042809863
000380 87 96 b4 3b 1d c4 d1 3b 1f 22 6c bc 5b 62 ce 3b
       0.0055111083 0.0064015524 -0.014412432 0.006298346
000390 08 16 2f bc 13 f1 0d 3c 4b de 9d 3b 5e de 11 3c
       -0.010686405 0.008663434 0.004817759 0.008903114
0003a0 13 6d a1 3b c0 9a 73 3b cb ff 2f 3b b0 f0 e3 3b
       0.0049263327 0.0037171096 0.0026855345 0.0069561824
0003b0 49 f7 14 3c 6b 16 98 3b 72 48 94 3a cc ac c3 bb
       0.0090921605 0.0046413443 0.0011313094 -0.0059715267
0003c0 a0 2c 81 bc 07 83 9a bc 99 aa 30 3c 20 5f bc 3c
       -0.01576835 -0.018861307 0.010782861 0.022994578
0003d0 8d 07 eb bc 41 84 40 3b 27 cd 31 b9 87 48 bf ba
       -0.028690124 0.0029375704 -0.0001695646 -0.0014593758
0003e0 a6 4d 16 3c 0f f5 01 3b c8 72 eb ba 86 7c b4 bb
       0.009173786 0.0019829904 -0.0017963285 -0.0055080084
0003f0 cd db bf 3c 6d 5a 7e 3b 43 94 d1 bb fb 5d 91 3c
       0.023420239 0.0038811222 -0.006395848 0.017745009

action_model._discrete_distribution.branches.0.bias f4 [3]
000000 00 00 00 00 00 00 00 00 00 00 00 00
       0.0 0.0 0.0

action_model._discrete_distribution.branches.1.weight f4 [2, 128]
000000 0b 43 cd 3c b1 52 ac bb cc f7 af 3b e8 82 55 3b
       0.025056383 -0.005258881 0.005370116 0.0032579247
000010 a4 e0 b6 3b 6e 5e 16 bb c3 9a 8c bb 39 46 19 bc
       0.0055809785 -0.0022944468 -0.00429091 -0.009355121
000020 12 74 32 3a 70 99 31 3c 68 35 50 3c 3f 39 97 3b
       0.0006807457 0.010839805 0.012708046 0.0046149786
000030 30 d0 61 bc 28 0c 00 bc dd 4d 8e 3c 0d 00 2f bb
       -0.013782546 -0.007815398 0.017371112 -0.002670291
000040 66 f5 91 bb 9e d8 41 3b 17 ae 33 bc 87 5a df 3b
       -0.0044543026 0.0029578577 -0.010966799 0.0068162116
000050 7a a0 7f bc a3 7c 37 3a b9 50 2c bb e1 9d 08 ba
       -0.015602225 0.00069994683 -0.0026293232 -0.0005211514
000060 d4 8f 02 bc 87 a6 5f bb 4d 47 90 bb 7a 07 d8 bb
       -0.007968862 -0.0034126358 -0.004403031 -0.006592688
000070 6b 1c 47 bb c7 a1 64 3b 03 e8 b1 3b 0f 80 95 3b
       -0.0030381929 0.0034886466 0.0054292693 0.004562385
000080 8b da a8 3b 53 5e ad 3a 78 49 28 bc 1d a8 ff 3b
       0.0051530055 0.0013226963 -0.010271423 0.007802023
000090 2b 6c c3 ba aa 7c e6 3a 13 89 1d b9 7b 82 86 3c
       -0.0014909556 0.001758476 -0.00015023751 0.01641964
0000a0 b3 9f 91 bb ff 3d 3d 3c e8 dd 83 bc 58 35 0c 3c
       -0.0044440865 0.011550426 -0.016097024 0.00855764
0000b0 f8 a2 67 bc 73 30 d1 3b 33 26 1a bc c0 29 6c bc
       -0.014137976 0.0063839494 -0.0094085215 -0.014414251
0000c0 2a 5d 77 bb ba fa f3 3b 01 ce 81 bc 8c 48 40 3c
       -0.003774474 0.0074456604 -0.0158453 0.0117360465
0000d0 95 91 fc bb cf 72 18 bc a0 ae b2 3c 1f 57 10 3c
       -0.0077077844 -0.009304716 0.021811783 0.008809834
0000e0 f7 f1 68 3b 0a e9 a3 3b 34 83 bc 3a 43 44 43 3b
       0.0035544613 0.0050021457 0.0014382363 0.0029795326
0000f0 11 09 a3 39 da 26 68 bb d1 b0 02 ba 3b b0 9c 3b
       0.00031096538 -0.0035423548 -0.0004985454 0.0047817505
000100 af 92 dd 3b b5 49 b5 3b ff 83 4d 3b b0 3a 81 ba
       0.006761871 0.005532468 0.0031359193 -0.0009859409
000110 87 ac a5 3b 42 e5 3a 3c 3a 4d 77 3c fb 48 94 3a
       0.0050559673 0.011407198 0.015094096 0.0011313254
000120 e6 02 bd bb ba ce 5a bc ef 4f 8b 3c ba b4 b6 3b
       -0.005768168 -0.0133549515 0.017005889 0.0055757435
000130 9f e5 d3 3b a0 78 8e bb 0a 1e ff ba 5e 01 ae 3c
       0.006466582 -0.0043478757 -0.0019463908 0.021240886
000140 1b 91 4c 3b 3b cd 56 bc b5 cf 7a 3b ab e4 c0 3b
       0.003121442 -0.013110454 0.0038270776 0.0058866343
000150 ea ed 5a 3b 18 3e 1f bb ae 21 1c 3c bb c6 9b ba
       0.0033405968 -0.0024298485 0.009529514 -0.0011884788
000160 c5 c1 ce bb f3 f9 5c bc 12 14 5d bc 23 d7 89 bc
       -0.00630972 -0.013487327 -0.013493555 -0.016826218
000170 a5 60 eb bb 6a 31 16 bc fd 7c 3e 3c 38 57 54 3c
       -0.007183152 -0.009167055 0.011626479 0.012960248
000180 c7 9e 29 bc 2d b9 0a bc 27 2f f4 3a b2 d8 03 3c
       -0.010352797 -0.008467001 0.0018629775 0.00804727
000190 c7 c7 da 3a 0f 1d d1 bb 1b 0c 3c bc 8d 36 9c 3b
       0.0016691618 -0.006381638 -0.011477496 0.004767245
0001a0 15 ef c5 bb 3f 3f 75 3b c7 3d 99 bb 24 84 33 3b
       -0.0060404637 0.003742173 -0.004676554 0.0027391994
0001b0 7c 56 a5 bb 2f 57 46 bc ab 1b 4d 3a a7 86 38 3c
       -0.00504571 -0.012105747 0.0007824252 0.011262572
0001c0 27 d3 9d 3c 33 f1 7a 3c e7 52 0b bb d7 20 1c ba
       0.019265724 0.015316295 -0.002125913 -0.0005955821
0001d0 6b bd 9a bc 26 18 01 3b db df b6 3b 02 f6 2b 3a
       -0.01888915 0.0019698231 0.005580885 0.00065597903
0001e0 d6 c1 0a bc 30 fb 3c 3b 3f b6 91 bb f5 c6 f9 b8
       -0.008469066 0.0028836243 -0.0044467743 -0.00011910304
0001f0 b2 41 ac 3b 4e 6d 2d bc f9 f9 06 bb ba 0c 7b 3a
       0.005256855 -0.010585142 -0.0020595773 0.00095767865
000200 02 be 38 3c 0d 3f d5 3c 32 aa 3d b9 f5 c1 28 3b
       0.01127577 0.026031042 -0.00018087847 0.0025750373
000210 2b d6 22 3b a2 64 32 bc 7c 3f c5 3b 0f 00 32 3c
       0.0024846892 -0.010888251 0.006019531 0.010864272
000220 b8 b6 c0 3b 27 af 45 3c 1a 76 90 bc 6d 84 41 3a
       0.005881157 0.012065685 -0.01763444 0.00073820987
000230 17 1a 37 bb c4 d3 90 3b 10 a7 aa 3b cd c2 fb bb
       -0.0027939135 0.0044197757 0.0052079037 -0.007683134
000240 40 53 84 bb 6f 68 85 bc f9 73 4b 3c 8b c5 49 3c
       -0.0040382445 -0.01628515 0.012417787 0.012315164
000250 c7 72 b1 bb 93 ed ef b7 e0 69 e4 3b be 27 22 3b
       -0.005415294 -2.860165e-05 0.006970629 0.0024742926
000260 80 4e f9 bb 73 a4 52 bc d0 89 a7 3c fd 2f bd 3b
       -0.007608235 -0.012856591 0.020451456 0.005773543
000270 1c c1 82 3b b3 9e 80 3c 5f d2 83 3c af e9 2a bc
       0.0039903056 0.015700674 0.016091524 -0.010431691
000280 f7 a3 50 3c b1 f2 16 bc cb 3f 5e 3a 06 81 85 bc
       0.012734405 -0.009213136 0.0008478134 -0.016296875
000290 1a 30 bb bb d2 71 51 3c 82 a7 eb 3b 18 91 3f 3c
       -0.0057125213 0.0127834845 0.0071915993 0.011692308
0002a0 87 bd 37 bb 24 69 95 38 47 8d 4a 3c e3 21 a6 3a
       -0.002803655 7.1244576e-05 0.012362785 0.0012674894
0002b0 36 c3 a5 39 7e f4 af 3a 2a e2 01 3c 65 f7 30 bc
       0.00031616696 0.0013424305 0.007927457 -0.010801171
0002c0 9b 70 00 bc c2 03 53 3a 4d 21 c4 3a 7a f7 0d 3b
       -0.007839347 0.0008049571 0.0014963538 0.00216624
0002d0 05 5a 64 bc fb bc db ba 3a 42 51 3b 05 7b 0e bb
       -0.013937478 -0.0016764695 0.0031930343 -0.0021740806
0002e0 e1 96 4a bc a7 71 30 bc 1d c3 4a 3b 43 d8 e6 3b
       -0.012365074 -0.010769284 0.003093905 0.0070448234
0002f0 75 59 e1 ba d6 0d 1e bb b2 49 d2 3a 58 86 75 3b
       -0.0017192798 -0.0024117134 0.0016043691 0.0037464108
000300 ce 0b b7 b9 88 e0 02 bc e3 30 65 3c 8f 2d 86 bc
       -0.00034913275 -0.007988103 0.013988706 -0.016379146
000310 1d 85 bf ba 10 d4 d1 3a 02 2e 74 3b fb ac 50 bb
       -0.0014611814 0.0016008634 0.0037258868 -0.0031841386
000320 5a da b4 bb f0 51 db bb c9 2f 93 bc 8d 92 ce 3c
       -0.0055191936 -0.0066931173 -0.017967122 0.025216365
000330 9f ea c8 3b 19 c4 02 3b fa 65 e6 3a ab 8c 95 ba
       0.0061314846 0.001995331 0.0017577999 -0.001140972
000340 34 1f 2d 39 b9 1f b4 39 af f3 9c bb 1e df 38 3a
       0.0001651019 0.0003435591 -0.0047897915 0.000705229
000350 3a 95 4d bc 5e c0 18 3b e5 bd 44 3b 0c a2 b5 3b
       -0.012547785 0.002330802 0.0030020413 0.005542999
000360 93 35 06 bc 23 81 07 3c b8 e7 21 bc 2b db 0c bb
       -0.008191484 0.008270535 -0.009881906 -0.002149294
000370 eb 29 0c bc ad ae 2c bc 20 1f 96 bc e7 b8 a9 3c
       -0.008554916 -0.010539693 -0.018325388 0.020718051
000380 d7 b1 00 ba 2a a0 77 bc 37 8d 73 3c 57 4c 9a 3a
       -0.00049093127 -0.01511387 0.014865211 0.0011772019
000390 ab 76 30 bc e8 f8 1a 3a 3d 99 ed 38 b4 fd 83 3c
       -0.01077048 0.0005911724 0.000113295835 0.016112186
0003a0 97 f7 a9 3a 9b 58 b5 bb 88 ac 0c bc 40 51 96 ba
       0.0012967464 -0.0055342442 -0.0085860565 -0.0011468306
0003b0 37 22 34 bb 43 17 07 bb 62 8b eb bb 2b 2a 98 bc
       -0.0027486214 -0.002061323 -0.0071882466 -0.018574795
0003c0 0d ed 4f 3a 3d 80 63 3c 1f 9e 45 bb d4 b3 31 ba
       0.00079317467 0.013885555 -0.0030154062 -0.00067788106
0003d0 32 70 5f bc f3 1c 92 bc 13 8f 43 bc 1b 47 30 3c
       -0.013637589 -0.01783607 -0.011935967 0.01075914
0003e0 6a 00 3e bc 3e ac 01 bc 2b f0 14 3c e6 85 32 3c
       -0.011596778 -0.007914601 0.009090464 0.010896182
0003f0 77 56 50 3b 90 b4 cf bb 27 57 aa 3b e5 7d f2 3a
       0.0031789818 -0.0063386634 0.0051983777 0.0018500654

action_model._discrete_distribution.branches.1.bias f4 [2]
000000 00 00 00 00 00 00 00 00
       0.0 0.0
