results/ppo/Player Behaviour/Player Behaviour-1154.onnx (onnx, 76643 bytes, 11 tensors)

discrete_action_output_shape f4 [1, 3]
00000000: 0000 4040 0000 0040 0000 0040
3.0 2.0 2.0

network_body._body_endoder.seq_layers.0.weight f4 [128, 5]
00000000: a358 103f 20ac 6cbe 7ebf 963e fd96 173f
00000010: ecfc 03bd 78ad b13e 3c4a 863f 041c b7be
00000020: c1b8 733d 7228 133f 4d52 223f 3262 86bf
00000030: 2b6d bdbd a7c6 efbe 5f46 1fbf cf38 813e
00000040: 8361 f7be 584f 59be 4163 e63e e1cf fdbe
00000050: 0426 3f3f 5aa3 ba3f da47 7f3d 6c3e dd3e
00000060: 49f9 ecbd a399 ddbd ff2a 4b3e aab4 403e
00000070: ba45 253e 9b9b f73d e275 f83e 76bc ce3e
00000080: 86e8 b5be 416c 8dbf c565 e93e 5a7e 513c
00000090: 5a39 1fbf c65d 95be bc60 20be d939 4b3d
000000a0: 93f9 0abf 3ce7 a53e f881 0e3d 6f09 1fbf
000000b0: 9af9 c9be 31f4 04bd e071 7ebe c79c cc3d
000000c0: 3563 8dbe 0cc5 183f ffeb 6abd c1bb c53b
000000d0: 9d8f c5be cd51 a63b 5a3d 24bf f24c e23e
000000e0: 7506 453f 46a7 673f 4c9a cebe 5d50 403e
000000f0: 6633 093e 33c8 afbd cc0c 28bf d4dc 29bf
00000100: ebcc ba3d 8c6c a5be 9b49 6e3d 85a6 e1be
00000110: 15b2 5fbe d17e 44bf b617 a63c 1c00 2d3f
00000120: 485d 08bf e927 efbd 1922 1a3f 164f 153f
00000130: f630 f3bd e771 42be b5aa f6be 4f8a 22be
00000140: 016e 6e3e e7d6 0bbf 1553 ecbe a70c 6f3e
00000150: e998 a8bd cbfa 863e a6e6 003f 501a 033f
00000160: bfbe b23e a62b 7d3e d6a2 373f 24bd b3be
00000170: ead8 853f 2b6a f23e ce35 173f 1e59 2e3f
00000180: 300f f93e c900 88be 6bfe cb3e b044 0fbf
00000190: b0fb 3dbf 1e4d 483e 1ce5 243f c9f3 21be
000001a0: af84 613e 2646 bf3e 50ea 963e ec7b 253e
000001b0: 481b ea3e f311 70be 4ca6 2cbd 8c1a 923f
000001c0: 4f40 4f3d e80d be3e a7c1 df3d 3c90 76be
000001d0: fb3c d23e 74b1 17be 6916 74be b8c8 983e
000001e0: 0488 79bd 0513 243e 73f8 0b3f 45b0 dcbe
000001f0: e77d 1ebf df71 39bf b174 94bd e4a7 31bb
00000200: 5999 233f cab3 123e 31a9 3d3e 2ff6 b63e
00000210: d971 aebe 1794 71be 8cbf 343f eb11 053f
00000220: 55ca 443e 231a 58bf 6d6a 943e f146 42be
00000230: 0ac1 4f3e b8c2 c83d 42d9 7a3d 58ab babe
00000240: 9b9b 943e 653f 3c3f 5fcf bb3d 7e02 5f3f
00000250: 2751 18bf 9646 26bf c376 263f c148 45be
00000260: d143 ed3d ff44 0ebf b96c dabe c4c0 83be
00000270: dd51 e1bd f072 0b3f 59d7 b7bc 1509 29bf
00000280: e62b 3b3e fef4 3abf 5ac9 9e3e 2d58 393e
00000290: c9d2 c83e dafe 1b3f ad31 333c 068f af3c
000002a0: a2c2 fabc 8689 adbe 50ec 79be 236f 43be
000002b0: f8ec 33bf f440 30bf eaa5 e4be f526 053f
000002c0: 983e db3e 0626 c93d 473e a03e 69b8 e43e
000002d0: 97ae 473e 4b79 1d3e 0780 4d3f b3a9 08bf
000002e0: 8e4d 093d 9d9a 90be 2dbe eb3e 984b 933e
000002f0: e980 f1bd 5ae4 e63e 6a90 babe cfcf 0dbf
00000300: 3f83 05bf 68a3 2ebd b266 b13e d19d b53b
00000310: 7f7b dc3e 9cc1 5d3f cd8d f43e a707 3a3e
00000320: c367 79be 65d8 0dbf 7c71 99bf bf8c dcbe
00000330: ffcd 56be bb9e 38be 1406 0fbf aad4 4bbe
00000340: 4a53 f1be e1f6 a83e 62f7 903d ea69 693e
00000350: deea 663c 1503 08bf 6647 ebbd c0db 58bf
00000360: 8ebe 123f d833 4fbe cf9f c53e e860 dd3e
00000370: 4305 3e3f cd30 30be b645 3ebe ae5d 59be
00000380: e4c9 dfbc 3d80 79be a369 2d3d c461 07bf
00000390: c0e4 593e fe9c 0a3f d02a 943f 3763 aabe
000003a0: 0677 8abe 3055 c93d 677d 803e 3ee8 0b3e
000003b0: 95fe 1d3f cd40 03be 339e 623e 38fe d4be
000003c0: a8ec 3a3e 835e c4be a8a5 303e a2dd e0be
000003d0: 6606 ec3e a088 cebd 1379 3bbe f42f 43bf
000003e0: d096 ecbd 09f0 30bf 0480 ad3e 83e9 a63e
000003f0: ca13 df3e 9b8b 30bf c807 36bf 101d 98bd
0.5638525 -0.23112535 0.29442972 0.59214765 -0.032223627 0.3470266 1.0491405 -0.35763562
0.059502367 0.5748359 0.6340683 -1.0498717 -0.09249338 -0.46831247 -0.6221675 0.25238654
-0.48316583 -0.21221673 0.449976 -0.49572662 0.7466738 1.4581101 0.062324382 0.43211687
-0.11570985 -0.108203195 0.1984062 0.18818918 0.1613988 0.12090226 0.48527437 0.4037816
-0.35528964 -1.1048661 0.45585456 0.012786472 -0.62196887 -0.29173106 -0.15661901 0.049615715
-0.5428707 0.3240298 0.034791917 -0.6212377 -0.39448243 -0.03245944 -0.24848127 0.099908404
-0.2761475 0.5967567 -0.05735397 0.006034345 -0.3858613 0.0050756694 -0.64156115 0.4419933
0.7696298 0.90489614 -0.40352094 0.18780656 0.13398513 -0.08583107 -0.65644526 -0.6635258
0.09121116 -0.32309377 0.058175664 -0.44072357 -0.21845277 -0.76756006 0.020274978 0.6757829
-0.53267336 -0.11677534 0.6020828 0.583238 -0.11874573 -0.18988763 -0.48177114 -0.15873073
0.2328415 -0.5462479 -0.46157137 0.2334467 -0.0823229 0.26363215 0.5035194 0.51212025
0.34911153 0.24723682 0.7173284 -0.3510524 1.0456822 0.47346625 0.59066474 0.6810473
0.486444 -0.265631 0.39842543 -0.55964184 -0.7421217 0.19560668 0.64412093 -0.15815653
0.22023271 0.37358207 0.2947564 0.16160554 0.4572394 -0.23444347 -0.04215078 1.1414351
0.05059844 0.37119985 0.10925608 -0.24078459 0.4106215 -0.14813787 -0.23836674 0.29840636
-0.06092073 0.1602288 0.5467598 -0.43103233 -0.6191086 -0.7243938 -0.072488196 -0.0027108127
0.63905865 0.14326397 0.18521573 0.35734698 -0.34071234 -0.23591648 0.7060478 0.51980466
0.19217809 -0.8441488 0.28987446 -0.18972374 0.20288482 0.09802765 0.06124235 -0.3645885
0.29024968 0.7353423 0.09170412 0.8711318 -0.5949883 -0.64951456 0.65024966 -0.19266035
0.115852006 -0.5557403 -0.42661074 -0.25733006 -0.11001942 0.54472256 -0.022441553 -0.66029483
0.18278465 -0.7303008 0.31012994 0.18100043 0.39223316 0.6093575 0.010937137 0.021430504
-0.030610386 -0.33893985 -0.24406552 -0.19085364 -0.7028346 -0.6884911 -0.44657832 0.5201257
0.42821193 0.098217055 0.31297514 0.44671944 0.19500194 0.15378301 0.8027348 -0.5338394
0.033521228 -0.2824296 0.4604353 0.2876861 -0.11792166 0.45096093 -0.36438304 -0.55395216
-0.5215339 -0.042636305 0.34648663 0.005542495 0.4306297 0.8662355 0.47764435 0.18166982
-0.24355988 -0.55408317 -1.1987758 -0.4307613 -0.20977019 -0.18029301 -0.5586865 -0.19905344
-0.47133857 0.33000854 0.070784345 0.2279431 0.014094083 -0.531297 -0.114882275 -0.8471031
0.57322013 -0.2023462 0.38598487 0.43237996 0.7422678 -0.17206116 -0.1858128 -0.21227142
-0.027317949 -0.24365325 0.04233707 -0.52883554 0.21278667 0.541458 1.1575565 -0.3327882
-0.27043933 0.09830701 0.25095674 0.13662812 0.61716586 -0.12817688 0.2213066 -0.41600204
0.1825434 -0.38353357 0.17250693 -0.43919092 0.46098632 -0.10084653 -0.18307905 -0.76245046
-0.11552203 -0.69116265 0.3388673 0.3260003 0.43569785 -0.6896302 -0.71105623 -0.07427418

network_body._body_endoder.seq_layers.0.bias f4 [128]
00000000: 0000 0000 0000 0000 0000 0000 0000 0000
00000010: 0000 0000 0000 0000 0000 0000 0000 0000
00000020: 0000 0000 0000 0000 0000 0000 0000 0000
00000030: 0000 0000 0000 0000 0000 0000 0000 0000
00000040: 0000 0000 0000 0000 0000 0000 0000 0000
00000050: 0000 0000 0000 0000 0000 0000 0000 0000
00000060: 0000 0000 0000 0000 0000 0000 0000 0000
00000070: 0000 0000 0000 0000 0000 0000 0000 0000
00000080: 0000 0000 0000 0000 0000 0000 0000 0000
00000090: 0000 0000 0000 0000 0000 0000 0000 0000
000000a0: 0000 0000 0000 0000 0000 0000 0000 0000
000000b0: 0000 0000 0000 0000 0000 0000 0000 0000
000000c0: 0000 0000 0000 0000 0000 0000 0000 0000
000000d0: 0000 0000 0000 0000 0000 0000 0000 0000
000000e0: 0000 0000 0000 0000 0000 0000 0000 0000
000000f0: 0000 0000 0000 0000 0000 0000 0000 0000
00000100: 0000 0000 0000 0000 0000 0000 0000 0000
00000110: 0000 0000 0000 0000 0000 0000 0000 0000
00000120: 0000 0000 0000 0000 0000 0000 0000 0000
00000130: 0000 0000 0000 0000 0000 0000 0000 0000
00000140: 0000 0000 0000 0000 0000 0000 0000 0000
00000150: 0000 0000 0000 0000 0000 0000 0000 0000
00000160: 0000 0000 0000 0000 0000 0000 0000 0000
00000170: 0000 0000 0000 0000 0000 0000 0000 0000
00000180: 0000 0000 0000 0000 0000 0000 0000 0000
00000190: 0000 0000 0000 0000 0000 0000 0000 0000
000001a0: 0000 0000 0000 0000 0000 0000 0000 0000
000001b0: 0000 0000 0000 0000 0000 0000 0000 0000
000001c0: 0000 0000 0000 0000 0000 0000 0000 0000
000001d0: 0000 0000 0000 0000 0000 0000 0000 0000
000001e0: 0000 0000 0000 0000 0000 0000 0000 0000
000001f0: 0000 0000 0000 0000 0000 0000 0000 0000
0.0 0.0 0.0 0.0 0.0 0.0 0.0 0.0
0.0 0.0 0.0 0.0 0.0 0.0 0.0 0.0
0.0 0.0 0.0 0.0 0.0 0.0 0.0 0.0
0.0 0.0 0.0 0.0 0.0 0.0 0.0 0.0
0.0 0.0 0.0 0.0 0.0 0.0 0.0 0.0
0.0 0.0 0.0 0.0 0.0 0.0 0.0 0.0
0.0 0.0 0.0 0.0 0.0 0.0 0.0 0.0
0.0 0.0 0.0 0.0 0.0 0.0 0.0 0.0
0.0 0.0 0.0 0.0 0.0 0.0 0.0 0.0
0.0 0.0 0.0 0.0 0.0 0.0 0.0 0.0
0.0 0.0 0.0 0.0 0.0 0.0 0.0 0.0
0.0 0.0 0.0 0.0 0.0 0.0 0.0 0.0
0.0 0.0 0.0 0.0 0.0 0.0 0.0 0.0
0.0 0.0 0.0 0.0 0.0 0.0 0.0 0.0
0.0 0.0 0.0 0.0 0.0 0.0 0.0 0.0
0.0 0.0 0.0 0.0 0.0 0.0 0.0 0.0

network_body._body_endoder.seq_layers.2.weight f4 [128, 128]
00000000: 7c97 943d 8fe6 edbc 67c4 823d 7a40 0fbd
00000010: acd8 b9bd 71db f53c 67b9 95bd 93df 92be
00000020: 00e7 153d 2a52 843d bfae 87bd 71a9 c13c
00000030: fd31 00bb 7ee3 e43c e351 46bc b023 53bd
00000040: 8391 1dbd 6c95 513e e5ed 8abd 08b1 e6bb
00000050: 861b c03d e589 b5bd a78e 483d dcc7 fd3c
00000060: 8bfa b73c 2f4b a23d cc40 873d 8a29 ecbd
00000070: 0293 3ebd fe5f 52be 0ab7 ae3c 639f efbd
00000080: bea9 e73d b44e 2fbd bbac 493d 725f 5abe
00000090: 2e9d 21bd 7fd4 dc3d 98d1 7b3d e30c a9bb
000000a0: 889d bd3d e26a 99bd 27b9 e5bd 27cb 143d
000000b0: bcc3 6cbd 00b5 c43d 3664 c73d 8205 e73d
000000c0: 8122 c8bd 958b ba3a 7006 913d 3c96 e53d
000000d0: a011 b1bd 9c16 ea3d 233c c43c 8998 c93c
000000e0: 5311 94bd 6197 463e be8a b5b9 a4a7 333c
000000f0: ff11 d2bd b887 163d 4f98 8eba 8854 193d
00000100: 9405 d83c 67e9 52be f7d5 b83d 3419 2b3d
00000110: ea0a d5bd 1dfc 83bb 148c 70bd 9962 18be
00000120: 51ff 17bd b058 803d 70d5 22be 2afe 0cbe
00000130: 9cba 96bd 4457 2ebd b525 713c 6c76 dfbd
00000140: cd3e 753d 5afb 11bc 06b3 19bd 4ec4 b7bc
00000150: 5a91 2ebd 77c7 cebc 6758 a6bc 6c71 a7bc
00000160: 58fc 96bd f5ec acba 5022 41bd c0a2 583d
00000170: 1827 8dbc 8f46 9dbd eb81 12be 5607 4cbd
00000180: 7467 b73c 07a3 723c 688b d4bd 66e0 0a3e
00000190: 8093 e13d aa84 2abe 11cc a63d 7a8f 9ebc
000001a0: 39e3 23bd cb81 96bd 5b79 b2bd 6dd0 313d
000001b0: 66d4 203e 6206 163e 1668 e63c 5fe4 5cbd
000001c0: e89d dbbd 646d 873d ea9a c13d d6ab bf3d
000001d0: fd45 cd3d 60a0 353d e9d7 12bc b0b7 a5bd
000001e0: 5cce a0bd c026 bf39 c8fe 67bc 21d5 12bd
000001f0: bb8b 9ebd 4bda d33c 6029 ad3d 58c6 133e
00000200: a59c 1ebc f382 b03d e4dd bd3c e08f a9bd
00000210: e8bf 21bc 051f e2bc c4eb 2fbd adc0 bdbd
00000220: 920f 003e e9dd 96be 4041 793d 605e 18bc
00000230: 6f6e c8bd aa62 bebd 6728 d73c 8166 50bd
00000240: 52c4 0b3d 68b0 92bd 0c29 2dbd a31c b73d
00000250: 5194 d53d 73c4 bcbc afe6 ad3a 30a4 943d
00000260: 6ca9 163d 49f9 83bd d722 7f3d 26d8 48bd
00000270: a914 df3c 0643 0e3c 3cca 4b3d 7d15 913d
00000280: 6a94 4e3c c700 9bbd 53a9 d0bd 90e0 dfbc
00000290: e4ac 473e 1441 a2bc a5fb ed3d 7503 233c
000002a0: 8eec 9e3d 6316 29bd de94 c6bd 2ac7 543d
000002b0: f931 943d ba99 93bc 1b60 b5bd dadc 463e
000002c0: 56cf 2f3c 2c51 cb3d 036a babd e5c3 bf3d
000002d0: 5ff7 c7bd abe8 023d 02db fabd 94e4 bebd
000002e0: 5dd2 32bc f72d 8a3d ad8a f1bd 5825 343c
000002f0: 9b27 0b3d c0c5 b4bd 4f0b 3ebd 229a 593d
00000300: ce4d 963d 896c ec3d 83d9 773c e36c c33d
00000310: a825 413d 9ce9 22be f6d8 863d 50b7 c9b9
00000320: 0fe3 61be 6ca9 2e3e e801 b6bd ebb2 c6bd
00000330: c62e 76bc a1eb 4f3d 7215 1d3d 35fc 66be
00000340: 631f d2bc bb0d 3bbd 4927 e7bd 911f 4a3d
00000350: 12fa 7a3d 49ef 29bd 9178 38bd 23f8 89bb
00000360: c6ec de3d c368 00be 86db a4bd 5950 0a3e
00000370: 7009 bb3c c617 b9bd 6da5 ebbc 28e8 0abd
00000380: 0024 a13c 59df 19bd 886a e8bc c040 8a3d
00000390: 80ec 213b d89a 4cbd 9618 d33d ea7a c63d
000003a0: 5d7c 603e 4adb 1dbd 50c2 863c f4de 113b
000003b0: 030a 563d ba27 c23c 1223 d33d e46e e4bd
000003c0: 2052 ea3c 3e1f a83d 84a2 56bd 1076 fd3c
000003d0: 91c3 beb9 dc05 873d cb1e 7dbd c24d 43bd
000003e0: d0b4 943c 2645 1ebe 4467 393d bbd5 c2bd
000003f0: 03c1 8ebd a5e8 8abd 511a b13d 94b2 3ebd
0.07255456 -0.029040603 0.06385117 -0.0349736 -0.0907453 0.030011864 -0.07310753 -0.286862
0.036597252 0.06460984 -0.06625127 0.023640366 -0.0019561045 0.027940508 -0.012104484 -0.051547706
-0.03846885 0.20467156 -0.06783656 -0.0070401467 0.0938025 -0.08864192 0.04896417 0.03097909
0.022458335 0.079244964 0.06604156 -0.115313604 -0.046526916 -0.2054443 0.021327514 -0.117003225
0.11311673 -0.042799667 0.049236994 -0.21325472 -0.03945654 0.10782718 0.06147918 -0.005159007
0.09258562 -0.074910894 -0.11216956 0.036326554 -0.057803854 0.096048355 0.097359106 0.112803474
-0.09772206 0.0014232273 0.07081306 0.112102956 -0.0864594 0.11430094 0.023954457 0.024608867
-0.07229867 0.19393684 -0.0003462638 0.010965262 -0.10257339 0.036750525 -0.0010879132 0.03743413
0.026369847 -0.20596848 0.090251856 0.041772082 -0.10402472 -0.004027857 -0.05872734 -0.14881362
-0.037108723 0.06266916 -0.15901732 -0.13768831 -0.07359812 -0.04256369 0.014718463 -0.10911259
0.059874345 -0.008910025 -0.037524246 -0.022432473 -0.042619087 -0.025241597 -0.020305825 -0.020439826
-0.073723495 -0.0013193177 -0.047151864 0.052889585 -0.017230555 -0.076794736 -0.14307372 -0.049811684
0.022388197 0.014809377 -0.10378152 0.13562164 0.110144615 -0.1665217 0.08144391 -0.019355524
-0.04001162 -0.07348975 -0.08714553 0.04341166 0.15706024 0.14650872 0.028125804 -0.05392873
-0.107234776 0.066126615 0.09453376 0.09358947 0.10023115 0.0443424 -0.00896261 -0.08091676
-0.0785186 0.0003645923 -0.014159866 -0.035847787 -0.07741495 0.025860926 0.08455157 0.14431131
-0.009680902 0.086187266 0.023177095 -0.08279395 -0.009872414 -0.027602682 -0.042949453 -0.092652656
0.1250594 -0.2946618 0.060853243 -0.0092998445 -0.097866885 -0.092961624 0.026264383 -0.050879005
0.034122773 -0.07162553 -0.042275473 0.08941009 0.1042868 -0.023042893 0.0013267602 0.07257879
0.036782667 -0.06444032 0.062289085 -0.04903426 0.027231531 0.008682972 0.049753413 0.07084177
0.012608627 -0.07568508 -0.10188546 -0.02732876 0.19499546 -0.019806422 0.11620263 0.009949555
0.07759963 -0.041281115 -0.09696363 0.05194775 0.07236094 -0.018017638 -0.08856221 0.19420186
0.010730585 0.09927592 -0.091022514 0.09363536 -0.09763979 0.03196017 -0.12248804 -0.093209416
-0.010914412 0.06747048 -0.117940284 0.010995232 0.033973318 -0.0882678 -0.046397503 0.053125508
0.07339059 0.11544139 0.015127542 0.09542253 0.047155052 -0.15909427 0.06584351 -0.00038474286
-0.22059272 0.17056817 -0.08887082 -0.09702095 -0.0150258 0.050761823 0.03835053 -0.22557147
-0.025649732 -0.04566739 -0.1128679 0.04934651 0.061273642 -0.041487966 -0.045036856 -0.0042104884
0.10885005 -0.12539963 -0.08049683 0.13507213 0.022831649 -0.090377375 -0.028765405 -0.033912808
0.019670486 -0.037566517 -0.02837111 0.06750631 0.0024707615 -0.049952358 0.10307424 0.09691413
0.21922441 -0.03853921 0.016450077 0.0022258135 0.05225564 0.023700584 0.103094235 -0.11153963
0.028603613 0.08209084 -0.05240108 0.030940086 -0.00036385332 0.065929145 -0.061796945 -0.047681578
0.018152624 -0.15456066 0.045264497 -0.09513422 -0.06970408 -0.06782655 0.086475976 -0.046557024

network_body._body_endoder.seq_layers.2.bias f4 [128]
00000000: 0000 0000 0000 0000 0000 0000 0000 0000
00000010: 0000 0000 0000 0000 0000 0000 0000 0000
00000020: 0000 0000 0000 0000 0000 0000 0000 0000
00000030: 0000 0000 0000 0000 0000 0000 0000 0000
00000040: 0000 0000 0000 0000 0000 0000 0000 0000
00000050: 0000 0000 0000 0000 0000 0000 0000 0000
00000060: 0000 0000 0000 0000 0000 0000 0000 0000
00000070: 0000 0000 0000 0000 0000 0000 0000 0000
00000080: 0000 0000 0000 0000 0000 0000 0000 0000
00000090: 0000 0000 0000 0000 0000 0000 0000 0000
000000a0: 0000 0000 0000 0000 0000 0000 0000 0000
000000b0: 0000 0000 0000 0000 0000 0000 0000 0000
000000c0: 0000 0000 0000 0000 0000 0000 0000 0000
000000d0: 0000 0000 0000 0000 0000 0000 0000 0000
000000e0: 0000 0000 0000 0000 0000 0000 0000 0000
000000f0: 0000 0000 0000 0000 0000 0000 0000 0000
00000100: 0000 0000 0000 0000 0000 0000 0000 0000
00000110: 0000 0000 0000 0000 0000 0000 0000 0000
00000120: 0000 0000 0000 0000 0000 0000 0000 0000
00000130: 0000 0000 0000 0000 0000 0000 0000 0000
00000140: 0000 0000 0000 0000 0000 0000 0000 0000
00000150: 0000 0000 0000 0000 0000 0000 0000 0000
00000160: 0000 0000 0000 0000 0000 0000 0000 0000
00000170: 0000 0000 0000 0000 0000 0000 0000 0000
00000180: 0000 0000 0000 0000 0000 0000 0000 0000
00000190: 0000 0000 0000 0000 0000 0000 0000 0000
000001a0: 0000 0000 0000 0000 0000 0000 0000 0000
000001b0: 0000 0000 0000 0000 0000 0000 0000 0000
000001c0: 0000 0000 0000 0000 0000 0000 0000 0000
000001d0: 0000 0000 0000 0000 0000 0000 0000 0000
000001e0: 0000 0000 0000 0000 0000 0000 0000 0000
000001f0: 0000 0000 0000 0000 0000 0000 0000 0000
0.0 0.0 0.0 0.0 0.0 0.0 0.0 0.0
0.0 0.0 0.0 0.0 0.0 0.0 0.0 0.0
0.0 0.0 0.0 0.0 0.0 0.0 0.0 0.0
0.0 0.0 0.0 0.0 0.0 0.0 0.0 0.0
0.0 0.0 0.0 0.0 0.0 0.0 0.0 0.0
0.0 0.0 0.0 0.0 0.0 0.0 0.0 0.0
0.0 0.0 0.0 0.0 0.0 0.0 0.0 0.0
0.0 0.0 0.0 0.0 0.0 0.0 0.0 0.0
0.0 0.0 0.0 0.0 0.0 0.0 0.0 0.0
0.0 0.0 0.0 0.0 0.0 0.0 0.0 0.0
0.0 0.0 0.0 0.0 0.0 0.0 0.0 0.0
0.0 0.0 0.0 0.0 0.0 0.0 0.0 0.0
0.0 0.0 0.0 0.0 0.0 0.0 0.0 0.0
0.0 0.0 0.0 0.0 0.0 0.0 0.0 0.0
0.0 0.0 0.0 0.0 0.0 0.0 0.0 0.0
0.0 0.0 0.0 0.0 0.0 0.0 0.0 0.0

action_model._discrete_distribution.branches.0.weight f4 [3, 128]
00000000: 9392 943c 8e74 033c b7a6 5eba 20c1 6a3c
00000010: 1d19 d4bb 5787 91bc 46a6 8bba 4f5d 0d3b
00000020: d772 a5bc 16a8 3fbb fd4f a83b 8648 39b8
00000030: 43d3 03bc 7778 9c3b b7f6 36bb 1ac1 03b9
00000040: da79 7dba dbc7 42bb 7a0a db36 364d 3bba
00000050: fd0a afbb df7d 3abb d6e4 2ebc 6570 6a3b
00000060: ccff a83a 78ec 4d3c bd70 f93b 6bfc 82bb
00000070: 178b 163b 7b5f 673c ea33 973b a27c ba3c
00000080: b98c 27bc f0eb 9bbb d321 f83b 1a07 183b
00000090: c861 1cbc 6aa8 d53b 33a8 0d3b 3b62 20bc
000000a0: 9890 e1bb 2f54 bbba a99e 043c 4886 d43b
000000b0: 1864 91bc 792b 4b3c 0f71 abbb 7cea b0ba
000000c0: 72a9 5ebb 8f73 49bb bbe9 643b 2b89 18bb
000000d0: 0bcd 7bba 4fde 4b3c 6b66 68ba 93c6 3cbb
000000e0: f548 7abc cfd7 77bb 5caf c3bb ff36 38bc
000000f0: aa20 8a3b 38be e33b d6ef bc3b 32c6 90ba
00000100: c750 003c 9ad0 2bbc cf62 163b 3389 f7ba
00000110: 68f5 4cbc 87e5 733c 6779 4d3c 1af3 d73b
00000120: a173 b73b d371 8dbb 5a96 09bc afb1 8ebb
00000130: 6415 1239 814c bcbb 5d67 d63b a211 26bc
00000140: a7e1 0abc 702c a9bb 6b14 ea3a bd33 5eba
00000150: b50a 463a 13e4 a3ba 6c07 2339 7398 60bc
00000160: 3fb1 4d3b 5a09 d63b d8c5 723b 9fe4 033b
00000170: a90d 96bc a33e f6bb 474d 203c 2a50 3cbc
00000180: eaa3 a4bb aba5 87bb c301 3a39 9304 c33b
00000190: 3a52 dbba 92ba 823b c386 ec3b d7f7 653c
000001a0: e82a 4a3c af2a 9dbc 01c6 453b 60f8 09bb
000001b0: 803b 653b 0f7b 85bc 8651 2ebc 2fed 0dbc
000001c0: 58d8 d73b e548 5238 7694 1bbc d2e0 01bc
000001d0: bfef 2c3c 0594 033b 005e 9abb 8b3c 57bc
000001e0: 7d68 673c 770e ee3b 524f 2abc 08d5 2bbb
000001f0: b3b9 0f3c 3eef 203c 37db 7c3b 84ce 12bc
00000200: e790 7ebb 9d15 933b 3b13 fa3a bd10 7e3a
00000210: daab 70bc e226 fd3b 43e6 59bc 082b f43b
00000220: 1faa 1e3c 18be d03b 36f2 023c 9b34 9d3a
00000230: 9ddb 4bbb e0ca 7a3b 607f cebb 57d9 2639
00000240: f567 e3bb 3fea 283b 226e 273c bb14 04bc
00000250: dd20 7a3b 6347 afbc 4cd6 853c b229 c7b9
00000260: b885 61bb 6fd3 b83b e8ca debb ba7a c23b
00000270: fd5a ce3b e344 cbbb c9f4 a1bb e03a afbb
00000280: b494 40ba a59b 9e3c aaac 1abb e437 0a3c
00000290: 942e 96ba f729 01bb a568 babc 8f86 e1b9
000002a0: 5ebb 1fbc ecf0 1e3b 6332 b3bb c723 72bb
000002b0: af09 683c d302 9dbb 2876 373c a37e 853b
000002c0: c8b5 adbb da57 d33b 413f 1ebb f376 1c3a
000002d0: 5952 07bc 708d a1bc e3e4 dc3b 4806 5fbb
000002e0: bf60 95bb 9364 b63b 5ac0 34b9 6032 e53a
000002f0: f8ae 9a3b 0bba 08bb fbc4 7d3c 2dd0 4a3c
00000300: 9f3b 03bb d7a2 323c f203 8cbc ffd2 923b
00000310: d0ac 2abb a735 f6bb ea01 dfbb 1810 b138
00000320: 5b25 be3a 0ee0 a3bc 7ca7 a13c 1844 e5bb
00000330: af9c 61bc 5b9a 443b abf3 333c 1c74 96bb
00000340: d50e 1fbb a76d c13b eba9 a83c fbda e6bb
00000350: 0782 24bc 36c8 923b 977f 363c 8b6e c4ba
00000360: 62b2 a0bb 839f 6e3c 7136 0c3c 3ff5 7abc
00000370: 57bc 083c 6225 ebbb b549 3f39 b112 053c
00000380: 42c9 193a 956b 3bbc 7d29 4fbb ff0e 4e3c
00000390: 9f83 f239 afd1 32bb 6bc2 86bb e037 983b
000003a0: 81d4 bbba 2f38 5dbb 1ad3 653c 88cb 51bb
000003b0: dda4 cdbb 016a 4a3b 313a bb3b f0dd 0dbc
000003c0: 9749 ee3b d51c 51bb 384b 7bbb a125 92bc
000003d0: a72e 91b9 331c 923b 1b70 41bb 93e5 2c3c
000003e0: 2f03 133c b8bd 7f3b 5735 413c daf7 79bc
000003f0: 7c62 8cbb bb95 5abb 072e ebbb 1f6d fabb
0.018136298 0.008023394 -0.00084934704 0.014328271 -0.0064727203 -0.01776473 -0.0010654412 0.0021570509
-0.020196361 -0.0029244474 0.0051364885 -4.417498e-05 -0.008045974 0.0047751027 -0.002791805 -0.0001256507
-0.00096693414 -0.0029721174 6.5279282e-06 -0.0007144989 -0.005341886 -0.0028456373 -0.010674676 0.0035772559
0.0012893616 0.012568586 0.0076123164 -0.0039973757 0.0022971088 0.014121885 0.004614343 0.022764508
-0.010226422 -0.0047583506 0.0075723915 0.0023197592 -0.009544797 0.0065203207 0.0021615147 -0.009789045
-0.006883692 -0.0014292056 0.008094468 0.006485734 -0.017747924 0.012400501 -0.0052319835 -0.0013497616
-0.003397551 -0.0030739044 0.0034929353 -0.0023275118 -0.0009605444 0.012443139 -0.0008865359 -0.0028804883
-0.015276183 -0.003781784 -0.005971832 -0.011243581 0.0042153196 0.006950166 0.0057658954 -0.0011045395
0.007831759 -0.010486746 0.0022947078 -0.0018885493 -0.012509681 0.014886267 0.012541152 0.0065902593
0.005598501 -0.0043165474 -0.008397663 -0.0043546776 0.00013931614 -0.0057464247 0.0065430836 -0.01013604
-0.008476651 -0.005162768 0.0017858868 -0.00084763375 0.0007554696 -0.0012503884 0.00015547656 -0.013708222
0.0031386164 0.0065318765 0.0037044194 0.0020125282 -0.01831706 -0.007514791 0.009784049 -0.011493722
-0.005024423 -0.004139622 0.00017738999 0.005951473 -0.001673288 0.003989526 0.0072182133 0.01403614
0.012339331 -0.019185392 0.0030177834 -0.0021052584 0.0034978092 -0.01629403 -0.010639554 -0.008662506
0.0065870695 5.013579e-05 -0.009495845 -0.0079271365 0.010555207 0.002007724 -0.0047109127 -0.013136993
0.014124033 0.007264908 -0.010394888 -0.0026219506 0.0087723015 0.009822665 0.003858281 -0.00896037
-0.0038843693 0.0044886605 0.0019079217 0.0009691825 -0.01468941 0.0077255825 -0.013299528 0.007451419
0.009684115 0.006370317 0.007992318 0.0011993827 -0.0031106242 0.0038267896 -0.0063018054 0.00015911959
-0.006939883 0.0025774387 0.010219129 -0.008061583 0.003816656 -0.021396345 0.016337536 -0.00037987303
-0.0034411978 0.005640439 -0.0067990907 0.0059350403 0.0062974677 -0.0062032803 -0.0049425107 -0.0053475946
-0.0007346377 0.019361326 -0.002360145 0.008436177 -0.0011457973 -0.001970885 -0.022754977 -0.00043015598
-0.009749262 0.0024252487 -0.005468653 -0.0036947594 0.014162465 -0.0047915964 0.011197604 0.004073934
-0.005301211 0.0064496817 -0.002414659 0.00059686525 -0.008259379 -0.019720763 0.0067411526 -0.0034030844
-0.004558652 0.0055661886 -0.00017237794 0.0017486326 0.004720565 -0.0020862843 0.015488858 0.012378735
-0.002002455 0.010903082 -0.017091725 0.004480719 -0.0026042946 -0.00751372 -0.006805648 8.4430154e-05
0.0014506982 -0.020004299 0.019733183 -0.006996643 -0.013770266 0.002999923 0.010983388 -0.004591478
-0.0024270315 0.005902964 0.020588836 -0.0070451475 -0.010040767 0.0044794334 0.011138818 -0.0014986558
-0.0049040774 0.014564398 0.008557902 -0.01531726 0.008345685 -0.0071760872 0.00018242637 0.008122132
0.00058664766 -0.011439224 -0.0031610422 0.012576818 0.00046255902 -0.0027285626 -0.004112532 0.0046453327
-0.0014330299 -0.0033755412 0.014027381 -0.0032012183 -0.0062757568 0.0030885937 0.005713724 -0.008658871
0.007271956 -0.0031908054 -0.0038344394 -0.017840208 -0.00027691314 0.004458928 -0.0029516283 0.010552782
0.008972927 0.0039022993 0.011792502 -0.015256846 -0.004284201 -0.0033353406 -0.0071771177 -0.007642403

action_model._discrete_distribution.branches.0.bias f4 [3]
00000000: 0000 0000 0000 0000 0000 0000
0.0 0.0 0.0

action_model._discrete_distribution.branches.1.weight f4 [2, 128]
00000000: 6fb5 2a3b c299 1dbc 5f7b 02bc 4f44 1bbc
00000010: d31d bdbb f14f abbb a236 f5bb 20dd 413b
00000020: 5368 b9bb 2c24 1238 bf84 ccbc 2183 8fbc
00000030: 64c0 83bc eb34 5b3c 4f78 b0bb 2bf9 d03a
00000040: 4812 cebb d08f 1fbc 537b 54ba f29e 1a3c
00000050: 5e9a b1bb 898e 0cbc a4ca 0fba 0a31 ab3b
00000060: 02fb 923b 03d4 9aba 2d72 7dbb 9a6d efba
00000070: 8d68 5fbc 11ea 81bb abc3 d33b 065b 443b
00000080: 22a1 b03b c82d aa3a 8710 09bd 3aa0 2c3c
00000090: dc5b 8e3b d1a9 823b 653f f3bb bff3 1d3c
000000a0: 433b 0ebc 9a35 2abc a4bd 1abc 8be6 323c
000000b0: 15bf f5bb e721 7cbb 6803 7d3c 9c5e 4c3c
000000c0: 7f94 c8ba 992d c63b 0a63 50bc db14 4cba
000000d0: fa1d 1e3c a291 4d3b 08fa 00bc 63d1 eebb
000000e0: 9dfe 853a d71e 59bc e5f5 75bb 9401 bd3b
000000f0: fa4e 62bb 9bc1 d93b 0936 c2bb 5fb7 b0ba
00000100: b7bd a03b 188a 8bbb a7cc 31bc 0fff 01bc
00000110: 4598 04ba f300 023c 5469 90bb 38ce d53b
00000120: 2e55 8bba 6860 74bb 7d08 f2bb 9a08 ddbb
00000130: 08ca eabb db94 49bb fa2b 11ba 68a9 4ebc
00000140: 4575 563c 1d36 023a e5d9 d5bb d7e4 80bb
00000150: e6d9 213c ad11 193c a33b 543c cf25 57ba
00000160: 9049 6a3b 776b 523b ed8a babc df4f 0cbc
00000170: cfac 97ba 0494 a5bc fb05 273c 921b e7bb
00000180: 52c5 153c d054 db3b e4fc 483b 0b45 fc3b
00000190: 87e6 d73b 5275 33bb 7334 f6bb ca8b 70bc
000001a0: e07f 2f3c 2b9d 013c 6d14 f03b ae92 8eba
000001b0: 0756 c3bb b11f b43b 9dc8 543a b558 1f3c
000001c0: ca35 8abb b1a6 01bc 23a3 9aba 0890 e43b
000001d0: 246e 04bc ebb1 4a3a a2f5 54bc 43ad 683c
000001e0: 2b9d 32bc d15f b7ba d7a3 d8bc f9a3 b63b
000001f0: 434c 423c 4a39 583a fa9f 353c a728 9a3c
00000200: c24b 9b3b 9de3 71bc fa02 ea3b 6f79 123c
00000210: 46e2 b6bb ee47 173b 9710 883a c3d8 07bc
00000220: fb2c 59bc 277f fb3b 7eb3 15bc ffba 21bc
00000230: 5a2e 583b d968 b53b c8a6 503b da45 293c
00000240: 6d39 873b 3d3b c0bb 4346 f03a bd9b b2bb
00000250: 4579 e1b9 0bd9 89bc effa 6f3c adc1 633a
00000260: 47c8 ee3b d0f2 633c ff52 39bb cf1e 1ebc
00000270: a34a c6bc 95f9 013c c04f 0cbc 35fd 0fbb
00000280: e14c 16bb a2aa 0fbb 488d 5b3b c20a cd3b
00000290: 5f03 9fbb 2b7f 163c b129 b83c 76bd 8abc
000002a0: ab7a de3a cde2 6d3c 6665 32bc 2890 2a3c
000002b0: 155f 1ebc 382b 8fbb c829 983b 09a7 a73a
000002c0: 29af c53b 07b3 96b7 1aa8 d53b b58f d13b
000002d0: 9817 b63b 94fa 8fbb 2806 ed3a 7e8d bb3a
000002e0: 2be2 1a3c 811e 34bc 6e0e a2bc dc56 a9bb
000002f0: 8ffc f1bb ef0b 96b9 9014 25bc fa66 ef3a
00000300: 0033 8ebc 9048 353a 8594 01bc 2218 a73b
00000310: ba15 a6b8 762a 983c 9b4b 09bb 5d6f fabb
00000320: 0f1d 02bc 7668 02bc 6ef8 913c 839c 16b9
00000330: 7c71 21bb 3a75 703c e024 c03b ab0d bb3b
00000340: 83a6 503c e21e 0a3b a102 9fbb 45e9 f43b
00000350: f540 ecbb 8b2c 38bb b514 07bb 38b5 1bbc
00000360: ef72 f53b e3d7 f53b 5c2b 2ebb 5519 653c
00000370: 7749 efbb 26f8 99ba b0eb 53ba af4a ccba
00000380: ffe1 78bb 1c52 933a 8e09 1b3c 8305 bfbb
00000390: 979e 3f3c 8828 a0ba 6753 f63b 6c45 84bc
000003a0: 63d2 423c 2779 533a 146d 013c b0c9 78bb
000003b0: 0fac e23a 8b35 133b 36d9 3c3c 9519 243c
000003c0: 62d2 593b b528 493c 739d 24bc f41b 8f3b
000003d0: f3f1 95ba 6f05 913c d0f3 bbba e411 483c
000003e0: ecc9 453b 9fd9 0d3c a2ad e93b 270b b6b7
000003f0: 0e21 8dba 5abe 513c 1661 1b3b d520 bfbb
0.0026048084 -0.009619178 -0.007963984 -0.009476735 -0.0057713776 -0.0052280356 -0.0074833194 0.0029581264
-0.0056581884 3.48428e-05 -0.024965642 -0.017518582 -0.01608295 0.013379316 -0.0053854357 0.0015943398
-0.0062888004 -0.009738877 -0.0008105535 0.00943731 -0.0054200133 -0.008578905 -0.0005485213 0.005224352
0.004485489 -0.0011812452 -0.003867279 -0.0018266917 -0.013635767 -0.0039646705 0.0064625344 0.002996148
0.0053903023 0.0012983615 -0.033463027 0.010536248 0.0043444466 0.003987529 -0.0074233287 0.009640633
-0.008681121 -0.010388756 -0.009444628 0.010919224 -0.0074995854 -0.0038472356 0.015442707 0.0124737285
-0.0015303044 0.006047916 -0.012718925 -0.000778509 0.009650702 0.0031367321 -0.007872112 -0.0072881444
0.0010222975 -0.013251982 -0.0037530598 0.0057680104 -0.0034531937 0.006645394 -0.0059268516 -0.0013482383
0.0049054283 -0.0042584054 -0.010852016 -0.007934346 -0.00050580903 0.007934797 -0.0044070873 0.0065248273
-0.0010630244 -0.0037288908 -0.007386266 -0.00674541 -0.0071651973 -0.003075889 -0.0005537864 -0.012613632
0.013089483 0.000496717 -0.006526219 -0.00393353 0.009878611 0.009342593 0.012953672 -0.0008207233
0.0035749413 0.003210751 -0.022771323 -0.008563965 -0.0011571887 -0.02021218 0.010194297 -0.007052847
0.009141283 0.00669346 0.0030668313 0.0076986603 0.0065887603 -0.002738316 -0.0075135767 -0.014681766
0.01071164 0.007911007 0.0073266537 -0.0010877454 -0.005961183 0.005496942 0.0008117052 0.009725739
-0.004217838 -0.0079132775 -0.0011797886 0.0069751777 -0.0080829 0.00077322003 -0.012998017 0.014201465
-0.01090173 -0.0013990348 -0.026445312 0.0055737463 0.0118590025 0.0008248283 0.011085505 0.018818213
0.0047392556 -0.01476374 0.007141468 0.008940085 -0.005581173 0.0023083645 0.0010380921 -0.008291426
-0.013255353 0.00767507 -0.009137033 -0.0098712435 0.0032986612 0.0055361805 0.003183769 0.010331595
0.0041267187 -0.0058664368 0.0018331486 -0.0054506944 -0.00043005697 -0.016827127 0.01464723 0.0008688223
0.0072870585 0.0139128715 -0.002827823 -0.0096509 -0.024205511 0.00793304 -0.008563936 -0.0021970992
-0.0022934007 -0.0021921773 0.0033500958 0.006257386 -0.004852697 0.009185593 0.022480818 -0.016936045
0.0016973814 0.014519406 -0.010888433 0.010410346 -0.009666224 -0.0043691657 0.0046436526 0.0012790869
0.0060328436 -1.796476e-05 0.0065202834 0.006395305 0.005557012 -0.004393885 0.00180835 0.0014309136
0.009453337 -0.010993601 -0.019782271 -0.005167825 -0.0073848437 -0.0002861912 -0.010075703 0.0018264942
-0.017358303 0.00069154147 -0.007908945 0.0050993124 -7.919544e-05 0.018574934 -0.0020949605 -0.00764267
-0.007941498 -0.007959476 0.017818656 -0.0001436342 -0.0024634292 0.0146763865 0.005863771 0.0057084165
0.012735012 0.0021075536 -0.0048526083 0.007474097 -0.007209892 -0.0028102722 -0.0020611708 -0.009503655
0.007490508 0.0075025423 -0.0026576137 0.01398309 -0.007302459 -0.0011746928 -0.00080841314 -0.0015586222
-0.00379765 0.001123968 0.009462727 -0.0058295145 0.011695526 -0.001221911 0.0075172666 -0.016146384
0.01189098 0.00080670643 0.007899541 -0.0037962012 0.0017293709 0.0022462334 0.0115263965 0.010015865
0.003323697 0.012277772 -0.010047304 0.004367346 -0.0011439904 0.017702786 -0.001433963 0.012211297
0.003018017 0.008657842 0.0071312943 -2.1701284e-05 -0.0010767297 0.012801731 0.002370899 -0.0058327713

action_model._discrete_distribution.branches.1.bias f4 [2]
00000000: 0000 0000 0000 0000
0.0 0.0

action_model._discrete_distribution.branches.2.weight f4 [2, 128]
00000000: 40d0 9cbb 0616 07bc 79ad 123c 3292 4bbc
00000010: 58f7 bb3b f566 443b 0d29 543b c54d b3bb
00000020: 3c36 8c39 84d4 143c 4789 76bc 6ac5 0e3c
00000030: 69bc 423b d33b cc3b 5f93 fa3a db36 27bc
00000040: 1e7f 8abb 3546 7e3c 9993 31bb 6f5b 7a3a
00000050: df1b e63b 9b37 6abc 88bc 723b 065f 20bb
00000060: 7bcd f5ba e7d0 be39 0e6e 333b 0b86 e3ba
00000070: 6372 0ebc a25d 7f3c 2260 5cbc 2329 a1bb
00000080: f7da 173b 14a1 0d3b 0b10 0dbc d578 d23b
00000090: 0df6 f73a a7ad 47bb 2c94 2c3c 4e2c 313b
000000a0: 5036 cb3b 5830 1b3a 8b52 be3b 2bf6 2abc
000000b0: 670f 633c f784 f6bb ad47 b73a 124e 3139
000000c0: 0445 bebb e392 4dbc 2a4a 4fbb b555 ba3b
000000d0: 537f e73a 4d43 533c 230e d5bb f3d6 583b
000000e0: b307 733a 6a6e 6f3b cb19 f23b a2ba 573c
000000f0: 54e7 c53c 8354 10bc 6d41 10bc 4977 433c
00000100: 2d54 603b dde7 553b 63f6 99bc ca17 0cbc
00000110: 3074 023c 5335 d13b cf92 70bc 5cdd 4a3b
00000120: 1ac5 c63a b8bc 65bc 17a1 00ba 9325 4a3c
00000130: 902b ddbb a2da f3b9 ca65 5c3c 7675 033c
00000140: 1fc1 0c3a da20 813c abc1 343c d3c7 7a3c
00000150: 5a60 a8bb 92f0 6f3c 4f67 7ebb 0449 86bb
00000160: 9303 b23b 48ee 953b 8096 29ba 2e96 813c
00000170: 2a44 0ebc b094 ed3b 6810 56ba db51 15bc
00000180: a122 1ebb 26cc 4a3c eb2a 8c3c 9b7c ae3c
00000190: 0244 13bc 2661 c13b 18d4 c23b 2a76 683a
000001a0: 4d52 2e3c 0a44 4abc cd40 8a3b d884 703b
000001b0: f045 44bc c6f9 01bc a7be 863b 260f 2f3b
000001c0: 52e6 d5bb 7b49 173c 5357 1c3b 5b7e 703b
000001d0: 97f3 4b3b 09a8 813b 0f48 01bc 6e08 ba3b
000001e0: 3633 9c39 fe48 91bb 536d 65bb 4a04 c93b
000001f0: 0d77 623a d7f6 1cbb 5703 c73b 3c6e a93b
00000200: 989a ad3c 282c d23b b137 00bb 5bfd 26bc
00000210: 9aa2 38bb d1a3 0bbc 1c07 c13b 9ff7 1b3c
00000220: c1a2 0a3c 5f94 1839 bbd3 9a3c 6637 31bc
00000230: f3ca a2ba 2364 0b3c 6309 d53c 25d2 e03b
00000240: 0a70 04bb c726 87bc 59e8 403c 85f1 dcbb
00000250: 7978 16bc 53fa 183c 4f03 9fbb 4424 01bb
00000260: 64fb 35ba f5bf 503c 486d c33b 3b29 43bc
00000270: c6fa aebb 9a00 3f3c d294 08bd ffaa 883b
00000280: b452 a13b c748 5b3c b39e 95ba 23a9 35bc
00000290: 0721 d5bb f09f 17bc 6cf2 ca3b 41c8 1a3c
000002a0: e3a1 d6bb 57ee 6e3c a8f8 553c 2720 e4bb
000002b0: 0ec0 163c 2d5e 863a db29 c9bc 57c2 68bb
000002c0: b214 c0bb 5b2b acbb eef6 9b3c 9daf 5a3c
000002d0: 56fe 29bc f87d 513c ad0c db3b b211 b1bb
000002e0: e3fa 143a a7bd 85bc 2d76 863c 8758 863b
000002f0: d54a b73a 5fc5 a9bc 7564 c639 beb5 49bc
00000300: a157 133c 624e 2bbb e3f7 1dbc 3f70 53bc
00000310: 3360 b0b9 dd95 db3a 1347 2ebc df62 08bc
00000320: 3f1d 8dbb 8d53 5c3b 8f87 6c3b e723 063a
00000330: c04f 79bc 42e4 173c 19cf 20bc e7e2 823b
00000340: 833f 1bbc fa96 533c 05f8 5dba 5fcc 1dbc
00000350: cbd1 8435 131b 4fbb 0c3f 823c ae6d 0ebc
00000360: c34e b03b ebfc 96bb c25a dc39 8b3e 5db9
00000370: 82e0 703c ed92 56bb b5fb a5b8 1059 b5bb
00000380: 631b 0b3b d899 673b 46f5 b63b 456e c63b
00000390: ca6b 45bb 269f af3c 9bcf 51bb 8a9e fbbb
000003a0: b345 cf3c 99e2 1abc a719 b3bc 2270 333c
000003b0: f63b 85bb d0f3 81bb b7c7 173a 6219 493c
000003c0: ded9 a6bb 8fb1 593a 2d01 8cba 2ecb 01bc
000003d0: 40b8 603c 4f08 5abb eb7a c13b 429e b2bc
000003e0: 8150 0bbc 6f29 fc3a 270d 78bc 4aaa 57bb
000003f0: 2123 9cb8 b1af a93c 6392 423c 8072 00bc
-0.0047855675 -0.008244997 0.008952492 -0.012424992 0.005736273 0.0029968594 0.00323731 -0.0054719173
0.0002674329 0.009083871 -0.015047378 0.008714059 0.0029714352 0.0062327175 0.0019117406 -0.01020595
-0.0042265793 0.015519668 -0.0027096032 0.0009550368 0.0070223655 -0.014295484 0.0037038643 -0.00244707
-0.0018753255 0.00036395268 0.002737883 -0.0017358674 -0.008694264 0.015586289 -0.013450654 -0.004918234
0.0023171285 0.0021610903 -0.008609782 0.0064230957 0.0018917933 -0.0030468495 0.010533374 0.0027034464
0.006201543 0.00059199845 0.0058081797 -0.010434668 0.013858653 -0.007523175 0.0013983153 0.00016909119
-0.005806567 -0.012547228 -0.0031629899 0.0056864866 0.0017661847 0.012894464 -0.0065019294 0.0033087104
0.00092708616 0.0036534318 0.0073883287 0.013167055 0.024158157 -0.008809212 -0.008804661 0.011930295
0.003422986 0.0032639422 -0.018794244 -0.008550594 0.007962272 0.0063845306 -0.014683439 0.0030954694
0.0015164942 -0.014022045 -0.0004906817 0.01233806 -0.006749578 -0.00046511466 0.013452003 0.00802361
0.00053693535 0.015762735 0.011032502 0.015306431 -0.005138439 0.014644759 -0.00388189 -0.0040980596
0.005432555 0.0045755245 -0.00064692646 0.015818682 -0.008683244 0.007250391 -0.0008165897 -0.009113754
-0.0024129527 0.012377774 0.017110309 0.02129965 -0.008988382 0.0059014736 0.0059456937 0.00088677055
0.010639739 -0.012345323 0.0042191506 0.0036700275 -0.011979565 -0.007933086 0.004112083 0.002671191
-0.0065277005 0.009233828 0.002385576 0.0036696407 0.0031120533 0.003956799 -0.007890715 0.0056772744
0.00029792794 -0.00443375 -0.003500779 0.0061345445 0.0008638956 -0.002395084 0.006073396 0.0051706117
0.02119188 0.0064139552 -0.0019564445 -0.010192241 -0.002817309 -0.008522944 0.00589074 0.009519487
0.008461655 0.00014551122 0.01889979 -0.010816431 -0.0012420103 0.008507761 0.026005452 0.0068609887
-0.0020208382 -0.016497983 0.011774146 -0.0067426586 -0.009183996 0.009337026 -0.0048526893 -0.0019705454
-0.0006942062 0.012741079 0.005963955 -0.011911686 -0.005339953 0.011657858 -0.03334505 0.004170775
0.004923189 0.013384051 -0.0011415094 -0.011087689 -0.0065041813 -0.009254441 0.0061934497 0.009447158
-0.00655006 0.014583192 0.013059773 -0.0069618407 0.009201063 0.0010251455 -0.024556091 -0.0035516226
-0.005861842 -0.005254192 0.019038644 0.0133475335 -0.01037558 0.012786381 0.0066848607 -0.005403721
0.0005683137 -0.016325785 0.016413772 0.0040999088 0.0013984094 -0.020723997 0.0003784035 -0.012311397
0.00899306 -0.002613925 -0.00964162 -0.0129051795 -0.0003364101 0.0016753037 -0.010637063 -0.008324354
-0.004306465 0.0033619136 0.0036091541 0.0005117044 -0.015216768 0.0092707295 -0.009815001 0.003994334
-0.009475592 0.012914414 -0.0008467439 -0.009631245 9.895824e-07 -0.003160183 0.015899204 -0.008693142
0.005380483 -0.004607787 0.0004202929 -0.00021099501 0.014701964 -0.0032741383 -7.914697e-05 -0.0055342987
0.002122604 0.00353395 0.005583438 0.0060556256 -0.0030124062 0.021438193 -0.0032014612 -0.0076788114
0.02530179 -0.009453439 -0.021862818 0.0109520275 -0.004065986 -0.0039658323 0.00057899527 0.012274118
-0.0050918898 0.00083043514 -0.0010681503 -0.007921977 0.013715804 -0.0033269112 0.0059045455 -0.021803979
-0.00850308 0.0019238422 -0.0151398545 -0.0032907897 -7.445203e-05 0.020713659 0.011875722 -0.007839799

action_model._discrete_distribution.branches.2.bias f4 [2]
00000000: 0000 0000 0000 0000
0.0 0.0
