results/ppo/Player Behaviour/Player Behaviour-832.pt (torch, 153007 bytes, 15 tensors)

discrete_act_size_vector f4 [1, 2]
3.0 2.0
00000000: 0000 4040 0000 0040

network_body._body_endoder.seq_layers.0.weight f4 [128, 6]
0.014813847 0.23612523 0.3901298 -0.21549709 0.34689394 -0.39379898 0.03269434 -0.60265887
0.3105433 -0.7194543 0.0061603556 -0.0025541128 0.29577345 -0.113485485 0.52381986 -0.47094783
-0.5246517 0.45932513 -0.85264033 -1.1663094 0.12729383 -0.13039534 0.40364924 -0.27470675
0.2038724 0.00016772 0.05152316 0.11944096 0.3425458 -0.1308806 0.181461 -0.32554352
0.24798569 -0.026103888 0.1651102 0.5084937 -0.11325142 -0.30559075 0.25960502 0.37111667
1.0558655 -0.017726207 0.68522966 0.20543168 0.27994424 0.34604895 -0.7240927 0.2535334
0.41360235 -0.28441477 -0.04461517 -0.14587915 -0.22092725 -0.0012986185 0.3435667 -0.10392367
-0.3362376 -0.11417916 0.31623563 -0.076375656 -0.25279346 0.045958083 0.31858712 -0.32420495
-0.37630984 -0.71901685 -0.30006817 0.18925974 -0.18698502 -0.03472512 -0.16106743 0.18493626
-0.32286054 -0.30484465 0.27028742 -0.057834204 0.25088513 0.13561614 0.512406 -0.09872983
-0.30175164 0.095986195 -0.23402792 -0.04907913 -0.4480721 -0.74465925 0.19333534 -0.017092723
0.04584081 0.11057643 0.11117855 0.5444308 -0.35052025 -0.47086847 0.012567983 0.55173755
0.27578685 0.6105284 0.09895958 -0.21940571 0.17303169 -0.1766899 -0.58613044 -0.14566363
-0.12694308 -0.2194003 0.33698928 -0.06770208 -0.5316187 -0.34499174 0.67817533 0.5571409
0.025350204 0.023742454 0.046460167 0.11162601 -0.12414025 0.4890746 0.41577554 0.08252137
-0.22009501 0.06374388 0.3371937 -0.20498052 0.07289029 -0.21490777 0.48997697 0.83378166
0.5233214 0.30918738 -0.6153056 -0.015262306 -0.18056361 -0.5253464 0.24884214 0.63287324
0.12155714 -0.033973105 0.6395213 0.27787927 -0.3084274 -0.059197724 -0.0791099 -0.5355543
-0.2653509 -0.40093178 0.18808785 0.005720398 0.1733052 0.004285932 -0.49143597 -0.17450418
0.41074112 -0.12004034 0.36660624 -0.555684 -0.6504935 -0.5009206 0.5058932 0.21632893
-0.24387905 0.7978965 0.4774163 -0.13250275 0.3751927 -0.104186624 0.46411884 0.00950846
0.3840812 0.35349837 0.7826186 0.4686677 -0.24115637 -0.08899694 -0.5032858 0.53337854
0.27480993 -0.4772724 -0.014209412 -0.500923 0.062382236 -0.12740795 -0.38893837 -0.07109902
-0.15202393 0.26613554 0.304433 0.81619465 -0.059819724 0.16576286 -0.04932377 0.0050863978
0.24990518 -0.12916952 0.41819993 -0.5441088 0.46176836 -0.5248496 -0.14594993 -0.14319947
-0.44978067 -0.2465302 0.08057504 -0.6518622 -0.78730774 -0.2848028 -0.052034423 0.014903773
-0.11031209 -0.017205466 -0.081285186 0.029036114 0.20378722 -0.022878416 -0.49491292 0.5694222
0.3103178 0.7606411 -0.05269965 1.019195 -0.73213613 -0.2038456 -0.03744604 -0.22325414
0.047930796 0.027239097 0.5676491 0.043749373 -0.50749266 -0.033116896 0.3311034 0.17923157
0.0243735 0.059524924 -0.15964861 -0.078781575 -0.26222953 -0.6591891 0.24217738 0.01193773
-0.71821785 -0.22111562 0.10907848 -0.15074126 -0.11625613 -1.0045402 0.34161985 0.26455346
0.2779371 -0.51003206 0.26969323 -0.32287458 0.00047152457 0.113519914 -0.37818798 -0.15938056
00000000: c7b5 723c d0ca 713e 18bf c73e 45ab 5cbe
00000010: 159c b13e 05a0 c9be 80ea 053d da47 1abf
00000020: 88ff 9e3e 282e 38bf cfdc c93b e762 27bb
00000030: 9e6f 973e 146b e8bd 0f19 063f 1320 f1be
00000040: 934f 06bf aa2c eb3e a346 5abf a049 95bf
00000050: 5059 023e 5b86 05be 1dab ce3e 5da6 8cbe
00000060: edc3 503e ffdd 2f39 f309 533d 769d f43d
00000070: 2a62 af3e 9005 06be ead0 393e a4ad a6be
00000080: f6ef 7d3e d2d7 d5bc a612 293e a52c 023f
00000090: 5cf0 e7bd 6476 9cbe f3ea 843e 0103 be3e
000000a0: 9a26 873f 8d36 91bc 366b 2f3f af5c 523e
000000b0: da54 8f3e 542d b13e 245e 39bf 21cf 813e
000000c0: b0c3 d33e d09e 91be 66be 36bd 5861 15be
000000d0: c13a 62be 6836 aaba f9e7 af3e efd5 d4bd
000000e0: 5627 acbe c3d6 e9bd a3e9 a13e d76a 9cbd
000000f0: 256e 81be 8b3e 3c3d da1d a33e 31fe a5be
00000100: afab c0be 7d11 38bf 89a2 99be 4ecd 413e
00000110: 0079 3fbe ed3b 0ebd dcee 24be ee5f 3d3e
00000120: fa4d a5be 9914 9cbe 1d63 8a3e 8fe3 6cbd
00000130: 0474 803e f5de 0a3e 0a2d 033f dd32 cabd
00000140: 317f 9abe 6994 c43d 04a5 6fbe 3307 49bd
00000150: b569 e5be fda1 3ebf b3f9 453e 0a06 8cbc
00000160: 93c3 3b3d e575 e23d 94b1 e33d d15f 0b3f
00000170: 6477 b3be ac15 f1be f1e9 4d3c ac3e 0d3f
00000180: ef33 8d3e 974b 1c3f 52ab ca3d e4ab 60be
00000190: 382f 313e 32ee 34be a50c 16bf d928 15be
000001a0: 5efd 01be 79aa 60be dc89 ac3e 63a7 8abd
000001b0: 2a18 08bf c2a2 b0be e69c 2d3f c9a0 0e3f
000001c0: 3bab cf3c 897f c23c 044d 3e3d 2d9c e43d
000001d0: 3e3d febd fc67 fa3e 88e0 d43e f700 a93d
000001e0: 9660 61be 278c 823d a7a4 ac3e 6ae6 51be
000001f0: 8147 953d c810 5cbe 43de fa3e b772 553f
00000200: 64f8 053f cf4d 9e3e ab84 1dbf c00e 7abc
00000210: abe5 38be 1a7d 06bf 79d0 7e3e fb03 223f
00000220: f3f2 f83d 6227 0bbd abb7 233f 3146 8e3e
00000230: 32ea 9dbe 5079 72bd 5f04 a2bd 161a 09bf
00000240: 13dc 87be ee46 cdbe 1a9a 403e 2d72 bb3b
00000250: eb76 313e 0171 8c3b 7f9d fbbe 39b1 32be
00000260: a94c d23e b6d7 f5bd d0b3 bb3e 4e41 0ebf
00000270: be86 26bf 553c 00bf 3782 013f 5585 5d3e
00000280: 6ebb 79be f242 4c3f e96f f43e cdae 07be
00000290: 4219 c03e cc5f d5bd fca0 ed3e 5fc9 1b3c
000002a0: 4ba6 c43e bdfd b43e b159 483f 36f5 ef3e
000002b0: b2f1 76be 0744 b6bd 57d7 00bf 7f8b 083f
000002c0: e3b3 8c3e 0c5d f4be 98ce 68bc 7d3c 00bf
000002d0: 8484 7f3d 3b77 02be ee22 c7be 5d9c 91bd
000002e0: 29ac 1bbe eb42 883e a4de 9b3e 22f2 503f
000002f0: 8705 75bd bdbd 293e b907 4abd ccab a63b
00000300: 25e7 7f3e 0445 04be 4d1e d63e b74a 0bbf
00000310: e76c ec3e 8b5c 06bf e673 15be e2a2 12be
00000320: a749 e6be 6a72 7cbe 8704 a53d 71e0 26bf
00000330: 008d 49bf acd1 91be 0c22 55bd f42e 743c
00000340: 4eeb e1bd 7af2 8cbc d978 a6bd 25dd ed3c
00000350: 99ad 503e 846b bbbc 3a65 fdbe a7c5 113f
00000360: fae1 9e3e 60b9 423f 97db 57bd fb74 823f
00000370: 466d 3bbf e7bc 50be 0561 19bd bc9c 64be
00000380: 1553 443d 8724 df3c 7451 113f 8b32 333d
00000390: 0aeb 01bf 95a5 07bd 6386 a93e 7b88 373e
000003a0: efaa c73c 68d0 733d ed7a 23be 3c58 a1bd
000003b0: f342 86be 9ec0 28bf 59fd 773e 7896 433c
000003c0: 20dd 37bf 226c 62be 8a64 df3d eb5b 1abe
000003d0: b217 eebd c694 80bf cce8 ae3e 8d73 873e
000003e0: c64d 8e3e 7691 02bf 3b15 8a3e d14f a5be
000003f0: f536 f739 217d e83d dba1 c1be a834 23be

network_body._body_endoder.seq_layers.0.bias f4 [128]
0.0 0.0 0.0 0.0 0.0 0.0 0.0 0.0
0.0 0.0 0.0 0.0 0.0 0.0 0.0 0.0
0.0 0.0 0.0 0.0 0.0 0.0 0.0 0.0
0.0 0.0 0.0 0.0 0.0 0.0 0.0 0.0
0.0 0.0 0.0 0.0 0.0 0.0 0.0 0.0
0.0 0.0 0.0 0.0 0.0 0.0 0.0 0.0
0.0 0.0 0.0 0.0 0.0 0.0 0.0 0.0
0.0 0.0 0.0 0.0 0.0 0.0 0.0 0.0
0.0 0.0 0.0 0.0 0.0 0.0 0.0 0.0
0.0 0.0 0.0 0.0 0.0 0.0 0.0 0.0
0.0 0.0 0.0 0.0 0.0 0.0 0.0 0.0
0.0 0.0 0.0 0.0 0.0 0.0 0.0 0.0
0.0 0.0 0.0 0.0 0.0 0.0 0.0 0.0
0.0 0.0 0.0 0.0 0.0 0.0 0.0 0.0
0.0 0.0 0.0 0.0 0.0 0.0 0.0 0.0
0.0 0.0 0.0 0.0 0.0 0.0 0.0 0.0
00000000: 0000 0000 0000 0000 0000 0000 0000 0000
00000010: 0000 0000 0000 0000 0000 0000 0000 0000
00000020: 0000 0000 0000 0000 0000 0000 0000 0000
00000030: 0000 0000 0000 0000 0000 0000 0000 0000
00000040: 0000 0000 0000 0000 0000 0000 0000 0000
00000050: 0000 0000 0000 0000 0000 0000 0000 0000
00000060: 0000 0000 0000 0000 0000 0000 0000 0000
00000070: 0000 0000 0000 0000 0000 0000 0000 0000
00000080: 0000 0000 0000 0000 0000 0000 0000 0000
00000090: 0000 0000 0000 0000 0000 0000 0000 0000
000000a0: 0000 0000 0000 0000 0000 0000 0000 0000
000000b0: 0000 0000 0000 0000 0000 0000 0000 0000
000000c0: 0000 0000 0000 0000 0000 0000 0000 0000
000000d0: 0000 0000 0000 0000 0000 0000 0000 0000
000000e0: 0000 0000 0000 0000 0000 0000 0000 0000
000000f0: 0000 0000 0000 0000 0000 0000 0000 0000
00000100: 0000 0000 0000 0000 0000 0000 0000 0000
00000110: 0000 0000 0000 0000 0000 0000 0000 0000
00000120: 0000 0000 0000 0000 0000 0000 0000 0000
00000130: 0000 0000 0000 0000 0000 0000 0000 0000
00000140: 0000 0000 0000 0000 0000 0000 0000 0000
00000150: 0000 0000 0000 0000 0000 0000 0000 0000
00000160: 0000 0000 0000 0000 0000 0000 0000 0000
00000170: 0000 0000 0000 0000 0000 0000 0000 0000
00000180: 0000 0000 0000 0000 0000 0000 0000 0000
00000190: 0000 0000 0000 0000 0000 0000 0000 0000
000001a0: 0000 0000 0000 0000 0000 0000 0000 0000
000001b0: 0000 0000 0000 0000 0000 0000 0000 0000
000001c0: 0000 0000 0000 0000 0000 0000 0000 0000
000001d0: 0000 0000 0000 0000 0000 0000 0000 0000
000001e0: 0000 0000 0000 0000 0000 0000 0000 0000
000001f0: 0000 0000 0000 0000 0000 0000 0000 0000

network_body._body_endoder.seq_layers.2.weight f4 [128, 128]
0.0004907154 -0.18382409 -0.11622822 -0.13457197 -0.08441572 -0.05035819 -0.03250331 0.07664499
-0.15133785 -0.028432632 0.05436801 0.02583295 0.10636758 -0.09913689 0.027193904 0.062728465
-0.026627941 -0.07276909 -0.01818363 -0.05884625 0.16080637 -0.07908644 -0.0492602 -0.13165979
0.016507864 -0.05317409 0.17141172 -0.033977155 -0.080623575 0.0026868854 0.010928985 -0.15431963
0.095451266 0.08986181 0.14407726 -0.008529511 -0.024141965 0.11343044 0.1338073 0.051950783
0.081223406 -0.046386532 -0.03743758 -0.10321331 0.044104114 0.1700128 0.21319899 -0.054583777
0.15894209 0.04789601 0.037385162 0.15924133 -0.019308213 0.08758069 -0.008486358 0.047312833
0.009336847 0.00859381 -0.18747634 0.19170912 0.26967892 0.033272713 0.02441364 0.050985694
-0.07121105 0.09628426 0.101199724 0.015798502 0.028513096 0.19458723 -0.027360119 -4.058423e-05
0.064502865 -0.12997374 -0.12602323 -0.007984477 -0.04449624 0.04498051 -0.117273375 -0.0629533
0.11051408 0.12482047 -0.08711394 -0.15982303 -0.017421743 0.0016510945 0.003204119 -0.084758714
0.040297415 -0.11954425 -0.039665427 0.029771807 -0.10382203 0.01910797 -0.05711345 0.00020086099
-0.14984384 -0.040659685 0.1393703 -0.14997381 -0.005113986 0.014485122 -0.13645884 0.0539709
0.02461974 0.062895395 -0.08166025 0.041239996 0.077540465 0.07094691 -0.04637842 0.16274174
-0.001104376 -0.07604031 -0.017192818 0.18374336 -0.13817407 0.06656245 -0.04060273 -0.06525675
-0.09891308 0.03182261 -0.047087684 0.04154671 -0.00093742716 -0.040457368 0.1294484 -0.020785505
-0.0400838 -0.007903318 0.15172231 0.0027666925 -0.022058956 0.09258657 -0.016301192 0.14307052
-0.009488353 0.11200665 -0.16850352 -0.07044781 0.08760104 0.06120629 0.08079422 0.0512149
0.19288883 0.2203624 -0.082975544 0.015013001 0.0021078903 -0.14707814 0.1507319 0.032592822
-0.035934754 0.040007524 0.028775323 -0.08901906 -0.08264654 0.11399307 -0.066232815 0.032438926
0.054404937 -0.13359575 -0.18539092 -0.049010925 -0.10773672 -0.022597553 -0.07960606 -0.021090614
0.07917789 0.025025694 -0.020675885 0.04605494 0.045083318 -0.017995106 0.07682267 -0.110578015
-0.13180469 -0.013902993 -0.18258476 -0.07958761 0.055503268 0.039682306 0.09690401 -0.030988855
-0.10306137 0.09865494 -0.030055571 -0.021464953 -0.08665316 0.03913683 0.121737525 0.065558165
-0.0014202584 0.06025895 0.0075730653 0.25026456 -0.13721804 0.08180179 0.013821533 -0.009253719
-0.06873486 0.011511303 -0.06625791 0.059929315 -0.14334854 -0.14211836 0.09019908 -0.076382264
0.03203966 -0.07607079 -0.011478959 0.06290461 0.070161104 -0.07286946 -0.02712658 0.06334673
0.060204513 -0.0046491013 -0.016434018 0.038236257 -0.04366161 -0.050760556 -0.06794755 -0.09975333
-0.19096634 -0.07260951 0.042005435 0.14113462 0.031844657 0.089890935 0.17263715 -0.087103434
-0.09099708 -0.009317982 0.057695325 -0.04913365 0.10387662 -0.1149725 0.036447536 -0.12926349
-0.10324415 -0.2126878 0.08608322 -0.11277696 -0.045365922 0.005074619 -0.1377793 -0.08053938
0.06862263 0.032168172 0.013359476 0.099973544 -0.027173394 -0.046158407 0.029909262 -0.057568114
00000000: 5aa3 003a 623c 3cbe 1009 eebd 3ccd 09be
00000010: 26e2 acbd 6444 4ebd 3122 05bd 0cf8 9c3d
00000020: 4ff8 1abe 8deb e8bc feb0 5e3d 9f9f d33c
00000030: 3fd7 d93d 4808 cbbd c0c5 de3c c877 803d
00000040: d722 dabc f607 95bd d6f5 94bc c408 71bd
00000050: 6daa 243e 12f8 a1bd 10c5 49bd d3d1 06be
00000060: 803b 873c 13cd 59bd 8e86 2f3e a12b 0bbd
00000070: f91d a5bd 7516 303b 7c0f 333c f705 1ebe
00000080: f47b c33d 7809 b83d fd88 133e 5dbf 0bbc
00000090: 5fc5 c5bc 384e e83d c804 093e 58ca 543d
000000a0: 7558 a63d ceff 3dbd 2658 19bd 8061 d3bd
000000b0: 84a6 343d d617 2e3e d650 5a3e 3d93 5fbd
000000c0: b7c1 223e 9b2e 443d 2f21 193d 2910 233e
000000d0: 422c 9ebc 815d b33d 5e0a 0bbc 1acb 413d
000000e0: 93f9 183c 0dcd 0c3c ccf9 3fbe 654f 443e
000000f0: 5b13 8a3e f848 083d 1dff c73c 60d6 503d
00000100: 19d7 91bd af30 c53d cd41 cf3d dc6b 813c
00000110: 4c94 e93c e041 473e 5422 e0bc fc38 2ab8
00000120: 141a 843d d617 05be 3c0c 01be 53d1 02bc
00000130: b041 36bd 7c3d 383d 062d f0bd a9ed 80bd
00000140: 3555 e23d e0a1 ff3d cb68 b2bd a6a8 23be
00000150: 0bb8 8ebc 8a69 d83a 32fc 513b fa95 adbd
00000160: e70e 253d 9ed3 f4bd 3778 22bd 01e4 f33c
00000170: a5a0 d4bd 5188 9c3c cbef 69bd 369e 5239
00000180: aa70 19be c58a 26bd 17b7 0e3e bc92 19be
00000190: 3993 a7bb 0153 6d3c debb 0bbe 9710 5d3d
000001a0: 56af c93c 4dcf 803d 7d3d a7bd 45eb 283d
000001b0: 89cd 9e3d 9d4c 913d 4cf7 3dbd c5a5 263e
000001c0: b6c0 90ba 06bb 9bbd f4d7 8cbc 3827 3c3e
000001d0: 817d 0dbe e551 883d 0c4f 26bd 55a5 85bd
000001e0: f192 cabd 6d58 023d 04df 40bd e22c 2a3d
000001f0: acbd 75ba a0b6 25bd 1f8e 043e 5d46 aabc
00000200: e92e 24bd eb7c 01bc 185d 1b3e 6651 353b
00000210: fcb4 b4bc 079e bd3d 148a 85bc 1481 123e
00000220: 0975 1bbc be63 e53d 308c 2cbe f146 90bd
00000230: 2d68 b33d 72b3 7a3d 7177 a53d b7c6 513d
00000240: a684 453e aea6 613e 15ef a9bd 17f9 753c
00000250: 8824 0a3b a79b 16be 7759 1a3e 0d80 053d
00000260: 5230 13bd eede 233d 3aba eb3c a04f b6bd
00000270: 9742 a9bd 3375 e93d 12a5 87bd aede 043d
00000280: b6d7 5e3d 53cd 08be 1ed7 3dbe aebf 48bd
00000290: 12a5 dcbd 811e b9bc 8108 a3bd 39c6 acbc
000002a0: 0528 a23d af02 cd3c 7960 a9bc 1ba4 3c3d
000002b0: 49a9 383d 796a 93bc 3455 9d3d ba76 e2bd
000002c0: cff7 06be 61c9 63bc 80f7 3abe d4fe a2bd
000002d0: 6557 633d ea89 223d 9c75 c63d 57dc fdbc
000002e0: d711 d3bd 9a0b ca3d 1a37 f6bc 45d7 afbc
000002f0: 3677 b1bd f14d 203d 8651 f93d 5c43 863d
00000300: f727 baba 17d2 763d 7a27 f83b ad22 803e
00000310: e382 0cbe b287 a73d b673 623c e99c 17bc
00000320: ddc4 8cbd e799 3c3c 3ab2 87bd 7178 753d
00000330: f6c9 12be 7a87 11be 4cba b83d 4e6e 9cbd
00000340: 053c 033d 01cb 9bbd 3e12 3cbc 22d4 803d
00000350: a0b0 8f3d 953c 95bd 9038 debc eebb 813d
00000360: 0299 763d 7d57 98bb a2a0 86bc 9f9d 1c3d
00000370: 84d6 32bd 4dea 4fbd 1628 8bbd 794b ccbd
00000380: ae8c 43be 4bb4 94bd e40d 2c3d 9885 103e
00000390: 8b6f 023d bd18 b83d cbc7 303e 4963 b2bd
000003a0: ad5c babd 73aa 18bc ef51 6c3d 5e40 49bd
000003b0: 44bd d43d b476 ebbd 034a 153d a65d 04be
000003c0: ab71 d3bd d5ca 59be 664c b03d 9bf7 e6bd
000003d0: 9ed1 39bd fd48 a63b 0416 0dbe d5f1 a4bd
000003e0: 058a 8c3d c6c2 033d b4e1 5a3c eebe cc3d
000003f0: bd9a debc 9910 3dbd 4504 f53c 8bcc 6bbd

network_body._body_endoder.seq_layers.2.bias f4 [128]
0.0 0.0 0.0 0.0 0.0 0.0 0.0 0.0
0.0 0.0 0.0 0.0 0.0 0.0 0.0 0.0
0.0 0.0 0.0 0.0 0.0 0.0 0.0 0.0
0.0 0.0 0.0 0.0 0.0 0.0 0.0 0.0
0.0 0.0 0.0 0.0 0.0 0.0 0.0 0.0
0.0 0.0 0.0 0.0 0.0 0.0 0.0 0.0
0.0 0.0 0.0 0.0 0.0 0.0 0.0 0.0
0.0 0.0 0.0 0.0 0.0 0.0 0.0 0.0
0.0 0.0 0.0 0.0 0.0 0.0 0.0 0.0
0.0 0.0 0.0 0.0 0.0 0.0 0.0 0.0
0.0 0.0 0.0 0.0 0.0 0.0 0.0 0.0
0.0 0.0 0.0 0.0 0.0 0.0 0.0 0.0
0.0 0.0 0.0 0.0 0.0 0.0 0.0 0.0
0.0 0.0 0.0 0.0 0.0 0.0 0.0 0.0
0.0 0.0 0.0 0.0 0.0 0.0 0.0 0.0
0.0 0.0 0.0 0.0 0.0 0.0 0.0 0.0
00000000: 0000 0000 0000 0000 0000 0000 0000 0000
00000010: 0000 0000 0000 0000 0000 0000 0000 0000
00000020: 0000 0000 0000 0000 0000 0000 0000 0000
00000030: 0000 0000 0000 0000 0000 0000 0000 0000
00000040: 0000 0000 0000 0000 0000 0000 0000 0000
00000050: 0000 0000 0000 0000 0000 0000 0000 0000
00000060: 0000 0000 0000 0000 0000 0000 0000 0000
00000070: 0000 0000 0000 0000 0000 0000 0000 0000
00000080: 0000 0000 0000 0000 0000 0000 0000 0000
00000090: 0000 0000 0000 0000 0000 0000 0000 0000
000000a0: 0000 0000 0000 0000 0000 0000 0000 0000
000000b0: 0000 0000 0000 0000 0000 0000 0000 0000
000000c0: 0000 0000 0000 0000 0000 0000 0000 0000
000000d0: 0000 0000 0000 0000 0000 0000 0000 0000
000000e0: 0000 0000 0000 0000 0000 0000 0000 0000
000000f0: 0000 0000 0000 0000 0000 0000 0000 0000
00000100: 0000 0000 0000 0000 0000 0000 0000 0000
00000110: 0000 0000 0000 0000 0000 0000 0000 0000
00000120: 0000 0000 0000 0000 0000 0000 0000 0000
00000130: 0000 0000 0000 0000 0000 0000 0000 0000
00000140: 0000 0000 0000 0000 0000 0000 0000 0000
00000150: 0000 0000 0000 0000 0000 0000 0000 0000
00000160: 0000 0000 0000 0000 0000 0000 0000 0000
00000170: 0000 0000 0000 0000 0000 0000 0000 0000
00000180: 0000 0000 0000 0000 0000 0000 0000 0000
00000190: 0000 0000 0000 0000 0000 0000 0000 0000
000001a0: 0000 0000 0000 0000 0000 0000 0000 0000
000001b0: 0000 0000 0000 0000 0000 0000 0000 0000
000001c0: 0000 0000 0000 0000 0000 0000 0000 0000
000001d0: 0000 0000 0000 0000 0000 0000 0000 0000
000001e0: 0000 0000 0000 0000 0000 0000 0000 0000
000001f0: 0000 0000 0000 0000 0000 0000 0000 0000

action_model._continuous_distribution.mu.weight f4 [1, 128]
-0.014612761 0.0061682 -0.013695891 -0.03248854 0.014349185 -0.029083401 0.0065394365 0.010248863
-0.00083371176 0.011905828 0.008931383 -0.030028656 0.024261398 -0.006208785 0.025105873 -0.016959783
0.0051485626 0.013043045 0.025534457 -0.03347688 0.0015005367 -0.000842452 -0.03486947 0.013589263
0.044916593 -0.025739823 0.004795197 -0.007954371 0.0012337862 -0.015582933 -0.00024686079 0.009511822
0.017160073 -0.0052639027 -0.011211143 -0.018551497 0.011770021 -0.026510809 0.034849863 -0.009320212
-0.010026799 0.0018379505 -0.008225506 -0.011425032 -0.03099205 0.031125078 0.015767507 0.0029078748
-0.033625335 0.021828724 -0.0026306778 0.0006325331 0.015753081 -0.02265924 -0.03570006 0.02319606
-0.009662144 0.037106555 -0.017016998 -0.009494239 -0.010960867 -0.007240114 0.038664874 -0.015533134
0.025058676 0.007506959 -0.020212868 -0.005993974 -0.019993467 -0.03166917 -0.0064937854 0.0010465402
0.02226162 0.01110014 0.013958764 0.018606324 0.00128195 0.01993268 -0.020600613 -0.019383
0.009148226 -0.029162753 0.0010248324 0.00083405647 -0.022867411 0.008693407 0.00011013749 0.012132558
-0.00039539547 0.026998132 -0.0028252238 -0.022692949 0.00037779164 0.00042747456 -0.011737369 0.009159383
-0.004941927 -0.003455848 -0.04600371 -0.037203077 -0.023207562 -0.0024744084 0.013329059 0.011735491
0.025317943 -0.013733116 -0.0030580263 0.010588767 0.0052852286 0.0051076976 -0.054604914 0.013746122
0.014141494 -0.022059258 0.017233793 0.0139931245 -0.016885204 0.015339251 0.005625847 -0.0057182345
-0.0068626367 -0.0073669427 -0.017267639 0.0042651836 -0.023269495 0.0029370124 -0.0030429864 0.0391685
00000000: 5d6a 6fbc 9d1e ca3b bb64 60bc b412 05bd
00000010: d818 6b3c 5040 eebc c548 d63b d9ea 273c
00000020: 738d 5aba a910 433c ef54 123c a8fe f5bc
00000030: d7bf c63c 1073 cbbb d5aa cd3c 3eef 8abc
00000040: 46b5 a83b 7fb2 553c a32d d13c 0e1f 09bd
00000050: a8ad c43a ffd7 5cba 4ad3 0ebd 80a5 5e3c
00000060: 76fa 373d 52dc d2bc 0721 9d3b 0d53 02bc
00000070: ffb6 a13a 8f4f 7fbc 186d 81b9 79d7 1b3c
00000080: 4893 8c3c d17c acbb f1ae 37bc 4ff9 97bc
00000090: 0cd7 403c 322d d9bc bbbe 0e3d cdb3 18bc
000000a0: 7147 24bc 63e7 f03a 46c4 06bc 0f30 3bbc
000000b0: 0ae3 fdbc 05fa fe3c dc2a 813c 0b92 3e3b
000000c0: b8ba 09bd 27d2 b23c 7367 2cbb 94d0 253a
000000d0: 9b0c 813c df9f b9bc 3a3a 12bd aa05 be3c
000000e0: f84d 1ebc 0bfd 173d 3b67 8bbc ba8d 1bbc
000000f0: 3595 33bc 7a3e edbb 0f5f 1e3d b07e 7ebc
00000100: da47 cd3c f0fc f53b 7595 a5bc 1969 c4bb
00000110: 57c9 a3bc 88b7 01bd d2c9 d4bb 102c 893a
00000120: 005e b63c 5ddd 353c 4db3 643c 4a6c 983c
00000130: 1b07 a83a dc49 a33c 9ec2 a8bc 19c9 9ebc
00000140: 71e2 153c bae6 eebc ab53 863a 95a4 5a3a
00000150: 7054 bbbc cb6e 0e3c 9df9 e638 a3c7 463c
00000160: 154d cfb9 302b dd3c 6427 39bb 90e6 b9bc
00000170: 5612 c639 aa1e e039 184e 40bc 3d11 163c
00000180: e3ef a1bb 827b 62bb 636e 3cbd 4162 18bd
00000190: c91d bebc af29 22bb 2062 5a3c 3846 403c
000001a0: 9367 cf3c dd00 61bc 2b69 48bb 827c 2d3c
000001b0: b62f ad3b 795e a73b 67a9 5fbd 6a37 613c
000001c0: bab1 673c 9eb5 b4bc e22d 8d3c 6b43 653c
000001d0: d752 8abc 7b51 7b3c 0659 b83b 0760 bbbb
000001e0: f8df e0bb 6566 f1bb dd74 8dbc f4c2 8b3b
000001f0: ab9f bebc e47a 403b d76c 47bb 266f 203d

action_model._discrete_distribution.branches.0.weight f4 [3, 128]
0.005687438 -0.0110786315 0.00842038 0.014468133 -0.0024499872 -0.01591197 0.00728646 -0.001811195
-0.0070538716 -0.0111418525 0.00826773 -0.015171471 0.00949591 -0.005047685 -0.0016556456 -0.0028840066
0.0006804342 0.018706286 -0.009493775 0.0048154215 -0.0017838611 -0.004218397 0.0012943809 -0.00037180324
0.02740539 0.005389606 0.02168901 0.007607876 -0.007977298 -0.003907302 -0.0013311778 -0.007314132
0.0016211703 0.016514514 0.0019931006 0.012689984 0.013767888 0.012290971 0.006714636 -0.004131878
-0.0018470107 -0.006823197 0.0005821979 0.014490596 0.011714117 -0.001722393 0.013756174 0.00036680335
-0.011184434 0.0034967144 -0.008628595 -0.009244179 -0.010962191 0.005189348 -0.013205457 -0.0143846
0.008965203 -0.0036916789 -0.0067636594 -0.013498627 -0.0036916682 0.0008528889 0.010259698 0.011121734
0.0067173066 -0.0070666247 -0.019443912 0.008809637 0.013714901 -0.009978333 0.00037658634 0.009760271
0.018570311 -0.015140007 -0.008862558 0.0034887723 0.004140763 -0.0004023706 0.00197143 -0.005126865
-0.0056521683 -0.0005106693 0.0051376456 -0.013080746 0.0046493406 -0.00584371 -0.0018718241 -0.015077921
-0.01443956 -0.016944867 0.003688324 -0.0031192137 0.003602689 -0.010883742 -0.0042260336 -0.008779394
0.0050961375 0.008146416 -0.0009525739 -0.0021049934 0.011731757 -9.976452e-05 -0.017420579 0.0016435247
-0.0014375948 -0.00280729 -0.0058362074 0.00020279994 0.008835279 -0.007412447 -0.002906536 -0.0014209661
0.00693364 0.008710387 -0.0038130952 -0.001650781 -0.0006942972 -0.0035642688 -0.016829252 -0.002235593
-0.0045564347 0.0029009983 0.0011855112 0.008653966 0.004459318 -0.0036857226 -0.0018800984 0.010055253
0.0046982164 0.0005752532 -0.008498605 -0.0114997355 -0.0024961454 0.005706396 -0.011925159 0.0037525983
-0.008026539 -0.029598096 -0.007620749 0.0054429024 0.009652129 -0.0016189766 0.003566162 0.0017551988
0.0060190237 -0.00013107997 -0.0072063073 0.008205454 0.0060670273 0.0130792605 -0.0056459187 0.0013246491
0.011976101 0.008837458 -0.014054499 -0.0045067533 -0.004337787 -0.0011210985 0.01202811 -0.005953882
-0.010573248 -0.0012016708 0.013156921 0.009020106 0.008252445 -0.008474178 -0.0018859899 -0.008110188
-0.0015750205 0.0001690376 0.0031376325 0.0036911764 0.0026974613 0.014544653 0.0049426374 -0.008106648
0.0072962567 -0.00186738 -0.014058843 0.0043937764 0.0043064347 -0.0015187379 -0.007654588 0.0065404894
-0.01037032 0.0024089864 -0.0011823302 -0.00041056314 -0.008830348 0.010623234 0.0029128853 -0.0078086182
-0.00012368613 0.019409982 0.0038229183 -0.0011736914 -0.0018319649 0.001634148 -0.001699405 0.0034204803
-0.008059677 -0.007589392 0.0060054334 -0.009042032 0.017208768 0.0023651978 -0.0004693203 0.0061147856
-0.012393962 -0.012319635 -0.010001495 0.0078027733 0.00840301 0.0005256789 -0.015097531 -0.00066177663
0.0012919427 -0.0041655926 -0.009428463 0.0010615115 -0.009178626 -0.017490817 0.004256215 0.014778465
-0.0110572195 0.002121409 -0.0072899396 -0.02751465 0.0021191188 0.0037077738 0.0036232301 -0.0151185095
-0.017356994 0.0041168523 0.017995428 -0.0012838728 -0.013068328 -0.0007799497 -0.008197114 0.0065390826
-0.0034728323 0.018751081 0.008249646 -0.0059871487 0.003067505 0.011730788 0.006102841 -0.0012347125
-0.0004887224 -0.010593908 0.0066747004 0.008263129 -0.0009007888 0.01628295 -0.00552619 0.002288945
00000000: b05d ba3b 2683 35bc a2f5 093c c00b 6d3c
00000010: f78f 20bb d259 82bc 42c3 ee3b 9f65 edba
00000020: 2a24 e7bb 518c 36bc 5f75 073c c391 78bc
00000030: bc94 1b3c 0d67 a5bb 3f02 d9ba 9a01 3dbb
00000040: 2b5f 323a ed3d 993c c78b 1bbc afca 9d3b
00000050: 72d0 e9ba 7b3a 8abb 37a8 a93a 96ee c2b9
00000060: 4581 e03c 4b9b b03b 27ad b13c 7d4b f93b
00000070: 37b3 02bc d308 80bb ea7a aeba 63ab efbb
00000080: 737d d43a 7249 873c ae9e 023b a7e9 4f3c
00000090: b592 613c 1260 493c 7306 dc3b b464 87bb
000000a0: 6517 f2ba 2095 dfbb a49e 183a f769 6d3c
000000b0: 91ec 3f3c ebc1 e1ba 9361 613c 834f c039
000000c0: eb3e 37bc 2229 653b f35e 0dbc e674 17bc
000000d0: c39a 33bc 680b aa3b b35b 58bc 63ad 6bbc
000000e0: c9e2 123c 18f0 71bb b0a1 ddbb 5829 5dbc
000000f0: eaef 71bb 6894 5f3a 4b18 283c ef37 363c
00000100: da1c dc3b 258f e7bb d748 9fbc 4c56 103c
00000110: 77b4 603c 297c 23bc 9070 c539 8be9 1f3c
00000120: c420 983c cb0d 78bc 4334 11bc e3a3 643b
00000130: 3daf 873b 45f5 d2b9 1b33 013b 43ff a7bb
00000140: d335 b9bb 70de 05ba b259 a83b a050 56bc
00000150: 7f59 983b 987c bfbb ff57 f5ba 6209 77bc
00000160: e793 6cbc f6cf 8abc cfb7 713b b96b 4cbb
00000170: 171b 6c3b b951 32bc 8a7a 8abb 73d7 0fbc
00000180: 80fd a63b 8c78 053c 27b6 79ba eef3 09bb
00000190: 8e36 403c ab38 d1b8 9ab5 8ebc 8a6b d73a
000001a0: ad6d bcba 83fa 37bb a83d bfbb b2a6 5439
000001b0: d9c1 103c 1de4 f2bb 957b 3ebb b63f baba
000001c0: 9733 e33b 03b6 0e3c 1fe5 79bb 055f d8ba
000001d0: 7f01 36ba 8296 69bb 80dd 89bc 0783 12bb
000001e0: 254e 95bb ad1e 3e3b 2863 9b3a 5dc9 0d3c
000001f0: 781f 923b 2a8c 71bb a26d f6ba cabe 243c
00000200: 7ff3 993b 97cc 163a bc3d 0bbc 6369 3cbc
00000210: 5f96 23bb b8fc ba3b be61 43bc 27ee 753b
00000220: bf81 03bc b577 f2bc 7ab7 f9bb 605a b23b
00000230: f723 1e3c d733 d4ba 45b6 693b b30e e63a
00000240: 3b3b c53b 8372 09b9 e322 ecbb 2b70 063c
00000250: eacd c63b 654a 563c 6601 b9bb d99f ad3a
00000260: 6937 443c fcca 103c d744 66bc 63ad 93bb
00000270: ff23 8ebb d3f1 92ba 8d11 453c c818 c3bb
00000280: 6b3b 2dbc 6281 9dba 2090 573c 11c9 133c
00000290: 4335 073c 47d7 0abc 5233 f7ba 98e0 04bc
000002a0: eb70 ceba af3f 3139 bda0 4d3b aae7 713b
000002b0: e4c7 303b b24c 6e3c d9f5 a13b bfd1 04bc
000002c0: 7015 ef3b e0c2 f4ba 1057 66bc abf9 8f3b
000002d0: fe1c 8d3b 6310 c7ba 57d3 fabb 9a51 d63b
000002e0: 46e8 29bc 16e0 1d3b 6bf8 9aba da40 d7b9
000002f0: 2aad 10bc 130d 2e3c 1be6 3e3b 70df ffbb
00000300: beb1 01b9 af01 9f3c ed89 7a3b 8cd6 99ba
00000310: 8b1e f0ba e830 d63a 92be deba 232a 603b
00000320: bc0c 04bc 6fb0 f8bb 3ac9 c43b 0825 14bc
00000330: 67f9 8c3c 6f01 1b3b 1b0f f6b9 8a5e c83b
00000340: 0b10 4bbc 4bd8 49bc 4fdd 23bc 68ae ff3b
00000350: c7ac 093c b7cd 093a a25b 77bc 147b 2dba
00000360: 6756 a93a 867f 88bb d779 1abc 6a22 8b3a
00000370: f361 16bc e748 8fbc b877 8b3b 6021 723c
00000380: 5729 35bc 5607 0b3b 72e0 eebb 6766 e1bc
00000390: eae0 0a3b 1ffe 723b b773 6d3b a0b3 77bc
000003a0: 4130 8ebc a9e6 863b 266b 933c 9f47 a8ba
000003b0: 8a1c 56bc 8a75 4cba 304d 06bc cd45 d63b
000003c0: 7598 63bb de9b 993c 8629 073c d82f c4bb
000003d0: 3208 493b 7e32 403c 57fa c73b 14d6 a1ba
000003e0: 9b1d 00ba 1292 2dbc 72b7 da3b 1362 073c
000003f0: ea22 6cba d263 853c 0b15 b5bb 2002 163b

action_model._discrete_distribution.branches.0.bias f4 [3]
0.0 0.0 0.0
00000000: 0000 0000 0000 0000 0000 0000

action_model._discrete_distribution.branches.1.weight f4 [2, 128]
-0.0027590904 -0.010983512 -0.0005120413 0.007943562 -0.0010212323 -0.011112402 0.0069527454 -0.013387905
0.0017484317 0.00062908075 0.007988652 0.0022817336 0.0010031627 -0.0064279833 0.0102109155 0.002959326
0.002509367 -0.0049876426 -0.005695227 0.019047948 0.0038549227 -0.003602193 0.00036787795 -0.013579704
-0.0034494784 0.0026516821 -0.006351442 -0.0040433286 0.009510248 0.0048141065 0.0029906232 -0.0003310845
0.0033233338 -0.0066075833 0.013106803 0.0015083627 0.0040828874 0.009836704 0.012635502 -0.0076871864
-0.025695235 0.011529012 0.006923576 0.0036591992 -0.009843572 0.009190348 -0.01243915 0.0055706287
-0.0068847737 0.0007126706 0.01091973 0.008097044 0.011974837 0.0005738303 0.0010002755 -0.011564198
-0.0038310331 0.011894449 -0.003939734 -0.00076454965 -0.017256733 -0.0064802156 0.008425306 -0.009707437
-0.0037338834 0.0013661803 0.008611655 -0.004252638 -0.009244985 -0.012599304 0.0013670082 -0.0009401023
-0.0033207424 -0.018241799 0.0046487055 -0.0033671085 0.010710086 -0.0063205073 -0.0071236314 -0.00447859
0.0073955753 -0.007842586 -0.00036523017 -0.012616566 0.004535497 0.009767859 -0.008791807 -0.0048013222
-0.004238783 -0.011255494 0.014731168 -0.007260365 0.0032974936 -0.008213313 0.002807236 0.0075819343
0.004814245 0.010638513 0.0049823453 0.00165366 -0.0043527815 -0.009019644 -0.007081212 -0.0063221576
-0.0013586741 -0.018208897 -0.0006954194 -0.0042276825 0.0071365894 0.0011044623 0.0024193402 0.006746257
0.0118393 -0.0111599425 0.0036493782 -0.001994246 -0.02299206 -0.009714104 0.0005356576 -0.006704508
-0.008464764 -0.007088364 0.015311885 -0.012067072 -0.0128452275 -0.003345209 -0.00685519 -0.002766847
0.006946222 0.0020770004 0.009885674 -0.008217012 0.010018094 -0.003518241 0.0059027113 0.0013948836
-0.017866591 0.008213412 0.0005238402 0.0039436254 -0.0103218 -0.0058492534 0.0060584745 0.0029191584
-0.0099348035 -0.009722488 0.0072723813 -0.01769009 0.0053300015 -0.009748957 0.0025780976 0.005766336
-0.003557777 -0.0018125298 -0.0017712078 -0.003283315 0.0005998655 -0.0021723637 -0.00023353845 0.0019438714
-0.004268418 0.014592771 -0.016336171 0.0112670865 -0.009630843 -0.002512244 0.006258844 0.009714173
-0.006042714 0.015232987 0.0007549829 -0.0024926343 -0.00612338 -0.007613886 -0.0028659352 0.0013633905
0.0010366138 -0.0071061887 0.003080807 0.011552016 -0.0035567698 -0.006279327 0.017548745 -0.021609612
0.0008691907 -0.0040482143 0.010912583 0.010792586 -0.0032203794 -0.007553489 -0.0034602159 -0.009247257
-0.007822329 0.00042766836 -0.0045536417 0.00038873852 0.013599639 0.013951617 -0.008322823 0.002213272
0.0005369442 -0.006074847 -0.0012628881 -0.006314297 -0.006384928 0.005168283 0.004069604 0.009646433
0.0053115645 -0.0019680473 0.017940376 -0.0065403366 -0.011628426 -0.0018763508 0.0103472 0.009428007
-0.0030241436 -0.002067246 -0.0074485713 0.0022380475 -0.009321477 -0.011454034 0.0030023968 0.00060315646
-0.0031096572 0.004164334 0.0052126 0.0017367372 -0.007712496 -0.008231971 0.008632426 0.011751827
0.013838452 -0.00669701 0.0062271915 -0.0017400602 -0.0023473229 0.0010627226 0.005605079 0.00039393525
0.0052868654 0.0053457124 -0.0069105136 0.011806437 -0.007954503 -0.000922261 0.0068527604 0.0037019127
-0.0023314997 -0.0006793964 -0.0063099484 -0.0034311605 0.011645014 -0.020742953 -0.010706272 -0.0050258236
00000000: dbd1 34bb 30f4 33bc 833a 06ba b725 023c
00000010: dfda 85ba cb10 36bc dbd3 e33b f258 5bbc
00000020: a22b e53a e5e8 243a d6e2 023c 2389 153b
00000030: 8e7c 833a d5a1 d2bb af4b 273c 40f1 413b
00000040: 3174 243b 616f a3bb 079f babb 710a 9c3c
00000050: dfa2 7c3b c512 6cbb bedf c039 687d 5ebc
00000060: a510 62bb d8c7 2d3b c21f d0bb e67d 84bb
00000070: dfd0 1b3c a7bf 9d3b 55fe 433b 6995 adb9
00000080: 4acc 593b 6d84 d8bb ebbd 563c 41b4 c53a
00000090: bec9 853b 202a 213c 2305 4f3c cbe4 fbbb
000000a0: d07e d2bc 2ee4 3c3c 2adf e23b 2dcf 6f3b
000000b0: ef46 21bc 1d93 163c 94cd 4bbc d289 b63b
000000c0: ab99 e1bb 84d2 3a3a abe8 323c 77a9 043c
000000d0: 1b32 443c 196d 163a ad1b 833a c377 3dbc
000000e0: 1212 7bbb efe0 423c e218 81bb 0f6c 48ba
000000f0: fe5d 8dbc fd57 d4bb 4b0a 0a3c f10b 1fbc
00000100: 2bb4 74bb 6711 b33a e617 0d3c b759 8bbb
00000110: 4778 17bc 506d 4ebc 2f2d b33a 3371 76ba
00000120: d0a0 59bb d36f 95bc 2b54 983b b5aa 5cbb
00000130: 5b79 2f3c 421c cfbb 5a6d e9bb 23c1 92bb
00000140: 9556 f23b 317e 00bc 5d7c bfb9 b7b5 4ebc
00000150: 829e 943b 5f09 203c 830b 10bc 6954 9dbb
00000160: 7de5 8abb f768 38bc ff5a 713c 5be8 edbb
00000170: c31a 583b 2291 06bc 9bf9 373b e071 f83b
00000180: d0c0 9d3b 284d 2e3c f142 a33b 9fbf d83a
00000190: c7a1 8ebb 21c7 13bc 8309 e8bb 1a2a cfbb
000001a0: 8a15 b2ba d32a 95bc ce4c 36ba 5f88 8abb
000001b0: 0dda e93b 9bc3 903a cb8d 1e3b b50f dd3b
000001c0: a0f9 413c 31d8 36bc 682a 6f3b e5b1 02bb
000001d0: d859 bcbc e827 1fbc 5f6b 0c3a 7db1 dbbb
000001e0: cbaf 0abc 8245 e8bb b3de 7a3c f8b4 45bc
000001f0: ca74 52bc 4b3b 5bbb 80a1 e0bb fd53 35bb
00000200: 229d e33b 491e 083b 86f7 213c a5a0 06bc
00000210: ef22 243c 4a92 66bb 886b c13b 87d4 b63a
00000220: f55c 92bc 8c91 063c 5252 093a 8739 813b
00000230: c41c 29bc 18ab bfbb 2b86 c63b 5a4f 3f3b
00000240: 96c5 22bc 124b 1fbc 284d ee3b cfea 90bc
00000250: 4ba7 ae3b 17ba 1fbc 4df5 283b 88f3 bc3b
00000260: 9829 69bb 6892 edba df27 e8ba e32c 57bb
00000270: 4b40 1d3a 375e 0ebb 00e2 74b9 80c9 fe3a
00000280: 16de 8bbb 8516 6f3c 6fd3 85bc 9699 383c
00000290: afca 1dbc 76a4 24bb fd16 cd3b 3228 1f3c
000002a0: f601 c6bb c793 793c 0bea 453a 775b 23bb
000002b0: a2a6 c8bb e87d f9bb 6ad2 3bbb cbb3 b23a
000002c0: fdde 873a 08db e8bb 5de7 493b ab44 3d3c
000002d0: b218 69bb d0c2 cdbb 63c2 8f3c a406 b1bc
000002e0: 67da 633a e2a6 84bb b1ca 323c 63d3 303c
000002f0: 000d 53bb 4283 f7bb cac4 62bb cf81 17bc
00000300: 3a29 00bc ad38 e039 b736 95bb 9acf cb39
00000310: 05d1 5e3c 5395 643c 735c 08bc 8b0c 113b
00000320: b7c1 0c3a 830f c7bb 7e87 a5ba 2ae8 cebb
00000330: a838 d1bb b35a a93b 505a 853b 130c 1e3c
00000340: a20c ae3b 5bfa 00bb b2f7 923c 5250 d6bb
00000350: 2785 3ebc e3ef f5ba 4d87 293c ed77 1a3c
00000360: b630 46bb a27a 07bb 2513 f4bb 35ac 123b
00000370: 1cb9 18bc b3a9 3bbc dcc3 443b 251d 1e3a
00000380: 64cb 4bbb f774 883b 75ce aa3b 3ba3 e33a
00000390: 1bb9 fcbb 64df 06bc 056f 0d3c bc8a 403c
000003a0: adba 623c 9772 dbbb 780d cc3b bb12 e4ba
000003b0: 8bd5 19bb 0e4b 8b3a cfaa b73b 1889 ce39
000003c0: 713d ad3b 162b af3b 9771 e2bb c96f 413c
000003d0: 9b53 02bc e3c3 71ba 1f8d e03b ca9b 723b
000003e0: 13cc 18bb 8519 32ba afc3 cebb 52dd 60bb
000003f0: bbca 3e3c 20ed a9bc 5c69 2fbc aaaf a4bb

action_model._discrete_distribution.branches.1.bias f4 [2]
0.0 0.0
00000000: 0000 0000 0000 0000

network_body._body_endoder.seq_layers.0.weight f4 [128, 6]
0.4103125 -0.19084719 0.3019595 -0.2974919 -0.8646498 0.2412838 -0.26127186 0.27898803
0.57122636 -1.2180736 -0.6907083 0.22803277 0.6328242 0.13867664 0.25462037 -0.96443874
0.1227785 -0.6108458 -0.7236408 0.31262076 0.22901002 0.4196745 -0.15215605 0.32499585
0.38281912 -0.16448966 -0.2547926 0.12967122 -0.23388076 0.06610175 0.032449223 0.08006445
-0.083136484 -0.11876272 0.3883072 -0.6885123 0.43554884 0.2501719 0.84605044 -0.8410829
0.20011178 -0.1205087 -0.07267954 -0.03353088 -0.27498814 -0.31635597 0.82835984 0.08074105
-0.36712006 0.49355862 0.24125123 0.4246023 -0.44979882 0.78079075 0.54952025 -0.57662886
-0.21881713 0.06077858 -0.9383665 -0.026199013 -0.6773927 -0.25702223 -0.26126978 0.20777702
-0.08510631 -0.24722661 -0.42828193 -0.37898442 0.3776431 -0.2659233 0.26273176 0.41423702
0.5182132 -0.5703633 -0.5418359 0.59779775 -0.30107734 -0.18463187 -0.2532847 0.085083
0.2890863 -0.1197901 0.3570583 -0.5398475 1.0145278 -0.16598022 0.34436312 -0.30224746
0.13723288 -0.12013347 0.5410469 0.1591475 0.23043224 -0.26185542 -0.1011761 0.8749548
-0.6825619 0.49788296 -0.37747082 -0.7726008 0.11220244 0.36138928 0.17318104 0.32842034
-0.2829943 -0.18965052 -0.9867912 -0.048516106 0.08488167 -0.8472452 -0.15705031 0.30386782
-0.26962343 -0.5327657 -0.55787295 -0.103421055 -0.47536847 -0.24748921 0.0594663 0.1019792
0.6525619 -0.17143324 -0.7119201 0.20830506 0.1433181 0.57088107 -0.19405584 0.27649158
-0.27563405 0.3602963 0.12344985 0.23181061 0.918415 -0.23984018 -0.14088954 -0.38519022
0.101078965 0.07184808 0.20362484 0.053990673 -0.16823782 0.5036652 0.21951553 -0.25722265
0.5277815 -0.74241143 0.24331836 0.017494198 -0.12309348 -0.11661472 -0.61234903 -0.2362389
0.47371235 -0.47855133 -0.8630329 -0.10955912 -0.4152399 0.19570313 -0.14556436 -0.35240054
-0.44525605 0.30449465 -0.43266526 0.14968917 0.19289343 -0.053091586 0.55764365 0.111613154
0.038875546 0.34121507 -0.08240026 0.14525013 0.5311116 -0.7271198 0.97928417 -0.34190428
0.113353744 -0.12154913 0.14175048 0.289375 1.0148423 -0.42346886 -0.035745528 0.25221032
-0.0027342078 0.08308569 -0.49464113 -0.44865057 -0.3798617 0.20747757 0.5805932 0.12192719
-0.52504694 0.42416298 0.13991626 -0.12148837 0.39030078 -0.3842099 0.473348 0.35938802
0.30543372 0.62356544 -0.25483495 -0.10928297 0.24730009 -0.3999971 -0.61324614 -0.06129485
0.13267691 -0.1621238 -0.13371687 0.19506282 0.35074472 0.799654 0.39816287 -0.14382125
-0.37688377 -0.48976925 -0.54547364 -0.14708635 0.29841352 -0.8691696 0.43131456 0.35504603
0.008050178 -0.24260397 -0.3042401 0.4823753 0.1421713 0.009815414 0.4509021 -0.14380723
0.27708256 0.56865305 0.4112337 -0.0659196 -0.28928247 -0.14919642 -0.35067526 0.2676403
0.13149816 0.29294792 0.08835611 -0.15149413 -0.63430655 0.071079396 -0.39206645 -0.18674466
0.14797422 -0.020366136 -0.21370663 0.7444559 -0.11301011 0.2985774 -0.31761515 -0.37308115
00000000: 7b14 d23e 726d 43be 709a 9a3e dc50 98be
00000010: b059 5dbf 1a13 773e 6dc5 85be 85d7 8e3e
00000020: e43b 123f d6e9 9bbf 42d2 30bf 6c81 693e
00000030: c400 223f 4001 0e3e 9a5d 823e 75e5 76bf
00000040: 4b73 fb3d 6460 1cbf 8640 39bf d40f a03e
00000050: 9a81 6a3e 93df d63e ccce 1bbe db65 a63e
00000060: de00 c43e fa6f 28be 2d74 82be 88c8 043e
00000070: 707e 6fbe 5b60 873d 7ae9 043d d5f8 a33d
00000080: 7643 aabd de39 f3bd 34d0 c63e 5842 30bf
00000090: 4200 df3e 8816 803e c396 583f 3551 57bf
000000a0: 1aea 4c3e 44cd f6bd 03d9 94bd ad57 09bd
000000b0: 3fcb 8cbe 69f9 a1be 640f 543f 905b a53d
000000c0: 29f7 bbbe b7b3 fc3e 900a 773e 7965 d93e
000000d0: 084c e6be e7e1 473f 5cad 0c3f f39d 13bf
000000e0: 9911 60be f6f2 783d c938 70bf 509f d6bc
000000f0: 9c69 2dbf 6b98 83be 27c5 85be 80c3 543e
00000100: 384c aebd f928 7dbe c547 dbbe 3f0a c2be
00000110: 705a c13e 1927 88be c784 863e e016 d43e
00000120: 9fa9 043f 5403 12bf c2b5 0abf 4609 193f
00000130: cf26 9abe 2310 3dbe 88ae 81be ff3f ae3d
00000140: 1f03 943e 8354 f5bd 58d0 b63e 7233 0abf
00000150: 0cdc 813f b8f6 29be 5d50 b03e 2ec0 9abe
00000160: c786 0c3e 8908 f6bd 0d82 0a3f 90f7 223e
00000170: 6ef6 6b3e ea11 86be 6a35 cfbd 0afd 5f3f
00000180: 60bc 2ebf 84ea fe3e db43 c1be 2bc9 45bf
00000190: 65ca e53d 0408 b93e 5f56 313e b626 a83e
000001a0: a1e4 90be bf33 42be 599e 7cbf d3b8 46bd
000001b0: 71d6 ad3d 10e5 58bf ccd1 20be 9094 9b3e
000001c0: 150c 8abe 5563 08bf c3d0 0ebf 6bce d3bd
000001d0: 7f63 f3be d06d 7dbe ef92 733d 79da d03d
000001e0: 4c0e 273f 328c 2fbe 6540 36bf ec4d 553e
000001f0: fbc1 123e 4325 123f 93b6 46be 4e90 8d3e
00000200: e81f 8dbe c278 b83e 46d3 fc3d c35f 6d3e
00000210: 3f1d 6b3f aa98 75be 5945 10be a737 c5be
00000220: 7d02 cf3d 1625 933d 0883 503e 5325 5d3d
00000230: 8946 2cbe 34f0 003f aec8 603e b0b2 83be
00000240: b01c 073f ad0e 3ebf 7328 793e fe4f 8f3c
00000250: 6f18 fcbd b3d3 eebd e8c2 1cbf 9ce8 71be
00000260: 6d8a f23e ae04 f5be b9ef 5cbf 8860 e0bd
00000270: 539a d4be 6766 483e d30e 15be d86d b4be
00000280: 9af8 e3be b9e6 9b3e 4d86 ddbe 1e48 193e
00000290: db85 453e 9076 59bd bcc1 0e3f 7095 e43d
000002a0: f73b 1f3d beb3 ae3e 78c1 a8bd 73bc 143e
000002b0: eef6 073f 8624 3abf 5eb2 7a3f 140e afbe
000002c0: 0226 e83d c0ee f8bd 0a27 113e f628 943e
000002d0: 5ae6 813f e9d0 d8be e769 12bd b621 813e
000002e0: 6530 33bb d528 aa3d 9a41 fdbe 87b5 e5be
000002f0: 3c7d c2be 0075 543e c2a1 143f f6b4 f93d
00000300: 7a69 06bf e42b d93e 3546 0f3e e5ce f8bd
00000310: 81d5 c73e 29b7 c4be ab5a f23e b501 b83e
00000320: cf61 9c3e fca1 1f3f ba79 82be c0cf dfbd
00000330: 3c3c 7d3e 6bcc ccbe b3fd 1cbf 4f10 7bbd
00000340: 75dc 073e c803 26be 13ed 08be 8cbe 473e
00000350: d094 b33e 20b6 4c3f 01dc cb3e e145 13be
00000360: e9f6 c0be 09c3 fabe 29a4 0bbf ce9d 16be
00000370: a8c9 983e e681 5ebf 43d5 dc3e 98c8 b53e
00000380: e5e4 033c 2d6d 78be 5cc5 9bbe e5f9 f63e
00000390: 5a95 113e d5d0 203c a4dc e63e 3442 13be
000003a0: c4dd 8d3e 3f93 113f 398d d23e db00 87bd
000003b0: d51c 94be f2c6 18be b58b b3be 2608 893e
000003c0: 74a7 063e 45fd 953e 0cf4 b43d 4721 1bbe
000003d0: ea61 22bf 1392 913d efbc c8be fe39 3fbe
000003e0: 8e86 173e e2d6 a6bc e9d5 5abe a994 3e3f
000003f0: d871 e7bd 23df 983e 749e a2be 7e04 bfbe

network_body._body_endoder.seq_layers.0.bias f4 [128]
0.0 0.0 0.0 0.0 0.0 0.0 0.0 0.0
0.0 0.0 0.0 0.0 0.0 0.0 0.0 0.0
0.0 0.0 0.0 0.0 0.0 0.0 0.0 0.0
0.0 0.0 0.0 0.0 0.0 0.0 0.0 0.0
0.0 0.0 0.0 0.0 0.0 0.0 0.0 0.0
0.0 0.0 0.0 0.0 0.0 0.0 0.0 0.0
0.0 0.0 0.0 0.0 0.0 0.0 0.0 0.0
0.0 0.0 0.0 0.0 0.0 0.0 0.0 0.0
0.0 0.0 0.0 0.0 0.0 0.0 0.0 0.0
0.0 0.0 0.0 0.0 0.0 0.0 0.0 0.0
0.0 0.0 0.0 0.0 0.0 0.0 0.0 0.0
0.0 0.0 0.0 0.0 0.0 0.0 0.0 0.0
0.0 0.0 0.0 0.0 0.0 0.0 0.0 0.0
0.0 0.0 0.0 0.0 0.0 0.0 0.0 0.0
0.0 0.0 0.0 0.0 0.0 0.0 0.0 0.0
0.0 0.0 0.0 0.0 0.0 0.0 0.0 0.0
00000000: 0000 0000 0000 0000 0000 0000 0000 0000
00000010: 0000 0000 0000 0000 0000 0000 0000 0000
00000020: 0000 0000 0000 0000 0000 0000 0000 0000
00000030: 0000 0000 0000 0000 0000 0000 0000 0000
00000040: 0000 0000 0000 0000 0000 0000 0000 0000
00000050: 0000 0000 0000 0000 0000 0000 0000 0000
00000060: 0000 0000 0000 0000 0000 0000 0000 0000
00000070: 0000 0000 0000 0000 0000 0000 0000 0000
00000080: 0000 0000 0000 0000 0000 0000 0000 0000
00000090: 0000 0000 0000 0000 0000 0000 0000 0000
000000a0: 0000 0000 0000 0000 0000 0000 0000 0000
000000b0: 0000 0000 0000 0000 0000 0000 0000 0000
000000c0: 0000 0000 0000 0000 0000 0000 0000 0000
000000d0: 0000 0000 0000 0000 0000 0000 0000 0000
000000e0: 0000 0000 0000 0000 0000 0000 0000 0000
000000f0: 0000 0000 0000 0000 0000 0000 0000 0000
00000100: 0000 0000 0000 0000 0000 0000 0000 0000
00000110: 0000 0000 0000 0000 0000 0000 0000 0000
00000120: 0000 0000 0000 0000 0000 0000 0000 0000
00000130: 0000 0000 0000 0000 0000 0000 0000 0000
00000140: 0000 0000 0000 0000 0000 0000 0000 0000
00000150: 0000 0000 0000 0000 0000 0000 0000 0000
00000160: 0000 0000 0000 0000 0000 0000 0000 0000
00000170: 0000 0000 0000 0000 0000 0000 0000 0000
00000180: 0000 0000 0000 0000 0000 0000 0000 0000
00000190: 0000 0000 0000 0000 0000 0000 0000 0000
000001a0: 0000 0000 0000 0000 0000 0000 0000 0000
000001b0: 0000 0000 0000 0000 0000 0000 0000 0000
000001c0: 0000 0000 0000 0000 0000 0000 0000 0000
000001d0: 0000 0000 0000 0000 0000 0000 0000 0000
000001e0: 0000 0000 0000 0000 0000 0000 0000 0000
000001f0: 0000 0000 0000 0000 0000 0000 0000 0000

network_body._body_endoder.seq_layers.2.weight f4 [128, 128]
-0.051607776 -0.00531306 -0.012827999 0.028053792 0.03660313 -0.096767284 -0.012511565 0.07236756
0.09810018 0.0153306015 0.18672419 0.07448016 -0.11918834 -0.094834104 0.03652551 -0.12083711
0.010770739 0.1485226 -0.06093944 0.12013469 0.0072734733 -0.15658343 -0.03165501 -0.08621675
-0.055290747 -0.102325074 0.004884271 0.029207842 -0.027537588 -0.0816199 -0.112960614 -0.12317319
0.073121645 0.018090613 0.005704849 0.11416406 0.15500458 -0.038918473 0.036260284 0.0032465889
-0.012462354 -0.010135719 -0.10583872 0.022897294 0.066503406 0.015956612 0.06333529 -0.15337893
-0.1394995 0.15522407 -0.15692562 0.10895859 -0.18658137 0.14960895 -0.13819705 0.011110851
0.102808066 0.019768942 0.027576778 -0.053236857 -0.14962545 0.021195715 0.03991418 -0.070797056
-0.022033539 -0.0077973907 0.06477506 0.102810636 -0.017390836 -0.020460684 0.0047987243 -0.1054634
-0.019444872 -0.15396117 -0.07027652 -0.009374106 -0.0750692 -0.021700813 -0.11388957 -0.06979694
-0.034487326 -0.044645183 0.026310686 0.043717474 -0.2541766 -0.01949459 -0.025652964 -0.07886629
-0.08863032 -0.02808393 0.11146945 -0.1266684 0.09252276 -0.038002633 0.0030754544 -0.03268476
0.04916177 -0.007913011 -0.016773637 0.04296726 -0.07688855 0.009699827 -0.14332089 0.04097452
-0.028131459 -0.0030505855 -0.09014764 0.06262338 -0.046393838 -0.02564269 0.029675625 -0.14033853
-0.0132761095 0.21256651 0.06490463 0.048985533 -0.019206244 0.106470756 0.16384406 0.1494152
-0.08658227 0.05697361 0.11104093 -0.1733683 0.24172814 -0.044541173 0.067637585 0.08472436
-0.11372132 0.06373141 0.021223472 -0.052266274 0.10806273 -0.1552017 -0.10562123 -0.025472743
0.05080232 0.23577537 0.051940188 0.06475193 0.024600402 -0.0712903 -0.18553114 -0.14387734
0.032254092 -0.0792411 -0.08344757 0.0017171276 -0.016346449 0.11227898 -0.20192677 0.0150455
0.015625406 -0.07874846 0.041252047 0.076273605 -0.063465014 -0.13204509 -0.21346863 -0.18739715
0.0027438235 0.12740828 -0.08430513 -0.0037734075 0.0017785605 0.055285413 -0.05844195 -0.014384718
-0.123659715 0.20922665 0.15650192 -0.12686959 0.114426635 -0.2025207 -0.01975916 0.037020933
0.039496582 -0.0010726934 -0.033164825 -0.1780435 0.026743058 -0.051327694 -0.086703144 -0.029807923
0.0007774363 -0.086688824 -0.033012703 -0.019364819 0.03640848 0.019173082 -0.10994244 -0.2041503
0.0009654725 0.1343866 0.10285228 0.00070445763 -0.18210578 -0.057702716 -0.012809095 0.020807898
0.19118933 0.014855254 0.0038595935 -0.047798056 0.040471442 0.07784165 0.060026176 0.115383506
-0.04547912 -0.076493725 -0.09472869 0.05478293 -0.05647619 -0.031274796 0.031485226 -0.017175471
-0.20386544 0.1907285 0.02849746 0.1303315 -0.046828255 -0.12666765 -0.1912602 0.113180436
0.09709807 0.0018013397 -0.013925561 -0.080596946 0.16839813 -0.064284824 -0.08652869 0.044541527
0.00023567495 0.0063948543 0.11907586 0.026895458 -0.09154585 -0.050509177 -0.08927056 -0.07127261
-0.14615583 0.027763797 -0.16157477 0.10676124 -0.006731375 -0.11043714 -0.06091058 0.017372767
-0.039261106 -0.07757956 -0.22521539 0.13686128 0.22075513 -0.13968512 -0.008940044 -0.053843945
00000000: ad62 53bd 2d19 aebb 872c 52bc 11d1 e53c
00000010: 2aed 153d ed2d c6bd 4ffd 4cbc 7135 943d
00000020: bfe8 c83d 342d 7b3c a034 3f3e 0e89 983d
00000030: 0419 f4bd 6238 c2bd c69b 153d 7279 f7bd
00000040: c177 303c 4f16 183e a29b 79bd 2d09 f63d
00000050: 5156 ee3b 6857 20be afa8 01bd 6892 b0bd
00000060: 8d78 62bd cf8f d1bd 3c0c a03b 4945 ef3c
00000070: 8296 e1bc 5628 a7bd e557 e7bd 3a42 fcbd
00000080: cdc0 953d c432 943c beef ba3b d9ce e93d
00000090: 85b9 1e3e fa68 1fbd aa85 143d b9c4 543b
000000a0: e72e 4cbc 4910 26bc f9c1 d8bd 1b93 bb3c
000000b0: f032 883d 71b7 823c efb5 813d 5e0f 1dbe
000000c0: f5d8 0ebe 0ff3 1e3e 1cb1 20be ae25 df3d
000000d0: 300f 3fbe 1733 193e 8783 0dbe 490a 363c
000000e0: 098d d23d 7af2 a13c b2e8 e13c e40e 5abd
000000f0: 6a37 19be a3a2 ad3c 0d7d 233d 0cfe 90bd
00000100: ae7f b4bc 4181 ffbb c9a8 843d 628e d23d
00000110: 3a77 8ebc 2a9d a7bc 9e3e 9d3b 32fd d7bd
00000120: da4a 9fbc ffa7 1dbe 23ed 8fbd da95 19bc
00000130: e1bd 99bd e7c5 b1bc ef3e e9bd b3f1 8ebd
00000140: 9542 0dbd dedd 36bd 8289 d73c 1811 333d
00000150: 6f23 82be 1eb3 9fbc 2a26 d2bc a684 a1bd
00000160: d083 b5bd 4510 e6bc 184a e43d 5cb5 01be
00000170: 937c bd3d a6a8 1bbd 908d 493b 74e0 05bd
00000180: da5d 493d 93a5 01bc de68 89bc 70fe 2f3d
00000190: be77 9dbd 06ec 1e3c b6c2 12be e6d4 273d
000001a0: f273 e6bc 55ec 47bb 539f b8bd b040 803d
000001b0: 7707 3ebd 9e10 d2bc 4c1a f33c e7b4 0fbe
000001c0: 0a84 59bc 09ab 593e b8ec 843d 0ea5 483d
000001d0: 6a56 9dbc 570d da3d bdc6 273e 4c00 193e
000001e0: 0c52 b1bd 295d 693d 6d69 e33d 7687 31be
000001f0: 9587 773e ce70 36bd 9385 8a3d f783 ad3d
00000200: b9e6 e8bd 9d85 823d d9dc ad3c 2915 56bd
00000210: fe4f dd3d 32ed 1ebe f24f d8bd 37ac d0bc
00000220: 1816 503d 196f 713e 3cbf 543d a99c 843d
00000230: c886 c93c a600 92bd e0fb 3dbe 9554 13be
00000240: de1c 043d 2849 a2bd 8fe6 aabd 3e11 e13a
00000250: fde8 85bc 86f2 e53d e4c5 4ebe 6781 763c
00000260: da00 803c df46 a1bd e8f7 283d 5635 9c3d
00000270: f2f9 81bd d436 07be 8597 5abe 0ae5 3fbe
00000280: b8d1 333b 5177 023e 2ba8 acbd 464b 77bb
00000290: 961e e93a f572 623d d360 6fbd e1ad 6bbc
000002a0: 4e41 fdbd 833f 563e 0a42 203e 1aea 01be
000002b0: 8358 ea3d 9661 4fbe f6dd a1bc 43a3 173d
000002c0: 2bc7 213d 9e99 8cba d7d7 07bd 0951 36be
000002d0: 4214 db3c fd3c 52bd 6b91 b1bd bf2f f4bc
000002e0: decc 4b3a e989 b1bd 5438 07bd f8a2 9ebc
000002f0: 0f21 153d de10 9d3c 8129 e1bd c70c 51be
00000300: c317 7d3a a49c 093e 37a4 d23d 5aab 383a
00000310: f079 3abe af59 6cbd 3ddd 51bc 5375 aa3c
00000320: 23c7 433e 7463 733c 3cf1 7c3b e5c7 43bd
00000330: 62c5 253d 716b 9f3d 02de 753d 304e ec3d
00000340: 5048 3abd bea8 9cbd 1e01 c2bd 1164 603d
00000350: 9453 67bd 001a 00bd a7f6 003d 93b3 8cbc
00000360: 1ac2 50be 554e 433e 8173 e93c 9f75 053e
00000370: fcce 3fbd 2ab5 01be b7d9 43be 25cb e73d
00000380: 5adb c63d ee1a ec3a 0928 64bc 0310 a5bd
00000390: 8f70 2c3e c3a7 83bd f435 b1bd 2d71 363d
000003a0: 831f 7739 ed8b d13b 0bde f33d dd53 dc3c
000003b0: 647c bbbd b6e2 4ebd 7cd3 b6bd 60f7 91bd
000003c0: e0a9 15be e770 e33c db73 25be a3a5 da3d
000003d0: de92 dcbb de2c e2bd 5f7d 79bd 5551 8e3c
000003e0: 41d0 20bd 08e2 9ebd dd9e 66be 5d25 0c3e
000003f0: a20d 623e 9e09 0fbe 4379 12bc 788b 5cbd

network_body._body_endoder.seq_layers.2.bias f4 [128]
0.0 0.0 0.0 0.0 0.0 0.0 0.0 0.0
0.0 0.0 0.0 0.0 0.0 0.0 0.0 0.0
0.0 0.0 0.0 0.0 0.0 0.0 0.0 0.0
0.0 0.0 0.0 0.0 0.0 0.0 0.0 0.0
0.0 0.0 0.0 0.0 0.0 0.0 0.0 0.0
0.0 0.0 0.0 0.0 0.0 0.0 0.0 0.0
0.0 0.0 0.0 0.0 0.0 0.0 0.0 0.0
0.0 0.0 0.0 0.0 0.0 0.0 0.0 0.0
0.0 0.0 0.0 0.0 0.0 0.0 0.0 0.0
0.0 0.0 0.0 0.0 0.0 0.0 0.0 0.0
0.0 0.0 0.0 0.0 0.0 0.0 0.0 0.0
0.0 0.0 0.0 0.0 0.0 0.0 0.0 0.0
0.0 0.0 0.0 0.0 0.0 0.0 0.0 0.0
0.0 0.0 0.0 0.0 0.0 0.0 0.0 0.0
0.0 0.0 0.0 0.0 0.0 0.0 0.0 0.0
0.0 0.0 0.0 0.0 0.0 0.0 0.0 0.0
00000000: 0000 0000 0000 0000 0000 0000 0000 0000
00000010: 0000 0000 0000 0000 0000 0000 0000 0000
00000020: 0000 0000 0000 0000 0000 0000 0000 0000
00000030: 0000 0000 0000 0000 0000 0000 0000 0000
00000040: 0000 0000 0000 0000 0000 0000 0000 0000
00000050: 0000 0000 0000 0000 0000 0000 0000 0000
00000060: 0000 0000 0000 0000 0000 0000 0000 0000
00000070: 0000 0000 0000 0000 0000 0000 0000 0000
00000080: 0000 0000 0000 0000 0000 0000 0000 0000
00000090: 0000 0000 0000 0000 0000 0000 0000 0000
000000a0: 0000 0000 0000 0000 0000 0000 0000 0000
000000b0: 0000 0000 0000 0000 0000 0000 0000 0000
000000c0: 0000 0000 0000 0000 0000 0000 0000 0000
000000d0: 0000 0000 0000 0000 0000 0000 0000 0000
000000e0: 0000 0000 0000 0000 0000 0000 0000 0000
000000f0: 0000 0000 0000 0000 0000 0000 0000 0000
00000100: 0000 0000 0000 0000 0000 0000 0000 0000
00000110: 0000 0000 0000 0000 0000 0000 0000 0000
00000120: 0000 0000 0000 0000 0000 0000 0000 0000
00000130: 0000 0000 0000 0000 0000 0000 0000 0000
00000140: 0000 0000 0000 0000 0000 0000 0000 0000
00000150: 0000 0000 0000 0000 0000 0000 0000 0000
00000160: 0000 0000 0000 0000 0000 0000 0000 0000
00000170: 0000 0000 0000 0000 0000 0000 0000 0000
00000180: 0000 0000 0000 0000 0000 0000 0000 0000
00000190: 0000 0000 0000 0000 0000 0000 0000 0000
000001a0: 0000 0000 0000 0000 0000 0000 0000 0000
000001b0: 0000 0000 0000 0000 0000 0000 0000 0000
000001c0: 0000 0000 0000 0000 0000 0000 0000 0000
000001d0: 0000 0000 0000 0000 0000 0000 0000 0000
000001e0: 0000 0000 0000 0000 0000 0000 0000 0000
000001f0: 0000 0000 0000 0000 0000 0000 0000 0000
